lstm_gk_model.pt (torch, 242981 bytes, 9 tensors)

lstm.weight_ih_l0 f4 [256, 36]
00000000: 3752 e73d e7ba f23d e14e 34bc 1c2a eb3d
00000010: 74ff 89bb d9a2 273c b964 21bd f84e ac3d
00000020: 5f2f fb3d 1e25 9dbd 1360 fa3d d256 573c
00000030: 32ca d03d c955 683d fc08 b63d 71c0 07bd
00000040: 103d a23d 385b 973c 3c17 10bd 4533 8a3c
00000050: 5505 14bd 3aec 80bb c586 b5bc a4aa 8c3d
00000060: eb64 eabd aad2 16bd 1ca4 9dbc 7e05 e2bd
00000070: 187b 1cb9 f904 acbd cd40 203e f2b2 e7bd
00000080: 8694 1e3e 4f60 e23c 0291 9abd f95e 283d
00000090: 6926 36bc 3e08 873d 8e0d 983c 9878 21bd
000000a0: a99d 7fbb 2a2f 95bd 9fc9 483c 70c5 883d
000000b0: 5c18 1d3d 4435 81bd 7809 a83d 16ea 5abb
000000c0: cd00 013d 35da 1abe 41ea 44be 522e 84bd
000000d0: 060a e2bd d60e d23d 323d c2ba ef35 523c
000000e0: 80cf 56ba 3c7d 40bd 92bc ef3c 3529 d7bd
000000f0: 7506 d9bb 75de 3bbd f905 e13b 4a42 91bd
00000100: e940 3f3c 7fda 5abd 03aa 883d 48bd dbbd
00000110: a060 d4bd 5486 08be 0d8a 353e c79e f53c
00000120: 490c 143e 7594 d1bd fdf2 f0bd fe48 c8bd
00000130: 0bbb dbbd 3b97 6b3d 047a e13c c17c cf3d
00000140: 5c8e 66bd d7b2 80bd 19ee 0f3d 04a7 32bd
00000150: 91ef ae3d 7c02 36bd 1fe0 6d3d 7227 e8bd
00000160: 662a 9fbd c418 1c3d d223 533b 48a8 ccbc
00000170: 4497 6a3d 45cd a83d 8926 d5bd c7cc a6bd
00000180: 5ab0 cf3d cd24 43bd 0979 98bd 1554 1cbe
00000190: ecf3 acbd 6f1e 0a3c 9ee0 3ebd 471e eabd
000001a0: e163 233c 041f a9bd aab7 d2bd 563e 7abd
000001b0: 3e03 93bd de00 77bd ae6d d63d 7068 c13c
000001c0: 5154 a83b a828 13be 564d eebd 5e6e a0bd
000001d0: 4b32 2c3d 02b3 bcbd d6e3 c8bd 350d cbbd
000001e0: e70f c53c 95f5 9fbd 740c 20bd aaf5 89bd
000001f0: 7902 80bd d259 95bd 16ff 9bbd 9bcd 00be
00000200: f47a 903d b30d 7cbd 1bfa 9d3d 40fa 623d
00000210: 5bb0 aabd e949 703d 25ca 8ebd 9a78 d8bd
00000220: 4503 e7bd 327a 26be 2e93 b93b 09bd a7bd
00000230: 991e b23c 62df 90bd 465f d53d b4f0 82bd
00000240: 16d0 693c 46d5 36bc 3418 2a3d e4ab ce3d
00000250: 0e41 003e 13d5 c3bd ac71 0d3d ba96 59bd
00000260: 4d34 31bd 2110 ecbd e0e7 a43d 1ea8 e6bd
00000270: c03a 113d 4e6c 8f3d f10d 5b3d 76d2 54bd
00000280: 80de 033e 4006 e13c 11f0 e03c 0a72 dabd
00000290: a985 633d 7e59 94bc f0e1 35bd cc00 f83d
000002a0: c272 283d 4bfe c1bd fecd 46bd 5920 f53b
000002b0: 7b98 793d ee60 70bd 480d c2bd e38e 49bd
000002c0: 2442 85bd 63c4 e83b 4146 fd3d 1e55 fabd
000002d0: 329b eb3c c5cb da3c 989e 28bc f855 36bd
000002e0: d131 763d ef76 5d3d cb36 b53c fa3c 49bd
000002f0: 18ad 99bd c1fa babc b834 43bd 8edd 4abd
00000300: 1376 183d 01ea d33d 7fa6 bcbc 37b0 2a3b
00000310: f497 013d a090 f4bb fd19 cc3c 69c3 bf3c
00000320: c277 0dbe ac1b 96bd 0cc4 c13d 0edc 9d3d
00000330: 2a88 af3c 92e3 dcbd bfd1 56bd 7a4b c0bd
00000340: 1ec8 94bd 31d6 493c 384e 213d 2a1b 963d
00000350: a1c8 e4bd a46b 93bd 0949 663c f5d9 243e
00000360: 1d6c 473d 0a50 43bc 307b 623d e802 43bd
00000370: ef54 71bd b39d 813d f734 b6bc 38d2 57bb
00000380: a6d9 d4bd e930 bc3d 16b5 ec3d cd40 693c
00000390: 6dd7 8fbd 6abf 81bd 67b9 44bd da76 a03d
000003a0: 7384 303d d66c d73d 6924 b33d d7cd 713b
000003b0: a8b0 083d 4f1d 96bd 548e 5bbd 0628 08be
000003c0: 4e67 073d f58f 8abd 524a ef3b d21e 06bd
000003d0: eb5d 92bc 18d7 45bd 03fa 29bd c236 983d
000003e0: 7068 8abd d96a 953d e2f0 e9bc 4965 adbd
000003f0: 1e04 193d 20f1 96bc e478 b4bb fcb5 f3bd
0.11294978 0.11852055 -0.011005134 0.11482641 -0.0042113606 0.010231697 -0.039402697 0.084134996
0.12264895 -0.07673095 0.12225356 0.013143258 0.10194816 0.056722436 0.088884324 -0.03314251
0.07921803 0.018476114 -0.035178408 0.01687015 -0.036137898 -0.0039344104 -0.02215899 0.068684846
-0.1144503 -0.036822 -0.019243293 -0.11036204 -0.00014923175 -0.08399386 0.1564972 -0.11313428
0.15486345 0.027633814 -0.07547189 0.041106198 -0.011117556 0.06593369 0.01856115 -0.039421648
-0.0039003885 -0.072843865 0.012255101 0.06678283 0.03835331 -0.06308988 0.08204931 -0.0033403686
0.031494904 -0.15122302 -0.19229986 -0.064541474 -0.11037068 0.10256736 -0.0014819263 0.012830242
-0.0008194372 -0.046994433 0.029264722 -0.105059065 -0.006623084 -0.04586645 0.006867167 -0.07092722
0.011673191 -0.05343103 0.06673052 -0.10729462 -0.10369992 -0.13332492 0.17728443 0.029982937
0.14457811 -0.10233394 -0.11765096 -0.09779547 -0.10729035 0.05751727 0.027524002 0.10131217
-0.05628811 -0.06284111 0.035139177 -0.04361631 0.085417874 -0.044435963 0.058075067 -0.113356486
-0.07771759 0.038109556 0.0032217395 -0.024982587 0.057273164 0.08242277 -0.104077406 -0.08144527
0.10141058 -0.047642518 -0.074449606 -0.1526645 -0.08444962 0.0084301075 -0.04660093 -0.11431556
0.009972543 -0.08257869 -0.102889374 -0.061094604 -0.07178353 -0.06030356 0.104701385 0.02360937
0.0051370044 -0.14370978 -0.116358444 -0.07833551 0.04204015 -0.092138305 -0.09809081 -0.099146284
0.024055434 -0.07810513 -0.039074376 -0.0673631 -0.062504716 -0.072925225 -0.07617013 -0.12578432
0.070547014 -0.061536502 0.077137195 0.05541444 -0.083344184 0.058664236 -0.0697215 -0.10569878
-0.112799205 -0.16257551 0.005663297 -0.081903525 0.021743106 -0.07073857 0.104185626 -0.06393567
0.014270803 -0.011159247 0.04152699 0.10091379 0.12524816 -0.09562125 0.034532234 -0.05312226
-0.04326277 -0.11526514 0.08052039 -0.112625346 0.03545642 0.07003079 0.053480092 -0.051958524
0.12877846 0.0274688 0.027458223 -0.106662825 0.05554739 -0.01810908 -0.044404924 0.12109527
0.041125067 -0.09472331 -0.048536293 0.007480663 0.060936432 -0.05868619 -0.094751894 -0.049208533
-0.06506756 0.0071034892 0.123669155 -0.12223266 0.028760526 0.026708493 -0.010291718 -0.04451558
0.060106102 0.054068502 0.022120854 -0.049130417 -0.07503718 -0.022824647 -0.0476577 -0.049527697
0.03722198 0.10347367 -0.02302861 0.0026044974 0.031639054 -0.0074635297 0.024914736 0.023408609
-0.13815215 -0.07329497 0.09461221 0.07707988 0.021427233 -0.10785593 -0.052446123 -0.09389396
-0.07264732 0.012319134 0.039381236 0.073294 -0.111710794 -0.07198265 0.014055499 0.16098769
0.04868709 -0.011920938 0.055293262 -0.047610193 -0.05891889 0.06328907 -0.022242052 -0.0032931697
-0.10393076 0.09189016 0.11557977 0.014236641 -0.07023511 -0.063353375 -0.048028376 0.07835169
0.043095063 0.10518806 0.08747179 0.0036896372 0.033371598 -0.07329809 -0.05360253 -0.13296518
0.033057503 -0.06765739 0.007302561 -0.032744236 -0.01786705 -0.048300833 -0.041498195 0.07432319
-0.06758201 0.0729577 -0.028557245 -0.08466584 0.037357442 -0.018425524 -0.0055075753 -0.11899945

lstm.weight_hh_l0 f4 [256, 64]
00000000: 68fa 983d b440 00be 1199 a3bc a236 2a3c
00000010: d328 9c3d 7050 803d 3f28 213e 44ad f7bd
00000020: 42df a53b e1b1 6abd 8e02 a33d 415c f93d
00000030: 9927 723d bb65 9bbd 1622 c4bd ba5c ed3c
00000040: 55e4 09be 4005 b7bc 44d4 d5bd cf09 023d
00000050: 7a47 9ebd d88c 9ebd eb6f 9b3d ba06 d2bd
00000060: b119 083c f50f 0f3e 1b20 b93d a7e7 c9bd
00000070: 88ae 413d 1518 d1ba da78 5a3d 5f97 ab3d
00000080: be54 873d 7c97 4fbc 020c 9e3d bcdc fcbd
00000090: 0398 233e 1358 693d abca b5bd 233a 2f3c
000000a0: 81a1 e4bd e308 c7bd 4fa9 013d 3643 73bc
000000b0: aa08 e83d 439b 2bbd 79c3 963d 5bee 96bd
000000c0: ca8e a33b 6494 5dbd 13c6 8dbc dc3c f7bc
000000d0: 17de 0ebe 7510 26be 0b77 3d3d 7efa ba3b
000000e0: d6dc 0abe cb56 523d 7dd1 4bb9 5a41 d6bd
000000f0: 2314 eabc 627f d83c 7b00 cf3d b8ee dcbd
00000100: 139e b1bd bb56 04be 043c 08be f75b 1f3b
00000110: e633 093d 5c13 653d ed8c e23c a613 0d3d
00000120: 5d7e babc 7a62 1abe f33d 173e 2996 bc3d
00000130: dd21 edba 2c80 d3bb 1509 953b 0f6e eb3d
00000140: 494e 39bc 4c42 1abd b7e4 acbd 4d98 c7bb
00000150: 6b09 ff3d a372 d1bd cd0d 113c cfbf 6b3c
00000160: e28f 633d 2c61 653d 024d 50bd 0086 e7bb
00000170: ee0c 1fbe e287 a13d ca79 febd 947c 73bd
00000180: 4b29 debd 65da adbd 8c2e f13c bc50 433d
00000190: fdbc afbd 90a2 3d3d 837c 08bd 02c2 d63d
000001a0: d9f5 673d 6df1 0e3d 62fc ca3c 53d4 03be
000001b0: 2ce8 1a3e c94d 03be 8cf5 14be c310 adbd
000001c0: 9a4c 1ebd 7ac5 b63d ab0a 213d 7799 a9bd
000001d0: 9c77 dc3d adc6 a63d 55d6 053d 35ca 1bbe
000001e0: 10af 653d ad18 5c3c 31f3 083c 857f e1bd
000001f0: 85df 3a3d 8021 bf3b d798 d3bd 7fbf 153e
00000200: 3e94 cb3d 724d ab3c a085 5e3d 1377 a03d
00000210: 9b90 dcbc 4d3e b7bb 49fb 7e3d ca03 3e3d
00000220: 0fdf 15be 2a86 c9bd 71ad 82bd 6166 52bc
00000230: 3f2e ec3d 4c0a 7c3d 04f7 87bb 2781 3abc
00000240: 9e24 9abc 939a cd3d d08e e83c 7399 42bd
00000250: 46f0 86bd 8b4b 0cbe 4cc0 e7bc 596d db3d
00000260: 5fbb 1c3c 358a adbd b20c 873b 9c93 d7bd
00000270: cdb7 cc3c 4f09 cd3d d045 263d 173a e9bc
00000280: 9e10 fcbc fe23 e03c a3c5 c73d 6ac9 afbd
00000290: a181 d2bc 4e8d 883a 3477 563c 5fb3 9abd
000002a0: f53f fabd 0654 dd3d e817 0cbd 0ff9 733d
000002b0: 8663 c63d 25b3 eabc 6f2e 58bd 74a6 5b3d
000002c0: f257 b03c 6151 ffbd df5c 033e 6c3e 7dbd
000002d0: 5189 0dbd c3e6 bfbd 984d debc 1f84 a23c
000002e0: 25c3 263e d3e4 0abd 7af4 703d f1f8 3c3c
000002f0: b089 543d acf4 9d3a 9c04 08bc 46fd 383d
00000300: ff6a 53bd 7a1d ff3b 7553 21be dc8e 78bd
00000310: b33e c73d 5a6c 5fbc 18cc 14be 3c4e 96bd
00000320: 1a09 b73d d01f 57bd d0e0 e5bd 8d98 68bd
00000330: 82f0 9dbc 5165 b2bd 3e82 c5bd dba4 0a3d
00000340: 85fb 773d 60f6 f93c 5714 30bd 2aca 44bd
00000350: 6662 04bd 0064 aebd ee68 c3bd d18a 9cbd
00000360: 8cc0 913c dda9 0e3c 251e 383d bba1 ae3b
00000370: 8bc3 34bd e0a8 ab3c 25ac 58bc 676f 23bd
00000380: ac7b 1bbd c3c4 7abd e57a bdbd c36c 28be
00000390: 5ed8 8cbd 6a37 583c 4b9a afbd e984 d03d
000003a0: b978 02be e8f9 d13d 969b fcbd 0996 9c3c
000003b0: cb1c acbc c561 3bbd ef21 0cbe 5f5b f5bd
000003c0: dab2 cebd 166a 5bbd c941 143e 7ff8 8b3b
000003d0: 86d9 ad3c e8bb 20bd c8ce c5bd 8861 bebd
000003e0: 4952 553c 3e0d 02be 9b4d b03d df96 cdbd
000003f0: 9a72 e7bd 3408 083d 16e3 483b 8dbd be3d
0.07469636 -0.12524682 -0.019970449 0.010389002 0.07624974 0.06265342 0.15738009 -0.12093595
0.005062015 -0.057298545 0.07959472 0.12175799 0.059119795 -0.07587763 -0.09576814 0.02897488
-0.13466008 -0.02234137 -0.10440877 0.031747635 -0.07728477 -0.077417076 0.07589706 -0.10255189
0.008306907 0.13970931 0.09039327 -0.09858637 0.047285587 -0.0015952612 0.05333791 0.08378481
0.0660796 -0.012670394 0.07717134 -0.12346789 0.15975957 0.05696876 -0.088765465 0.010695013
-0.11163617 -0.09718492 0.031655606 -0.014847567 0.113297775 -0.041896116 0.07361502 -0.073696814
0.004991387 -0.054096594 -0.017306363 -0.030180387 -0.13951908 -0.16217215 0.046256106 0.0057061305
-0.13560805 0.051352303 -0.00019437629 -0.104616836 -0.028574055 0.026427928 0.101075135 -0.107877195
-0.086727284 -0.1292371 -0.13304144 0.002431629 0.03349676 0.055926666 0.02765509 0.034442566
-0.022765333 -0.15076628 0.14769726 0.09208328 -0.0018091757 -0.0064544883 0.004548202 0.114956014
-0.011310169 -0.037660882 -0.084420614 -0.0060911537 0.12452968 -0.10226943 0.008853388 0.014388992
0.05555714 0.056000873 -0.05085469 -0.0070655346 -0.15532276 0.07887246 -0.12425573 -0.05944498
-0.1084772 -0.08488921 0.02944114 0.047684416 -0.085809685 0.04629761 -0.03332187 0.10486223
0.056630943 0.03489821 0.024778549 -0.12873964 0.15127629 -0.12822641 -0.14546794 -0.08450463
-0.03864727 0.089243844 0.039316814 -0.08281224 0.10765001 0.08143363 0.032675106 -0.15213855
0.056075156 0.013433618 0.008358763 -0.110106505 0.04562332 0.005832851 -0.10331886 0.14623831
0.09940384 0.020910952 0.054326653 0.078352116 -0.026924422 -0.0055921436 0.062251363 0.046390332
-0.14635871 -0.09840043 -0.063807376 -0.012841792 0.11532258 0.061533257 -0.0041493196 -0.011383331
-0.018816289 0.10039248 0.02838841 -0.04750962 -0.06588797 -0.13700692 -0.028289936 0.10714216
0.009566157 -0.084736265 0.0041213864 -0.10526201 0.024989987 0.10011541 0.040593922 -0.028470082
-0.030769642 0.027360912 0.09754493 -0.085833386 -0.025696578 0.0010418089 0.013089944 -0.075537436
-0.1221923 0.10807042 -0.034202486 0.059563693 0.09686951 -0.028649876 -0.052778658 0.05362554
0.02152631 -0.12466694 0.12828396 -0.06182711 -0.034554783 -0.09370186 -0.027136609 0.01983839
0.16285379 -0.03390963 0.0588269 0.011533962 0.05188912 0.0012051067 -0.00830188 0.045163415
-0.05161571 0.0077854963 -0.15754493 -0.060683116 0.09728756 -0.013636673 -0.1453098 -0.07339141
0.08937283 -0.052520573 -0.1122452 -0.05678611 -0.019279722 -0.08710731 -0.09643982 0.033848625
0.060542602 0.030512989 -0.042988148 -0.04804436 -0.032320403 -0.08515167 -0.09541498 -0.07643665
0.017792009 0.008707491 0.044950623 0.0053293384 -0.044131797 0.02095455 -0.013224636 -0.039901163
-0.03795974 -0.061222803 -0.09251956 -0.1644774 -0.06877206 0.0131968055 -0.08574351 0.101816006
-0.12741365 0.10252744 -0.12334363 0.019114511 -0.021009823 -0.045747537 -0.1368482 -0.11980318
-0.10092707 -0.05356797 0.1447822 0.0042715664 0.021221887 -0.0392417 -0.09658581 -0.09295946
0.013020107 -0.12700364 0.08608552 -0.10038542 -0.113011554 0.033210948 0.0030652932 0.09313498

lstm.bias_ih_l0 f4 [256]
00000000: 41a1 c8bd 3cc6 9abc c157 ce3d 3d1f 46bd
00000010: 4611 55bd c14b 3c3d 8525 d73c ef42 dc3d
00000020: f485 7bbd 17b9 343d 3fb0 67bd 2cb9 ac3d
00000030: c1fd 7f3d b188 c5bb 1138 e43d 9e34 e73d
00000040: 4eb2 85bd 4d45 d8bd 8df3 af3d 6d44 d1bd
00000050: 5e5d 653d d2d4 023d 8ad6 933d aedc c13d
00000060: 4d57 20bd a2cf 933c 0d83 36bd 73c2 ed3d
00000070: cba5 7d3d b768 0d3e 9dd8 de3d 75b1 b03d
00000080: cee6 e63d 8f37 7a3c 7723 97bd 8ba6 d7bc
00000090: abd4 92bc 5770 c4bc 4417 76bd 7b0d bbbd
000000a0: 0391 7e3d 9500 45bd e9a6 98bd 461b 8e3d
000000b0: 15e8 8ebd 1403 083d 8dfb 433c 8778 c63d
000000c0: d78a f53d 4240 533d 5cda 97bd ed81 073c
000000d0: 025b 9e3d 92e7 76bd 36a8 b6bd 6883 d7bd
000000e0: d0d0 efbc 6ee4 ae3d 71c5 29bd b83a b63d
000000f0: d39f 15bd 4279 94bb beea 1c3a e546 163e
00000100: 24d9 d73c e39a 46bd dd7b e33d 2eaa d93c
00000110: 7ce7 003e b0cf 403d 74a2 9cbd b03d d73c
00000120: 5597 4abd eecd 86bd c5ea f23c 0d12 563d
00000130: c92d 56bd a550 febc 756a c2bc 949f d73d
00000140: e869 103d 0cbd dcbc 1d7b 38bd 3016 fabc
00000150: cd98 1c3d 8dd3 4b3d 0395 a1bc 148e cebc
00000160: b90b 95bd fed5 de3d ff82 adbc 7a87 0a3e
00000170: 0540 963b f931 e9bb d448 64bd 238c be3c
00000180: 7e9b 0f3d 28b2 223d dfde 11bd b299 e43d
00000190: e7c3 333d b66b 263c c924 b9bd 1bdb 7e3d
000001a0: 94e1 1f3d e49f b23b 35cf aabd 1425 873d
000001b0: 3784 953d 19b8 7f3d d720 53bd 45bd cd3d
000001c0: 8418 ef3d 7724 b23c 1ea2 e43d f1a1 c6bd
000001d0: 90fc ee3d c70a bb3b c6c2 a03d 7cf8 c93d
000001e0: a76c db3d 2a69 173d 0404 363d e61e 163e
000001f0: 3b8a 68bd c9e4 103e c1f6 053d c424 c33d
00000200: e5d9 f7bc 47ad 3fbd 9331 18bd 52a7 aa3b
00000210: 4244 01be 4971 f23d 7363 9e3d 4080 0ebe
00000220: b986 b33d 3e05 d6bd ebad 9dbd e285 063e
00000230: f32b 453c f5d7 b43d 36fb ca3d 7272 2e3d
00000240: 5c6f 03be 46c3 9d3d c694 c3bc 46d6 abbd
00000250: 95e9 79bd 0b19 fd3d c87c 86bd f34e ae3d
00000260: ff63 1e3d 4c41 09bd 513d 443d fdc6 043e
00000270: b2a7 903d 6fc7 043d 7926 243d 446d 353d
00000280: 94fc 9abd bcc5 6fbd 855d aa3d c430 ed3d
00000290: 9e35 3a3c f498 35bd b646 afbd 7fb4 af3c
000002a0: e356 e9bd db8a 56bd dd90 ffbc 7316 793d
000002b0: f976 dd3d 3c56 40bc 49f0 1cbc d9aa afbd
000002c0: 9852 fbbd 912c aebd 8330 53bb 5487 093d
000002d0: 947f a23d 64a2 1f3d 05dd dbbc 37da 62bd
000002e0: a2be c73d 0602 0fbe ddcf 26bc 8272 a23c
000002f0: b42f 1bbe f301 003e fe16 7abd 783b 0e3e
00000300: d8e5 2bbb 1d68 c8bc 0105 8e3d 71e2 4abd
00000310: a02f 98bd 4f51 453b 0565 c43d 1712 733d
00000320: ee9e fc3d 7717 c2bc e39f b13c 65fb 5cbc
00000330: f8e5 0c3e 0eee c83c d12c babd 74b1 493d
00000340: d41e b6bd 83b5 c63c 7823 823d 8b3e 76bd
00000350: 37c5 a0bd 5fe1 0b3c c4fb 6fbd 1c5b 1c3e
00000360: c01b c5bc 2419 8bbc 33d6 003e aaca 8c3b
00000370: b79b 013d 6549 cbbd 8c80 9f3d b92a f03d
00000380: c9dd b1bd 11a6 093e 5b15 d43d 53ce d53d
00000390: a403 bc3c 1560 943c c1cb eb3d cf1e bc3d
000003a0: be8d 06bd df14 17bd b1cb 173e 8dca bfbc
000003b0: 7e6f 6cba 956f 9dbd d436 413d ac57 a93b
000003c0: 795c 0a3e 05bb 6bbd c0ff 7a3d 4591 6fbd
000003d0: ca3e 6abd a153 9dbd 5af2 053d b089 223d
000003e0: cffe 0a3e 82ba 1a3e e839 5d3d 417d 063d
000003f0: d7e5 ce3d 669a b3bd 0e58 113e 8a44 9ebd
-0.09796382 -0.018893354 0.100753315 -0.048369635 -0.052018426 0.045970682 0.026263008 0.10754954
-0.061407045 0.044121828 -0.056564566 0.08433756 0.062497858 -0.006028258 0.11143506 0.11289333
-0.065281495 -0.10560093 0.085913755 -0.10218129 0.055997245 0.031941243 0.072186545 0.094659194
-0.039145757 0.018043343 -0.044558574 0.11609354 0.06192569 0.13809477 0.108811595 0.08627597
0.11274491 0.015272035 -0.07379811 -0.026324531 -0.017923674 -0.023979349 -0.06008078 -0.091334306
0.062150013 -0.04809626 -0.074537106 0.06938796 -0.0697786 0.03320606 0.01196183 0.096909575
0.11989372 0.051574953 -0.074146956 0.008270723 0.07732202 -0.060279436 -0.089188024 -0.10523111
-0.029274374 0.08539663 -0.04144806 0.088979185 -0.036529373 -0.0045310566 0.0005985907 0.14675482
0.026348658 -0.048487555 0.111076094 0.026570406 0.12588304 0.047073066 -0.07648173 0.026274532
-0.049460728 -0.06582247 0.029652962 0.05226331 -0.052289758 -0.031044314 -0.023732403 0.10528484
0.03525725 -0.026945613 -0.045039285 -0.030528158 0.03823166 0.049762297 -0.019724375 -0.025214233
-0.072776265 0.108806595 -0.021180628 0.13528243 0.0045852684 -0.007116553 -0.055733517 0.023260182
0.0350604 0.039720684 -0.035612937 0.111621276 0.043888 0.010157516 -0.09040219 0.062220674
0.039033487 0.0054511894 -0.08340303 0.06598869 0.073006086 0.06243143 -0.05154499 0.10045866
0.11674598 0.021745903 0.11163734 -0.096988566 0.11669266 0.005708072 0.0784965 0.09861848
0.10714083 0.036965527 0.044437423 0.14660224 -0.05677245 0.14149775 0.032706026 0.09528497
-0.030255267 -0.04679611 -0.037156653 0.0052079344 -0.12623695 0.11838014 0.07733812 -0.13916111
0.08765931 -0.104502186 -0.07699188 0.1313701 0.012034404 0.08830253 0.09911196 0.042589612
-0.12835449 0.07703261 -0.023874652 -0.08390479 -0.061013777 0.12358292 -0.06566769 0.08511152
0.038669582 -0.033509538 0.04791004 0.12966533 0.07063235 0.032416757 0.040075753 0.044293657
-0.07567707 -0.058538184 0.08318619 0.11581567 0.011365322 -0.04433532 -0.08558409 0.021448372
-0.113935255 -0.052378517 -0.031197006 0.060812425 0.10813708 -0.01173931 -0.009578773 -0.085775085
-0.12271613 -0.08504594 -0.003222496 0.033576325 0.0793449 0.038973227 -0.026838789 -0.055383887
0.09753157 -0.13965616 -0.010181394 0.019829992 -0.15154916 0.12500744 -0.061057083 0.13889873
-0.0026229527 -0.024463708 0.06934548 -0.049532358 -0.07430959 0.0030108278 0.095895804 0.059343424
0.12335001 -0.02369283 0.021682685 -0.0134876715 0.13759601 0.024527576 -0.09090579 0.049241498
-0.08892599 0.024256473 0.063544214 -0.06011824 -0.07850116 0.008537619 -0.05858971 0.1526913
-0.024061084 -0.016979761 0.1258171 0.0042966204 0.031642642 -0.09926108 0.0778819 0.11726899
-0.0868488 0.13442256 0.10355636 0.10439744 0.022950955 0.018112222 0.11513472 0.09185564
-0.03285002 -0.03688514 0.14823796 -0.023412013 -0.0009019299 -0.07687298 0.04717143 0.005167922
0.13511838 -0.057551403 0.06127906 -0.05848815 -0.057188787 -0.076819666 0.032701828 0.03968209
0.13573764 0.1511021 0.0540103 0.032834295 0.10102432 -0.087696835 0.14193746 -0.077279165

lstm.bias_hh_l0 f4 [256]
00000000: c3be ba3d d487 0dbd 0e40 053e 6139 8a3d
00000010: b8c2 923d 9e2f a43d cc5d 12bd 8269 c83c
00000020: a63a 5a3d ae54 753d 2e0f 743d 3037 ff3d
00000030: 0914 d1ba 9079 84bd f161 a63d 1890 f53d
00000040: bc95 c43d 7958 a8bd a728 bb3c 1e78 f83c
00000050: 6d1a 1b3d 9b8d a13d 5fff b3bd cca9 ce3d
00000060: 7551 1bbc 25f0 063d 7f66 423b 6faf acbd
00000070: 8a87 983d 5fbc ff3c dc36 a0ba 731f 023e
00000080: 75fe 0f3e 2745 1fbd fd71 65bc 1ded 4cbc
00000090: 3fa6 6bbd d95b a8bd 4383 57bd 6161 25bd
000000a0: ba18 a43c 1974 a63c df05 fc3d fcd3 a03c
000000b0: 91f8 e63d c116 eabd 5439 ee3b 6faf 3e3c
000000c0: 4fb5 623d dc85 9b3d 24c3 e13d 8924 363d
000000d0: 8357 973d cd1b 043e 0a57 0a3e 9c99 6d3d
000000e0: 3a95 b7bc 494c e83d 3e20 013d 365b 003e
000000f0: 4de1 903d c03b 7c3d 32bf ec3c c5f0 db3d
00000100: 437e df3d 8fb8 353e 1194 bcbd ae88 a73d
00000110: 4f27 e93d 18f5 88bc d669 adbd 5e89 913d
00000120: 5528 083d 7ae8 fa3d 7d5d 8d3d 81fe cd3d
00000130: 8f17 bcbd 498d 09bd 11ff bfbd d41b f83c
00000140: 5784 b13d d28b b4bd 2a49 9f3d cedf c1bd
00000150: ece0 013e eec4 adbd 30d8 8cbd 5a62 16bd
00000160: 05fe 613d ae66 efbd 1040 b73d 4587 bcbd
00000170: 83e5 e73b b8b1 97bc 8a5f 0dbd 9474 63bd
00000180: 0ff2 253e 2239 fc3d db27 cfbd c523 5ebc
00000190: cb65 a7bd a4cb 9abd e4fc 41bd be77 e23d
000001a0: a840 8fbd 6377 0f3e 7b33 103e eb25 903d
000001b0: 1485 1b3e 3caf e23b aa7b a43d 756d b73d
000001c0: 687a b9bd b566 d03c d5f0 533c 7ff2 c8bd
000001d0: a1b9 073e e8b8 b73b 8fe4 533d 6b84 64bd
000001e0: 0c1b 2e3e 03d3 3f3d 2ebe 6bbd a5a5 f1bc
000001f0: 0fae 823d 8002 adbd 2b3d 873d 065d 9cbd
00000200: cbba d6bd f026 7cbb e57c adbd a7f9 953d
00000210: 3cff c9bd 78e3 3dbc 6365 853d f6a6 4b3d
00000220: b163 07bb b314 063d d0c5 fabd 7189 96ba
00000230: 3b7a cf3d cc39 1dbb 1cca a8bd 612b 993c
00000240: a192 debc 4677 043d 92bf 223b 78bd b4bd
00000250: 859c 8f3b dbe1 eb3d e02a 7abd f96a 8c3d
00000260: e450 3c3d 5f62 3d3d 0cec 2a3c d7b3 c03c
00000270: 464e 1bbe f6da da3d 24e4 3dbd 2832 03be
00000280: cbc2 d6bd a7fc 993a d402 e8bb 13b5 39bd
00000290: 21fa 853d d467 bfbd 8425 87bd 1cec ba3d
000002a0: df75 aabd 50b1 e1bd 96f8 88bd d0c7 45bd
000002b0: 4af2 1f3b 88b2 97bd 550d c8bc 08dd 19bd
000002c0: c14d 5e3d c19e d63d 481b babd b637 823d
000002d0: 6280 11be c525 06be 52d1 eebd b232 8dbd
000002e0: d1a3 ddbd fa81 2a3d c8ba c93d 1ddb f8bd
000002f0: 24e2 12be fb11 14bc 7715 8c3d 2cc7 863d
00000300: 43a4 d73c 43db 2d3e b586 dd3d b9ea b93d
00000310: c979 4bbd 305e 133c 6264 bdba cc02 88bb
00000320: ca1f 613d af5c c73d 66a8 47bd 9ae0 c0bd
00000330: 17ff b9bd b2c1 453d 8979 62bd a04d ae3d
00000340: 40b4 1b3d c741 373d c2ce 91bc 9b9d 833d
00000350: 1783 f33d c48b 7a3d 98e8 0b3d 4884 ac3d
00000360: e136 2a3d df1f 2f3d 24a3 ac3d 356a 0c3e
00000370: 4d39 233c 396b b53d 36a8 f53d 5108 95bd
00000380: aa7b 033d 2aa1 b9bd 51d7 96bd d3d6 f63d
00000390: 16c7 8dbd c6fc 173e 0b5b e63d 2f12 57bd
000003a0: 4398 95bd 6013 393c 43b2 9cbd 8601 dc3d
000003b0: da19 26b9 1dc8 263d c7fe e73b 330c 983c
000003c0: 2ff8 3fbd 47a8 033d 5145 933d 791b 083d
000003d0: c908 ba3c 7e7c 0abc 6ad9 c9bc 58b0 393d
000003e0: 32ee 083e 17db babc 0ba4 7bbd ba9a 0d3e
000003f0: e528 e53d 7097 b8bd 6fcd 4fbd bfb7 ca3c
0.09118416 -0.034553364 0.13012716 0.067492254 0.07166046 0.08016895 -0.035733983 0.024464373
0.053278588 0.05989521 0.05958479 0.12461698 -0.0015951406 -0.06468499 0.081241496 0.11990374
0.09598872 -0.0822 0.022846533 0.030330714 0.037867 0.07888337 -0.087889425 0.1009098
-0.00947987 0.032943863 0.0029663143 -0.08431899 0.07447727 0.031217752 -0.0012223381 0.1270731
0.14061911 -0.03888431 -0.014004228 -0.012507704 -0.05753159 -0.082206436 -0.052615415 -0.04037607
0.020031322 0.020319032 0.12305807 0.019632332 0.11277879 -0.11430121 0.0072700176 0.011638506
0.05534869 0.07593891 0.11023548 0.044468436 0.073897384 0.1290123 0.13509765 0.05800782
-0.022410024 0.11342675 0.03152489 0.12534794 0.07074223 0.06158042 0.028899763 0.107392825
0.109127544 0.17746185 -0.09207929 0.081803665 0.11384451 -0.016718432 -0.08467452 0.07106279
0.03324159 0.12251373 0.06902597 0.100583084 -0.09184181 -0.033582006 -0.09374822 0.030286707
0.0866782 -0.08815731 0.07777627 -0.094665155 0.12683457 -0.08484827 -0.06877172 -0.03671489
0.055173893 -0.116895065 0.08947766 -0.09205488 0.0070769205 -0.01851736 -0.03451494 -0.0555311
0.1620562 0.12315585 -0.10115024 -0.013558333 -0.08173712 -0.075583726 -0.047360316 0.11057995
-0.06994754 0.14010386 0.14082138 0.07038482 0.15187484 0.006917862 0.080313995 0.08956424
-0.0905655 0.0254396 0.012935837 -0.098118775 0.13254406 0.0056067593 0.051731642 -0.055790346
0.17002505 0.046832096 -0.057554416 -0.02949793 0.06380855 -0.084477425 0.06603464 -0.0763493
-0.10484847 -0.0038475357 -0.08471087 0.07323008 -0.09863135 -0.011589877 0.065134786 0.049719773
-0.0020658786 0.032734584 -0.12244761 -0.0011485053 0.101307355 -0.0023990748 -0.08241674 0.018697442
-0.027169527 0.03234031 0.0024833423 -0.08825201 0.0043826723 0.11517688 -0.061076045 0.06856341
0.04597558 0.046236392 0.0104322545 0.023523254 -0.15166578 0.10686295 -0.04636015 -0.12812102
-0.104863726 0.001174827 -0.0070804153 -0.0453387 0.06541849 -0.093459755 -0.065989524 0.091270655
-0.083232634 -0.11020148 -0.06688039 -0.04828626 0.002440589 -0.07407099 -0.02442042 -0.037564307
0.05427337 0.10479499 -0.09087235 0.06358282 -0.1420913 -0.13100345 -0.116610184 -0.06894435
-0.10822261 0.04162786 0.09850079 -0.121511675 -0.14344078 -0.00903749 0.068400316 0.06580958
0.026323443 0.16978173 0.10816709 0.09077973 -0.04967669 0.008994624 -0.0014449472 -0.004150724
0.054961957 0.09734475 -0.04874458 -0.09417839 -0.09081858 0.048280425 -0.055291686 0.085108995
0.038013697 0.044740465 -0.017798785 0.06426545 0.11890238 0.061168447 0.034157366 0.08423668
0.041556243 0.042755004 0.08429554 0.1371239 0.009962392 0.08858342 0.11994974 -0.07276977
0.032100357 -0.09063943 -0.07365287 0.12052693 -0.06922738 0.14842519 0.11247834 -0.052507576
-0.07304432 0.011296123 -0.07651188 0.10742478 -0.00015840624 0.040718187 0.0070799324 0.018560505
-0.046867546 0.032142904 0.071909554 0.033229325 0.022709267 -0.008452533 -0.024639804 0.04533419
0.13372114 -0.022809548 -0.06143574 0.13828555 0.11189441 -0.090132594 -0.050733026 0.02474582

lstm.weight_ih_l1 f4 [256, 64]
00000000: 2f45 b8bd d308 743c 3c33 91bd a811 a7bd
00000010: c806 fdbd c3b6 e83d 6141 393d c255 b03d
00000020: db7d 0d3e 84d3 48bd 6cd2 173d 70e6 b53c
00000030: 834c d03d beb6 67bd 6874 debc b7bd d33c
00000040: 710e cabb f38a ae3d 19b1 0e3e 2fca a33d
00000050: 4209 febd e22c 8a3c 7977 1fbd 7aea ab3d
00000060: 7899 30bd b32e a73d e2ec 9d3d 325e d93d
00000070: 1047 84bd cb72 463d e1eb d93d 1899 973d
00000080: 0676 8dbd 2f2e 183d 84c2 20bc e342 903d
00000090: b121 1abc db96 4abc b59f b3bd d670 923d
000000a0: 321b ecbd 35e9 d9bd bfc4 a8bd 1094 17bd
000000b0: 3722 bd3d a5b3 533d 455d 393d 9e3c d0bd
000000c0: 7db9 943d ab8b fc3d c506 3fbd 4513 68bd
000000d0: b947 9a3d b986 be3d 14f1 283c ad94 17be
000000e0: 3ceb 80bd a884 693d 67b5 12be 3db7 f53c
000000f0: ff9d 213d ba73 65bb 7ced 18be 0253 9cbd
00000100: c876 a33d 3c41 863c 463f fd3c 2881 85bd
00000110: 3a70 65bd d41d b43d 7f74 87bd 8cb8 013d
00000120: 4ec8 c73b 6ec8 2d3d f87e 97bd 62ba 63bd
00000130: 4a7e 99bd 6de1 bf3d 237a 9dbb cdd2 8ebb
00000140: 2a64 1dbe e7e7 1a3e 00f8 cc3d 939e c4bd
00000150: 1588 64bd b2f8 9bbc cae0 a9bd 5f04 cbbd
00000160: f5e0 903c 8071 a33d a112 97bd 526b 133e
00000170: 6705 cbbc 081b d8bd e23d 8dbd 911d d23d
00000180: c710 44bd 2269 d03d 8c86 963c cf5a 033e
00000190: 4f4f 39bd c249 363c 77e5 2a3d 0e93 b5bc
000001a0: 3915 c2bd 9d62 4fbd b066 51bd d41e d2ba
000001b0: 18b0 96bd ca83 a83c 17ce 1e3c 554d a1bd
000001c0: 3eb0 b4bc 18be 34bb d973 7d3c 78c3 913d
000001d0: cb9d c53d 110f 203c f014 0b3d a366 b2bd
000001e0: 6699 d23b 422b a2bd b901 b13d c74b 493c
000001f0: 7797 0dbd 5c5a cbbc 47fe 8d3d 0c78 343d
00000200: fd6a 1b3a 1cb7 b23b e2e0 eebd 2c7b bfbc
00000210: 2631 22be c1ff 8ebc 5fec e7bc 86df 75bd
00000220: 5d1b fc3d 5e42 303c 6e53 dd3c b177 b03d
00000230: ae03 003e 5b23 043e 7454 623d 9fd6 0a3e
00000240: ed11 0ebe c807 cb3d 788e f03d 821c 1cbe
00000250: 32ce 0fbe 3902 4e3c 5ca6 c73c 6c37 103e
00000260: dec2 a6bd bbec 0a3e 04e8 9d3c a28e a23b
00000270: 38c7 87bd f9f5 e13d a169 bb3d 42e4 c2bc
00000280: ae66 0bbe 21c5 b6bc 8277 b3bd ba94 bfbd
00000290: ae70 9a3d 4736 86bd 3a12 f3bd f8c3 bbbd
000002a0: 592b bb3d b346 a53d 70a0 f7bd eda3 13bd
000002b0: cabd 823d 1559 86bd ee30 10bd 3b7e 91bd
000002c0: 19a5 063d 030d b0bd 9c00 17be 5855 a13d
000002d0: 0ea3 713d 071b 743d e05b 39bd 2fd2 adbd
000002e0: adbe 87bd 16fd babd 195a f3bd 2363 213d
000002f0: 4f1d b7bd a15d b4bd 9d14 e2bb e08f 053e
00000300: 2275 d1bc 6abd 0fbe b837 343d 3bc9 82bd
00000310: 8c17 883d af34 87bd 2f38 0b3e 7a37 40bd
00000320: 7c82 0f3e 0160 c03c 0c1e b53d 2a34 183d
00000330: 8737 9bbd e3d7 1b3d 1bf3 fd3d ca1b a5bd
00000340: 25b2 5c3c 5e1f 373d c68b d93d ec8f e8bd
00000350: 4488 e0bd 0274 573d d212 4dbd d2db 00bd
00000360: efcd 703d c73b fc3d 065c 8fbd 418b 9cba
00000370: 702a afbd 8018 a0bb 2b0a dabc bc7d e43d
00000380: 27c5 5e3d a053 f63c d365 06bd 7aff bf3d
00000390: 6306 a5bc 60b4 01be fe47 9bbd 83a1 e8bc
000003a0: 5434 bdbd 11c7 7f3d 19e2 f2bc eb75 303c
000003b0: 061e 87bd ed7d c73d cf11 bd3d a745 cebd
000003c0: d46f b43d e23c a33c 0b9d a6bd 09da 9e3d
000003d0: 0229 c1bd 4552 0dbe 2a8f d1bc 8857 a33d
000003e0: 2d57 743d 368f 983d 65e4 683d 4a4a 35bc
000003f0: 730c 08bc 74c2 41bd 6480 a53d 46eb fe3d
-0.08997571 0.014894682 -0.0708985 -0.081576645 -0.12354809 0.11362984 0.045228366 0.08610107
0.13817541 -0.049029842 0.03706591 0.022204608 0.101708435 -0.05657076 -0.027155116 0.025847299
-0.0061662723 0.08522596 0.13934745 0.07997548 -0.124041095 0.016867105 -0.038932297 0.08394332
-0.04311511 0.08163204 0.077111974 0.106136695 -0.064588666 0.04844932 0.106406935 0.07402247
-0.06907277 0.03715342 -0.009812001 0.07044008 -0.009407447 -0.012365068 -0.08770696 0.07150428
-0.115286246 -0.10640184 -0.08240651 -0.037006438 0.092350416 0.051684994 0.045254964 -0.10167812
0.072619416 0.12331327 -0.046637315 -0.056659 0.07533211 0.0930304 0.010311384 -0.14802809
-0.062948674 0.057011276 -0.14327012 0.029994601 0.039457317 -0.0035011605 -0.14934343 -0.0763302
0.0798164 0.016388528 0.03091396 -0.06518775 -0.05601523 0.08794752 -0.06614017 0.03167014
0.006096876 0.042427473 -0.07397264 -0.05559767 -0.07494791 0.093691684 -0.0048058196 -0.0043586255
-0.15370241 0.15127526 0.1000824 -0.09600558 -0.05579384 -0.019039486 -0.08294828 -0.09912943
0.017685393 0.07980633 -0.073766 0.14396408 -0.02478285 -0.10552031 -0.06896569 0.102595456
-0.047867563 0.101763025 0.018374704 0.1282761 -0.04524165 0.011125984 0.04172274 -0.022164848
-0.09476704 -0.050631154 -0.05112332 -0.0016030916 -0.07357806 0.020570654 0.00969269 -0.07876078
-0.022056695 -0.0027579125 0.015469515 0.07117361 0.09649237 0.009769217 0.033955514 -0.08710983
0.006426978 -0.07918407 0.08642907 0.012286133 -0.034568276 -0.02482336 0.06933265 0.044059798
0.0005928723 0.0054539572 -0.11663987 -0.023374163 -0.15839061 -0.017455937 -0.028310953 -0.06002762
0.12309907 0.010758011 0.027017321 0.08616579 0.12501404 0.12904112 0.055256322 0.13558434
-0.13874026 0.099135935 0.11745924 -0.1524525 -0.14043501 0.012573772 0.024371319 0.14083642
-0.08142637 0.13566868 0.019275673 0.004960851 -0.06629795 0.11033244 0.091510065 -0.023790482
-0.13613388 -0.022310795 -0.08763029 -0.09354539 0.07541023 -0.06553321 -0.11868711 -0.091682374
0.09139127 0.080701254 -0.12091148 -0.036045004 0.06383856 -0.0655996 -0.035202913 -0.07104155
0.032872293 -0.08596232 -0.14746326 0.07877606 0.05899339 0.059596088 -0.045253634 -0.08487355
-0.066281654 -0.091303036 -0.11882419 0.039401185 -0.08941137 -0.08806921 -0.00689943 0.13043165
-0.025568549 -0.140371 0.04399845 -0.06386038 0.06645116 -0.066018455 0.13595651 -0.046927907
0.1401462 0.023483278 0.088436216 0.037159123 -0.075789504 0.038047682 0.12399884 -0.08061941
0.013470207 0.04470765 0.10622363 -0.11355576 -0.109634906 0.052600868 -0.050066777 -0.031459637
0.058790144 0.12316089 -0.06999974 -0.0011943356 -0.08553016 -0.004885733 -0.026616177 0.111567944
0.054387238 0.030069172 -0.03281195 0.093749 -0.020144647 -0.12666464 -0.07582091 -0.028397327
-0.092384964 0.062445704 -0.029648827 0.010770301 -0.065975234 0.09740815 0.09231912 -0.10071879
0.08810392 0.019926492 -0.08135422 0.07756431 -0.0943165 -0.13800915 -0.025580961 0.0797568
0.05965345 0.0744919 0.05685844 -0.011065075 -0.008303749 -0.047304586 0.08081129 0.124472186

lstm.weight_hh_l1 f4 [256, 64]
00000000: 4098 df3b 08eb ff3d ae64 e73d e220 83bd
00000010: 72a9 153e 7993 063d a165 333c 0347 01bd
00000020: 4a82 89bc e57f aebd 549e a73d 5b57 993d
00000030: 3aa4 aebb 8856 0fbe 3776 8a3b e743 983d
00000040: 3c3e 7bbd cf15 e0bd 362f 71bd 0b4c 7bbd
00000050: 22f9 853d 252c b13c 7118 223d dc2a 63bd
00000060: 410f 6c3d 9a5e 053e f35e 1bbb cf83 e83d
00000070: f6ba 05bc 3665 193e 262c dd3c 0d2c 3dbd
00000080: 8ddc 0e3e cf43 60bd c0d8 0b3e 182a 5abd
00000090: 8419 0ebd be45 0b3c c3bd 063c 6515 eb3d
000000a0: 97e7 13be 0cd5 973a b197 063d 6436 b0bd
000000b0: a174 7b3d 615e 903d 3b92 143e 9a29 a7bb
000000c0: e734 c1bd 39f4 41bd 5927 f3bd 4600 a6bd
000000d0: 10d3 023e a0fc 10be 39f0 9e3d d672 0cbd
000000e0: 7478 dc3c e96f 13be ba1e 8fbc e6f6 cf3c
000000f0: 8ec5 f6bd 636a 7fbd 5115 94bd 67f3 c63d
00000100: 98e2 963d 8679 fc3c 598a 7cbd 9edb b83c
00000110: dc96 53bd 27e8 75bc 0fdf 11bc 8865 04be
00000120: f440 083d da95 8f3d d418 183c 35b9 f93c
00000130: 1ef3 21bd 0a09 fbbc 90f8 e6bd 30ec f93d
00000140: 5511 40bc 19e3 8cbd 69fb 9d3d 8cb9 923d
00000150: 966a c73d 2fe4 52bd 651d dabc 6cd9 1fbd
00000160: 8fe0 7ebb cac6 cbbd 9904 123c 4835 0d3e
00000170: b98f 17bb 161a 80bd 6a05 f43c 832e 9a3d
00000180: 9037 c03b 883f a23d b041 a5bd c872 0d3e
00000190: 7b64 0bbe f888 cb3d 74aa 3abd df4d 463d
000001a0: 042f c53d 2e6e 093d 1db0 6d3c 94e9 d63d
000001b0: 5a1a 943d a976 443d 4be5 aebc 6ce3 9b3d
000001c0: 6082 9e3d 6a65 fa3c c09f 2e3d 1dc5 cb3d
000001d0: 24bd 813d 44bf 66bd 48bd 033e e31b 81bd
000001e0: 9c9c 533d 921b cebd 7f34 933d 072b 3dbc
000001f0: 2307 07bd 3aa5 f4bc 945c e73d aa80 5b3d
00000200: 5219 c3bc 5b3c 563d eec9 47bc 4620 c13d
00000210: ae64 073e 0b05 ee3d 189d c3bd 33f4 6c3c
00000220: eec4 48bd 6a24 9ebd 7bab b93d e69f 05bc
00000230: aa8d 873c c2e9 843d d3df a9bd 6b13 f73d
00000240: aaf4 4c3d a12e a23d 8428 5d3d c03b 3abd
00000250: 8de3 4d3d 7d6f 64bd 6bc3 e0bd 174c 6dbd
00000260: 99e7 bc3c 762f 603b e6da 043e a02f dc3d
00000270: 3e67 1cbe fa08 ff3d 1db0 2bbd d97a efbc
00000280: 6c08 9dbd bc1c 2ebc 3634 f33d 9dc0 273d
00000290: 03cd 04bd 50a2 1e3e c50f 183e a8b1 7abd
000002a0: 03c0 86bc 0333 2e3d 6841 c43c 5b34 a73d
000002b0: 5da1 c4bc 1c01 20bd f5b6 a43d a38f 0e3c
000002c0: 798d 153b c65f 7e3d 96e9 e43c 3f5d 57bd
000002d0: 6e6d e93d bd7e 9ebb bf2e eab9 7cd3 86bd
000002e0: 70d6 093e 5bc5 543d 5c47 0d3e 00f2 d9bd
000002f0: d65e 87bd 4392 25bd 6dbd a93d 9f52 193e
00000300: eccf 39bb 54f9 0a3e 8bd4 bf3d 28dc dbbd
00000310: d2e8 7cbc 89b5 bb3d a015 edbb 1e76 02be
00000320: 566e d73c a66a d53d 07d4 743d 3ce7 e6bd
00000330: 3b5b 543c ab4c 2f3d ad5b c0bc c7d1 aa3b
00000340: e45a cebd 13aa 74b9 8b57 4fbd 9e44 e1bd
00000350: 5c7f 9cba 0ea0 6a3d d682 e3bd bafd adbd
00000360: e4ff 913c 46c9 ccbd d3d5 a6bd ea72 99bd
00000370: 848a f4bd d172 013e 7721 083e 9c9a 7a3d
00000380: 3047 a73d 507c 653d 6eda a03d 9e88 92bd
00000390: e2bd fdbd 0209 bb3c 6040 e9bc 26ee 963d
000003a0: b1c7 083c ef90 38bd 9109 83bd 934c 7f3c
000003b0: 9e8e 23bd b166 143c a180 ccbd 0cca 9fbd
000003c0: bdd9 f03c 4ee2 6c3c 11ff 13bd aad7 493d
000003d0: 3e68 53bd dd85 bc3d 427b b0bd 68fc 8d3d
000003e0: db6c 0d3c 9371 913d 42b0 c9bd 0fc4 043d
000003f0: 0055 60bd 50d8 51bd 2a27 383c 152a 953c
0.0068235695 0.124960005 0.112985 -0.06402756 0.1461542 0.032855485 0.010949523 -0.031561863
-0.01678576 -0.08520488 0.081844956 0.07487365 -0.005329636 -0.13997853 0.004225518 0.07434826
-0.06133865 -0.1094166 -0.058882914 -0.061351817 0.06541659 0.021627495 0.03957409 -0.055460796
0.057631735 0.13024369 -0.0023707717 0.113532655 -0.008162251 0.14980015 0.02699859 -0.04618459
0.13951321 -0.054752167 0.13656902 -0.0532628 -0.034692302 0.008500515 0.008223954 0.1147869
-0.14443813 0.0011583879 0.032859508 -0.08604124 0.061390523 0.07049251 0.14508907 -0.005101395
-0.094339184 -0.04735205 -0.11872739 -0.08105521 0.12775826 -0.14158869 0.077606626 -0.034289204
0.026912905 -0.14398159 -0.017470706 0.025386285 -0.12049399 -0.062357318 -0.07230628 0.09714394
0.07367438 0.030819666 -0.061655376 0.02256566 -0.051657543 -0.015008963 -0.008903279 -0.12929356
0.03326507 0.07011004 0.009283263 0.030483821 -0.039538495 -0.030643959 -0.11277878 0.12203252
-0.011722882 -0.06879253 0.07713968 0.071642965 0.097371265 -0.051487144 -0.026625345 -0.03902571
-0.0038891172 -0.099500254 0.008912229 0.13789856 -0.0023126437 -0.062549755 0.029787738 0.07528403
0.0058659986 0.07922274 -0.080691695 0.13813317 -0.13612549 0.09938234 -0.045572713 0.048414107
0.09628108 0.03355234 0.014507321 0.1049377 0.07231589 0.047964726 -0.02134957 0.07611737
0.07739711 0.030565936 0.04263282 0.09949706 0.06334904 -0.05633475 0.12865174 -0.06304147
0.051663026 -0.10063852 0.07187747 -0.011545903 -0.03296579 -0.029863942 0.11296955 0.0535895
-0.023815785 0.052303653 -0.01219414 0.09429984 0.13222 0.116220556 -0.09551448 0.0144625185
-0.04901593 -0.07721789 0.090659104 -0.008155799 0.016547043 0.06489898 -0.08294644 0.120642506
0.050038017 0.0791905 0.053993717 -0.04546714 0.050265837 -0.055770386 -0.10974773 -0.057933893
0.023059653 0.0034207976 0.12974128 0.10751271 -0.15273759 0.12452884 -0.041916 -0.029233383
-0.07667622 -0.010626968 0.11875193 0.040955175 -0.032422077 0.15491605 0.14849766 -0.061204582
-0.01644898 0.042529117 0.02395697 0.08164283 -0.024002725 -0.039063558 0.08042709 0.008701238
0.002281992 0.062103055 0.027943414 -0.05257916 0.11397825 -0.0048368857 -0.00044666787 -0.06583306
0.13460708 0.051946025 0.13796753 -0.10641861 -0.066098854 -0.04042269 0.08288083 0.14972924
-0.002835269 0.13571674 0.09366711 -0.10735351 -0.015436368 0.091654845 -0.007235244 -0.1274037
0.02629773 0.10420732 0.059772518 -0.11274573 0.012961204 0.042797726 -0.023481214 0.0052129957
-0.1007593 -0.00023333011 -0.050620597 -0.10999416 -0.0011939812 0.057281546 -0.11108939 -0.0849566
0.017822213 -0.09999327 -0.081462525 -0.07492621 -0.11940482 0.12641455 0.13294016 0.061182603
0.08167875 0.056026757 0.07854162 -0.07154964 -0.12389733 0.022831444 -0.02847308 0.07369642
0.008348391 -0.045060094 -0.06398309 0.015582222 -0.039930932 0.009057687 -0.099854715 -0.07802209
0.0294007 0.014458252 -0.036131922 0.04927794 -0.051613085 0.0920522 -0.086172596 0.06932908
0.00863191 0.07101741 -0.09848072 0.03241354 -0.054768562 -0.051231682 0.011239806 0.018208543

lstm.bias_ih_l1 f4 [256]
00000000: 01ce 90bd 8c70 10bd 662f a03d 7ed8 d6bb
00000010: f826 34bd 9f5f b93c 20b6 ffbd 86f1 f93d
00000020: 9da3 ae3d 953b a6bd 0e21 14bd c691 5d3c
00000030: 2a32 873d 5819 23bc 26eb 02bd e322 003e
00000040: 9fff 5f3c 37c4 6b3d 97d7 cb3d d610 2dbd
00000050: f1de 8d3d ef95 f8bd 8dce 89bd 62ac 94bd
00000060: 3c10 85bd d007 9b3d ccac 2fbb a637 58bd
00000070: 8be4 463d e217 183e e928 a9bd 290e ef3c
00000080: 8b63 db3d 2ba0 833d c1cf e53b 0720 d2bd
00000090: 254b 97bd 5984 35bd ece0 e73d 281b c53d
000000a0: 8d21 b8bd 5626 c2bd 9bd3 a93d 78cf 8a3d
000000b0: f2db 003e bdcc 533d 5008 e3bc 3bed 913d
000000c0: 2ee1 773d 1900 09bd 7479 7b3d 9495 d5bd
000000d0: 13c7 1d3d 8c81 82bd 5313 3cbd 2ef3 8dbb
000000e0: 8321 433d 9b31 b03d 43a5 9abd fab9 5cbd
000000f0: b3dc a8bc bd0c f63d 9d66 163e 3e87 54bd
00000100: df1e 1c3d a863 bcbd c757 acbd d04d 643d
00000110: e7e4 5d3d f6c0 aabd ff87 d23b e009 3fbd
00000120: 2477 963d 4c36 103e 641e 223d fdc9 eabd
00000130: 906e f1bc 0084 903d 84d7 8bbb d437 00bd
00000140: 56f6 7dbd b741 123d d84f 033e c9db 5cbc
00000150: 57f2 e7bd c960 b6bd 0525 8f3d b7d9 efbd
00000160: 5470 293d c658 9b3d dda2 96bc a16b 693d
00000170: fa4f 803d 598c 033e e5cc adbd 32bf b8bd
00000180: 9f6e bb3d 3c41 ffbc 56b1 c13d 86e3 4dbc
00000190: da02 043c d03a 73bd 5964 563d 9e49 5dbd
000001a0: 55d2 fd3a 674c a33d badd 973d d851 613c
000001b0: 8fa1 9f3d 9ddc 9e3d 1de3 46bd 3132 babd
000001c0: 21fa 663c a7d0 aebd 2c1e f83d b5c0 c93c
000001d0: c408 eabd ec52 f53d 8337 aabc 4cc2 853c
000001e0: 0dcc 453b a61e b23d ed8e f5bc af96 14bd
000001f0: d0df 80bd 2bc9 99bd a92c 183e 0d45 cb3c
00000200: 8292 59bd fe42 dabc 67b8 293c 4730 bc3d
00000210: 0dc4 4a3d c033 7ebc d462 12bd a0ed 923d
00000220: 1b90 96bc e4be 55bd 571f 4c3d 0331 b03c
00000230: 56ca 80bd 08b0 10be 5944 973c 9682 b93d
00000240: 9e9b 1e3b 1f4a 0c3d e252 1fbd dfa3 73bd
00000250: 5e1b 91bd 00f6 9fbd e8e0 c03d 0bba de3d
00000260: 429c b9bd b63a 903d e292 e1bc d064 cc3d
00000270: 0c80 c6bd 8e8e 223e 6c03 d63d e2cf 3e3d
00000280: c404 44bc 0571 d43d 48d9 b63d 2620 873d
00000290: adbd f6bd 5310 a7bd 8301 96ba 7702 fc3b
000002a0: b1f3 11be c856 283c 1293 a9bc 1631 693d
000002b0: 18f8 123e cf23 b93a 4533 183e 3808 acbd
000002c0: 8733 dabd 551d 07bd 91c7 cabd 7bd8 2abd
000002d0: dfd3 793c 21c8 e5bc 3647 803c 02ff d9bc
000002e0: 327f 053e 0089 a7bd 0522 ae3d a7e9 acbd
000002f0: 45e6 f93c 7010 9c3a 1f78 0cbd 717b c63c
00000300: 63a9 943d a9ce b73d 965f 083e 6114 e5bd
00000310: 99b6 013e 5a7d 983d 931b 453c 8a54 523d
00000320: 7038 c33d 229d 3bbc 7f6e a13d 11a2 c0bd
00000330: fa16 41bd 2fbf af3d b2e4 b4bd 3e98 1c3e
00000340: 7e41 523d ef73 003c ccc7 bbbd bd94 e2b9
00000350: ed55 de3d bbc1 e1bd 82be 76bc 631c e03d
00000360: 1f61 a93d 1f61 103e 9ddd 2cbd 4bac 85bc
00000370: 7dd7 923d e185 6cbc 59d6 91bd 28d0 b93d
00000380: ae1a c5bd a8f6 acbd 97da a43c 8fe9 013e
00000390: 8faf 0cbb d412 9fbd 1e14 ca3c 881b c0bd
000003a0: 9322 c73d b2f7 adbd 356e 293d 7589 123e
000003b0: cda8 d63d 73f5 bd3c 0802 ad3d 19bb dcbd
000003c0: 4156 a13d 4c11 3a3d dc7c a3bd 9120 e4bd
000003d0: b14d 9fbd dd38 9cbd 3002 133e 9d99 fd3d
000003e0: e34a d23d 7a47 023e f402 463c 65b9 f8bd
000003f0: 1fdf 683d 2077 843c f92b debc 56ca e03d
-0.07070542 -0.035263583 0.078215405 -0.0065565696 -0.043982476 0.022628604 -0.124859095 0.1220427
0.085273005 -0.08116833 -0.036164336 0.013523525 0.06601365 -0.009954773 -0.031962536 0.12513308
0.013671785 0.057560172 0.0995323 -0.042252384 0.06927288 -0.121379726 -0.067288496 -0.07259442
-0.06497237 0.075698495 -0.0026805876 -0.052787445 0.0485578 0.1485286 -0.08259756 0.029181557
0.10712346 0.06427034 0.0070132916 -0.10260015 -0.073873796 -0.04431567 0.11322197 0.0962432
-0.08990774 -0.09479968 0.08292314 0.06777853 0.12583902 0.051708926 -0.027713925 0.07125326
0.060517482 -0.03344736 0.061395124 -0.104289204 0.03851993 -0.06372365 -0.045916867 -0.004331968
0.04763938 0.086032115 -0.075510524 -0.0538883 -0.02061305 0.120141484 0.14687581 -0.05188679
0.03811538 -0.091986954 -0.0841518 0.05573827 0.054173376 -0.08337586 0.0064249034 -0.046640277
0.07346943 0.14083213 0.039579764 -0.114643075 -0.029471666 0.07056427 -0.004267635 -0.03130324
-0.062002502 0.0357072 0.12823427 -0.013480135 -0.113255195 -0.08905179 0.06989483 -0.11711448
0.04136689 0.075852916 -0.018388206 0.05698741 0.06265254 0.12846507 -0.08486346 -0.090208426
0.09151959 -0.031159036 0.09457652 -0.012566453 0.0080573205 -0.05938226 0.052341793 -0.054025285
0.0019365052 0.07973557 0.07415338 0.013752423 0.07794487 0.077569224 -0.048556436 -0.090916045
0.014097721 -0.08535891 0.1211513 0.024628023 -0.11427453 0.11978707 -0.020778423 0.016328
0.0030181438 0.08697252 -0.029975379 -0.036276516 -0.06292689 -0.07509073 0.14860786 0.0248132
-0.053118236 -0.026643272 0.010358906 0.09188896 0.049503375 -0.015515268 -0.03573878 0.071742296
-0.018379262 -0.052184 0.049834576 0.021507746 -0.062885925 -0.1412965 0.018465208 0.090581104
0.0024201642 0.034250375 -0.038897403 -0.05948245 -0.07085298 -0.07810593 0.094178975 0.10875329
-0.09063007 0.07042448 -0.02753586 0.09980166 -0.09692392 0.15874693 0.104498714 0.04658497
-0.011964027 0.10373119 0.08928162 0.06597929 -0.120478965 -0.081574105 -0.0011444542 0.0076907235
-0.14253117 0.0102745965 -0.020700011 0.056931578 0.14352453 0.0014125052 0.14863308 -0.08400005
-0.10654359 -0.032986958 -0.099013455 -0.041710358 0.015248268 -0.02804953 0.015658956 -0.026610855
0.13036802 -0.081804276 0.085025825 -0.08443003 0.030505309 0.0011906754 -0.034294244 0.024228783
0.072588705 0.08974964 0.13317713 -0.111855276 0.12667312 0.07445784 0.0120305 0.051350154
0.09532249 -0.011451038 0.078824036 -0.09405912 -0.047141053 0.08581387 -0.08832683 0.15292451
0.05133199 0.007840141 -0.091689676 -0.00043216898 0.10856233 -0.11023279 -0.015060069 0.10942914
0.082704775 0.14099549 -0.042203534 -0.016317507 0.071700074 -0.014436216 -0.07120962 0.09072906
-0.09624229 -0.084454834 0.020123763 0.12686752 -0.0021466946 -0.07767263 0.024667796 -0.09380251
0.097233914 -0.0849451 0.041364867 0.14310248 0.10481415 0.023188328 0.08447653 -0.107778735
0.0787778 0.04542665 -0.079827994 -0.11139024 -0.0777849 -0.07628033 0.14356303 0.12382815
0.1026819 0.12722579 0.012085665 -0.12144736 0.05685341 0.016170084 -0.027120577 0.109760925
