lstm_def_model.pt (torch, 245045 bytes, 9 tensors)

lstm.weight_ih_l0 f4 [256, 38]
00000000: fd6e 183e 8a5d ee3d 7593 c6bc 4960 d83d
00000010: 1aea 133d 3b62 0a3d 6456 e53c eb3b 1a3e
00000020: e13e 3f3e 53a0 75bd 5114 c23d c252 f73d
00000030: d157 263e b795 473d 19a8 f33d de22 123d
00000040: eecc fd3d ff99 c5bc 461c 83bd 150b 593c
00000050: 9e62 293d 2781 353d 3012 72bd 8d6d fd3d
00000060: ca58 bebd 8c09 6cbd e5c7 2bbe 4f77 37be
00000070: f75b 5a3d 5a11 15be 8454 af3d 6977 abbd
00000080: 627a ba3d dd0f 2d3d d19d 41be 2005 1e3e
00000090: ec9c 0a3d b7b8 273e 24b9 ecbd 2561 c5bc
000000a0: 8360 a83c 6b2c bbbd a279 be3d f543 ac3d
000000b0: 7263 8c3d c024 a2bd 28d4 863b 57fe 9bbd
000000c0: 3636 073e f906 dbbd f024 73be eff1 9ebd
000000d0: 94f6 d5bd 177c 97bc 076e 38bb a490 8f3d
000000e0: 000c 643d 3d05 1a3d 9e73 3b3d e56c f1bd
000000f0: f1e4 82bd 3199 4ebe 80da 88bc e052 30bd
00000100: ce8f 4b3e 642d 8c3d 0784 5d3e 1a41 1fbd
00000110: 4a28 2b3d e80d 5ebd 5ccd 3e3e 05dd 223e
00000120: 2b1b 5e3d 1854 10be 8825 58bd 2d60 39bd
00000130: a4c2 cabd 6c3f a53d 71f2 77bc eec9 7d3d
00000140: 0377 a23b 4eba 0bbe 53a7 533e 4cdd fb3c
00000150: bafa 383e 3c0b cebd f79e 7a3d f17c 4139
00000160: 8cce 87bc bc06 053e c536 153e 4b1a 8b3d
00000170: fd70 1f3e fc86 3f3d 768f d8bb 65ce 26be
00000180: 3623 463e ff63 ccbc 4d06 4abd 125b 82bc
00000190: 6d5c 18bd 88cc ff3c 3b8f f5bd 973d aebc
000001a0: a83b 393d 8dac b5bb a7af a8bd 4cb1 67bd
000001b0: a588 8fbd 42b3 1bbe c753 753e 806c 79bd
000001c0: f9d6 8d3d 5756 17be 470c 05be db41 e6bd
000001d0: 19ce 55bd 5691 dfbd 1e1b 00be c9e6 2abe
000001e0: 2e04 0dbc 37b0 94bd 5117 2f3d 285a 02be
000001f0: 655d 4ebd 46e5 8ebd cecb a93c 2930 81bd
00000200: e02e 143e c386 73be fb20 c4bd a14b ef3c
00000210: bfca 73be 416a 66bd 44ea 78bd 35e9 ecbd
00000220: e5a6 93bd 2ec4 a4be 57e4 33be c0af dfbc
00000230: 944b 29be 0a18 8fbe e9eb 173e ed9a a43b
00000240: 1a8b debd 3657 863c ef07 433b 986b 5b3e
00000250: a8a3 c23d a5df 62be 827d 4aba 3576 2ebe
00000260: f1bf 6fbd d984 e0bd 1bc0 fc3d d372 b8bd
00000270: 9333 af3c 8ef3 d7bc 9f2f 00bc 3de9 04be
00000280: 39e0 a93d 5c6d 7f3d 2005 f33d 30b8 6bbe
00000290: b001 653d 69f9 98bc 47b3 2abd 04bf e03d
000002a0: d1ed 403c 8536 9dbd 9f20 06be 9f5e bcbd
000002b0: 49d7 083d 1581 e4bd adfc 763c 7cd9 1ebd
000002c0: 99bd c5bd 8898 363d 1021 4b3e 3211 2dbe
000002d0: f931 613d 79b8 e53d 91ee 0a3d 577d 4e3c
000002e0: 241b e53d d4f8 0a3e 0777 0ebd 2a1e 34be
000002f0: 07f2 433d 2d0d 06bd f32b 4dbd 303d 44bc
00000300: afb7 033e f68a e83d 365a c73b 3732 293c
00000310: a80a d33c 4dfb 7f3c ed20 9e3d e668 bf3d
00000320: 90c6 09be 321a 62bd cc6e 043e ee48 0f3e
00000330: 9eeb 0e3e fd79 c5bd 2805 88bd f5a3 debd
00000340: 6a0e 7bb9 7be9 a83d 0a59 a43d d1ae 893d
00000350: 7f31 a13a 782d 6dbd a874 763c 38a4 f73d
00000360: 93b5 8cbd 00d8 a13c 80cc d13d f8bf dbbb
00000370: afd0 22be 8b43 dc3d 6d41 b1bd 567b 2bbd
00000380: f02d 01be 90f6 d13d 53fa a63d b0f1 503d
00000390: 3c93 adbd 4a68 7fbd 262e dcbd c9a3 e03d
000003a0: a311 d13d b84b 363e 6732 813d f982 ac3d
000003b0: b156 a13c fc7e c4bd 7444 efbd b0c3 68bd
000003c0: e911 483d e0c7 28bd 6366 8e3c c8f2 f4bc
000003d0: e6c3 4dba b678 36bd 3160 803c 8658 db3d
000003e0: a7d6 033b ad92 0f3e de17 87bc ef72 10bd
000003f0: 417d 923c d030 78bd eaca 2abe b0cc 33be
0.14886089 0.11638935 -0.024240235 0.1056524 0.03611193 0.033785086 0.027995296 0.1506192
0.1867633 -0.05996735 0.09476531 0.12076332 0.16244437 0.048726764 0.118972965 0.035677783
0.12392603 -0.024121283 -0.06401877 0.013247271 0.041353814 0.044312622 -0.059099376 0.12374411
-0.09294279 -0.057626292 -0.16775472 -0.17916606 0.05331036 -0.145574 0.08561042 -0.08372385
0.09105374 0.042251457 -0.18907858 0.15431643 0.03384106 0.16379057 -0.1155875 -0.024094174
0.020553833 -0.091393314 0.09300543 0.08411399 0.06854905 -0.07917166 0.0041146465 -0.07616871
0.13204274 -0.10694689 -0.2374456 -0.07760989 -0.10447422 -0.018491788 -0.0028141753 0.0701001
0.055675507 0.037602652 0.045764558 -0.11788348 -0.06391323 -0.20175625 -0.016705751 -0.043047786
0.19879076 0.06844595 0.21632396 -0.038880445 0.04178647 -0.05421248 0.18633026 0.15904625
0.05422513 -0.14094579 -0.052770168 -0.045257736 -0.09900406 0.080687374 -0.015133486 0.061960153
0.004958035 -0.13645288 0.20669298 0.030745171 0.18064395 -0.100607365 0.061186757 0.00018452459
-0.016577981 0.1299085 0.14571674 0.06792124 0.15570445 0.04675959 -0.0066088988 -0.16289671
0.1934937 -0.024950026 -0.049322415 -0.015912566 -0.03719752 0.031225458 -0.1199021 -0.021269603
0.04522291 -0.0055442513 -0.08236628 -0.056565568 -0.07008485 -0.152051 0.2395774 -0.06089449
0.069257684 -0.1477903 -0.12992965 -0.1124303 -0.052198503 -0.109163925 -0.12510344 -0.166896
-0.008606954 -0.07260173 0.042746846 -0.12729704 -0.050382037 -0.06977324 0.020727064 -0.06308014
0.14471006 -0.23781876 -0.09576603 0.029210867 -0.2380781 -0.056253675 -0.060770288 -0.11567918
-0.07209567 -0.32180923 -0.17567573 -0.027305484 -0.16532737 -0.27948028 0.14836086 0.0050233514
-0.10866375 0.016399007 0.0029759367 0.21427763 0.09503871 -0.22155626 -0.00077243906 -0.1703728
-0.05853266 -0.10962839 0.12341329 -0.09006276 0.021386897 -0.026361253 -0.007823854 -0.12979598
0.0829472 0.062360153 0.11866212 -0.2301948 0.055909812 -0.018673616 -0.04167488 0.10973933
0.01177545 -0.076764144 -0.13098381 -0.09197735 0.033408437 -0.11157433 0.015074891 -0.038781628
-0.096553035 0.04457906 0.19836831 -0.1690109 0.0549793 0.11216826 0.03391892 0.012603126
0.11186817 0.13571483 -0.034781482 -0.17589632 0.047838237 -0.03272741 -0.05009074 -0.011977479
0.12863038 0.1135463 0.006083752 0.010326914 0.025761917 0.01562388 0.07721124 0.0934618
-0.13454652 -0.055200763 0.1293289 0.13992664 0.13957068 -0.09642408 -0.066416085 -0.10871116
-0.00023942595 0.08247658 0.08024795 0.06722797 0.0012298076 -0.05790469 0.015042461 0.12091869
-0.0687057 0.019756317 0.102440834 -0.006706234 -0.15899919 0.1075507 -0.08655057 -0.04186567
-0.1261518 0.10252106 0.08153214 0.05101174 -0.08475348 -0.062355317 -0.107509896 0.109687395
0.10208442 0.17802322 0.063084416 0.084234186 0.019694658 -0.09594533 -0.11682978 -0.056827247
0.048845205 -0.04120624 0.017382806 -0.029900923 -0.00078493205 -0.044548713 0.015670868 0.10710244
0.0020116956 0.14020796 -0.016490873 -0.03526586 0.017881991 -0.060593426 -0.16678968 -0.17558551

lstm.weight_hh_l0 f4 [256, 64]
00000000: 959a 01bc 874c 1f3e 53d1 d43d a9c0 ccbd
00000010: 0b23 f1bd 34e5 3cbd a55a debd a5a6 fabc
00000020: 24a9 a63d bb4f 083d 3e78 12bd 7f57 803d
00000030: f8c8 893d d408 e93d d6b7 973d fb4a 0bbe
00000040: ffb2 76bd 2c1d 253d 83c2 543d a7fa cdbd
00000050: c3b7 083e 5e08 8e3d 830d f1bb ea12 e63d
00000060: cc21 e53c 42c9 a1bd fb76 c3bd 6c7d 163d
00000070: a451 993d 9813 afbd 1edc 8e3d 8158 eebb
00000080: 694c 00be 04cc 87bc d661 6abe 6ac6 c33c
00000090: 545e 02be d749 143e 0dea 18be f87a 943d
000000a0: 5db4 a8bd 32fb 17bc 7b79 1bbe dc76 fbbc
000000b0: c060 cb3d 41eb 45be e23c 65bd 798c 40bd
000000c0: 41aa 6fbc 67af 55bd 0fec 15bd b7a9 9e3d
000000d0: 4bb1 043e 3f98 c93c 6d5a 06be 2c0e 883d
000000e0: 905a 22be 38e1 9abd 3f25 003e e736 37bd
000000f0: 8c44 06be 85ca d33c 4f38 f53c 2868 963c
00000100: 7e95 633d b554 20be 09c1 03be 2ac5 73bc
00000110: c1b9 403e cd90 00be 8f81 f8bd a68b 4fbd
00000120: 7d35 873c bdbf 8a3c 3163 343d 361b b43d
00000130: 07f6 743e 29f8 4b3e 2988 993b dd5b febd
00000140: 6742 e53c 9111 413d c95a f23d 7ab5 e5bd
00000150: e096 c9bc 84c5 323e 0a34 9c3d 8788 c93d
00000160: aae2 213d ad79 3b3d 2302 443e fa11 a33d
00000170: 2a71 84bc f2d9 b2bd 8b93 ec3d a646 e53d
00000180: ca33 dc3d 8142 5ebd cc0b 43be 5463 ac3c
00000190: aa88 f6bd a064 c2bd b0ed 993d 2206 6dbd
000001a0: 745b e73d a09f 653d 6ffd c0bd 3ba3 273d
000001b0: b283 983d 5b20 2cbd afef 033e b6df 983d
000001c0: ddb6 dd3c 8e6c 0dbd ca15 aebc 6e84 cc3d
000001d0: b158 003d 4c4f bfbd 242b b9bd b39e 7c3d
000001e0: 01a0 5c3c bf64 ddbd 92b1 f43c addc 163e
000001f0: 273c 47be 6d77 83bd 08db 8cbd 11df cebc
00000200: 75a1 32bc f79f 99bd 9574 f43a 4549 293e
00000210: 863c 9ebd b45d 81be 018c b53d d9ca f4bd
00000220: 7772 a83a e1aa 5e3b 81c0 a9bb fd67 103b
00000230: 09c7 c7bc b3aa aa3d a4ce 05be 9752 36bd
00000240: 3c57 243e 0ba9 d63d a880 493d 0412 963d
00000250: 5a1b 50bd 5ae0 3b3c 623c 083e 7cb6 76bd
00000260: 616b 9bbd 7833 e5bc 9050 45bd 8230 ef3c
00000270: 0cad 203b 7aa4 88bd 997f 383d 030e 28bc
00000280: d6c7 b8bd 9936 243e edff 043e fc7c 1b3e
00000290: 97a3 b1bc 12cc 473e fee0 69bb 64c8 9ebd
000002a0: a291 63bd fea8 fabc 096f 3abc 85db 1d3d
000002b0: 51e1 883c a971 47bd 6716 fb3c 1812 c9bd
000002c0: 3502 063e 31fa 80be b9b0 35bd 636e 1fbd
000002d0: a17e 4f3d fe93 ccba ceca 51bd e33b 2fbc
000002e0: 3cc9 a53c 3438 ea3b ad8e 36bc 1574 e03d
000002f0: 2bd7 04bd 35ec 07bd fa5a 8b3d 0461 abbc
00000300: 474d cd3b d254 d3bc 3f66 3f3d 942a 3abc
00000310: 6ce3 a43d 913d bdbd 17e3 a7bd 2033 cf3c
00000320: 42cd d43c 843d a9bd d413 ffbd 5c66 d5bd
00000330: 1973 8f3d 5246 febd 1043 72be 5052 053d
00000340: e79f 31bd e865 483e 410b d0bc a291 e6bd
00000350: 0e45 ae3d d0ce 273e 7a12 f5bc 4219 64bd
00000360: 0e5c 21be 6670 aabd c2c0 87bd 0720 1f3d
00000370: f3b9 e13d cab6 38be 4bcf 51bd 7fa7 423e
00000380: 0cba be3d 86d5 dc3d b2c5 a3bd abab 503d
00000390: 8edb 27bd dd4b 89bd e439 5dbe 98de 063e
000003a0: 2821 60be c9af 003e 9715 13be 5e00 16be
000003b0: 1f3d 873d c18d 1dbe 535c 893d ead9 b1be
000003c0: 314e a53b 4311 203d 306d 5abe 14de 0d3e
000003d0: c430 8abd b316 94bc 392a afbd 3a31 93be
000003e0: e813 3fbe 9554 01be 508c 83bd 29dd 59bd
000003f0: 1b43 87bd b983 53be 8fdd 353e 7a07 24be
-0.00791039 0.15556537 0.10391488 -0.099976845 -0.11774262 -0.046117023 -0.10857133 -0.03059704
0.0813773 0.033279162 -0.035759203 0.062666886 0.06727785 0.11378637 0.07408111 -0.13602822
-0.060229298 0.040311024 0.051943313 -0.10057574 0.1335135 0.0693519 -0.007356347 0.11234076
0.027970217 -0.07899715 -0.09544178 0.036740705 0.07486275 -0.08548659 0.06975578 -0.007273734
-0.12529148 -0.016576774 -0.22888884 0.023898322 -0.12731296 0.14481293 -0.14933033 0.07250017
-0.082375266 -0.009276198 -0.1518306 -0.030696325 0.09930563 -0.19328023 -0.055966265 -0.047008965
-0.014627994 -0.05216923 -0.036602076 0.07747214 0.12958257 0.02460873 -0.13120432 0.06643328
-0.1585486 -0.07562488 0.12514208 -0.044730093 -0.13112086 0.025853405 0.029934077 0.018360212
0.05556249 -0.15657313 -0.12866606 -0.014878551 0.1882086 -0.12555237 -0.12134086 -0.05067029
0.016504997 0.016937131 0.04403991 0.087942526 0.23921977 0.19918884 0.004685421 -0.12419865
0.027985765 0.047135893 0.11833722 -0.112162545 -0.024608076 0.17458159 0.07627113 0.09840494
0.039522804 0.045770336 0.1914144 0.07962413 -0.016167242 -0.08732976 0.11551579 0.11195116
0.107520655 -0.05426264 -0.19047469 0.021043457 -0.12037785 -0.09491849 0.075160384 -0.057867177
0.1129674 0.056060433 -0.094233386 0.040927153 0.07446994 -0.042023044 0.12884401 0.074645445
0.027064735 -0.034527354 -0.021250624 0.099861965 0.031334583 -0.093412966 -0.090414315 0.061674785
0.013465882 -0.108102314 0.029869828 0.14732619 -0.1945654 -0.06419263 -0.068777144 -0.02525285
-0.010902752 -0.07501214 0.0018650467 0.16531856 -0.07726388 -0.25266802 0.08864594 -0.119527526
0.0012851496 0.0033976363 -0.005180419 0.0022034638 -0.0243869 0.083333395 -0.13067108 -0.044512358
0.16048902 0.10481461 0.04919496 0.07327655 -0.050807334 0.011467064 0.13304284 -0.060232624
-0.0758884 -0.027978644 -0.048172534 0.029197935 0.0024517206 -0.066719964 0.04504356 -0.010257247
-0.09022491 0.16036452 0.12988253 0.15184397 -0.021684451 0.1951144 -0.0035687084 -0.07753065
-0.05555881 -0.03059816 -0.011379012 0.03853943 0.016709002 -0.04869238 0.03065033 -0.09817904
0.1308678 -0.2519088 -0.04435799 -0.038923632 0.050657872 -0.001560807 -0.0512188 -0.01069543
0.020237558 0.007147813 -0.011142415 0.10959641 -0.032431763 -0.03318425 0.06804462 -0.020920284
0.0062653157 -0.025797281 0.04672837 -0.0113626905 0.0805119 -0.092402585 -0.08197611 0.025292933
0.02597678 -0.08263686 -0.12454954 -0.10419914 0.07004375 -0.12415756 -0.23658395 0.032549202
-0.043365385 0.19570124 -0.025395991 -0.11258246 0.08509265 0.16387486 -0.029916037 -0.05568815
-0.15757772 -0.083222196 -0.066285625 0.038848903 0.11021795 -0.18038478 -0.05122308 0.19009207
0.093128294 0.10782914 -0.07996692 0.050944965 -0.040980868 -0.06703923 -0.21604115 0.1317085
-0.21887648 0.12567057 -0.14363705 -0.14648578 0.06603455 -0.15386106 0.067070626 -0.34736568
0.0050447215 0.039078962 -0.21330714 0.13854247 -0.067475826 -0.01807723 -0.08552975 -0.28748494
-0.18659937 -0.12629922 -0.06423247 -0.05318943 -0.06604596 -0.20655717 0.17760299 -0.16018477

lstm.bias_ih_l0 f4 [256]
00000000: f9ca 24bc 979b 8d3d ebd5 9f3d f734 e4bd
00000010: d8fc 00bd 2d2d 1d3e b0f0 543d 1ce8 393e
00000020: dc79 013e db60 9e3d 61dd e73d 6ea1 203d
00000030: dd8f 183e 7f5c 393a 530c babc f02c 9d3d
00000040: 07a7 a43d 281c 1b3e cb84 163e bc1f 143e
00000050: 1ba5 a8bb 6aa5 133d 9e47 153d d610 193e
00000060: f3b3 b4bd 92a4 163e 57c5 a93d ebe8 dd3d
00000070: b707 5dbc a71c e93d bc04 163e 0abd 033e
00000080: 2f9b e0bc da3b 0a3e efe5 9a3c 0448 f33d
00000090: 5238 92ba 12ff 883d 8ebf c8bc 3284 b33d
000000a0: d326 86bd 9d13 b9bc 6f86 83bc 3e71 c7bc
000000b0: 11cb 163e 9f46 253e b0b5 c13d e3a3 e4bb
000000c0: 89b7 223e 8b03 213e 754c 3e3d ba2c cbbc
000000d0: 1608 e43d 847c 113e e456 b83d 2114 bfbd
000000e0: f22e 33bd e9ae dc3d 037a 84bc 228a e93d
000000f0: 0f50 b03d 5547 a9bc e29f b1bd bbf7 b5bb
00000100: 3c71 f83d d109 ce3d 1293 f13d bad2 b7bd
00000110: 2383 06bd 5c25 c03d b914 b6bd af25 f33d
00000120: b93d 7dbc 9d2b 483e 1d81 f7bc 3f68 c23c
00000130: 570c 8cbd e356 c33d d489 fe3b 44ed e1bc
00000140: 631b adbd 6573 243e efb1 093e 1b62 1abd
00000150: 5541 4d3d fa5e dbba 6495 3c39 1034 0bbd
00000160: a7eb 4e3c be32 0c3e 5ecb 0bbd f09e 1d3e
00000170: 07be 613c 3a1f 03bc c8ea a8bc 6265 363e
00000180: a72b fd3c 3123 d53d ce97 8b3d cc81 213e
00000190: 9fe1 82bc d8e9 803d 2748 ce3d f9bc 69bd
000001a0: 1509 2fbd 637c 5a3d 7b25 5bbc 2875 34bd
000001b0: 5e44 9ebd 11c6 0e3e a8bb d33d 1883 16bd
000001c0: db4c 98bb fdc9 e93c 84ec 343e 865b f43d
000001d0: 2c98 eb3d 18b0 fc3b e2ec 8b3d 316f e7bc
000001e0: 5178 a13d 50b1 99bd 5e56 213e 2462 d13d
000001f0: 006c 6537 fe65 7b3b 0fe0 0d3e 4dc7 ed3d
00000200: d142 593d 1f63 e5bb 5aeb b7bd d395 c6bd
00000210: 0c10 2abe 515e 95bd 8f5c 23bd d765 54bc
00000220: ec4e c53d 318b 613d b92b bd3c efab 743d
00000230: 4193 123e 6e61 f03d 333a af3c 2978 3c3d
00000240: ed78 b8bd 78a7 333d 2551 ae3d 484c 05be
00000250: b09f adbd a74e 08bb 84ac 8c3d c61b d63d
00000260: 1e81 c7bd 7bf1 133e 6572 023d 37c9 59bc
00000270: 4771 eebc f15f 803d 54c8 873d ad8f e13c
00000280: 752f 05be 89fe b2bc 1002 fdbd e570 08be
00000290: 52cc a13c 9cc3 65bc 1cbe f7bd 458f dabd
000002a0: c639 143e 22c5 013e 4e7c ebbd 7f62 b2bd
000002b0: df2a 783d 7e74 bebc 7ac5 703b 238b 92bc
000002c0: 0355 7e3d 9aa9 12be bf55 0bbe 3665 933d
000002d0: 2ba2 913d 5283 283d b72c 70bd 7c47 a8bd
000002e0: d84d 38bd c591 9cbd e95b c5bd f33b 9f3d
000002f0: 5073 a1bd b686 04be ea8a 623c 9c77 bf3d
00000300: 38aa 273d d84e 8fbd 7406 073e bba5 87bc
00000310: 6e6c 0e3e 3445 c2bc b72f 143e 708c 1c3d
00000320: b866 f23d 9340 093e 3e43 0d3e a4a4 e93d
00000330: e03c 833c 3d3f dc3d a17e 143e 6f8f a7bc
00000340: 232b ce3d 0c6b be3d 5cdc 053e 04f5 3bbd
00000350: cbba 17bd 4454 bd3d 4cbe 7c3c 18bb 223d
00000360: ea56 703d 2250 4a3e 1a0c 1ebd 167d 833c
00000370: 3d3e 06bd 1a64 7e3d b2bc d23c 0be3 1d3e
00000380: 25ca b23d c07f df3d f8c5 dd3c eb38 053e
00000390: 04b3 2abc 3049 93bd cf7e 74bd 34fc 123c
000003a0: 5e2f 63bd edb7 0d3e 13d3 043d 79d2 e2bc
000003b0: aff8 ccbc acd7 343e c459 403e 208e 30bd
000003c0: 3b84 2b3e 5c6c de3c 37d9 253c 7c34 bc3d
000003d0: 8023 a0bd e023 9fbd 9eb9 0d3d e09c 013e
000003e0: 3baa 173e 74a2 063e e884 f63d 65b6 923d
000003f0: 5235 a43c ad3a 00bc a70e 373e b616 623e
-0.010058158 0.06914442 0.078044735 -0.11142915 -0.03149113 0.15349264 0.05198735 0.18154949
0.12644142 0.077333175 0.113215216 0.03921645 0.1489863 0.0007070973 -0.022710955 0.07674587
0.080396704 0.1514746 0.14699094 0.1446523 -0.005146635 0.036046423 0.036445253 0.14947829
-0.08823385 0.14711216 0.08289593 0.10835441 -0.013490609 0.11382418 0.14650244 0.12865081
-0.027417747 0.13499394 0.018908469 0.1187897 -0.0011155701 0.06689276 -0.024505403 0.08765449
-0.06550374 -0.02259236 -0.016055314 -0.02434599 0.14725901 0.16140221 0.09458482 -0.0069775446
0.15890326 0.15724008 0.046459634 -0.0248016 0.11134355 0.14207655 0.09000948 -0.09330011
-0.043745942 0.10775549 -0.016171461 0.114033 0.0860902 -0.020663897 -0.08673073 -0.0055532134
0.12130973 0.10060466 0.117956296 -0.0897574 -0.032839905 0.09382126 -0.08890671 0.11872422
-0.01545661 0.19547887 -0.030212933 0.023731349 -0.06838291 0.09538057 0.0077678952 -0.027578957
-0.08452489 0.16059645 0.13446783 -0.037691217 0.050111134 -0.0016736679 0.0001798473 -0.033985198
0.012629426 0.13691232 -0.034129493 0.15392661 0.013778216 -0.00800305 -0.020619765 0.17812112
0.030904604 0.10407103 0.06816064 0.1577217 -0.015976725 0.06294602 0.10072356 -0.057064984
-0.04273327 0.05334128 -0.013375635 -0.04405704 -0.07727884 0.13942744 0.10338527 -0.036746114
-0.0046478338 0.028538698 0.17668349 0.11931519 0.11503634 0.0077114217 0.06832291 -0.028251262
0.07884277 -0.07504523 0.15755603 0.10223797 1.3674609e-05 0.0038360353 0.13855003 0.11610279
0.053042237 -0.0070003415 -0.089804366 -0.096965455 -0.16607684 -0.0729338 -0.039883193 -0.012963734
0.09634194 0.055064384 0.023092138 0.05973428 0.14313985 0.11737333 0.021390056 0.04601303
-0.0900744 0.043860883 0.08511571 -0.1301738 -0.084777236 -0.0020798834 0.06868842 0.10454516
-0.09741424 0.14447586 0.031847376 -0.013292602 -0.02910675 0.06268299 0.066300064 0.02753433
-0.13006385 -0.021849887 -0.12353909 -0.13324316 0.019750748 -0.014023688 -0.12096807 -0.10671858
0.14475164 0.12672856 -0.114983186 -0.08710193 0.06058776 -0.023248907 0.00367388 -0.017888611
0.062092792 -0.1432251 -0.13606928 0.07197039 0.07111009 0.04114086 -0.058636393 -0.082167596
-0.044996113 -0.07644991 -0.09636671 0.07775106 -0.07883322 -0.12942013 0.013827065 0.093489856
0.040933818 -0.0699746 0.13186055 -0.016558519 0.1390855 -0.02371464 0.14471327 0.03821987
0.11835998 0.1340354 0.13795182 0.11408356 0.016020238 0.10754249 0.1450143 -0.020454137
0.100668214 0.09297761 0.13072342 -0.045887962 -0.037043374 0.09244588 0.01542623 0.039729208
0.058676638 0.1975713 -0.03858576 0.016050857 -0.0327742 0.062107183 0.025724743 0.15418641
0.08729962 0.10913038 0.027071938 0.13009994 -0.010418657 -0.07191694 -0.059691247 0.008971263
-0.055465095 0.13839693 0.03242786 -0.027688252 -0.025020925 0.17660397 0.18784243 -0.04310429
0.1674966 0.02715128 0.010122589 0.09189698 -0.07819271 -0.077705145 0.034600846 0.126575
0.14811032 0.13147908 0.120370686 0.07163695 0.020044956 -0.007826489 0.17876683 0.22078976

lstm.bias_hh_l0 f4 [256]
00000000: 3fed 85bd cf71 7bbd 617b c03d 8837 88bd
00000010: 7cdf 753c c456 3b3e d270 b93b 8245 373e
00000020: 026e 3b3c c1a7 ce3d 794e 183d d770 b33c
00000030: 4167 873d 3c6e 213d 8ceb 8ebd 69b9 a73d
00000040: d9e6 b13d 8604 0c3e d0a9 813d c78c 07bc
00000050: c314 1dbd 33d2 e93d ac48 843d 329c 74bc
00000060: bdd5 ea3d 24f4 813d 2ac0 72bd 33ad 2fbd
00000070: 8f1c 19bc 5b98 31bb c79f d03d 4eb4 4abd
00000080: 0f9c 6ebd ab71 333e 934b ac3c 0c15 5e3d
00000090: b8c2 07bd 3062 ee3c ed02 7fbb 659e b0bc
000000a0: d9da 6fbd 2a89 0aba b4e4 753d 4694 933d
000000b0: d1b9 ff3d 3598 a23b 82a7 91bd 0d47 2c3d
000000c0: f19e 3b3e 587a 343d 99f9 373e 56b2 123e
000000d0: 12da c23d e8ec 823c 799c 863d 5c8f 57bd
000000e0: f65e 793d 4518 8a3d 7656 8e3c 8f7f d5bc
000000f0: e9b1 4cbd a98e 973c 3b65 0b3c bac0 1b3e
00000100: 8aff 34bd 804c 2e3e c62d fbba 492c 513d
00000110: e5a7 033e 70de 0f3e 2cfc 83bd 2263 4bbc
00000120: 16f0 81bd 5af6 163d bcae 123c bebe 103d
00000130: 5beb 903d b0c9 0a3e 3a39 a23d db08 893c
00000140: 678f e7bb 670a 953c 58ec 003e 344a 96bd
00000150: 07c2 673d 4283 a6bd 8cc0 0a3d 25e9 1cbd
00000160: ed33 bdbd b8f9 f63d 6bb0 7abc cf7b 6b3d
00000170: ad2c 123e 3ad6 6c3d 7692 c63d 0214 173b
00000180: 129f 073e 760c 1c3e a794 1f3c 670b 30bd
00000190: b9ee 303e 5d47 e23d 3191 d03d 78d1 5ebc
000001a0: d085 903d f708 d83d bad7 853c 59bd 5abc
000001b0: 2027 673d 4cce 543e 41dd 473d 3e10 73bd
000001c0: 938c 72bd 410c 073d 4523 293e 6d99 ab3d
000001d0: 2abd f63d cab1 023d edea af3d 1c5a 41bd
000001e0: 8f49 cb3d 3d7f 773d 07c1 bc3d db96 ec3d
000001f0: c176 d5bd 8fb8 273e 2aa4 8d3d 1092 6ebd
00000200: 9417 803d 5cda 3d3d 08f4 b43d 75fa a93d
00000210: 6ad2 aebc 53bc 2d3d e284 0f3e a0f8 873d
00000220: 27ce 593d 8663 3c3c 02ec febd 5a58 483d
00000230: a720 4bbd 0ce9 a03c fe31 f8bd 7aa8 39be
00000240: cd52 0ebd c3a8 16be c349 9a3d a95a 9c3c
00000250: f991 53bc 64ac 073e b7c5 903d 465d 9b3d
00000260: c8e6 85bd 689d 99bd 1416 69bb b4e4 c63d
00000270: 0642 d7bd fd7f d9bd c75e 5d3c caad 7c3d
00000280: 666b 3a3d c06b 2b3c fa97 27bd 7880 6abd
00000290: 1875 d6bc 030d c53d c724 d2bd cd9b f2bd
000002a0: 787d 463c b59e 833c e37a 093d e03c bd3c
000002b0: d30b d83d bb08 2cbd be9f 623d bceb 86bd
000002c0: 8a0a b1bd 2da4 bebd 2fae b03d 1d5c 76bd
000002d0: 43f5 13bd b055 0b3c 259f d4bd 0fe1 7c3c
000002e0: 0fd7 a5bd 3fe6 c23d 7515 da3d 3964 ac3d
000002f0: 2ecf 883d 8e1b 7a3d 4504 d63c 28ab 073d
00000300: 94ec 4d3d 59b8 13bc cb96 a13d 89fd 26bd
00000310: 8737 80bd e8e5 823d c24a 06bd 7dcd 663c
00000320: 0e9b 743d e581 183d 54be 243e cfda c63c
00000330: 39db d6bc 23f1 0a3e dc51 693d 5ef9 e73d
00000340: 2dd0 c83d 4421 203d 0ad5 9bbd f6b1 f73d
00000350: 1a63 2d3c 1478 233e ae46 49bc d7de 393e
00000360: 1669 723d b827 863d 4a66 7d3c 001b 123e
00000370: 3340 f73d 26ef 41bd 9e7f ff3c 438d 9d3a
00000380: b028 503d 0c75 0abc b6ee 9cbc adbd 8b3d
00000390: 17d5 7c3d 85eb 2cbd 2edf ba3d 3253 213e
000003a0: a048 a0bc 915a 3b3e cb3a 993d 6b0a 133d
000003b0: 318e 8a3c 80b3 333e caec 243e 9dec 9dbd
000003c0: c878 cb3d 8fff 37bd fdc9 cbbb 9625 acbc
000003d0: d5ff a73c 466d 063b 00e0 743c f1a6 073e
000003e0: 87f1 973d 0d8b 8bbd 6e78 9fbb e408 7ebd
000003f0: 37fd 5cbd 1dfd 0d3e 26a1 eb3d 46e5 a33d
-0.06539392 -0.061387833 0.09398533 -0.06651217 0.015006896 0.18294817 0.005659201 0.17897609
0.011439802 0.1009059 0.037184212 0.021904392 0.06611491 0.03941177 -0.06978521 0.08189661
0.08686609 0.136736 0.06331217 -0.00827331 -0.038349878 0.114170454 0.064591736 -0.014929818
0.114665486 0.06345394 -0.059265293 -0.042889785 -0.009345188 -0.0027098868 0.10186725 -0.04948836
-0.058254298 0.1752383 0.02103213 0.05421929 -0.033144683 0.029099554 -0.0038911656 -0.021559903
-0.05855832 -0.0005284721 0.06003256 0.07206015 0.124866135 0.004961992 -0.07112028 0.042059947
0.1832235 0.04406199 0.17966308 0.14325842 0.0951425 0.015982106 0.065728135 -0.052626953
0.060881577 0.0674291 0.017375212 -0.026061801 -0.049974356 0.018500643 0.008508022 0.15210238
-0.044189014 0.1702137 -0.0019163422 0.051067624 0.12857015 0.14049697 -0.06444582 -0.012413772
-0.06344621 0.036856033 0.008952793 0.035338156 0.070761405 0.135535 0.07921071 0.016727855
-0.0070666554 0.018193437 0.12590158 -0.07338372 0.056581523 -0.08130504 0.033875033 -0.03830828
-0.0923842 0.12059349 -0.01530085 0.05749112 0.14274855 0.05782149 0.09695904 0.0023052697
0.13244274 0.15239128 0.009740031 -0.042979624 0.17278565 0.11048768 0.10183943 -0.013599746
0.07056773 0.10548585 0.016338218 -0.013350808 0.056433797 0.20781821 0.04879499 -0.05934166
-0.059216093 0.03297067 0.1651736 0.08378873 0.12047799 0.031907834 0.085897304 -0.047205076
0.099261396 0.06042408 0.092165045 0.11552211 -0.10423041 0.16378997 0.069160774 -0.058244765
0.06254497 0.04635082 0.08835608 0.08299724 -0.021340568 0.042415928 0.14015535 0.06639218
0.053175118 0.011498338 -0.12447359 0.048912384 -0.049591687 0.019642375 -0.1211891 -0.18130675
-0.034746934 -0.14712815 0.075336 0.019086199 -0.012913221 0.13249356 0.07068961 0.0758615
-0.06538159 -0.07500726 -0.0035566138 0.097115904 -0.1051064 -0.10620115 0.013511366 0.061689176
0.04551258 0.010462701 -0.04091642 -0.057251424 -0.026178882 0.096216224 -0.10260921 -0.11846123
0.012114875 0.016066888 0.03356446 0.023100317 0.1054913 -0.042000514 0.055328123 -0.065879315
-0.08644588 -0.09308658 0.08626973 -0.06014644 -0.03612257 0.008504316 -0.10381917 0.0154345175
-0.0809766 0.09516572 0.10648624 0.084175535 0.066801414 0.061061434 0.026125083 0.03312221
0.050274447 -0.00901612 0.078900896 -0.040769134 -0.06260591 0.063915074 -0.03278614 0.014087078
0.059718184 0.037233252 0.1608823 0.024274258 -0.02622758 0.13568549 0.056962833 0.1132686
0.098053314 0.039094225 -0.07608993 0.1209449 0.01058271 0.15963775 -0.012284918 0.18151413
0.05918225 0.065505445 0.015466282 0.14268112 0.12072792 -0.04734721 0.031188782 0.0012020249
0.050820053 -0.008450758 -0.019156795 0.06823287 0.061726656 -0.042216796 0.091245994 0.15754393
-0.01956588 0.18296267 0.07481917 0.035898607 0.016913505 0.17548943 0.16105953 -0.07711146
0.099351466 -0.044921454 -0.0062191472 -0.021014016 0.020507732 0.002051191 0.014945984 0.13247277
0.074191146 -0.06813631 -0.0048666513 -0.062020198 -0.053952422 0.13866086 0.11505346 0.08002715

lstm.weight_ih_l1 f4 [256, 64]
00000000: b3ee a63d 96cc 513d 840a 0e3e a38d 1cbb
00000010: 88a8 ccbd f632 54bd 7ab4 103c e89a 3e3e
00000020: e57d 8a3d 560d 793c 2f4e fe3c 30aa 5c3e
00000030: af50 2bbd 03d7 60bd e4e6 d93d 9733 d23d
00000040: 01b0 5d3d 6b33 3c3d 9a9f fa3b 3f7c 2fbc
00000050: 2299 fbbc a071 c73b bb32 433d 2315 bd3d
00000060: aefa 3f3c 33b1 dcbd 955a 1a3e 6ac2 06bd
00000070: 802d c7bd 3ed2 5b3d f688 523d 34af d93d
00000080: 92a8 b0bd d143 0cbe 14d7 053e baae 52bc
00000090: 03aa 423d 6208 213e 0ddd 133d 2ea8 b13d
000000a0: 56ac 533d 61cc aa3d 5959 b23d acab a53d
000000b0: 9879 483d 53f2 4e3d 3624 18bc 70d6 0cbe
000000c0: 7c2a 87bd fb00 d23c bfb4 7ebd 13cd e93d
000000d0: 7e52 e03b 9da3 ea3c 60e5 c9bd 7888 47bb
000000e0: 8e81 89bd 30c4 46bd 3335 e73c 9ea4 80bd
000000f0: edcb 973d 5ace a7bd 31c9 b63d 5658 2a3e
00000100: 0c64 833d 3fd1 2f3d d33b 553d 8308 b8bd
00000110: 7bed 87bd 9ffe 113d 0da9 293d 843f f2bc
00000120: cb06 4fbc 19d7 15bd 26e7 1bbd bf3b f03d
00000130: 2d73 163d 81c9 9c3d 4c08 993c 8787 22be
00000140: 92c5 8ebd 957b 233d 26d7 333e 47f5 afbb
00000150: d80f 9b3a 3536 463d a1b4 90bd 8197 85bd
00000160: e398 51be e42a 0bbe 22ec e0bc 9e43 4b3c
00000170: 3419 91bc 9db7 93bc f3ff c0bd 594d 053e
00000180: 02ed 953d 4175 7b3b 46b8 573b cec0 d33d
00000190: ccc9 93bd 35f6 b73c 1356 bbbc 9f81 acbd
000001a0: 323d f6bd c6d4 1d3c bc91 fcbd 461e d43d
000001b0: 2dfc b8bd e576 87bc 9c85 bd3d a719 0f3c
000001c0: 09da 0d3e 5171 7b3d a31e 273d 06c0 f03d
000001d0: b462 83bd 03f3 a7bc 9ec9 7cbd cf0b 3cbe
000001e0: cbd2 97bc 0249 463c 00f7 b73d 8f47 073b
000001f0: c6cd f6bd 3cb8 90bd 9098 f0bd 4636 623b
00000200: 1df6 38bd 23b3 b93d a10f bf3c c318 47be
00000210: 2aec cdbb 0784 cb3c 0411 b53d 9a4c 393e
00000220: 7f2c c33c 753c bf3d 31e4 ffbd 8417 a63d
00000230: 092f be3d 1ed1 bfbc 121d 78bd a1f1 91bd
00000240: 4dc6 9ebd d9ab 21bc 52e5 a0bd 6c56 1cbd
00000250: 4079 50bc 9a14 35bd 83b6 3abd c9af f0bc
00000260: 79d1 56bd bf4a df3d aae8 bc3b 3582 e63d
00000270: 0ed3 0bbe 98ab 023c cb1a 083d 428a f53c
00000280: e73a 0abe 0c2f c63b d4b0 953c 3ee8 20be
00000290: 88b1 c8bd 6f16 203d d721 d3bd 76f2 26be
000002a0: a1e0 583d 96f1 64bd 1a04 9cbd dd53 043e
000002b0: de7f d23d b97b d73d ab4b d13d 55ff 48be
000002c0: 6f22 123d 90e9 a5bc e32f 5dbb 48a6 90bd
000002d0: f761 663d 227a 053e 2305 e8bc 011e 43bd
000002e0: f024 50bd 1bec 583c 9921 aebb c419 c13d
000002f0: 6044 c6bd 537a 51bd 0c4b ed3d 494a 72bc
00000300: 8688 9abd 4a3b 5b3d 59b4 75bd 80ff 8b3c
00000310: 0b76 fcbd 8005 b1bd 35b4 acbd dcc1 333d
00000320: 9d62 02bc f4da 49bd c0e1 0abe 8fca 023e
00000330: 218f f43d 8820 abbc 05cf 6ebc ae46 a03d
00000340: 60b0 223e e922 a03d 7a52 943d 2851 4a3d
00000350: 8014 06be f5d4 9cbd 7cd0 a9bd a710 0c3e
00000360: 61af 793d a1ad 1a3e b406 c6bb 05a3 10be
00000370: 8703 a1bd 95a1 813d d8ff ed3b 5eea 123e
00000380: 57e0 f93c 4dfd b6bd 8540 68be d260 90bd
00000390: 3c0a 463d dffb 933d 3e96 a4bd d09c d6bc
000003a0: 7c5b 06bd 9302 db3c 4794 fbbd c592 56bd
000003b0: 7709 383d d969 20be adc4 843c b3e9 0cbe
000003c0: 17ca a9bc c345 f73c bd16 cabd 2ac4 d03d
000003d0: a22e d6bc d8a4 ef3d 4f69 853d be8b cabd
000003e0: 3cc6 b7bb 3e9c 703d df4e 6e3c f08d fbb8
000003f0: f858 b53d fb51 923d c565 2abd 9220 903d
0.08150997 0.0512205 0.13871199 -0.0023888133 -0.09993082 -0.051806413 0.008832091 0.1861378
0.06762294 0.015200933 0.03104314 0.21549296 -0.041824993 -0.05489255 0.10639742 0.10263746
0.05412293 0.045947473 0.0076484205 -0.010710775 -0.030712668 0.006086543 0.047655802 0.09232547
0.011717482 -0.107759856 0.15073617 -0.03290025 -0.09725475 0.0536673 0.051400147 0.106291205
-0.08625902 -0.13697745 0.13070327 -0.012859041 0.047525417 0.15725854 0.036099482 0.08674656
0.051678024 0.083397634 0.08708448 0.080893844 0.048944086 0.050524067 -0.009285977 -0.13753676
-0.065999 0.025635233 -0.06218409 0.11416068 0.0068457713 0.02864247 -0.09858203 -0.0030446332
-0.06714164 -0.048526943 0.02822361 -0.06281398 0.07411943 -0.08193655 0.08925093 0.1663526
0.06415567 0.042924162 0.052059006 -0.089859985 -0.06637093 0.035643216 0.041420985 -0.029571302
-0.012635897 -0.036582086 -0.038062237 0.11730146 0.036730934 0.07655621 0.018680714 -0.15872012
-0.06971277 0.03991278 0.17562541 -0.0053698155 0.0011830283 0.04839154 -0.07065702 -0.06523038
-0.20468478 -0.1359058 -0.027456347 0.012406258 -0.017712213 -0.01803189 -0.094238184 0.13017787
0.07320596 0.003836945 0.0032916232 0.10339509 -0.07216224 0.022456268 -0.022868192 -0.08423161
-0.12023391 0.009633249 -0.12332484 0.10357337 -0.09032474 -0.016536186 0.092539996 0.008734143
0.13852705 0.061387364 0.0408007 0.117553756 -0.064153105 -0.02050162 -0.061715715 -0.1836388
-0.018533131 0.012102367 0.089826584 0.0020642017 -0.12050967 -0.0706639 -0.11747849 0.0034517213
-0.045156587 0.09067371 0.023322882 -0.1944304 -0.0062842565 0.024843229 0.08841136 0.18095627
0.023824928 0.09337703 -0.12494696 0.08109954 0.09286315 -0.023415145 -0.0605746 -0.07126165
-0.077526666 -0.009867632 -0.078562394 -0.038168356 -0.012724221 -0.0442091 -0.045584213 -0.029380696
-0.052445862 0.109029286 0.0057650404 0.11255304 -0.1365473 0.007975481 0.033228677 0.029973153
-0.13499032 0.006048089 0.018272795 -0.15713593 -0.097994864 0.039083894 -0.10309189 -0.16303429
0.052948598 -0.055894457 -0.0761797 0.12922616 0.10278295 0.10521645 0.10219511 -0.19628651
0.03567737 -0.020252973 -0.0033750467 -0.07062966 0.05624577 0.13034871 -0.028322762 -0.047636036
-0.050816476 0.013239886 -0.0053140637 0.094287425 -0.0968101 -0.051142048 0.1158658 -0.014788219
-0.07545571 0.05352334 -0.059986446 0.017089605 -0.123272024 -0.08643627 -0.08432809 0.04388605
-0.007958082 -0.049281076 -0.1356268 0.12772582 0.11941362 -0.020889536 -0.0145757245 0.07825981
0.15887594 0.078191586 0.07242294 0.049393803 -0.13093758 -0.07657806 -0.08291718 0.13678227
0.06095827 0.15105297 -0.0060432795 -0.14124687 -0.07862001 0.063296475 0.007263165 0.14347216
0.030502481 -0.08935032 -0.22680862 -0.07049717 0.048349604 0.07225775 -0.08036469 -0.02619782
-0.03280209 0.026734626 -0.12284141 -0.052386064 0.0449309 -0.15665378 0.016207064 -0.13761024
-0.020726247 0.030184632 -0.09867618 0.10193665 -0.026145283 0.11701363 0.06514227 -0.09889935
-0.005608348 0.058742754 0.0145451715 -0.000119950506 0.0885486 0.07144543 -0.04160096 0.07037462

lstm.weight_hh_l1 f4 [256, 64]
00000000: 88f7 bcbd efb7 1f3d 4b60 0fbe b58c 2e3d
00000010: a963 bcbb 2036 0c3d 272f 3dbd aa5d e03c
00000020: f757 3d3d 9d5d 0d3e 62f4 42bd 4117 12be
00000030: ec9a c0bd f18a e4bd dee0 29bd d1c1 8f3d
00000040: be5d 863d 176a 9fbc eb24 05bd b3c0 be3d
00000050: b082 df3c 5778 06be 92f4 bd3c 81de f83d
00000060: 143a 9c3d e664 17bd 53be 143e 643f b63d
00000070: d35d 553c 0d84 c8bd bd6d 073e 3192 443d
00000080: 0d33 b1bd c198 d53d 95a3 77bd 4d89 76bc
00000090: 3cf9 f53d 77bb 12bd 58cb fcbd 1712 013e
000000a0: 0f28 b3bb 260b 293d de6b 03bc b3b6 2d3e
000000b0: aec7 50bd 8062 bcbc 80ee c93d 9ca1 173d
000000c0: f0ae b8bd 02a8 c03d 9a9a 073d 7aec 233c
000000d0: 9140 b13d 0d22 b2bd 0ded 0e3e 7fc1 e9bc
000000e0: 2b6a 19be 9dbd 323d 9c13 ffbd dfd4 0abe
000000f0: cf59 cdbd e4aa d03d 4bbc 4f3d c1da 84bd
00000100: e7de d7bc d6d5 4ebd 9faa d43d 184f ce3d
00000110: 063f 263e f4e9 01be acde d3bc 35bf ebbc
00000120: 06f1 ee3d 91b6 64bd 89b0 dfbd 53ec 5fbc
00000130: 8a2a abbd e66d 0e3d a522 3f3d 6d8b 05bd
00000140: faad c53d a3da c33d 4dbb cf3d c6d9 7c3c
00000150: 45ef 92bd 9d84 a13d 91f4 c53b 5816 133e
00000160: 5883 f9bd 48ea d33a b42f ec3d cbcf b23d
00000170: 31c6 0abc 5ce5 cebd c5fa 033e 4e90 cc3d
00000180: 9c4f 583d 5a99 7bbd b606 da3d eedb 933c
00000190: 2c6f 343d 4d8f 993d a978 f83d 1262 f13c
000001a0: 23a4 8fbd b2d9 c33c 5760 70bd 49ec 7bbd
000001b0: e044 1cbd 8441 433d c2fc 503d 8820 79bd
000001c0: 6a9a ccbd d5f5 bb3d 84c8 2e3d fee9 f73c
000001d0: c347 183d f85b 4cb8 0a27 a33b e4f4 85bd
000001e0: 61ff 0cbc 504b 653d e937 1cbe 64c0 5a3d
000001f0: dd3c c3bc 4914 043e 4c8c ab3d 2062 7a3d
00000200: 6012 de3b 1f73 363b 9091 0cbe d8c4 013e
00000210: 5b49 833d e003 173b 7e61 f63d edc1 0abd
00000220: 0b4f f53d 2b3a 1fbc f0e3 d63c 9c26 f2bd
00000230: f1af ec3d 477e 483c 58f8 ddbd 2000 c1bd
00000240: 0dbe adbd 152e 2e3e 5707 f5bd 9235 01bc
00000250: f4c6 ab3d 1633 06be 2834 b0bd 3037 29bd
00000260: 4fc9 98bd f824 94bd 1b6a b6bd 7d49 67bd
00000270: cd20 e6bd 4711 a3bd 0fd0 cabd c685 e8bd
00000280: c4a2 aabd b92c 8ebd b03d b03c e85e d93d
00000290: cae9 02bb f9e8 9a3c 1859 18be 1530 233d
000002a0: 7aa3 00bd d6e8 bdbc facb 163e 36ff b33d
000002b0: 6b48 9cbc 2ecf 2cbd 06fb 033c 1a05 4ebd
000002c0: 661a 473e a133 62bd 65e1 5e3d fc01 0d3e
000002d0: ca96 903d f236 fb3d a141 1fbd 60f9 7039
000002e0: ad68 003d b591 9bbd 9cc6 07be a5f7 233c
000002f0: b3f4 cf3d 0fab c33d aca0 c63d b7e2 5c3c
00000300: 0fe0 a03d 5116 9cbd 5add 25be 40ab 143e
00000310: 328a c3bd 4634 f33c 0af6 87ba 132f d8bc
00000320: fe8c 183d c284 d03d 026c efbc 784b c13c
00000330: 399e 1dbd 2e56 8c3d 952f 98bc 555d 073e
00000340: 326f 0abe 0102 eabd 3d27 ca3d bd95 b1bd
00000350: 8468 b6bd 0a7b 813c 6d1f 8abc fd42 edbd
00000360: bb4c 4fbd 433c 973d 9e73 0c3d bf26 d73c
00000370: 9327 12be 533a 84bc 0b42 c63d 8890 33be
00000380: 4904 123e 50f1 bd3b 249a 103e 88e5 c7bc
00000390: 45aa c0bd 9f0b 973d dfc8 49bd 4805 653d
000003a0: aade fcbc a372 1ebe f3e4 a43c b32f 41bd
000003b0: 1664 063e 6f9e bebc 8052 44bd 31bc 3bbe
000003c0: 8077 8fba 9121 8f3d c10a d13d 6424 c33d
000003d0: f6be fcbd b3c8 9cbc 1582 42bd 99a8 243d
000003e0: cce2 d43d 16b0 b33d d348 b63b bf27 87bc
000003f0: 4c95 a1bd d1da 22bd c3a9 66bd aa29 9b3d
-0.092269 0.038993772 -0.14001577 0.042614657 -0.005749185 0.034231305 -0.046187546 0.027388413
0.046226468 0.13805242 -0.047596343 -0.14266683 -0.09404549 -0.111593135 -0.041474216 0.070193894
0.06560849 -0.019459767 -0.03250591 0.09314098 0.027283996 -0.13131844 0.02318791 0.12151814
0.07628265 -0.03696146 0.14525728 0.088988096 0.013022858 -0.09790812 0.13225456 0.04799098
-0.08652315 0.10429526 -0.06045874 -0.0150473835 0.12010428 -0.03582331 -0.12343472 0.12604557
-0.005467422 0.041270398 -0.008021323 0.16964225 -0.05097168 -0.022996187 0.098599434 0.037019357
-0.09017742 0.09407045 0.033106424 0.010005111 0.08654893 -0.08697901 0.13957615 -0.028534649
-0.14981906 0.04363786 -0.12454912 -0.13557766 -0.10026895 0.10188845 0.05071668 -0.064870365
-0.026351405 -0.0504969 0.10384106 0.1007368 0.16234979 -0.12686902 -0.025863014 -0.028777698
0.11667065 -0.05583817 -0.10922343 -0.013667184 -0.08357723 0.034772776 0.0466639 -0.03260367
0.09652324 0.09563186 0.10143147 0.015432781 -0.07174543 0.07886622 0.0060411175 0.14363992
-0.12183255 0.0016167844 0.11532536 0.087310396 -0.008470104 -0.101023406 0.1288863 0.099884614
0.052810296 -0.061425544 0.10645811 0.018049207 0.044051334 0.074980356 0.12132389 0.029465709
-0.070137285 0.023907516 -0.058685627 -0.061504636 -0.03815162 0.047669902 0.0510223 -0.06082204
-0.0999039 0.09177748 0.042671695 0.030262943 0.037177812 -4.8723043e-05 0.004979019 -0.0654085
-0.008605809 0.055980027 -0.15255703 0.053406134 -0.023832733 0.12898363 0.08376369 0.061128736
0.006777093 0.0027839614 -0.13727403 0.12672746 0.06410476 0.0023043081 0.12030314 -0.03387635
0.11977967 -0.009718458 0.026231736 -0.118237704 0.11556996 0.012237138 -0.108383834 -0.09423852
-0.08483515 0.17009766 -0.119642906 -0.007886307 0.08387557 -0.13105425 -0.08603698 -0.041312397
-0.074602716 -0.07233614 -0.08906957 -0.05646657 -0.11236725 -0.0796228 -0.09902965 -0.1135364
-0.08331826 -0.06942124 0.02151379 0.10613805 -0.0019975775 0.018909918 -0.14877737 0.039840776
-0.031405903 -0.023182314 0.14726248 0.08788912 -0.0190775 -0.04218977 0.008055454 -0.050297834
0.19443664 -0.05522502 0.05441417 0.13770288 0.07060011 0.12266339 -0.038880948 0.00022981083
0.031349827 -0.07596151 -0.13259357 0.0100077735 0.101540945 0.09554111 0.096986145 0.013481787
0.07855236 -0.07621444 -0.1619772 0.14518452 -0.09547843 0.029688012 -0.0010373008 -0.026389634
0.037243836 0.101815715 -0.029226307 0.023595557 -0.03848097 0.06852375 -0.018577376 0.13219197
-0.1351898 -0.114261635 0.09870765 -0.086711384 -0.089066535 0.01580574 -0.016860688 -0.115850426
-0.050610285 0.07384541 0.03428995 0.026263593 -0.14272909 -0.016141092 0.096805654 -0.17535603
0.14259447 0.005796589 0.141213 -0.024401441 -0.09407476 0.073752634 -0.04926383 0.05591324
-0.030867893 -0.15473418 0.020128703 -0.04716463 0.13124117 -0.023268906 -0.04793024 -0.18333508
-0.0010945648 0.06988824 0.10207129 0.09528425 -0.123411104 -0.01913867 -0.047487337 0.04019985
0.103948206 0.0877382 0.0055628805 -0.016498445 -0.07889804 -0.03975946 -0.05631424 0.07576306

lstm.bias_ih_l1 f4 [256]
00000000: d22d 463d 5a9a de3d 36c2 e83d 8a27 8dbd
00000010: f172 ed3c 1144 8d3d a230 d93d f03a 35bd
00000020: f371 12bd 59e2 cfbd 480f 0b3d 7054 c9bd
00000030: 7740 8f3d 2cb0 b1bd b828 1f3d ab7d b33c
00000040: e1f7 743c 4ced 88bd ef38 b13d 72f6 003e
00000050: aa87 f23c 2e27 8a3d 6a4c babd 6f84 2a3d
00000060: 419b 11bd 2361 093e c743 eb3c 8d10 b0bd
00000070: c179 0c3d 895f 713d 4419 3d3d d677 f63d
00000080: 74d2 a13d d2ca 08bd 844d 973d c697 df3b
00000090: 60d8 8abd b5eb be3d 56d4 3a3d fede d03d
000000a0: 6ef3 5abd eca8 1cbc b69d 73bd 0535 5bbc
000000b0: 625f ce3d b4e0 493c d100 b93d 711b b93d
000000c0: fe0f 99bd 1376 e53d bbee 7ebd 6042 e23d
000000d0: 8d39 6f3c c6b7 c7bd 17c8 c23c 724d 1c3e
000000e0: c102 8b3d e923 65bb 3bae 853d cdf7 8c3d
000000f0: 2d0a abbd 8b9d a4bd 1fae cbbd 194d de3d
00000100: c0de a2bd e640 1cbd 9f83 ab3d a06c 72bd
00000110: bd6f 2f3b 4573 f13d e988 923d 1513 353d
00000120: fb39 92bd ce36 cebd 7834 cd39 dbe6 e73d
00000130: d05c 633c 8c44 873d 49e2 173d 660f 82bb
00000140: fff0 f73d dd1d 1c3c dce1 6b3d 4649 623d
00000150: 5a85 ad3d 8cb3 d93d c4f7 bdbc 67ae 0fbd
00000160: 56e7 e93c 3054 ce3d baf1 ac3d 5415 7bbd
00000170: db70 13bb cd82 983d 3cc8 b53d 9055 1a3e
00000180: 572c b13c e72a dcbd af5d 443d 1f0f 03bd
00000190: 3f0a 363d fb13 ccbd c3b9 59bd 858e 9c3c
000001a0: 5642 1b3c cfdf 82bd 1c28 8d3d 76fa 88bd
000001b0: 9dcd a13d 44a0 e3bb b19a 0f3e ac98 18bd
000001c0: 540a 353d f5eb c23d ca17 fe3d c4f3 f2bd
000001d0: 6ca3 923b 2ce8 c4bd 4a3b d1bd d7de 47bd
000001e0: 08a9 ef3d f7bf f7bc c77d 20bb eb5f 2e3b
000001f0: 6cc2 ab3d 3f6f d53c f4a6 bcbd 783d 4c3d
00000200: cb40 ac3d f660 f33d 4c56 1d3d e3a6 ae3d
00000210: 0e46 3c3d fbed e63d 82e7 173e 0da8 fdbd
00000220: 57c8 e93d 4bb8 96bd c63f bcbd 74c2 08bd
00000230: b76f 993d 31b1 b7bd cc77 783d d013 73bd
00000240: d7cf 05bd 9315 093d 82d4 343d 1e45 c4ba
00000250: a010 02be ce52 8b3d 8568 6fbd 06c7 033e
00000260: e0c8 233d 168a 6abd 8874 893c c54a b2bd
00000270: 457c 013c 5f53 e5bc 0900 ccbc f675 10be
00000280: f700 ae3d 68be 563d 016b c43d 7699 81bd
00000290: e4bd a7bd 50a5 a2bd 68c1 f6bc 7b6e 143e
000002a0: b1c2 e4bc 9f07 a0bd 877d 3bbc b90a d93d
000002b0: 89f9 cd3d 21a5 b8bc 25cb fe3d cc3a b0bd
000002c0: 882b a5bd 4f61 d7bd 51cb bdbd fabe 413d
000002d0: cb0a 4b3d a73f 2dbb 4a77 95bc f571 80bb
000002e0: f17a bd3d ae53 17bd 8610 f4bc d6b7 96bd
000002f0: 495e 083d 7e2f 67bc a82a 95bc 2511 04bc
00000300: e407 02be 726b 63bd bdc1 ffbb 04a2 b2bc
00000310: 6760 04be a720 953d 8b7e 9abd e2fa c0bd
00000320: 16bc a93d e670 a2bd cd54 c23d dc1d 613c
00000330: 6d8e 16be c014 0a3e cdd2 f5bd c81f 05be
00000340: 0530 e2bd fa33 9e3d 69ee bdbd 35f7 b2bc
00000350: a076 073e dbdf 08bd 6dcb e03d 91af 86bd
00000360: 3489 773d 9aad bfbc 9bfc d5bd 1381 883d
00000370: b20d 8bbd 5283 cbbd feb2 d83d dddc 8ebd
00000380: 8bc2 a8bd eef3 a7bd a59b 9d3d 9833 7a3d
00000390: 0c87 a4bd 0fd1 0dbe 911a 0bbe d7e4 543d
000003a0: 2fc4 26bd 599f 9dbc 26df 553d 7633 9cbd
000003b0: 3561 97bc 34f6 48bd 07eb 2b3d 878b ff3d
000003c0: b80d fabd 418a f23d ed3a e83d b33b cb3d
000003d0: 27b1 0f3d fdad fb3d f897 ff3d 2344 aabd
000003e0: b888 1abd 13a8 03bc a0bb c03d 11a8 05bd
000003f0: 072f 803d 44a3 e83d 8de1 e43d 73d4 223d
0.04838354 0.10869284 0.11365168 -0.06892307 0.028985472 0.06897748 0.10604979 -0.04424566
-0.0357532 -0.10150594 0.03395012 -0.09830558 0.069947176 -0.0867618 0.03885719 0.02191051
0.014951677 -0.06685886 0.08653437 0.12594011 0.029605705 0.06745754 -0.09096606 0.041630205
-0.035548452 0.13415961 0.028718842 -0.08596907 0.0342958 0.058929 0.046166673 0.12034576
0.07901469 -0.03339655 0.07387832 0.0068235127 -0.067795515 0.09322301 0.045612656 0.101987824
-0.05345481 -0.0095617585 -0.059476577 -0.01337934 0.100767866 0.01232164 0.09033359 0.09038437
-0.074737534 0.112041615 -0.06223939 0.11047816 0.0146011235 -0.09751849 0.02377705 0.15263918
0.06787635 -0.003496403 0.065273724 0.06883202 -0.0835155 -0.080378614 -0.0994532 0.10854549
-0.079526424 -0.03814783 0.08374714 -0.059185624 0.0026769482 0.11789564 0.0715502 0.04420765
-0.07139965 -0.10069047 0.0003913974 0.11323329 0.013877109 0.06604871 0.037081037 -0.003969121
0.12106513 0.009528604 0.057588443 0.05524566 0.084727004 0.10629949 -0.023189433 -0.035078432
0.028552692 0.10074651 0.08444543 -0.061299637 -0.0022497687 0.07446823 0.08876082 0.15071702
0.021627588 -0.107503705 0.047940906 -0.031996842 0.044443365 -0.099647485 -0.05315567 0.019110927
0.009476265 -0.06390344 0.06892416 -0.06688397 0.07900546 -0.0069465954 0.14023854 -0.037254974
0.044199303 0.095176615 0.12406881 -0.11862901 0.004475048 -0.09614596 -0.102163866 -0.0487965
0.11702162 -0.030242903 -0.0024489032 0.0026607465 0.083866924 0.026054023 -0.09211531 0.04986331
0.08410796 0.11883728 0.038412377 0.08527925 0.045965247 0.1127586 0.14834407 -0.12385569
0.11415165 -0.0735937 -0.09191851 -0.03338857 0.07492011 -0.089693435 0.060661122 -0.059345067
-0.032668915 0.03346784 0.044147976 -0.0014974212 -0.12701654 0.06802903 -0.058449287 0.1286889
0.03998649 -0.057260595 0.0167792 -0.087056674 0.007903163 -0.027993856 -0.02490236 -0.14107499
0.08496278 0.05242768 0.09590722 -0.063280985 -0.08190516 -0.07941687 -0.03012152 0.1449527
-0.027924867 -0.078139536 -0.011443502 0.10597748 0.10057361 -0.022539677 0.124410905 -0.086049646
-0.080649436 -0.10516607 -0.09267295 0.04730127 0.04957084 -0.0026435645 -0.018245358 -0.0039198347
0.09251965 -0.036945038 -0.029793035 -0.07359283 0.033293042 -0.014110444 -0.018208817 -0.008060728
-0.12698323 -0.05552239 -0.007805078 -0.02180577 -0.129274 0.072816186 -0.075436674 -0.09422852
0.08287828 -0.0793169 0.09488831 0.013740029 -0.14702769 0.13484478 -0.12003098 -0.13000405
-0.11044315 0.077247575 -0.09273989 -0.021846393 0.13228846 -0.03341661 0.109763004 -0.065764554
0.06043358 -0.02339821 -0.10448571 0.06665244 -0.067897215 -0.09937157 0.10581015 -0.0697572
-0.08240231 -0.08200823 0.076957025 0.06108436 -0.08033571 -0.13849281 -0.13584353 0.05197605
-0.04071444 -0.019241022 0.052214764 -0.07627003 -0.01847897 -0.049062923 0.041972186 0.124777846
-0.12209648 0.11842776 0.11339364 0.09923496 0.035081055 0.12289045 0.124801576 -0.08313777
-0.03772804 -0.0080356775 0.09410787 -0.032630984 0.0625897 0.113592654 0.11175833 0.03975339

lstm.bias_hh_l1 f4 [256]
00000000: e06b 453d fe00 b3bb 9658 b93d dc77 b9bc
00000010: 7265 963d ecfe 043d 5662 99bd f280 0c3e
00000020: 5b42 22bd 912c 873d a4de 103b bc75 f13d
00000030: ed14 c33d b689 cf3d 61e1 8b3b 510f 8e3b
00000040: 8c01 0cbd c820 b03c 48e7 163e 754e 3a3d
00000050: a6af f23d 9092 f7bd be3e a83d 952e 5abd
00000060: 6acd df3c 1afa c1bd 5ef2 cabc edf9 94bd
00000070: 0053 62bd 2b9f 2c3e 082c d83a 0448 f43d
00000080: d867 c8bc 7975 74bd 7ca1 c1bd 4056 8f3b
00000090: 8684 0b3e b459 5ebd 9d4e ebbc 3c16 c0bd
000000a0: d55d b6bd 57a4 de3d 19d2 b73d 2355 93bd
000000b0: bad9 be3d 34e9 c6b8 259a b03d 13ff ff3c
000000c0: 6e5e 0b3d 8dc4 bdbd d683 f9bb b887 b9bd
000000d0: fa3a 263e 7414 893d 1645 853d 4b48 d03d
000000e0: cb52 67bd 8e5a 023e b190 ea3d 77d1 983d
000000f0: a3c9 173e e4c3 5a3d f8d6 36bd 7412 9d3d
00000100: 60cc 05bc c732 8cbd 9ce7 843c 5e7c 7ebc
00000110: 7541 f4bd c11a 3dbd d784 f63d be9b 083d
00000120: 71ef 4f3d 84cd eabd 34bc 833b deb4 d33c
00000130: 5b2a d23d fc48 a83c f5be 2f3d 34ee 03be
00000140: 79ce 77bd d07d eebd 0531 d83d 8c9c b13d
00000150: 7523 f33d 0db1 09bd b25d f43d 835e 873c
00000160: bae5 21bb 22b6 d13d ae92 be3c db31 b93d
00000170: a983 643c 268f 3dbd 7e42 a43d 5d62 333d
00000180: 9101 293d a5be ac3d 3164 f33d 129c a8bc
00000190: 0dd1 123e 47b9 943d 3d45 95bd 3fbc 653d
000001a0: f6ab 3cbd 16db 25bc efd0 80bd 44ea 0d3e
000001b0: 2505 edbd 81bf d73c 3612 16bd 65a5 e23c
000001c0: 4ed0 28be 0dc0 9fbd b8ca 183e 5edc b8ba
000001d0: d3c6 163e dce1 a8bd b924 05bd e6cf 2c3e
000001e0: 3439 09bd c63c 2dbd 5dea 243e f1c0 a0bd
000001f0: 303a bd3d 62e5 adbd 100a e13c e11c f3bb
00000200: 9f86 cbbd ffb1 0f3e 7acb c2bd 912a 53bd
00000210: 981e d53d 4725 8abd ca5c ae3c c805 a13d
00000220: acd8 88bd 8790 14bd 69e1 dbbc 6c82 0dbe
00000230: db98 c83d 526d e9bc 0bad 04be a119 dc3a
00000240: 5be4 3bbd ba29 993d 5521 ef3d 9152 873d
00000250: df35 fbbc e915 da3d 3c07 003e af11 bb3d
00000260: c58b 06be 0471 99bd 416f 94bd d687 933d
00000270: 930e 6f3d de0c 513d 6f6b fb3b 7918 92bd
00000280: b127 dc3d cfe9 a63d ec00 193e 6c89 dcbd
00000290: 05d9 1c3e 0ce2 70bd 95b8 2a3d c5a6 2abd
000002a0: 94cd 1ebe 9993 8d3d 9ccf bcbc c0b2 943d
000002b0: 57f5 acbc b480 a53c 8555 43bc e034 c7bd
000002c0: 5c6c cb3d c744 d8bd de4f febc 95a9 d4bc
000002d0: d0c4 2cbe 0745 103d 0c27 1c3e a60a 8dbd
000002e0: 9ad0 0abe be10 3d3d b080 dcbd 3d49 78bd
000002f0: 606e d5bd 9aa7 873c 1749 54bc 716c a8bd
00000300: 364a ebbd bfae 0ebc 1e7a f23d 659f 983a
00000310: a68f 49bd e630 06bc c1d3 8ebd 400a 5abd
00000320: 2a17 b0bd 50c4 f5bd ae8b f63d 557c a3bd
00000330: 8e92 89bd 2e18 553d aa32 2fbd 8bd3 343d
00000340: 4768 db3d a329 b33c 610f 0c3e 0668 2fbd
00000350: 2fe8 ee3c 646f 00bd c318 2b3d 1d39 22bd
00000360: 8989 ee3d c83f 3d3d c18c e3bd 83ef f43d
00000370: eda8 8ebd e438 743d 18f2 e23c df2b b9bb
00000380: 327a 58bd 985e e9bd ea6e 3f3d c29e 483d
00000390: f0eb 123e a762 c43c 3a9d ddbd 4571 313d
000003a0: 9413 f73d 7011 833d faea 983d e497 d7bc
000003b0: faa1 a93d 9cf5 523d 6e35 553d a223 a0bd
000003c0: 86e8 bdbd a422 2f3d 83e0 cfbd b08e 603d
000003d0: 6385 65bd fd2b b13b d998 5abd d9e9 e83d
000003e0: 2f76 6dbc 1127 b63d e618 6f3d 49b4 e83c
000003f0: e0c5 593c 41c2 ef3d 059c 65bd 02d5 b53d
0.04819858 -0.0054627648 0.090500996 -0.022640161 0.07343568 0.032469675 -0.07489459 0.13721064
-0.039614063 0.06600297 0.002210536 0.11790034 0.09525476 0.10133688 0.0042688106 0.004335322
-0.034181163 0.021500006 0.14736664 0.04548498 0.118499085 -0.120885015 0.08215092 -0.05326708
0.027319629 -0.09471531 -0.024773773 -0.07274232 -0.055254936 0.16857593 0.0016492615 0.119277984
-0.024463579 -0.059682343 -0.09454629 0.0043742955 0.13624772 -0.054284766 -0.02872401 -0.09379241
-0.08904616 0.10871189 0.0897562 -0.07193973 0.09318872 -9.484813e-05 0.08623151 0.031249559
0.034025602 -0.09266005 -0.007614593 -0.090590894 0.16233435 0.06693354 0.06507318 0.10170039
-0.056475442 0.12729856 0.11453379 0.07461827 0.14823012 0.053409472 -0.044638604 0.07669535
-0.008166403 -0.068456225 0.016223721 -0.015532581 -0.119265474 -0.046168093 0.12037056 0.033351652
0.05076546 -0.1146498 0.0040202383 0.02584308 0.10261985 0.020542614 0.04290672 -0.12883836
-0.060499642 -0.116450906 0.10556225 0.08672437 0.11871997 -0.033616114 0.119319335 0.016524559
-0.0024703578 0.10239817 0.023263302 0.09042712 0.013947406 -0.046279095 0.08020495 0.04379498
0.04126126 0.084348 0.11884344 -0.020582233 0.14337559 0.07261901 -0.07288597 0.05608773
-0.046062432 -0.010123035 -0.06289851 0.13858896 -0.11573247 0.026336433 -0.03663846 0.027666757
-0.16485712 -0.07800303 0.14921081 -0.001410376 0.14724283 -0.08246204 -0.032505725 0.16876182
-0.03350182 -0.042294286 0.16105027 -0.07849301 0.09239614 -0.08491017 0.027470618 -0.007419214
-0.09937786 0.14032744 -0.09511466 -0.051554266 0.10406226 -0.06745391 0.02128448 0.07862431
-0.06681952 -0.036270645 -0.026840882 -0.13819283 0.0979478 -0.02849451 -0.12956636 0.0016792306
-0.045872074 0.07478662 0.116762795 0.06607545 -0.030665336 0.1064871 0.1250276 0.09134232
-0.13139255 -0.07492259 -0.072477825 0.07203643 0.05836351 0.05103766 0.007672719 -0.07133574
0.10749758 0.08150064 0.14941758 -0.10768399 0.15317161 -0.058809325 0.041679937 -0.04166295
-0.1550811 0.06912918 -0.023048215 0.07260656 -0.02111308 0.020202972 -0.011922245 -0.09726882
0.09932777 -0.10559993 -0.031043943 -0.02595977 -0.16871953 0.03522208 0.1524927 -0.06886797
-0.13556138 0.046158545 -0.10766733 -0.06061672 -0.10421443 0.01655941 -0.012956879 -0.082238086
-0.11488764 -0.008708655 0.11839698 0.0011644183 -0.04920926 -0.008190369 -0.069739826 -0.05323243
-0.08598168 -0.12000334 0.120383605 -0.07982699 -0.06717406 0.052025013 -0.042772926 0.044147056
0.10713249 0.02187044 0.13677742 -0.042823814 0.029163448 -0.03135623 0.04177166 -0.03960525
0.116473265 0.046203405 -0.11110831 0.11959746 -0.06965814 0.059624568 0.02770333 -0.005650982
-0.05285091 -0.113949955 0.046736635 0.04897953 0.14347816 0.023972822 -0.10821004 0.043320913
0.12064281 0.0639981 0.07466693 -0.026317544 0.08282848 0.051503763 0.052052908 -0.078192964
-0.09272866 0.042757645 -0.10150244 0.054823577 -0.05603541 0.005406855 -0.053368423 0.11372728
-0.014493509 0.0889417 0.058373354 0.02840628 0.013291806 0.11706973 -0.056056995 0.08878519
