lstm_fwd_model.pt (torch, 245045 bytes, 9 tensors)

lstm.weight_ih_l0 f4 [256, 38]
00000000: 93eb 003e 1ef9 f63d 70b2 423b a13f 173e
00000010: 613c 143b c54b 083d 3d17 3bbd 4b0f a33d
00000020: 1028 0e3e 0e69 82bd 4f0b fe3d 193f 553d
00000030: 21ca fa3d d98d 283d 4d7e b33d 532f 7e3c
00000040: fc53 eb3d ce3e 673c 22fb abbd 01d8 1b3d
00000050: 5865 b8bd 452b 40bc 347d 79bd ced5 0b3e
00000060: e4de adbd 8c09 6cbd c69d 76bd 279f cdbd
00000070: 011b 173d fd54 c5bd a782 053e 89db b6bd
00000080: 2962 e43d 9f07 6d3d 0b38 cabb 8e58 563d
00000090: 5812 34bc 34f3 953d 98cf f63c 5d42 02bd
000000a0: 9059 6e3d 0952 f9bb 3b40 5b3d 024b 063e
000000b0: 7795 c43d 66e7 15bd 6777 c93d c13c 5a3d
000000c0: 206d 9c3d 7f5c 5bbd 3f57 c5bd de7e 8dbc
000000d0: 33fb 83bd fa49 fd3d 6d9e d63c 38b4 8d3d
000000e0: fad5 643d f224 123c 5893 f43d f15f abbd
000000f0: fa2e 563d 0979 8cbd c575 313c e052 30bd
00000100: 59f6 ac3b acec 42bd 27c1 033e 9739 47bd
00000110: 5038 69bd b99d 79bd f20a 053e 0d09 8c3d
00000120: 8fcb c63d ddaf c6bd 0529 eabd 5c6e b6bd
00000130: 1031 94bd a7a5 863d 1f63 933d bedd 073e
00000140: bf8a efbc 4b5c 6cbd 9ef6 ad3d 52d3 e5bc
00000150: d0a5 c43d 0725 70bb 253f c33d d01e 9bbd
00000160: 7b12 1dbd 6c19 373d 849c 253d 8aa7 94bb
00000170: 10cf ba3d 86c4 d33d 0d5d 87bd a271 40bd
00000180: 4db4 f63d 09fc eabc 50b1 13bd 4b8a ebbd
00000190: 8e49 70bd 88cc ff3c 6069 003b 71a0 b1bd
000001a0: a493 cd3b 8e98 cebd 7750 a6bd d83b 61bd
000001b0: 9762 b1bd 837f e0bd 06cb 9e3d 4e1b 993d
000001c0: 3807 953d 1375 96bd de91 b1bd e991 85bd
000001d0: fe10 dabb 2eb9 19be cdf3 5dbd 515b d9bd
000001e0: 1f38 f53a 9862 9fbd a620 69bc 92ca edbd
000001f0: 9da8 ecbd 1ba2 85bd 7fdd 90bd 482d c4bd
00000200: 0d8c db3d 64a7 00bd 05c6 e33d c6a1 7c3c
00000210: 9374 e1bd 33b0 903d 445a c3bc 6f3f 79bd
00000220: 53ed c8bd 0b33 f9bd c4a2 233d c0af dfbc
00000230: 02a8 e63c a920 06be bc11 923d f193 dbbd
00000240: 7f94 37bd 22d2 0abb ee99 223d ede6 a53d
00000250: 115f 013e 4e6e f8bd eaab 153c 5fbd 9bbd
00000260: fa99 76bd 72ea 00be e32d a53d 99cd 03be
00000270: 6164 783d bcb6 993c 2bbc c83c db53 bbbd
00000280: c885 a43d e7ba 9ebb f2ab 37bc c51f 15be
00000290: 83bd ac3c ce01 2cbd f29b bebd 88a9 8d3d
000002a0: ae7a 333c 2c05 e0bd 2e7b 42bd d055 19bd
000002b0: 1b0b c73d 9ada 56bd 4f6d aebc 4af3 95bd
000002c0: 7f55 abbd 8898 363d 94b6 953d 73f5 b2bd
000002d0: 5cc6 3dbc 7363 423c 34c3 19bc aa74 8abd
000002e0: 5953 0a3d 3914 b63c faaf ce3d ad54 38bd
000002f0: 7b24 3dbd b483 95bb a440 3e3c f546 1cbb
00000300: 38eb e23d 52d8 0f3e 0fec e13b e71b 9cbb
00000310: 143b a83c 6e0d 493c 844b 4a3d d1cb 863d
00000320: 9cdb b3bd 49c8 f7bc cc28 083e e19e 593d
00000330: fea4 9fbb 238d 97bd 8a01 c8bd 6e4d c3bd
00000340: a0a3 5fbd 9a68 533d e5f6 533d b225 663d
00000350: 8ab3 15be f084 09be 0633 82bd 38a4 f73d
00000360: c937 873c 4293 80bd bfc3 833d bbe8 28bd
00000370: 52e3 69bd cacb f63d 0b34 febc bac4 a0bc
00000380: de25 2dbe 916f e53d 4a56 ec3d ddb2 8f3d
00000390: 83c6 3cbd e48e c8bd bd6f 87bd 1c11 093e
000003a0: 44e9 793d 2205 0b3e bc04 b53d 24ed 613d
000003b0: 761a 0f3d a11c 71bd 58e0 98bd 118a 9fbd
000003c0: aa76 b73d 83e7 21bd 3254 43bb 050b 20bd
000003d0: 36b5 343c 278b 94bd 87ee fcbd 38ed 333d
000003e0: f531 92bc 5652 993d 3b22 e8bb 6ae6 99bd
000003f0: 042c 033c d030 78bd 67a1 1cbd 195c 13be
0.12589864 0.12059234 0.0029708408 0.14770366 0.0022618996 0.033275384 -0.04567646 0.07961901
0.1388247 -0.06367694 0.12404501 0.052062128 0.12245584 0.0411509 0.08764324 0.015514213
0.11490628 0.014114095 -0.08397509 0.038047794 -0.09003705 -0.011729066 -0.06091042 0.13655779
-0.08489779 -0.057626292 -0.06020906 -0.100401215 0.036890987 -0.09635351 0.13038121 -0.08928592
0.11151535 0.057868596 -0.0061712316 0.052330546 -0.010990702 0.07321778 0.030128285 -0.03180157
0.058190882 -0.0076086563 0.05352805 0.1311455 0.09598821 -0.036597632 0.09837227 0.053280596
0.076380014 -0.053555008 -0.096357815 -0.017272409 -0.06444397 0.123676255 0.02619859 0.069191396
0.055868126 0.008919941 0.11942166 -0.08367909 0.052290894 -0.06859023 0.010831301 -0.043047786
0.0052783904 -0.04758899 0.1286665 -0.048638906 -0.05693847 -0.06094143 0.12992457 0.06837664
0.097067945 -0.09701512 -0.11433605 -0.08907768 -0.072359204 0.065745644 0.0719664 0.13268182
-0.029240964 -0.057705205 0.08494304 -0.028054867 0.09601939 -0.0036643164 0.09533528 -0.075742364
-0.038347702 0.04470198 0.040432468 -0.004536574 0.09121525 0.10340218 -0.06609545 -0.04698337
0.120461084 -0.028684633 -0.03605777 -0.11500987 -0.058663897 0.031225458 0.0019594058 -0.0867318
0.0062737036 -0.10087691 -0.08120816 -0.054988712 -0.08661383 -0.10961821 0.077535674 0.07475911
0.072767675 -0.07346549 -0.086704 -0.06521971 -0.0066548577 -0.15012047 -0.054187585 -0.1061312
0.0018708742 -0.07782477 -0.014228975 -0.11610903 -0.11555598 -0.0652506 -0.07073497 -0.09578949
0.10720072 -0.031409636 0.111217536 0.015419429 -0.11008563 0.07064857 -0.023846753 -0.06085151
-0.09810891 -0.12167939 0.039950147 -0.027305484 0.028156284 -0.13098396 0.07132289 -0.10721577
-0.04481935 -0.0021182378 0.03969758 0.08100686 0.12633921 -0.12130414 0.009135226 -0.07604479
-0.060205437 -0.12589434 0.08065393 -0.12871398 0.060642604 0.018763892 0.024503788 -0.091468535
0.08033329 -0.004844058 -0.011210429 -0.145629 0.02108646 -0.04199391 -0.09307088 0.06917101
0.010954542 -0.109384865 -0.047480755 -0.037435353 0.09718915 -0.05245457 -0.021292357 -0.07321794
-0.083659165 0.04457906 0.07310215 -0.08738222 -0.011582937 0.011864531 -0.009384919 -0.06760533
0.033770893 0.02222644 0.100921586 -0.045002628 -0.04617737 -0.0045628194 0.011612091 -0.0023846005
0.11080021 0.14047363 0.0068945955 -0.0047640684 0.020535983 0.012271268 0.049388424 0.06581844
-0.087821215 -0.03024687 0.13296813 0.053130034 -0.0048719635 -0.073999666 -0.097659186 -0.09536253
-0.054599404 0.051613428 0.05174913 0.056188293 -0.1461927 -0.13429618 -0.06357388 0.12091869
0.016506093 -0.06278087 0.0643382 -0.041237574 -0.057101555 0.120505884 -0.031030675 -0.019625057
-0.16908976 0.1120292 0.11539896 0.07016537 -0.046087753 -0.09792879 -0.06613109 0.13385433
0.061013475 0.13576177 0.08838794 0.055157796 0.034937344 -0.058865193 -0.07464665 -0.07790006
0.0895818 -0.039527427 -0.0029804823 -0.03907301 0.011029532 -0.07253104 -0.12350183 0.0439274
-0.017846087 0.074864075 -0.0070841587 -0.07514651 0.0080061 -0.060593426 -0.038239863 -0.14390601

lstm.weight_hh_l0 f4 [256, 64]
00000000: 0574 aebc 0712 8d3d a139 963d 1897 13be
00000010: 32f4 d8bd aecd 17bc c4ac c3bd c5f8 4cbd
00000020: 45f2 993d 4d19 bbbc 576a 16bd ac3f 2a3c
00000030: 45f5 ef3d 57c1 c83d b503 713d db62 04be
00000040: 6804 22bd 6faa 1c3d 78db 0a3e 5173 72bd
00000050: 6c17 d63d f11e 113d 274d 183d dc52 973d
00000060: df85 ac3d 3dbf ecbd 99e6 a2bd bcb5 a53d
00000070: 1c44 973d 7e0b 4bbd fcea 113e b442 613c
00000080: f870 b2bd 083c e0bc 24d3 febd ef0b afbb
00000090: 61f4 0dbe 3696 0e3e 3841 10be f548 8f3d
000000a0: 68aa 83bd 095d 453c e012 a7bd 62f8 0b3d
000000b0: 5cd6 a33d 0038 15be 880a 9ebd e2f5 163c
000000c0: 1161 47bd d64f abbc c6af 093b a73a 423c
000000d0: 6206 d83d 1b1c b6bc 27ed acbd 690d 663c
000000e0: 7bf0 adbd 9ab6 c0bd 4894 8c3d cc0a 04bd
000000f0: 0dc0 fabd 80bb 223d cb12 11bb efbe 463d
00000100: a31e 853d 549a 16be 972f fdbc d2a3 77bd
00000110: 6847 0f3e 3a2d 8bbd 1936 88bd 7d33 85bc
00000120: 6317 263d ca0e 0e3d 3dc5 b53d f276 af3d
00000130: 4c3f 073d 7a70 123e 81de 343d 35ac cf3d
00000140: d6d7 bebd 4a09 123d 16bf 38bd a1a8 d6bd
00000150: 1d6e fbbc f19b 8f3d bdcf a33c 45bb a83d
00000160: a20a 773d ae7f d03c 42e5 063e 9464 4e3d
00000170: c059 dabc aa6c 95bd 8a52 f73d 661c a63d
00000180: 1ce1 653d 93c8 52bd c7aa c2bd 584f 28bc
00000190: f347 4abc da46 69bd c68e 043d 9702 09bd
000001a0: c881 e53d da1c 033d 527d 15bd 847b 013e
000001b0: e2b8 663c b7c8 88bd ea99 5b3d bb36 e23d
000001c0: 3bf9 8e3d 4f52 553b 097b 8f3d ed9e 5ebd
000001d0: 6459 043e ab08 d2bd df69 3b3d 8962 b43d
000001e0: 98f3 ae3d 3fbf 48bd ab9c d53d c6fa bf3d
000001f0: d8a0 01be 18a9 e9bc a128 02be fa83 17bc
00000200: f4d1 c6bc 4e7d 79bd b3c9 d1bc d73d af3d
00000210: ce26 e73c c80c 1fbe 5497 033d d02a 16be
00000220: 5205 e1bd 99e1 803d 70b0 d43d 8520 1dbd
00000230: 5bdb b4bd db7f 093d 6c74 00be cfc3 723d
00000240: e7f8 083e 5fdc b23d 4ac0 333b d724 e63c
00000250: a8e5 e6bd d241 0ebd 66e8 d83d 16cf 163e
00000260: bca1 0bbc c8a5 8d3d 3b40 b9bd 771f bf3d
00000270: 0a92 edbd e6e7 b5bd c27f b73d deeb 15bd
00000280: f2de a7bd 511f 5fbc 7a86 943d 8ec7 e43d
00000290: 6331 00bc 4e02 ca3d 9cf0 f63d 786b 3cbd
000002a0: b88d c1bd 2cea 963b 5ff6 71bd 192c 7e3d
000002b0: fb0c 7fbd e93a 76bd 06e0 d7bd c07b 11be
000002c0: be45 f33d 653f 18be cdff 3e3c 1989 dbbd
000002d0: 55b4 66bd 3eb5 f5bc b780 1a3d 553f 6f3d
000002e0: cfd0 45bd d204 90bb 3bdc 743c 513b ff3d
000002f0: 9921 343d 34d5 5dbd 7008 ff3d 53fb fdbd
00000300: b4d8 163d 2b2c 033e 13c4 bebd 1bd0 af3c
00000310: 6c7a 243d 9e43 72bd 5030 023d 5d54 d43d
00000320: f64b b83a c0d4 3f3b dcf9 16bd 6d02 55bd
00000330: fb27 293c b7b3 0cbe 9417 94bd 2a58 9cbc
00000340: 7d00 1dbe 31a6 b03d 851e 8fbc cb33 d8bd
00000350: a149 ae3c 239f 573d 359a 9e3d 7827 90bd
00000360: 0ed3 19bc f40c e7bd 2a3e 0ebe feaf a9bd
00000370: bb30 4a3d 72e5 11bd 8d02 97bc 0718 fa3c
00000380: fcb1 823d e9de c03d 44f4 343d a960 083d
00000390: 8b50 13bd 1a7c 783d c309 14be 01a4 833d
000003a0: 13c3 b0bd 74f2 7f3c adfb 09be 1eca 38bd
000003b0: 4b54 6a3d 8ad1 9bbd 025a ce3d 94b1 ad3b
000003c0: 4cb3 9d3d 11a7 ee3d 63b5 48bd feb3 29bd
000003d0: 95c4 67bd 1b24 33bd cd74 563d be17 88bd
000003e0: 0731 9bbd 4c47 583c 4bad 0abe ba93 0ebe
000003f0: 9894 8a3d a5bf 86bd 0b67 983d 6883 c0bd
-0.021295557 0.06888204 0.073352106 -0.14413106 -0.105934516 -0.009265346 -0.09554437 -0.050041933
0.07516912 -0.022839213 -0.036722507 0.010391157 0.11716703 0.09802502 0.058841426 -0.12928335
-0.039554983 0.038248476 0.13560283 -0.059192006 0.10453686 0.0354299 0.037182953 0.07388851
0.084239714 -0.11559913 -0.07954139 0.08091304 0.07386038 -0.049571507 0.14249796 0.013748813
-0.08712953 -0.027372375 -0.12442616 -0.0053419988 -0.13862754 0.13924488 -0.14087379 0.06996337
-0.06428987 0.012046107 -0.08157897 0.034172423 0.0799987 -0.14572144 -0.077168524 0.0092138965
-0.048676554 -0.020912092 0.002100931 0.011854804 0.105480924 -0.022230199 -0.08443671 0.014041283
-0.08493134 -0.094098285 0.0686422 -0.03223686 -0.12243662 0.039729595 -0.0022136446 0.048521932
0.06499984 -0.14707309 -0.030906482 -0.060458966 0.13992083 -0.06795736 -0.06650943 -0.016259903
0.040549647 0.034682073 0.08875511 0.08567609 0.03301935 0.14300719 0.04415751 0.10140268
-0.09318511 0.03565339 -0.04510411 -0.10481382 -0.030692155 0.07012165 0.019996518 0.08238844
0.060312875 0.025451507 0.13173392 0.050388888 -0.026654124 -0.07296117 0.1207629 0.08110885
0.056122884 -0.051460814 -0.095052294 -0.010272823 -0.012346256 -0.056952335 0.03236272 -0.033449735
0.112063944 0.032009937 -0.036496468 0.12644774 0.014082165 -0.06678908 0.05361358 0.11045595
0.06981131 0.003255028 0.07005889 -0.054350782 0.12924725 -0.102555595 0.045755263 0.088078566
0.085425556 -0.04901051 0.10430273 0.09374003 -0.12659013 -0.028523013 -0.12710811 -0.009247774
-0.024270035 -0.060910515 -0.025608873 0.08556717 0.028216746 -0.1553222 0.03212674 -0.14664769
-0.10987343 0.06293029 0.10385215 -0.03836109 -0.08830901 0.033569198 -0.12544411 0.05926877
0.13376199 0.08733439 0.0027427846 0.028093738 -0.11274272 -0.03473074 0.105912015 0.14727435
-0.008522447 0.06916386 -0.09045454 0.09332173 -0.1160012 -0.08882122 0.08959915 -0.036601894
-0.0819682 -0.013618306 0.07252212 0.111708745 -0.007824275 0.09863721 0.12057611 -0.046000928
-0.09450859 0.004605552 -0.05907285 0.062053774 -0.06226824 -0.060114775 -0.10540776 -0.14207363
0.11878537 -0.14867933 0.011657667 -0.10719509 -0.05632432 -0.02999365 0.03772041 0.058410008
-0.04829484 -0.004395106 0.014945085 0.124624856 0.043977354 -0.054158404 0.12452781 -0.12401452
0.036827758 0.12809817 -0.09314742 0.021461537 0.040155813 -0.059146516 0.031784356 0.103676535
0.0014060724 0.0029271096 -0.03685938 -0.052004267 0.0103244735 -0.13740431 -0.0723106 -0.019085009
-0.15332218 0.086254485 -0.017470608 -0.10556754 0.021275343 0.052642 0.077442564 -0.07038778
-0.009388698 -0.112817675 -0.13890901 -0.08285521 0.04936288 -0.035619207 -0.018433833 0.030529035
0.06381604 0.09417517 0.044178262 0.033295307 -0.035965484 0.060665227 -0.14456849 0.06427766
-0.086309575 0.01562177 -0.13474913 -0.04511463 0.057209294 -0.07608326 0.100757614 0.00530071
0.07700214 0.11652959 -0.04900111 -0.04143142 -0.05658396 -0.043735605 0.052357484 -0.066451535
-0.075777106 0.013200592 -0.13542669 -0.1392354 0.06766623 -0.06579522 0.07441529 -0.09400064

lstm.bias_ih_l0 f4 [256]
00000000: c1a0 c6bc 1a8d 913c 0ccb 68bd 86af eabd
00000010: d502 83bd a698 b13d b219 493d 74e6 0a3e
00000020: 5060 df3d c85e bc3c 5331 c83d 832e 8b3b
00000030: 232f b83d 8dc1 97bd d3cb d6bc 3304 263d
00000040: 1a85 e43c 57b8 5d3d 6181 063e 376c 123e
00000050: ae55 95bd 1fea d93c ffd9 7c3c ad55 8d3d
00000060: 69a9 eabd 8dd7 ac3d 684b 8d3d 6b9d d63d
00000070: 5f33 27bd fd16 413d adbf a93d 5255 083e
00000080: a16e 9ebc 0d9c 9d3d 4e9b 31bc 0cc5 bc3d
00000090: bd71 b1bc 56d5 5c3d 335b 9abd b615 523d
000000a0: 7673 96bd 2d76 0fbd 35b0 7abc 8a6c 52bc
000000b0: b785 033e 6d87 e53d a8e6 9d3d 4f26 9dbd
000000c0: 01c2 063e 8e81 1b3e 4865 b33c 1998 a2bd
000000d0: 5cbd f63d a936 fa3d 5895 9d3d 109e e5bd
000000e0: bc5c 87bd b804 a63d 657a bebd ce91 983d
000000f0: 2ef6 c13d 1523 6bbb c833 03be 615c d5bd
00000100: 640d f23d d6d2 183d 615b 003d 9122 4dbd
00000110: 926e d1bc ca4d 913d 339a 9bbd 5be2 8a3d
00000120: 0a6c 1dbc 89c6 ee3d bd62 37bd 1ebc bebc
00000130: 17a1 90bd 2d38 c43d e59e adbc 507f a1bc
00000140: 78c7 22be 0e23 fa3d 5c09 ed3d f2b4 2ebd
00000150: 8193 d3bc 7bd2 63bb 1b6f 8bbd b792 d2bd
00000160: 68a4 05bd ce76 783d 923e 80bd 5d11 1a3e
00000170: e7d4 75bc 737a 89bd db0e a2bd 31b4 0e3e
00000180: 6d22 95bb 92e7 2a3d 04d3 173d 8414 053e
00000190: 280d c2bd d3f5 823d 09e4 993d 4a1b c5bc
000001a0: 4392 9bbd c29e 423c 7620 193c 93fd 23bd
000001b0: 6cd5 99bd c1c5 8e3d e0a2 a73c bf81 b5bd
000001c0: 9eee 19bc 2565 b03c 6353 9c3d 7d5c 193d
000001d0: 9ed5 c23d d848 b3bc 9f88 8c3d 8814 90bd
000001e0: 6318 833d f1fa 96bd ccdc e13d 8f1b 503d
000001f0: 021e c33b cb9d 27bb 1d7f 3c3d 424d 593d
00000200: 512a 8b3d 4667 f3bb 0f75 96bd 8cf7 9fbd
00000210: 9fce 13be a62b 98bd 4ab4 c1bc ebc2 613b
00000220: 7225 d43d aa5e 833d bb4f b63c 8481 b23d
00000230: ede8 043e eeab 7c3d a0b4 723b f6a1 943d
00000240: c53d aebd 63d6 873d 0461 a53d a593 1dbe
00000250: 9b65 a6bd a2e5 6b3c a141 8b3d 404e bf3d
00000260: 260e babd 3588 163e c5fa c93c b788 b5ba
00000270: fcef 32bd bc89 5b3d 74ca 773d 819c 243d
00000280: 3f06 0cbe 61c5 10bd d234 08be 240f 1ebe
00000290: 6fa4 b73c ca0a 973a e57c 07be b7f4 ffbd
000002a0: 75f8 083e 80dd 153e b9e8 fcbd 7a7e c4bd
000002b0: a98c b43d f9df bcbc fb7a bc3c 58a1 9fbc
000002c0: 1743 613d fa44 1bbe 4068 12be c6af 8f3d
000002d0: 1d52 9c3d 154e 463d cecb 92bd 5501 b2bd
000002e0: ee2a 55bd 361a bcbd d3c9 b3bd 08a7 a13d
000002f0: 46b5 b7bd 3dce 1bbe 39e6 2abc becc bd3d
00000300: 75dd a63c 0afc b9bd 7920 583d 2492 47bd
00000310: 041a d73d dd0f 8bbd a342 063e 3039 1dbc
00000320: dbd4 033e dab7 bf3d 4a2d 013e 309a 2b3d
00000330: 8b46 2bbd fc31 973c 5330 fc3d c629 a7bd
00000340: 3599 363d 29a4 fc3c adce eb3d cecd 51bd
00000350: c2ec a5bd ad7d 9f3d 8bb3 69bc de7c d4bc
00000360: 4a77 b43b a872 e33d 8b56 85bd 0e82 dc3c
00000370: f912 49bd d0d5 3d3c aa5c 98bc d9b8 113e
00000380: 022c b73d 97d5 0b3d 0d97 b2bb 7023 d63d
00000390: 16ab 23bd 568c a9bd f0fd 67bd b6b2 c7bc
000003a0: 89a3 78bd d1db da3d b37d 813c ea93 24bc
000003b0: 07e8 44bd 4148 003e b13a ef3d 3e7c afbd
000003c0: 8b66 0e3e 82af a53c 54d4 07bc 66ae 553d
000003d0: 8648 82bd 2dad d2bd 3aac b53c 6302 e53d
000003e0: 52b5 f83d 9354 da3d 3ce5 983d e234 573d
000003f0: 3e8d 2c3d f9a8 12bd 2db0 f13d 672e f73d
-0.024246575 0.017767478 -0.056834266 -0.1145926 -0.063970245 0.086716935 0.04909677 0.13564473
0.10907042 0.022994414 0.09775033 0.004247488 0.089933656 -0.07409964 -0.026220238 0.04053135
0.027895499 0.05413088 0.13135292 0.14299093 -0.07291733 0.026600895 0.015432834 0.06901107
-0.11458094 0.084395505 0.06899148 0.10479244 -0.040820476 0.047141064 0.082885124 0.13313797
-0.019339861 0.0769578 -0.01084025 0.09217271 -0.02166068 0.05391439 -0.07536926 0.051290236
-0.07346241 -0.03502481 -0.0153008 -0.012843261 0.12843977 0.11207471 0.0771001 -0.076733224
0.13159944 0.1518614 0.02189888 -0.079391666 0.12047836 0.12217457 0.07694501 -0.11211789
-0.066094846 0.08106369 -0.09300689 0.07449685 0.09470783 -0.0035879065 -0.12812722 -0.104180105
0.1181896 0.037310444 0.031337146 -0.050081793 -0.02556542 0.07094915 -0.075977705 0.06781455
-0.009608278 0.11658961 -0.0447719 -0.02328306 -0.070619754 0.09581027 -0.02119393 -0.019714028
-0.15896404 0.122137174 0.11574051 -0.04265303 -0.025827171 -0.0034762907 -0.06808301 -0.1028189
-0.032627493 0.060660176 -0.06261934 0.15045686 -0.015004373 -0.067128085 -0.0791299 0.13935925
-0.004551223 0.04172475 0.037066475 0.12996107 -0.094751656 0.063945435 0.075141974 -0.024060864
-0.075962566 0.011878671 0.009346118 -0.04003675 -0.0751141 0.06971312 0.020463407 -0.08862638
-0.00939527 0.021532604 0.07633092 0.03744172 0.095134005 -0.02188532 0.06861996 -0.07035166
0.06401136 -0.07372082 0.11028442 0.050807532 0.005954505 -0.002557623 0.046019662 0.053052194
0.067951806 -0.0074280826 -0.07346546 -0.07810888 -0.14434288 -0.074302 -0.023645539 0.0034448456
0.103587046 0.0641454 0.022254815 0.087161094 0.12979479 0.061687402 0.003703393 0.07257454
-0.08507875 0.06632688 0.08075145 -0.15388353 -0.081248485 0.01439801 0.06799627 0.09341097
-0.0908473 0.14700396 0.024655709 -0.0013849948 -0.0436859 0.05359815 0.06049581 0.040188316
-0.13674258 -0.035344485 -0.133014 -0.15435463 0.022417275 0.0011523601 -0.13231237 -0.124978475
0.13376029 0.14635277 -0.12349076 -0.09594436 0.08815891 -0.023056017 0.02300786 -0.019486114
0.054995622 -0.15163031 -0.1429758 0.07015948 0.07632849 0.04841431 -0.07167779 -0.0869166
-0.052042894 -0.09184687 -0.08778729 0.07893187 -0.08970122 -0.15215392 -0.010430866 0.09267567
0.02036927 -0.09081276 0.052765343 -0.048723355 0.10503009 -0.06790135 0.13111357 -0.009596154
0.12874167 0.09361239 0.12614933 0.04189509 -0.041815322 0.018456452 0.123139046 -0.081622645
0.044579703 0.030839996 0.1151403 -0.05122166 -0.081017986 0.07787643 -0.014263998 -0.025938448
0.0055073844 0.11105853 -0.065106474 0.026917484 -0.04909036 0.011586621 -0.018598873 0.1423067
0.08943941 0.034139242 -0.0054501356 0.10455978 -0.039958082 -0.0827872 -0.056638658 -0.024377208
-0.060702834 0.10686458 0.015807008 -0.010045031 -0.04807284 0.12527563 0.11681116 -0.08568619
0.13906305 0.02022529 -0.008290369 0.052168272 -0.06361489 -0.10286937 0.02217685 0.11182096
0.12143959 0.106606625 0.07465598 0.052540667 0.042126887 -0.035805676 0.11801181 0.120693974

lstm.bias_hh_l0 f4 [256]
00000000: 16fc a2bd 28f1 e6bd 3480 27bd 13b2 8ebd
00000010: d421 8fbc d6eb ed3d 4071 353b db43 083e
00000020: 7f5c c2bb 33bd 3e3d d3ec b13c b50c 56bc
00000030: 2c6b e73b 58fa 10bd 651b 96bd 281d 3b3d
00000040: 25c2 0c3d b959 213d f945 433d c4c5 22bc
00000050: c055 d9bd 047a d63d 3880 323d 725f c3bd
00000060: 47e0 b43d 414e 413a 0fda 95bd 3744 3ebd
00000070: 9638 16bd ec1d 8ebd 03ac 1c3d 4453 38bd
00000080: d185 4dbd 9307 f03d fdcf 0ebc 471e e23c
00000090: d5e9 5bbd c410 843c d446 60bd e841 6dbd
000000a0: 063a 88bd 0d5a 54bc ebfb 783d 0e23 ab3d
000000b0: 162f d93d 73b8 35bd 8476 b5bd 0de2 e2bc
000000c0: 6ba9 1f3e 9372 1e3d 29d3 1e3e db97 b53d
000000d0: 588f d53d cb71 80bb d7b5 573d 9a51 92bd
000000e0: 6dd4 1d3d 37dc 263d 818c 73bd 3058 86bd
000000f0: 9b65 29bd d0b8 113d 22b6 06bd 3b09 5b3d
00000100: 50c7 41bd b1f8 da3d 1152 b5bd 9fd7 b93d
00000110: d61a 0b3e 4ae5 f03d 7403 53bd afaf 81bd
00000120: c5eb 6bbd 032b 2cbd 84b4 b7bb cc4d 3fbc
00000130: a356 8c3d 453a 0b3e d6d1 4d3d e676 c93c
00000140: 8cec a6bd 4004 a6bc 327e db3d 9973 a0bd
00000150: 1e92 9ebc 6134 aabd 3eda 0cbd 3d6d dbbd
00000160: cdf1 0cbe 5c9f 353d ca5d 33bd 7745 5d3d
00000170: 0067 e93d b9dc aaba 8c7c 1d3d 5a53 15bd
00000180: 1ba1 c63d 9069 b83d 00ef aebc 36e0 90bd
00000190: ae88 c03d 4953 e43d 132d 9c3d e2f5 9e3c
000001a0: 2af0 183d a11e 833d 60fd 1f3d 25df 18bc
000001b0: f004 703d 216b 0d3e 87c8 0bbd 51c8 e3bd
000001c0: 45ff 82bd 9bb3 d43c d9c0 843d bb05 fb3a
000001d0: 9afa cd3d 5a76 173b a886 b03d cce5 b6bd
000001e0: 9be9 ac3d faeb 7c3d f5e1 373d 8142 833d
000001f0: 084c c9bd 6d2c 213e 7371 bfbc a869 f8bd
00000200: 75a0 9e3d d719 3c3d 536a d63d bc98 d03d
00000210: 7b2a ce39 9a21 283d 7725 203e 5f93 a93d
00000220: 207b 773d 0996 a83c 8451 00be c157 9c3d
00000230: f7e4 80bd 74a2 13bd 6f35 0ebe 9275 1ebe
00000240: f3b8 f3bc bf4e ffbd a259 913d d580 97bb
00000250: 51c1 19bc f98b 183e d45a 8f3d c48f 843d
00000260: 9de7 70bd 0370 94bd 6e19 30bc c047 df3d
00000270: a61d f5bd 201b ecbd 1c8c fc3b 4241 983d
00000280: 6d10 1f3d 2cb2 46bb fe66 4ebd a07c a0bd
00000290: f79c c0bc ab21 e43d 6760 e9bd 9500 0cbe
000002a0: 2e50 933a 9030 123d f843 cd3c 9599 693c
000002b0: 8841 083e 7a3e 2bbd 75e8 983d 4731 8abd
000002c0: 7f93 bfbd f5da cfbd 3389 a23d 05c7 7dbd
000002d0: c82a fdbc 7840 813c 9454 efbd 0012 2f3c
000002e0: 9745 b4bd ce5d a33d 93a7 eb3d 50cf ae3d
000002f0: 691a 653d 82fd 1c3d 96ba f43a 6e55 043d
00000300: 2462 f33c f890 f4bc 14c4 4bb9 6b5e 95bd
00000310: 5ef6 c5bd 7e9d a13c 1fff 3dbd 6727 0abd
00000320: 8b90 8f3d 6a0b 51bb 5fa8 183e c641 44bd
00000330: 5029 acbd f8de 3e3d ffb7 0f3d cc66 553d
00000340: 41e3 2b3d 81c5 bcbc 17bf bbbd 89c5 ec3d
00000350: d5c5 08bd d48c 143e 29ee 2bbd e540 ed3d
00000360: ac08 c53b 9c17 acbc 9a1d 35bc a13b 1d3e
00000370: cad5 d53d e76e c8bd 6d33 57bc fff1 2ebc
00000380: 50ec 583d 9fe3 aabd 34ad 53bd 67de 2e3d
00000390: add6 033d dd71 59bd 9c1f c13d 535a fe3d
000003a0: fe30 cbbc 8210 1b3e 5861 6e3d bb4e 5b3d
000003b0: 4025 c9bb 2848 fe3d bb60 b83d c821 f5bd
000003c0: 5d3d 913d f25d 54bd 50c9 c9bc 5acd 78bd
000003d0: e0b5 0f3d cc57 bdbc 5447 253b 8116 f13d
000003e0: aaa4 423d 6d7b bebd 512e 4fbd 7320 a6bd
000003f0: 918a 02bd 2fad e23d e567 5e3d 1767 a4bc
-0.07958238 -0.11276466 -0.04089375 -0.06967559 -0.017472185 0.11617248 0.002768591 0.13307135
-0.0059314365 0.046567153 0.021719372 -0.013064553 0.0070623364 -0.035394996 -0.07329444 0.045682102
0.03436484 0.039392207 0.047674153 -0.009934846 -0.10612059 0.104724914 0.04357931 -0.09539689
0.0883184 0.00073740265 -0.07316982 -0.046451773 -0.03667506 -0.06939301 0.03824998 -0.045001283
-0.050176445 0.11720195 -0.00871658 0.027602328 -0.053689796 0.016121276 -0.054755047 -0.05792418
-0.06651692 -0.012960923 0.060787123 0.083562955 0.10604684 -0.044365358 -0.08860496 -0.02769568
0.15591972 0.038683485 0.15510239 0.08866855 0.10427731 -0.003919815 0.05266365 -0.071444705
0.038532663 0.040737357 -0.059460167 -0.06559789 -0.041356664 0.03557664 -0.03288854 0.0534756
-0.04730922 0.10691965 -0.088535435 0.090743296 0.13584456 0.117624834 -0.051516965 -0.06332337
-0.057597894 -0.042033207 -0.005606236 -0.011676263 0.06852462 0.13596447 0.050248943 0.024592828
-0.081505865 -0.020265698 0.10717429 -0.078345485 -0.019356783 -0.08310772 -0.03438782 -0.10714195
-0.13764115 0.04434143 -0.043790616 0.054021325 0.11396599 -0.0013035751 0.038448855 -0.036456443
0.09698697 0.090045094 -0.021354198 -0.07074015 0.094010696 0.11148698 0.07625785 0.019404355
0.037338413 0.064023264 0.039059997 -0.009330546 0.05859846 0.13810398 -0.034126785 -0.11122192
-0.06396345 0.025964549 0.06482095 0.0019151488 0.10057564 0.0023111315 0.08619434 -0.08930549
0.08442994 0.061748482 0.044893224 0.06409169 -0.09828955 0.15739603 -0.023369526 -0.12129527
0.077454485 0.04592308 0.104694985 0.10185382 0.00039323032 0.04104767 0.15639292 0.08280062
0.060420156 0.020579355 -0.12531096 0.07633925 -0.062936716 -0.0360436 -0.13887571 -0.15474537
-0.029751277 -0.124661915 0.07097174 -0.0046235123 -0.009384469 0.14897145 0.06999746 0.064727336
-0.058814634 -0.07247927 -0.01074825 0.10902357 -0.119685456 -0.11528611 0.007707132 0.07434322
0.038834024 -0.00303186 -0.05039119 -0.0783627 -0.023512347 0.11139234 -0.113953404 -0.13672097
0.0011239105 0.035690844 0.025056824 0.014257808 0.13306248 -0.04180763 0.07466213 -0.0674768
-0.093543045 -0.101491846 0.07936325 -0.061957378 -0.030904189 0.015777811 -0.11686054 0.010685444
-0.08802336 0.07976876 0.115065716 0.085356355 0.05593339 0.0383277 0.001867133 0.032308035
0.029709883 -0.029854283 -0.00019432633 -0.072933994 -0.096661314 0.019728418 -0.04638588 -0.033728983
0.07009991 -0.0031897672 0.14907978 -0.04791429 -0.08406317 0.04659936 0.03508758 0.052099988
0.041964773 -0.023043396 -0.09167307 0.11561114 -0.033391792 0.14506847 -0.041975174 0.11584643
0.0060129967 -0.021007352 -0.011054421 0.15354778 0.10441168 -0.09786778 -0.013134819 -0.010677814
0.05295974 -0.083441965 -0.05167885 0.04269257 0.032187153 -0.053087104 0.09429857 0.12419572
-0.024803635 0.15143016 0.058198303 0.05354188 -0.0061384737 0.124161065 0.09002825 -0.11969334
0.07091782 -0.051847406 -0.024632126 -0.060742714 0.03508556 -0.023113154 0.0025219517 0.117718704
0.047520317 -0.09300885 -0.05058128 -0.08111658 -0.03187043 0.110681884 0.0542983 -0.020068688

lstm.weight_ih_l1 f4 [256, 64]
00000000: 8c42 cf3d c380 b8bc 08bb 093e 67c4 88bc
00000010: 570d b9bd aa16 a1bd 9b09 cb3c 8be5 143e
00000020: 8aae 593d 6b31 abbd f571 143d 29da df3d
00000030: 0222 26bd f126 883c 2ecb c13d 9efd af3d
00000040: e405 0d3d 4021 ce3d 8f99 453d e09f 1fb9
00000050: d750 03bd cc1b 37bb 0f19 0b3d fd8b a33d
00000060: db4c db3c fb90 a3bc 243b 173e d980 70bc
00000070: 9242 9cbd cf9b 443d 67d1 833d 3a52 dd3d
00000080: 8fd8 06bd 7e34 0dbe 4bf2 0f3e 22dd fabb
00000090: 7df8 1a3d 3a4b 1d3e 2d47 7e3d 7b7a 813d
000000a0: 7c75 4d3d 1303 0e3e ef3c 093e 673b 0d3e
000000b0: b00e b23d b801 9b3d 9e1d 10ba 863a 8abd
000000c0: 827a 35bd f399 353d 2081 89bd 5298 c03d
000000d0: 2504 0e3d 300f 5bbd e9a7 8bbd 29ae 59bd
000000e0: 61f6 64bd d887 7abd 8477 e0bb 1e15 5bbd
000000f0: 05f4 a63d 8396 b8bd c1fd 9a3d f74f 0d3e
00000100: 53f2 a13d bc77 023e f0a4 8d3d 36f5 f0bd
00000110: 5413 c7bd 06aa 3b3d ef46 2d3d 28b5 493d
00000120: 0e5f 84bd 1446 16bd 0ca0 b6bb 5ed0 a03d
00000130: 7da2 9e3d 51dd 1abd 44c4 6b3d 0532 07be
00000140: 846e f4bd 74b4 8c3c 7108 153e 8d42 bfbd
00000150: 6525 b1bd c673 a13d 1561 003d 762d 50bd
00000160: ffe0 c3bd 0fee eabd 5739 97bd e816 1c3d
00000170: 203e 77bd 7747 02bd 25c7 eebd 08bf c33d
00000180: 9fcf a33d 04f5 8339 9ecd 06bb d515 b83d
00000190: 79c5 51bd da5d 883c cfc6 9dbd c101 68bd
000001a0: f056 e43c d7a2 70bb a264 26be 6d98 933d
000001b0: 808c c3bd 2af7 833d 41e4 1c3d 5db2 fcba
000001c0: 9041 073e 40fe 6f3d a522 cd3d be09 173d
000001d0: 4aa8 d5bc 1bf9 103d a838 abbd 98d5 eabd
000001e0: 4226 49bd 7fb2 55bd c349 143d 338e 25bc
000001f0: aa6a 2abd 1d55 cfbc c7a9 c1bd 0fc8 70bd
00000200: 3f64 12bd 4158 933d ec0f b5bc 6ae0 78bd
00000210: a271 a33b 73e0 153d 79bc 603d e7ff 113e
00000220: 79fc 9b3c 6bfc 5f3b 9d33 00be fdcc 813c
00000230: d0f7 ae3d 145d 6aba 7f5a 3ebd 28b6 9ebc
00000240: 9da7 50bd ed2d 9abc 5b8f f9bd 0f5d 42bd
00000250: 220a c53c 644f 98bc bb26 173a 5e8e 81bd
00000260: a510 16bd 2cf2 fa3d 9526 ed3c d878 ec3d
00000270: 13d3 8bbd fa98 8c3c 3d16 143d 26bf 3a3d
00000280: 6392 e8bd 1a0d 183d bca2 383d c53d f5bd
00000290: 398f 0cbe 24ca bebb b771 84bd 4973 0fbe
000002a0: 3d89 fd3c 18d8 0bbd 1740 6bbd 0a0f 0d3e
000002b0: 8cb9 bf3d 7fcf c23d 4455 a63d e618 f2bd
000002c0: e739 023e 42a2 36bc 1a87 033c 041c a4bd
000002d0: fff8 203d cd42 6a3d 802d 31bd f93c 2ebc
000002e0: 4438 1dbd e0ea 163d 6f34 c6bc f401 9a3d
000002f0: eb22 f1bd ac41 d2bc 778a bd3d 9fe7 e8bc
00000300: 5c3f 6bbd b9ff 273d d7d8 64bd 852f d63c
00000310: 715f 99bd aaa6 f2bd a066 a0bd 7a1e 6a3d
00000320: 39e8 df3c 1fa1 c3bd 72b4 13be 4e31 293d
00000330: c076 d43d 1b81 f9bc 92c3 5f3a 3bdc a73d
00000340: d932 093e 79a1 c93d 3b28 263d 097e 3f3d
00000350: 6cd3 c9bd 16e0 ccbd d121 78bd a26f 9d3d
00000360: f7ff c83d 01f1 1a3e df7f 48bc ba12 b4bd
00000370: 25fe cfbd 786b 6c3d baed 083d 23bc 133e
00000380: 4a42 d43c ee65 9dbd 2cd1 15be 52e2 a2bd
00000390: 70bb e73c e4a6 563d e9bb 7cbd fc97 11bd
000003a0: c896 5dbd 6ee4 583d c880 b0bd 76e7 28bc
000003b0: dad9 883d 06e3 b5bd 9b73 173b 0086 f3bd
000003c0: 5b3a 01bc 2bef 4e3a 0d73 bbbd 33e3 913d
000003d0: 8a2f 8dbd 5eea 523d 4094 013d cbb8 90bd
000003e0: 24de 9f3d 0f60 6f3d 8eec b4bc c549 2f3d
000003f0: 22d8 c83d 7a4d 723d 49aa 09bd 0c54 ce3d
0.10120115 -0.022522336 0.13450253 -0.016695214 -0.090357475 -0.07865651 0.024784854 0.14540689
0.05314497 -0.08359035 0.03624149 0.109302826 -0.040559776 0.016620131 0.094625816 0.085932955
0.034429446 0.10064936 0.048242148 -0.0001522298 -0.032059517 -0.0027940152 0.033959445 0.07985685
0.026770046 -0.019966593 0.14768654 -0.014679157 -0.07629885 0.048000153 0.06436425 0.10806699
-0.03292137 -0.13789555 0.14057271 -0.0076557556 0.037834633 0.15360728 0.062079597 0.063221894
0.05016087 0.1386836 0.1340215 0.13792191 0.08694208 0.07568687 -0.00054975774 -0.06749444
-0.044306286 0.04433627 -0.06714082 0.09404053 0.03467192 -0.05348128 -0.06819136 -0.053144608
-0.055899028 -0.061164707 -0.006850185 -0.053486936 0.08152012 -0.09013083 0.07567931 0.13800035
0.07907548 0.12740988 0.06916225 -0.1176552 -0.097204834 0.045816444 0.042303976 0.04924503
-0.06463443 -0.036687925 -0.0055732783 0.07852243 0.07745836 -0.03780872 0.05756022 -0.13202675
-0.11935142 0.01717589 0.14554001 -0.093388654 -0.086497106 0.0788341 0.031342585 -0.050824605
-0.09564399 -0.11471187 -0.073839836 0.038107783 -0.06036198 -0.031806435 -0.116590776 0.09557921
0.07998585 0.00025168818 -0.0020569335 0.08988539 -0.051213715 0.016646314 -0.07703935 -0.056642298
0.027873486 -0.0036718154 -0.16249326 0.07206807 -0.095482826 0.06443627 0.038303617 -0.0019279231
0.13208604 0.05859208 0.100163735 0.036874525 -0.026081223 0.035393815 -0.08360416 -0.11466521
-0.04910875 -0.05217218 0.036203157 -0.010104704 -0.04160563 -0.02530914 -0.094562106 -0.05878454
-0.035740133 0.071945675 -0.022102319 -0.060760893 0.0049879113 0.036591005 0.05486724 0.14257775
0.019041287 0.0034177552 -0.12519689 0.015844816 0.0854336 -0.00089402613 -0.046473023 -0.019373968
-0.0509411 -0.018820727 -0.12185546 -0.04745203 0.024052683 -0.018592544 0.0005765964 -0.063259825
-0.036636967 0.12253222 0.028949061 0.115464866 -0.068273686 0.017162789 0.03615402 0.04559245
-0.11356046 0.03712187 0.04507707 -0.11974672 -0.1372651 -0.005822437 -0.06467002 -0.14008822
0.03094923 -0.03414163 -0.057434168 0.13775268 0.09361562 0.09512233 0.08121732 -0.11821155
0.127174 -0.011147084 0.008027816 -0.08013156 0.03929996 0.057192612 -0.043256283 -0.010634654
-0.038383737 0.036845088 -0.024194924 0.07519904 -0.11774238 -0.02566608 0.09254926 -0.028430758
-0.05743347 0.04101536 -0.055870857 0.026145706 -0.07488907 -0.11848195 -0.07832074 0.05715797
0.027332412 -0.09552216 -0.14424303 0.041306786 0.10374212 -0.03045707 0.0008535917 0.081963025
0.13398303 0.098452516 0.04056571 0.046751056 -0.09854779 -0.100036785 -0.060579125 0.07687308
0.098144464 0.15130998 -0.012237518 -0.08792634 -0.10155896 0.057719678 0.03342984 0.14427237
0.025910515 -0.07685457 -0.14630574 -0.079533234 0.02828762 0.052405253 -0.061702643 -0.035545334
-0.054098874 0.052952223 -0.08618313 -0.010309091 0.06682177 -0.08881192 0.0023109678 -0.11890793
-0.007887448 0.0007893915 -0.091528036 0.07123413 -0.06893833 0.05149304 0.031635523 -0.070664965
0.07806042 0.058441218 -0.022085454 0.04279496 0.09806849 0.05915592 -0.033609662 0.100746244

lstm.weight_hh_l1 f4 [256, 64]
00000000: 9985 bbbd 5afe 153d d5b1 f7bd 6c30 163d
00000010: be58 b23c 126a 3b3c 5bf5 b2bd 0013 883d
00000020: 3c27 223d 51ca fb3d 2509 76bc 6555 14be
00000030: 0913 b4bd 2deb d7bd dcd6 ccbc e627 8b3d
00000040: 3962 0e3d da59 92bc 5bb5 1ebd aeae bc3d
00000050: 1b2c 5b3d 6a3b 09be f408 b9bc 5af3 993d
00000060: 7493 7a3d fcda f6bc 461a 1b3e a5a8 573d
00000070: 96b3 5ebc 0db4 89bd 0072 0d3e 264e 853d
00000080: d906 9abd bac3 7e3d 1bd9 9dbd fd7e 5b3b
00000090: de27 f03d 7901 5ebd a6d5 b2bd 51f9 cb3d
000000a0: 5c03 f93c 18b4 af3d bbc0 063d 5898 163e
000000b0: 5141 a9bd ff41 01bd f38a cc3d 4bb9 643d
000000c0: 403e bebc dd1b 063e e815 163d 7331 acbc
000000d0: 1515 fd3d b140 74bd 9b9e ef3d 4435 0dbc
000000e0: 165a 04be 2385 0d3d 589e d0bd e10f e1bd
000000f0: 797d 7ebd 011e a33d 4725 d43d 5d08 6cbd
00000100: 183f 55bd a4f4 49bd dbaf f83d 7f70 bb3d
00000110: 19bd b63d 82a0 d0bd 5eee 2fbd 1184 10bd
00000120: e594 c33d 4c14 8ebc 35de fcbd e51f 5cbc
00000130: 4ef1 95bd f7a0 123d 556a b23d b526 273b
00000140: 8fd3 073e e9e1 943d 6454 b73d 8a34 fabc
00000150: d3db a6bd d3b4 993d b295 03bb 2081 0c3e
00000160: 3d7f a9bd eca2 0d3c b93d b73d e2b2 953d
00000170: 5c5a e33b 3082 e7bd 11e6 003e c100 3b3d
00000180: b823 2d3d f9d0 53bd d302 0e3e 9ff1 a03b
00000190: fe71 8b3d a1be b93d c9af fb3d d8da 7e3d
000001a0: c731 0fbd f371 713c 000d 85bc 32ca 76bd
000001b0: 2f79 87bd 2366 823d 3fc6 513c 05d8 99bd
000001c0: 1026 9ebc e0c3 743d 953e 893d 3d84 27bd
000001d0: b220 3a3c cc64 59bd 4c35 04bc 0a47 80bd
000001e0: 6762 eabc d89d bd3c 624d e8bd 4fbc 9d3d
000001f0: 7f80 f13a d93e a13d fc5c 903b ca26 653d
00000200: f784 b03c 58f6 af3c eadc 1ebe 99da f23d
00000210: d0b5 563d 28a1 5f3c c6f8 0a3e 5d2a 11bd
00000220: cab9 0a3e 6475 98bc a10f d13c d025 0bbe
00000230: 0293 a33d c935 0e3c e7df 10be 877e 7cbd
00000240: 0ccd 1dbd efb0 113e 03ef 9abd 29e7 843c
00000250: c62c 633d 1ebd 1fbe fcdc aabd 8f10 32bd
00000260: 6252 09be 3a41 afbd 4579 52bd 2ded f2bc
00000270: e175 06be 3746 c3bd 0d00 b1bd 7335 f8bd
00000280: 2199 83bd 4e49 8fbd b4fc 023d c893 a03d
00000290: 57db 6c3c 0f5d 273d 09ca f8bd bce0 3d3d
000002a0: bceb 34bd 3559 0abd e43a 193e 43de b83d
000002b0: 0512 00bd 62de 4ebc 9889 c83c c02f 95bd
000002c0: e56e 123e e199 5fbd 98dd 533d 859c dd3d
000002d0: 960f 833d b54b f73d ec3f 01bd 1993 febb
000002e0: a4c7 893c 826b 71bd 7203 14be 5517 80bc
000002f0: 3703 973d 64d6 e23d b784 623d 8f6c a33d
00000300: ec1a da3d d349 9dbd 9b89 15be 40d6 063e
00000310: b15b 34bd f5cc f53c 7180 7abc e808 8e3c
00000320: 42d9 083d d0f9 113e 42f4 39bd 9cd4 b33b
00000330: 9ac9 43bd 50db 6a3d e1a1 eebb 0ba5 083e
00000340: fa03 f5bd bc9c 81bd 6b66 e23d 8beb afbd
00000350: 6c86 91bd 9217 143d 7be6 d7bc 70e7 c9bd
00000360: bb3b d4bc 5e57 983d aaf4 013d 6b57 14bc
00000370: 2f97 10be fd5b 6ebd de47 c03d 7166 02be
00000380: 5097 0a3e 1e66 153d a861 053e 717e 7abc
00000390: 89c9 c4bd 3a1b 8e3d 3c53 bcbd 2dda 063d
000003a0: 9e47 0cbd c618 eebd 1148 853d 1713 3abd
000003b0: 7108 bd3d aec9 87bc c47e 80bd 333e dbbd
000003c0: 12c9 37bd 660e ce3d 1f59 cf3d 4383 a63d
000003d0: 222f d5bd f211 f13b cf9e 48bd 2a1b 243d
000003e0: 5fd8 b63d 30a9 a93d ca80 563c 8088 3abd
000003f0: e587 89bd 3448 3dbd 7b37 a2bd 2ebc 8f3d
-0.09156341 0.03661952 -0.12094466 0.036667272 0.021770831 0.011438863 -0.08738204 0.06644249
0.039588198 0.12294448 -0.015016829 -0.144857 -0.08792693 -0.10542903 -0.025004797 0.067947194
0.03476164 -0.01786511 -0.038747173 0.09213005 0.05350886 -0.13401571 -0.022587277 0.07517119
0.06117578 -0.030133717 0.15146741 0.052651066 -0.013592621 -0.06723795 0.13813019 0.06509046
-0.07520837 0.06219838 -0.07707425 0.003349244 0.11726354 -0.054200623 -0.087321565 0.09959663
0.03039711 0.08579272 0.032898646 0.14706552 -0.08264411 -0.03155708 0.0998744 0.05584077
-0.023223042 0.13096566 0.036641985 -0.021019673 0.12357537 -0.059632007 0.117001735 -0.008618657
-0.1292499 0.034550797 -0.10186452 -0.10989357 -0.06213138 0.07964707 0.103586726 -0.057625163
-0.052062124 -0.049305573 0.12142917 0.09152316 0.08922786 -0.101868644 -0.042951934 -0.0352822
0.09549884 -0.017343663 -0.1234707 -0.013435339 -0.07321416 0.03579804 0.087116875 0.002550525
0.13264297 0.072696514 0.08951643 -0.03054263 -0.08147397 0.075051926 -0.002007824 0.13721132
-0.08276222 0.008644801 0.089473195 0.0730951 0.006938262 -0.11304128 0.12587763 0.045655016
0.042270392 -0.051712964 0.13868265 0.004911616 0.06808852 0.09069563 0.12289388 0.062220424
-0.03495958 0.01473664 -0.01624155 -0.060251422 -0.06614911 0.06367137 0.012803613 -0.075119056
-0.019305259 0.059757113 0.0670139 -0.040897597 0.011360334 -0.053074643 -0.008069348 -0.062635496
-0.028611375 0.023146555 -0.113428846 0.07701933 0.0018425136 0.07873315 0.004405616 0.055945195
0.021547778 0.02147977 -0.1551396 0.118581004 0.052419484 0.0136492625 0.13571462 -0.03544079
0.13547435 -0.018610664 0.025520148 -0.13588643 0.07987024 0.008679816 -0.14147912 -0.061644103
-0.038525626 0.14227651 -0.07565119 0.016223507 0.05546262 -0.15599486 -0.08342931 -0.043472823
-0.13410333 -0.08557363 -0.051385183 -0.02965411 -0.13130905 -0.09534877 -0.08642588 -0.1211957
-0.064256914 -0.06996404 0.031979278 0.07840687 0.014456592 0.040860232 -0.1214791 0.0463569
-0.044170126 -0.03377648 0.14963871 0.09026768 -0.031267185 -0.012626262 0.024479672 -0.07284498
0.14300115 -0.05459011 0.051725 0.10820869 0.06399457 0.12074987 -0.0315551 -0.0077690003
0.016818829 -0.058940418 -0.1445444 -0.015636126 0.0737366 0.11076048 0.055302348 0.0797969
0.10649666 -0.076800965 -0.14603274 0.13167667 -0.044032756 0.030004958 -0.015289412 0.017338231
0.03341032 0.14255452 -0.045398958 0.0054879915 -0.047799684 0.05733806 -0.007282481 0.13344209
-0.11963649 -0.06328723 0.11054691 -0.08589848 -0.07105717 0.03615529 -0.026355019 -0.09858596
-0.025907388 0.07438539 0.03172747 -0.009054045 -0.14120172 -0.058193196 0.093887076 -0.12734391
0.13534284 0.03647434 0.13025534 -0.015288935 -0.09608752 0.06938787 -0.09195563 0.032922912
-0.034247987 -0.11625819 0.06507886 -0.04542836 0.09230126 -0.01657566 -0.062741786 -0.10705223
-0.04486949 0.1006134 0.101244204 0.08130505 -0.104093805 0.0073568756 -0.048979577 0.04006497
0.08927988 0.08284223 0.013092229 -0.045540333 -0.06715373 -0.046211436 -0.07920738 0.07018314

lstm.bias_ih_l1 f4 [256]
00000000: 083a 273d 5e3f d63d c70d e33d 0a8a 93bd
00000010: a8a4 f03c 9a67 903d b6c6 bd3d 7383 88bd
00000020: 8cd0 1dbd ddd6 b5bd 8e74 2b3d 8392 9cbd
00000030: 0833 8b3d 21dc 96bd a938 0f3d e535 c73c
00000040: c30f 24bc 0e12 b2bd c45c b23d 04f7 ff3d
00000050: a875 cd3c a427 c63d 9116 9bbd 1749 15bd
00000060: 5d4a 023c 70be 123e b9d5 4e3d 6b3f fcbd
00000070: ab98 f03c 40a4 473d 05a0 273d 0d11 d03d
00000080: 77fc c63d 999a aeba df4e 983d a544 9e3c
00000090: 113b 4cbd cdbc d73d 64e5 203d 8d1e e13d
000000a0: 063f 44bd 5a4d 013c 2ab2 abbd aeed 4ebb
000000b0: 5069 eb3d 14ce e13b 1154 983d c04a cf3d
000000c0: 215d c3bd 3693 e93d de58 82bd ef1b f93d
000000d0: c071 af3b 4528 bcbd efac 1c3d 993e 163e
000000e0: dad8 a13d 6c7b 953b f44d 663d 1b14 ab3d
000000f0: 0db7 d9bd 1776 86bd 6418 ddbd 8e6c dd3d
00000100: 82b7 89bd 694a febc dd52 c43d c2be 70bd
00000110: 3ad4 753b 1bc9 ee3d 6768 373d 2407 6e3c
00000120: f20c a6bd ca09 a8bd c01d ee3a 024a 0b3e
00000130: c4fa 853b 4a4d 9a3d 181b fa3c 643e 573b
00000140: c97a d73d 2090 f03c 09c3 983d 969e 7c3d
00000150: 6d84 d33d 4a16 e13d e56a f4bb dea1 25bd
00000160: f882 803d 2671 d33d 47bc 063e 22b9 96bd
00000170: e484 863c 1db3 d83d a4f7 a33d 57bf 113e
00000180: 16e9 183d 6258 8fbd 200a 173d a543 12bd
00000190: a07b 3d3d 0e27 acbd fa7f 52bd 9d40 a03c
000001a0: 722c 653b e1fe 8bbd 6c95 3e3d 4d2c 58bd
000001b0: ad64 c23d a7b5 1dbc d8d6 e83d 2fcc d1bc
000001c0: 788c 833d 9015 d63d 3b05 ea3d b841 dcbd
000001d0: 0853 12bc 403b a5bd 5e4e bbbd f895 95bd
000001e0: 6cd7 043e 7d82 d9bc c46d 0cbd bd05 993c
000001f0: 92e1 1c3d 0937 d63c 7619 c6bd 015f 3e3d
00000200: 1acf c03d a97c ff3d 001e fb3c b098 cd3d
00000210: 6562 343d d2f7 cd3d c57e 183e c117 f7bd
00000220: 1314 fc3d 999d 93bd eeeb cabd 1a5b 0fbd
00000230: 409a 903d 2991 c0bd 785b 5e3d 4489 74bd
00000240: 9242 1ebd d04e 123d 6c64 603d 0041 893b
00000250: 35ea 06be 82f5 673d c4be 59bd 2117 de3d
00000260: f44d 0c3d eda2 45bd 66df d43c cb96 dbbd
00000270: 41e5 2dbb 9c36 d6bc 7fcb f5bc d06d 14be
00000280: 924e 9e3d 60f5 803d 7e9c c53d dabf 80bd
00000290: 421f b3bd dccb 84bd fb90 05bd 020f 0e3e
000002a0: e92e e9bc a839 b3bd 7077 923b c4d4 d83d
000002b0: ba26 e23d 5b1c 04bd 2b70 f93d 165f a7bd
000002c0: cadf c4bd be61 debd 66b2 c4bd 8575 753d
000002d0: 344a 7b3d 2a47 c2ba ef81 86bc b489 cebb
000002e0: 17cf b03d ad01 1bbd 4d54 07bd 652b 91bd
000002f0: 1420 113d cdc6 0bbc e519 dbbc 390a aebb
00000300: 0e42 d3bd a99a 62bd 139f aabb f8e5 c3bc
00000310: c37f 04be c020 a03d 2051 a1bd 1368 b5bd
00000320: cc5a 663d fa4b 8fbd a287 ef3d 105b 0d3d
00000330: 8d78 0abe b95f 1a3e 686b d9bd cd1f edbd
00000340: 22ce f1bd 5dfe 903d 26ee bdbd 6254 2a3b
00000350: 7b90 e73d 7838 adbc 6eed 083e b931 f8bd
00000360: 606c 9d3d 1363 abbc f06c aabd bc89 313d
00000370: 14ef 6ebd d6e6 a0bd b67e c33d 3f54 93bd
00000380: b9c5 7bbd 5dec 55bd c6e9 943d 8c07 7c3d
00000390: 19d5 9bbd cd7b edbd d339 ebbd 44df 513d
000003a0: 503b f4bc 7c31 12bc 16b8 ab3d 7b7d 80bd
000003b0: b960 0c3c 03a9 0dbd f2c2 0d3d ac59 183e
000003c0: 9723 b4bd 6f32 f73d 65ef f73d 7d99 db3d
000003d0: 9a62 3a3d 6458 fe3d efee 063e 161f 9cbd
000003e0: 62e9 3cbc f2b7 17b9 bd40 bf3d 1813 afbc
000003f0: 91e6 463d e773 073e 8bbd ee3d 35b8 053d
0.040826827 0.10461305 0.11086612 -0.07204063 0.02937539 0.070510104 0.09266417 -0.06665697
-0.038528964 -0.088788725 0.041859202 -0.076451324 0.06796843 -0.07366205 0.034966145 0.024317691
-0.0100135235 -0.0869485 0.087091 0.12498286 0.025080517 0.096755296 -0.075726636 -0.036446657
0.0079523 0.14330459 0.05049679 -0.123167835 0.029369673 0.048740625 0.04092409 0.10159502
0.097161226 -0.001332122 0.074369185 0.019319842 -0.049861018 0.10534058 0.039281264 0.10992155
-0.047911666 0.007891977 -0.083835915 -0.0031574774 0.11494696 0.0068910215 0.074379094 0.10121679
-0.09539247 0.114050314 -0.06364606 0.12163531 0.005354136 -0.09187368 0.03825086 0.14672317
0.07902689 0.004561832 0.056226686 0.08353444 -0.10630617 -0.065654926 -0.10795668 0.10811721
-0.067244545 -0.03104134 0.095861174 -0.05877567 0.003751053 0.116594516 0.0447773 0.01452807
-0.08107938 -0.08204992 0.0018166825 0.1360245 0.0040887315 0.07534273 0.030530497 0.0032843584
0.10521466 0.0293656 0.07459075 0.061674677 0.103279926 0.109905794 -0.007459032 -0.04043757
0.0627498 0.10324316 0.1315776 -0.0735953 0.016420789 0.10581038 0.08006218 0.14233147
0.037331663 -0.069992796 0.03687489 -0.035709042 0.046260476 -0.084058866 -0.05139158 0.01956206
0.0034969118 -0.06835724 0.04652922 -0.052776624 0.09491859 -0.009625829 0.11369103 -0.025610058
0.06423277 0.104533315 0.11426779 -0.10754722 -0.008930929 -0.08067942 -0.09145807 -0.07303995
0.12972802 -0.02655148 -0.03428437 0.018679494 0.038301058 0.02614929 -0.09672825 0.04647732
0.094145015 0.12474949 0.030653954 0.100388885 0.04403915 0.100570336 0.14892109 -0.120650776
0.12308516 -0.07207794 -0.09908281 -0.03499899 0.07060671 -0.09402687 0.05428645 -0.05970122
-0.038637705 0.035719693 0.05478327 0.004188657 -0.1317528 0.05663062 -0.053160444 0.10844255
0.03425403 -0.04825108 0.02598543 -0.10722121 -0.002653435 -0.026149087 -0.030004261 -0.14495015
0.0772983 0.062968016 0.09648989 -0.06286593 -0.08746196 -0.064841956 -0.032608967 0.13872913
-0.028464751 -0.087512314 0.0044698045 0.10587457 0.11042543 -0.032253604 0.121795975 -0.08172433
-0.09612997 -0.108584866 -0.09604339 0.05992653 0.061350062 -0.0014822234 -0.016419379 -0.0063030366
0.08633249 -0.037843395 -0.03303938 -0.07088355 0.035430983 -0.0085312845 -0.026745746 -0.005311277
-0.10315333 -0.055323277 -0.0052069514 -0.023913369 -0.12939362 0.078187466 -0.078768015 -0.08857741
0.056238934 -0.06996913 0.11695792 0.034510672 -0.13522549 0.15075578 -0.10616189 -0.11578331
-0.11806895 0.07079766 -0.09273939 0.0025990237 0.11306854 -0.02114509 0.13371822 -0.12118859
0.076866865 -0.020921266 -0.083215594 0.043344244 -0.05833347 -0.078565285 0.095456526 -0.07193803
-0.06146786 -0.052227367 0.07271151 0.061530635 -0.076090045 -0.11595879 -0.114856385 0.051238313
-0.029813439 -0.008922931 0.08384721 -0.062739335 0.008567982 -0.03458501 0.034609742 0.14877957
-0.08795851 0.12070166 0.12106208 0.10722635 0.04550419 0.12419203 0.13177083 -0.07623117
-0.011530252 -0.00014469007 0.0933852 -0.02137141 0.04855973 0.13227807 0.11657246 0.032646377
