lstm_mid_model.pt (torch, 245045 bytes, 9 tensors)

lstm.weight_ih_l0 f4 [256, 38]
000000 e2 01 da 3d 8f bb c5 3d bc 6a 42 3d 70 36 23 3e
       0.1064489 0.096549146 0.04746507 0.15938735
000010 a8 fa 94 3d b2 2e 9f 3c f8 a6 a7 3c 55 1d c2 3d
       0.072743714 0.019431446 0.02046536 0.09478251
000020 7e 0d 06 3e b0 c3 23 bd 7a a6 25 3e 68 95 41 3d
       0.13091084 -0.039981544 0.16176787 0.047261626
000030 3c a9 1c 3e 40 41 3e 3c 2c 84 88 3d e2 74 4d 3d
       0.15298933 0.0116122365 0.06665835 0.050160296
000040 74 8e 05 3e 5b 30 0d bd b3 42 8c 3a 47 81 08 3d
       0.13042623 -0.034469943 0.001070103 0.033326413
000050 9a 33 34 bd 5f f7 7b bc b3 12 5d bb 73 40 ae 3d
       -0.043994524 -0.015378802 -0.003373307 0.085083865
000060 87 45 be bd 8c 09 6c bd b2 e7 5d bd 65 9e 10 be
       -0.09290605 -0.057626292 -0.05417604 -0.14122923
000070 6c 87 86 3c ed ab 0c be 78 d6 d2 3d a2 09 22 bd
       0.016421996 -0.1373746 0.10294813 -0.039559968
000080 4b e2 eb 3d fb b0 94 3d b3 95 8c bd 07 90 18 3e
       0.11517771 0.07260319 -0.0686449 0.14898692
000090 7e 10 7d bd 57 4f 9b 3d 0d 46 09 bd c6 c6 ea bd
       -0.061783306 0.07583492 -0.03351407 -0.11463694
0000a0 14 d9 dc 3d 50 9d 6e 3d 8e 72 14 3d c5 94 2c 3e
       0.10783592 0.058255494 0.03624206 0.16853626
0000b0 36 4c 6b bd 5a 64 5d bd 6a 86 3d 3d 17 17 69 3d
       -0.057445727 -0.05405078 0.046270765 0.056906786
0000c0 a6 91 dc 3d 9a ab ac bd 64 ac b1 bd 6f a8 ec bd
       0.10769968 -0.08431168 -0.08675459 -0.11555564
0000d0 00 c4 2b be 5b 25 82 3d 0e 65 3c 3d ee 80 39 3e
       -0.16773987 0.06354781 0.04599481 0.18115589
0000e0 b9 bf a0 3d bb 3a 4d 3d 9d 37 82 3d 16 e4 3c bd
       0.07849068 0.050104838 0.06358264 -0.046115957
0000f0 53 d4 13 bd b7 bf 90 bc 5e 0b ac 3d e0 52 30 bd
       -0.03609116 -0.017669542 0.084006056 -0.043047786
000100 7f 68 d2 3b a3 8b 94 3d 89 3d bb 3d d7 c0 0d be
       0.0064211483 0.07253196 0.09142596 -0.13843094
000110 b2 a6 1b bd 13 a0 96 3b b4 e2 35 3e 79 ea 87 3d
       -0.03800077 0.004596719 0.17762262 0.06636519
000120 58 b3 1a bd 1f 92 46 be 53 29 7d bd b4 20 b3 bd
       -0.03776869 -0.19391678 -0.061806988 -0.08746472
000130 8a dc a4 bd 3c b8 e4 3d 41 6d a5 3d 22 65 31 3e
       -0.08049877 0.111679524 0.08077479 0.17323735
000140 aa aa 9a bd a4 ed 9c bd da d0 8c bc 27 fe 01 be
       -0.07552083 -0.07662514 -0.017189432 -0.12694608
000150 d9 61 7f 3d b6 d9 db 3c b5 c5 1d 3e cf b0 fd bd
       0.062349174 0.026837211 0.1540745 -0.12387239
000160 20 ce 7d bd 28 31 04 3d c1 bc 0a bc 58 70 3e bd
       -0.061964154 0.03227344 -0.008467854 -0.046493858
000170 8f f6 2f 3e d6 fc 07 3e 0e 20 a1 bd f3 ab 12 be
       0.17183898 0.13280043 -0.07867442 -0.14323406
000180 c0 eb c1 3d 6e b3 e9 bd 90 00 04 be 1f 31 16 be
       0.09468794 -0.114111766 -0.1289084 -0.14667176
000190 96 2e 3c 3d 88 cc ff 3c 2e f4 33 be 4e 19 17 bd
       0.045942865 0.031225458 -0.17573616 -0.036889367
0001a0 af e6 65 bd 9c 51 10 be a5 1a 25 be 7e c4 8b 3b
       -0.0561282 -0.14093632 -0.16123445 0.004265367
0001b0 1b 70 c4 bd 5a fa b5 bd e5 f9 00 3e 3b 5a 2b bd
       -0.09591695 -0.088856414 0.12595327 -0.041834097
0001c0 53 6a 85 bd d3 f3 86 be b0 be 73 be 4f 22 9b bc
       -0.0651442 -0.26357898 -0.2380321 -0.018937258
0001d0 c0 9d 24 bd 90 40 0b be f6 bd 07 bd 9a 4d 01 be
       -0.040189505 -0.13598847 -0.033140145 -0.12627259
0001e0 15 46 69 bd fb 6c b7 bd c2 8d 24 be 59 77 09 be
       -0.0569516 -0.08956333 -0.16069701 -0.13424434
0001f0 fb 22 f0 bd ed 75 61 be 41 3b 1b be 8f e0 59 be
       -0.11725422 -0.22017641 -0.15159322 -0.21277069
000200 bd b7 90 bd 29 7b 36 be d3 cf 85 bd 2e d3 34 3e
       -0.07066295 -0.1782042 -0.0653378 0.17658684
000210 00 e1 fd bd e8 d3 f2 3d 5f a1 65 3c 79 87 98 3c
       -0.12396431 0.11856824 0.014015525 0.018619286
000220 e3 d8 6b be d9 1a 6b be 44 fe 40 bd c0 af df bc
       -0.23031954 -0.2295946 -0.047117487 -0.027305484
000230 fa a0 4a 3d 6b ee d6 bc 8d 67 27 3d c8 6d 11 be
       0.049469925 -0.026236733 0.040870238 -0.14202034
000240 80 e4 1c 3d e3 63 22 3e 4a e0 2c 3e 75 86 0b 3e
       0.038303852 0.15858416 0.16882434 0.1362551
000250 d3 c5 48 3e 11 dc db bd 4a de 81 bc 67 e3 b2 bd
       0.19606714 -0.10735334 -0.015853066 -0.0873478
000260 18 42 72 bd 10 dd a9 bd 2c c7 a6 3d 85 35 00 be
       -0.059145063 -0.082941175 0.08143458 -0.12520416
000270 1f e5 af 3d b6 a4 16 bd 86 a4 a0 3d f0 9d ca bd
       0.08588623 -0.036778174 0.0784388 -0.098934054
000280 56 65 c9 3d f9 d8 6b 3c d2 da 98 3b 0d b2 27 be
       0.098337814 0.014394992 0.0046647573 -0.16376515
000290 ef e2 12 3d de e9 a8 3c 60 30 cd bc ca 60 26 3b
       0.035860952 0.020619329 -0.025047481 0.002538728
0002a0 78 ac bb bb 7c f1 11 bd 17 30 a9 bd 17 83 cc bd
       -0.005727347 -0.035630688 -0.082611255 -0.09985941
0002b0 c2 d3 23 3d 47 14 e0 bd 18 ab 8b bd 3e 02 1f be
       0.03999687 -0.109413676 -0.06819743 -0.15528199
0002c0 5a 3a 04 be 88 98 36 3d 3a 8c 27 bc 59 4b 2c be
       -0.12912884 0.04457906 -0.010226304 -0.16825618
0002d0 48 21 fd 3c 13 dd 79 3d be 18 f8 3c 46 95 4f bd
       0.030899659 0.06100185 0.030285235 -0.050679468
0002e0 bf b0 8f 3d 27 b4 a4 3d 0d 1b 53 bd 82 38 21 be
       0.070161335 0.08042174 -0.05153947 -0.15744212
0002f0 79 c2 19 bd 52 46 c2 bd c1 f1 fd bc dc a3 1b bd
       -0.03753898 -0.09486069 -0.030999066 -0.037998065
000300 51 e1 97 3d c0 5e ec 3d ea 02 99 3b d1 68 31 bd
       0.074160226 0.1154151 0.004669537 -0.04331285
000310 97 6d aa 3d 87 e0 ce bb 85 e4 83 3d 59 92 1a 3d
       0.08321684 -0.006313387 0.06440071 0.037737224
000320 e1 1a 8f bd 2d e0 9e 3b a9 76 c0 3d 54 14 c9 3d
       -0.069875486 0.004848501 0.09397633 0.098183304
000330 43 a8 fa 3c ed 3f cd bd 54 2b f0 bd 90 86 c5 bd
       0.030597812 -0.100219585 -0.11727014 -0.096448064
000340 98 e4 6e bd 64 28 db bc 28 ec 7e 3d 25 bd 90 ba
       -0.058323473 -0.026752658 0.062236935 -0.0011042698
000350 a9 48 1b be bd 05 24 be 48 14 9c bd 38 a4 f7 3d
       -0.15164436 -0.16017814 -0.07621056 0.12091869
000360 dc f4 c7 bd ff 3b 99 bd aa 12 a4 3c 02 55 5b bd
       -0.097635 -0.074821465 0.020028431 -0.053547867
000370 5b 99 80 bd 40 4c 49 3e d8 2d 7d b9 ce 0d de 3c
       -0.0627925 0.19657993 -0.00024145038 0.027106192
000380 08 d6 f9 bd 9f c1 fd 3d cd 9c 18 3d d0 19 08 3d
       -0.12199026 0.12390446 0.037258912 0.03322774
000390 e5 1a 8a bd ac f4 f5 bd d7 e2 e7 bd 72 0d de 3d
       -0.06743411 -0.12009558 -0.11322563 0.10842408
0003a0 6a 73 95 3c 63 ae 01 3e 9b a6 88 3d ec e4 69 3c
       0.01824351 0.1266418 0.066724025 0.014275771
0003b0 c6 c5 e9 bc 98 39 d1 bd 63 c9 b0 bd 34 2d 0a be
       -0.028536689 -0.10216063 -0.086321615 -0.13493806
0003c0 09 e1 d3 3c 31 c5 a9 bd ca d9 64 bd 8e 0d 7f bd
       0.025864141 -0.082895644 -0.055871762 -0.062268786
0003d0 89 57 1e 3d e9 f6 2c bd ba ba 03 bd cd a9 d3 3c
       0.0386577 -0.04222766 -0.0321605 0.025837803
0003e0 75 33 98 bb 9d c9 81 3d 54 a9 ca bd ca 89 d9 bd
       -0.004644806 0.06337283 -0.09895578 -0.10621984
0003f0 24 e4 bd 3c d0 30 78 bd b3 88 31 be 03 04 b2 bd
       0.023180075 -0.060593426 -0.17337303 -0.086921714

lstm.weight_hh_l0 f4 [256, 64]
000000 d8 30 0a bc d3 b5 65 3d 66 f9 1e 3e e1 a6 fe bd
       -0.008434497 0.056081604 0.15524825 -0.124341734
000010 e8 75 85 bd 2a 22 f7 bc 74 78 e8 bd 20 3c b6 bd
       -0.065166295 -0.030167658 -0.113510996 -0.08898187
000020 75 e6 7d 3d e7 94 2a bd 54 c3 39 bc ba a5 ac 3b
       0.06198736 -0.04164591 -0.011338074 0.0052687796
000030 da 1e 0d 3d d6 8f 00 3e 6d 68 49 3d 39 ee 20 be
       0.03445325 0.12554869 0.049171854 -0.15715875
000040 e6 9f 50 be 74 50 06 3e fd d0 14 3e 80 d7 d6 bc
       -0.20373496 0.13116628 0.14532848 -0.026225805
000050 01 ff 5d 3e a3 69 34 3d 83 4c ea 3d 97 65 1e 3e
       0.21679308 0.044046056 0.11440375 0.15468441
000060 03 24 9a 3d 2c 94 b2 bd fb 53 96 bd cf 24 e4 3d
       0.075264 -0.08719668 -0.07340237 0.11139833
000070 3a bd 1d 3d 9a 3d d1 bd 61 f2 99 3d 79 db 5e bb
       0.03851054 -0.10216828 0.07516933 -0.0034005328
000080 ee 57 ef bd 04 84 8a bd 2c 21 02 be 21 94 0e bc
       -0.11686693 -0.06763461 -0.12707967 -0.008702309
000090 a2 15 c1 bd 44 ec f2 3d 09 8f 99 bd e3 e5 a6 3d
       -0.09427954 0.1186147 -0.07497985 0.08149316
0000a0 78 8e 90 bc 8c bc c3 3c 91 a5 d2 bd b2 13 1e bb
       -0.01764606 0.023893617 -0.102854855 -0.0024120626
0000b0 e2 b9 fe 3d ea 5b 44 be a0 c4 a1 bd d4 3a 09 3d
       0.12437798 -0.19175687 -0.07898831 0.03350337
0000c0 13 a0 50 3d a0 8e 67 3c 8f 33 20 b9 c6 9f 81 3a
       0.05093391 0.014133126 -0.00015277996 0.0009889535
0000d0 a1 25 36 3e 3d b0 e9 3c ba 9e 79 bd 5e 81 91 bc
       0.17787792 0.02852642 -0.06094239 -0.017761882
0000e0 09 28 fc bd 6d cf a1 bd 6a 59 b8 3d 1c 22 c5 bd
       -0.123123236 -0.079008915 0.090014294 -0.096256465
0000f0 d5 d8 11 be ad 87 a9 3b 37 13 e6 3b c3 e4 df 3d
       -0.14242871 0.0051736445 0.0070213336 0.10932305
000100 79 98 4f 3d 05 d2 72 be 50 7e dc bd 18 80 dd bc
       0.05068252 -0.23712929 -0.1076628 -0.027038619
000110 e6 15 02 3e f3 62 34 bd fe b3 d8 bd 9e c2 7f bd
       0.12703666 -0.044039678 -0.10581206 -0.06244146
000120 8d 7a 0d 3d da 33 17 3e 80 b3 1b 3e 82 af 1a 3e
       0.0345407 0.14765874 0.15205193 0.15106013
000130 19 ea e3 bc 45 d0 d2 3d 2e c1 a4 3d 4a 60 91 3d
       -0.027821587 0.102936305 0.080446586 0.07098444
000140 6c d0 dc bd a0 00 79 3d f4 8f ed 3c 65 d9 c4 bd
       -0.10781941 0.06079161 0.028999306 -0.09611777
000150 85 94 b8 bd 0d 87 a3 3d 05 d5 04 3c 7b 01 fe 3d
       -0.09012703 0.07984743 0.008107428 0.12402626
000160 47 5a 7d 3d 19 dd dc 3c 7d 6e 20 3e ce 05 80 3d
       0.061853673 0.026960896 0.15667148 0.06251107
000170 db f6 97 3d 8d 51 bd bd fe e3 01 3e 74 63 5e 3d
       0.07420131 -0.0924407 0.12684628 0.054294065
000180 7e d6 43 3d e4 5b 56 bd 46 a9 ff bd b2 70 16 3e
       0.047811978 -0.052333727 -0.12483458 0.14691427
000190 54 1c c0 3b 3d 48 de bc 1f 43 81 3d d2 68 99 bc
       0.005862752 -0.027134055 0.063116305 -0.01872674
0001a0 2d 90 0f 3e 8f 4a 84 ba 58 5a 64 bc 56 10 82 3d
       0.14019842 -0.0010093021 -0.013937555 0.06350772
0001b0 a4 e3 5c 3c 90 7a 23 be 44 33 d9 bc 3d e5 5d 3e
       0.013482008 -0.15964723 -0.026513703 0.21669479
0001c0 25 ff 05 3c 57 44 39 3d e1 83 49 3d 66 3d b2 bd
       0.008178507 0.04523119 0.049198035 -0.08703117
0001d0 f8 22 24 3e c1 b9 dc bd d9 c0 4d bb 93 9e fa 3d
       0.16028965 -0.10777617 -0.0031395464 0.12237277
0001e0 31 92 66 3d a2 a1 85 bd ee 86 f7 3d 5a 7f 91 3d
       0.056291763 -0.0652497 0.12086283 0.071043685
0001f0 65 ee 1c be fd f4 99 bc ec 6c 4b bb e4 fa 3a 3d
       -0.15325315 -0.018793577 -0.0031040264 0.045649424
000200 da 05 6a 3d 8a 9c 08 be 90 61 3b 3e 64 4a d0 3d
       0.057134487 -0.13340965 0.18298936 0.10170439
000210 1e f5 6a 3c 8f 0b 71 be c4 1b fd 3d cd af dd bd
       0.014340667 -0.23539566 0.123588115 -0.10824547
000220 d2 1d fe 3c 6c a2 36 3e 36 f0 92 3d db 11 b6 3b
       0.031020079 0.17835397 0.07174723 0.0055563278
000230 e4 07 34 bd 25 d6 11 bd 4e c2 92 be d5 eb 0e 3d
       -0.043952838 -0.035604615 -0.28663868 0.034892876
000240 86 d6 86 3d b2 e5 1b 3e 51 53 9f 3d 8d 59 bd 3b
       0.06583886 0.1522434 0.07779563 0.0057784976
000250 39 bb 90 3c 8e 82 d3 3c 4a 7a 29 3e e6 e1 35 3e
       0.0176674 0.02581909 0.16550556 0.17761955
000260 bd 2c 39 bd ae 1c db 3b 28 d4 11 be ea 54 47 3e
       -0.04520868 0.0066867685 -0.14241087 0.19465986
000270 30 a8 30 be 75 2e cb bd eb 72 71 3d bd e5 60 bb
       -0.17251658 -0.0992097 0.058947485 -0.0034316622
000280 36 5c 97 bd c5 0b e8 3c 6f 9b c5 3c 9e 1e 7f 3d
       -0.07390635 0.028325925 0.024121968 0.06228506
000290 3d 41 82 bd ed 3b 3d 3e a5 52 95 3d be 31 0a bd
       -0.063600995 0.18479891 0.07291154 -0.033738844
0002a0 f7 0f af bd c3 37 90 3d c2 3a 07 be 67 8b bf bd
       -0.08547967 0.07041886 -0.13206008 -0.09352761
0002b0 71 fb 31 bc b2 d3 c6 bd 7c 65 f7 3a 35 ef c4 be
       -0.010863171 -0.097083464 0.0018874849 -0.3846375
0002c0 c2 d3 86 3d 2e 65 01 be 95 56 c3 bb 4d 85 ba bc
       0.06583358 -0.12636253 -0.005961249 -0.02276864
0002d0 67 be a3 3b df ab 10 3d 4c 79 1c bd 92 ec e8 bd
       0.004997063 0.03532016 -0.038201615 -0.11373247
0002e0 00 94 9a bd 84 00 c3 bd 22 8f 98 3d 0a 09 13 3e
       -0.0754776 -0.09521583 0.074491754 0.14358917
0002f0 1a d9 3e 3c 56 57 21 be 64 0d 20 be 38 b4 0c bd
       0.011648441 -0.15755972 -0.15630108 -0.034351557
000300 80 f8 b3 3d 61 df 9f bd c6 c4 9c 3d 3a f5 1e 3e
       0.08787632 -0.07806278 0.07654719 0.15523234
000310 e8 d9 50 3c 66 ba 35 be 35 39 c1 3b 45 ba b2 3c
       0.012747265 -0.17746887 0.005896712 0.021817336
000320 05 8f 19 bd 9e 73 85 bd f5 df 98 bd 2f 5a aa bd
       -0.03748991 -0.06516193 -0.074645914 -0.083179824
000330 5c 81 9b 3d 27 16 66 be 67 9d f9 bd c9 c5 b5 bd
       0.07593033 -0.22469388 -0.12188225 -0.08875615
000340 69 6c 1c be 66 6b 48 3e 84 e3 7c 3b 64 87 0c be
       -0.1527573 0.19572219 0.0038587758 -0.13723522
000350 88 17 1c 3e f1 f4 7c 3e 74 f8 0d 3e db 14 46 3d
       0.15243351 0.24702813 0.13864309 0.048359733
000360 df 76 cb 3c 5c 55 6f be 13 be 85 bd 70 03 ac bd
       0.024836956 -0.23372406 -0.065303944 -0.08399093
000370 4a d3 03 bc 56 74 0c be 9b cb 58 be 4d 75 6c 3d
       -0.008045981 -0.13716254 -0.2117142 0.057729054
000380 d4 85 c5 3b cc d5 fa 3c 1a 4a 27 3b 22 2b 4a 3e
       0.0060279164 0.030619524 0.0025526346 0.19743016
000390 c2 32 64 3c c0 59 2f 3e de bf 86 bb a7 c7 45 3b
       0.013928117 0.1712408 -0.004112228 0.0030178817
0003a0 e0 eb 98 bc 50 f5 93 3d d0 f0 40 be 69 65 f1 bd
       -0.018667161 0.07224524 -0.18841863 -0.117869206
0003b0 b0 50 44 3e f0 31 dc bd 5a a0 9e 3d 28 84 39 bc
       0.19171405 -0.10751712 0.077454284 -0.011323012
0003c0 97 06 43 3e d8 8d d9 3d b8 0a 0a be 88 ab fd bc
       0.19045483 0.10622758 -0.13480651 -0.030965582
0003d0 d8 fe f6 3d c9 d8 b6 bd 67 21 a8 3c 15 20 61 be
       0.12060326 -0.08928067 0.02052374 -0.21984895
0003e0 c0 06 71 bd e9 8a e7 bd f9 8a 69 3d 9d a1 5a bd
       -0.058844328 -0.11305792 0.0570173 -0.053376783
0003f0 02 e0 31 3b 64 b8 72 be f8 4b 06 3d eb 90 98 3d
       0.0027141576 -0.23703152 0.032787293 0.07449516

lstm.bias_ih_l0 f4 [256]
000000 ef 50 85 bc 77 ff 35 bb 91 ed 9a 3c 43 3b c8 bd
       -0.016273944 -0.0027770677 0.018912109 -0.09776928
000010 ae aa 86 bd b4 44 de 3d a8 4a 2a 3d 09 75 f2 3d
       -0.06575523 0.10852948 0.041575104 0.11838729
000020 f6 4f d0 3d cc be 95 3d e9 63 d5 3d bb f7 b0 bb
       0.10171501 0.07311782 0.10419447 -0.0054006255
000030 74 fb 01 3e b8 d2 9f bd f1 4f ad bc f7 fc e6 3d
       0.12693578 -0.07803863 -0.021156283 0.11278718
000040 f0 85 fb 3d 5c f3 32 3e f1 fc 13 3e 9e 45 17 3e
       0.12281406 0.17475647 0.14451958 0.1477265
000050 05 37 98 bd 21 99 9f 3c 5a 24 02 3c 6d 93 aa 3d
       -0.07432369 0.019482197 0.007943237 0.083289005
000060 b3 f9 bf bd e9 64 b4 3d 26 5c b6 3d 2f 29 ce 3d
       -0.09373798 0.088083096 0.08904295 0.10066449
000070 9e 06 40 bd 94 0a a0 3d d2 9a a6 3d 41 5e 13 3e
       -0.04688131 0.078145176 0.081349984 0.14391424
000080 6e f0 47 3c 48 c2 20 3e 90 e2 22 bc 34 a8 a6 3d
       0.012203319 0.15699112 -0.009941712 0.08137551
000090 fa 0e ed 39 1c 1f 03 3d 58 98 33 bd 6c 5b 35 3d
       0.0004521532 0.03201209 -0.04384646 0.04427664
0000a0 6e d1 77 bd c5 90 3b bd 3f d2 5d bc 79 9c a4 bb
       -0.060502462 -0.04579236 -0.013538896 -0.005023536
0000b0 78 fd 09 3e 35 8e 2e 3e f2 d5 dd 3d 71 f6 84 bd
       0.13475597 0.17046435 0.108318225 -0.064923175
0000c0 95 ee 18 3e c3 5c 26 3e a5 07 be bb 45 0e 4e bd
       0.14934762 0.16246323 -0.005799251 -0.050306577
0000d0 02 98 a9 3d f3 16 fb 3d 94 67 84 3d 9e b5 00 be
       0.08280946 0.122602366 0.064650685 -0.12569281
0000e0 ec 72 5f bd 32 eb 61 3d c7 06 fe bd 94 dc 65 3d
       -0.054552957 0.05515594 -0.124036364 0.056118563
0000f0 88 c4 db 3d 43 39 a2 3b 32 2a d5 bd e2 88 c7 bd
       0.10730845 0.004950674 -0.10408439 -0.09742905
000100 f7 1d 1a 3e 94 53 41 3c f4 39 f8 3d a4 53 a8 bd
       0.15050493 0.011799712 0.12120429 -0.08219078
000110 e3 f0 3d bd 1a 0e 80 3d 24 c0 89 bd 56 1c 9c 3d
       -0.046372306 0.0625269 -0.06726101 0.07622592
000120 66 21 af 3b 4d ad b7 3d 0d 6e aa bc 0d fc 96 bc
       0.0053445576 0.089686014 -0.02080443 -0.018430734
000130 c7 8c 9a bd 48 41 d4 3d a2 0a ec bc 18 60 07 3d
       -0.075463824 0.10364014 -0.028813664 0.033050627
000140 08 cd 18 be 0a 86 7d 3e 6c ef 0a 3e ea e4 90 bd
       -0.14921963 0.24758163 0.13567895 -0.07074912
000150 54 b5 30 3d ea 99 11 bb e9 23 63 bd 63 ae 18 be
       0.043141678 -0.0022216984 -0.05545417 -0.14910273
000160 9c a0 4d bd 81 4d 66 3d 8a 62 6d bd d9 09 14 3e
       -0.050201997 0.056226257 -0.057955302 0.14456882
000170 a9 41 f1 3c 06 e7 3b bd 7f 2b 8b bd 0c 86 24 3e
       0.029450255 -0.045874618 -0.067954056 0.1606676
000180 d5 d6 0c 3d a3 5a 9a 3d b5 cf a4 3c 10 48 16 3e
       0.034384567 0.07536819 0.020118574 0.14675927
000190 cf 52 8c bd 37 f4 39 3d 55 0e b7 3d f9 e0 1b bd
       -0.06851732 0.045398917 0.089382805 -0.038056348
0001a0 1f 9b a0 bd 49 07 4a 3c 0e bf 4e 3c 40 d1 e1 bc
       -0.07842087 0.0123308385 0.012618793 -0.027565598
0001b0 df ea 86 bd c1 22 f4 3d c7 4e 8a 3d 94 c2 ee bd
       -0.06587767 0.11920691 0.06753307 -0.116582066
0001c0 ae 40 37 3d a2 ae 0c 3d 69 e4 91 3d e3 2c dd 3d
       0.044739418 0.03434623 0.07123644 0.10799577
0001d0 73 cf f5 3d a1 66 ab 3c c8 11 48 3d 89 a5 e9 bd
       0.120024584 0.02092296 0.048845083 -0.114085265
0001e0 b3 c4 ac 3d 5d 48 76 bd f9 e6 c5 3d fc 2b e8 3c
       0.08435955 -0.060127605 0.09663195 0.028341286
0001f0 86 67 ea 3c f4 94 15 bd 29 31 9d 3d 2f a6 ac 3d
       0.028613817 -0.036519006 0.07675392 0.084301345
000200 6d 6e 3c 3d 5b 9c 45 3c bf 39 cd bd 44 a1 d6 bd
       0.046003748 0.012061204 -0.1002078 -0.10479978
000210 25 0a 0a be fb f3 84 bd 2a cd 2e bd ea fb f5 3b
       -0.13480432 -0.06491848 -0.04267613 0.007506837
000220 ab f0 ac 3d 64 b5 9b 3d a0 f1 f5 3c 1e a4 99 3d
       0.08444341 0.07602957 0.030022442 0.07502006
000230 eb 10 11 3e 4f 2c 0c 3e ab 8c a1 3c f3 54 a7 3d
       0.1416661 0.13688777 0.019720396 0.081705
000240 53 74 75 bd 1d da 1f 3d f6 df 85 3d d0 18 15 be
       -0.05992539 0.03902637 0.06536858 -0.14560246
000250 32 24 e8 bd a1 46 a7 bc 5b 00 9e 3d cc aa 93 3d
       -0.11335029 -0.02041942 0.077149116 0.07210311
000260 ce ec fa bd 49 d4 1b 3e a8 a5 7e 3c 9d c9 a9 bc
       -0.12252198 0.15217699 0.015542425 -0.02072602
000270 b5 fd de bc f5 0f 49 3d d4 59 e2 3d 46 53 d5 3c
       -0.027220586 0.049087483 0.110522896 0.026040684
000280 4b 79 04 be 3d e6 42 bc d7 e4 04 be b1 bd 13 be
       -0.12936895 -0.011895713 -0.1297792 -0.1442783
000290 17 24 41 3d 5c 5b 8e bc b1 22 14 be 68 31 f4 bd
       0.04715356 -0.017377548 -0.14466359 -0.11923486
0002a0 14 81 09 3e 9d b8 02 3e d8 0b fb bd f9 e2 aa bd
       0.13428146 0.12765737 -0.122581184 -0.08344073
0002b0 32 0b 88 3d 13 5d 00 bd b1 18 36 3d 1e 1c 2c bc
       0.0664276 -0.031338762 0.04445714 -0.010504751
0002c0 e1 41 e1 3c 24 3f 1c be 3a dd f4 bd f3 cc 99 3d
       0.027497234 -0.15258461 -0.11956258 0.07509794
0002d0 0f c5 8f 3d 11 09 47 3d 8d 38 83 bd d2 c4 89 bd
       0.07020008 0.04859263 -0.064072706 -0.067269936
0002e0 91 be 37 bd 2b 18 a2 bd 4e fd c9 bd 1d 79 88 3d
       -0.044859473 -0.07914766 -0.09862767 0.066637255
0002f0 55 fb 9f bd 12 dd 0b be 11 b3 03 bc d4 2e 98 3d
       -0.0781161 -0.1365855 -0.008038298 0.07430807
000300 1a 8c 15 3c 8f 27 e8 bd e8 ce 0d 3e 59 f0 56 bd
       0.009127641 -0.1133567 0.1384846 -0.052475307
000310 9b a3 d2 3d 33 3c 81 bd f9 ed 10 3e 26 0d 13 bb
       0.102851115 -0.0631031 0.1415328 -0.0022438257
000320 e2 c5 df 3d e0 1a fe 3d c2 cd 0f 3e 08 c0 2c 3d
       0.10926415 0.1240747 0.14043334 0.042175323
000330 4c 52 20 bd af 8a 1b 3b 60 be d7 3d 3b e5 41 bd
       -0.039140984 0.0023733785 0.10534358 -0.04733775
000340 e2 18 f6 3d e5 8d d5 3d 1d 66 d8 3d 1f fd 4d bd
       0.12016465 0.10427455 0.105663516 -0.050290223
000350 5a 21 b3 bd d4 cc 94 3d 18 1a 63 bc 30 15 4c b8
       -0.08746596 0.0726563 -0.013861202 -4.8657123e-05
000360 34 d2 c3 3c be 55 c1 3d 71 27 2c bd 29 71 91 3c
       0.023903944 0.09440182 -0.0420298 0.017754154
000370 74 c5 e5 bc 92 24 84 3c b1 80 56 bd cb 2e 19 3e
       -0.028048255 0.01613072 -0.052368823 0.14959256
000380 a4 50 ee 3d 90 76 7d 3d d1 88 9c bc a3 48 f8 3d
       0.11636475 0.061880648 -0.019108208 0.12123229
000390 4c bb 52 bb e2 54 b8 bd 67 07 26 bd d4 7b 86 bb
       -0.0032155095 -0.09000565 -0.040534403 -0.004104117
0003a0 d2 45 32 bd dd 88 ea 3d a1 64 9c 3c f2 8f 27 ba
       -0.043523617 0.11451886 0.019090952 -0.0006391994
0003b0 84 9a 06 bd a7 e6 23 3e e6 6c 22 3e d6 68 a0 bd
       -0.0328622 0.16005956 0.15861854 -0.07832496
0003c0 9b 0a 1a 3e 2e a5 f2 3c d5 26 cf bc d1 08 d5 3d
       0.15043108 0.02961978 -0.025287071 0.10402072
0003d0 86 a1 94 bd 0a 7c df bd 63 81 93 3c 84 85 e6 3d
       -0.07257371 -0.109123304 0.018006032 0.11255935
0003e0 0e fa f7 3d c8 d8 b9 3d ea 1d 17 3d 53 59 28 3d
       0.12108241 0.09074551 0.036893763 0.04110081
0003f0 f7 36 75 3d 45 08 3d bd 7f b9 17 3e 6f 17 0e 3e
       0.05986687 -0.046150465 0.14816855 0.13876127

lstm.bias_hh_l0 f4 [256]
000000 20 a8 92 bd 33 82 08 be a1 c1 0e 3d 8d 7b 58 bd
       -0.071609735 -0.13330917 0.034852628 -0.052852202
000010 2d c1 9d bc f8 4b 0d 3e 94 bf 9b bb d1 2f ed 3d
       -0.019257152 0.13798511 -0.0047530625 0.11581386
000020 ee b0 59 bc b2 05 c6 3d ee b6 e6 3c e6 0f ba bc
       -0.013286812 0.09669055 0.0281634 -0.02271266
000030 04 7d 34 3d 8a 1c 21 bd 70 bc 8b bd 75 89 f1 3d
       0.044064537 -0.039333858 -0.06823051 0.11793796
000040 dc 62 04 3e b3 db 23 3e ff 33 79 3d 35 5f aa bb
       0.12928337 0.16001777 0.060840603 -0.005199338
000050 09 37 dc bd b8 e5 c7 3d cb d2 13 3d b7 21 a6 bd
       -0.107526846 0.09760612 0.0360897 -0.08111899
000060 fd 8f df 3d 96 ff 90 3b b6 92 59 bd a6 2c 4f bd
       0.109161355 0.0044249995 -0.05311843 -0.05057969
000070 d7 0b 2f bd b3 3d 1d bd 30 62 16 3d 6e 2f 0c bd
       -0.0427359 -0.03838892 0.036714733 -0.03422492
000080 af a4 98 bc 0d f8 49 3e 3c 17 00 bc d1 aa 89 3c
       -0.018633215 0.1972353 -0.0078180395 0.016805084
000090 e9 56 01 bd c4 6e bd bb 91 51 be bc 1b fe 84 bd
       -0.031577025 -0.0057810266 -0.023232253 -0.06493779
0000a0 92 5e 5b bd 36 62 c2 bc ba 19 80 3d da 26 bb 3d
       -0.053556986 -0.023728471 0.06254907 0.0913827
0000b0 a6 1e e6 3d 94 c6 65 3c 75 0e 6b bd b1 22 82 bc
       0.112363145 0.0140243955 -0.057386834 -0.015885683
0000c0 f5 d5 31 3e 84 df 49 3d 3e 76 02 3e ce 28 f1 3d
       0.17366774 0.049285427 0.12740418 0.11775361
0000d0 f4 69 88 3d 79 d9 64 bb 35 5a 25 3d d0 1e ae bd
       0.06660834 -0.0034919663 0.04036923 -0.08501971
0000e0 d3 1a 4d 3d 42 f8 72 3c ad 52 b9 bd b9 fb ab bd
       0.05007441 0.014829697 -0.09048972 -0.08397622
0000f0 d4 91 eb bc 31 b2 34 3d d2 ed 10 bc 47 b0 76 3d
       -0.02875606 0.04411525 -0.008845763 0.060226705
000100 ed a8 75 bc b1 b9 a6 3d 4b 8c ae 3a 65 2a 70 3d
       -0.014993888 0.081408866 0.0013316957 0.05863418
000110 dd 98 eb 3d aa a5 df 3d 38 4f 2f bd 8c eb 60 bd
       0.11503766 0.1092027 -0.04280016 -0.054912135
000120 a1 ac 2e bd b8 2e 8d bd 41 6a 96 3c 32 9b df bb
       -0.0426451 -0.068936765 0.018361213 -0.0068239206
000130 f1 6a 82 3d e4 3e 13 3e 09 9c 2e 3d 98 6d 9e 3d
       0.06368054 0.1437946 0.042629275 0.07735747
000140 b6 f7 92 bd ff 67 d7 3d da 29 02 3e 1e fe d9 bd
       -0.07176153 0.105178826 0.12711278 -0.10644172
000150 00 36 4b 3d 92 a2 a7 bd f2 3f b2 bc a7 1b 1d be
       0.049612045 -0.08185305 -0.021759007 -0.1534258
000160 e1 f0 1e be fd 75 23 3d 40 43 20 bd 85 27 45 3d
       -0.15521576 0.039907444 -0.039126635 0.048133392
000170 0c 39 22 3e 1e 6e a3 3c 2d 43 4b 3d f3 2e 78 bc
       0.15842074 0.019949969 0.04962461 -0.015147912
000180 58 2f 0b 3e 76 50 fd 3d a3 e2 1c bd 63 f2 5c bd
       0.13592279 0.12368862 -0.038302075 -0.053942095
000190 07 43 f6 3d 92 57 be 3d 5a 57 b9 3d c3 3c b1 3b
       0.12024503 0.092940465 0.09049864 0.0054088547
0001a0 61 de 0e 3d ba 0b 84 3d 04 65 2d 3d 3d d3 4d 3b
       0.034880046 0.06447549 0.042332664 0.0031406425
0001b0 f9 ec 8a 3d a6 19 40 3e 61 0e 54 3c 8c 84 0e be
       0.0678348 0.18759784 0.012942881 -0.1391775
0001c0 04 09 21 bc dd d5 1e 3d b9 a3 74 3d a8 6a 94 3d
       -0.00982881 0.038778175 0.05972645 0.072469056
0001d0 38 7a 00 3e 1e cf 38 3d f0 06 88 3d 5f 3b 08 be
       0.12546623 0.045119397 0.06641948 -0.13303898
0001e0 ef 95 d6 3d ba 4c 9a 3d ad ec ff 3c 69 7f 2a 3d
       0.10477816 0.07534166 0.031240785 0.041625414
0001f0 0d e4 9a bd 59 cb fc 3d 88 54 f1 3b 17 6a b8 bd
       -0.075630285 0.12343473 0.0073648132 -0.0900461
000200 ab 5a 63 3d ef f6 85 3d a3 a5 9f 3d 04 ef 99 3d
       0.05550639 0.065412395 0.077952646 0.07516292
000210 6a b9 22 3c dd 90 4e 3d bc a8 0c 3e 0c e5 b1 3d
       0.0099319015 0.05043112 0.13736242 0.08686265
000220 84 11 29 3d 56 f8 04 3d 78 ba f0 bd 5c 7a 83 3d
       0.04127647 0.032463394 -0.11754316 0.064198226
000230 0b 2a 51 bd e9 62 20 3d 5d 9d fb bd 0f 1c 15 be
       -0.051065486 0.039156828 -0.12285874 -0.14561485
000240 e8 a9 96 bb 01 9c 1b be 3f b1 63 3d ae b1 6f 3b
       -0.004597891 -0.1519623 0.055588957 0.0036574411
000250 7f ed 29 bd 9f c9 e9 3d 8f 19 a2 3d 97 d8 31 3d
       -0.04148626 0.11415409 0.07915031 0.043419447
000260 7e 52 b9 bd 0f d8 89 bd a0 b4 a2 bc 80 ab b7 3d
       -0.09048937 -0.06730663 -0.01986152 0.08968258
000270 15 65 d3 bd 01 58 f5 bd a9 7a 6c 3d 9f 8f 76 3d
       -0.10322014 -0.11979676 0.057734165 0.06019556
000280 12 44 3d 3d 62 41 a7 3c 08 27 41 bd be d9 8b bd
       0.046207495 0.02041692 -0.047156364 -0.068286404
000290 a8 6d a0 3a a0 2e be 3d 04 56 01 be 07 1f 06 be
       0.0012239711 0.09286237 -0.12630469 -0.13097773
0002a0 5b 9f d7 3a 77 3a 8b 3c ab b7 d4 3c f6 3a db 3c
       0.001645069 0.016995652 0.025966486 0.026761513
0002b0 88 01 e4 3d 86 2b 4d bd 0a d6 c4 3d eb 98 6f bd
       0.111331046 -0.050090335 0.09611137 -0.058495443
0002c0 ab e4 f7 bd 6e cf d1 bd 7b 7c d2 3d 93 8c 69 bd
       -0.12104162 -0.10244642 0.10277649 -0.057018828
0002d0 80 af 17 bd 5d b6 82 3c 51 c1 df bd de 7a f8 3c
       -0.037032604 0.015956098 -0.10925544 0.030332025
0002e0 5b 8f a5 bd d9 5f bd 3d 18 74 d5 3d 66 a1 95 3d
       -0.080839835 0.09246797 0.10422534 0.07306175
0002f0 2e 47 8a 3d 5b c2 5c 3d fd 94 8b 3b ce 65 64 3c
       0.06751858 0.05389629 0.004259704 0.013940288
000300 b6 4a 97 3c 8c 9f 56 bd 9a 27 af 3d 8f 0d 9d bd
       0.018468242 -0.05239825 0.08552475 -0.07668602
000310 c7 6c ca bd 12 ec c8 3c e5 51 13 bd e6 13 d8 bc
       -0.09884029 0.02452663 -0.035966773 -0.026376676
000320 43 59 4f 3d 88 6a df 3c cb 48 27 3e ee 1b 43 bd
       0.050622236 0.027272478 0.16336362 -0.047634058
000330 32 af a6 bd 45 fd f9 3c 4f a8 8d 3c 80 ea b0 3d
       -0.081388846 0.030516276 0.01729217 0.08638477
000340 e9 bd f0 3d fb 66 4e 3d ab 27 cf bd e0 ad ee 3d
       0.117549725 0.05039118 -0.10114988 0.11654258
000350 eb 2e 23 bd 62 34 0f 3e d0 47 2a bd 5b 23 11 3e
       -0.039839666 0.13984826 -0.041572392 0.14173643
000360 94 f6 c7 3c af 45 1a bd 43 f9 44 3c 93 d9 13 3e
       0.02440957 -0.03766411 0.012022319 0.14438467
000370 ee 76 00 3e 76 20 bf bd 39 1f 40 bd 64 4e 5e bb
       0.12545368 -0.09332363 -0.046904776 -0.0033921236
000380 ca 9a a3 3d 45 26 64 bd 5b cf 85 bd eb 28 73 3d
       0.07988508 -0.05570056 -0.065336905 0.059365194
000390 0b 2b 8d 3d f2 02 77 bd e4 1a e2 3d a6 ef 13 3e
       0.068929754 -0.060305543 0.11040285 0.14446887
0003a0 bc d5 f9 bb 12 e7 22 3e d8 d4 7b 3d ba ea 80 3d
       -0.007624356 0.15908459 0.06148228 0.062947705
0003b0 56 a3 14 3c 7d c2 22 3e f4 ff 06 3e 82 0e e6 bd
       0.009072145 0.15894504 0.13183576 -0.11233236
0003c0 9b 85 a8 3d 29 e3 2d bd fa 82 2a bd eb a8 11 bc
       0.08228608 -0.042452965 -0.041628815 -0.008890371
0003d0 b1 07 d6 3c 97 93 f0 bc e5 1e d8 ba 94 99 f2 3d
       0.026126714 -0.029367251 -0.00164887 0.11845699
0003e0 3c 2e 41 3d 38 f7 de bd 7f ed b4 bd 47 8e bd bd
       0.047163233 -0.10886997 -0.08834361 -0.09255653
0003f0 59 83 67 bc 7f 7d cd 3d c8 f6 ac 3d 83 2a 03 bb
       -0.014130437 0.10033702 0.08445507 -0.0020014353

lstm.weight_ih_l1 f4 [256, 64]
000000 ca cc e6 3d 2c 79 01 3c 4c 58 30 3e 8b 40 84 bd
       0.11269529 0.007902425 0.17221183 -0.06457623
000010 ec a2 a2 bd 28 ab 94 bd 2a 13 82 3b 30 90 23 3e
       -0.07941231 -0.07259208 0.0039695697 0.15972972
000020 93 49 3b 3d d3 02 b1 bd 4b 35 33 3d 80 32 0a 3e
       0.045724463 -0.08643117 0.043751996 0.13495827
000030 36 bb 75 bd 98 60 32 bc 58 5e c6 3d 82 45 27 3d
       -0.05999299 -0.010887288 0.096859634 0.040837772
000040 0c c6 97 3c c3 c0 19 3e 83 5d 38 3c 55 31 44 bc
       0.018527053 0.15014939 0.011252764 -0.011974652
000050 a8 45 01 bc 40 75 f7 bb dc ba cb 3c c7 b9 fb 3d
       -0.0078901425 -0.007551819 0.024869375 0.122912936
000060 53 0c 66 3d ea e0 90 bd 3c ac 17 3e 58 e1 aa 3b
       0.056164097 -0.07074149 0.14811796 0.0052148513
000070 5f 60 9f bd f8 51 1a 3d 36 1c ea 3c d2 ed a6 3d
       -0.07782053 0.037675828 0.028577905 0.081508294
000080 ba f1 3a bd 34 ff 06 be dd b1 0a 3e 45 5f d5 3b
       -0.045640685 -0.1318329 0.13544412 0.006511601
000090 2f c4 52 3b ec ba 25 3e 33 a6 b2 3d ad d7 80 3d
       0.0032160392 0.16184586 0.08723106 0.06291137
0000a0 a8 bc 88 3d 0c af f3 3d fa 7a 04 3e 86 68 07 3e
       0.06676608 0.11898622 0.12937537 0.13223466
0000b0 61 7b c3 3d 1e b3 af 3d c9 a5 26 3c 50 22 75 3b
       0.09545017 0.08579086 0.010171362 0.0037404485
0000c0 6f f3 26 bd 9a d7 23 3d ff 66 5e bd aa 2f c0 3d
       -0.0407595 0.040000536 -0.054297443 0.09384091
0000d0 5d 5f 92 3c c8 d9 8b bd dd ce a9 bd 06 1f 8a bd
       0.017867738 -0.06828648 -0.08291409 -0.067441985
0000e0 f1 0b 94 bd 84 e7 8e bd ad 1f b9 3b c1 0e a5 bd
       -0.0722884 -0.06977752 0.005649528 -0.08059455
0000f0 97 83 92 3d 5e 0c cb bd ad 05 c3 3d 63 56 05 3e
       0.07154005 -0.09914468 0.09522567 0.13021235
000100 c1 0b bf 3d d5 b1 d4 3d 75 34 fe 3d 8d e5 37 be
       0.09328414 0.10385481 0.12412349 -0.1795866
000110 05 e9 80 bd 14 0c 07 3c ae 06 68 3d 35 76 80 3d
       -0.06294445 0.008242626 0.056646995 0.06272546
000120 af 6a 2d 3c 89 84 7b bd d8 35 32 bd ef ac 8c 3d
       0.010584517 -0.061405692 -0.04350838 0.06868922
000130 11 cb c7 3d 1b f3 4d 3d de 80 28 3d d1 60 e6 bd
       0.09755529 0.05028067 0.041138522 -0.11248935
000140 55 05 03 be 18 f6 70 3d 4a 55 07 3e b5 ba 90 bd
       -0.12795003 0.058828443 0.13216129 -0.070668615
000150 4f cb 30 bd 86 38 60 3d 8b 19 57 bb 2c 59 ac bd
       -0.04316264 0.054741405 -0.0032821621 -0.08415446
000160 b7 6a 15 be 9c d8 d4 bd 74 17 9b bd 70 4a 6b 3d
       -0.1459149 -0.103928775 -0.07572833 0.057444036
000170 c0 09 80 bd f7 16 55 bd a5 21 7b bd be 7d 14 3e
       -0.0625186 -0.052023854 -0.061311383 0.14501092
000180 8b a1 c7 3d 64 ef 59 3c 2b a5 12 3d f5 04 9f 3d
       0.09747609 0.013301704 0.035802048 0.07764617
000190 ed 14 73 bd b4 53 94 3c c1 3c 73 bd e1 7d 9c bd
       -0.05934613 0.018106319 -0.05938411 -0.07641197
0001a0 04 ce d1 3c 6f 9a 89 bb 46 a1 ea bd ea ff bd 3d
       0.025610931 -0.004199318 -0.11456542 0.09277327
0001b0 35 4c c0 bd 4c cc 21 3d 37 9b b9 3c 39 b4 11 bb
       -0.09389535 0.039501473 0.02265702 -0.0022232665
0001c0 b9 dc b4 3d e8 b0 a0 3d 13 98 c2 3d 66 b7 b5 3d
       0.08831162 0.07846242 0.09501662 0.08872871
0001d0 cd d0 89 bc 2c d7 30 3d bb e4 b6 bd fc 67 19 be
       -0.016823197 0.043173954 -0.089303456 -0.14981073
0001e0 f5 3e 00 bd d8 89 9b bd 5c 33 d5 3c 12 0d 7a bb
       -0.03131004 -0.07594651 0.026025467 -0.0038154763
0001f0 1e 51 b5 bd ec 4e 93 bc ef cd 00 be 12 49 cd bc
       -0.088533625 -0.017981969 -0.12578557 -0.025059257
000200 ee 82 00 bd 63 72 9d 3d 56 a3 ea bc 1e fc e2 bd
       -0.031374864 0.07687833 -0.028642338 -0.11083244
000210 3c b4 e0 ba 26 71 3e 3d ef 4f 82 3d b0 55 2c 3e
       -0.0017143558 0.046494626 0.063629024 0.16829562
000220 46 9c 84 3c 8a b3 61 3d b4 7d 0b be 6c 5f 3c 3d
       0.016187798 0.055102862 -0.1362217 0.04598944
000230 38 93 c3 3d 36 67 ba 3b 9a 80 29 bd a6 6e f7 bc
       0.09549564 0.0056885732 -0.04138241 -0.030204128
000240 1b 36 99 bc 47 71 33 bd 03 60 ec bd a9 f8 32 bd
       -0.018702557 -0.0438092 -0.1154175 -0.043694172
000250 66 5f 68 3c 0f 9f ac bb f7 9e 01 bd ae 5c 3b bd
       0.014182901 -0.0052679847 -0.03164574 -0.045742683
000260 7c 69 25 bd 17 64 0c 3e 08 fd 00 3d 97 99 e5 3d
       -0.0403838 0.13710056 0.03149131 0.112109356
000270 35 05 09 bd 34 e1 78 3c e8 07 a7 3d 45 70 4e 3d
       -0.03345223 0.015190411 0.08155805 0.050400037
000280 c6 18 f9 bd 80 ea 35 3d 4d a2 a2 3c 82 88 10 be
       -0.12162928 0.04441309 0.019852782 -0.14114574
000290 cb 73 0e be 5b f6 bc 3c 99 cd bb bd a9 b2 1d be
       -0.13911359 0.02306669 -0.09170074 -0.15400185
0002a0 ad d0 33 3d c9 86 f0 bc a3 78 8b bd 23 86 dc 3d
       0.04390018 -0.029361146 -0.06810119 0.10767772
0002b0 20 16 bf 3d 4c b7 92 3d 4e f1 f1 3d 17 bc f5 bd
       0.09330392 0.07163867 0.11813603 -0.11998766
0002c0 2e 18 85 3d d8 1a 8c bc c9 4b cb ba d2 f7 ac bd
       0.064987525 -0.017102644 -0.0015510257 -0.084457055
0002d0 eb 2a 65 3d 75 f2 84 3d 1b 0a 73 bd 8e bc 7e bc
       0.055949133 0.064915575 -0.05933581 -0.015547885
0002e0 49 b3 6c bd 4f 5e 04 3d 03 11 4b bc 83 9d af 3d
       -0.057788167 0.032316502 -0.012394193 0.08574965
0002f0 ef 98 02 be f8 a3 e6 bc a5 18 ac 3d 93 10 05 bd
       -0.12753652 -0.028154358 0.08403138 -0.03248651
000300 5f e1 62 bd 6c b0 89 39 7b 37 1d bd ba ef b0 bc
       -0.055390712 0.0002626212 -0.03838299 -0.021598686
000310 68 5a 41 bd 6a ca 0b be 84 d7 d5 bd 00 6d 2c 3d
       -0.04720536 -0.13651434 -0.10441497 0.042096138
000320 01 66 cb 3c 95 44 9c bd 0a 3d 0e be b0 e4 7e 3c
       0.024828913 -0.076302685 -0.13890472 0.015557453
000330 55 e8 95 3d a7 14 3d bd 48 60 70 bc 1d 90 d2 3d
       0.073197044 -0.046162274 -0.014671393 0.10281394
000340 88 f5 2e 3e 26 12 12 3e 39 f7 20 3d 4e 6e 9b 3d
       0.1708585 0.14264736 0.03929827 0.07589398
000350 d6 95 ad bd 14 90 00 be 06 fd f3 bd dc a9 77 3d
       -0.084758446 -0.12554961 -0.11913495 0.060464725
000360 38 6a af 3d e7 c3 13 3e 8a 35 49 3b ad 2d b0 bd
       0.085651815 0.144302 0.0030702078 -0.08602462
000370 8c 4a b4 bd 80 24 69 3d e9 dd 45 3d d3 41 1b 3e
       -0.08803281 0.056919575 0.048307333 0.15161829
000380 14 01 39 3d ba e3 96 bd bc 33 00 be 76 d1 4c bd
       0.045167044 -0.07367654 -0.12519735 -0.050004445
000390 3f 91 82 3c 8e 67 54 3d d4 a8 bb bc a6 78 44 bd
       0.0159384 0.05185657 -0.022907652 -0.04796662
0003a0 36 2e 5e bd f4 c8 6a 3d b0 74 4b bd c1 67 8b bb
       -0.05424329 0.05732055 -0.04967183 -0.004254312
0003b0 5d d3 8b 3d cc 0a bf bd 77 95 65 bc 4d f6 f4 bd
       0.06827424 -0.09328231 -0.014012686 -0.11961041
0003c0 2f ac 5d bc e5 a4 63 3c 2b e1 d4 bd 1d ef 91 3d
       -0.013529821 0.013894294 -0.1039451 0.07125685
0003d0 f7 5d 90 bd 53 c0 73 3d a2 f7 15 3d 66 12 c0 bd
       -0.07049172 0.059509587 0.036613114 -0.09378509
0003e0 59 00 85 3d 52 e4 37 3d 45 27 97 bc ed 16 19 3d
       0.06494207 0.044895478 -0.018451342 0.03737538
0003f0 de 37 b5 3d a0 46 55 3d d7 61 e2 b9 56 33 07 3e
       0.088485464 0.052069306 -0.00043178975 0.13203177

lstm.weight_hh_l1 f4 [256, 64]
000000 d1 4a bc bd cb 17 f4 3c 15 cf dc bd 66 79 89 3c
       -0.091939576 0.029796502 -0.10781685 0.01678152
000010 5b 59 cd 3c 5e dc d7 b9 2a f0 d8 bd 90 80 9c 3d
       0.025067022 -0.00041172182 -0.10592683 0.07641709
000020 ef c2 4e 3d dc 5b e3 3d 29 19 bc bc 1c 5e 20 be
       0.050478872 0.11101505 -0.022961216 -0.156609
000030 61 b7 cd bd fb 81 cb bd 1a 3b b7 bc 85 ca 5a 3d
       -0.100447424 -0.09936901 -0.022367049 0.053415794
000040 d9 d2 0e 3d a7 55 a5 3c 9f 59 96 bd 67 d6 af 3d
       0.03486905 0.020182444 -0.073413126 0.08585816
000050 9d 7f d4 3d 3a 03 05 be 02 1f c7 bc e5 61 06 3d
       0.10375903 -0.12989512 -0.024306778 0.032808203
000060 9a 14 95 3d a1 ad e6 bc 4d 19 25 3e cb 38 e4 3c
       0.0727932 -0.028158965 0.16122933 0.027859112
000070 31 a8 8e ba 94 30 70 bd 56 d6 e2 3d 64 5d a6 3d
       -0.0010883865 -0.058640078 0.110760376 0.081232816
000080 ba ce cf bd d2 a3 70 3d fc e1 d6 bd b4 13 02 3d
       -0.10146852 0.05874998 -0.10492322 0.03175707
000090 11 e4 d1 3d 41 c3 86 bd 02 20 cc bd d5 e5 89 3d
       0.10248578 -0.065802105 -0.099670425 0.0673329
0000a0 13 c7 0f 3d 70 7e 9c 3d c7 91 6b 3d a0 77 0e 3e
       0.03510196 0.076413035 0.05751207 0.13912821
0000b0 c1 ca b2 bd 2b 6b 11 bd c8 13 b6 3d 67 f3 a4 3d
       -0.087300785 -0.035502594 0.08890492 0.08054238
0000c0 46 2a 2a ba c0 d2 15 3e 3f 14 2a 3d 12 dd 5d bc
       -0.00064912846 0.14631176 0.041523214 -0.013541477
0000d0 d8 71 22 3e 43 a3 0d bd f8 d9 d7 3d fa 68 17 bc
       0.1586374 -0.034579527 0.10539621 -0.009241337
0000e0 0a d9 ee bd 6e 2f e6 3c fa a3 df bd 53 13 ef bd
       -0.11662491 0.028098788 -0.10919948 -0.11673608
0000f0 f4 84 5c bd 99 ab a5 3d 51 70 a6 3d 22 56 93 bd
       -0.05383773 0.0808937 0.081268914 -0.07194163
000100 0b d1 8d bd f9 30 a3 bd 53 61 11 3e 96 f5 ac 3d
       -0.069246374 -0.07968325 0.14197282 0.08445279
000110 9d af 08 3e 5e 7d fe bd 46 2c 98 bd 58 e6 85 bb
       0.13348241 -0.12426256 -0.074303195 -0.004086297
000120 13 7b d8 3d 84 09 4e bd a6 16 de bd 44 3b 04 bc
       0.105703495 -0.050302044 -0.108441636 -0.008070771
000130 ed fe 39 bd 57 92 8c 3d e5 a2 af 3d 33 fb b5 bc
       -0.04540913 0.068638496 0.085759915 -0.022214508
000140 d8 fa 92 3d a7 f9 b5 3d d3 1d 5a 3d 54 6c 1d bd
       0.07176751 0.08885508 0.0532511 -0.038433388
000150 0d b2 5d bd 5a 15 aa 3d 52 a0 28 bd 9e 4e 8e 3d
       -0.05412488 0.08304854 -0.04116852 0.06948589
000160 d6 76 8b bd 7f 88 cd 3c 28 18 c6 3d fd 75 89 3d
       -0.068097755 0.0250895 0.09672576 0.067119576
000170 bc 79 de 3c 7b 07 a3 bd 85 3d c6 3d 79 90 98 3d
       0.027157657 -0.07960411 0.09679703 0.07449431
000180 e1 01 9b 3c 14 03 99 bd b4 fd d3 3d 68 1a 08 3d
       0.018921794 -0.0747129 0.103511244 0.033228308
000190 1e f4 22 3d fe b4 a4 3d 9d 8c d2 3d c5 e9 00 3d
       0.03978359 0.08042334 0.10280726 0.03147294
0001a0 a7 f2 64 bc 87 dd bb 3c c2 c4 1f 3c 72 3b ac bd
       -0.013973868 0.02293278 0.009751501 -0.08409776
0001b0 e5 55 da bd 02 84 6f 3d e8 7d 53 3c ab 01 21 bd
       -0.10660914 0.0584755 0.012908436 -0.03930823
0001c0 e3 7b a6 3c 0e 05 c5 3d 35 73 a4 3d 61 3c 96 bd
       0.020322746 0.09620105 0.080297865 -0.07335735
0001d0 32 e0 29 3d 03 31 09 bc 70 17 d7 bc d4 48 48 bd
       0.041473575 -0.008373502 -0.026256293 -0.04889758
0001e0 2d 80 e9 3a 4a 90 15 3c ca a2 d2 bd 57 d0 c8 3d
       0.0017814689 0.0091286395 -0.10284956 0.09805363
0001f0 aa e6 ad 3c 91 f0 a8 3d 62 54 0c 3d 60 24 0d 3d
       0.021228153 0.082490094 0.03426016 0.034458518
000200 81 a2 98 3c b8 80 02 3d e3 6f 28 be 6c 9e fe 3d
       0.018632175 0.031861037 -0.16448931 0.1243256
000210 9d 7c 2c 3d c5 d3 d7 3c 12 f4 13 3e 26 45 a5 bd
       0.042111028 0.026346097 0.14448574 -0.0806983
000220 7a 15 10 3e 92 9c f3 3b 47 82 38 3c 72 a3 15 be
       0.14070693 0.007434436 0.011261529 -0.1461313
000230 aa 38 98 3d b3 6e 2a ba 5b 01 16 be e6 10 4c bd
       0.07432683 -0.0006501481 -0.14648955 -0.049820803
000240 bc b8 08 bd 44 48 12 3e 0e 92 9d bd 5a 36 ca 3c
       -0.0333793 0.1428538 -0.07693873 0.02468412
000250 6f 8e 92 3d 66 72 23 be c2 df 55 bd 7e ea 82 bd
       0.07156073 -0.15961608 -0.052215345 -0.06392382
000260 90 03 12 be 53 da b3 bd 20 1d 2c bd 8c 04 55 bc
       -0.14259171 -0.087818764 -0.042019963 -0.013001572
000270 67 da 07 be e2 b8 bf bd fa 20 b5 bd 10 62 03 be
       -0.13266908 -0.093614355 -0.088441804 -0.12830377
000280 c8 cd 88 bd c6 33 53 bd 87 96 27 3d 5c e9 98 3d
       -0.06679875 -0.051563047 0.04091504 0.07466385
000290 31 7e aa 3c 95 eb 2a 3d c5 4b e5 bd 26 a2 8e 3d
       0.020812126 0.041728575 -0.111960925 0.06964521
0002a0 97 d1 61 bd 3c d6 80 bd 3a d8 f1 3d 14 b6 c7 3d
       -0.05513152 -0.06290862 0.1180882 0.097515255
0002b0 ec 6e ed 3b 56 6e e3 bb 6f eb 17 3d 59 c9 c3 bd
       0.007245889 -0.0069406433 0.03708976 -0.095598884
0002c0 4f 59 10 3e ce 89 94 bd 39 08 50 3d 4e 96 f9 3d
       0.14096569 -0.07252847 0.05078909 0.121868715
0002d0 3b 75 3b 3d 48 1e d7 3d 28 1e b4 bc 28 60 37 bc
       0.045766097 0.105038226 -0.021987036 -0.011192359
0002e0 a6 64 30 3c 94 40 68 bd 76 a6 1b be 10 99 b4 bc
       0.010766184 -0.05670221 -0.15200219 -0.022045642
0002f0 b8 7a 80 3d 5c 0f fa 3d b9 9b 08 3d 2b 75 b0 3d
       0.06273407 0.12209961 0.033351634 0.08616098
000300 87 42 ca 3d 68 56 ed bd 02 bc 09 be df 98 d2 3d
       0.0987597 -0.11588746 -0.13450626 0.10283064
000310 e3 32 1b bd 35 12 65 3b 85 1b 49 bd 57 42 05 3d
       -0.037890326 0.003495348 -0.04909851 0.03253397
000320 18 94 19 3d 3c a7 d2 3d 2e 75 f0 bc 1e 22 52 3c
       0.03749475 0.10285804 -0.02935275 0.012825517
000330 ba 98 b9 bc 9b d9 9c 3d 1c 33 b3 b9 d3 07 ee 3d
       -0.022655834 0.076586924 -0.0003417962 0.11622586
000340 61 38 30 be 2e 9c 00 bd 53 40 78 3d 9c a9 c8 bd
       -0.17209007 -0.031398945 0.06060822 -0.097979754
000350 ae c8 14 bc 57 c2 3a 3d e6 fd ae bd e1 58 3b be
       -0.009081049 0.045595493 -0.08544521 -0.18295623
000360 99 6c 13 3b 07 45 a6 3d 41 e0 b4 3c 4e 9c e4 bc
       0.002249515 0.08118635 0.022079589 -0.027906563
000370 22 29 04 be 6d d0 04 bd dc f4 a3 3d 81 d3 cd bd
       -0.12906316 -0.032425333 0.080056876 -0.10050107
000380 c3 a6 07 3e e1 b7 4b bb 7e 9f c6 3d ae 65 02 3c
       0.13247208 -0.0031084942 0.096983895 0.007958813
000390 ce e7 e3 bd 2c 73 76 3d 6c 51 cb bd d3 bd ae 3b
       -0.111281976 0.06016843 -0.09927639 0.0053326874
0003a0 88 b2 25 bc 73 0f e5 bd 37 e0 45 3d d3 11 64 bd
       -0.010113366 -0.11184587 0.04830953 -0.05568106
0003b0 43 14 7c 3d fa 88 bd bc f1 9b 9e bd e3 09 8d bd
       0.06154276 -0.023136605 -0.07744587 -0.06886651
0003c0 4b bd 78 3c b5 01 0e 3e 17 b6 e4 3d 08 2c 36 3d
       0.01518185 0.13867839 0.111675434 0.044475585
0003d0 91 be a9 bd fc e1 42 3d 32 dd 94 bd 87 8a 60 3d
       -0.08288301 0.047578797 -0.07268752 0.05481961
0003e0 6b a7 fb 3d e2 c6 96 3d 7c 30 e3 3b 4e ba b4 bc
       0.12287792 0.07362153 0.00693327 -0.022061493
0003f0 59 85 36 bd eb 18 36 bd 92 5c 33 bd 95 bc 22 3d
       -0.044560764 -0.044457357 -0.043789454 0.039730627

lstm.bias_ih_l1 f4 [256]
000000 c5 50 08 3d 71 bb bd 3d 78 fa fd 3d 0d 14 9b bd
       0.033280153 0.09264267 0.12401289 -0.07572184
000010 08 eb fc 3c c4 10 90 3d eb ea f0 3d 09 76 69 bd
       0.03087379 0.07034448 0.11763557 -0.056997333
000020 7b b6 31 bd c2 d8 cc bd 41 38 31 3d b6 c0 bd bd
       -0.043386918 -0.10002281 0.04326654 -0.09265272
000030 bd 08 6b 3d e4 7b 9a bd 33 c4 1c 3d 9f 2f a0 3c
       0.05738138 -0.075431615 0.038273048 0.019553958
000040 ab 9c ce 3b ce 5c f7 bd 6a 45 ae 3d 36 ba f3 3d
       0.0063052974 -0.12078248 0.085093334 0.11900751
000050 07 c3 a4 3c 9f 21 b2 3d 27 c4 a6 bd f6 53 2f 3c
       0.020112528 0.08697819 -0.08142882 0.01070117
000060 e8 b8 d3 bc 63 23 17 3e df 47 f0 3c 57 71 e9 bd
       -0.025845006 0.14759593 0.029331146 -0.11398571
000070 60 4e f2 3c 48 7f 7b 3d a2 06 d3 3c 4c 60 cd 3d
       0.029578388 0.06140068 0.025759999 0.10028133
000080 2c cb 8a 3d f5 ef f0 ba 14 57 b4 3d 0a 1d 94 3c
       0.06777033 -0.001838206 0.08805671 0.018080253
000090 cd 0a 05 bd ed ac c2 3d 50 31 d1 3c 31 c2 07 3e
       -0.032481004 0.09505639 0.02553621 0.13257672
0000a0 f0 ef 33 bd 28 6a 39 3c 17 b4 9c bd 60 24 fb bb
       -0.043929994 0.0113168135 -0.07651537 -0.0076642483
0000b0 af 0a b2 3d a7 d1 25 bc 47 49 c5 3d 96 cc c2 3d
       0.08693444 -0.010120786 0.09633117 0.09511678
0000c0 9c 8e 7d bd 3b 27 e9 3d ed 8e ba bd 81 9c f5 3d
       -0.06190358 0.11384436 -0.09109292 0.119927414
0000d0 aa 8e 5f 3c f0 1e c9 bd 48 50 4a 3d 88 82 11 3e
       0.013644854 -0.09820354 0.04939297 0.1420995
0000e0 49 eb 9a 3d 83 b9 80 3b d3 45 5b 3d d1 4c a2 3d
       0.07564408 0.0039283647 0.053533386 0.07924808
0000f0 b2 20 be bd 9e a5 b9 bd f2 14 d7 bd 87 af ad 3d
       -0.0928358 -0.09064792 -0.10502042 0.08480745
000100 9e ce 89 bd b6 c3 53 bd c6 91 e6 3d c9 10 67 bd
       -0.06728862 -0.051700316 0.11258273 -0.056412492
000110 8a a6 7c 39 5d 8b ff 3d 75 94 a3 3d 0a 4c 17 3c
       0.00024094633 0.12477753 0.079873 0.009234438
000120 f2 dc 55 bd de 4f 98 bd 49 1d f3 3a 62 b4 12 3e
       -0.052212663 -0.074371085 0.0018548156 0.14326623
000130 fe 73 db 3c 6d 0a 8d 3d 68 25 3c 3d bf e8 17 3c
       0.026788708 0.06886754 0.04593411 0.0092718
000140 15 61 ea 3d f3 69 81 bc 0c d4 8f 3d 31 c2 86 3d
       0.11444298 -0.01579759 0.070228666 0.06580008
000150 03 55 c1 3d 5a f4 05 3e a2 98 d6 3a 1b cb b4 bc
       0.09440043 0.13081494 0.0016372392 -0.022069504
000160 71 ef e8 3c e5 b5 d8 3d 02 60 01 3e f6 83 7e bd
       0.028434487 0.10581569 0.1263428 -0.062137567
000170 1c 33 21 3c 2f 23 f1 3d fe 19 84 3d 31 a4 10 3e
       0.009838846 0.11774289 0.0645027 0.14125134
000180 68 a7 9c 3c a6 2e 9a bd d9 58 55 3d ce b9 d7 bc
       0.019122794 -0.07528429 0.052086685 -0.026333716
000190 93 cf 5c 3d ec a6 84 bd 4e 57 7f bd 4e c7 3c 3d
       0.053908896 -0.0647715 -0.06233912 0.04608851
0001a0 65 ac 84 3c 59 58 90 bd 6a a5 21 3d 3e 07 3a bd
       0.016195485 -0.07048101 0.03946439 -0.045417063
0001b0 22 1c 90 3d 76 4f 8b ba 73 75 10 3e c3 41 63 bd
       0.07036616 -0.001062854 0.14107303 -0.055482637
0001c0 ff 2d 86 3d 5b 7c e0 3d 5c 80 ba 3d e1 2c f3 bd
       0.06551742 0.10961219 0.09106514 -0.11873794
0001d0 f3 76 c0 3b d0 d1 cb bd 40 45 aa bd 90 dc 56 bd
       0.005873555 -0.09952128 -0.0831399 -0.05245644
0001e0 4e dd 06 3e fd 50 93 bc b4 af aa bc 48 d6 93 3c
       0.13170359 -0.017982954 -0.020835735 0.018046513
0001f0 a9 03 6a 3d 03 ad f0 3c 30 fa 8a bd 0a 40 dc 3c
       0.057132397 0.029379373 -0.06786001 0.026886005
000200 49 d4 c3 3d 54 0d 02 3e 67 61 d8 3c cd 04 cd 3d
       0.095619746 0.12700397 0.026413633 0.10010681
000210 b8 05 2c 3d 3c a5 d8 3d 20 3b 27 3e 9b c8 00 be
       0.04199764 0.10578391 0.16331148 -0.12576525
000220 1e 8d f9 3d c3 42 98 bd fc 37 cf bd 8e 27 bc bc
       0.12185119 -0.07434609 -0.101181 -0.02296808
000230 85 8f a8 3d 9f 05 c7 bd 41 3b 4d 3d fd fb 73 bd
       0.08230499 -0.09717869 0.050105337 -0.059566487
000240 b5 ac 00 bd 1d ef 32 3d c6 b0 71 3d 6f 31 f5 3b
       -0.031414706 0.043685067 0.059006475 0.0074826996
000250 41 73 d7 bd bc 68 71 3d f7 fa 28 bd c2 d6 0b 3e
       -0.1052003 0.058937773 -0.041254964 0.13656142
000260 09 24 e5 3c b5 52 6b bd 1d b6 9f 3c db 21 c8 bd
       0.027971284 -0.057451922 0.019496018 -0.097720824
000270 96 c6 80 bc d2 c6 2d bd 1c 08 16 bd 77 ce 12 be
       -0.015719693 -0.042425938 -0.036628827 -0.14336573
000280 d5 af 9b 3d be c4 80 3d 02 82 e1 3d d9 e8 8b bd
       0.07601897 0.062875256 0.11011125 -0.068315215
000290 63 b8 9b bd 12 7b 88 bd 7a 05 51 bb 6c 83 21 3e
       -0.07603528 -0.06664099 -0.0031894133 0.1577279
0002a0 d5 bc e3 bc cf 72 ae bd e5 b0 5e 3b b2 dc d9 3d
       -0.027800003 -0.08517992 0.003397995 0.106377974
0002b0 db 05 ee 3d c0 91 c8 bc 6f 4d fb 3d 38 5a b8 bd
       0.116222106 -0.024483562 0.12270629 -0.09001583
0002c0 78 6d f3 bd 3d 9d e1 bd 40 8c cb bd 0c 42 8f 3d
       -0.11886114 -0.11016319 -0.0993886 0.06995019
0002d0 39 dd 68 3d 69 2b d2 bb aa 33 97 bc cc 02 29 bc
       0.0568516 -0.0064138663 -0.018457253 -0.010315608
0002e0 cd 1a a7 3d 80 2a 06 bd fc 0a 10 bd 07 bc 9c bd
       0.08159409 -0.032755375 -0.035166726 -0.07653051
0002f0 23 73 db 3c e5 0d 23 bc 87 b6 f3 bc e4 9f f6 bb
       0.0267883 -0.009952043 -0.029750122 -0.0075263847
000300 96 c6 ee bd f7 73 8e bd 22 32 11 3c 01 8d 14 bd
       -0.11658971 -0.06955712 0.00886205 -0.036267284
000310 10 2a ff bd 66 9f 58 3d 25 5c 9e bd da 9b c8 bd
       -0.12459195 0.05288639 -0.07732419 -0.09795351
000320 d2 71 85 3d c0 01 ae bd d2 55 d1 3d e7 e2 c0 3c
       0.0651585 -0.084964275 0.10221447 0.023545695
000330 54 9a 1b be 2e 34 09 3e 6e 52 bc bd 9e 78 e7 bd
       -0.1519559 0.13398811 -0.0919541 -0.11302303
000340 a4 bf d4 bd e1 21 00 3d 29 91 c5 bd 75 36 8c bc
       -0.10388115 0.03128231 -0.09646828 -0.01711581
000350 70 00 db 3d dc 52 24 bd 5a 35 05 3e fa 70 bc bd
       0.10693443 -0.040118083 0.13008633 -0.09201236
000360 fe 96 89 3d 72 46 c7 bc bc 5c da bd b0 e1 84 3d
       0.067182526 -0.024325583 -0.10662219 0.06488359
000370 e0 0c 77 bd 31 5c 87 bd 8f 8c bc 3d 4f 25 94 bd
       -0.060315013 -0.06609381 0.09206497 -0.072336785
000380 ea a7 a5 bd de 25 84 bd 7a e8 b8 3d 31 ba 55 3d
       -0.08088668 -0.06452535 0.090287164 0.05217952
000390 93 e1 87 bd aa 0b f5 bd a7 2e f5 bd bc e6 7d 3d
       -0.06634822 -0.11965115 -0.11971789 0.061987624
0003a0 ec 11 01 bd 6e f6 99 bc ce 5c 76 3d 20 7d 94 bd
       -0.031511232 -0.018794265 0.0601471 -0.07250428
0003b0 0c 27 2c bc 47 0e 29 bd 84 fc e5 3c 53 36 04 3e
       -0.010507356 -0.04127338 0.02807451 0.12911348
0003c0 53 c1 9a bd ef 83 08 3e 51 ef f1 3d 15 46 e2 3d
       -0.07556405 0.13331579 0.11813224 0.11048523
0003d0 90 58 2a 3d ff 34 d2 3d a5 b1 08 3e ee 05 a7 bd
       0.041588366 0.102640145 0.13349016 -0.08155428
0003e0 0b e7 ee bc df 3e 53 bb e3 3f e5 3d e4 1f 1d bd
       -0.029162904 -0.003223352 0.11193826 -0.03836049
0003f0 16 a9 0b 3d ea 43 e3 3d b0 0b dd 3d 40 52 1d 3c
       0.0340968 0.11096938 0.10793245 0.009602129
