lstm_mid_model.pt (torch, 245045 bytes, 9 tensors)

lstm.weight_ih_l0 f4 [256, 38]
0.122356474 0.119819865 0.066520005 0.18146311 0.050611462 0.03162843 -0.0011926175 0.10478895
0.12771875 -0.034230676 0.11777927 0.035179116 0.13654694 0.02621861 0.0808253 0.03533875
0.13813397 -0.011140956 -0.025422368 -0.008607718 -0.042412937 -0.04461643 0.021946883 0.057119627
-0.11427633 -0.057626292 -0.051706605 -0.113832265 0.017856585 -0.12026491 0.116727576 -0.052272655
0.125014 0.06866809 -0.041079912 0.046033464 -0.019554855 0.065686084 -0.0013811345 -0.07244383
-0.012748372 -0.072282895 0.057992764 0.12643081 0.058226068 -0.05045649 0.05742422 -0.0111083845
0.041906778 -0.08013119 -0.15874663 -0.056400083 -0.09013962 0.12193737 0.04628313 0.10278365
0.048883088 0.03165318 0.10832955 -0.06071862 0.006539521 0.016153825 0.103810154 -0.043047786
0.090256654 0.03169967 0.044120334 -0.10842101 -0.064630434 -0.10487398 0.10724393 0.025612002
-0.019167963 -0.141287 -0.110044084 -0.107717015 -0.11148105 0.07773127 0.038749855 0.07702284
-0.03290123 -0.110682644 0.08149259 -0.07412695 0.057402316 -0.025898037 0.1029382 -0.12910809
-0.09149074 0.062235508 0.0227843 -0.045550343 0.13479765 0.12399098 -0.109359406 -0.13115865
0.14222904 -0.07042349 -0.08523913 -0.16022488 -0.017322266 0.031225458 -0.17490073 -0.054644242
-0.06292175 -0.09296142 -0.06936808 0.041239176 -0.021029579 -0.038768433 0.17595983 0.049340177
0.0765414 -0.084798805 -0.1523982 -0.043752614 -0.02944374 -0.15682821 -0.06743519 -0.14397366
-0.08666328 -0.12847179 -0.060076237 -0.15794161 -0.12565969 -0.13626209 -0.11529605 -0.071452715
0.11962791 -0.09070284 0.02280075 0.025611902 -0.1634196 0.061761227 -0.0935145 -0.094926156
-0.089649394 -0.23125695 -0.06586939 -0.027305484 -0.038032908 -0.12299727 0.055527803 -0.16540168
0.025397226 0.08935174 0.13294238 0.12704375 0.15970878 -0.14764181 -0.011397098 -0.099585645
-0.0576038 -0.14892592 0.10713219 -0.11469039 0.152636 0.024704551 0.009979895 -0.07524308
0.11451098 0.0038831553 0.0018813272 -0.070768185 0.04110233 -0.06357019 -0.07947411 0.10153817
0.0070946217 -0.05447849 -0.032162998 -0.032082487 0.06236152 -0.042603936 -0.09890153 -0.06367353
-0.07628662 0.04457906 0.1371472 -0.11639429 -0.03709324 0.012802344 -0.004192256 -0.10241245
0.015480714 0.037161823 0.048284113 -0.07108919 -0.10035843 -0.04527672 -0.03574808 -0.031342804
0.06772572 0.063195825 0.018047115 -0.0515258 0.040978838 -0.017811656 -0.0090096425 0.034590058
-0.085158944 -0.080428734 0.048719693 0.043734387 -0.011885431 -0.13425532 -0.12628846 -0.10887139
-0.06891834 -0.0022493284 0.049852755 -0.009971885 -0.19645776 -0.13644546 -0.07380759 0.12091869
-0.062491074 -0.07635689 0.047391165 -0.049063757 -0.0777832 0.15489396 -0.026634036 -0.013308148
-0.066762425 0.13169831 0.1205757 0.0826628 -0.07111459 -0.113223255 -0.06953802 0.12203259
0.07990756 0.09982171 0.08486858 0.015483696 -0.0026305844 -0.0707356 -0.09369311 -0.09463536
0.04331846 -0.06767691 -0.026159987 -0.035088714 0.05054912 -0.048538495 -0.031074747 0.047268316
0.0013779069 0.09001372 -0.05827854 -0.06577298 0.021233257 -0.060593426 -0.16334298 -0.09440486
00000000: 0896 fa3d 1e64 f53d a43b 883d 77d1 393e
00000010: f74d 4f3d d08c 013d 9a51 9cba 979b d63d
00000020: b4c8 023e 7735 0cbd 4236 f13d fa17 103d
00000030: f6d2 0b3e 69c8 d63c bc87 a53d 5dbf 103d
00000040: fe72 0d3e 8e88 36bc 9242 d0bc 6307 0dbc
00000050: 30b9 2dbd b8bf 36bd f3c9 b33c 45f6 693d
00000060: b509 eabd 8c09 6cbd 4eca 53bd e420 e9bd
00000070: f947 923c 734d f6bd de0e ef3d da1b 56bd
00000080: ac03 003e dba1 8c3d 6943 28bd 968d 3c3d
00000090: 8131 a0bc 6d86 863d 2f07 b5ba 6e5d 94bd
000000a0: 8cde 50bc 0e09 94bd d289 6d3d 1477 013e
000000b0: 757e 6e3d 77ab 4ebd a935 6b3d f1ff 35bc
000000c0: 71a6 2b3d d21b a4bd 7a8e 22be c603 67bd
000000d0: 1f9b b8bd 4dba f93d 6193 3d3d 3c80 d23d
000000e0: a239 483d c4a6 013d e2db dd3d 16b4 78bd
000000f0: 7a49 d63b 0755 843c 6b9a d43d e052 30bd
00000100: 7bd8 b83d 83d7 013d 86b7 343d d60b debd
00000110: f65c 84bd 2bc8 d6bd b5a2 db3d 43d0 d13c
00000120: 2206 9dbc 8aad 10be cb5e e1bd bd9a dcbd
00000130: 2d50 e4bd 9231 9f3d 2bb8 1e3d 27be 9d3d
00000140: 71c3 06bd 95ad e2bd 96e5 a63d dfcf 97bd
00000150: b11e 6b3d 1f28 d4bc 43d1 d23d e934 04be
00000160: 7f5f bbbd a9ea 7e3d 24a6 ba3c ff92 3abd
00000170: 6508 0a3e fcee fd3d d3f7 dfbd 744e 06be
00000180: 7da4 113e 313a 90bd da91 aebd fe11 24be
00000190: 6de7 8dbc 88cc ff3c 2d19 33be a4d2 5fbd
000001a0: 1edd 80bd 8f62 bebd da10 8ebd 69ea 283d
000001b0: 3946 acbc a6cb 1ebd d02e 343e ed18 4a3d
000001c0: bdc1 9c3d ffaa adbd 460e 1cbe f135 33bd
000001d0: 0034 f1bc 9397 20be 761b 8abd d56d 13be
000001e0: 857c b1bd 1c8e 03be 8012 76bd 72bb 21be
000001f0: efac 00be 4a88 0bbe 5620 ecbd cd55 92bd
00000200: 7aff f43d 69c2 b9bd a3c8 ba3c 0dd0 d13c
00000210: 7857 27be 57f9 7c3d 8884 bfbd a568 c2bd
00000220: 1a9a b7bd 9fce 6cbe 88e6 86bd c0af dfbc
00000230: 65c8 1bbd fee5 fbbd 1f71 633d 0f5f 29be
00000240: d80d d03c 0cfe b63d 0c22 083e c217 023e
00000250: b38a 233e 6a2f 17be e5ba 3abc 8ff3 cbbd
00000260: f6f1 6bbd 0980 18be 1f68 db3d cce2 eabd
00000270: 9d4c 1c3e 3361 ca3c b782 233c 0b19 9abd
00000280: bc84 ea3d 897c 7e3b de96 f63a e9ee 90bd
00000290: eb5a 283d 1631 82bd 52c3 a2bd 3ef3 cf3d
000002a0: 007a e83b d624 5fbd 59bd 03bd ed68 03bd
000002b0: cb6e 7f3d 7781 2ebd e38c cabd 4567 82bd
000002c0: 293c 9cbd 8898 363d 5170 0c3e 2160 eebd
000002d0: 15ef 17bd ecc0 513c 315f 89bb 9ebd d1bd
000002e0: d2a2 7d3c ff36 183d 90c5 453d 3697 91bd
000002f0: b888 cdbd 1574 39bd 946c 12bd 5061 00bd
00000300: c8b3 8a3d d06c 813d 8bd7 933c b80c 53bd
00000310: 6dd9 273d c0e9 91bc 2e9d 13bc 4eae 0d3d
00000320: d067 aebd d2b7 a4bd 4d8e 473d d422 333d
00000330: 1cbb 42bc 3a7a 09be c351 01be f7f7 debd
00000340: 0f25 8dbd 7869 13bb 6732 4c3d 1e61 23bc
00000350: 392c 49be 5cb8 0bbe 6f28 97bd 38a4 f73d
00000360: a4f6 7fbd 0061 9cbd 3d1d 423d 14f7 48bd
00000370: cc4c 9fbd 869c 1e3e 9f2f dabc 6b0a 5abc
00000380: bdba 88bd ecdb 063e 65f0 f63d 1d4b a93d
00000390: 87a4 91bd 98e1 e7bd f369 8ebd 39ec f93d
000003a0: 93a6 a33d 536f cc3d 94cf ad3d 54af 7d3c
000003b0: e265 2cbb d4dd 90bd 2ce2 bfbd 2fd0 c1bd
000003c0: b36e 313d 319a 8abd 784d d6bc 2fb9 0fbd
000003d0: 980c 4f3d 4dd0 46bd 7890 febc 6c9c 413d
000003e0: e29a b43a 1d59 b83d 7ab5 6ebd fcb3 86bd
000003f0: 5ef1 ad3c d030 78bd 6243 27be 5657 c1bd

lstm.weight_hh_l0 f4 [256, 64]
-0.021675928 0.058554307 0.094654776 -0.1336927 -0.09932739 -0.044599734 -0.11958604 -0.078190595
0.061674982 0.004181851 -0.040075783 -0.013580689 0.06673627 0.10423086 0.065363206 -0.14665298
-0.12566122 0.068472475 0.14670603 -0.04437665 0.11921655 0.049117897 0.07039419 0.10704004
0.086666934 -0.13422947 -0.048422545 0.09892054 0.027575063 -0.09499178 0.10959763 0.020602321
-0.07453501 0.05505388 -0.14712904 0.007207892 -0.119036146 0.120994285 -0.117693715 0.063838884
-0.05844733 0.03566634 -0.091992535 0.019312205 0.099089794 -0.15137659 -0.11365585 -0.014626062
-0.032060202 -0.01994317 0.0018402867 0.014687586 0.14256236 0.031021565 -0.104181334 -0.011782775
-0.10008611 -0.09236066 0.090890646 -0.030909795 -0.1560712 -0.014252994 0.0066536944 0.061444726
0.04062476 -0.16233452 -0.051961444 -0.027425382 0.10121026 -0.016755575 -0.10002648 -0.058176167
0.053992227 0.08140665 0.1515111 0.11096182 -0.052517824 0.12400471 0.087484315 0.059207555
-0.14191504 0.031541176 -0.020074865 -0.07496955 -0.08025077 0.071892045 0.020969054 0.11690762
0.08436804 0.0072272425 0.07711747 0.026218712 0.024238711 -0.03591543 0.08649158 0.04642043
0.08569039 -0.04653031 -0.11722137 0.0770578 -0.0044332705 -0.07447652 0.031096026 0.026309952
0.07001649 -0.007859839 -0.038828578 0.093236506 -0.037436977 -0.05465005 0.010948392 0.17590396
0.131407 0.064756066 0.12706941 -0.07796994 0.12437644 -0.09711021 0.06552875 0.16325623
0.08902871 -0.03888715 0.09389507 0.03130884 -0.11234544 0.01665667 -0.04088717 -0.010646562
0.072101235 -0.18030044 0.17301604 0.11480694 0.052222494 -0.22870415 0.12972564 -0.124742515
-0.03387563 0.037569616 0.13540211 -0.050159734 -0.093855806 -9.2529604e-05 -0.22275223 0.041524798
0.114600636 0.14214106 0.08109643 0.10401208 -0.0151129095 0.031504106 0.16352783 0.21169241
-0.018933622 0.0625769 -0.10318217 0.19036804 -0.20659631 -0.08762409 0.054392725 0.031962357
-0.114094384 0.021402312 0.040092256 0.14381744 -0.06533558 0.19190845 0.13233186 -0.08760246
-0.10529634 0.16252807 -0.10130623 0.030895634 -0.042746034 -0.0808763 0.05101466 -0.23679402
0.20861259 -0.08840039 -0.01545266 -0.011190042 0.13044696 0.0056431754 0.021879882 -0.040544137
-0.07028636 -0.093522206 0.11421502 0.160231 -0.011300786 -0.13793792 -0.042783402 -0.052382197
0.09738613 0.009189073 0.04500475 0.004521286 -0.00052214955 -0.15122704 0.09403885 0.10367673
1.0839125e-05 0.041890226 -0.06290143 -0.025486214 0.025394516 -0.18966001 -0.13009855 -0.052357905
-0.15223393 0.11285822 0.026546577 -0.15330154 0.12665512 0.12857012 0.06264431 0.029716773
0.056716647 -0.16517834 -0.081023306 -0.068570256 -0.013077357 -0.11489641 -0.029314552 0.099986844
0.0030172877 0.011141642 -0.021005996 0.13162997 -0.04153543 0.14717983 -0.11392553 0.013072369
0.0032010667 0.07776436 -0.19363399 -0.12497673 0.09957708 -0.18220383 0.143069 -0.04148348
0.18112627 0.08830534 -0.13413595 0.00531569 0.115720205 -0.12242175 0.001319205 -0.2423872
-0.102745704 -0.039926082 0.002818571 -0.058234587 0.024578422 -0.18438259 0.034196764 -0.029915214
00000000: b791 b1bc a4d6 6f3d 5dda c13d bde6 08be
00000010: 296c cbbd 36ae 36bd 87e9 f4bd 6422 a0bd
00000020: e89e 7c3d e907 893b 8126 24bd 8a81 5ebc
00000030: 07ad 883d fd76 d53d 25dd 853d 332c 16be
00000040: 56ad 00be 4c3b 8c3d 1b3a 163e 4ac4 35bd
00000050: ce27 f43d d92f 493d d42a 903d cf37 db3d
00000060: 6f7e b13d 7373 09be b856 46bd da96 ca3d
00000070: 19e5 e13c 0d8b c2bd b974 e03d 33c6 a83c
00000080: d0a5 98bd 2d80 613d ffa8 16be 2e30 ec3b
00000090: 39c9 f3bd dacb f73d 6709 f1bd f6bd 823d
000000a0: 7866 6fbd de16 123d 9566 bcbd a134 9e3c
000000b0: 97ef ca3d 7702 1bbe 66c4 e8bd 26a2 6fbc
000000c0: 8f51 03bd dc5f a3bc c635 f13a 33a4 703c
000000d0: defb 113e f020 fe3c 065d d5bd 8a0c 41bc
000000e0: f2f9 ccbd 9627 bdbd e024 ba3d 8a36 fdbc
000000f0: 21d1 1fbe 6485 69bc 3c07 da3b 77ad 7b3d
00000100: 2666 263d 053b 26be 86d5 54bd 32ab e0bc
00000110: 5347 cf3d fd42 89bc afda ccbd 224a 6ebd
00000120: f426 5d3d 88b8 a63d ba25 1b3e f33f e33d
00000130: ee1c 57bd 2ef6 fd3d fa2a b33d 9f83 723d
00000140: 2d52 11be 5231 013d 0b74 a4bc a389 99bd
00000150: 845a a4bd 233c 933d 4bc7 ab3c 436d ef3d
00000160: 27c9 ac3d 81d2 ec3b c4ef 9d3d a0c8 d63c
00000170: 4390 c63c 0f1c 13bd 7f22 b13d 5923 3e3d
00000180: 717e af3d 9196 3ebd c211 f0bd 7bd0 9d3d
00000190: f844 91bb 2587 98bd 18bd fe3c f887 d73c
000001a0: ce64 8f3d 8ec6 00bc b70a 1fbd c8f2 be3d
000001b0: 8457 19bd bbd8 5fbd e260 333c 2b20 343e
000001c0: 8e8f 063e d49e 843d 7c1e 023e b4ae 9fbd
000001d0: 13b9 fe3d b8e1 c6bd f033 863d a42c 273e
000001e0: af54 b63d 2248 1fbd 0f4c c03d b33d 003d
000001f0: 5e15 e6bd 9273 883c 4e79 27bd eb6e 2ebc
00000200: d0a9 933d aea0 38be 1e2b 313e e71f eb3d
00000210: 41e7 553d 6c31 6abe ccd6 043e 0179 ffbd
00000220: 2cc1 0abd 99e2 193d daa6 0a3e 4b74 4dbd
00000230: 7937 c0bd 740c c2b8 2919 64be e815 2a3d
00000240: bdb3 ea3d 6d8d 113e e315 a63d 4904 d53d
00000250: 239c 77bc 730a 013d d773 273e e5c5 583e
00000260: af1a 9bbc 5128 803d 2c51 d3bd d7ef 423e
00000270: fc8d 53be 4274 b3bd e8ca 5e3d f6ea 023d
00000280: 51aa e9bd e753 af3c c737 243d e144 133e
00000290: a9ce 85bd a683 443e 0182 073e eb68 b3bd
000002a0: 9ca5 d7bd c26d 263e a479 cfbd d718 fd3c
000002b0: 7716 2fbd 79a2 a5bd c0f4 503d 227a 72be
000002c0: 8a9e 553e 440b b5bd 272d 7dbc 7056 37bc
000002d0: e393 053e 63ea b83b 703d b33c 9c11 26bd
000002e0: 4cf2 8fbd 9288 bfbd 90e9 e93d 9813 243e
000002f0: ef26 39bc 993f 0dbe a63d 2fbd b78e 56bd
00000300: 6172 c73d c48d 163c e756 383d 4c27 943b
00000310: dde0 08ba 43db 1abe 7197 c03d 7754 d43d
00000320: b0d9 3537 1695 2b3d 77d2 80bd 77c8 d0bc
00000330: 2908 d03c 3c36 42be 8e38 05be 3e75 56bd
00000340: 36e3 1bbe 3622 e73d 3578 d93c 14fb 1cbe
00000350: e1b1 013e e3a7 033e a94b 803d 9770 f33c
00000360: b74f 683d 8324 29be 8cef a5bd 906e 8cbd
00000370: 6942 56bc cf4e ebbd 1225 f0bc e7c5 cc3d
00000380: b0bd 453b 6f8b 363c c414 acbc 02ca 063e
00000390: 0e21 2abd 4fb6 163e ca51 e9bd 7d2d 563c
000003a0: fdc8 513b ec42 9f3d fd47 46be cdf3 ffbd
000003b0: 11ef cb3d a493 3abe ae80 123e 95ea 29bd
000003c0: 2a79 393e 6ed9 b43d ef5a 09be 3d2f ae3b
000003d0: b7fe ec3d 41b8 fabd 2de9 ac3a 5a34 78be
000003e0: 576c d2bd 8889 23bd c6b7 383b 6487 6ebd
000003f0: b058 c93c cace 3cbe e811 0c3d c010 f5bc

lstm.bias_ih_l0 f4 [256]
-0.0129609825 -0.045472506 -0.02351928 -0.068773046 -0.092018716 0.09556315 0.060514204 0.13088784
0.11940596 0.02708315 0.08348132 0.010496719 0.11811002 -0.10333883 -0.029536936 0.076316275
0.09841466 0.073158056 0.12874559 0.119808346 -0.10341219 0.018917441 -0.0057097343 0.06373157
-0.08323981 0.039310616 0.052256253 0.08535593 -0.039533127 0.052667663 0.08342451 0.143474
-0.011301444 0.130339 -0.016287588 0.08148757 -0.006357368 0.04213999 -0.087941416 0.050489444
-0.050300937 -0.018914105 -0.016379895 -0.029760143 0.1220635 0.15859528 0.09166015 -0.06968042
0.0809827 0.15943523 0.0027497332 -0.07606167 0.08661249 0.11710234 0.07988597 -0.115178324
-0.077837184 0.072633475 -0.09462977 0.06252494 0.09596253 -0.0026157864 -0.13352934 -0.124173835
0.13279875 0.004083024 0.055159345 -0.034071956 -0.07266021 0.056746844 -0.08570471 0.07464776
0.007521675 0.11840233 -0.05385022 -0.0039164983 -0.08633163 0.049265176 -0.028703652 -0.030247178
-0.18048608 0.16897315 0.08627306 -0.06473585 -0.023608947 -0.033161607 -0.06984191 -0.14786324
-0.02405824 0.06672446 -0.10290053 0.14623407 -0.010795919 -0.061814833 -0.10759121 0.18003887
0.015166035 0.058495987 0.0055748005 0.14301378 -0.0718798 0.067257196 0.045801003 -0.04914816
-0.07946327 0.041530587 0.023763625 -0.08377794 -0.08221039 0.10828919 0.03097428 -0.07119652
-0.009198 0.022878109 0.07201604 0.07696243 0.08979457 -0.016258908 0.05650417 -0.1178753
0.041713707 -0.08084585 0.10550219 0.0676197 -0.004493629 -0.035919685 0.06437063 0.04161166
0.06473396 0.0035433199 -0.076606944 -0.09339886 -0.12772772 -0.07389507 -0.033579297 0.0069189547
0.10027945 0.05693509 0.023574984 0.08911049 0.1496692 0.060279544 0.001997798 0.074871965
-0.08320895 0.07999187 0.06408147 -0.15220867 -0.10569833 0.0074878093 0.08370138 0.075840384
-0.12928465 0.111597694 -0.0074002203 -0.0050997618 -0.030828837 0.050811253 0.103139125 0.024764186
-0.13917223 0.023032917 -0.14028493 -0.15777326 0.028009808 -0.0057032695 -0.12870103 -0.12013217
0.13683724 0.14082146 -0.12729089 -0.094254814 0.08071806 0.010577937 0.039599944 -0.014679098
0.035475887 -0.15429205 -0.13056344 0.06474032 0.08131516 0.05518317 -0.07276833 -0.07453442
-0.055292323 -0.087685384 -0.09720101 0.06798358 -0.086209126 -0.13777603 -0.007168622 0.06121239
0.02028231 -0.13611971 0.09610204 -0.019943772 0.08994629 -0.06303287 0.1404742 -0.003799528
0.12121326 0.09100377 0.11930581 0.04443754 -0.041453805 -0.015616193 0.103028595 -0.10056735
0.11274819 0.054023135 0.08519477 -0.07627495 -0.09049196 0.061133254 -0.027662585 -0.040062625
0.014651908 0.07489464 -0.09866983 0.0054968325 -0.041997157 -0.004064171 -0.05495048 0.15844263
0.09428226 0.08719118 -0.019644337 0.11203083 -0.05399586 -0.07390303 -0.07924252 -0.0045228912
-0.040086582 0.1347443 0.014854565 -0.025164274 -0.04649668 0.15363857 0.123142615 -0.07092348
0.11129236 0.028220851 -0.024965098 0.07320798 -0.08387981 -0.1321085 0.025999099 0.13257407
0.100198574 0.09579927 0.06202573 0.04114508 0.043274764 -0.034286473 0.130744 0.105793245
00000000: 4d5a 54bc 6141 3abd 81ab c0bc e2d8 8cbd
00000010: 4f74 bcbd 9db6 c33d bedd 773d 7607 063e
00000020: 1d8b f43d 7bdd dd3c 41f8 aa3d 6efa 2b3c
00000030: abe3 f13d 4fa3 d3bd 72f7 f1bc b54b 9c3d
00000040: a08d c93d e4d3 953d e2d5 033e 145e f53d
00000050: c5c9 d3bd c0f8 9a3c b918 bbbb b385 823d
00000060: a279 aabd 2b04 213d a70a 563d 17cf ae3d
00000070: 7ded 21bd 0cba 573d 78da aa3d d9ea 123e
00000080: b129 39bc 9677 053e 8c6d 85bc f5e2 a63d
00000090: 7851 d0bb fb9a 2c3d a11a b4bd 05ce 4e3d
000000a0: 5b08 4ebd c1f1 9abc 212f 86bc 8bcb f3bc
000000b0: 6efc f93d cd66 223e 51b8 bb3d 9cb4 8ebd
000000c0: 42da a53d fd42 233e de34 343b 39c6 9bbd
000000d0: e461 b13d 5ad3 ef3d 419b a33d 9de2 ebbd
000000e0: 1a69 9fbd dcc0 943d 41cd c1bd 130d 803d
000000f0: 0188 c43d 9d6d 2bbb eabb 08be da4e febd
00000100: 65fc 073e e3ca 853b c4ee 613d 098f 0bbd
00000110: e0ce 94bd 616f 683d f385 afbd ede0 983d
00000120: 6278 f63b ec7c f23d 0c92 5cbd f855 80bb
00000130: a3ce b0bd 48ca 493d ec23 ebbc eec8 f7bc
00000140: 58d1 38be 4c07 2d3e eeaf b03d 3b94 84bd
00000150: 8d67 c1bc 77d4 07bd 4609 8fbd 7669 17be
00000160: c915 c5bc d5a6 883d 83bd d2bd 62be 153e
00000170: 5ee1 30bc 8d31 7dbd c858 dcbd 1c5c 383e
00000180: f67a 783c 7d99 6f3d d1ac b63b 3472 123e
00000190: b735 93bd 24be 893d d599 3b3d 954f 49bd
000001a0: a4bd a2bd fa1b 2a3d efab c23c c593 abbd
000001b0: ec5d a8bd b9c6 dd3d c6bd fd3c 7bcf 91bd
000001c0: 35b3 16bc df6a bb3c 257d 933d 7a9e 9d3d
000001d0: 37e6 b73d 6731 85bc eb70 673d 9b68 f1bd
000001e0: fedb 2a3d 8292 a5bd 8811 d83d 337c 8a3d
000001f0: 4b3f 93bb 8520 13bd c0d4 833d fd70 2a3d
00000200: 3d93 843d 0b37 683b 1ae4 9cbd e747 bfbd
00000210: 0ecb 02be 4c56 97bd 728a 09bd 66b8 e23b
00000220: 505f cd3d c534 693d 5320 c13c 907f b63d
00000230: e242 193e afe7 763d 7ded 023b 7956 993d
00000240: 7469 aabd c7d2 a33d 253d 833d 97dc 1bbe
00000250: 5e78 d8bd 4c5c f53b a16b ab3d 3452 9b3d
00000260: 3263 04be 558d e43d 8c7d f2bb e71b a7bb
00000270: c28c fcbc 761f 503d 9b3a d33d 43de ca3c
00000280: 2a83 0ebe 87af bc3c daa6 0fbe 508f 21be
00000290: d374 e53c 7ee2 babb 34ca 03be db07 f6bd
000002a0: 101f 0c3e 8033 103e 8b58 02be ab08 c1bd
000002b0: 834f a53d 154f 2d3c 8d33 223d 9980 70bc
000002c0: 2a4f 113d bcfe 1dbe 6cb2 05be 9396 843d
000002d0: 9088 a63d bf07 623d 9007 95bd 81a5 98bd
000002e0: 347a 62bd 6594 b3bd 5311 c7bd fa3a 8b3d
000002f0: 698e b0bd 2915 0dbe c3e6 eabb d8b9 7a3d
00000300: 1627 a63c f762 0bbe 25d1 c43d 1f61 a3bc
00000310: c335 b83d 6117 81bd 78d8 0f3e 8101 79bb
00000320: a83e f83d 2f60 ba3d 9b56 f43d 2304 363d
00000330: 77cb 29bd 10db 7fbc a800 d33d 41f6 cdbd
00000340: 86e8 e63d 5d47 5d3d 987a ae3d 0a36 9cbd
00000350: d953 b9bd dd66 7a3d a59c e2bc b518 24bd
00000360: 8e0e 703c 5c62 993d 6813 cabd c61e b43b
00000370: 3605 2cbd bd2c 85bb c113 61bd c93e 223e
00000380: 0f17 c13d 4a91 b23d 29ed a0bc 6b70 e53d
00000390: c32a 5dbd 795a 97bd e749 a2bd c334 94bb
000003a0: d431 24bd 69fa 093e 9060 733c 4f25 cebc
000003b0: 4d73 3ebd 6e53 1d3e 3232 fc3d 5440 91bd
000003c0: 40ed e33d 6a2f e73c 9b83 ccbc 11ee 953d
000003d0: 2ec9 abbd 7347 07be 10fc d43c 7fc1 073e
000003e0: e934 cd3d 6832 c43d b10e 7e3d be87 283d
000003f0: e140 313d f96f 0cbd c1e1 053e 21aa d83d

lstm.bias_hh_l0 f4 [256]
-0.06829672 -0.17600468 -0.0075787506 -0.023856044 -0.04552069 0.12501863 0.014186064 0.12831439
0.004404045 0.05065588 0.0074504004 -0.006815333 0.035238557 -0.06463405 -0.07661119 0.08146703
0.10488401 0.058419418 0.04506662 -0.033117373 -0.13661551 0.097041376 0.022436714 -0.1006763
0.11965953 -0.04434747 -0.08990505 -0.06588828 -0.035387706 -0.06386649 0.03878947 -0.034665156
-0.042138036 0.17058319 -0.014163919 0.016917214 -0.038386416 0.004346832 -0.06732724 -0.058724973
-0.043355424 0.003149826 0.05970793 0.06664599 0.099670514 0.0021552716 -0.074044906 -0.020642895
0.10530296 0.046257272 0.1359531 0.09199851 0.07041143 -0.008992074 0.055604573 -0.07450514
0.026790285 0.032307178 -0.06108306 -0.07756988 -0.040101983 0.03654876 -0.038290717 0.03348192
-0.03270018 0.073692255 -0.06471323 0.10675299 0.08874971 0.10342257 -0.06124384 -0.05649015
-0.040467966 -0.040220596 -0.014684544 0.007690293 0.05281278 0.08941949 0.042739253 0.014059664
-0.10302785 0.026570342 0.07770684 -0.10042828 -0.017138569 -0.11279299 -0.03614666 -0.15218627
-0.1290719 0.050405633 -0.08407182 0.04979835 0.11817452 0.004009577 0.009987587 0.004223071
0.116704226 0.10681637 -0.05284587 -0.057687525 0.116882555 0.11479873 0.046916876 -0.005682965
0.03383768 0.09367518 0.053477515 -0.05307174 0.051502205 0.17668003 -0.023615938 -0.09379206
-0.06376612 0.02731005 0.060506035 0.0414359 0.095236205 0.007937517 0.07407854 -0.13682924
0.062132444 0.054623507 0.04011104 0.08090379 -0.10873761 0.12403396 -0.0050185258 -0.13273585
0.07423665 0.056894448 0.1015535 0.08656383 0.017008334 0.041454636 0.1464593 0.08627482
0.057112504 0.013369072 -0.123990946 0.07828863 -0.043062683 -0.037451472 -0.14058158 -0.1524478
-0.027881362 -0.11099697 0.054301783 -0.0029487577 -0.03383431 0.14206149 0.085702576 0.047156747
-0.09725199 -0.1078855 -0.04280416 0.10530873 -0.10682841 -0.11807298 0.050350495 0.058919158
0.03640418 0.055345543 -0.05766216 -0.08178123 -0.017919825 0.104536675 -0.11034205 -0.13187486
0.004200623 0.030159375 0.021256719 0.01594741 0.1256215 -0.008173652 0.09125419 -0.06266986
-0.113062814 -0.10415349 0.0917756 -0.06737646 -0.025917517 0.022546664 -0.11795108 0.023067521
-0.091272734 0.08393025 0.105652 0.07440807 0.059425533 0.052705422 0.005129385 0.0008448082
0.029622922 -0.075161286 0.043142345 -0.044154488 -0.1117451 0.024596889 -0.037025295 -0.027932366
0.06257136 -0.0057983454 0.1422361 -0.045371857 -0.083701655 0.0125266835 0.014976974 0.033155333
0.110133246 0.00013975051 -0.12161862 0.09055787 -0.042865746 0.12832512 -0.055373766 0.1017224
0.01515752 -0.05717124 -0.04461776 0.1321273 0.11150487 -0.11351863 -0.04948644 0.0054581286
0.057802595 -0.030390056 -0.065873116 0.0501636 0.018149342 -0.044202935 0.07169469 0.14404988
-0.0041873883 0.17930967 0.057245925 0.03842267 -0.004562251 0.15252404 0.096359685 -0.10493063
0.04314723 -0.043851938 -0.04130684 -0.039703198 0.014820544 -0.052352488 0.0063442113 0.13847186
0.026279232 -0.10381621 -0.06321147 -0.092512175 -0.030722553 0.112201154 0.06703057 -0.0349695
00000000: 27df 8bbd 923a 34be 2b57 f8bb c06d c3bc
00000010: e773 3abd e204 003e aa6c 683c d964 033e
00000020: cf4f 903b 8a7c 4f3d 7d22 f43b 2853 dfbb
00000030: 4e56 103d db5e 84bd 54e6 9cbd 30d8 a63d
00000040: 6ecd d63d 3349 6f3d c797 383d 15a6 07bd
00000050: f0e4 0bbe a1bd c63d 33cd b73c 602f cebd
00000060: 0e10 f53d b1a5 35bd 2420 b8bd 6ff0 86bd
00000070: b3f2 10bd 6fcc 82bd b5e1 1e3d 0dfd 0dbd
00000080: ef98 2cbd 5cad 2e3e c80f 68bc f895 8a3c
00000090: 133b 1dbd df6f 8e3b dde2 89bd 9989 70bd
000000a0: 7595 31bd 506d 4e3b 4d90 743d b17d 883d
000000b0: 0e20 cc3d 753f 0d3b dba4 97bd 4a1b a9bc
000000c0: 14a9 d73d 4478 3d3d 4a37 0b3e b769 bc3d
000000d0: de33 903d 7e53 13bc 9fc1 633d 2796 98bd
000000e0: 4d77 db3c 8854 043d 3b32 7abd f5dc 9ebd
000000f0: fa41 24bd 27b4 153d bad6 1cbd 5624 093d
00000100: a0f0 05bd f7eb 963d 5f88 84bd 50a1 da3d
00000110: 68c2 b53d 36cf d33d d2da 7abd 3762 67bd
00000120: bdc1 25bd 5abe 24bd 7197 70bc dafe fb3b
00000130: 3752 583d 9121 b73d 5b0f 2f3d 815a 663c
00000140: 4400 d3bd 0caa d93c c424 9f3d 58ad cdbd
00000150: 2f66 8cbc 0300 e7bd 850e 14bd b8d6 1bbe
00000160: 6d2b 04be 2376 4e3d d92d acbd 5bf9 4b3d
00000170: 7c05 f23d c562 833b faa2 233c b061 8a3b
00000180: a002 ef3d 8ac2 da3d e974 58bd c149 6cbd
00000190: 1f60 ef3d 991b eb3d e92b 403d 2a38 babb
000001a0: 6199 0a3d c6d8 bf3d 3d0b 5b3d c161 59bd
000001b0: faf3 523d 9ceb 343e 3676 c1bc 0d16 c0bd
000001c0: d097 82bd 53b9 df3c 2dd5 773d b1b8 293d
000001d0: 330b c33d 5c0c 023c 7db6 973d f71c 0cbe
000001e0: 977e 7e3d e6bc 5f3d 794b 243d e3b0 a53d
000001f0: d3b1 debd 8405 fe3d 7272 a4bb e8eb 07be
00000200: 6209 983d 270a 693d 48fb cf3d 6148 b13d
00000210: 1055 8b3c 56cc 293d 6df9 153e dab0 b03d
00000220: cdee 693d f409 5b3c f7ee fdbd ca55 a03d
00000230: 7f62 30bd b766 19bd 9ef4 0fbe 471b 1cbe
00000240: 7467 e4bc 6152 e3bd 8c6b 5e3d f23f 41bb
00000250: d895 0abd 9178 113e d584 af3d 6f27 413d
00000260: 0d2c c7bd 13f3 dcbd 6a53 2fbd 1aac d73d
00000270: dac8 dabd 3fd0 f1bd 523c 4e3d 3755 713d
00000280: 8d1c 153d 02b2 623d 282f 6cbd eb7c a7bd
00000290: 99cc 92bc 5317 d63d 03fb e1bd 340a 07be
000002a0: 61a5 893b cb10 f73c 9222 ae3c 25a4 823c
000002b0: eca2 003e c8ea 05bc 7ae3 ba3d 0e59 80bd
000002c0: 7a8d e7bd 6d4e d5bd d9f4 bb3d abfc 89bd
000002d0: f950 d4bc c8b3 b83c 5690 f1bd 19f8 bc3c
000002e0: 33ed babd 9fe3 ab3d 1360 d83d 4263 983d
000002f0: 3068 733d a4e1 573d 6614 a83b 1e76 5d3a
00000300: c5ab f23c 29ee 99bd 07b6 303d 56db 34bd
00000310: 9dda e4bd 6a7f c93c d6a7 17bd 6bd2 e4bc
00000320: 6a25 803d 0c00 bebb 57a6 113e d7d7 39bd
00000330: c66b abbd b83c 4d3c fb61 753c e3cd 073d
00000340: 8a8d e13d fe89 1239 2f13 f9bd 6876 b93d
00000350: fe93 2fbd a967 033e 9acf 62bd d553 d03d
00000360: 3f57 783c 642c 6abd 1dc1 36bd 614c 073e
00000370: aa5c e43d 757c e8bd 4bb2 4abd 1ada b23b
00000380: 6ac2 6c3d 91f4 f8bc 7ce8 86bd 5978 4d3d
00000390: eead 943c 230e 35bd aad4 923d d081 133e
000003a0: 5c36 89bb f49c 373e b47a 6a3d 1761 1d3d
000003b0: ef7e 95bb 432f 1c3e 3a58 c53d dfe5 d6bd
000003c0: 26bb 303d 179e 33bd 5c31 29bd d29f 22bd
000003d0: ded1 723c 906f 56bd 1ae3 cf3b 91cb 0d3e
000003e0: 8b47 d73c 989d d4bd 0475 81bd 0677 bdbd
000003f0: ddad fbbc b8c9 e53d 5347 893d 2e3c 0fbd

lstm.weight_ih_l1 f4 [256, 64]
0.09096153 -0.010479336 0.13850737 -0.050090138 -0.08406674 -0.07778771 0.0042261346 0.13696268
0.041564595 -0.08660995 0.061456602 0.10281477 -0.046234068 -0.0040304447 0.099115424 0.07158524
0.014548683 0.1486248 0.04747979 0.0083583575 -0.012656705 0.0013446187 0.007957718 0.12229043
0.045892324 -0.01286954 0.11917909 0.009394959 -0.055834968 0.05228813 0.050291017 0.11027259
-0.036741413 -0.07516365 0.14543258 0.0137311 0.014019893 0.14096104 0.0823149 0.07383998
0.04372929 0.13791892 0.14232647 0.124231294 0.07360954 0.10585782 -0.013262642 -0.040559452
-0.08494595 0.06268959 -0.05910407 0.12023953 0.015150125 -0.07080963 -0.07584359 -0.041828215
-0.053558443 -0.06453545 0.023000568 -0.06582199 0.097947866 -0.09845659 0.079691865 0.10720607
0.09149207 0.12191116 0.057756726 -0.16773087 -0.107600324 0.012081729 0.0617094 0.083721854
-0.024402743 -0.037249345 -0.012605049 0.08949035 0.1166208 -0.029420508 0.04991067 -0.09447764
-0.07177865 0.007439 0.15944007 -0.095146105 -0.074047565 0.05712498 0.025020607 -0.089003704
-0.1520628 -0.13977827 -0.082733296 0.03373128 -0.068864875 -0.019639658 -0.061355513 0.1320559
0.0920156 0.005606947 0.023033947 0.08700738 -0.059089825 0.045468796 -0.09076179 -0.08984533
0.045397393 0.0071122744 -0.13289407 0.10385513 -0.09287823 0.022044107 0.0453977 0.031647675
0.11021103 0.06308316 0.075110346 0.06355508 0.009303194 0.034386486 -0.080929786 -0.12431384
-0.034666907 -0.059506528 0.029695153 -0.008864882 -0.06412782 -0.010044574 -0.15650673 -0.053838145
-0.0318733 0.07233674 -0.030125793 -0.10413442 -0.0008518331 0.038865168 0.078874 0.16980886
0.032944903 0.029550858 -0.1243019 0.027544273 0.105580136 -0.0055958903 -0.046366926 -0.039073184
-0.036392715 -0.0196411 -0.1276659 -0.03442257 0.026282955 -0.027437242 -0.02865132 -0.078421
-0.044920616 0.09847031 0.020155922 0.12082913 -0.034475077 0.024379278 0.063574955 0.051547926
-0.12202925 0.073770635 0.040322624 -0.12832984 -0.13870846 0.016910106 -0.06077725 -0.1398716
0.055106137 -0.03317327 -0.055853225 0.13271932 0.09744588 0.0854311 0.10948421 -0.0889109
0.059765954 -0.009974843 0.0015331332 -0.06279662 0.049115628 0.049992435 -0.038242623 0.0023920103
-0.032993987 0.036654055 -0.0071858955 0.07617108 -0.12224593 -0.018125806 0.07905592 -0.029331513
-0.06204306 0.038035613 -0.040319227 -0.026463604 -0.084290124 -0.12276309 -0.099698745 0.03889705
0.024131855 -0.047751807 -0.15036646 0.032832023 0.09151513 -0.032649394 -0.003983927 0.061920978
0.15983263 0.12984814 0.03405539 0.056179766 -0.074255995 -0.100285135 -0.09163818 0.08629364
0.10110379 0.13986012 -0.021723095 -0.091550805 -0.097386755 0.052940927 0.037288494 0.16240372
0.026942411 -0.002456267 -0.12934726 -0.06936354 0.017618118 0.06076322 -0.05764009 -0.040683914
-0.0439186 0.06704447 -0.06389512 -0.02600496 0.064834684 -0.10808608 -0.041084033 -0.13443165
-0.010530797 0.01084175 -0.106678076 0.10323683 -0.06563951 0.052111298 0.03241687 -0.100270264
0.07440842 0.06032632 0.0063551366 0.047277175 0.09861591 0.051230453 -0.04038829 0.10598422
00000000: 0a4a ba3d 85b1 2bbc e0d4 0d3e 512b 4dbd
00000010: 2f2b acbd 2a4f 9fbd 637b 8a3b f23f 0c3e
00000020: a33f 2a3d 8f60 b1bd ebb9 7b3d 8d90 d23d
00000030: ef5f 3dbd d211 84bb 07fd ca3d 489b 923d
00000040: 995d 6e3c 1931 183e 2b7a 423d 7ef1 083c
00000050: 125e 4fbc eb3d b03a 1761 023c 6873 fa3d
00000060: 97f9 3b3d c3da 52bc 2b14 f43d 50ed 193c
00000070: 35b3 64bd 142c 563d f4fd 4d3d 98d6 e13d
00000080: 2a7e 16bd 66ef 99bd 47ec 143e 68f8 603c
00000090: b1b3 653c 1758 103e b794 a83d 6a39 973d
000000a0: 7c1d 333d 9e3a 0d3e 08be 113e fa6c fe3d
000000b0: 99c0 963d fccb d83d 8d4b 59bc ab21 26bd
000000c0: 24f8 adbd 6663 803d 1c17 72bd 2540 f63d
000000d0: 3b38 783c a404 91bd e253 9bbd 1054 2bbd
000000e0: 1960 5bbd 292b 84bd b06b bc3c aecd 86bd
000000f0: e498 c83d 9ca3 c9bd 7d35 a33d db8e db3d
00000100: 3260 bb3d 8fac f93d 5192 6c3d a4c1 2bbe
00000110: 8f5d dcbd 72f2 453c ffc2 7c3d 5d76 ab3d
00000120: 43e8 c7bc c592 18bd 6885 4ebc b746 b73d
00000130: e3d6 ee3d 4703 f1bc 216f 4c3d 7e7d c1bd
00000140: af00 93bd dbc2 f33b 4244 233e f6db c2bd
00000150: 40a6 97bd e2fb 693d 04f8 cc3c 9347 b6bd
00000160: 5ab6 1bbe 0922 0fbe 1370 a9bd d029 0a3d
00000170: 0709 8dbd 59e3 a0bc eb4f 7bbd a939 073e
00000180: ad72 bc3d 7bba b73b b0b1 bc3c ed30 b23d
00000190: 2c08 72bd 7d3d 3a3d 51e1 b9bd d400 b8bd
000001a0: 9ef2 393d 150e e93b 6215 08be 00b2 d43d
000001b0: f136 bebd d895 b43c f0f2 393d fea0 013d
000001c0: 52b6 e13d be31 813d 74d3 993d 2a29 823d
000001d0: 6c6c 183c d8d8 0c3d 84be a5bd 4198 febd
000001e0: e3fe 0dbd 1ebd 73bd 4043 f33c 033e 11bc
000001f0: 7255 83bd ff91 24bc 4d43 20be 6385 5cbd
00000200: 948d 02bd 4925 943d 5eca f6bc 6d44 d5bd
00000210: 8d4d 5fba 1531 1f3d b188 a13d 60e2 2d3e
00000220: 3cf1 063d a414 f23c ff91 febd 87a4 e13c
00000230: 663a d83d bb5d b7bb 3feb 3dbd 340b 20bd
00000240: 8710 15bd 5fe6 a0bc daba 02be aefe 0cbd
00000250: 5a4f d73c 11c4 e0bc 2cb6 eabc 309b a0bd
00000260: aefe 37bd cdaa c93d 081e a53c 4375 f73d
00000270: bd35 0dbd 0db7 c73c 9633 823d eb23 533d
00000280: 79ea f9bd 0f15 973d 5629 253d e668 03be
00000290: 9709 0ebe 1087 8a3c 91f1 78bd 803a 0fbe
000002a0: f9b6 613d b2e0 07bd 5ac6 64bd 93e7 073e
000002b0: b591 c73d 80f6 ae3d 4239 e03d eb16 b6bd
000002c0: 25cd 743d 866d 23bc 6af3 c83a 849b 80bd
000002d0: 782d 493d dec4 4c3d 4ca4 1cbd 46c3 1c3b
000002e0: b424 07bd 9022 163d a977 ebbb 95ff 9b3d
000002f0: 135c fabd 927c 94bc 12e8 a13d a448 f0bc
00000300: dd20 7ebd 3bcb 1b3d c625 25bd 33ca d8bc
00000310: 4da0 acbd 376b fbbd db2e ccbd 8352 1f3d
00000320: 2bb0 c53c 6697 43bd aaf9 19be df7a 063d
00000330: 496c bb3d 5fbb 05bd 9a8b 82bb daa0 7d3d
00000340: 2aab 233e e9f6 043e aa7d 0b3d c11c 663d
00000350: 8713 98bd 4b62 cdbd ccac bbbd b8ba b03d
00000360: 810f cf3d 7e37 0f3e a2f4 b1bc fd7e bbbd
00000370: b572 c7bd 96d8 583d d2bb 183d 294d 263e
00000380: 55b6 dc3c 52f9 20bb 9c73 04be 790e 8ebd
00000390: df53 903c dbe2 783d 0418 6cbd 2da4 26bd
000003a0: fde3 33bd 9c4e 893d 72db 82bd 5b08 d5bc
000003b0: 0cc8 843d 3c5c ddbd bb47 28bd 73a8 09be
000003c0: 5d89 2cbc 98a1 313c 097a dabd d56d d33d
000003d0: 026e 86bd a872 553d 8dc7 043d 7f5a cdbd
000003e0: 7163 983d bb18 773d c03e d03b b6a5 413d
000003f0: 23f7 c93d 06d7 513d 316e 25bd 410e d93d

lstm.weight_hh_l1 f4 [256, 64]
-0.10466367 0.018333819 -0.10342032 0.011725815 0.020098478 -0.0075036613 -0.11718569 0.066118725
0.043531664 0.117005244 -0.0024973075 -0.1290929 -0.06880547 -0.09776715 -0.0115869455 0.04338298
0.026119765 -0.017529262 -0.03586461 0.079160474 0.07163752 -0.11537769 -0.037411686 0.032776717
0.07584537 -0.024106791 0.13833603 0.07877453 0.011191754 -0.041291133 0.12587166 0.08528786
-0.10429192 0.062223814 -0.09759783 0.026831847 0.096965425 -0.0676351 -0.08284833 0.072240666
0.052448366 0.1002874 0.051112767 0.1302106 -0.089949764 -0.043224752 0.07851856 0.07170834
-0.024436295 0.14817007 0.069204934 -0.028434295 0.14387287 -0.046843395 0.09315409 0.0062220385
-0.110967636 0.014431098 -0.09807401 -0.08845837 -0.05337142 0.058894143 0.11258693 -0.10591628
-0.049775355 -0.07382285 0.13135582 0.074861124 0.093974076 -0.10413724 -0.051232915 -0.017868176
0.07776748 -0.032886036 -0.115361005 0.008935258 -0.05367079 0.055487778 0.08215283 -0.015142759
0.14790232 0.05488618 0.059606023 -0.037402697 -0.07505769 0.099324934 0.013149915 0.17749022
-0.067216516 0.011500308 0.09314363 0.1078351 0.017135343 -0.104635864 0.11217882 0.0587392
0.019445013 -0.07632696 0.11512285 0.015321166 0.05499464 0.0829474 0.0920906 0.058134165
-0.015407637 0.0029942957 -0.039617155 -0.08077983 -0.10091513 0.04897507 -0.009742482 -0.05161243
-0.01581773 0.068921976 0.073257565 -0.065299734 0.025583493 -0.0474302 -0.015404641 -0.050253812
-0.022309495 0.011692081 -0.1030328 0.088517375 -0.005463434 0.06855015 0.014462323 0.04410971
0.019025007 0.021072483 -0.15530297 0.120221555 0.038684703 0.015438911 0.13654213 -0.06509029
0.1421424 0.003197604 0.015919825 -0.13348594 0.07352426 0.013470826 -0.14627567 -0.060583167
-0.0292411 0.122309044 -0.07899892 0.017867707 0.047586102 -0.15090157 -0.063677035 -0.04900489
-0.12773457 -0.08947494 -0.04175924 -0.009131234 -0.12895542 -0.090022646 -0.084349945 -0.11981268
-0.07480882 -0.036818083 0.028475547 0.08683397 0.008818918 0.04254375 -0.11561643 0.052255396
-0.04585923 -0.039440423 0.13892466 0.0852463 -0.012241177 -0.013899082 0.025423141 -0.07582075
0.14034188 -0.060731713 0.050589383 0.12103823 0.055847377 0.122807175 -0.029685697 -0.008473842
0.017270783 -0.060372394 -0.14959334 -0.010960235 0.06569413 0.10894272 0.04442885 0.075174786
0.11343323 -0.10003479 -0.14867161 0.12125119 -0.038440403 0.025790092 -0.03647411 0.028294537
0.04591361 0.13036227 -0.040531605 0.0034490873 -0.0515836 0.05927411 -0.02253495 0.13385314
-0.12666042 -0.07107461 0.10527533 -0.080098435 -0.059652347 0.03329649 -0.051892303 -0.15411423
-0.032104425 0.05899025 0.037718065 0.008232918 -0.1365325 -0.058697846 0.09453226 -0.1215687
0.13094196 0.01779209 0.11301338 -0.0017567249 -0.094090775 0.07522773 -0.057229776 0.0021688975
-0.025487043 -0.100105144 0.08678029 -0.044928975 0.087513305 -0.012145462 -0.06710868 -0.07043797
-0.056954663 0.12857969 0.10424746 0.064152084 -0.084465675 0.0405685 -0.05472106 0.040864583
0.10136602 0.0867252 -0.00277144 -0.041515846 -0.059941668 -0.033749007 -0.064428784 0.047418583
00000000: e859 d6bd ce30 963c 08ce d3bd a21d 403c
00000010: 90a5 a43c 46e1 f5bb 0dff efbd 4169 873d
00000020: 424e 323d 72a0 ef3d dea9 23bb ee30 04be
00000030: e2e9 8cbd 253a c8bd 2cd7 3dbc 5ab2 313d
00000040: 1ef9 d53c 8799 8fbc c5e6 12bd e31e a23d
00000050: b1b6 923d 234b ecbd ff3c 19bd e140 063d
00000060: d154 9b3d 9b7b c5bc f6a7 0d3e 8a54 a13d
00000070: 9e5d 373c e420 29bd 80e4 003e 67ab ae3d
00000080: 0197 d5bd 66de 7e3d 5fe1 c7bd 76ce db3c
00000090: cf95 c63d 4584 8abd 63ac a9bd eaf2 933d
000000a0: 19d4 563d 7b63 cd3d 9f5b 513d ed55 053e
000000b0: 9537 b8bd 700c 31bd 57ce a03d d2db 923d
000000c0: a02e c8bc e5b9 173e 51bb 8d3d 0aef e8bc
000000d0: 6953 133e dcde 3fbd 92c7 be3d 3ee2 cb3b
000000e0: 0043 e3bd 6970 6c3c 07db c8bd a929 b5bd
000000f0: fd9b 5abd fc3a 713d fa93 e63d a2ea d8bd
00000100: 3ee1 4bbd 6f30 97bd 2482 063e ca50 993d
00000110: 7b75 c03d e845 d5bd 9bd9 51bd 4860 92bc
00000120: 8e44 9f3d 82b3 06bd 6442 ecbd 3065 123c
00000130: e7d5 5bbd 2747 633d be3f a83d 5619 78bc
00000140: b573 173e 55d0 603d 7225 743d 9233 19bd
00000150: d9b7 99bd df6a cb3d be72 573c ffbf 353e
00000160: d0a8 89bd ca6b 3c3c 16c2 be3d a6d8 dc3d
00000170: 6b5f 8c3c 544b d6bd 02be e53d 8498 703d
00000180: 264b 9f3c 4f51 9cbd 87c5 eb3d a105 7b3c
00000190: 0f42 613d 54e0 a93d ff99 bc3d 171e 6e3d
000001a0: 5070 7cbc f23b 443b 9945 22bd e56f a5bd
000001b0: 97ac cebd 159a 483d ee9e 1fbc 8e67 53bd
000001c0: 2f94 81bc f726 8d3d 1008 963d debb 85bd
000001d0: 7994 d13c 2b46 42bd bf63 7cbc f1d6 4dbd
000001e0: 67c2 b6bc 2490 3f3c dc02 d3bd 9948 b53d
000001f0: 9b06 b3bb 0564 8c3d 61f3 6c3c 62ac 343d
00000200: 55da 9b3c 33a0 ac3c be07 1fbe b836 f63d
00000210: da73 1e3d 7cf3 7c3c b3d1 0b3e 0f4e 85bd
00000220: c78d 113e e58e 513b 4b6a 823c 8ab0 08be
00000230: e393 963d bdb4 5c3c 4ac9 15be 0e26 78bd
00000240: 088b efbc 2a7d fa3d 30ca a1bd 4c5f 923c
00000250: a5e9 423d f185 1abe 1b69 82bd 5ab9 48bd
00000260: dacc 02be a33e b7bd bd0b 2bbd 2c9b 15bc
00000270: e40c 04be cb5d b8bd aabf acbd 5a60 f5bd
00000280: 5e35 99bd 8fce 16bd 8d45 e93c 02d6 b13d
00000290: 397d 103c 5b42 2e3d 4fc8 ecbd c109 563d
000002a0: e3d6 3bbd 488c 21bd 4442 0e3e 9d95 ae3d
000002b0: 388f 48bc fab8 63bc 3144 d03c e947 9bbd
000002c0: c8b5 0f3e d1c1 78bd d036 4f3d e4e2 f73d
000002d0: 38c0 643d 5482 fb3d 6b2f f3bc dfd5 0abc
000002e0: 757b 8d3c 0b49 77bd ff2e 19be 8f92 33bc
000002f0: a58a 863d 5c1d df3d 07fb 353d 3df5 993d
00000300: ae4f e83d 0adf ccbd 5f3d 18be 8b52 f83d
00000310: af73 1dbd be45 d33c e065 15bd f2c9 e73c
00000320: e90f 3c3d b07d 053e 7804 26bd 150a 623b
00000330: 5349 53bd 69c9 723d 379b b8bc cc10 093e
00000340: 45b3 01be 918f 91bd 989a d73d a60a a4bd
00000350: 0556 74bd e661 083d 068d 54bd 1fd0 1dbe
00000360: ee7f 03bd c39f 713d 427e 1a3d 5ce3 063c
00000370: 2dcf 0bbe 276d 70bd 219a c13d 03f9 f8bd
00000380: a615 063e b8c0 913c 8f73 e73d e841 e6ba
00000390: aab2 c0bd ff10 9a3d c569 6abd 1024 0e3b
000003a0: 34ca d0bc ed03 cdbd ddb9 b13d 7207 38bd
000003b0: 2d3a b33d c3fd 46bc 4770 89bd c841 90bd
000003c0: 4b49 69bd 65aa 033e b17f d53d 2b62 833d
000003d0: 57fc acbd 282b 263d 3123 60bd 9f61 273d
000003e0: fd98 cf3d fb9c b13d 0ca1 35bb 850c 2abd
000003f0: 6585 75bd 663c 0abd 3df3 83bd fd39 423d

lstm.bias_ih_l1 f4 [256]
0.02555717 0.10586558 0.11276341 -0.0736104 0.028055381 0.07705675 0.11009562 -0.06093834
-0.04718708 -0.07241043 0.04352133 -0.07747175 0.05109512 -0.06430513 0.035355505 0.022800952
-0.03756031 -0.115045406 0.06574728 0.12605989 0.052628763 0.077663116 -0.060916744 -0.004680191
0.011914651 0.13304946 0.06379784 -0.12628822 0.026350914 0.05741725 0.03355653 0.11123608
0.101759985 -0.007867231 0.08290599 0.021649437 -0.04607402 0.07387295 0.038184706 0.12430412
-0.04270418 -0.028268583 -0.098364845 -0.0049629966 0.09935226 0.010115061 0.06636604 0.07519332
-0.08215296 0.11179267 -0.058340374 0.105243266 0.00928841 -0.098154835 0.040334642 0.16006215
0.07657955 -0.003359242 0.03844271 0.08443914 -0.07958896 -0.08127024 -0.09543592 0.10054673
-0.08750039 -0.036712024 0.09745233 -0.061057612 2.9392031e-06 0.13143055 0.08020545 0.024160141
-0.053537354 -0.039450493 0.004725741 0.14020355 0.040037006 0.08153411 0.037601545 0.015508744
0.097203575 0.012986629 0.057320043 0.064633936 0.12424326 0.1161108 0.022632567 -0.018595543
0.056848902 0.10237109 0.14134347 -0.06695241 0.011418921 0.13025211 0.07585957 0.15903184
0.039745856 -0.06622544 0.040384807 -0.029858937 0.05472809 -0.0807214 -0.027568452 0.03569914
0.009091872 -0.097659014 0.03873393 -0.060443573 0.06827887 -0.004719453 0.10424653 -0.04883392
0.06701385 0.0899957 0.10638421 -0.12160174 0.0059348256 -0.091694474 -0.09927477 -0.046445485
0.12858935 -0.043384604 -0.031964548 0.024065712 0.07708396 0.038810004 -0.07979577 0.040942222
0.09580751 0.13425855 0.0248678 0.112842515 0.041815314 0.10699916 0.16182843 -0.12808883
0.11999114 -0.07029495 -0.10055269 -0.036757637 0.07260116 -0.099004 0.050114185 -0.05925547
-0.039562143 0.036608927 0.05066799 0.009438125 -0.14320937 0.060890324 -0.048654176 0.12741268
0.031219808 -0.051869836 0.02656929 -0.10834775 -0.0011528844 -0.03320931 -0.030572256 -0.15466468
0.084257364 0.067623064 0.11124415 -0.068319 -0.08074602 -0.06630474 -0.02607532 0.15187545
-0.033842728 -0.09062553 0.0021199388 0.10473958 0.11421252 -0.023884792 0.121101975 -0.08565373
-0.10896277 -0.110799536 -0.1118861 0.06320836 0.057872932 -0.0071484684 -0.012520468 -0.012467327
0.08662369 -0.03700275 -0.03213339 -0.074256055 0.028268227 -0.009184682 -0.033921532 -0.0026103747
-0.113208555 -0.055094905 -0.009188231 -0.032353204 -0.13019839 0.08586212 -0.06845315 -0.09782476
0.07272478 -0.0766056 0.11421178 0.029618809 -0.1468166 0.15586686 -0.09461824 -0.098883234
-0.13799277 0.043608163 -0.11431196 -0.0080910465 0.13107976 -0.04164462 0.14896671 -0.09020609
0.08345304 -0.034342956 -0.0858998 0.014612145 -0.05636495 -0.06512194 0.07801692 -0.06706494
-0.075576276 -0.057307452 0.084966354 0.06989904 -0.07302273 -0.12811811 -0.12612134 0.05559274
-0.038809117 -0.0060586263 0.0652982 -0.065375626 -0.0020978567 -0.040355813 0.007863598 0.115712896
-0.098107085 0.13073523 0.14148344 0.09083908 0.041889068 0.10706974 0.124641895 -0.061641276
-0.020477127 -0.0023601304 0.087248065 -0.02873675 0.071813315 0.10960406 0.11571634 0.046480604
00000000: 455d d13c 0ed0 d83d 81f0 e63d 0dc1 96bd
00000010: 66d4 e53c eecf 9d3d d079 e13d 7b9a 79bd
00000020: 3d47 41bd eb4b 94bd 6c43 323d 82a9 9ebd
00000030: 1e49 513d 68b2 83bd efd0 103d 10c9 ba3c
00000040: d7d8 19bd ed9c ebbd 83a6 863d d815 013e
00000050: 4291 573d d70d 9f3d d683 79bd 4a5c 99bb
00000060: ab35 433c 1e3e 083e 71a8 823d b351 01be
00000070: dfdd d73c 5a2e 6b3d 9272 093d becf e33d
00000080: 8a67 d03d 8fe5 00bc 9eca a93d 295a b13c
00000090: 1db8 3cbd b44a 973d 9167 1c3d 2993 fe3d
000000a0: 94ea 2ebd 8493 e7bc 8273 c9bd a2a0 a2bb
000000b0: 3379 cb3d a4b9 253c ebea 873d f5fe 993d
000000c0: d03f a8bd 8ef3 e43d 51f6 6ebd c889 d73d
000000d0: 6a2e 183c 6705 c9bd f035 253d 55e7 233e
000000e0: bdd5 9c3d bb26 5cbb 1a76 1d3d 6eee ac3d
000000f0: 89ff a2bd 0371 a6bd e873 c3bd 72eb cd3d
00000100: 6833 b3bd 595f 16bd 1695 c73d 8c17 7abd
00000110: 203f 4536 bb95 063e c142 a43d 7deb c53c
00000120: fc49 5bbd d796 21bd 64da 9a3b 8591 0f3e
00000130: d8fd 233d 5bfb a63d 1404 1a3d 6318 7e3c
00000140: ab12 c73d dfc5 543c 6cc8 6a3d cc5e 843d
00000150: 4073 fe3d 80cb ed3d ef67 b93c ae55 98bc
00000160: 65da 683d efa7 d13d 58bc 103e 581e 89bd
00000170: 6d16 3b3c cf60 053e 435c 9b3d 3ed9 223e
00000180: 8dcc 223d 34a1 87bd 8a6a 253d bb9a f4bc
00000190: 902a 603d 4351 a5bd 3cd7 e1bc 4339 123d
000001a0: 13f6 143c 7301 c8bd 78a7 1e3d ae93 77bd
000001b0: cbd5 8b3d a4a5 9abb 347f d53d 1406 48bd
000001c0: 8f3e 893d aa4f b83d f7df d93d 550a f9bd
000001d0: ed78 c23b 50ca bbbd 9250 cbbd 9f3d 3ebd
000001e0: edac 033e 0eb4 31bd 42ed 02bd 7525 c53c
000001f0: 32de 9d3d 3df7 1e3d f76b a3bd 08b3 273d
00000200: ba36 c43d 137b 093e 8eb7 cb3c fa19 e73d
00000210: 8946 2b3d 6022 db3d 5ab6 253e b829 03be
00000220: eabd f53d ccf6 8fbd 92ee cdbd 2d8f 16bd
00000230: ebaf 943d 9cc2 cabd 8844 4d3d ddb5 72bd
00000240: ea0b 22bd 3ef3 153d 3d89 4f3d 5ea2 1a3c
00000250: 7aa5 12be 2268 793d 9a49 47bd 7878 023e
00000260: afc0 ff3c 7775 54bd d7a7 d93c 6de5 ddbd
00000270: 621c 97ba 7c06 08bd ab72 fabc 6b60 1ebe
00000280: 208f ac3d f67d 8a3d f9d3 e33d d5ea 8bbd
00000290: 2b5e a5bd c8ca 87bd e99b d5bc 3d85 1b3e
000002a0: ac9e 0abd e199 b9bd acee 0a3b b481 d63d
000002b0: 41e8 e93d 0aaa c3bc 5004 f83d 396b afbd
000002c0: df27 dfbd deea e2bd 8a24 e5bd 6273 813d
000002d0: 2b0c 6d3d b33d eabb a622 4dbc c243 4cbc
000002e0: c367 b13d 3290 17bd 4d9e 03bd 8f13 98bd
000002f0: c592 e73c 597b 16bc 4ef1 0abd d212 2bbb
00000300: e3d9 e7bd 32ab 61bd 3c8a 16bc cb84 04bd
00000310: ba52 05be 7bd8 af3d 2a31 8cbd 5958 c8bd
00000320: bbf0 943d 66e3 9cbd dee7 e93d 25a3 f23c
00000330: 1757 16be 909b 1f3e 35c7 c1bd 4b83 cabd
00000340: fa4d 0dbe 799e 323d 641c eabd 4f90 04bc
00000350: c639 063e 8d93 2abd bb8a 183e f8bd b8bd
00000360: 6de9 aa3d 33ab 0cbd 3cec afbd c767 6f3c
00000370: efde 66bd a75e 85bd 56c7 9f3d 5859 89bd
00000380: bcc7 9abd 38bb 6abd d702 ae3d 3a27 8f3d
00000390: f18c 95bd 6531 03be f425 01be 37b5 633d
000003a0: 4ff6 1ebd 7187 c6bb 10bb 853d a8e3 85bd
000003b0: 327c 09bb 234c 25bd 52d6 003c e2fa ec3d
000003c0: 5eec c8bd 75df 053e 09e1 103e d709 ba3d
000003d0: df93 2b3d 6147 db3d 4044 ff3d 907b 7cbd
000003e0: a6bf a7bc 6bac 1abb 1daf b23d 5569 ebbc
000003f0: dc12 933d 1878 e03d b0fc ec3d 7262 3e3d
