lstm_def_model.pt (torch, 245045 bytes, 9 tensors)

lstm.weight_ih_l0 f4 [256, 38]
000000 6a cb 0b 3e b6 65 d8 3d 68 69 09 bd 94 5d cf 3d
       0.13651815 0.10566275 -0.03354779 0.101252705
000010 76 8b a4 3a 0b ac 8e 3d 2f 70 6d bc e5 41 0e 3e
       0.001255377 0.06966408 -0.014492079 0.13892324
000020 10 98 1b 3e c2 c6 e2 bd 97 02 d0 3d fc f3 d0 3d
       0.15194726 -0.11073066 0.10156744 0.10202786
000030 79 cd 21 3e 20 24 d2 3b 62 3c 87 3d e9 77 af 3c
       0.15801038 0.006412998 0.06603314 0.021419482
000040 08 63 d9 3d e6 85 8b 3c f8 5d 90 bd 17 3a 8a 3d
       0.10614592 0.017031621 -0.07049173 0.06749361
000050 84 82 86 bd cb 0b 70 3c ab 66 ad bd 24 9f ec 3d
       -0.06567863 0.014651249 -0.08466848 0.11553791
000060 23 e8 b4 bd 8c 09 6c bd 15 43 55 be 58 4a 08 be
       -0.08833339 -0.057626292 -0.20826371 -0.1330961
000070 b2 6e 23 3d 31 6d e8 bd 6b 78 c2 3d a6 be 9b bd
       0.03990049 -0.113489516 0.09495624 -0.07604723
000080 54 cf dd 3d 61 0b 6f 3d 1f 83 da bd a0 e1 79 3d
       0.1083056 0.05836046 -0.106695406 0.06100619
000090 75 c9 0a bc 58 a7 a2 3d 70 fe bf 3d 52 8e a3 bc
       -0.008470883 0.079420745 0.09374702 -0.019965325
0000a0 04 84 0b 3e cc 77 a5 bc 79 8a 88 3d ef 6a 23 3e
       0.13624579 -0.020198725 0.066670366 0.1595876
0000b0 f6 b7 d9 3d 9b 69 13 bc 71 9f ea 3d 85 ac 0a bd
       0.10630791 -0.008997346 0.11456192 -0.033855934
0000c0 0d 12 f5 3d 9f f8 80 bd f3 a2 80 bd 5a 46 69 bc
       0.119663335 -0.06297421 -0.0628108 -0.0142379645
0000d0 13 23 40 bd ae 81 4d 3e 2a 4d f3 3d 8b ed 76 3d
       -0.04690845 0.20069 0.11879952 0.060285132
0000e0 ce d5 68 3d 0b a8 66 bb 61 33 f3 3d fa c8 99 bd
       0.056844525 -0.0035195376 0.11875034 -0.07509036
0000f0 1e 41 c3 bc eb f3 a4 bd 2d 7e a0 ba e0 52 30 bd
       -0.023834761 -0.08054336 -0.0012244635 -0.043047786
000100 46 e8 d0 bd 0a cd 5d 3d a5 90 0a 3e f6 3f d5 bd
       -0.10200553 0.05415062 0.1353174 -0.1041259
000110 13 a9 63 bd 9f 14 77 bd 7a 6e fc 3d 92 3b 71 3d
       -0.055581164 -0.0603224 0.12325759 0.0588947
000120 a4 be 67 3e 59 50 39 bd 35 0b 86 bd e9 70 15 bd
       0.22631317 -0.04524264 -0.06545106 -0.036484633
000130 45 21 a1 3c d7 c7 13 3e 76 be 8d 3c bc 25 4e 3e
       0.019669184 0.14431702 0.017302733 0.20131582
000140 8c 7f 5f 3d b7 10 29 bc 07 3e 9f 3e b3 b1 f0 3d
       0.054564998 -0.010318927 0.3110201 0.117526434
000150 1f 5b 84 3e 42 fd 37 3c 9c c8 26 3d 5d 2b 95 3c
       0.2585077 0.011229815 0.04071866 0.018209154
000160 ff 54 f9 3d f1 f1 0c 3e 71 7d 3a 3e 17 37 94 3d
       0.12174415 0.13764168 0.18211915 0.0723707
000170 65 de e5 3d 42 57 43 3e 70 7a eb 3b e6 c4 15 bd
       0.11224059 0.19076255 0.0071862265 -0.03656473
000180 ec 83 63 3e d3 32 25 3d e1 03 8c bd 00 c5 db bd
       0.22218293 0.040331673 -0.06836677 -0.10730934
000190 53 23 db bd 88 cc ff 3c 05 97 2d bd 5a 58 77 bd
       -0.10700097 0.031225458 -0.04238035 -0.060386993
0001a0 fc d9 3b 3d bd 1d 19 3c c7 96 d2 bc d0 d9 98 bd
       0.045862183 0.009345469 -0.025706662 -0.074634194
0001b0 45 13 0e bd ed 2c 23 be 6c 2f 18 3e 0b a1 01 3e
       -0.034686346 -0.15935107 0.1486184 0.1265909
0001c0 ec 17 38 3e 1e 25 04 3c 3e bb 59 be 4d 16 09 be
       0.17977875 0.00806549 -0.21262833 -0.13387413
0001d0 d8 57 cb bc f5 00 f0 bd ea c1 0b bb f5 41 c3 bc
       -0.02482216 -0.117189325 -0.0021325299 -0.023835162
0001e0 cf 67 53 bd c4 0d 9f bb 21 dc 27 3d 60 ed d4 bd
       -0.05161267 -0.004853936 0.040981416 -0.10396838
0001f0 21 e3 26 be 6a f8 6e 3d b9 14 04 bd 61 3c a9 bd
       -0.1629758 0.058342375 -0.032246325 -0.082634695
000200 ce e8 c0 3d 60 80 c1 bb 2f 74 ce 3d 7b 0c 56 bd
       0.09419404 -0.005905196 0.10080754 -0.052257996
000210 07 02 7c bd 2a c9 bf 3d a6 c8 b4 bd e0 82 16 bd
       -0.06152537 0.09364541 -0.08827333 -0.036745906
000220 16 ee 0c be 0c 0a 3e bd 6e b6 24 bd c0 af df bc
       -0.13762698 -0.0463963 -0.04021304 -0.027305484
000230 12 2f 64 3d a9 00 60 bd 65 80 ab 3d 45 39 f0 bc
       0.055708952 -0.05468813 0.08374099 -0.029324183
000240 bc 0a 13 be 4d 5a e5 3d ca 13 89 3d 36 09 6e 3e
       -0.14359564 0.11198864 0.066932276 0.23245701
000250 4f e6 1c 3d b2 e3 43 be 62 aa 08 bd 7f 55 08 be
       0.038305577 -0.19129828 -0.033365615 -0.13313864
000260 2f 23 75 bc 43 c3 f9 bd 4d 26 0a 3e 76 1b 15 be
       -0.014962002 -0.12195446 0.13491173 -0.14561257
000270 8c 67 4f 3d 05 09 f6 3c 98 5d a8 ba ca d6 e5 bd
       0.05063586 0.030033598 -0.0012845276 -0.112226084
000280 6a 4e 28 3d 94 d3 69 3d 5a fe 15 3d e9 25 5b be
       0.041090406 0.057086542 0.03661952 -0.2140118
000290 68 72 62 3c ee 8b af bd 2b c6 1a be f1 db 86 3d
       0.013821222 -0.08571611 -0.15114658 0.06584919
0002a0 41 c5 1a 3c 4e 23 0e be 08 11 d1 bd 3e b2 8a bd
       0.009446443 -0.13880655 -0.102083266 -0.06772278
0002b0 a9 37 29 3d ca 34 da bd c6 aa 74 bd f5 db 11 be
       0.041312847 -0.106546 -0.059733175 -0.14244063
0002c0 ba 50 21 be 88 98 36 3d 4d f8 eb 3d 05 88 34 be
       -0.15753451 0.04457906 0.11521969 -0.17630012
0002d0 ca 3e 26 3d 7d e0 12 3e ef 2d 18 bd 0d 5f 45 bd
       0.040587224 0.14343448 -0.03715318 -0.04818635
0002e0 72 3f dc 3c 75 dd 88 3d 46 d2 11 3d 5a 15 c6 bd
       0.026885722 0.066828646 0.035600923 -0.09672041
0002f0 ed cb d0 bd d1 66 72 bd f7 e6 68 bd 22 40 f2 3b
       -0.10195146 -0.059180085 -0.05686089 0.007392899
000300 4d 2d f3 3d 8b e8 f4 3d 1d 0f d9 3d f0 ba 10 bd
       0.11873875 0.119584166 0.10598586 -0.035334527
000310 f7 05 c5 bb 9a bf ca bb 6c 66 fc 3d 92 c0 5d 3d
       -0.006012674 -0.0061873915 0.12324223 0.054138727
000320 18 25 a5 bd 5f d6 ce 3b 58 a7 47 3e 0f 1e f8 3d
       -0.08063716 0.006312176 0.1949743 0.12115108
000330 1b 46 9e 3d fb 5e ea bd 5c 17 b8 bd 63 f2 22 be
       0.07728215 -0.11443897 -0.089888304 -0.15912776
000340 88 37 85 3d 48 bc 18 3c 9e f7 25 3d 86 ec ad 3c
       0.06504732 0.0093222335 0.04051935 0.021230947
000350 8c 06 e8 bd e0 70 b3 bd 3c 82 1f bd 38 a4 f7 3d
       -0.11329374 -0.087617636 -0.03894256 0.12091869
000360 7b d4 ad bd 9e 53 f5 bd c0 df 02 3e bd 0e d8 bb
       -0.08487793 -0.11978839 0.12780666 -0.006593554
000370 6c 55 3a bd a4 9f e3 3d d5 87 ed bc c9 47 3f bc
       -0.04549162 0.111144334 -0.028995434 -0.01167483
000380 55 59 30 bd b9 32 0e 3e 8d 8f 2d 3e 03 18 e3 3d
       -0.043053944 0.13886537 0.16949292 0.11088564
000390 23 db c3 bd 5e 09 b6 bd 54 a9 c0 bd b6 44 ae 3d
       -0.095632814 -0.088885054 -0.09407297 0.08509199
0003a0 00 44 05 3e d2 66 2c 3e ab 75 a1 3d 39 8e b6 3d
       0.13014221 0.16836098 0.078837715 0.089138456
0003b0 62 f8 8a bc e8 8b d6 bd ac 66 fd bd 6f 39 e5 bd
       -0.016964141 -0.10475904 -0.12373099 -0.11192595
0003c0 0c 94 02 3d 90 3e 8d bd 87 38 70 bc 6e c2 0f bd
       0.03187947 -0.068966985 -0.014661915 -0.035097532
0003d0 c0 cf 0f ba 4f f1 ad bd f7 5d 37 bc 47 ef 8b 3d
       -0.0005485974 -0.084932916 -0.011191837 0.06832748
0003e0 8a d3 50 3b 04 15 fc 3d f5 37 ef bc d7 b9 1d bd
       0.0031864368 0.12308696 -0.029201487 -0.03850731
0003f0 f7 ea 13 3d d0 30 78 bd 51 02 5d be 51 48 31 be
       0.03611275 -0.060593426 -0.21582915 -0.17312743

lstm.weight_hh_l0 f4 [256, 64]
000000 59 f5 9f 3b d9 19 d0 3d 0b 97 aa 3d ea 59 00 be
       0.0048815426 0.1016118 0.083295904 -0.125343
000010 dc 76 e4 bd 2d d7 26 bd 4d a4 d5 bd 45 d7 d7 bc
       -0.11155483 -0.04073255 -0.104317285 -0.026347766
000020 55 af b3 3d 14 e8 be 3c 64 76 37 bd c7 81 18 3b
       0.08773676 0.023304023 -0.04479064 0.0023270713
000030 2f 46 bb 3d 0e 7c b6 3d 34 18 57 3d 1e 68 fd bd
       0.09144246 0.0891038 0.052513316 -0.123733744
000040 b2 4f de bc df 6a c8 3c 7e 00 bb 3c ea 99 80 bc
       -0.027137611 0.024465023 0.022827383 -0.015698392
000050 92 e3 03 3e 39 28 30 3d a9 a0 9f 3c 7e 27 89 3d
       0.1287978 0.04300711 0.019485788 0.06696986
000060 f6 d4 83 3d 1e cc 1e be 48 77 86 bd eb 0f a0 3d
       0.064371035 -0.15507552 -0.0656572 0.07815536
000070 9a bc b9 3d ca 19 92 bd 57 a6 f0 3d 0c f0 62 3b
       0.09069176 -0.07133825 0.11750477 0.0034627942
000080 7a 77 a6 bd da b7 e9 3c 2b 9e 49 be 2e cb b4 bc
       -0.08128257 0.02853005 -0.19689243 -0.02206954
000090 48 cf f4 bd 09 8e 33 3e 86 c5 1a be 47 ed 55 3d
       -0.11953598 0.17534651 -0.15114412 0.05222824
0000a0 bf 88 87 bd 12 34 82 3c cb 20 01 be fc 2e 56 bc
       -0.06617879 0.01589397 -0.12610166 -0.013072725
0000b0 7a 84 bf 3d a7 4c 1c be a2 ee ca bd df 08 db bc
       0.0935144 -0.15263616 -0.09908797 -0.026737629
0000c0 60 e8 3c bd 68 3c 10 bd 51 69 46 3b 4f 7b b9 3b
       -0.046120048 -0.035213858 0.0030275176 0.0056604515
0000d0 b8 9d ec 3d da bb fa 3b ec e7 d6 bd 40 c9 86 3d
       0.1155352 0.007651788 -0.10493454 0.06581354
0000e0 35 22 aa bd 65 ac c0 bd cf d6 01 3e 19 05 ef bc
       -0.08307306 -0.09407882 0.12679599 -0.029177235
0000f0 58 63 05 be 76 25 43 3d a2 e6 e6 3b 8d 33 e8 3d
       -0.13026178 0.047643147 0.0070465365 0.113379575
000100 7f 77 ad 3d eb c3 1a be ba 5a 99 bc d7 c8 41 be
       0.08470058 -0.151138 -0.01872002 -0.1892427
000110 af a6 28 3e 68 12 18 be a2 33 93 bc d3 59 15 bd
       0.16469835 -0.14850771 -0.017968956 -0.036462616
000120 96 4e 85 3d c3 f6 c2 bd 2e 7f b7 3d 62 d9 bb bb
       0.0650913 -0.09519722 0.089598045 -0.005732701
000130 a3 71 ff 3d af 5b c8 3d 74 4a 4a 3b 37 c2 12 3d
       0.12472846 0.09783112 0.0030867131 0.03582975
000140 cb 95 53 bd f7 63 de bc cd ae bc 3d 44 fe 0e be
       -0.051656526 -0.027147276 0.09213028 -0.13964182
000150 79 70 c8 bd fe 04 cb 3d 2b bc 5c 3d 70 f8 33 3e
       -0.097870775 0.099130616 0.05389039 0.1757524
000160 35 52 ee 3d 8c 04 17 bd bf 54 b9 3d a6 50 be 3d
       0.116367735 -0.03686957 0.09049367 0.09292726
000170 aa 93 04 be 13 59 e8 bd a3 47 fe 3d a8 7d 38 3d
       -0.12946954 -0.113451146 0.12416007 0.04504171
000180 3f 05 48 3e ad 88 ad bd a6 5a 9f bd 7a 18 07 be
       0.19533251 -0.084733345 -0.07780962 -0.13192931
000190 6f 7e c7 3b 5b c0 0a bc fc 8c bc 3d 37 a9 88 bd
       0.00608807 -0.008468713 0.09206578 -0.066729
0001a0 a1 af 03 3e aa 88 fe 3c 3b e2 47 bd 32 ae 11 3e
       0.12859966 0.031071026 -0.048799735 0.14226606
0001b0 69 be 04 3b f3 b1 a1 bd 0b cc 3e 3c 3d 8b 88 3d
       0.0020255095 -0.07895269 0.011645327 0.066671826
0001c0 38 a2 16 3d cc da e9 3c f3 87 56 3e 22 64 d8 bd
       0.036775798 0.028546713 0.20950298 -0.10565974
0001d0 ec 48 a1 3d d8 2b 85 bd 97 7b 8b ba c2 54 b8 3d
       0.07875237 -0.06502503 -0.0010641691 0.09000541
0001e0 9c 39 a8 3d 22 26 c3 bd 5f c7 bb 3d f2 f8 e9 3d
       0.08214113 -0.09528758 0.091688864 0.11424436
0001f0 54 39 f3 bd 9d e0 63 bd 50 6c 0f be 9b eb 4c 3d
       -0.11876169 -0.05563413 -0.14006162 0.05002938
000200 20 ac cc bc 13 13 0e be 8a 69 36 bc ed c9 45 3e
       -0.02498442 -0.13874464 -0.011133561 0.1931531
000210 d7 db 8f bd e8 01 64 be 01 c3 fc 3d 84 6d 1d be
       -0.07024353 -0.22266352 0.123418815 -0.15373808
000220 da ca 6c bd 50 12 a1 bc 34 5d 9b 3d ec 9e 4f 3d
       -0.05781064 -0.019662052 0.075861365 0.05068867
000230 df 61 84 bc 4e dd cf bc 8e 79 d1 bd 25 76 1f 3b
       -0.01615995 -0.025374081 -0.10228263 0.0024331894
000240 b4 b7 4a 3e 8f f5 af 3d 2c 35 ca 3d a0 2a 16 bc
       0.1979664 0.085917585 0.09873423 -0.009165436
000250 a0 f3 2f be 33 8e ef 3d b9 ae 84 3e 8a 78 0f 3e
       -0.1718278 0.11697044 0.25914553 0.14010826
000260 0a 9b d5 bd 87 8a cb 3d 8b 8b 0e be 4f 39 fe 3c
       -0.10429962 0.09938531 -0.13920419 0.031033186
000270 ab a5 ca bd 52 3c 54 bd f2 04 81 3d 28 40 e7 bc
       -0.0989488 -0.05181534 0.06299771 -0.028228834
000280 a4 8c 9b be 82 65 3f 3a 71 e8 8b 3c 98 03 a2 3d
       -0.30380738 0.00073011976 0.01707861 0.07910842
000290 14 4d 72 bd 13 d4 45 3e c8 cc 5d 3d 0a bf 37 be
       -0.05915554 0.19319181 0.054150373 -0.1794397
0002a0 9f 81 85 bc e7 91 3d bb d4 b6 d4 bd 64 5f 1d 3c
       -0.01629716 -0.0028926076 -0.10386434 0.009605262
0002b0 56 04 6e 3d da f1 90 3c 5e 5d bf 3d 23 63 0c be
       0.058109604 0.017693449 0.0934398 -0.13709693
0002c0 b7 c0 1b 3e 66 b8 78 be f2 a5 07 bd ba 42 55 bd
       0.15210234 -0.24289092 -0.033117242 -0.05206559
0002d0 8e 3b 05 bb 7a 01 d0 ba fb 70 a0 3c 0c dd 71 bd
       -0.0020329687 -0.0015869581 0.019585123 -0.059048697
0002e0 8e 18 8b bd 93 03 77 bc 6d c7 15 3e 62 1a bb 3d
       -0.06791793 -0.015076536 0.14626856 0.091358915
0002f0 ce 6d 0c 3c 17 f0 a9 bd 01 b6 cc 3d 5b f9 13 be
       0.008571101 -0.08297747 0.09995652 -0.1445059
000300 20 d6 45 3d 9f a3 c2 3d 06 02 4d 3b 79 90 f7 3c
       0.04829991 0.095038645 0.0031281724 0.030220257
000310 62 84 20 bd 51 89 a7 bd c4 28 ab 3d 25 6e 1f 3e
       -0.03918875 -0.08180488 0.08357385 0.1556936
000320 7d 37 ff 3d f4 82 d2 3c 25 2a 5c be 00 b7 d0 bc
       0.124617554 0.025697209 -0.21500452 -0.025477886
000330 80 b2 e6 3d 57 1a 11 be 4e a7 05 be 7d f3 60 3d
       0.11264515 -0.14170204 -0.13052103 0.05491971
000340 26 3c 5b be 2b 31 e8 3d 4f 0e 8d bc 0a 66 96 3a
       -0.21409664 0.11337503 -0.017218737 0.0011474502
000350 b2 31 49 3e be 3b b3 bc 69 c8 3f 3d 40 99 bc bd
       0.19647864 -0.021879073 0.046821985 -0.092089176
000360 e8 ba e9 3b 1b a5 58 be 56 f0 84 bd 68 66 dd bb
       0.0071328767 -0.21156733 -0.06491153 -0.0067565925
000370 56 29 85 3e 98 44 10 be 21 5f df bb 16 35 0a 3e
       0.260081 -0.14088666 -0.00681676 0.13496813
000380 63 d3 8d bc 9f e0 70 3e e9 b9 60 bb 3f c7 61 3c
       -0.017312711 0.23523186 -0.0034290499 0.013780414
000390 ba 90 a9 bd 36 9c 2b 3d ec 22 28 be 27 d7 16 3e
       -0.082795575 0.04189702 -0.16419572 0.14730512
0003a0 1c 77 ac bd 8f 2f 74 3d 1a 2b 0f be 6d e4 18 be
       -0.08421156 0.059615668 -0.13981286 -0.14930888
0003b0 07 1d c3 3d 29 f8 1a be fe 93 d3 3d 3d 81 87 bc
       0.09527021 -0.15133728 0.10330962 -0.016541118
0003c0 44 4c 79 3c ae f2 6f 3d 5a 93 27 be f9 3d 82 3d
       0.015215937 0.058581047 -0.16364804 0.063594766
0003d0 df 9b 07 be e0 f1 6f bc cf 54 07 3b 15 a3 05 be
       -0.13243054 -0.01464507 0.0020649915 -0.13050492
0003e0 86 0d a6 bd e6 28 98 bd 04 f6 16 bd ad ca 9b bd
       -0.08108048 -0.07429676 -0.036855713 -0.07607017
0003f0 b9 81 07 3c ba 25 04 be b4 8c 09 bd 6f 8e d4 3d
       0.008270674 -0.12905017 -0.03358145 0.103787296

lstm.bias_ih_l0 f4 [256]
000000 9e 95 9f bc ea a1 2d 3c f0 82 15 3d 53 89 7b bd
       -0.019480523 0.010597685 0.036501825 -0.06141026
000010 6c f9 58 bd 80 cc d9 3d 2f dd 40 3d 65 ce 1e 3e
       -0.052972242 0.106347084 0.047085937 0.15508421
000020 23 21 0e 3e e8 df 2b 3d 64 07 eb 3d f8 4c 1b 3d
       0.13879828 0.04196158 0.11476019 0.0379152
000030 c3 a6 de 3d 5d ea de bd 4c 70 a6 39 ae f8 a9 3d
       0.10871651 -0.10884545 0.00031745655 0.08299385
000040 cc 41 19 3e 43 28 08 3e 86 d2 29 3e 1e a1 f0 3d
       0.14966506 0.13296609 0.16584215 0.11749481
000050 d9 af cb bd e1 a2 ec 3c 69 8b 33 3d 6e 79 f6 3d
       -0.0994565 0.02888626 0.043834124 0.120348796
000060 14 a3 b0 bd 4c cd 9c 3d df d1 89 3d 61 28 b4 3d
       -0.08624855 0.07656345 0.06729483 0.08796764
000070 75 6f 45 bc 0c b5 9a 3d 7c 6b 8c 3d 8a 55 ee 3d
       -0.012050499 0.07554063 0.068564385 0.11637409
000080 6c c3 03 bd 98 51 2b 3e 1a 1c a4 3b ac e9 0c 3e
       -0.03216879 0.16730344 0.005008233 0.13761014
000090 51 5c 1f 3d 3f 5c 4d 3d e5 29 c8 bc 4e a1 85 3d
       0.0389064 0.0501368 -0.02443404 0.06524907
0000a0 ba 53 a7 bd 08 df 02 bd 22 08 bf bc fa 2a fc bb
       -0.081702664 -0.03195098 -0.023319308 -0.007695553
0000b0 3b f9 0b 3e e6 c7 1a 3e 01 a1 f3 3d 80 ec 65 bd
       0.13669293 0.15115318 0.118959434 -0.056133747
0000c0 05 6e 15 3e fe 64 0f 3e e1 f3 f7 bb a4 b0 57 bd
       0.1459275 0.14003369 -0.0075669144 -0.052658692
0000d0 9c ba 8e 3d 6f 02 05 3e be 56 bd 3d be 7c c1 bd
       0.06969187 0.1298921 0.092450604 -0.09447621
0000e0 c2 60 42 bd bd de 96 3d b0 48 ae bc 4a 58 91 3d
       -0.047455557 0.07366703 -0.021274894 0.07096918
0000f0 10 94 a7 3d be c3 0a bd 98 c6 ca bd 43 7c a5 bd
       0.081825376 -0.03387808 -0.0990116 -0.08080342
000100 23 fd f0 3d a2 4b 8b 3d 8e 6c 84 3d 45 d1 98 bd
       0.11767032 0.06801535 0.06466018 -0.0746179
000110 84 82 76 bb cf 4b 96 3d ce b9 81 bd c3 a9 b6 3d
       -0.0037614414 0.07338678 -0.063342676 0.08919098
000120 73 43 1f ba 2a d3 21 3e 24 b0 24 bd 16 48 91 3c
       -0.00060754194 0.15803209 -0.040207043 0.017734569
000130 b3 72 a6 bd bd 5b 72 3d 5c 25 cf bc 8b 91 57 3d
       -0.08127346 0.05916952 -0.025286369 0.052629035
000140 18 06 58 bd c5 94 20 3e 80 0f 13 3e b4 bc a4 bd
       -0.052740186 0.15681751 0.14361382 -0.08043805
000150 1e f6 d9 bc 34 24 d2 bc 1e 0c 8e bc a0 d3 98 bd
       -0.026606616 -0.025652029 -0.017339762 -0.07462239
000160 af 1d 84 3c c6 91 e9 3d ed b3 23 bd 9a 2c 24 3e
       0.016127435 0.11404757 -0.039966512 0.16032639
000170 64 95 7a bc e6 8f 04 bd 44 1a 52 bd ed 9e 1f 3e
       -0.015294407 -0.032363795 -0.05129458 0.15587969
000180 3e dc 47 bc 39 a2 15 3e 25 f1 a5 3d 37 5d 3d 3e
       -0.012198506 0.14612664 0.08102635 0.1849259
000190 54 69 29 bc 0a ee 91 3d 78 6f da 3d 9e 3d 0b bd
       -0.010340054 0.071254805 0.10665792 -0.03399431
0001a0 ab f3 c9 bd 66 b4 41 3d 13 83 cc 3c 9f 43 a1 bc
       -0.09860929 0.047291182 0.024964845 -0.019685565
0001b0 c2 b6 72 bd d3 6b ea 3d cd 36 ef 3d 98 df 54 bd
       -0.059256323 0.11446347 0.11680374 -0.051971048
0001c0 f5 ee 19 bd 3c ff d7 3c 9f 1b d1 3d ad f4 59 3d
       -0.037581403 0.026366822 0.102103464 0.053211857
0001d0 3b 8b e4 3d a9 7f 83 bb 11 a6 b5 3d 5e b2 75 bd
       0.111593686 -0.004013021 0.08869565 -0.059984557
0001e0 61 83 68 3d 0c f9 af bd 70 c4 0b 3e 2b 0a 6a 3d
       0.056765918 -0.08592424 0.13649154 0.057138603
0001f0 78 ee d4 bb e3 d8 9c bc 8b 8b ec 3c 37 c3 8c 3d
       -0.0064981543 -0.019146388 0.028875133 0.06873172
000200 3e b1 4d 3d fb 47 6e 3c 05 e8 ab bd ac d6 00 be
       0.05021786 0.014543529 -0.083938636 -0.12581891
000210 89 cc 25 be ca e3 4f bd d2 2d 1f bd 7d d3 2f 3b
       -0.16191305 -0.050754346 -0.038862057 0.0026828938
000220 51 47 bc 3d 6a f3 6f 3d 8a a0 a5 3c b0 42 97 3d
       0.0919329 0.058581747 0.020218153 0.073857665
000230 6d 53 0e 3e 22 e3 79 3d 89 56 3f 3c 74 47 94 3d
       0.13899012 0.061007626 0.011678346 0.07240191
000240 dd 71 d9 bd 49 c6 74 3d e5 5f 9e 3d 71 99 0d be
       -0.10617421 0.059759412 0.07733134 -0.13828065
000250 9b f1 ef bd ba 8a 7a 3c 11 4d d4 3d 5e 15 f0 3d
       -0.117160045 0.015291864 0.10366262 0.117228255
000260 48 4e c4 bd d1 61 b2 3d c8 de a8 3c 59 68 0b bc
       -0.095852435 0.08710063 0.020614043 -0.008508765
000270 7b 32 bf bc 06 ab 87 3d 14 51 6d 3d 2a bd da 3c
       -0.0233395 0.06624417 0.05793865 0.026701529
000280 6c 20 08 be 8d 76 89 3c 94 a3 08 be f4 19 0f be
       -0.13293618 0.016780162 -0.1334365 -0.13974744
000290 8c a5 88 3c 11 f5 59 bc 9b 05 c6 bd cf dd ef bd
       0.016680501 -0.013303057 -0.09669038 -0.117122285
0002a0 21 be 0c 3e 11 a2 11 3e b5 b0 fa bd 85 93 c6 bd
       0.13744403 0.1422198 -0.122407354 -0.09696106
0002b0 b6 82 65 3d 40 99 2d 39 21 df ae 3c 2c 4d 92 bc
       0.05603286 0.00016555656 0.02134663 -0.017859064
0002c0 c3 ab 40 3d 3b 41 15 be 05 a8 0c be 69 5a 95 3d
       0.047038805 -0.14575665 -0.1373597 0.07292635
0002d0 0a 31 47 3d 33 3f 44 3d 99 f7 87 bd 97 2c 91 bd
       0.04863075 0.047911834 -0.066390224 -0.07088583
0002e0 5e fa 7c bd 3a 47 91 bd 97 de c6 bd 80 60 9b 3d
       -0.061762206 -0.070936635 -0.097104244 0.07586765
0002f0 ed f9 af bd b1 ff 07 be d8 2e 10 bb 20 36 ae 3d
       -0.085925914 -0.13281132 -0.0022000577 0.08506417
000300 2e 7a d1 3c d0 cc ba bd f3 b6 eb 3d a0 bc 57 bb
       0.025570955 -0.09121096 0.11509504 -0.0032918826
000310 bf b2 d6 3d 93 60 29 bd 06 e9 1c 3e ea 0d 0b bb
       0.10483312 -0.041351866 0.15323266 -0.002121801
000320 aa 8f 07 3e 90 b0 c8 3d f1 db 05 3e 9e 29 ba 3d
       0.13238397 0.097993016 0.13072182 0.09089969
000330 98 cc 26 bd 75 8b 78 3c b2 38 0c 3e 28 c9 1c bd
       -0.04072246 0.015169968 0.13693503 -0.038277775
000340 b8 9d d9 3d c8 f8 18 3d fb 95 ff 3d 5c df 89 bd
       0.106257856 0.03734663 0.124797784 -0.067320555
000350 92 54 bc bd 31 55 a3 3d f6 43 e9 3c 08 7e 00 3c
       -0.09195818 0.07975233 0.02847479 0.007842548
000360 3b 05 21 3d 39 6d fc 3d d4 27 9f bd 51 32 c2 bb
       0.03931163 0.1232552 -0.077712685 -0.0059264083
000370 52 93 94 bc 45 a8 33 3c 8f 70 b0 bd 52 90 0c 3e
       -0.018136654 0.010965412 -0.08615219 0.13726929
000380 62 65 9e 3d af b3 0a 3e 32 d0 d1 39 58 30 0d 3e
       0.07734181 0.13545106 0.00040018704 0.13787973
000390 36 70 fa 3b e5 36 8a bd 40 fa 71 bd a3 8f 34 bc
       0.007642771 -0.067487516 -0.059076548 -0.011020574
0003a0 7e f6 b6 bd 11 df 00 3e 67 ac 54 3c 5e b4 14 39
       -0.089337334 0.12585093 0.012980557 0.00014181572
0003b0 f3 27 79 bd 76 c0 56 3e 03 a0 54 3e 43 06 35 bd
       -0.060829114 0.20971856 0.20764165 -0.044195425
0003c0 da 75 14 3e bc 05 7a 3c de dd 1e bd fe 67 9c 3d
       0.14498082 0.015260156 -0.038785808 0.076370224
0003d0 6a e3 a6 bd ab 41 d1 bd ce b5 20 3d 42 58 fc 3d
       -0.081488445 -0.10217603 0.039235882 0.12321521
0003e0 a4 ab 00 3e 03 b9 f0 3d 74 0d 0e 3e 07 e2 17 3d
       0.12565476 0.11754038 0.1387232 0.03708079
0003f0 c8 39 b4 3c 36 3a 0b bd f4 98 db 3d 88 ff 1c 3e
       0.022000208 -0.03399106 0.10722533 0.15331852

lstm.bias_hh_l0 f4 [256]
000000 50 39 99 bd 31 a0 f5 bd c3 cd 56 3d fd 1c 87 bc
       -0.074816346 -0.11993445 0.052442323 -0.016493315
000010 a4 24 d4 bb db 0f 0b 3e ed a6 46 3a c9 2b 1c 3e
       -0.0064740945 0.13580267 0.00075779745 0.15251078
000020 f6 f0 c2 3c d5 36 86 3d 92 a2 1e 3d f2 c7 a8 3c
       0.02379654 0.06553427 0.038729258 0.020603154
000030 7a b9 d3 3c f5 a5 8f bd 02 84 3f bd 22 85 b4 3d
       0.025845278 -0.07014076 -0.04675675 0.088144556
000040 b2 e1 1f 3e 3c 21 f2 3d 20 45 a8 3d 0d 20 11 bd
       0.1561344 0.11822745 0.082163095 -0.035430957
000050 ea d7 07 be 2d 28 db 3d 8d 6a 93 3d 82 77 34 bd
       -0.13265958 0.10701022 0.07198057 -0.044059284
000060 9c e6 ee 3d d5 79 e8 bb a7 53 99 bd 2d 97 81 bd
       0.11665079 -0.0070946016 -0.074866585 -0.063276626
000070 62 84 01 bc c6 e8 27 bd 27 07 c4 3c aa fd 7c bd
       -0.007905098 -0.040993474 0.023929192 -0.06176535
000080 f7 08 81 bd 5b 87 54 3e c2 b2 e9 3b d8 95 95 3d
       -0.06300538 0.20754759 0.0071319053 0.07303971
000090 c1 5a e1 3b 2c 3d 4a 3c e5 55 7a bb 10 15 34 bd
       0.006877274 0.012343686 -0.003819817 -0.0439654
0000a0 4a 1a 99 bd 9f fd 21 bc e3 23 58 3d e9 ad b5 3d
       -0.07475717 -0.009887128 0.0527686 0.08871061
0000b0 21 16 ea 3d 4e 3c ad bb 4a 78 3f bd f9 87 e8 bb
       0.11430002 -0.00528673 -0.046745576 -0.0070962873
0000c0 71 55 2e 3e af 00 dc 3c dd a6 00 3e a9 57 ec 3d
       0.17024781 0.026855795 0.12563653 0.11540157
0000d0 37 19 5b 3d 6b e5 78 3b 56 9c 8b 3d 93 60 5c bd
       0.053490844 0.003797854 0.06816928 -0.053803038
0000e0 2c 2d 6a 3d 4f 90 08 3d 90 0f 49 3c be 91 8d bd
       0.057171986 0.03334075 0.012271777 -0.06912564
0000f0 ea 29 5e bd 15 3a ad 3b fe 40 77 bb b7 64 9d 3d
       -0.05423919 0.005286465 -0.0037727947 0.076852255
000100 cc e7 43 bd 70 ed 0c 3e 7c 26 62 bd 99 97 87 3d
       -0.04782848 0.1376245 -0.055212483 0.06620712
000110 89 6e 21 3e 47 e3 f5 3d 85 42 1f bd b9 d0 2b bd
       0.15764822 0.1200624 -0.038881797 -0.0419471
000120 d0 0d 47 bd c8 db 1a ba 1a 7f 88 ba 43 5d f0 3c
       -0.048597157 -0.0005907384 -0.0010413856 0.029341346
000130 19 0a 6d 3d 4b 6a cb 3d a2 0e 3d 3d 59 86 c6 3d
       0.057870958 0.09932383 0.046156533 0.096935935
000140 75 7d ca 3c de 2a 6c 3c f0 49 0a 3e d2 d5 ed bd
       0.024718026 0.014414517 0.13504767 -0.116130486
000150 b0 f4 a4 bc e1 9e d7 bd e2 fb 85 3c 26 ae a1 bd
       -0.020136207 -0.105283506 0.016355459 -0.07894544
000160 12 0a b6 bd 06 26 c8 3d 04 29 ad bc 38 d9 82 3d
       -0.088886395 0.097728774 -0.021137722 0.063890874
000170 e9 ce e8 3d 2f 0e 09 3d fc bf 87 3d 49 51 a3 bc
       0.1136759 0.033460792 0.06628415 -0.01993622
000180 b8 f7 b6 3d 18 1d 47 3e 75 2f b9 3c 5b 3b 81 bc
       0.08933967 0.19444692 0.022605637 -0.015775373
000190 56 b4 36 3e 7a 4b f3 3d 84 b8 dc 3d f3 2b 1b 3c
       0.1784223 0.118796304 0.10777381 0.0094709275
0001a0 77 b5 70 3c fa a4 cb 3d c1 f6 5f 3d b4 8f 34 3c
       0.014691702 0.09943576 0.054678682 0.01102059
0001b0 70 7c 98 3d 36 3e 3b 3e a5 d3 7e 3d 5b b6 98 bd
       0.074456096 0.1828545 0.06221356 -0.074566565
0001c0 e6 b8 bc bd bd 4d fc 3c 17 89 b9 3d c9 e0 90 3c
       -0.09214954 0.030798787 0.09059351 0.01768531
0001d0 37 b0 ef 3d ae 57 a5 3c 17 a4 d9 3d 74 aa a1 bd
       0.11703532 0.02018341 0.10627001 -0.078938395
0001e0 ed 12 9e 3d de ef 4a 3d 1a 9d 91 3d da 39 90 3d
       0.077184536 0.04954516 0.07110043 0.07042284
0001f0 c5 cc e2 bd dc 2f 10 3e 0e f2 25 bd 1a 4d d8 bd
       -0.11074213 0.14080757 -0.040514044 -0.10561581
000200 8c 9d 74 3d 5f 0c 8b 3d 5d f7 c0 3d df c5 5d 3d
       0.05972056 0.06789469 0.09422181 0.054143783
000210 92 b6 8c bc 93 4a 84 3d 91 90 10 3e d8 03 a8 3d
       -0.0171769 0.064595364 0.14117648 0.08203858
000220 db be 47 3d 35 04 76 3c 6c 67 02 be eb 18 81 3d
       0.048766 0.0150156515 -0.12734765 0.06303581
000230 de 1f 5c bd 49 6b 16 bd e9 0a 06 be d5 a2 1e be
       -0.05374133 -0.03672341 -0.130901 -0.15491803
000240 b8 44 50 bd 03 61 06 be 83 58 8a 3d fc e1 33 3c
       -0.050846785 -0.13122945 0.067551635 0.010979172
000250 59 88 39 bd 52 76 19 3e 43 66 d8 3d de 56 b5 3d
       -0.045296047 0.14986542 0.1056638 0.08854459
000260 f0 b3 82 bd 4f 8f 07 be 53 51 72 bc d1 b0 d0 3d
       -0.063819766 -0.13238262 -0.014789897 0.10189975
000270 52 72 cb bd 00 35 d2 bd 2e c1 a8 3b 72 44 79 3d
       -0.09933914 -0.10264015 0.005149982 0.06085629
000280 a3 a7 2e 3d 7b 15 49 3d d9 21 50 bd 46 92 82 bd
       0.04264034 0.04909275 -0.05081353 -0.06375556
000290 ec 9b ef bc d1 86 c6 3d 3b 6c a0 bd 28 f5 03 be
       -0.029249154 0.09693683 -0.07833143 -0.12886488
0002a0 69 89 9d 3b f7 42 01 3d 1a 24 d6 3c f0 f1 58 3c
       0.0048076403 0.031558003 0.026140261 0.013241276
0002b0 d3 b7 ce 3d be 41 98 bc 79 81 95 3d 4e dc 86 bd
       0.100936554 -0.018586036 0.073000856 -0.065849885
0002c0 36 df cf bd 85 d3 c3 bd c0 09 ae 3d c1 71 72 bd
       -0.10149996 -0.095618285 0.084979534 -0.059190515
0002d0 71 08 70 bd 61 45 7a 3c 5f 80 e4 bd fb db da 3c
       -0.0586018 0.01527533 -0.11157297 0.026716223
0002e0 40 2d c8 bd ca 30 ce 3d d1 92 d8 3d c8 88 a8 3d
       -0.09774256 0.100678995 0.10574878 0.08229214
0002f0 02 91 74 3d a2 37 6c 3d dd 71 25 3c 4d 50 ca 3c
       0.059708603 0.057670243 0.010097948 0.024696494
000300 6f ff 0e 3d 4e d4 f7 bc a4 81 7e 3d 06 4d e1 bc
       0.03491157 -0.030252602 0.062135354 -0.027502548
000310 a1 5d c6 bd e7 8d 3d 3d 55 cb c6 bc e7 13 d7 bc
       -0.09685827 0.046277907 -0.024266878 -0.026254607
000320 0c 06 97 3d ca 17 9c 3a 0e 57 1d 3e d2 e8 8e 3a
       0.073742 0.0011908945 0.1536524 0.0010903126
000330 57 ec a9 bd cf 68 31 3d 60 3a 48 3d 90 78 c3 3d
       -0.082970314 0.043312844 0.048883796 0.0954448
000340 bc 42 d4 3d 31 78 87 bc ae f7 a7 bd 18 cd cb 3d
       0.10364291 -0.016536804 -0.08201538 0.09951228
000350 95 95 35 bd 85 78 16 3e bb 2b 48 3a fd 37 19 3e
       -0.044332106 0.14694412 0.0007635911 0.14962764
000360 67 17 23 3d da 5a 10 bc cc d3 c1 bc a3 33 f7 3d
       0.03981724 -0.008810723 -0.023660563 0.12070396
000370 30 9d 0a 3e 9d b4 c9 bd d1 3f a5 bd f8 bc 80 bc
       0.13536525 -0.098489024 -0.08068813 -0.015715107
000380 31 5f 27 3d 23 64 92 3c b3 b6 3b bd 73 ac 9b 3d
       0.040862266 0.017870015 -0.045828532 0.076012515
000390 ed 67 a3 3d ff c6 1a bd 70 21 bc 3d 7e da 0c 3e
       0.07978807 -0.037787434 0.09186065 0.13755223
0003a0 dc e1 5a bd b2 81 2e 3e a0 cd 62 3d 35 84 82 3d
       -0.053438053 0.17041662 0.05537188 0.06372873
0003b0 3d c9 9a bc 49 9c 55 3e 05 33 39 3e bb 28 a0 bd
       -0.018894786 0.208604 0.18085869 -0.07820269
0003c0 11 5c 9d 3d 43 b4 68 bd 76 cd 61 bd ff ab 15 bd
       0.07683576 -0.056812536 -0.055127583 -0.03654098
0003d0 0e 00 8d 3c 18 aa b7 bc 50 68 a0 3c 2e 36 04 3e
       0.01721194 -0.022419974 0.01958099 0.12911293
0003e0 ad e8 53 3d fa 16 a8 bd 0f f4 5c 3c ec c9 c5 bd
       0.05173557 -0.082075074 0.0134859225 -0.09657654
0003f0 eb fa 54 bd 84 64 e6 3d 93 39 32 3d 0f b7 4d 3c
       -0.051997107 0.112496406 0.04351194 0.012555852

lstm.weight_ih_l1 f4 [256, 64]
000000 00 23 be 3d e9 ef f4 bc 2f 02 41 3e 90 88 c3 3b
       0.092840195 -0.029899554 0.18848489 0.0059672073
000010 54 16 e8 bd 76 0e d4 bd 96 11 82 bc e4 22 03 3e
       -0.11332384 -0.10354321 -0.015877526 0.12806278
000020 32 2f 93 3d c9 8b 45 bd 04 92 95 3d 6a 91 1e 3e
       0.07186736 -0.048229013 0.07303241 0.15485159
000030 11 fd ad bc db 77 7a bd ff 17 a5 3d 36 a8 bc 3d
       -0.021238836 -0.06114946 0.080612175 0.09211771
000040 17 37 20 3e e1 65 f7 3d 9d 30 97 3d e0 b4 18 bd
       0.15646015 0.12079979 0.07382319 -0.03728187
000050 b2 5d e8 bb 65 7d 63 3d 4c be 48 3d 23 ed 9f 3d
       -0.0070912475 0.055539507 0.049009606 0.07808902
000060 21 1b af ba 75 97 fa bc e4 69 e8 3d ac 7e 12 bc
       -0.0013359525 -0.030589798 0.11348322 -0.008941334
000070 91 bb 04 be c6 75 a9 3d 04 08 92 bc 86 7b c4 3d
       -0.12962176 0.082744166 -0.017826088 0.09593873
000080 6a 86 7d bc 9b e9 4f bd 82 89 bc 3d 01 40 6f 3c
       -0.015473941 -0.050759893 0.09205915 0.014602662
000090 bd f8 da 3b 26 f4 0e 3e 2c b3 36 3d c6 32 9c 3d
       0.006682484 0.13960323 0.044604465 0.07626872
0000a0 01 33 84 3d eb c3 07 3e 9e c4 bc 3d 77 a1 a3 3d
       0.06455041 0.1325833 0.09217189 0.07989781
0000b0 70 7a 87 3d aa 37 17 3e 6a d2 6b bb e8 17 d2 bd
       0.0661515 0.14767328 -0.003598357 -0.10258466
0000c0 34 10 98 bd be 8b 5f 3d 12 8f 5e bd e9 9f 38 3e
       -0.074249655 0.054576628 -0.05433566 0.18029751
0000d0 3a 01 51 3c d1 c8 b9 3c 6a 73 f7 bd f3 df 2b bd
       0.01275664 0.022678765 -0.1208256 -0.04196162
0000e0 3b 7a a0 bd b9 0a 9c bd 29 6c 80 bc 71 cb b7 bd
       -0.078358136 -0.07619233 -0.015676575 -0.0897435
0000f0 c9 29 e5 3d 25 23 af bd 6e 77 aa 3d af 1c e3 3d
       0.111896105 -0.08551625 0.08323561 0.11089455
000100 57 9e 85 3d 0f e8 26 3e ee 6a ed 3d 82 79 04 be
       0.065243416 0.16299461 0.11592661 -0.12936977
000110 82 36 f8 bd 39 b4 a9 3c 67 22 ab 3d 6c 42 b9 3d
       -0.121197715 0.02071582 0.08356171 0.09045872
000120 b4 22 83 bc 4a 60 05 bd 66 d2 98 bc 91 c4 f4 3d
       -0.016007759 -0.03256253 -0.018655013 0.119515546
000130 57 e6 56 3d 76 fe 20 bc e6 07 40 3d 2c d0 d0 bd
       0.052465763 -0.009826293 0.046882533 -0.10195956
000140 de 1d e4 bd 2f 7c d2 3c d8 6e 53 3e 02 39 a8 bd
       -0.11138509 0.025693981 0.20647752 -0.082139984
000150 4f 88 be bd b0 70 56 3d 30 a4 b7 3c a3 6c bf bd
       -0.093033426 0.05235356 0.022417158 -0.09346893
000160 e8 e3 57 be 8c 75 43 be 89 57 bb bd 56 64 8d 3b
       -0.21083033 -0.1908781 -0.091475554 0.0043149395
000170 f3 2e a8 bd 7c 00 fe bc 0d e9 ce bd bb 08 aa 3d
       -0.0821208 -0.03100609 -0.10103045 0.083024465
000180 88 0a 72 3c 98 b2 5c bd ec 56 3d 3c 6c 8d 34 3d
       0.014773019 -0.053881258 0.011556368 0.044080183
000190 bf 05 d2 bc 2b 49 8f 3d ee b4 d3 bd a4 87 e5 bd
       -0.025637506 0.069963776 -0.10337244 -0.11207512
0001a0 29 07 41 3d 9f 67 38 bc 91 3c 00 be cc f2 af 3d
       0.04712597 -0.011255174 -0.12523104 0.08591232
0001b0 0b 7d c4 bd 5b f8 70 3c 6b 3f f1 3d 50 86 0e 3d
       -0.095941626 0.01470765 0.11779674 0.03479606
0001c0 28 0e 9c 3d da ef 2d 3d 1a 77 54 3d 69 a7 51 3d
       0.076198876 0.04246507 0.051871397 0.051185045
0001d0 8a 71 bf bd 0c 34 a6 bb 50 11 a7 bd 26 ed fd bd
       -0.09347828 -0.0050721224 -0.08157599 -0.12398748
0001e0 76 7d 40 bc be 7f b8 bc 11 f7 a6 3d 06 16 f8 bc
       -0.011748662 -0.02252185 0.08152593 -0.03028394
0001f0 3d 3a 57 bd b5 7f 1a 3b 72 2d 93 bd 5f b6 10 bc
       -0.052545775 0.0023574654 -0.071864024 -0.008832543
000200 a1 b0 03 bc 4d 92 34 3d 10 cc 8b 3a cc 55 c9 bd
       -0.008037717 0.044084836 0.0010665674 -0.098308176
000210 15 c6 95 3a ae 9d bf 3c 70 9f 88 3d 96 33 36 3e
       0.0011426831 0.023390617 0.06671035 0.17793116
000220 dd 8b 5a 3d b0 3c 53 3d 15 8e f0 bd c8 72 f8 3c
       0.05335604 0.051571548 -0.1174585 0.03032817
000230 7b 92 b5 3d d5 eb 93 3c 76 48 97 bd e0 dd 7f bd
       0.088658296 0.01805679 -0.07386868 -0.062467456
000240 0f f0 2f bb 86 a3 08 3c 50 0b 83 bd 6c c0 db bc
       -0.0026845967 0.008339768 -0.06398642 -0.026825152
000250 03 2d 92 3d 6c 6f 16 bd 62 1c 2c bd d1 a2 c6 bd
       0.071374916 -0.036727354 -0.042019255 -0.096990235
000260 51 7d 83 bd 6a 17 8f 3d ad 57 37 3d 4e 3f 08 3e
       -0.064203866 0.06986888 0.04476135 0.13305399
000270 66 7a a5 bd 06 5a ed 3b 35 f8 b3 3c 36 7e 67 3d
       -0.08079986 0.0072433976 0.02196894 0.05651685
000280 f5 a1 bd bd 7a 89 0d 3d 82 b6 e1 3c bc e3 09 be
       -0.092594065 0.034554936 0.027552847 -0.1346578
000290 6f ab 15 be a6 25 e9 3a 96 f7 c1 bd 64 e1 17 be
       -0.14616178 0.0017787709 -0.094710514 -0.14832073
0002a0 0c b1 53 3d b0 8c 4e bc b6 24 47 bd f4 19 f9 3d
       0.051682517 -0.012606785 -0.048618995 0.12163153
0002b0 0b 61 b6 3d 68 c8 cb 3d 62 42 01 3e ad 5c 06 be
       0.08905228 0.09950334 0.1262298 -0.1312129
0002c0 f6 90 5c 3d 36 01 ea ba b9 db c0 bc ac 6d f2 bc
       0.053849183 -0.0017853144 -0.023542272 -0.029593311
0002d0 e8 a1 47 bc 1a e3 b6 3d 96 ec 5d bd 08 b9 6d bd
       -0.012184598 0.08930035 -0.054180704 -0.058037788
0002e0 0b 4b 92 bc 3b 26 99 3c a0 81 3b bc 29 45 a2 3d
       -0.017858049 0.018694988 -0.011444479 0.079233475
0002f0 50 36 fd bd 73 d0 16 bd 77 da 82 3d d7 e0 01 3d
       -0.12363875 -0.036819886 0.06389325 0.031708565
000300 a7 cb 8b bd 79 48 24 3d d0 b6 c3 3c 45 30 4d 3d
       -0.06825953 0.040108178 0.023890883 0.05009486
000310 b5 b6 2f bd 1c 17 08 be 8e c1 f2 bd 5c aa 75 3d
       -0.042898852 -0.13290066 -0.11853324 0.05997692
000320 32 80 e6 3c aa ea 8a bd b1 88 f1 bd a6 97 60 3d
       0.0281373 -0.0678304 -0.1179365 0.054832123
000330 b7 21 d2 3d f2 46 b5 bc b8 4d 35 b8 a0 1e c1 3d
       0.10260337 -0.022128556 -4.3226144e-05 0.094296694
000340 bb b5 4f 3e e1 8d 27 3e 0f 02 7c 3c 44 19 8a 3d
       0.20284168 0.16362716 0.01538135 0.067431
000350 29 12 28 bd 5a 70 b2 bd a5 76 14 be 1c c6 b6 3c
       -0.041032944 -0.087128356 -0.14498384 0.022311263
000360 82 76 50 3c ed cc 20 3e c7 5c 21 bc 04 8b b2 bd
       0.012723567 0.15703173 -0.00984878 -0.087179214
000370 6d e4 25 be a6 19 18 3d 58 36 c5 3c 7c 8e 0c 3e
       -0.16200419 0.037133835 0.024073765 0.13726228
000380 84 43 41 3d 22 9a fc bc 8a ba ff bd 62 29 7d bd
       0.04718353 -0.030835215 -0.124867514 -0.061807044
000390 0c e1 0d 3d 40 c5 48 3d a6 df 75 bd 21 36 d7 bc
       0.03463845 0.049016237 -0.06002774 -0.026270928
0003a0 f6 a8 69 bd 85 cd af 3d 8f 91 a0 bd 59 12 b2 bc
       -0.0570459 0.085841216 -0.07840263 -0.021737264
0003b0 9c ef 63 3d 71 c4 ac bd c5 0d 26 bd 40 bc 16 be
       0.05564843 -0.08435906 -0.040540475 -0.14720249
0003c0 f6 1b 7c bc c7 65 f7 3c 91 e0 8e bd f5 93 ce 3d
       -0.015387526 0.030199898 -0.069764264 0.10086814
0003d0 f4 05 b4 bd 76 06 e2 3d d5 b5 2c 3d 9a 8c 91 bd
       -0.08790198 0.110363886 0.042165596 -0.07106896
0003e0 f6 20 9f 3d 86 88 25 3d dd de aa 3b f0 71 a5 3c
       0.07769959 0.040413402 0.0052145557 0.020195931
0003f0 e2 7f 00 3e 2b c8 59 3c 59 fd dc 3b bc c4 35 3e
       0.12548783 0.013292353 0.0067440686 0.1775083

lstm.weight_hh_l1 f4 [256, 64]
000000 b0 bb cd bd 81 55 02 3d 9c 60 f6 bd 2e f1 d5 3c
       -0.10045564 0.031819824 -0.120301455 0.02611598
000010 1a 72 9c bc a1 7f 80 3c 63 67 ca bd 99 ce 2d 3d
       -0.019097377 0.015685858 -0.09883001 0.042433355
000020 23 2e e4 3c 07 b8 0e 3e ad 5c 61 bc 1f 15 1b be
       0.027854031 0.13937388 -0.013755006 -0.15144776
000030 a2 76 34 bd be b7 f1 bd e9 92 2d bc 07 b1 87 3d
       -0.04405845 -0.11802624 -0.010594108 0.06625562
000040 c7 64 38 3d 17 79 9c 3b de 1c 91 bc 5b 08 9e 3d
       0.045017984 0.004775177 -0.01771396 0.077164374
000050 8e 08 10 3d e7 94 da bd ef 37 a8 bc a4 9a 9c 3d
       0.03516441 -0.10672932 -0.020534484 0.07646683
000060 1e 08 65 3d 16 0b d0 bc 1b 85 0f 3e b7 5c af 3d
       0.055915944 -0.025395911 0.1401562 0.08562606
000070 18 68 2d 3c c7 54 88 bd 24 86 f3 3d 5f 79 78 3d
       0.0105839 -0.06656795 0.1189082 0.060662623
000080 1c 82 a8 bd fb 9e a4 3d da 28 b2 bd 8a af 94 3c
       -0.082279414 0.080381356 -0.08699198 0.01815011
000090 2a 99 d6 3d f4 c4 a8 bd b3 cd a8 bd b7 9d a7 3d
       0.104784325 -0.08240691 -0.08242359 0.081843786
0000a0 68 17 14 3d dd 3a dc 3d 99 b0 fa 3c 2d fb 19 3e
       0.036155134 0.10753415 0.030601786 0.15037222
0000b0 b5 a7 40 bd 20 b5 55 bd 01 76 81 3d 8e 63 c4 3c
       -0.047034938 -0.052174687 0.063213356 0.023973253
0000c0 69 0d 71 bd 63 58 f4 3d 1f f2 3b 3d 4c 50 14 bc
       -0.05885068 0.11930921 0.0458852 -0.009052347
0000d0 c9 c3 c7 3d 64 c1 8f bd 78 f0 cd 3d 4a 61 22 3b
       0.0975414 -0.07019308 0.100556314 0.0024777227
0000e0 73 ef 00 be 9a 44 d7 3c 1c 4f b5 bd 37 8e d6 bd
       -0.12591343 0.026277829 -0.088529795 -0.10476344
0000f0 f8 d1 27 bd 49 43 7e 3d 02 85 bd 3d 4c 57 66 bd
       -0.040971726 0.062075887 0.09253885 -0.056235597
000100 f2 15 ba bc 09 bc 44 bd cb 9c 02 3e 4f 4c c1 3d
       -0.022715542 -0.048030887 0.12755124 0.09438383
000110 c4 23 5e 3d 49 3f a1 bd 97 cf 84 bc 70 9d 2b bd
       0.054233328 -0.07873399 -0.016212268 -0.04189819
000120 6c 7b 95 3d 31 78 a6 bc a1 cf fe bd 99 21 34 bc
       0.072989315 -0.020320984 -0.12441946 -0.010994338
000130 0f 7a 7f bd b7 74 2e 3d 2f 96 90 3d a1 ba dc 3c
       -0.062372264 0.042591777 0.07059895 0.02694446
000140 db 10 3b 3e 89 0c d1 3d b0 c8 a5 3d 76 5a 1d bd
       0.18268149 0.10207469 0.08094919 -0.03841635
000150 6c ff 91 bd 25 09 14 3e c7 ba 9d 3c ad c0 5b 3e
       -0.07128796 0.14456613 0.019254101 0.21460219
000160 cf da 96 bd 4c e3 fc 3b 79 ce a0 3d 7f fb 90 3d
       -0.07365953 0.0077175256 0.078518815 0.07079219
000170 8f 30 41 3d 19 e8 ee bd 24 49 fc 3d 60 a2 98 3d
       0.04716545 -0.11665363 0.12318638 0.074528456
000180 45 c6 70 3d 25 9a 8a bd 80 2e fa 3d 48 e5 9d bb
       0.058782835 -0.06767682 0.122159004 -0.004818592
000190 43 ed 9d 3d 4d f8 c9 3d 2d e5 db 3d 7c 62 a4 3d
       0.0771127 0.09861813 0.10737071 0.08026597
0001a0 c2 1f f6 bc 02 f7 b6 3c a3 01 2f bd a8 07 3b bd
       -0.03004444 0.02233458 -0.04272617 -0.0456616
0001b0 81 b3 a1 bd eb 7a 36 3d 59 ea d8 bb 24 80 90 bd
       -0.07895566 0.044550817 -0.0066197333 -0.07055691
0001c0 60 ed 88 bd 59 eb 6c 3d cb 3c 96 3d 2c 8e 0c bd
       -0.06685901 0.057841633 0.07335814 -0.034315273
0001d0 10 0b 15 3d 34 1c 7a bd b3 10 bb bc a0 71 34 bd
       0.036387503 -0.061062053 -0.022835111 -0.044053674
0001e0 40 22 4c bd 92 8c 1e bb 11 a6 d8 bd 4e af 90 3d
       -0.04983735 -0.0024192673 -0.1057855 0.07064687
0001f0 50 bf 6f bd fc 5d 8c 3d 96 44 da bc e1 71 8b 3d
       -0.05853206 0.068538636 -0.026644032 0.0680883
000200 94 ae e7 3b 3f 55 d1 3c dc ac 1c be a0 e7 e4 3d
       0.007070372 0.025553344 -0.15300316 0.111769915
000210 c4 b2 1b 3d d1 8d 8a 3b 5c a4 13 3e a0 a9 3d bd
       0.03801228 0.0042283316 0.14418167 -0.046304345
000220 f0 03 18 3e 68 ff 01 bc 4f 0c 9b 3c 6c 03 fa bd
       0.14845252 -0.007934429 0.018926768 -0.12207684
000230 1e 08 c4 3d 30 6c 01 3c 01 34 0a be 2c 74 7c bd
       0.09571861 0.007899329 -0.134964 -0.061634228
000240 10 69 ca bc dc b0 14 3e 29 d1 a7 bd bf e2 45 3b
       -0.0247083 0.14520591 -0.08194191 0.0030194966
000250 8d bd 37 3d 63 a6 1a be 7f a3 85 bd df b2 09 bd
       0.044858504 -0.15102534 -0.06525325 -0.03361785
000260 3d fa e3 bd 47 0a a0 bd b1 1e 60 bd eb 6b 13 bd
       -0.111317135 -0.0781446 -0.05471677 -0.03599159
000270 86 9d ee bd 4e 03 93 bd 9b 12 b0 bd 0d bb e5 bd
       -0.11651139 -0.07178365 -0.08597299 -0.11217318
000280 ed d5 84 bd 66 b2 1b bd 45 83 e4 3c 90 25 b6 3d
       -0.064861156 -0.03801193 0.027894625 0.08893883
000290 61 ce 9c bb 61 76 99 3c 4e 00 ba bd 56 8f 38 3d
       -0.0047853445 0.018733205 -0.09082089 0.04505857
0002a0 b2 72 57 bd b4 f2 00 bd b4 13 15 3e 89 d8 c2 3d
       -0.052599616 -0.03148146 0.14558297 0.09513957
0002b0 53 74 ad bb e3 59 59 bb 4c ae 50 3c d6 78 99 bd
       -0.005293408 -0.003316515 0.012736868 -0.07493751
0002c0 da 22 1b 3e bf 73 72 bd 73 76 50 3d 32 2d 00 3e
       0.15150014 -0.059192415 0.050894212 0.1251724
0002d0 09 56 74 3d 4a 88 01 3e ab 37 13 bd 51 38 ba 3b
       0.059652362 0.12649646 -0.03594176 0.005682983
0002e0 2e 58 bf 3c bd eb 6c bd 0e 60 1a be f4 74 4e bc
       0.023357477 -0.057842005 -0.15075704 -0.012601126
0002f0 74 a4 95 3d f7 50 c8 3d 69 81 7a 3d a8 42 7d 3d
       0.073067576 0.09781068 0.06115857 0.061831146
000300 0b 1a 9f 3d ba 8b e1 bd 72 6d 04 be 7b a2 dd 3d
       0.07768639 -0.11012979 -0.12932375 0.10822006
000310 65 4d 13 bd fa 8d 46 ba 5b 71 8a bd 02 61 51 3d
       -0.03596248 -0.0007574257 -0.06759902 0.051117904
000320 1d 2f 36 3d b4 4f de 3d b4 24 2f bc 6a 48 15 3d
       0.044478524 0.10855046 -0.010689903 0.036446013
000330 2d 1e 39 bc 81 eb b4 3d 15 60 d4 3c c3 d6 d9 3d
       -0.011298698 0.08833981 0.025924722 0.10636666
000340 e3 ae 22 be cb 12 31 39 00 f5 90 3d 7f 5d ee bd
       -0.15887026 0.00016887036 0.0707798 -0.11638927
000350 98 44 46 bd 93 02 74 3d 18 77 9c bd 20 9e 25 be
       -0.04840526 0.059572767 -0.07639903 -0.16173601
000360 25 76 b6 bc c6 98 ce 3d d3 5b c3 3b e0 cd 4b bc
       -0.022273133 0.10087733 0.005961874 -0.012439221
000370 21 5b d3 bd a1 cc db bc 97 b2 57 3d 75 73 ed bd
       -0.10320116 -0.026830973 0.05266055 -0.11594287
000380 4c 5e db 3d 35 a6 56 bc 71 f5 b5 3d 68 5e a3 3c
       0.10711345 -0.01310115 0.08884705 0.019942477
000390 32 45 ff bd 0c b0 23 3d 00 26 dd bc 90 ac 7a bc
       -0.1246437 0.039962813 -0.026995659 -0.015299931
0003a0 91 44 11 bb 67 b4 9e bd bf 89 b1 3d c2 fb 62 bd
       -0.0022166113 -0.07749253 0.08668851 -0.055415876
0003b0 8c 9f 7e 3d 9e 21 05 bd d3 b2 b6 bd bb cd d7 bd
       0.062163875 -0.032502763 -0.08920827 -0.10537287
0003c0 da 04 c3 bc 4a 6b 05 3e 72 30 01 3e d5 3b 7c 3d
       -0.023806024 0.13029209 0.12616137 0.061580498
0003d0 2c 0c 92 bd 18 da 43 3d a6 61 a2 bd de 2e 8d 3d
       -0.07131228 0.047815412 -0.07928781 0.06893705
0003e0 0a c0 06 3e 0b c1 61 3d b5 be e0 3c 83 88 17 bc
       0.13159195 0.05511574 0.027434686 -0.0092488555
0003f0 12 97 80 bc d5 36 5a bd df ac 02 bd fc 37 84 3d
       -0.015697036 -0.05327495 -0.031903144 0.06455991

lstm.bias_ih_l1 f4 [256]
000000 ed 56 0e 3d c3 b0 e5 3d f8 21 e9 3d 28 31 cf bd
       0.034750868 0.11215355 0.11383432 -0.10116798
000010 28 30 11 3d 4d da 8d 3d 8d 1d cc 3d 63 73 81 bd
       0.035446316 0.06926403 0.09966574 -0.063208364
000020 63 21 82 bd c9 8a 82 bd 84 d4 49 3d 5d 0b a2 bd
       -0.06354024 -0.063741274 0.049274936 -0.079123236
000030 a8 68 9c 3d 66 1d 8d bd ab 9f 30 3d 0e d1 99 3c
       0.07637149 -0.06890373 0.04312102 0.018776443
000040 8c 90 ed 3b 2a 58 c1 bd 8f 53 a5 3d 4e 8f 08 3e
       0.0072498973 -0.09440644 0.08072578 0.13335916
000050 53 0f 0f 3c e9 4b 96 3d 47 6a a0 bd c0 80 9e bc
       0.008731681 0.073386975 -0.07832771 -0.019348502
000060 7d d9 14 3c 21 4c 11 3e ac ee 1f 3d 03 47 cd bd
       0.009085056 0.14189197 0.039045975 -0.1002331
000070 63 61 03 bc 2d ac 0c 3d 38 dd f6 3c f6 1c f5 3d
       -0.008018824 0.034343887 0.030134782 0.119684145
000080 23 7a a9 3d bf 75 88 bc ae 4f 99 3d 05 65 c9 3c
       0.08275249 -0.016657708 0.07485901 0.024584303
000090 60 10 5c bd e2 99 ec 3d 0f 5a 1f 3d 95 c8 d4 3d
       -0.053726554 0.11552788 0.038904246 0.103898205
0000a0 ec a0 36 bd 7f d3 51 bc 31 18 9e bd a1 e2 24 bc
       -0.04458706 -0.012806772 -0.07719458 -0.010063798
0000b0 ce 1d da 3d 27 50 48 bc 24 6b 8f 3d 01 e1 8b 3d
       0.10650216 -0.012226141 0.07002857 0.068300255
0000c0 38 a8 b6 bd 7a 7f cf 3d 37 0d 6d bd e8 e3 1a 3e
       -0.08918804 0.10131736 -0.05787393 0.15126002
0000d0 f2 f5 1a 3c 48 fb c4 bd cc 68 e3 3c 44 aa 0d 3e
       0.009458052 -0.096182406 0.027759932 0.13834482
0000e0 3e fc ad 3d 82 1a 74 3c 6e d5 ff 3c f7 30 a7 3d
       0.08495377 0.014898898 0.0312297 0.08163636
0000f0 a9 9d ac bd b7 87 8c bd a6 3e fb bd bb e0 df 3d
       -0.08428509 -0.06861823 -0.122678086 0.10931536
000100 18 9e c4 bd 13 5b 10 bd 45 aa c0 3d bd a8 a0 bd
       -0.096004665 -0.035243105 0.09407476 -0.07844684
000110 73 b1 40 bc 02 e9 f1 3d 48 be 84 3d 47 e8 e4 3c
       -0.011761057 0.11812021 0.06481606 0.02794279
000120 dc 03 b6 bd a6 fa 91 bd 4a b1 1a 3c be f6 ec 3d
       -0.08887455 -0.071278855 0.009441683 0.115705
000130 ea bd 49 3c 76 a5 9e 3d 71 1a 36 3d 30 7a 10 38
       0.012313345 0.07746403 0.04445881 3.444607e-05
000140 2d a1 cb 3d 41 87 7c 3c d5 05 6d 3d f8 77 6f 3d
       0.09942851 0.015413106 0.05786689 0.05846402
000150 3b a7 bd 3d 5b e3 bc 3d c5 53 8a 3a 84 5d da bc
       0.09260412 0.09223052 0.001055353 -0.02665592
000160 3b d1 91 3d 47 99 c4 3d 00 e2 e2 3d 25 72 a1 bd
       0.07119986 0.09599548 0.11078262 -0.078830995
000170 6e 77 12 bd 51 30 aa 3d 2c e5 5b 3d 03 be 27 3e
       -0.03575843 0.08309997 0.053685352 0.16381077
000180 25 e0 10 3d cf 2b a5 bd 97 b1 d0 3c 48 4b 02 bd
       0.03537001 -0.080649965 0.025475306 -0.031810075
000190 d7 14 3d 3d e9 0d c4 bd 1c fa 5f bd 3b 24 11 3d
       0.046162453 -0.09572966 -0.054681882 0.035434943
0001a0 4c 3b 8f 3c 0a e6 a3 bd fc 0d 4f 3d b8 86 5b bd
       0.01748433 -0.08002861 0.050550446 -0.053595275
0001b0 2a cd a0 3d 1e ee 5c bc 31 d1 d0 3d 3f 3c 1f bd
       0.07851632 -0.013484506 0.1019615 -0.038875815
0001c0 55 59 92 3d 41 ef d1 3d 70 25 0d 3e f9 35 8a bd
       0.07145945 0.10250712 0.13783813 -0.06748576
0001d0 00 ec c3 3b d1 02 db bd b7 2c de bd f4 02 7d bd
       0.005979061 -0.106938966 -0.108483724 -0.061770394
0001e0 34 b6 06 3e 2a e4 3f bd 4e 68 07 bd 9b c6 bb 3c
       0.13155442 -0.046848454 -0.033058457 0.02292185
0001f0 2e 70 98 3d da 46 2b 3d 38 4c 09 be a8 58 5a 3d
       0.074432716 0.041815616 -0.13407981 0.053307205
000200 61 1e c6 3d 77 23 0a 3e 98 6a d3 3c 83 fa c8 3d
       0.09673763 0.13490091 0.025807664 0.09813406
000210 24 20 39 3d 29 94 e3 3d 66 f2 19 3e 5f db ff bd
       0.045196667 0.11112244 0.15033874 -0.124930136
000220 94 c6 c5 3d d8 f4 7f bd 5d 16 cb bd c3 f8 0b bd
       0.096570164 -0.06248936 -0.09916375 -0.034172785
000230 02 22 8a 3d fc 56 c9 bd cc 36 50 3d df 15 7d bd
       0.06744768 -0.09831044 0.05083351 -0.061788436
000240 59 bc 2e bd 9e 9b ec 3c cc a5 61 3d 80 48 2e 3c
       -0.04266009 0.028882798 0.055089757 0.010637403
000250 d7 8e f9 bd f9 f4 84 3d e9 08 4d bd 09 e6 ed 3d
       -0.12185448 0.06492037 -0.050057326 0.11616141
000260 45 69 0c 3d 92 7a 65 bd 6a 37 ee 3c 3a be c8 bd
       0.03428008 -0.056025095 0.029079158 -0.09801908
000270 80 b7 1b 3d 54 58 13 bd ec 26 ff bc 5e 56 0c be
       0.038016796 -0.03597291 -0.03114649 -0.13704821
000280 83 5a ae 3d 6e ac 81 3d 10 29 d1 3d c0 ed 97 bd
       0.085133575 0.063317165 0.1021291 -0.07418394
000290 1f c9 97 bd ad a5 59 bd 2e 4d 0d bd de b5 18 3e
       -0.07411408 -0.053136516 -0.034497432 0.14913127
0002a0 8c 6f 16 bd 3a 82 b5 bd 59 00 78 3c 13 ae c4 3d
       -0.036727473 -0.08862729 0.015136802 0.096035145
0002b0 1f 14 e4 3d 6b 53 b0 bc 98 89 00 3e 3e df 9b bd
       0.1113665 -0.021524152 0.12552488 -0.076109394
0002c0 ea 14 c2 bd b7 53 d5 bd b4 d0 cd bd d0 4e 4c 3d
       -0.09476645 -0.10416358 -0.100495726 0.04987985
0002d0 6c d9 63 3d 10 6f 1f bc 7f fb 8c bc 58 d7 49 bc
       0.05562727 -0.009731069 -0.017209766 -0.012319408
0002e0 19 5b a7 3d bf 32 09 bd ce db f6 bc f0 c1 9f bd
       0.081716724 -0.03349566 -0.030134108 -0.078006625
0002f0 28 c4 e7 3c bf 0f 18 3b b0 ae 06 bd bd b3 a9 bc
       0.028291777 0.0023202745 -0.03288144 -0.020715589
000300 76 05 f5 bd 3e 52 61 bd a5 fb e4 bc a4 6b 4b bd
       -0.11963932 -0.055010073 -0.027952025 -0.0496632
000310 9a 1b fd bd 2c 8a 81 3d 78 09 bb bd fc 11 d5 bd
       -0.1235878 0.06325182 -0.091326654 -0.10403821
000320 33 40 8a 3d 55 90 87 bd 45 af d9 3d 86 2e 34 3c
       0.06750526 -0.06619326 0.10629133 0.01099742
000330 48 e1 10 be d9 9c 0e 3e 93 31 e2 bd 4f e9 09 be
       -0.14148438 0.1392702 -0.11044612 -0.13467906
000340 53 3d 03 be 4e 2f 2e 3d 4a fe e3 bd 28 b3 3f bc
       -0.12816362 0.042525582 -0.11132486 -0.011700429
000350 e2 92 ed 3d bd e8 41 bd 7b 83 05 3e 65 47 f3 bd
       0.11600281 -0.047341097 0.13038437 -0.11878852
000360 11 16 9b 3d e7 0e ff bc bf 21 c9 bd 7f 02 82 3d
       0.07572568 -0.031135036 -0.0982089 0.06348132
000370 1e 02 87 bd 3b 70 d3 bd 20 c1 89 3d 54 26 8c bd
       -0.06592201 -0.10324141 0.06726289 -0.06843248
000380 e0 9f ba bd 65 de 83 bd fc 4e 93 3d 3a 37 9d 3d
       -0.09112525 -0.06438903 0.071927994 0.07676549
000390 02 b1 c3 bd 56 a0 e8 bd 3c eb 11 be 7e 8a fd 3c
       -0.09555246 -0.11358707 -0.14249891 0.030949827
0003a0 66 cd 1e bd e6 78 08 bd 02 e9 a4 3d 58 eb 72 bd
       -0.038770102 -0.033318423 0.08052255 -0.059306473
0003b0 fa ac 53 bc 82 6f 8a bd cd f5 5c 3b 37 00 10 3e
       -0.012919659 -0.0675955 0.0033715845 0.14062582
0003c0 ea 55 9b bd db c9 f5 3d f4 aa f5 3d ad 5e ef 3d
       -0.07584746 0.120013915 0.11995497 0.1168798
0003d0 db f2 0c 3d c4 ad eb 3d 08 4b f8 3d 2d f4 c4 bd
       0.034411293 0.115077525 0.12123686 -0.09616885
0003e0 e7 d0 86 bc 21 ff a2 bc 5e 89 ad 3d 1a 6d 1b bd
       -0.016457034 -0.019897046 0.08473466 -0.037945844
0003f0 68 9f 91 3d e0 e4 df 3d ed c4 e4 3d 0f 85 22 3d
       0.071104825 0.10932326 0.11170373 0.039677676
