lstm_fwd_model.pt (torch, 245045 bytes, 9 tensors)

lstm.weight_ih_l0 f4 [256, 38]
00000000: b14b 013e 7c8b ff3d d2fe 753b 39de 1f3e
00000010: 377a 15bc 3116 4c3d 4fe8 29bd 0043 c23d
00000020: fea4 0f3e 070d 74bd 794c 0a3e 8b9d 693d
00000030: 0664 fd3d 8a62 1b3d c153 a93d 25e4 623c
00000040: 70f9 f83d 8a99 cd3c 7e55 a9bd 5a96 4d3d
00000050: 8af7 92bd 0f0f ab3b 6883 9dbd 3106 ee3d
00000060: e933 83bd 8c09 6cbd 63db 3dbd 55a4 cbbd
00000070: eb12 153d 5420 b6bd 3cb5 0c3e 7679 b0bd
00000080: 2da3 f33d 08ce 6e3d 4f36 abbb a621 ca3d
00000090: 0b87 e63b 1686 ce3d ed66 0a3d 2e14 0cbd
000000a0: 4595 573d 57bc 30bc cb74 3e3d a79c 093e
000000b0: daa0 b13d 2962 07bd d172 c83d 3cbb 433d
000000c0: e46f 7f3d 5aa8 5abd 0e6a c7bd 4ba2 a1bc
000000d0: b0eb 88bd 27f8 fc3d 24b3 433c 2607 793d
000000e0: ff42 393d b71a f23b f287 b03d fb33 acbd
000000f0: 49da 3b3d 0aa5 99bd a3e1 0f3c e052 30bd
00000100: ea36 56bb 27fe 3cbd 11e9 073e bc76 46bd
00000110: 0716 74bd f451 9abd eb7f 013e 3425 8c3d
00000120: 5e62 c93d 81e9 0dbe 62e4 c8bd e976 b7bd
00000130: 88c1 86bd b7dd 893d 1fea 933d 0eea 093e
00000140: e32d 35bd 5cf6 6abd 45e9 b13d f31f ebbc
00000150: be8d c63d 644e 08bb 7021 c93d afd2 abbd
00000160: 4a4f 0fbd 8c84 723d afb9 5b3d 4370 54bc
00000170: 574a b73d 5772 c03d 2938 8cbd 1c18 7bbd
00000180: 0c2b 023e 8bd4 26bd 60db 8f3b 1e1d f3bd
00000190: 8181 6abd 88cc ff3c 454e 07bd d601 aebd
000001a0: 6e44 3d3c bfb0 a7bd 784e b9bd 39e0 6bbd
000001b0: 41a1 bfbd 0848 b9bd b3a2 c53d 8297 bc3d
000001c0: d42b 063d 8e30 83bd 8a34 c3bd f3fc 61bd
000001d0: a621 b93c 090f fabd f717 31bd 461e b0bd
000001e0: 523e 813b f8fb 6ebd 422d 79bc afd1 acbd
000001f0: 0928 d0bd 5f4c 9ebd cad3 39bd 1910 d7bd
00000200: 7412 cd3d 066c c9bc 7d16 e73d 34e2 373d
00000210: bb4c c1bd 5252 b33d 963a cabc 3eaf 5cbd
00000220: a555 e3bd ccf5 eabd 723b e03c c0af dfbc
00000230: 96b3 233d ba7d afbd 5adc 913d 69f2 d9bd
00000240: 31a6 18bd 3807 c63c a484 3c3d cec7 a93d
00000250: 146f e13d 875f bbbd 3e35 dd3c 8faf 4abd
00000260: 9dbc 52bd ca6b febd 5815 c33d 21c8 e5bd
00000270: 6d69 823d 08b5 b63c 6b44 e03c 619b bbbd
00000280: 0de3 bc3d 5c0a 133c a3ae 853b d93d 07be
00000290: 6289 0f3d 70b5 23bd f9ca a9bd 009f a33d
000002a0: ffd5 893c f519 b9bd 6833 33bd 6d3d f5bc
000002b0: 67f0 8d3d c12b 73bd 8949 0dbd e2f2 78bd
000002c0: e6a4 b0bd 8898 363d 72e8 bb3d e8ec a3bd
000002d0: d9be a7ba f406 d93c 5bc5 13bc aad6 88bd
000002e0: 3191 0f3d 43ce 013d 5dfb a53d c62b 4abd
000002f0: 321f febc b84d eebb 0f01 6c3c 5cc2 94bb
00000300: 7b34 eb3d dd27 103e ddd5 963c 8c4f 9ab9
00000310: b81c a33c bccb 6a3c 7fb9 643d 9411 873d
00000320: 034c afbd 86e8 c9bc e600 0a3e c18a 8a3d
00000330: 9d74 933c b4d5 6abd f6d3 9bbd 4835 d5bd
00000340: 525d 1abd 6370 7b3d 2eff 4b3d 6b22 873d
00000350: 1c33 11be b940 f6bd fb37 62bd 38a4 f73d
00000360: 8b62 4cbb eba3 86bd f8f3 8f3d d7ee 80bc
00000370: 8739 66bd 69da f03d 51d0 ffbc b3c5 ce3b
00000380: 6210 1fbe 3c86 f23d bc42 af3d 08f5 bd3d
00000390: 61bd 43bd d03c c9bd 869e 84bd 57a2 093e
000003a0: 2690 973d 9237 0e3e e175 c03d 0e80 733d
000003b0: 6cac 0f3d a7f9 6ebd 593b 99bd 4f02 a2bd
000003c0: 9889 b73d abc5 12bd 7a48 3a3b 0f3c 21bd
000003d0: c580 583c f22d 92bd 4f3f d8bd 4eab 4c3d
000003e0: 40eb 46bc a94e ae3d 7f92 11bc 58ee 96bd
000003f0: 3202 623c d030 78bd 24c4 63bd 56e5 16be
0.1262653 0.124777764 0.0037535918 0.15612115 -0.009123377 0.04982585 -0.041481312 0.094854355
0.14027783 -0.059582736 0.13505735 0.05703501 0.123725936 0.03793577 0.08267928 0.013848339
0.121569514 0.025097627 -0.082682595 0.050192215 -0.071761206 0.005220301 -0.076910794 0.11622275
-0.064063855 -0.057626292 -0.0463518 -0.09943453 0.036394995 -0.08892885 0.1374101 -0.08616917
0.11896358 0.058301955 -0.00522498 0.09869699 0.0070351413 0.100841686 0.033789564 -0.034198932
0.05263259 -0.010787091 0.0464981 0.13438664 0.08673258 -0.033052597 0.097875245 0.047785982
0.062362567 -0.05338321 -0.09737025 -0.019730708 -0.06685579 0.12352019 0.011944566 0.060797833
0.045229908 0.0073884386 0.086196795 -0.08408352 0.04586247 -0.07502182 0.008781823 -0.043047786
-0.003268654 -0.046140816 0.13272502 -0.048453078 -0.05959132 -0.075351626 0.12646453 0.068430334
0.09833215 -0.13858606 -0.098091856 -0.08958227 -0.06579882 0.06731742 0.072223894 0.13468191
-0.044233214 -0.057363853 0.08687071 -0.028701758 0.09695004 -0.0020798678 0.09820831 -0.08389794
-0.034987725 0.059208438 0.05364388 -0.012966218 0.08949726 0.093968086 -0.06846649 -0.06130229
0.12711734 -0.04073004 0.004390165 -0.11870788 -0.05725241 0.031225458 -0.033033628 -0.08496444
0.011551959 -0.081880085 -0.0904817 -0.057586882 -0.093569286 -0.09046942 0.09650173 0.09208585
0.03275664 -0.064057454 -0.095315054 -0.05517287 0.022599053 -0.12209899 -0.043235745 -0.08599524
0.0039441967 -0.058345765 -0.015208544 -0.084384315 -0.10163886 -0.077294104 -0.045367993 -0.10501117
0.10013285 -0.024587642 0.11283586 0.04489346 -0.09438463 0.08755936 -0.02468614 -0.05387806
-0.1110032 -0.11472663 0.027372096 -0.027305484 0.03996619 -0.08568902 0.07122107 -0.10641939
-0.037267867 0.024173364 0.046024933 0.08290063 0.110075146 -0.0914908 0.027002927 -0.049483832
-0.051449407 -0.12422903 0.09525555 -0.11219812 0.063677646 0.02230312 0.027376374 -0.091604955
0.09222994 0.008974638 0.004079656 -0.13207187 0.035043128 -0.039967954 -0.08290667 0.07989311
0.016825674 -0.09038154 -0.043750197 -0.029936517 0.06930619 -0.0593679 -0.034493957 -0.060778506
-0.08625202 0.04457906 0.09175195 -0.08004171 -0.0012797966 0.026492573 -0.009019221 -0.06681569
0.035050575 0.031690847 0.08104584 -0.04935815 -0.031020734 -0.0072724484 0.014404549 -0.004539771
0.11484619 0.14077707 0.018412525 -0.00029432436 0.019911155 0.014330801 0.055840965 0.0659515
-0.0855942 -0.024647009 0.13476905 0.067647465 0.017999941 -0.05733271 -0.07608788 -0.10410553
-0.037686653 0.061386477 0.049803905 0.065983616 -0.14179653 -0.120240636 -0.05522917 0.12091869
-0.0031186666 -0.065742336 0.07028955 -0.015738888 -0.056207206 0.117604084 -0.031227263 0.0063101887
-0.15533593 0.118420094 0.085576504 0.092752516 -0.047788028 -0.09826052 -0.064755484 0.13440834
0.07400541 0.13888386 0.093974836 0.059448294 0.035076544 -0.058343556 -0.07482023 -0.079105966
0.08961791 -0.035833042 0.0028424547 -0.039363917 0.013214295 -0.071376696 -0.1055895 0.049968056
-0.012141049 0.08511097 -0.008885025 -0.07369679 0.013794469 -0.060593426 -0.055606976 -0.14735922

lstm.weight_hh_l0 f4 [256, 64]
00000000: 5bc2 a8bc 1a75 843d c5c5 ad3d 6152 d3bd
00000010: c2dd a2bd 35a6 b4bc 2a18 b9bd 5a0b 72bd
00000020: 50f4 993d ac14 59bd ee9c 23bd 8c52 55bc
00000030: 037e e93d 4339 e83d b0d8 753d 891d 0dbe
00000040: 655d b7bc 45d2 a63d 5442 cd3d 8d78 54bd
00000050: c2c3 c83d 081e ed3c 7c02 4e3d 1ece bb3d
00000060: 4c01 823d 999b 7bbd 9e84 88bd 57d2 a43d
00000070: 14b0 583d bf03 6fbd f50c 093e 6626 583c
00000080: 9570 b3bd 2ac3 cfbc f503 cebd db23 afbb
00000090: 7984 0fbe d0ad 133e c24d fbbd ce1c 7c3d
000000a0: 3d5c 82bd 9553 633c f73e 75bd 3fad 7d3d
000000b0: 9893 c53d ee35 18be d00a b3bd 1c87 a8bc
000000c0: 7f18 14bc 04a8 ddbc 8c8a 863b b207 9eba
000000d0: bf29 e93d ecb0 053b f655 c0bd b1e4 ed3b
000000e0: f384 aebd cb84 c2bd b8a0 903d 85ee e6bc
000000f0: 8b8d 0cbe d80a c03c 9413 473c f7d7 453d
00000100: f5ca 923d d455 1bbe 8221 52bc 059b 9ebd
00000110: b4c3 133e 759b 94bd 5094 a5bd 5498 9dbc
00000120: a101 2f3d 27c4 b63c fa76 a43d 1c2b 7d3d
00000130: e039 283d d59b 163e 555c 1d3d 00de d03d
00000140: 1ab5 9dbd ab01 0f3d 1792 15bd d560 94bd
00000150: bf6c 06bd ad6a 803d cf7b f73b 0b6f 9a3d
00000160: 4483 523d 4cbf f63c 327e e03d b983 823d
00000170: 434b 32bc 8c93 8dbd bd8a e83d 7ee0 ad3d
00000180: 04b1 443d 5081 74bd 72d1 b2bd 623a 813b
00000190: 627b 93bc e9d4 a0bd c938 f93c bcfa dabc
000001a0: d349 ef3d d9c5 113d 163f 05bd de0f 053e
000001b0: 069b 11bc 6884 52bd 2a57 5b3d c83b d23d
000001c0: 8c5e 173d 08d1 3c3c 5e6d 983d 9027 b7bc
000001d0: 9fad 123e 73a3 d7bd 3709 1c3d 13ec 923d
000001e0: deb7 b83d 549a 5bbd 727d d93d af22 cd3d
000001f0: 093b f3bd ce12 1bbd f66f ccbd 1e6e 2bbd
00000200: 14d7 a6bb cb7e 13bd 225e 9ebc e777 903d
00000210: 806e 45ba 2e0f 1dbe 3361 363d 28d6 d0bd
00000220: 68b9 bebd 75c8 b03d c566 ac3d ddf1 c6bb
00000230: 086f b1bd 34c0 093d 1761 ebbd b54f 5b3d
00000240: 2cc6 f03d 429a 6b3d d013 473c 6fe3 843c
00000250: 99c8 d2bd ba1b 5bbd c263 e73d 4cee eb3d
00000260: 8ca6 1cbc 537d 0c3d 85b9 c7bd 2e19 b63d
00000270: 8b09 d9bd d4d0 aebd eaf6 c83d 6542 fdbc
00000280: ed43 9bbd 65da 833c c8cc c03d 5e19 d23d
00000290: 2906 1d3c 1d45 ee3d 0d5e d23d 1600 3dbd
000002a0: 3451 8fbd ed27 c4bb 592b 86bd a25e 8e3d
000002b0: 8d9d 7abd cc55 b7bd 76f4 a7bd 2c53 d8bd
000002c0: d184 f03d fd3f 22be f967 a23c 47be d9bd
000002d0: 319a 90bd 536c 0ebd 38fa 283d 0319 9a3d
000002e0: 57e7 e5bc 8c71 52bb fddf 8abb 9688 f53d
000002f0: 9e5d 373d 70ae 2ebd c351 a53d ef7c c1bd
00000300: 006d 1e3d 4853 f73d 1685 69bd f197 a53c
00000310: d7b5 2a3d 9b03 a2bd dffa 5b3d 3d95 873d
00000320: be15 6bbb 3f16 733b ff92 18bd e217 84bd
00000330: bfbb c73b 9612 0dbe 510f b0bd f265 73bd
00000340: 42f4 19be 4d08 a73d 13c9 0abd 0762 97bd
00000350: 574c a23b 6444 8f3d 3ec6 b43d 2b43 edbc
00000360: 9bf5 cdbc 8634 a2bd ae6f 04be af12 a6bd
00000370: c77c 0b3d 0e6d 48bd 777b 47bd 3d47 043d
00000380: 621c 2b3d a7ef ae3d f805 1b3d 0cab 4b3d
00000390: 8604 3cbd 76be d53d 6026 16be 8bd4 603d
000003a0: 3fa1 bfbd 2645 9b3c d449 0ebe f313 45bd
000003b0: 2a5c 8a3d 1175 8cbd 9f78 be3d 4db1 0837
000003c0: 6967 bb3d e265 e63d 7cc7 23bd 95e8 20bd
000003d0: 42f3 1fbd 57bc 94bc cfa2 6e3d d47a dfbd
000003e0: 8b12 d3bd 6e78 faba 4b85 03be 52ea 05be
000003f0: 8629 773d 03eb a9bd 2be1 d33d 2f36 cbbd
-0.020600488 0.06467648 0.08484987 -0.10318447 -0.07952453 -0.02205191 -0.09037812 -0.059092857
0.07517302 -0.05299823 -0.03994458 -0.013020169 0.11400988 0.11339047 0.060021102 -0.13780798
-0.022383401 0.081455745 0.10022417 -0.05187278 0.09802963 0.028944984 0.050295338 0.09170173
0.063479036 -0.061427686 -0.0666592 0.08047932 0.052902296 -0.058353182 0.13383849 0.013192749
-0.08761708 -0.025361616 -0.100593485 -0.0053448505 -0.14015378 0.14421773 -0.122706905 0.061550908
-0.06365249 0.013874908 -0.0598745 0.0619328 0.09647292 -0.14864323 -0.08742297 -0.020572238
-0.009039043 -0.027057655 0.0041058715 -0.0012056737 0.113849156 0.0020399643 -0.09391396 0.007259928
-0.08521452 -0.094979845 0.07061905 -0.028189907 -0.1372587 0.02344267 0.012150664 0.048301663
0.07167617 -0.1516946 -0.012825372 -0.077444114 0.14430124 -0.072562136 -0.08084929 -0.019237675
0.042726163 0.02231033 0.080305055 0.06180869 0.04107082 0.14707883 0.038418133 0.10198593
-0.07700558 0.0349137 -0.036516275 -0.07245032 -0.032818552 0.06270347 0.007552601 0.07540711
0.051394716 0.030120514 0.1096157 0.0637278 -0.010882202 -0.06912908 0.11354587 0.08490084
0.048020378 -0.059693635 -0.08731355 0.0039437274 -0.01800317 -0.078531094 0.030422585 -0.026730888
0.11684003 0.035589073 -0.032530867 0.12994334 -0.008887058 -0.051395804 0.053549923 0.102653086
0.0369554 0.011524446 0.07442735 -0.022357732 0.14324044 -0.10529222 0.038094725 0.07173934
0.09019445 -0.053613976 0.1061963 0.10016381 -0.118764944 -0.03785973 -0.09982292 -0.041853063
-0.0050915573 -0.03600959 -0.019331995 0.070541196 -0.00075314194 -0.15337822 0.04452629 -0.10197097
-0.09312707 0.08631984 0.08418039 -0.006071313 -0.08663756 0.033630565 -0.11493128 0.05354281
0.11756548 0.05752016 0.01215072 0.01622173 -0.10292167 -0.05349324 0.11298324 0.11520061
-0.009561192 0.034299206 -0.09752182 0.088915214 -0.10597523 -0.085359246 0.0981272 -0.030915448
-0.07581315 0.01609535 0.09414059 0.10258745 0.009583988 0.11634276 0.10271845 -0.04614266
-0.0699791 -0.005986205 -0.06551237 0.069516435 -0.06118541 -0.08951911 -0.08200924 -0.10562739
0.11744083 -0.15844722 0.019824969 -0.10631996 -0.0706066 -0.034771275 0.041254252 0.07524302
-0.028064413 -0.0032111136 -0.0042381273 0.11988942 0.044767015 -0.042646825 0.080722354 -0.09447657
0.03867817 0.120764315 -0.057011686 0.020214053 0.041677322 -0.07910844 0.053706046 0.06620262
-0.0035871114 0.0037092117 -0.03724956 -0.06449868 0.006095379 -0.13776621 -0.085966714 -0.059423395
-0.15034583 0.0815588 -0.033883166 -0.07391744 0.004952948 0.06995466 0.08826874 -0.028962692
-0.025141528 -0.07920174 -0.12933227 -0.08109032 0.034054544 -0.048932128 -0.04870173 0.0322945
0.041775115 0.08541804 0.03784749 0.04972367 -0.04590275 0.10436718 -0.14663076 0.054890197
-0.09356927 0.018953871 -0.1389535 -0.04811473 0.0675586 -0.06858266 0.093003504 8.147513e-06
0.09150583 0.11249901 -0.039985165 -0.039284308 -0.039050348 -0.018156214 0.058260735 -0.109120995
-0.10306271 -0.0019109377 -0.12843816 -0.13077667 0.060342334 -0.08296778 0.10345682 -0.09922444

lstm.bias_ih_l0 f4 [256]
00000000: 3ea4 aebc 9ec6 8f3c fd3e 0dbd a1aa fdbd
00000010: 4572 92bd 84d1 b83d c6cb 3e3d 9a0a 133e
00000020: 7dcd db3d 35bf b23c 79a3 bd3d b744 aa3b
00000030: da3d b43d 4bf3 a3bd 2811 c7bc 2ac8 cf3c
00000040: 0421 ed3c 6313 653d 5be6 033e ad95 103e
00000050: abaf 8cbd e9f3 ac3c e421 413c 183d 7a3d
00000060: db1a debd a411 803d 64cb 783d ce79 cf3d
00000070: 7e01 24bd ddb0 373d d519 973d 9de1 043e
00000080: 458b 2dbc 0476 ac3d 2476 b2bc 9e2c b63d
00000090: eb34 d9bc 52ea 513d d652 b0bd 4b6a 673d
000000a0: d611 91bd 3799 23bd 755a b8bc a523 5abc
000000b0: be9a ea3d 8f7f f53d a5bc aa3d d6f4 97bd
000000c0: 8d6b 023e de2d 193e cea8 243c 71ad 57bd
000000d0: cfde fb3d 1de8 d23d dc2e a03d 204c 0bbe
000000e0: 0f46 98bd 9659 c13d 4ff0 8cbd 2726 a13d
000000f0: eb34 b33d 1ff2 d8bb 2d38 0cbe 127e cbbd
00000100: 1cca 023e bad4 c63c cc97 733d f94c 94bd
00000110: 915d 54bd e566 a23d f197 8bbd 45ea 973d
00000120: 6382 dcbb 239d e73d eb5e 4abd 4cf7 aebc
00000130: 1eec 92bd 48d6 a43d a0e8 5abc 7f74 0fbd
00000140: 46f2 1ebe 476d f93d ba82 f83d 11cf 1bbd
00000150: 8680 71bc c65a ffbb a548 a1bd abac cabd
00000160: 3938 04bd dce7 4d3d b948 87bd fe9f 173e
00000170: 7de2 0cbc 5cdc 85bd 3ed0 a0bd 0e04 0d3e
00000180: a52c bd3a 2f0f 663d 78dc ec3c aed3 0a3e
00000190: 5d09 aebd 9e5c 7a3d 884b 873d 9c59 60bc
000001a0: 9f73 8bbd 7f7e 5fbb 74e5 1c3c d5ac 2fbd
000001b0: 2290 b6bd 819d 9a3d 9c32 e33c 610a a6bd
000001c0: 780f 82bb 297f aa3c 0938 963d c4c2 803d
000001d0: acce ca3d a6d7 91bc 62d8 913d be10 b0bd
000001e0: 419b 7a3d e9b4 75bd 852b 003e 0705 5a3d
000001f0: 5059 6e3b 4838 f6bb 6a7e 383d 68eb 6d3d
00000200: e99c 8d3d 68f7 b0bb 627a 91bd 2e4b 9bbd
00000210: fc08 05be 6fa2 9abd 0922 cabc bbf9 893b
00000220: 6456 d23d 9378 833d d14d b43c b562 ad3d
00000230: 8287 053e 8180 933d 7d75 0e3a a3ab 9b3d
00000240: 4cf0 b2bd c96e 9f3d 0b78 8b3d c7aa 1bbe
00000250: 4203 9bbd b640 613c f8f5 833d cede b43d
00000260: e2ea b5bd 7da4 143e c2ef be3c 0025 d73a
00000270: e650 2ebd db4a 5c3d 18d5 ab3d 0c2a 2f3d
00000280: 1044 0cbe bcb3 c7bc a1ce 05be 541c 1ebe
00000290: 0add b23c fb0d d13a 2b89 03be 5a47 fbbd
000002a0: 2a5c 093e a5b3 133e 62af fbbd 56cc c8bd
000002b0: ebf3 a33d e330 1ebd 7b52 cc3c c081 9abc
000002c0: 5a0a 273d 256d 1abe 5372 13be e62f a23d
000002d0: 73b6 ae3d 9bfb 403d ec57 92bd f202 b0bd
000002e0: 7fe2 4bbd a667 babd e857 a7bd aaaa a23d
000002f0: ea8a b5bd b663 19be 2d97 3dbc 812a be3d
00000300: 9ce9 c93c 0ce1 c4bd f737 ad3d e86e 80bd
00000310: 15bd c73d d5fa 82bd 7b09 0e3e f493 25bc
00000320: 1112 fe3d eb72 bf3d fe73 f73d 454a 3a3d
00000330: 0723 37bd 5f66 2d3c f37c 033e 1787 b2bd
00000340: 74d0 573d 3bdf 133d e88f df3d 4a04 50bd
00000350: 62fc 9abd 4998 953d 0219 90bc e429 07bd
00000360: 8366 ef3b 9bf4 d53d 69d9 8cbd 2fb4 d43c
00000370: e239 3abd 13e7 3d3c 7fea 14bd a46e 0e3e
00000380: 2f11 c33d 9c9e 3a3d 9779 86bc 3863 d73d
00000390: 4d7c 3bbd c570 adbd 6885 8dbd 6a6f a7bc
000003a0: 1b67 7fbd 86f0 d73d 155d 4b3c 91f4 5dbc
000003b0: d100 80bd c479 053e f332 033e 9f28 aabd
000003c0: 55bb 083e 07e8 a03c 77f4 48bc 9a76 743d
000003d0: 9a4d 86bd 5c9e 05be 51dd c03c 33ea bb3d
000003e0: 0bcf df3d 8683 f23d 2773 ba3d b3e4 623d
000003f0: 879d 0e3d cf1a 04bd c705 ee3d 524e ed3d
-0.021318551 0.017550763 -0.0344839 -0.123860605 -0.071507014 0.09024337 0.046581052 0.14359513
0.10732553 0.02181969 0.092596956 0.0051961797 0.0880086 -0.08005389 -0.024300173 0.025364
0.028946407 0.05592669 0.12880842 0.14119597 -0.068694435 0.0211124 0.011787865 0.06109342
-0.10844966 0.06253365 0.060740843 0.10130654 -0.040040486 0.044846404 0.07377974 0.1297669
-0.0105922865 0.08420947 -0.02178485 0.08895229 -0.026514491 0.051248856 -0.0860955 0.056497853
-0.0708348 -0.03994104 -0.02250407 -0.013314162 0.11455296 0.119872205 0.08336762 -0.074197456
0.1273634 0.14958903 0.010050012 -0.05265564 0.12298357 0.10298178 0.07821438 -0.13603258
-0.074352376 0.09440915 -0.06881773 0.07868605 0.08750328 -0.00662066 -0.13693304 -0.099361554
0.12772411 0.024271358 0.059470937 -0.07241244 -0.051847044 0.07929782 -0.0681609 0.0741773
-0.0067294105 0.11309268 -0.049406927 -0.021358155 -0.07173942 0.080486834 -0.013361126 -0.03502321
-0.15522107 0.12179046 0.12134309 -0.03803927 -0.014740115 -0.0077928035 -0.07875184 -0.09896215
-0.03228018 0.050269946 -0.066056676 0.14807126 -0.008598921 -0.06536171 -0.07852219 0.13771078
0.0014432861 0.056166824 0.028913721 0.13557312 -0.0849788 0.061123483 0.06606203 -0.01369324
-0.06809162 -0.0034102497 0.00957619 -0.042889435 -0.0891421 0.07549573 0.027734093 -0.08107448
-0.003969129 0.020812588 0.073349066 0.062871486 0.09902701 -0.017803025 0.0712135 -0.08596943
0.061183218 -0.059986982 0.12516601 0.05322745 0.0036369152 -0.0075140335 0.045042433 0.05808583
0.06914694 -0.005400587 -0.07103421 -0.07582699 -0.12991709 -0.07550513 -0.024674432 0.0042106784
0.10270384 0.06419482 0.022009762 0.084660925 0.13039973 0.072022445 0.0005434377 0.076010965
-0.08737239 0.077848025 0.06810006 -0.15201865 -0.07568981 0.013748338 0.06443399 0.08831559
-0.08882691 0.14515872 0.023307685 0.0016414225 -0.04255762 0.053782325 0.08390254 0.04276471
-0.13697839 -0.024377696 -0.13067104 -0.15440494 0.021833915 0.0015949601 -0.12845294 -0.122694686
0.13414064 0.14423998 -0.12289311 -0.09804599 0.08005508 -0.03862084 0.024941674 -0.018860698
0.040781356 -0.15080698 -0.1439908 0.07919292 0.08530893 0.04711495 -0.07145676 -0.08594312
-0.04977655 -0.091018006 -0.08171064 0.07942708 -0.088643864 -0.14979443 -0.011571688 0.09285451
0.024647526 -0.09613237 0.0845794 -0.06271154 0.097528614 -0.06395499 0.13870804 -0.010106076
0.1240579 0.09348091 0.12082671 0.045480985 -0.04471114 0.010583489 0.12840633 -0.087171726
0.05268903 0.03610156 0.1091612 -0.05078534 -0.075676695 0.07304437 -0.01759005 -0.032998934
0.0073059215 0.104470454 -0.06877405 0.025964824 -0.045465358 0.011590737 -0.036356445 0.13909394
0.09524762 0.045561418 -0.0164154 0.10516971 -0.04577284 -0.08468775 -0.06910211 -0.020438869
-0.06235419 0.10543923 0.012412329 -0.013547079 -0.06250156 0.13034731 0.12812404 -0.08308529
0.13352711 0.01964189 -0.012265316 0.05968342 -0.0655777 -0.1304869 0.023543032 0.09175529
0.10928162 0.11841492 0.09103995 0.055393886 0.0348182 -0.03225213 0.11622196 0.11587204

lstm.bias_hh_l0 f4 [256]
00000000: f0fc 9cbd c762 e7bd 45e8 97bc 30ad a1bd
00000010: 86df ccbc ab24 f53d d293 8439 0168 103e
00000020: 6489 fbbb 62ed 393d 6ab5 873c 9881 46bc
00000030: 6856 a83b bc5d 29bd b52c 92bd 11fa f93c
00000040: 1c10 113d d3b4 283d dad9 383d 432e 40bc
00000050: baaf d0bd 6c3c cb3d 2d92 233d 9096 d3bd
00000060: d56e c13d 300d adbc c2bf a6bd 6c8b 4cbd
00000070: b806 13bd f5d0 92bd c4c0 ee3c 1222 46bd
00000080: 55b1 29bd 92e1 fe3d 7d10 a1bc 8dbc c73c
00000090: 6ccb 6fbd 6575 5c3c 121b 86bd 56ed 57bd
000000a0: 62d8 82bd 1273 92bc b87a 5b3d 282c aa3d
000000b0: 6abe bc3d 28c8 15bd 87a0 a8bd 401c cebc
000000c0: fa52 1b3e c623 153d 06b1 123e 3d59 ec3d
000000d0: cbb0 da3d ad56 bdbc d8e8 5c3d d04b c3bd
000000e0: 9103 f83c f585 5d3d 5278 10bd ca87 7bbd
000000f0: 27e8 46bd bc4c 053d 98c7 2abd d8c5 6e3d
00000100: 94b9 1abd 7744 c03d ae67 77bd e51b 8c3d
00000110: 8462 e03d 37ff 003e defe 32bd 8b4f 69bd
00000120: 1321 60bd d47d 3abd f9ca 27bc 2dc4 1fbc
00000130: 9a0b 8a3d b212 f73d 28e7 6d3d 861a 183c
00000140: 3842 9fbd a2db a8bc 90f7 e63d a500 97bd
00000150: cb7d 07bc 740b b3bd 3f8d 38bd 3187 d3bd
00000160: c496 0cbe 5d10 0b3d 2572 41bd 0580 533d
00000170: 4e85 f63d aaa5 f239 d9f9 1f3d f113 1cbd
00000180: f4e7 d23d 5efd d53d 89b8 f1bc e661 85bd
00000190: 798c d43d c48b de3d 9294 893d 58e4 f33c
000001a0: 6b2d 393d a89d 473d 9fee 203d 189c 47bc
000001b0: 818f 363d fa56 133e 5401 dcbc f350 d4bd
000001c0: d8c4 6fbd a1cd ce3c 004b 7d3d 6902 e03c
000001d0: a8f3 d53d fb7f d13b 68d6 b53d 02e2 d6bd
000001e0: db1e a73d 7996 9a3d 79d6 743d 3e37 883d
000001f0: 170b cebd 1e19 1c3e c672 c7bc 9b1a eebd
00000200: 0e13 a13d cd67 443d 0065 db3d 1a45 d53d
00000210: 76cb 723c 1834 233d bc17 1f3e e724 ab3d
00000220: 07dd 733d befd a83c ba91 00be ef38 973d
00000230: 8e4f 7fbd b59a d2bc cf71 11be bbf0 1abe
00000240: 7f41 03bd 61b6 e7bd 52e1 6e3d 45ca 34bb
00000250: 99b9 7abb aae1 173e 2c0f 883d a340 743d
00000260: 1aa1 68bd 7a37 98bd 702f 46bc 777a e53d
00000270: 22ce f2bd 8eba ebbd 7de2 fe3c 0988 9d3d
00000280: 2619 1e3d 6f01 023c 12ce 44bd 0097 a0bd
00000290: 6264 c5bc be09 e53d e978 e1bd e8a9 09be
000002a0: d227 c53a 0f89 093d 6829 d23c b62a 473c
000002b0: 54ea ff3d 5fff 6abd 53de 9c3d 64e9 88bd
000002c0: e0af dcbd 5a2b cebd 1875 a03d bec6 58bd
000002d0: 7c99 b3bc 1337 6d3c aee0 eebd 2205 3f3c
000002e0: 51a1 afbd 5e10 a53d 8519 f83d f2d2 af3d
000002f0: 276f 693d 9aa7 263d 6166 3e3a f910 053d
00000300: 2737 0b3d 8312 10bd a883 013d 4204 b2bd
00000310: 4b53 d5bd 8bf1 c13c bae3 1ebd 183e 0cbd
00000320: dcf8 853d 45a9 59bb 1835 133e b491 35bd
00000330: 9117 b2bd 8e9f 1e3d 1e4b 253d 29ac 3e3d
00000340: 801a 4d3d 34ab 91bc d6fd c7bd 51aa ed3d
00000350: 38ca e5bc 259a 0f3e ca8d 39bd 34cb de3d
00000360: dff7 ff3b e20f e2bc 5f34 71bc e541 1c3e
00000370: 4c42 dd3d be6c c8bd 0c12 fdbc 9e95 63bc
00000380: b7b6 703d 1e7f 93bd 914b 80bd f85d 313d
00000390: f30a d83c ab3a 61bd 2c99 a73d 9035 033e
000003a0: 05b8 d8bc dc9a 193e c779 603d 94f6 4c3d
000003b0: 707c a8bc 9955 043e f48b cf3d 2bce efbd
000003c0: 0de7 853d aac1 56bd 5659 eabc 3705 5abd
000003d0: aaab 073d ffca 4fbd 12d0 7e3b 51fe c73d
000003e0: 30d8 103d 7a4c a6bd 8112 0cbd 8c48 a0bd
000003f0: 487a 20bd 40f4 e93d 2c13 573d 87e7 cbbc
-0.076654315 -0.11298137 -0.018543372 -0.07894361 -0.025008928 0.119698845 0.00025287137 0.14102174
-0.0076762903 0.0453924 0.016565997 -0.0121158585 0.0051372536 -0.041349158 -0.071374334 0.030514749
0.035415754 0.041188072 0.045129634 -0.01172978 -0.10189767 0.09923634 0.039934326 -0.10331452
0.09444968 -0.021124452 -0.08142044 -0.04993765 -0.03589508 -0.07168762 0.029144652 -0.048372336
-0.041428883 0.12445368 -0.019661183 0.0243819 -0.058543608 0.013455723 -0.06548132 -0.052716576
-0.06388928 -0.017877135 0.05358383 0.083092034 0.09216006 -0.036567837 -0.08233743 -0.025159955
0.15168372 0.03641107 0.14325342 0.11540458 0.10678252 -0.02311262 0.053932995 -0.095359445
0.030275138 0.05408283 -0.035270996 -0.061408795 -0.04856124 0.032543883 -0.041694254 0.058294147
-0.037774637 0.09388059 -0.06040161 0.06841258 0.1095629 0.12597357 -0.04370009 -0.056960624
-0.054719042 -0.045530155 -0.010241264 -0.009751362 0.06740494 0.12064113 0.058081776 0.009283667
-0.07776302 -0.020612542 0.112776875 -0.0737317 -0.0082697375 -0.08742419 -0.045056578 -0.1032852
-0.13729388 0.033951152 -0.047227997 0.05163576 0.120371446 0.00046281266 0.039056633 -0.038104955
0.10298148 0.104487166 -0.029506939 -0.06512813 0.103783555 0.10866502 0.06717791 0.029771969
0.04520933 0.048734337 0.039290067 -0.012183212 0.04457045 0.14388648 -0.026856102 -0.10367002
-0.058537334 0.025244536 0.061839104 0.0273449 0.10446864 0.0063934303 0.08878785 -0.10492326
0.08160182 0.07548232 0.05977485 0.066511616 -0.10060709 0.15243956 -0.02434672 -0.11626168
0.078649625 0.047950555 0.107126236 0.10413571 0.014819017 0.039844602 0.15536398 0.08356648
0.05953696 0.020628806 -0.1255559 0.07383906 -0.06233173 -0.025708536 -0.14203571 -0.15130894
-0.032044884 -0.11314083 0.05832035 -0.0027586382 -0.0038257597 0.14832178 0.06643519 0.059631955
-0.056794263 -0.07432456 -0.012096271 0.11204999 -0.11855723 -0.11510192 0.031113857 0.07691962
0.038598202 0.007934912 -0.048048086 -0.07841301 -0.024095718 0.11183499 -0.1100939 -0.1344372
0.0015041775 0.033577975 0.02565451 0.012156179 0.124958664 -0.057372447 0.076595925 -0.06685141
-0.10775733 -0.100668624 0.07834834 -0.05292391 -0.021923773 0.014478463 -0.11663948 0.011658939
-0.085756905 0.080597624 0.121142425 0.085851565 0.05699077 0.04068718 0.00072631805 0.03248689
0.033988144 -0.035173904 0.031619698 -0.08692218 -0.104162775 0.023674747 -0.038791396 -0.034238905
0.06541607 -0.0033212465 0.14375722 -0.044328406 -0.08695901 0.038726382 0.04035484 0.046550903
0.0500741 -0.017781831 -0.09765212 0.11604751 -0.028050527 0.14023645 -0.045301236 0.10878602
0.007811531 -0.027595464 -0.014721959 0.15259512 0.10803661 -0.09786366 -0.030892394 -0.013890652
0.058768 -0.0720198 -0.06264413 0.043302506 0.026372408 -0.05498759 0.08183512 0.12813401
-0.026454935 0.1500048 0.054803636 0.050039843 -0.020567149 0.12923278 0.10134116 -0.11709245
0.0653821 -0.052430786 -0.028607052 -0.05322763 0.033122696 -0.0507307 0.0038881344 0.09765304
0.035362422 -0.081200555 -0.034197334 -0.07826337 -0.039179116 0.1142354 0.052508518 -0.024890674

lstm.weight_ih_l1 f4 [256, 64]
00000000: 03fc c93d 73b4 6dbc fcce 0a3e d86e c5bc
00000010: 532b b9bd d15c a4bd 7f1f d43c b4d5 173e
00000020: 71c2 5b3d 75cf b4bd 81a8 223d f8e9 053e
00000030: 69a1 40bd d696 a7b9 c150 c23d 5458 cb3d
00000040: 3501 f53c 82c8 d73d 2d0b 283d 2324 8cbc
00000050: 9637 f7bc 3b96 78bc f135 423d 1e42 a43d
00000060: 4dce 013d 9b1f 8abd 376f 113e 6956 95bc
00000070: 1862 b2bd 13c7 593d b7f7 6b3d 5131 d23d
00000080: 07a7 08bd 15a1 06be ea43 1c3e f8dc e63b
00000090: d4b9 1a3d 6c50 193e e7c1 8e3d 5268 843d
000000a0: 1ff5 4e3d 832e eb3d df22 113e 7c15 113e
000000b0: a955 a53d 407b b93d 4d00 583c 2c07 82bd
000000c0: a5ee 0ebd e846 423d c009 1dbd 1107 563d
000000d0: 4bf6 183d 7668 5cbd 93e5 b2bd d459 42bd
000000e0: 0c6f 45bd 5bde 7dbd e0e0 26bc 3a93 6abd
000000f0: 83e8 ae3d 702a a8bd 4f4e 923d f9ef 133e
00000100: bf6a b03d ec11 093e 7095 3d3d d509 0abe
00000110: 74c2 c2bd e948 113d b195 243d 3c6f 3f3d
00000120: b552 48bd dd24 20bd 226c b0bc 4425 ae3d
00000130: cff5 ac3d b6e2 08bd c36c 673d 72cb f0bd
00000140: 1f5b e9bd 1d54 bf3c b2e0 0a3e 1f2c c8bd
00000150: 6db1 99bd a26e 8e3d 14c1 7f3a 509c 84bd
00000160: cb1c babd 94e8 bfbd fce8 72bd 8b8d 133d
00000170: 0569 6cbd 2e73 22bd 49d8 88bd 66de d73d
00000180: 1e3e 9a3d 6750 f3bb 6834 ac3b e2af bf3d
00000190: 6d91 74bd f67f aa3c 2be0 8ebd eea3 3abd
000001a0: 7451 b33c a3ed 5fbc 1da4 1cbe 738b a63d
000001b0: 438a c0bd 05f5 2e3d f80e 1c3d a7de 8ebb
000001c0: 8e75 e43d 848e 623d 5241 c23d 395f 693d
000001d0: 0fb7 fdbc 768e 4f3c 2c96 a9bd 76bb e9bd
000001e0: 232e f8bc bfdc 7bbd 877d fd3c 3bb1 2dbb
000001f0: fc25 7ebd cb59 c7bc bcfe d7bd 75ba 4ebd
00000200: 0250 16bd 912f 953d a166 9ebc 8d7d a4bd
00000210: cfed 963b 5ece 123d fd63 6b3d edd1 123e
00000220: 7015 8e3c 708a 6c3c 8437 f7bd 756b eb3c
00000230: 84ed a73d 0653 0ebc b039 3ebd 7c2b 1339
00000240: e99a 5fbd 00ec a3bc 7b31 03be bfb0 71bd
00000250: 72ff c03c 9aca 87bc c49e 02bc e7de 61bd
00000260: 10df ffbc cf68 fa3d 67d2 d53c e8de e83d
00000270: ad1d 8ebd aaef 8d3c 66a8 4b3d 2772 303d
00000280: c064 e8bd 46e1 143d 770d 283d 0311 f9bd
00000290: 5985 0bbe 5026 ebbb b231 88bd 8903 0ebe
000002a0: 174c d93c 5db2 17bd d148 79bd 72d0 033e
000002b0: 353a bb3d 5d95 c03d 22bd c13d 24ce f5bd
000002c0: 3355 cb3d ca70 24bc 8cad 183c 92c9 adbd
000002d0: 7917 0a3d b60d 6b3d 6ff1 1cbd 5449 27bc
000002e0: 0572 27bd 939e 183d 0cf1 c0bc 0360 993d
000002f0: 8d8f ebbd 05ff cebc a432 ca3d 6e1d 02bd
00000300: 6109 7dbd 0fc7 1e3d 3a56 70bd 6509 3ebc
00000310: 7808 8ebd 7657 e0bd f004 bebd a783 2f3d
00000320: cf9c ce3c 1a25 92bd e033 12be c500 213d
00000330: 8fe1 d93d 58a7 cbbc 4f15 d93b c14a ca3d
00000340: e48b 023e 95c8 d73d 6d19 513d d94a 593d
00000350: 94f3 cfbd db10 d4bd 3abf bfbd 0fc9 a63d
00000360: 0538 c83d 2943 223e 29a6 96bc eed2 b3bd
00000370: db48 babd 412e 733d aca4 533d f3df 123e
00000380: 4bb0 eb3c f793 81bd 0a78 18be 4ef4 98bd
00000390: b09b e83c 054d 3a3d 2001 85bd fe72 c2bc
000003a0: 54fe 80bd 14ca 593d 6ada 99bd a701 91bc
000003b0: 93b7 6c3d fdb7 d3bd b99a 8bbc 852c f7bd
000003c0: 5ab5 1ebd 6897 0b3c 80bf b7bd d84a c73d
000003d0: 5ee1 9bbd cb0f 6b3d 533f 443d c786 87bd
000003e0: 7eed a73d f480 713d df4a a6bc 0c4e 3c3d
000003f0: f462 cc3d a37f 7a3d 2c37 b7bc 3b58 b73d
0.098625205 -0.0145083545 0.13555521 -0.024100706 -0.090414666 -0.08025516 0.025893925 0.14827615
0.05365223 -0.08828632 0.03971148 0.13077533 -0.047028933 -0.00031965104 0.09488059 0.09928957
0.029907802 0.10536291 0.041026283 -0.017107075 -0.030177873 -0.0151725365 0.047414724 0.08020423
0.031690884 -0.067443095 0.14202581 -0.01822968 -0.08710116 0.053168368 0.057609286 0.102633126
-0.033362415 -0.13147385 0.15260282 0.0070453845 0.037774876 0.14972085 0.06970578 0.0646521
0.050526734 0.11483481 0.14173459 0.14168352 0.08072979 0.09056711 0.013183665 -0.06349024
-0.034895558 0.047430903 -0.038339376 0.052252833 0.03734426 -0.05381056 -0.08735194 -0.047448948
-0.048201606 -0.061979633 -0.01018545 -0.057269312 0.08540442 -0.08211219 0.071438424 0.14447011
0.0861411 0.13385743 0.046285093 -0.13480313 -0.09509745 0.035469923 0.04018182 0.04673694
-0.048907 -0.039097656 -0.021535937 0.085032016 0.08445322 -0.033419333 0.056500208 -0.11757554
-0.11394333 0.023355538 0.13562277 -0.097740404 -0.075045444 0.06954695 0.0009756249 -0.06475127
-0.09087523 -0.09370533 -0.059304222 0.036023658 -0.057717342 -0.039660625 -0.06681878 0.10540466
0.07531379 -0.007425356 0.0052552707 0.09359719 -0.059709 0.02081297 -0.069763504 -0.04556649
0.021889426 -0.013667497 -0.15296979 0.081320666 -0.09401371 0.042714138 0.038100213 -0.0043600383
0.11155234 0.055311695 0.09485115 0.056975577 -0.030971078 0.012668243 -0.08280596 -0.114127085
-0.030295437 -0.061489817 0.030943645 -0.0026503343 -0.062047943 -0.024334809 -0.105466336 -0.050470788
-0.036697395 0.07284463 -0.019336047 -0.080317594 0.0046059857 0.03584134 0.057468403 0.14337893
0.017344207 0.014437303 -0.12071136 0.028737763 0.081995994 -0.0086867865 -0.046441734 0.00014035212
-0.054591093 -0.020009995 -0.12811844 -0.05900645 0.023559306 -0.0165761 -0.007972423 -0.055144217
-0.031234294 0.12227022 0.026101304 0.11370641 -0.06939254 0.017326195 0.049721144 0.043077614
-0.113473415 0.03634765 0.041028466 -0.12161448 -0.13625087 -0.007176198 -0.06650104 -0.13868536
0.02652554 -0.037035335 -0.06086046 0.12872484 0.091419615 0.09403489 0.09459902 -0.12002209
0.0992836 -0.010036657 0.009318721 -0.08485712 0.03371379 0.057386123 -0.038316187 -0.010210354
-0.040880222 0.037260603 -0.02355244 0.07489016 -0.115019895 -0.025268087 0.0987294 -0.031766348
-0.061776523 0.038764056 -0.058675982 -0.0115989195 -0.06935209 -0.10954182 -0.092782855 0.042850163
0.025221257 -0.07135983 -0.14277601 0.039307375 0.10638725 -0.02486007 0.0066248546 0.098775394
0.12748677 0.10536305 0.05104964 0.053049896 -0.10153881 -0.103547774 -0.093626454 0.08143818
0.0977631 0.15845932 -0.018389778 -0.08780466 -0.09095927 0.059370283 0.051670715 0.14343242
0.028770586 -0.0632705 -0.14889541 -0.074684724 0.02839455 0.045483608 -0.06494355 -0.023736473
-0.06298509 0.053171232 -0.07512362 -0.017700983 0.057792258 -0.10337827 -0.017041551 -0.12069038
-0.03874717 0.008519985 -0.089720726 0.09731072 -0.07611345 0.05738811 0.047911953 -0.066175036
0.08199595 0.05896087 -0.020299373 0.04597287 0.09979811 0.06115688 -0.022365175 0.089523755

lstm.weight_hh_l1 f4 [256, 64]
00000000: 1eff b9bd a00e ea3c af10 e8bd a210 a23c
00000010: 57f6 d73c b30b 723c fc8f c2bd a2d9 ad3d
00000020: 81f2 073d 74f7 f43d 216a 89bc c0bf 10be
00000030: af24 b4bd c57d bebd 53c5 bcbc 57a6 7e3d
00000040: d8ba 103d aaa3 2fbc f824 8ebd 4016 ac3d
00000050: 8abb 803d 43c3 f6bd 8e69 b8bc 8459 d43d
00000060: 6e3b 823d 346b dcbc 7044 193e 870d 0a3d
00000070: 4b4e fabb 5079 8bbd 70b0 043e 6957 8f3d
00000080: c391 a8bd e843 653d f7a6 e1bd af61 8d3c
00000090: 86a7 d73d 8388 61bd b038 c9bd a702 a83d
000000a0: f8d5 de3c e32b a03d 8d1d 0d3d 60a5 103e
000000b0: dae5 c4bd 391a 17bd ffcc ae3d 70b9 813d
000000c0: 23ba b2bc a9ff 0d3e 9e85 1b3d 827a f3bc
000000d0: 1d4d 083e e939 43bd 73c0 e23d 9f36 23bc
000000e0: 9513 02be 4630 fb3c 7511 cfbd 46f1 00be
000000f0: 4891 82bd 9886 8c3d 6213 a43d 6fb0 85bd
00000100: c1bb 30bd 2acc 6dbd 6916 f13d 1ffe bb3d
00000110: cce5 b73d 984e d8bd 684b 27bd 4099 09bd
00000120: ae5e cf3d a6d0 ffbc b70d f9bd fb46 29bc
00000130: fcfe 97bd 1eb9 353d 75b4 993d b885 013b
00000140: 76b7 ee3d e069 9d3d 2da7 a03d 100a a9bc
00000150: af7c 90bd 1a68 783d 0a83 2bbb 4ca3 083e
00000160: 0d1a a1bd c367 053c 9e79 bd3d 8750 953d
00000170: 3cc0 a63b 1601 dbbd 6705 093e d728 483d
00000180: 10e9 2f3d 9330 76bd b902 013e 4809 3c3c
00000190: 8cfe 823d 0849 bd3d 9ced d63d b8c0 523d
000001a0: 198b 1bbd 5a23 b73b 3e4c d3bc e761 7fbd
000001b0: 25ef 9fbd f092 7c3d fb27 bb3c 6037 8ebd
000001c0: e640 a3bb f6b3 823d 3d8f 903d 1d21 4abd
000001d0: e6da a63c 7b6d 47bd 22c7 2fbc ab68 63bd
000001e0: 8d1c bcbc 4d9a d43c e04f f5bd c02c 993d
000001f0: e6ac bcbb 8942 b43d 36d4 253c 2807 5a3d
00000200: e573 993c 8412 d03c 75f6 1cbe 6811 ee3d
00000210: 6582 453d e207 8d3c af42 093e 3f71 4cbd
00000220: 51c5 073e e265 30bc 21b6 d93c 876d 0abe
00000230: 26c5 aa3d 98b5 7c3c ce19 0fbe c3fb 6dbd
00000240: 73c0 1ebd ecc3 0d3e aafb b8bd e9e5 573c
00000250: 9bc5 693d 0c9e 19be 47a2 a8bd 4bf6 0fbd
00000260: 200c 08be 432b aabd 93b7 5abd 7732 e1bc
00000270: 5a41 05be 454d b1bd d5f0 b5bd 5e69 f9bd
00000280: 61fc 86bd 69e7 79bd c679 003d 96dd a63d
00000290: d6f5 353c 6fe0 1d3d e088 edbd 2b77 633d
000002a0: a6b3 38bd 95be 1dbd 792a 103e 2220 b63d
000002b0: 8a28 8abc d901 6fbc 8286 be3c 6d3c a3bd
000002c0: f6f8 113e 75f4 73bd ceb6 4f3d de25 e43d
000002d0: 94ad 6f3d 2113 e93d e11d 08bd 72bb 42bc
000002e0: 1fba 8e3c ad1f 76bd 31c9 12be 0e03 77bc
000002f0: a7d0 993d 2668 d83d 996e 403d a03e 8e3d
00000300: e967 ce3d 6880 adbd 2e44 10be dcc6 053e
00000310: d184 4dbd 4307 b13c 5096 04bd 7c35 4f3b
00000320: f60f ff3c 4554 ef3d a1ec 19bd 8791 7d3c
00000330: 8d52 16bd 967d 903d 246d d3bb 1501 033e
00000340: b41e edbd 2dc2 95bd e6ef dc3d 6c84 b5bd
00000350: 7bdb 79bd badd 2c3d 5ae5 17bd 3280 cabd
00000360: fb3d b1bc 8a29 9d3d ee43 d83c 3f39 b3bb
00000370: e676 0cbe bd66 1bbd d1e0 ad3d 5362 02be
00000380: 1ced 053e 0ea8 d33c a4c8 053e 4cf7 17bc
00000390: 2ece cabd 1b0b 8c3d 044a 7ebd 4311 333d
000003a0: 2736 d0bc 1c0c e7bd 3548 ee3c ace7 52bd
000003b0: 287e d03d 1311 92bc c3e1 71bd b664 d8bd
000003c0: 6d8b 50bd 0fc0 dc3d 5d2c d53d be66 a43d
000003d0: 2558 d3bd 00e6 e6bb b30e 59bd 76a8 3a3d
000003e0: 1392 cb3d 0390 a23d 982a 3d3c 430b 05bd
000003f0: 8ff6 8dbd 72e4 4abd 0cbf 92bd f4f2 443d
-0.09081863 0.028571427 -0.11331307 0.019783322 0.026362581 0.014773297 -0.09500119 0.08488776
0.033190254 0.119612604 -0.016774239 -0.14135647 -0.08796059 -0.093013324 -0.02304331 0.062170353
0.035334438 -0.010720173 -0.06940645 0.08402681 0.0628577 -0.12048962 -0.02251127 0.10368636
0.063589916 -0.026906587 0.14967513 0.033704307 -0.007638728 -0.06810248 0.1295793 0.06999094
-0.08230927 0.055972964 -0.11018174 0.017258493 0.105299994 -0.05506183 -0.098252654 0.08203631
0.027201638 0.07820871 0.03445201 0.14125586 -0.09614153 -0.036890242 0.08535194 0.063341975
-0.021817273 0.13867058 0.037969224 -0.029721502 0.13310666 -0.04766265 0.11071863 -0.009961753
-0.12702782 0.030662667 -0.101107515 -0.12592039 -0.063753664 0.06861609 0.080115095 -0.06527793
-0.043147806 -0.058056034 0.117718525 0.09179329 0.08979377 -0.105618656 -0.040843397 -0.033593416
0.101254806 -0.031227421 -0.12160819 -0.0103318645 -0.07421681 0.044365995 0.075051226 0.001976354
0.11656086 0.0768621 0.07844386 -0.020634681 -0.070550315 0.060646154 -0.0026170635 0.13343543
-0.07866297 0.0081424145 0.09251712 0.0729075 0.005088834 -0.106935665 0.13380967 0.048867073
0.042946875 -0.060104918 0.12598695 0.011476822 0.06396207 0.09242445 0.10494539 0.051453322
-0.03797445 0.005588931 -0.025793191 -0.062349226 -0.07809285 0.061663568 0.022846213 -0.06944156
-0.0049821017 0.06381981 0.070585705 -0.049347986 0.02036805 -0.048688393 -0.010728629 -0.05551974
-0.022962833 0.025952483 -0.119781256 0.074792385 -0.005757916 0.08801753 0.010121396 0.05322948
0.01873202 0.025399454 -0.15328391 0.11624414 0.048220057 0.017215673 0.13404344 -0.049912687
0.13258864 -0.010766478 0.026576104 -0.13518344 0.08338384 0.015424155 -0.13974687 -0.058101427
-0.038757753 0.1384427 -0.09032376 0.013177373 0.057073217 -0.15001696 -0.08234077 -0.035146993
-0.13285875 -0.08309033 -0.053397726 -0.027489884 -0.13013211 -0.08657316 -0.08883826 -0.121783
-0.06591106 -0.061011706 0.031366132 0.08147733 0.011105975 0.038544115 -0.115983725 0.05553357
-0.0450932 -0.03851183 0.14078702 0.088928476 -0.016865034 -0.014587843 0.023257498 -0.0797051
0.14255127 -0.059559304 0.050711446 0.11140035 0.058515146 0.11380602 -0.03323162 -0.011885511
0.017422734 -0.060088802 -0.14334561 -0.015076412 0.075105004 0.1056674 0.046980474 0.069455385
0.10078413 -0.08471757 -0.14088508 0.1306414 -0.05017549 0.021609908 -0.03236991 0.0031617573
0.03113554 0.11685995 -0.037579183 0.015476591 -0.03669982 0.070552036 -0.0064522196 0.12793382
-0.11578122 -0.07312427 0.107879445 -0.08863148 -0.06100033 0.042203642 -0.03708396 -0.098877326
-0.021636 0.076739386 0.026399579 -0.0054694708 -0.13717231 -0.037939776 0.08490146 -0.1273282
0.13078731 0.02583697 0.1306482 -0.009275269 -0.09902607 0.06838056 -0.062082306 0.043717634
-0.025416447 -0.112816066 0.029087165 -0.05149047 0.101803124 -0.017830407 -0.059053194 -0.10566084
-0.050914217 0.1077882 0.10408852 0.08027409 -0.103195466 -0.007046461 -0.052992534 0.045570813
0.09939971 0.07937624 0.0115458 -0.032481443 -0.06931793 -0.04953427 -0.071653455 0.04808326

lstm.bias_ih_l1 f4 [256]
00000000: 1bdd 333d b7d3 cd3d 9e0d e43d 7536 96bd
00000010: f8cd e13c b837 8f3d 1970 b83d 8925 71bd
00000020: ddbc 9fbc 0717 c2bd fd52 213d 56f0 96bd
00000030: 2046 983d bc9d 96bd 8aa1 2e3d ce45 e13c
00000040: 222e a9bc 45a2 bdbd 7da3 a33d 2b19 043e
00000050: 1c57 d93c 15bc bc3d abde a4bd 4357 2dbd
00000060: eb83 0a3c acb5 133e 311d 483d 04c9 e1bd
00000070: 559a 343d 59fd 483d 7c8d 113d 92e3 cb3d
00000080: 1f3b b63d ef1f 03bc 2c67 9a3d 5e37 923c
00000090: 6af2 52bd 5df1 c23d dc8f 473d c9d6 e73d
000000a0: 994c 43bd 4af0 143c 339e c3bd 2492 a3bb
000000b0: c75b e13d e7a0 1dbb b53c 973d 6d85 ac3d
000000c0: c69b b6bd ff31 f73d 2ef8 84bd 73cc f13d
000000d0: 170d c03b 1579 c2bd 2e8f 163d 0e52 1e3e
000000e0: d371 a23d 9c74 243b 78ba 723d d100 ad3d
000000f0: 6878 b3bd 348a 95bd 5568 c9bd e8a9 e63d
00000100: 19ab 73bd baac 0ebd f784 c23d b152 58bd
00000110: d4bd 253b 9baa ee3d aeda 333d 146f b73c
00000120: a46c 8dbd 9bfa acbd ce29 c93a 09d6 0c3e
00000130: d52e 183c ef2b 9b3d 5644 1c3d f312 133c
00000140: cb6a c23d a3d3 c33c a7f0 8b3d 0eff 833d
00000150: 10a6 b63d 4f7a dc3d f06b 34bc 3b7d 24bd
00000160: fc4f 6f3d c7b4 d33d b211 043e 637b 7dbd
00000170: f49d 033d 711f cd3d 2f1a 9e3d d16e 0d3e
00000180: 8e09 063d 392c 9ebd ce11 113d ac0d 1abd
00000190: 7dc2 343d c748 b8bd 08c2 25bd 8bd2 df3c
000001a0: 63a8 533b 282d 87bd 4991 2d3d 12c4 60bd
000001b0: f263 c83d 508d 41bc a1f7 ea3d bdf3 1bbd
000001c0: b200 8f3d 20eb da3d dfc1 e53d a549 e3bd
000001d0: bf96 05bc e1ab a4bd 645e bebd af96 6ebd
000001e0: 1709 063e 49d5 ccbc ba98 05bd 83d1 a13c
000001f0: 9201 7b3d 9163 a43c 4591 b1bd ec5a 3c3d
00000200: 001d bf3d 0536 033e 2daf f03c 0104 cf3d
00000210: 055e 303d c803 cf3d fa4f 183e 6ed0 f9bd
00000220: 9bdc 003e b1da 91bd f5d2 cabd a1b9 10bd
00000230: c997 8c3d a0bd c1bd db46 5b3d d30e 72bd
00000240: 5439 1bbd d1f5 133d c06b 553d bdad a63b
00000250: b291 04be 3c73 643d afa1 5cbd 561f dc3d
00000260: 98d5 083d 7826 45bd fc37 d63c d02a d4bd
00000270: 1f6b d2bb 53c6 d4bc 7abb f6bc c6f7 10be
00000280: 0442 9e3d 399a 803d 0f12 c83d 405e 81bd
00000290: 0992 b1bd bc07 8abd 43d5 fbbc 3dad 113e
000002a0: 020c e4bc 9b0f b4bd d890 cd3b 837d d83d
000002b0: 7579 e23d a940 04bd d1da f53d e0f3 a6bd
000002c0: 11dd c6bd 6a8b dfbd 94f7 c5bd adb9 723d
000002d0: 939b 813d b857 4dbb 92db 89bc 3377 d7bb
000002e0: 8646 b03d 45ee 19bd 4875 07bd 09dc 91bd
000002f0: 2d49 063d 56ca 1cbc 2a2b edbc ea40 a4bb
00000300: ab0a d4bd 73c3 7bbd f885 05bc 67c8 bfbc
00000310: 01ae 03be 97e8 a43d 5500 a3bd 75b1 a9bd
00000320: 270d 9a3d 93ad 90bd dca0 ec3d 2b3b 163d
00000330: d72c 07be 17bc 1b3e 2490 c3bd 8795 d7bd
00000340: 61dd 01be 486d 803d c59f c9bd a9c5 993b
00000350: 654e e73d 3f2b c9bc 64a5 fc3d 8847 02be
00000360: f1c6 b73d ef95 a8bc c6ae a9bd d521 563d
00000370: c368 16bd b3d1 a5bd b152 c03d c2fe 93bd
00000380: 0132 85bd 519a 67bd 9d7a 9e3d d6b7 823d
00000390: 6a08 9fbd 71ec f0bd 5c14 cbbd c47a 723d
000003a0: dba2 fbbc d9ed 19bc 372d aa3d 3712 83bd
000003b0: 7e53 303c 98c7 37bd 9d46 0b3d c490 043e
000003c0: a882 abbd 0e89 023e 14d9 f63d 8c12 d83d
000003d0: 14e0 423d a8eb 013e 441e 0a3e cfd6 90bd
000003e0: 545c 31bc 6c65 893b 6cde cd3d 8fe8 92bc
000003f0: 8924 6a3d 1808 003e a90e fd3d 3f4d 143d
0.043912034 0.10050147 0.1113541 -0.073346056 0.027564034 0.069930494 0.09005756 -0.058873687
-0.019499237 -0.09477048 0.039385784 -0.07370059 0.0743525 -0.07354304 0.042634524 0.027499106
-0.02065188 -0.09259466 0.07990167 0.12900226 0.026530795 0.09215561 -0.08050283 -0.042319547
0.008454303 0.14424771 0.048855964 -0.11024669 0.044092495 0.049069736 0.03553532 0.09955515
0.08897995 -0.008003219 0.0753921 0.017848667 -0.051500715 0.09518693 0.04872118 0.11320264
-0.04768047 0.0090904925 -0.095516585 -0.0049917866 0.11003833 -0.0024052204 0.07384626 0.084238864
-0.0891643 0.12070083 -0.06492649 0.11806574 0.0058609354 -0.09495751 0.03675764 0.15460989
0.079318665 0.0025093919 0.05925986 0.08447421 -0.087632 -0.07301751 -0.09834353 0.11262876
-0.059489343 -0.034832694 0.09498017 -0.052813236 0.0025290148 0.11653634 0.04390972 0.022391833
-0.06905487 -0.08446237 0.0015347542 0.13753523 0.009288509 0.07576739 0.038151108 0.008976686
0.094930254 0.023904627 0.0683301 0.06445132 0.08918393 0.10765516 -0.011012062 -0.04015849
0.05842589 0.10337215 0.12897375 -0.06188525 0.032133058 0.100157626 0.07719838 0.13811804
0.032723956 -0.077232786 0.03541737 -0.037610695 0.04413079 -0.08998256 -0.040468246 0.027322074
0.0032296411 -0.0660041 0.042374883 -0.054874487 0.09784688 -0.011813477 0.11473013 -0.038074244
0.069825545 0.10689378 0.112186186 -0.11098031 -0.008153616 -0.08040596 -0.09295347 -0.05824917
0.13089405 -0.025004046 -0.032616355 0.019753223 0.061280794 0.020067008 -0.08670286 0.045985147
0.09331703 0.12813576 0.029380405 0.101081856 0.043058414 0.10108143 0.14874259 -0.12197958
0.12584154 -0.0712179 -0.09903518 -0.03533328 0.06864888 -0.09459996 0.05353437 -0.05909617
-0.03789647 0.0361231 0.05210471 0.005086629 -0.12946203 0.05577396 -0.05386513 0.10748164
0.033406824 -0.04813239 0.026149742 -0.10359728 -0.0064214612 -0.025973475 -0.030118693 -0.14157018
0.07727435 0.06279416 0.097690694 -0.06316805 -0.08670432 -0.067397565 -0.03074134 0.14226241
-0.027837757 -0.08792039 0.0062733702 0.105708145 0.11058322 -0.032288227 0.120046265 -0.08151984
-0.09710134 -0.10915263 -0.096663624 0.059259105 0.063285016 -0.0031332802 -0.016828332 -0.006575489
0.08607201 -0.037580747 -0.033070832 -0.071220465 0.03278463 -0.009569725 -0.028951246 -0.005012621
-0.10353597 -0.06146569 -0.008149616 -0.023410989 -0.12859346 0.080521755 -0.07959048 -0.082858
0.0752204 -0.07064357 0.11554119 0.03667752 -0.13200699 0.1520847 -0.09548977 -0.10526567
-0.12682106 0.06270844 -0.09844927 0.0046927524 0.112942494 -0.024556754 0.12336233 -0.127226
0.08973492 -0.020579306 -0.082852885 0.05227836 -0.036721002 -0.080966376 0.09390772 -0.072263256
-0.06503678 -0.056543652 0.077382304 0.0638272 -0.07765277 -0.117638476 -0.099159926 0.05919911
-0.030717304 -0.009395086 0.08309405 -0.063999586 0.010762094 -0.04486808 0.03400289 0.12945849
-0.0837453 0.12747595 0.12053123 0.105504125 0.04757698 0.12687552 0.13488108 -0.070722215
-0.010825235 0.0041929986 0.10052189 -0.017933158 0.05716375 0.12503088 0.12356312 0.03620648
