lstm_fwd_model.pt (torch, 242997 bytes, 9 tensors)

lstm.weight_ih_l0 f4 [256, 36]
000000 16 c0 cf 3d 8b f7 ce 3d 10 7b 1d bc c0 a3 06 3e
       0.10144059 0.10105809 -0.00961186 0.13148403
000010 e3 90 23 bd 80 45 02 3c 6e 5f a3 bd 27 11 50 3d
       -0.039933097 0.00795114 -0.07977186 0.050797608
000020 22 ec d9 3d 67 16 9c bd e7 81 0b 3e 37 37 d0 3c
       0.10640742 -0.076214604 0.13623773 0.025416953
000030 e4 15 cf 3d ce 52 8b bc de 8a 0c 3d 70 de 4d bd
       0.10111597 -0.017007258 0.03431212 -0.05026096
000040 86 86 a1 3d c5 a0 88 3c 2e e7 ab bd f5 e5 0c 3d
       0.078869864 0.016678223 -0.083937034 0.03439899
000050 99 7c a1 bd 9f 8b 9b bc d5 8e a6 bd 26 68 65 3d
       -0.07885093 -0.018987475 -0.08132712 0.056007527
000060 f4 a1 dc bd cf d9 2e bd 80 49 84 bd 3a f5 c0 bd
       -0.107730776 -0.042688187 -0.064593315 -0.09421773
000070 63 a0 a2 bb cd 84 12 be c6 f9 c2 3d f6 32 01 be
       -0.0049629672 -0.14308472 0.09520297 -0.12617096
000080 a8 93 e2 3d 37 c9 05 3d 73 b4 33 bd ad bd b8 3d
       0.110633194 0.032662597 -0.04387326 0.09020553
000090 5f 3c 81 bc 29 62 6c 3d 3e eb e2 3c 3c a9 20 bc
       -0.015775857 0.0577108 0.027700063 -0.009805974
0000a0 cc 80 1f 3d a4 f7 1f bd 78 2b 9e 3c f4 ae c5 3d
       0.03894119 -0.039054528 0.019307837 0.0965251
0000b0 b2 b9 92 3d db 34 1e bd d4 f7 b1 3d 8e 13 8c 3c
       0.07164325 -0.038624626 0.086898476 0.017099168
0000c0 7b d6 a3 3d 6d ce d8 bd a6 ae 14 be ee 51 84 bd
       0.07999893 -0.105862476 -0.14519748 -0.06460939
0000d0 04 04 0f be 07 dc 15 3e b3 4e 8e 3d 36 79 8e 3d
       -0.13966376 0.14634715 0.069486044 0.06956713
0000e0 8d 52 e5 3b 5b 28 9a bb 48 9c d9 3d 12 7d bb bd
       0.006998366 -0.004704518 0.106255114 -0.09154715
0000f0 b1 36 74 3b d1 c3 aa bc cf bb 25 3d 8a 65 94 bc
       0.0037264044 -0.020845326 0.04046231 -0.018114824
000100 e1 90 f5 3b 7c 7e 92 bd 7d ad 8f 3d 33 fe 75 bd
       0.0074940776 -0.07153031 0.07015512 -0.060056876
000110 1e 68 b0 bd 5f f5 e2 bc 89 f2 16 3e 80 2b ef 3d
       -0.08613609 -0.027704893 0.14740957 0.11678219
000120 cb 8d 12 3e b0 8c ca bd 2f 60 d4 bd 90 27 c4 bd
       0.14311902 -0.09890115 -0.10369908 -0.095778584
000130 c2 75 7c bd fd 9f 0c 3d 92 a6 1a 3d bc d1 a3 3d
       -0.06163574 0.034332264 0.03775651 0.07998988
000140 cc b4 58 bd e7 71 90 bd cb 8a 95 3d 71 6e 17 bd
       -0.052906796 -0.07052975 0.07301863 -0.03697056
000150 33 75 ad 3d 88 1e 07 bd 4f 73 93 3d 1f 23 e7 bd
       0.084696196 -0.0329881 0.07199728 -0.11285996
000160 db 19 9e bd b5 20 fb 3c b1 13 f0 3c 2f 4e 5d bd
       -0.07719775 0.030655244 0.029306265 -0.05402964
000170 2a 76 56 3d 20 5d 52 3d a3 95 d6 bd 7e 54 b5 bd
       0.052358784 0.051358342 -0.1047776 -0.08854006
000180 c3 3f d6 3d f7 46 29 bd 04 5d 65 bd 6d f8 0a be
       0.1046138 -0.041327443 -0.05599691 -0.1357133
000190 dd ff a6 bd 33 4a 69 3c d3 60 e4 bc 03 c8 d6 bd
       -0.08154271 0.014238882 -0.0278782 -0.10487368
0001a0 9a 77 1e 3d 84 6f bf bd c5 dd c8 bd c0 05 7e bd
       0.03868828 -0.09347442 -0.09807924 -0.062017202
0001b0 18 0f e3 bd cc ab a6 bd 72 bb f3 3d a5 b5 f7 3c
       -0.11086863 -0.081382364 0.11900987 0.030237982
0001c0 9a 3b e0 3c 54 60 01 be e7 03 e4 bd ae c6 6e bd
       0.02737217 -0.12634403 -0.11133557 -0.058294944
0001d0 ce fd 00 ba ce c8 d7 bd 68 97 76 bd c4 22 d3 bd
       -0.00049206323 -0.10536347 -0.060202986 -0.103093654
0001e0 db 9c 82 3a 6d 14 89 bd 65 bd c0 bc 5d 4f b4 bd
       0.000996496 -0.06693349 -0.02352781 -0.088042
0001f0 6d 9c ce bd b3 50 99 bd d8 e8 5d bd 9b 6a 00 be
       -0.100884296 -0.07486095 -0.054177135 -0.12540667
000200 08 98 24 3d 77 91 8b bd 04 e5 6e 3d 47 cb 87 3c
       0.04018405 -0.068148546 0.058323875 0.016576422
000210 af db e6 bd 6f 75 29 3d 6f b5 ad bb 8c b3 8e bc
       -0.1127237 0.04137176 -0.0053011696 -0.017419599
000220 52 28 ba bd 57 4e da bd 5a 1c 49 3d 54 60 82 bc
       -0.09089722 -0.106594734 0.049099304 -0.015915073
000230 aa ae 0f bb b0 98 d8 bd 59 b6 01 3e 32 49 a1 bd
       -0.0021924176 -0.10575998 0.12667216 -0.07875289
000240 ec 54 39 bd b5 c9 08 bc 2b 8f 5d 3d 6b 86 b5 3d
       -0.045247003 -0.008348872 0.054091614 0.08863529
000250 c3 90 09 3e 2f c6 ed bd 9a 4d 22 3c ae 2f a1 bd
       0.13434128 -0.11610066 0.009906197 -0.07870422
000260 52 95 7f bc 50 e4 d7 bd 50 44 b5 3d 5d 48 ab bd
       -0.015599566 -0.10541594 0.0885092 -0.083634116
000270 ce c4 53 3d e6 b9 2f 3d dd ef 18 3d 6f 20 84 bd
       0.05170136 0.042901896 0.037338126 -0.06451499
000280 5f 20 cb 3d 63 73 ba 3a e2 4c f7 3c 1a 92 ef bd
       0.09918284 0.0014225062 0.030188028 -0.116977885
000290 db ac 69 3d 26 a0 d5 bc 58 84 8f bd 6a 44 fc 3d
       0.057049613 -0.026077341 -0.070076644 0.123177364
0002a0 fb e4 25 3d c3 4c 81 bd 21 35 da bd 2f ef 07 bd
       0.040501576 -0.06313469 -0.10654665 -0.033187088
0002b0 bc 8c 51 3d d0 ac 52 bd ef dc b9 bd 78 5c 7e bd
       0.051159605 -0.051434338 -0.09075343 -0.062099904
0002c0 a3 e8 93 bd b9 fa 51 3d f3 a3 ce 3d 80 e3 d5 bd
       -0.07222106 0.0512645 0.100898646 -0.10443783
0002d0 1c cb 3b 3d 64 dd b4 3c 68 bd 53 3c 4a b2 63 bd
       0.045847997 0.022078224 0.012923576 -0.05558995
0002e0 98 03 a2 3d b4 7d 94 3d 33 01 97 3c f8 9d d5 bc
       0.07910842 0.072505385 0.018433189 -0.026076302
0002f0 ba 10 9f bc f0 ab 0b b9 5b c2 04 bd f0 79 20 3c
       -0.019417156 -0.00013320125 -0.032411914 0.009794697
000300 e0 0a 9d 3d 54 cb c1 3d a8 ab 06 bd ca 89 f2 3b
       0.0766809 0.0946261 -0.032878548 0.0074016796
000310 58 83 e5 3c 96 e9 8a bd c4 45 c1 3c f2 d3 84 3c
       0.028016731 -0.06782834 0.023592837 0.016214345
000320 38 0c 12 be 8b dc 94 bd 68 89 9b 3d 91 0d ac 3d
       -0.14262474 -0.07268628 0.075945675 0.08401025
000330 56 3e 16 3d bc 39 08 be 14 eb 87 bd 7c d8 c0 bd
       0.036680542 -0.13303274 -0.066366345 -0.09416291
000340 61 0c 81 bd c7 c9 63 3b 5c 3e 4e 3d ea 6e ac 3d
       -0.06301189 0.003475772 0.05035244 0.08419593
000350 70 51 08 be 9e 2c d0 bc 57 04 19 3c 38 24 29 3e
       -0.13312316 -0.0254119 0.009339414 0.16517723
000360 34 72 5d 3d b4 e4 12 bd cd e0 92 3d 96 1f 1f bd
       0.05406399 -0.03586264 0.071717836 -0.038848482
000370 75 ec 80 bd e6 60 ac 3d 2d 98 53 bd e7 db b4 bc
       -0.062951006 0.084169194 -0.051658798 -0.022077514
000380 8c 99 be bd b5 01 da 3d 59 a6 dd 3d b0 74 b7 3d
       -0.093066305 0.10644857 0.10822744 0.08957803
000390 54 8e 87 bd b5 b7 e2 bd e4 3a b2 bd 8d b4 f6 3d
       -0.06618944 -0.110701956 -0.08702639 0.12046156
0003a0 1d cb 81 3d 6c ef e4 3d 88 33 8a 3d 71 6d e4 3c
       0.06337569 0.111784786 0.0674811 0.027884217
0003b0 51 bc 12 3c c0 1e c6 bd b3 b4 eb bd 0d 5f d6 bd
       0.008956031 -0.09673834 -0.11509075 -0.10467348
0003c0 3e 62 4f 3d df 76 a3 bd ed ee 04 3c 17 69 22 bd
       0.0506308 -0.07981657 0.008113605 -0.039651003
0003d0 9f 60 ab 3b a4 60 7f bd ef ef 61 bd c0 19 a7 3d
       0.005230024 -0.062348023 -0.05516046 0.08159208
0003e0 ec 0e 9f bd b2 b8 e2 3d d7 37 43 bd 96 89 8d bd
       -0.07766518 0.11070384 -0.047660675 -0.06911008
0003f0 d5 4f 71 bd 1a 64 c0 bd b7 f3 23 bd 10 a0 eb bd
       -0.058914024 -0.09394093 -0.040027346 -0.11505139

lstm.weight_hh_l0 f4 [256, 64]
000000 24 29 7c 3d 12 61 b2 bd 3f e2 d1 bc 0b e5 ff 3c
       0.061562672 -0.08709921 -0.025620578 0.031237146
000010 83 3a 86 3d b7 67 0c 3d 19 6d dd 3d 84 be ad bd
       0.06554129 0.034278598 0.10811824 -0.084836036
000020 1d 0d be bc 54 7c d7 bc 17 56 ec 3d cb 92 c8 3d
       -0.023199612 -0.026304401 0.11539858 0.097936235
000030 13 a1 d4 3c 7e a4 b8 bd 48 dd df bd fa c6 e4 bb
       0.025955712 -0.090157494 -0.10930878 -0.0069817277
000040 2a 4b 00 be ec cd 87 bd 02 dc 59 bd ea bb 3c 3d
       -0.12528673 -0.06631073 -0.05318833 0.046077646
000050 79 fe 3f bc 37 3f f6 bd c6 ee d8 3d 03 68 b3 bd
       -0.011718386 -0.12023776 0.105924174 -0.08760073
000060 90 36 e7 bb 5d 5c ed 3d 61 2a 3c 3d 55 bc c0 bd
       -0.007056065 0.115898825 0.045938853 -0.094109215
000070 2b 86 83 bb ef 8a 0a 3b 8d 06 0a 3d 18 e2 e2 3d
       -0.004013797 0.002113994 0.033697654 0.1107828
000080 1d e3 ee 3d a1 8c ac bc 80 5e a9 3d d0 ea 19 be
       0.11664412 -0.02106315 0.082699776 -0.1503098
000090 0f b4 07 3e c6 0b ec 3d d8 5f 4f bd 6a c3 81 bc
       0.1325228 0.11525683 -0.050628513 -0.015840251
0000a0 8c 4c 90 bd 60 ff 27 bd bc eb be 3d 05 5b 53 bd
       -0.0704585 -0.04101503 0.093223065 -0.051600475
0000b0 6f e1 8e 3d 9e 3e 82 bd 82 31 ac 3d 90 55 94 bd
       0.06976592 -0.063595995 0.0840788 -0.07242882
0000c0 12 82 64 3c e8 21 ab bd a8 6c 30 3d d3 30 a7 bd
       0.013947027 -0.083560765 0.043072373 -0.08163609
0000d0 5c 5b eb bd a8 e2 11 be eb 05 72 3d 90 88 77 3c
       -0.11492035 -0.14246619 0.059087675 0.015108243
0000e0 51 67 cb bd 76 ff f9 3c 23 84 ec 3c 0f e3 8e bd
       -0.099318154 0.030517321 0.028871601 -0.06976902
0000f0 88 62 fa bc d1 0f 91 bc 62 7b 6f 3d 20 3f c2 bd
       -0.030564561 -0.017707737 0.058467276 -0.094846964
000100 8d 55 1a be 54 4e 02 be 6c 9d 27 be a1 f2 71 3d
       -0.15071698 -0.12725192 -0.16368645 0.05906928
000110 43 8e 6e 3c ba 5a e8 3c 8a ca 66 3d 68 ad 3e 3b
       0.014560285 0.028363574 0.0563455 0.0029095057
000120 07 fa c2 3b c4 d2 0a be 16 2c 04 3e 4c 70 ae 3d
       0.0059502157 -0.13556963 0.12907442 0.08517513
000130 02 ee 88 3c 5e 00 bf bb 72 19 1f 3d f1 a1 07 3e
       0.016715053 -0.005828901 0.038842626 0.1324537
000140 62 69 c1 bc 62 d6 1c bd 9d ef 56 bd 1c a5 37 3c
       -0.02360982 -0.03829039 -0.052474607 0.011208799
000150 fb 64 a4 3d a9 2f b1 bd d7 95 77 3c ad 7a 25 3d
       0.08027073 -0.086516686 0.015111408 0.040400196
000160 31 ca 1e 3d b1 48 9e 3d 0b 80 03 bd bd 30 1e 3d
       0.038767044 0.077287085 -0.032104533 0.0386207
000170 cc c1 12 be 3e cd db 3d 4a c6 c0 bd a4 c9 fc bd
       -0.1433174 0.10732506 -0.09412821 -0.123431474
000180 ea 27 cb bd 66 92 f6 bd f4 aa f4 bc 45 92 b1 3d
       -0.099197224 -0.12039642 -0.029866673 0.08670477
000190 29 42 76 bd ee 2b 4c 3d 2a 82 bb bc 95 a3 12 3e
       -0.06012169 0.049846582 -0.022889215 0.14320214
0001a0 9c 11 4e 3d ea e8 38 3d 03 3d 03 3d b9 1d c6 bd
       0.050309762 0.045144 0.032040607 -0.09673638
0001b0 61 b5 28 3e e7 3a 12 be c7 c8 0d be b9 e5 d7 bd
       0.1647544 -0.14280282 -0.13846122 -0.10541863
0001c0 82 e4 45 bd 20 a5 c4 3d 09 ff 0f 3d 05 cd 98 bd
       -0.048313625 0.096018076 0.03515533 -0.07460979
0001d0 4a 72 b1 3d 66 dd 82 3d fb 71 76 3c 26 15 28 be
       0.08664377 0.06389885 0.0150418235 -0.16414317
0001e0 ad 59 b7 3d 3b 44 41 3c 83 9e 25 bd f6 e6 e0 bd
       0.08952651 0.011796053 -0.04043437 -0.10981552
0001f0 73 79 82 3d 57 2a d0 3b 4b cc fd bd e0 ca 0c 3e
       0.06370821 0.0063527036 -0.123924814 0.13749266
000200 da 22 99 3c 9d bf 32 3c 5a ae 4c 3d e7 1b a6 3d
       0.018693376 0.010909942 0.049970962 0.08110791
000210 9a be 64 bd 1a df 38 3c 0a f3 ee 3d 2b 28 06 bd
       -0.055845834 0.01128366 0.1166745 -0.03275315
000220 0e 83 da bd a0 16 ed bd 6d ee c8 bd 26 d1 82 bb
       -0.10669528 -0.11576581 -0.09811101 -0.0039922176
000230 c5 f4 fb 3d b3 71 a9 3d d4 a7 ed 3c d6 7e ea 3c
       0.123025455 0.082736395 0.02901069 0.028624933
000240 b0 05 b6 bd f4 d5 cb 3d 1b 9b 89 3d d0 fe dd bd
       -0.088878036 0.09952918 0.06719037 -0.10839617
000250 d5 dc eb bd bc 46 d0 bd e8 b3 16 bd 8f 15 07 3e
       -0.1151673 -0.101697415 -0.036792666 0.13191818
000260 cc ac 80 3d c7 a6 18 bd e9 da aa 3c 78 7a 69 bd
       0.062829584 -0.037268426 0.020856338 -0.05700156
000270 ca 9a f4 3b f9 d8 fb 3d bf 4b 66 3d b4 cb 9d bd
       0.0074647414 0.122972436 0.05622458 -0.07704869
000280 76 84 68 bd f0 75 c3 bb 86 62 ab 3d e5 8b 47 bd
       -0.05676695 -0.005964987 0.08368401 -0.0487174
000290 62 5c f7 bb 7b c1 ca bc 56 8e e5 bb be e4 95 bd
       -0.0075488547 -0.024750462 -0.007005493 -0.0731902
0002a0 b0 d9 11 be 96 9f 9c 3d fd 4b 4d bd 57 1b 89 3d
       -0.14243197 0.07647626 -0.050121296 0.06694668
0002b0 19 80 d6 3d cb ae 56 bd 96 e0 c1 bd 42 9c bd bc
       0.104736514 -0.05241279 -0.094666645 -0.023145799
0002c0 36 b5 f6 bc a9 78 74 bd 99 8b 09 3e 8f b1 9d bc
       -0.030115705 -0.059685383 0.13432159 -0.019249706
0002d0 16 f3 84 bd 13 5e f9 bd bc 46 cb bc 59 b5 35 bc
       -0.064916775 -0.12176146 -0.024814002 -0.0110906
0002e0 5e 57 18 3e d7 4c 9e bd 26 3d ae 3d 50 7a 89 bc
       0.14877078 -0.077295 0.08507757 -0.016781956
0002f0 23 02 ea 3c 86 72 c5 3c 5f 2e 36 bd c7 6c ab 3d
       0.028565472 0.02410246 -0.044477817 0.08370357
000300 c5 25 2f bd 29 22 99 3d c4 06 ea bd b3 75 bb bd
       -0.04276063 0.07477219 -0.11427072 -0.09153309
000310 47 44 dd 3d af 74 be bc 82 23 a5 bd bd 9b a5 bd
       0.108040385 -0.023248998 -0.08063413 -0.08086345
000320 aa 7b 16 3e ee 93 93 bd 3c e3 fb bd fc 88 16 bc
       0.14695612 -0.0720595 -0.12299201 -0.009187933
000330 36 d1 89 bd 4b 2a b7 bd c9 38 3b bd 14 67 f9 3d
       -0.06729357 -0.089436136 -0.04570845 0.12177864
000340 5f 9d 6a 3d 22 75 d0 3d 0d cb 8c bc df f4 3e bd
       0.057278987 0.10178591 -0.017186666 -0.046620246
000350 98 85 38 bd 45 20 19 bd c1 6d 02 be ea 5c b0 bd
       -0.04504928 -0.03738429 -0.1273718 -0.08611472
000360 4b 56 ee 3c 66 bd b2 3d 5d 7a 0a 3e 7d 03 77 3c
       0.029093882 0.08727531 0.1352324 0.015076515
000370 9b f8 f3 bc d3 43 28 bc ef 9c 87 3d 11 69 ea bc
       -0.02978163 -0.010270077 0.066217296 -0.028614553
000380 72 69 8d bd 76 a4 48 bd 68 3d 1e be 05 69 90 bd
       -0.06904878 -0.048984967 -0.15453112 -0.07051281
000390 d8 ae ac bd 71 5a fc bc 5e a5 f7 bd 91 9a ef 3c
       -0.08431786 -0.030804845 -0.12092088 0.029248508
0003a0 92 a7 91 bd f6 c0 9e 3d 50 5e 1c be fa e9 b7 3d
       -0.071120396 0.07751648 -0.15270352 0.08980174
0003b0 aa f3 6e bd 87 4d d0 bc 8c c1 05 be d7 3e 0d be
       -0.058337845 -0.025427593 -0.13062114 -0.13793503
0003c0 12 89 0e be 40 fc 0e 3d 7f e7 c4 3d 84 1f bd 3d
       -0.13919476 0.034908533 0.09614467 0.09234527
0003d0 44 ed aa 3d b5 db 2a 3c 0a 4e a6 bd 73 21 61 bd
       0.08346036 0.010428359 -0.081203535 -0.05496354
0003e0 9e 27 a8 bc f8 29 ec bd 3d 16 06 3d 2a 1b 7f bc
       -0.020526703 -0.115314424 0.03273605 -0.015570441
0003f0 7a 9a be bd 53 10 9f 3d 84 e8 c3 bc a2 74 9c 3d
       -0.09306808 0.077667855 -0.023914583 0.076394334

lstm.bias_ih_l0 f4 [256]
000000 e3 dd be bd 53 84 f9 bc b0 47 e7 3d 56 3b 69 bd
       -0.09319665 -0.030458605 0.1129297 -0.056941353
000010 cd bd 37 bd 21 ef 54 3d 3c 63 ed 3c d0 52 13 3e
       -0.044858743 0.051985864 0.028977983 0.14387059
000020 d2 32 9c bd ab 1d 17 3d 8b bf 71 bd f1 20 c3 3d
       -0.07626881 0.036893528 -0.05902056 0.095277674
000030 d2 b6 0c 3d 25 b0 d6 bc 30 75 d0 3d d2 88 d6 3d
       0.03435404 -0.02620704 0.10178602 0.10475315
000040 ed 71 a4 bd 3d c4 c6 bd e2 af 26 3d dd 0c a0 bd
       -0.08029542 -0.09705398 0.04069508 -0.078149535
000050 ee 2d 60 3d 74 db 9d 3c 21 40 90 3d 6c d3 bb 3d
       0.054731302 0.019269682 0.070434816 0.09171185
000060 12 34 fb bc 6d 69 4a 3c d2 83 6f bd ff 8e f9 3d
       -0.030664477 0.012354237 -0.058475323 0.121854775
000070 8a 33 7f 3d ac 5a 07 3e be 20 db 3d 30 1f bb 3d
       0.06230501 0.13218182 0.106996045 0.09136808
000080 b6 36 da 3d cc 71 85 3c ac 3f a0 bd 39 68 f4 bc
       0.106549665 0.016289614 -0.078246444 -0.029834853
000090 bb b9 08 bd 5f 44 b1 bc 76 51 a3 bd dd 79 ae bd
       -0.03338025 -0.021639047 -0.07974522 -0.08519337
0000a0 ba 0a 80 3d e6 62 33 bd a5 eb c0 bd f0 7a 06 3d
       0.06252046 -0.04379549 -0.094199456 0.032832086
0000b0 f8 02 b7 bd 6e a1 5d 3d 1c bf 57 3c 08 94 d1 3d
       -0.08936113 0.05410903 0.013168123 0.10233313
0000c0 91 ce f3 3d 00 07 c4 3d e9 5d a2 bd 03 4a 98 3b
       0.11904634 0.09571648 -0.07928068 0.0046474948
0000d0 f1 a7 a2 3d f9 17 7e bd a3 45 ca bd ac ea bf bd
       0.079421885 -0.06203458 -0.098765634 -0.09370932
0000e0 d3 4a bb bd af 4f ad 3d 71 dc 36 bd b3 8c ad 3d
       -0.09145131 0.08462464 -0.044643823 0.08474102
0000f0 aa e3 0d bd 49 d8 24 bc 30 52 64 3c b8 fc 1f 3e
       -0.034640945 -0.010061332 0.013935611 0.15623748
000100 b3 d9 dc 3c 46 21 c7 bd 86 95 e5 3d 8e b5 fe 3c
       0.026959276 -0.09723143 0.1121016 0.031092431
000110 c3 0d 05 3e aa 38 1b 3d f5 14 ad bd cc 54 44 3d
       0.12993531 0.037895836 -0.08451263 0.04793243
000120 ba c6 86 bd c2 63 a5 bd 63 59 e5 3c a0 21 77 3d
       -0.06580873 -0.08075668 0.027996724 0.0603348
000130 90 57 91 bd 90 db 13 bd 01 a9 29 bd 9f 2d c2 3d
       -0.07096779 -0.036098063 -0.04142094 0.09481358
000140 67 92 80 3c 3e d1 0e bd bf 1b 6f bd 45 13 cb bc
       0.01569481 -0.034867518 -0.05837607 -0.024789462
000150 fb 73 ea 3c 4d b5 26 3d 56 b0 d3 bc fa 6c b7 bc
       0.028619757 0.040700246 -0.02584092 -0.022390831
000160 f5 53 64 bd 83 9e cc 3d 6d ae 57 bd 35 f2 10 3e
       -0.05574413 0.09991171 -0.05265658 0.14154895
000170 6a 68 68 3c ae eb 16 bc 69 4b 46 bd e6 f1 bf 3c
       0.0141850505 -0.009211464 -0.04841176 0.023430776
000180 ac 0a d8 3c be ce eb 3c dc cd da bc 39 0b e0 3d
       0.026372276 0.028785106 -0.02670949 0.109396406
000190 12 ad aa ba fe 26 a4 3a a8 94 cf bd c3 ea 85 3d
       -0.001302155 0.0012523828 -0.10135776 0.06538918
0001a0 50 99 bb 3c 04 c7 f2 3b 2c 1b cf bd e9 dd 07 3d
       0.022900254 0.0074089784 -0.101126045 0.033170614
0001b0 cf 30 a0 3c d8 dc c0 3d 29 68 59 bd 39 5f e4 3d
       0.019554524 0.094171226 -0.05307785 0.11150975
0001c0 f2 3b f0 3d 1b bd 90 3c 38 37 d8 3d 10 03 f7 bd
       0.11730184 0.017668298 0.10557407 -0.12061131
0001d0 d8 5d d9 3d c2 e3 a7 bb 48 cd 6b 3d 80 ef db 3d
       0.106136024 -0.0051235864 0.05756882 0.107390404
0001e0 71 55 4c 3b b0 1d 12 3d 28 53 ec 3c d9 b7 0a 3e
       0.0031178857 0.035672843 0.028848246 0.13546695
0001f0 b7 41 61 bd 52 17 09 3e 91 70 1f 3d 07 66 c6 3d
       -0.05499431 0.13387802 0.03892571 0.09687429
000200 fd 6f e8 bc 5b 6a f9 bc 26 26 36 bd e1 56 d8 3b
       -0.028373713 -0.030446222 -0.044469975 0.0066021536
000210 f3 01 02 be 88 ec ef 3d 5d 09 a7 3d 0d 5e 1c be
       -0.12696056 0.11715037 0.08156083 -0.15270253
000220 ad 0a b5 3d e1 fe e8 bd 79 67 97 bd bc 07 fb 3d
       0.08839927 -0.11376739 -0.07392783 0.122573346
000230 ff e3 6a 3c 0a f6 b1 3d e0 42 bd 3d 90 e1 34 3d
       0.014336585 0.08689506 0.09241271 0.044160426
000240 1f 57 05 be 32 d8 8b 3d b4 60 ee bc e5 e5 b5 bd
       -0.13021515 0.06828345 -0.029098846 -0.088817395
000250 59 a8 88 bd 9a ea fb 3d 62 d2 83 bd 34 17 b1 3d
       -0.06672735 0.12300606 -0.06436612 0.08647004
000260 b8 68 28 3d d3 e3 0f bd 79 fc 40 3d 8a 3b 08 3e
       0.041115493 -0.03512938 0.047115777 0.13303962
000270 2a 18 8d 3d b3 c9 01 3d a6 fc 17 3d b4 b8 37 3d
       0.068893746 0.031686496 0.03710618 0.04485388
000280 45 79 9e bd ab 52 5c bd 1b a8 30 3d 8c 2a f3 3d
       -0.07737974 -0.053789776 0.043129068 0.118733495
000290 b0 8c 34 bc 7c 07 33 bd 2e 58 b2 bd c4 db d9 3c
       -0.011019871 -0.04370831 -0.08708225 0.02659405
0002a0 51 09 f3 bd f6 3e 5e bd 38 7b 09 bd 5d 8d 8e 3d
       -0.11867011 -0.054259263 -0.033564776 0.06960557
0002b0 ba 91 fa 3d d4 66 aa bc b1 ca 6c bc c8 f2 b2 bd
       0.122348264 -0.020800985 -0.014452622 -0.08737713
0002c0 90 be fa bd 58 f8 aa bd e4 da a0 bb d0 1f 18 3d
       -0.12243378 -0.08348149 -0.0049089063 0.037139714
0002d0 2b 42 a3 3d fd 1d 16 3d 9c 0e e4 bc 0a 09 71 bd
       0.07971605 0.036649693 -0.027838998 -0.05884651
0002e0 e9 11 ef 3d 83 57 10 be 36 59 5e bc 60 c9 29 3d
       0.11673338 -0.14095883 -0.013571074 0.04145181
0002f0 ef 57 1f be 17 8c fb 3d 24 9b 74 bd 17 72 10 3e
       -0.15560888 0.122825794 -0.059718266 0.14106022
000300 e4 f7 84 b9 9a c9 1b bd 4a 7f a4 3d 8f b1 65 bd
       -0.00025361695 -0.03803406 0.08032091 -0.056077536
000310 c4 57 94 bd f6 12 5e 3c 2e fa d9 3d 8b 61 c3 3d
       -0.072433025 0.013554325 0.10643421 0.09540089
000320 5b 01 eb 3d 8d 9a 0b bd 5f 33 d5 3c a9 cb 33 bb
       0.11474868 -0.034082938 0.026025472 -0.0027434623
000330 5e 85 ee 3d a9 92 2d 3c 02 3d c9 bd 9e 73 1d 3d
       0.116465315 0.010594049 -0.098260894 0.03844034
000340 c7 09 ca bd 47 89 00 3d a0 5a 5b 3c 99 18 0d bd
       -0.09865146 0.031380918 0.013388306 -0.034447286
000350 de b4 92 bd 94 02 e6 3a f8 61 62 bd d3 57 1a 3e
       -0.07163404 0.0017548376 -0.05526921 0.15072565
000360 f3 cd 80 bc 5b 54 b7 bc ad 2e e4 3d 89 3b 4e 3c
       -0.015723204 -0.022379091 0.11141715 0.0125874365
000370 d6 b6 c9 3c 78 e2 d5 bd a1 99 85 3d c7 9f f7 3d
       0.024623316 -0.10443586 0.06523443 0.12091022
000380 f6 11 bd bd 6a 00 11 3e 0c e1 d7 3d f2 f5 b9 3d
       -0.092319414 0.14160314 0.10540971 0.090801135
000390 6b d4 a5 3c 23 3b 79 3c 56 74 c0 3d 2e c4 cc 3d
       0.02024289 0.015211853 0.09397189 0.09998356
0003a0 c9 01 03 bd e3 80 03 bd 4b 7b 0b 3e 2e 82 7f bd
       -0.031984124 -0.032105338 0.13621251 -0.06238001
0003b0 47 8d 82 bc 15 55 7d bd 67 6b 68 3d 74 b5 db 3b
       -0.015936507 -0.06184872 0.05674305 0.0067049805
0003c0 d7 7c 0f 3e 3e a9 e7 bc 4b 27 82 3d b2 b0 7b bd
       0.14012466 -0.028278943 0.06355151 -0.061447807
0003d0 26 90 54 bd 31 de a5 bd c4 ed ce 3c 23 9d 3f 3d
       -0.051895283 -0.0809902 0.02525986 0.046780717
0003e0 e1 4f 7f 3d e4 61 21 3e ec 7f 95 3d 25 5d f9 3c
       0.062332038 0.15759999 0.0729979 0.030439923
0003f0 df 77 d0 3d 9d fb b1 bd da a3 1b 3e ab 45 99 bd
       0.101791136 -0.086905695 0.15199223 -0.07483991

lstm.bias_hh_l0 f4 [256]
000000 21 82 c4 3d d7 e6 3c bd 0a b8 11 3e 9e 56 71 3d
       0.095951326 -0.046118584 0.14230362 0.058920495
000010 6d 6c a1 3d 4b 81 b0 3d f3 3e 07 bd 2d fa 78 3d
       0.07882009 0.08618411 -0.033019017 0.06078546
000020 0c 5b 1d 3d 41 b9 57 3d e5 ff 69 3d 7c cf 0a 3e
       0.038416907 0.052666906 0.057128806 0.13555712
000030 31 9f f3 bc 0d cd ad bd 0e 9f 92 3d 4c e4 e4 3d
       -0.029738994 -0.08486376 0.071592435 0.11176357
000040 1d d6 a5 3d 69 d7 96 bd c9 45 b7 bc 18 ab 5e 3d
       0.080974795 -0.07365305 -0.022372143 0.054362386
000050 f8 ea 15 3d 10 9a 87 3d c9 95 b7 bd 8a a0 c8 3d
       0.036601037 0.06621182 -0.08964116 0.097962454
000060 36 e2 82 ba 63 45 df 3c 74 69 33 bc e3 e2 a0 bd
       -0.0009985629 0.027254766 -0.010950435 -0.07855775
000070 6e 4e 99 3d 1c 4c cf 3c 6f 17 47 bb 4a 56 07 3e
       0.074856624 0.025304846 -0.0030378958 0.1321651
000080 66 a6 09 3e 1f 1a 1b bd ce 29 97 bc 3e 38 83 bc
       0.13442382 -0.037866708 -0.018452551 -0.01601803
000090 d1 7a 95 bd e1 90 a3 bd 74 07 94 bd 2c 3a 0c bd
       -0.07298816 -0.07986618 -0.07227984 -0.034235165
0000a0 a0 21 a7 3c 7a af c9 3c 23 c1 d3 3d 38 a3 8a bc
       0.020401776 0.024619807 0.10339572 -0.016923532
0000b0 ae dd be 3d 9e 47 bf bd 35 e0 0a 3c c3 c5 8b 3c
       0.09319626 -0.09339832 0.008476307 0.017062074
0000c0 d0 3c 5f 3d ba ec f5 3d 97 3f d7 3d 49 4d 27 3d
       0.054501355 0.12008043 0.10510176 0.04084519
0000d0 73 a4 9b 3d b5 4f 02 3e 56 88 00 3e 88 65 8e 3d
       0.075997256 0.12725718 0.12552008 0.06952959
0000e0 ef 3b ad bd 89 b7 e6 3d 7e 12 e8 3c 6f 08 f8 3d
       -0.08458697 0.11265475 0.02832913 0.121109836
0000f0 63 bf 94 3d d3 94 65 3d 7f 00 2d 3d 69 5c ef 3d
       0.072630666 0.056050133 0.0422368 0.11687548
000100 61 be e0 3d a6 ce 03 3e 68 7a ba bd 89 cb b0 3d
       0.10973812 0.12871799 -0.091053784 0.08632571
000110 e7 73 f1 3d 14 23 d4 bc 57 dc bd bd 51 e4 bd 3d
       0.11789685 -0.025895633 -0.09270542 0.092720635
000120 79 64 8a 3c a6 52 dc 3d 22 f9 89 3d 4c 86 de 3d
       0.016893612 0.107579514 0.067369714 0.10865459
000130 3a 58 e2 bd 88 40 1e bd ee 38 e4 bd f1 53 a2 3c
       -0.11051984 -0.03863576 -0.11143671 0.019815417
000140 0a 74 89 3d 36 c5 c4 bd e5 f8 83 3d 14 1f b6 bd
       0.06711586 -0.096079275 0.06443957 -0.088926464
000150 6f 12 f0 3d 0a 54 c0 bd 06 5f 99 bd da d1 0a bd
       0.11722266 -0.09391029 -0.074888274 -0.033891536
000160 c4 e0 93 3d 12 cf 00 be 3a 93 6d 3d db b1 af bd
       0.07220605 -0.12578991 0.058001734 -0.08578845
000170 95 9d 88 3c 0d db a8 bc 41 c4 de bc b3 c1 62 bd
       0.016676703 -0.020612264 -0.02719319 -0.055360507
000180 85 0c 1d 3e be d3 e5 3d e3 eb bc bd dd 4b 81 bc
       0.15336807 0.11222027 -0.09224679 -0.015783245
000190 33 f9 01 be 7b 08 ad bd 9e dc 6e bd f5 f4 e8 3d
       -0.12692718 -0.08448883 -0.058315866 0.11374847
0001a0 21 4b b0 bd 9d 78 11 3e f6 1a fc 3d 9b df 19 3d
       -0.0860808 0.14206167 0.1230983 0.037566762
0001b0 1b 92 c9 3d 82 57 1e 3d fd 57 a1 3d 69 0f ce 3d
       0.098423205 0.038657673 0.078781106 0.10061533
0001c0 f7 56 b8 bd 5d ff ae 3c 18 33 e1 3b 9e 53 f9 bd
       -0.09000962 0.021362001 0.006872546 -0.12174152
0001d0 8a d4 f9 3d a2 35 ab bb a4 58 fc 3c 61 96 40 bd
       0.12198742 -0.0052248994 0.030803986 -0.047018413
0001e0 21 2c 87 3d 8c 87 3a 3d 4f cc 95 bd 02 6f 26 bd
       0.06600214 0.045539424 -0.073143594 -0.04063321
0001f0 4a 52 86 3d 81 9d bc bd 1f fa 93 3d c3 1b 99 bd
       0.06558664 -0.09209729 0.07225441 -0.07475998
000200 4f e0 d2 bd a2 d6 4c 3c 38 77 bc bd 9b d4 98 3d
       -0.1029669 0.012502344 -0.09202427 0.07462426
000210 a0 7a cb bd 6e 09 52 bc 49 0b 8e 3d c5 2f 14 3d
       -0.09935498 -0.012819631 0.06935746 0.03617837
000220 a0 ca ad ba cd 42 c0 3c 5c 7f f4 bd a8 f1 22 bc
       -0.001325924 0.023469353 -0.119383544 -0.009945311
000230 34 31 d4 3d ab 76 79 bb 72 82 b6 bd 97 09 a6 3c
       0.10360947 -0.0038065116 -0.08911599 0.020268245
000240 e6 d0 ed bc 4a 42 c1 3c be 9f 33 bb 17 cd be bd
       -0.029030275 0.02359118 -0.0027408446 -0.093164615
000250 55 72 ae ba 6c b3 ea 3d 13 d6 74 bd 38 33 8f 3d
       -0.001330922 0.11460003 -0.05977447 0.06992191
000260 9d 55 46 3d d5 bf 36 3d c9 e8 1d 3c 87 58 dc 3c
       0.04842149 0.04461654 0.00963802 0.026897682
000270 0d 16 1d be 23 5c d9 3d f1 0d 4a bd 4b 9f 02 be
       -0.15340443 0.10613277 -0.0493297 -0.12756078
000280 79 3f da bd 99 17 c2 3b 4f 13 41 bd 73 c1 2d bd
       -0.10656638 0.005923223 -0.047137555 -0.042420816
000290 ae 43 30 3d 1d 1f be bd fc 36 8a bd e5 75 c5 3d
       0.043033294 -0.09283278 -0.06748769 0.09641627
0002a0 4d 28 b4 bd 5d 8b e5 bd f8 d1 8d bd a0 c3 21 bd
       -0.08796749 -0.11208222 -0.06924814 -0.039493203
0002b0 49 69 88 3c 70 41 aa bd 8b fa ef bc ea 6c 20 bd
       0.016651766 -0.083132625 -0.029294273 -0.03916637
0002c0 c2 75 5f 3d fa d2 d9 3d 73 8f bd bd f6 83 89 3d
       0.054555662 0.10635944 -0.092558764 0.06714623
0002d0 13 1f 11 be da 86 08 be bd dd f0 bd 1b 4a 94 bd
       -0.1417201 -0.13332692 -0.11761043 -0.07240697
0002e0 89 50 b6 bd f8 2b 25 3d a1 c9 c2 3d 0d 93 cc bd
       -0.089020796 0.040325135 0.09511114 -0.09988985
0002f0 5f 0a 17 be 93 d0 37 bc 66 d3 8e 3d 6b 34 8b 3d
       -0.1475005 -0.011219162 0.06973915 0.06797107
000300 23 0d eb 3c e1 f5 1f 3e ff 00 f4 3d 2a 83 ac 3d
       0.028692788 0.15621139 0.119142525 0.08423455
000310 28 ca 43 bd 69 0e a0 3c b9 fc 14 3c 9d b0 02 3d
       -0.047800213 0.019538121 0.009093457 0.031906713
000320 a2 e4 3d 3d 44 15 b2 3d a4 de 35 bd 8a df aa bd
       0.04636062 0.08695462 -0.04440178 -0.08343418
000330 ac 45 e5 bd 5a af 0c 3d eb 4c 80 bd b7 2e 98 3d
       -0.111949295 0.034346916 -0.06264671 0.07430785
000340 93 bc e7 3c 48 70 54 3d ce 2b 8b bd 9f 30 b8 3d
       0.028288161 0.051864892 -0.067954645 0.08993649
000350 b9 c9 00 3e 88 c3 5e 3d 65 82 19 3d be 7d a8 3d
       0.12576951 0.054385692 0.03747787 0.082271084
000360 c6 5d 4c 3d 3f 02 19 3d 67 25 8f 3d 8f e7 14 3e
       0.049894117 0.037355658 0.06989556 0.14541458
000370 67 e0 40 3b 26 d2 aa 3d 4b c1 db 3d 43 93 8d bd
       0.002943063 0.08340864 0.10730227 -0.069128536
000380 82 26 da 3c 7a ec aa bd a0 0b 93 bd 74 fe da 3d
       0.02662969 -0.083458856 -0.07179952 0.10693064
000390 db 52 93 bd 79 04 15 3e a0 03 bb 3d 77 c7 35 bd
       -0.07193538 0.14552487 0.09131551 -0.044379678
0003a0 4f d2 93 bd aa b1 83 3c 1a 53 b5 bd 0f 33 8c 3d
       -0.072178476 0.016075928 -0.08853741 0.06845676
0003b0 03 ec 78 bc 36 52 64 3d dc 68 88 3c 9f a3 a4 3c
       -0.015192988 0.055742465 0.016651563 0.020097552
0003c0 b1 76 2b bd ac 8e 7b 3d ba ec 97 3d 1a f8 f7 3c
       -0.04186124 0.06141536 0.07418199 0.030269671
0003d0 1e 66 e5 3c 4a d1 4e bc 25 68 03 bd cd c3 56 3d
       0.028002795 -0.012623141 -0.03208174 0.052432824
0003e0 6f 0d 77 3d 44 a0 85 bc 20 de 2d bd 0b 27 0b 3e
       0.060315546 -0.016311772 -0.042448163 0.13589112
0003f0 ed ba e6 3d a7 f8 b6 bd 2f 9e 26 bd 44 b3 de 3c
       0.11266122 -0.089341454 -0.0406782 0.02718509

lstm.weight_ih_l1 f4 [256, 64]
000000 a1 9c a6 bd 59 6b d3 3c 8f 9e 71 bd 8f ad f3 bd
       -0.08135343 0.025808023 -0.058989104 -0.11898338
000010 24 1c fb bd 35 a3 ef 3d 5a 3b 5a 3d 94 9b a9 3d
       -0.12261227 0.11701051 0.05327926 0.08281627
000020 24 d9 07 3e 88 f1 1d bd ce f8 12 3d 16 ca ef ba
       0.13266426 -0.03856042 0.03588181 -0.0018294479
000030 09 b6 b9 3d a4 a2 85 bd e6 7c 96 bc 3b 0b f0 3c
       0.090679236 -0.06525162 -0.018370103 0.02930223
000040 80 31 b7 3c 1b ad 81 3d 37 46 cf 3d f0 f0 b7 3d
       0.02236247 0.063318454 0.10120814 0.08981502
000050 28 ef 01 be 75 c0 30 3c 2c ee 02 bd b3 1f 9c 3d
       -0.12688887 0.010788073 -0.03196542 0.07623234
000060 f2 36 44 bd c8 c1 af 3d ba ca 79 3d 5c b0 df 3d
       -0.047903962 0.08581883 0.06098435 0.1092231
000070 ef 39 02 bd e4 af 12 3d 5a 90 be 3d f1 e2 98 3d
       -0.03179353 0.035812274 0.093048766 0.07465161
000080 3a 38 94 bd 71 be 44 3d 20 0c 9e bd 27 20 b5 3d
       -0.07237287 0.04803318 -0.077171564 0.08844023
000090 ba f4 6f bd e7 18 4a bc c2 b8 f5 bd b7 7d 6f 3d
       -0.058583 -0.012335039 -0.119981304 0.0584695
0000a0 2f b5 f1 bd 5a 3f d7 bd d2 8d 9d bd ae 81 0d bc
       -0.11802136 -0.1051013 -0.07693066 -0.008636875
0000b0 69 cf ab 3d 0d c7 7c 3d 00 a6 76 3d 90 e7 d7 bd
       0.0838917 0.061713267 0.060216904 -0.10542214
0000c0 d2 de 8b 3d ad 1b 15 3e 5a 16 37 bd 8c a9 3c bd
       0.06829609 0.14561339 -0.04469905 -0.04606013
0000d0 fa 3c bc 3d f4 6c ae 3d a1 b6 7c 3c 55 ec 13 be
       0.09191318 0.08516875 0.0154244015 -0.14445622
0000e0 f9 43 58 bd ac c6 7c 3d fe 66 08 be 10 7b 94 3d
       -0.0527992 0.061712906 -0.13320538 0.07250035
0000f0 26 85 1d 3d 98 8f d6 bb 00 82 16 be bd 09 c7 bd
       0.03845706 -0.0065478794 -0.14698029 -0.09718654
000100 e2 45 db 3d 3c 48 6b 3d b9 fc 1f 3d 58 47 a5 bd
       0.107066885 0.057441935 0.039059374 -0.08070248
000110 70 32 8f bd d5 db c7 3d 70 bc 67 bd 29 15 1e 3d
       -0.06992042 0.097587265 -0.056576192 0.0385944
000120 29 65 51 3c 99 df 4f 3d 44 26 d4 bd c9 eb f7 bc
       0.012780466 0.05075035 -0.10358861 -0.030263798
000130 00 15 8e bd 6e cb c4 3d 00 5b df bb 93 d7 80 bc
       -0.06937599 0.09609114 -0.006816268 -0.015727794
000140 48 7a 09 be 6d 67 08 3e a8 b2 c7 3d 30 4a a1 bd
       -0.13425553 0.13320704 0.09750873 -0.07875478
000150 c4 bc 7e bd ad 36 7d bc 56 88 cd bd 67 79 82 bd
       -0.06219174 -0.01545493 -0.1003577 -0.06370812
000160 e2 48 74 3c 4e 0a b2 3d f4 33 87 bd 46 09 20 3e
       0.014909955 0.08693372 -0.06601706 0.15628538
000170 88 68 2e bc e2 87 92 bd 95 59 47 bd ef 66 bd 3d
       -0.010645039 -0.07154824 -0.048669416 0.09248149
000180 2a 3d 5d bd b4 cf 9e 3d 72 34 a6 bc a9 ff 05 3e
       -0.05401341 0.0775446 -0.02028868 0.13085808
000190 e0 16 e7 bd 6b f7 20 3c 3f 43 c2 3c de de 25 bd
       -0.1128366 0.009824614 0.023713706 -0.040495746
0001a0 07 72 d7 bd 9b 82 70 bd 78 47 2f bd 76 5c 17 bd
       -0.10519796 -0.058718305 -0.042792767 -0.036953412
0001b0 a1 4e cf bd 64 33 9f 3c f3 4b ad 3c 83 77 bc bd
       -0.10122419 0.019433685 0.02115438 -0.092024826
0001c0 30 10 61 bd ff eb 15 3b d8 a1 c7 3c 6b da 93 3d
       -0.05494708 0.002287626 0.024369165 0.07219394
0001d0 98 1f d2 3d 34 db 02 3c c8 6a 8b 3c 50 48 e4 bd
       0.10259932 0.007986832 0.01701869 -0.11146605
0001e0 51 7c a8 3d 85 a5 ad bd c3 c2 a5 3d 74 04 6e 3d
       0.082268365 -0.08478836 0.080937885 0.058109716
0001f0 f9 0f 23 bd 44 09 d3 bc 83 1a 5d 3d 6e 56 54 3d
       -0.039810155 -0.025761254 0.05398036 0.05184024
000200 d9 3f 93 3c 88 61 3d 3d 68 97 bc bd 7b c6 a3 bd
       0.01797478 0.04623559 -0.09208566 -0.079968415
000210 ef 3a 21 be 13 c3 4b bc f4 13 dc bc 06 90 d4 bc
       -0.15745138 -0.012436646 -0.026864983 -0.025947582
000220 5b ac f7 3d de ff a6 b8 82 0f da 3c 3c de a5 3d
       0.12093421 -7.963156e-05 0.026618723 0.080990285
000230 03 79 d6 3d cd 94 07 3e 5a a0 64 3d 33 fc 04 3e
       0.104723 0.13240357 0.055816986 0.12986831
000240 17 a3 be bd f1 ee c5 3d e5 ee de 3d 20 ad e7 bd
       -0.09308451 0.09664715 0.10885409 -0.11312318
000250 31 ff 0e be 5c 4e 29 3c 29 45 bd 3c 37 06 0e 3e
       -0.13964535 0.010333624 0.023104267 0.13869558
000260 4d 1b f5 bd 36 4c 0e 3e d1 07 92 3c 5f 04 86 39
       -0.11968098 0.1389626 0.017825993 0.00025561728
000270 82 b8 09 bd 45 63 c6 3d b5 f1 b4 3d 0a 27 68 bc
       -0.033623226 0.09686903 0.088351645 -0.014169464
000280 d7 3d 0b be 88 8b 96 bc 78 0f fa bd 81 18 c1 bd
       -0.13597809 -0.01837708 -0.12209982 -0.09428502
000290 0d e6 26 3d 3c a4 84 bd 55 47 0e be 96 d1 fa bd
       0.040746737 -0.06476638 -0.13894399 -0.122470066
0002a0 0a 47 cf 3d 45 f6 ac 3d ce 8e f1 bd d4 19 2f bd
       0.101209715 0.0844541 -0.11794816 -0.04274924
0002b0 94 0c 57 3d 3b a7 30 bd 46 10 8b bc 88 b4 8b bd
       0.05250223 -0.043128233 -0.016975533 -0.06821543
0002c0 3b fe f6 3c c3 d4 b8 bd 69 67 0f be e1 3b 9f 3d
       0.030150523 -0.09024956 -0.14004292 0.07775093
0002d0 66 e1 71 3d bf bc 3c 3d 68 8f 6f bd 0c a4 75 bd
       0.059052847 0.04607844 -0.058486372 -0.0599709
0002e0 40 ed 26 bd b3 7b c9 bd d3 9a 04 be 41 23 9e 3d
       -0.040753603 -0.09838047 -0.12949686 0.07721568
0002f0 02 64 a7 bd 38 df b8 bd 96 9b 4a bc b6 85 f7 3d
       -0.08173372 -0.090269506 -0.012366196 0.1208605
000300 89 b7 0a bd 97 88 cd bd a3 a4 45 3d 26 e7 a6 bd
       -0.03386644 -0.10035818 0.048252713 -0.08149557
000310 a1 e2 57 3d 26 ba 71 bd ca 96 0e 3e 1f f6 38 bd
       0.052706365 -0.059015416 0.13924709 -0.045156594
000320 05 f4 0d 3e 8a eb cd 3c 8a d9 98 3d 77 23 d8 3c
       0.13862617 0.025136728 0.07463367 0.026384098
000330 50 bb b4 bd 61 14 20 3d d8 91 09 3e 81 f2 cc bd
       -0.088247895 0.039081935 0.13434541 -0.100071914
000340 78 88 d2 3c aa 5d 21 3d 73 20 f1 3d e0 ec b5 bd
       0.025699839 0.039395966 0.11773767 -0.08883071
000350 a5 4e e0 bd 80 78 63 3d d5 05 57 bd 4d 8f fd bb
       -0.109525 0.05553484 -0.052495796 -0.00773803
000360 27 73 29 3d 97 ee f6 3d 59 40 9d bd bc 9a 4d 3c
       0.041369583 0.12057226 -0.07678289 0.012549099
000370 6b 81 a9 bd fa cd 82 3c 59 72 e7 bc 01 75 d7 3d
       -0.08276638 0.015967358 -0.028252767 0.105203636
000380 96 f6 68 3d f8 aa f6 bb 6a c2 2e bd 3e 71 ab 3d
       0.056875788 -0.0075277053 -0.042665876 0.083712086
000390 6e 19 94 bd 92 e6 00 be c8 03 8c bd 28 d3 a6 bc
       -0.07231413 -0.12587956 -0.06836659 -0.020364359
0003a0 6e a7 f8 bd 2a 8d 81 3d fe e6 ad bc 05 db 33 bd
       -0.1214131 0.06325753 -0.02122831 -0.043910045
0003b0 77 1f a3 bd 9c 46 e6 3d 1f 98 ab 3d 26 5c cf bd
       -0.07964986 0.112439364 0.08378624 -0.10124998
0003c0 62 50 8e 3d 01 d0 eb 3b bc 3e 87 bd 68 80 89 3d
       0.069489256 0.007196427 -0.066037625 0.06713945
0003d0 db 38 06 be 12 e2 17 be 16 58 1e bd 14 fc 88 3d
       -0.13107626 -0.14832333 -0.038658224 0.06688705
0003e0 b7 aa ce 3d 24 b6 85 3d 19 be 54 3d 5a a9 17 3d
       0.10091155 0.06528881 0.051939104 0.03702674
0003f0 b4 30 76 bc f5 db 16 bd fc d5 83 3d 35 cb 0e 3e
       -0.01502626 -0.03683086 0.06437299 0.13944705

lstm.weight_hh_l1 f4 [256, 64]
000000 38 a7 e2 3b a0 f0 07 3e 69 bd de 3d 69 ce 79 bd
       0.0069169067 0.13275385 0.10875971 -0.060987864
000010 9b 42 15 3e bf 10 0e 3d a0 de 4d 3c 5d 04 d2 bc
       0.14576189 0.03468394 0.012565285 -0.025636846
000020 45 a9 41 bc b0 fb a4 bd 1a 40 82 3d 4e 0b a4 3d
       -0.011820142 -0.08055818 0.06359883 0.08009969
000030 25 c3 d8 bb bd be 0e be c4 53 a7 3b 74 3c 85 3d
       -0.00661506 -0.13939948 0.005106421 0.06505671
000040 5d 15 8b bd 72 bd cc bd 93 ba 84 bd dd ad 80 bd
       -0.06791184 -0.09997071 -0.06480899 -0.06283162
000050 46 8f ad 3d 33 5a 72 3c 7b 08 2a 3d 30 44 6e bd
       0.08474593 0.014792013 0.041511994 -0.058170497
000060 05 17 99 3d 05 e3 01 3e 33 9c b7 bb 63 a9 da 3d
       0.07475094 0.12684257 -0.005603337 0.10676839
000070 f3 ab 5a bc 9b 72 13 3e 73 9e db 3c 8d 16 1c bd
       -0.01334666 0.14399187 0.026808953 -0.038107444
000080 d9 5f 01 3e 99 b0 82 bd fb 53 16 3e f5 24 4d bb
       0.12634219 -0.063813396 0.14680474 -0.0031302546
000090 79 98 07 bd 4c 30 df 3a 5a 63 95 3a 69 a2 f2 3d
       -0.033104394 0.0017027943 0.0011397407 0.118473835
0000a0 65 9b 12 be 04 a1 ab bb 80 f6 1c 3d 4a 37 a5 bd
       -0.14317091 -0.0052377004 0.03832102 -0.08067186
0000b0 76 9f 75 3d 16 bf a0 3d f5 a6 11 3e 83 0e 14 bc
       0.059966527 0.07848947 0.14223845 -0.009036663
0000c0 7e bb bc bd 3b 95 6a bd ef f3 f0 bd 8a c6 9a bd
       -0.09215449 -0.057271224 -0.11765277 -0.075573996
0000d0 96 67 01 3e 78 57 15 be 70 e4 a3 3d 30 23 00 bd
       0.12637171 -0.14584148 0.08002555 -0.031283557
0000e0 f3 c7 da 3c 38 c9 14 be 16 f1 94 bc 17 ac 1c 3c
       0.026706671 -0.14529884 -0.018181365 0.009562514
0000f0 68 40 00 be 4f 33 9a bd 22 98 8d bd 7d 03 be 3d
       -0.12524569 -0.075293176 -0.06913783 0.09278009
000100 68 ad ae 3d a1 49 24 3d 49 b7 42 bd 99 ae 65 3c
       0.08529168 0.04010928 -0.047538076 0.014018678
000110 50 28 50 bd d2 9f 34 bc 86 08 b9 3b d0 de 11 be
       -0.050819695 -0.011024432 0.005646768 -0.14245152
000120 96 44 8e 3c 78 18 68 3d 6d b0 cc 3c 6c 41 b1 3b
       0.017366689 0.05666396 0.02498647 0.00540941
000130 02 5e 85 bc 8f db 3a bd 5f a9 fc bd a9 95 12 3e
       -0.016280178 -0.045619544 -0.123369925 0.14314903
000140 ad 14 6e bc ea 65 a6 bd 0b c3 ab 3d 10 22 b2 3d
       -0.014531297 -0.08124907 0.08386811 0.08697903
000150 2f c8 fc 3d c6 a3 5a bd 8a 96 c5 bc ee af 2d bc
       0.123428695 -0.053378843 -0.024119634 -0.010601027
000160 16 d6 92 bc 6a 3e a9 bd 6a 13 ab 3c a1 c6 08 3e
       -0.01792435 -0.08263858 0.02088328 0.13357021
000170 24 de 43 bc a4 e5 3d bd 1d 86 3d 3d 52 b0 64 3d
       -0.011954818 -0.04636158 0.04627048 0.055832215
000180 46 7a c1 3c f8 48 92 3d 87 d4 91 bd cb 9f 1c 3e
       0.023617875 0.07142824 -0.071206145 0.15295331
000190 9b bc 17 be a9 e1 e3 3d 85 61 f5 bc d0 a5 8f 3d
       -0.14818041 0.11127026 -0.029953727 0.07014048
0001a0 b1 32 b0 3d ce 40 66 3d 47 8e 0d 3b 57 d1 c4 3d
       0.086034186 0.056214146 0.0021599696 0.09610241
0001b0 9e ea a5 3d 3f e1 bf 3c 26 3f f3 bb 77 89 ce 3d
       0.0810139 0.023422835 -0.0074232994 0.10084813
0001c0 20 30 89 3d ee 0a 1f 3d db 51 bd 3c 6d d3 06 3e
       0.06698632 0.038828783 0.02311032 0.1316659
0001d0 27 1e 4b 3d bb dc 99 bd 98 98 0c 3e 59 ad 1e bd
       0.049589302 -0.07512804 0.13730085 -0.038739536
0001e0 93 78 88 3d ac 54 f6 bd 34 dd bd 3d 38 0f 90 bc
       0.06663623 -0.12027869 0.09270707 -0.017585382
0001f0 f8 97 42 bd c5 34 6a bd e8 5d d6 3d 6c 22 80 3d
       -0.04750821 -0.05717923 0.1046713 0.062565655
000200 56 21 be bc ad 2b 5f 3d ef 49 34 bc 19 6a be 3d
       -0.023209255 0.05448501 -0.011003955 0.0929758
000210 a8 41 07 3e c2 28 ef 3d 79 22 c5 bd 5f 1f c4 3c
       0.1320864 0.11677696 -0.09625716 0.02394074
000220 47 03 46 bd 7f a9 a8 bd 25 a2 ac 3d 79 b8 25 bc
       -0.04834297 -0.08235454 0.08429364 -0.0101147825
000230 e3 a7 92 3c c9 d3 91 3d 64 1a a9 bd e4 24 e7 3d
       0.01790232 0.07120473 -0.08256987 0.11286333
000240 6d 4d 45 3d a8 6d a5 3d b2 3a 70 3d 97 51 04 bd
       0.048169542 0.08077556 0.058649726 -0.032304373
000250 fc 46 c2 3d 34 19 89 bd 3a 88 f1 bd 40 5c 5d bd
       0.094861954 -0.0669426 -0.11793561 -0.054043055
000260 eb ab 0e 3d 19 e1 15 3b b7 57 05 3e d4 4a e1 3d
       0.034831923 0.0022869764 0.13021742 0.110006005
000270 56 e4 07 be dc f3 e4 3d d1 4c 2a bd 3e 65 0a bd
       -0.13270697 0.11179325 -0.041577164 -0.03378796
000280 dd 66 9b bd 42 3e e1 bc 3e e4 00 3e ea a4 8d 3d
       -0.07587979 -0.027495507 0.12587067 0.069162205
000290 2c b7 b7 bc e1 cc 11 3e 29 46 13 3e ca a1 83 bd
       -0.02242621 0.14238311 0.14382233 -0.06427343
0002a0 30 88 7c bc b4 c1 37 3d 27 9f a0 3c bf ed 97 3d
       -0.015413329 0.044862464 0.01960714 0.07418393
0002b0 21 48 ce bc 02 0e 1e bd 15 1f a5 3d 0d 89 f2 3b
       -0.025180878 -0.038587578 0.08062569 0.0074015916
0002c0 fc d4 5e 3b e6 c9 2a 3d 38 e8 ed 3c 36 5a 43 bb
       0.003400146 0.04169645 0.029041395 -0.0029808409
0002d0 c7 19 ac 3d be 41 0e bc ac 5e 4e 3a 17 c4 87 bd
       0.08403354 -0.008682666 0.00078723836 -0.06629198
0002e0 d1 5c 09 3e 34 36 57 3d 42 67 0e 3e 1d 42 cd bd
       0.13414313 0.052541927 0.13906577 -0.10022376
0002f0 4b 6e 7e bd 25 63 32 bd 82 5e a7 3d e2 9b 17 3e
       -0.062116902 -0.043551583 0.08172323 0.14805558
000300 ac 29 96 3b d4 6d 0e 3e 39 e8 e1 3d f6 7d f3 bd
       0.0045826044 0.13909084 0.11030621 -0.118892595
000310 5b 83 86 bc ac 07 c6 3d 4a e4 ec 3c d4 c1 09 be
       -0.016420057 0.09669432 0.02891745 -0.13452846
000320 52 12 aa 3c 42 19 b3 3d 22 f6 a6 3d c4 20 00 be
       0.020760689 0.08745052 0.08152415 -0.12512499
000330 b4 9b 03 3d 26 a3 1b 3d c1 f8 0c bd 71 68 78 3c
       0.032130912 0.037997387 -0.034416918 0.0151616195
000340 9f c0 b1 bd 13 83 cd bc ea 85 00 bd 39 3e b9 bd
       -0.08679318 -0.025086915 -0.03137771 -0.09045071
000350 21 f6 ce 3c 92 d3 3c 3d f8 87 f5 bd 8a fb 53 bd
       0.025263848 0.046100207 -0.119888246 -0.05175356
000360 2c f3 c3 ba 2e 28 c4 bd 67 55 8f bd 45 9a bd bd
       -0.001494979 -0.09577976 -0.06998711 -0.0925794
000370 da 06 e6 bd 29 5e 10 3e 98 58 19 3e ed 1f 4c 3d
       -0.112317756 0.14098419 0.14975202 0.049835134
000380 47 8d ce 3d 92 88 46 3d b3 e4 af 3d ac 61 28 bd
       0.1008554 0.048470087 0.08588543 -0.041108772
000390 6b a4 0e be 6d 2a c6 3c 37 3a 60 bc 28 56 ca 3d
       -0.13929908 0.024190152 -0.0136857545 0.09879714
0003a0 28 d4 0a bb b4 83 0b bd 6f e9 89 bd aa c9 c0 3a
       -0.0021183584 -0.03406115 -0.06733977 0.0014708538
0003b0 6c 99 04 bd 9a 0c 6c bc b1 16 bb bd d2 6c 7a bd
       -0.032372877 -0.014407301 -0.091351874 -0.061138935
0003c0 ee 88 72 3c 7f 25 0d 3d 73 8a 5a bd b9 2f 84 3d
       0.014803154 0.034459587 -0.05335469 0.06454415
0003d0 17 c9 5d bd 10 9e bc 3d d1 0d 96 bd 64 de 8a 3d
       -0.054146852 0.092098355 -0.07326854 0.06780699
0003e0 ec 27 dc 3c 29 6b 62 3d 83 34 b9 bd e8 a6 54 3d
       0.026874505 0.055277977 -0.09043219 0.051916987
0003f0 4c 9b 82 bd d6 e4 9e bd c3 ba c1 bb 21 cd 14 3d
       -0.06377277 -0.07758491 -0.0059121563 0.03632844

lstm.bias_ih_l1 f4 [256]
000000 f6 ff 8c bd 6c bb c2 bc 04 23 a2 3d 1c a7 13 3b
       -0.06884758 -0.02377101 0.07916835 0.0022530025
000010 fd 8b 34 bd 76 97 ce 3c c6 56 fc bd 35 fc f3 3d
       -0.044078816 0.025218707 -0.12321238 0.11913339
000020 51 99 ad 3d 11 5a 96 bd 18 9b 1e bd 4d 7f 1e 3b
       0.084765084 -0.073413976 -0.038722128 0.0024184764
000030 2f 14 8f 3d 4a 5a 0d bc d6 cd dd bc 32 4f 01 3e
       0.069862716 -0.008627484 -0.02707569 0.12627867
000040 ef c9 9c 3a a1 20 74 3d 0d a5 c0 3d ff ba 1d bd
       0.0011962036 0.05960143 0.09406481 -0.03850841
000050 ff 09 83 3d ff f4 f7 bd 9d 69 87 bd cf 5d 94 bd
       0.06398391 -0.12107276 -0.06611941 -0.07244455
000060 7b f4 8a bd 65 c3 97 3d 96 b1 55 bb b5 77 49 bd
       -0.06784912 0.074103154 -0.003260707 -0.049186427
000070 f4 2e 74 3d e0 ae 13 3e f2 6a a6 bd 84 db 1c 3d
       0.05961509 0.14422178 -0.08125867 0.038295284
000080 fc ee d9 3d 54 13 76 3d d9 9c 8c 3c 1e 2e ca bd
       0.10641286 0.060077026 0.017164635 -0.098720774
000090 2e d0 93 bd ad ea 57 bd c9 ed e5 3d cb f5 df 3d
       -0.072174415 -0.05271404 0.112269945 0.10935553
0000a0 22 69 b6 bd 3a 7d cb bd d3 1d 8a 3d d5 7a ac 3d
       -0.08906771 -0.099359944 0.0674397 0.08421866
0000b0 6d 1c 02 3e 4a 3c 50 3d c6 c7 c5 bc 3b e5 99 3d
       0.12706156 0.050838746 -0.024143111 0.07514425
0000c0 14 34 77 3d 7c 42 f7 bc 27 15 79 3d 15 c6 f4 bd
       0.0603524 -0.03018307 0.060811188 -0.11951844
0000d0 1b cd ca 3c 49 8a 56 bd a7 46 38 bd d6 8c 0e bb
       0.024756005 -0.052377973 -0.044989254 -0.0021751425
0000e0 98 59 4b 3d 0d 3b b6 3d 7b bd 9a bd 0b dd 4d bd
       0.04964599 0.08897982 -0.07555672 -0.05025963
0000f0 ac a9 83 bc 01 3f fa 3d 07 e3 18 3e f1 d2 3e bd
       -0.016072117 0.12219048 0.14930354 -0.04658789
000100 86 03 20 3d c5 b3 a2 bd 7c f3 a8 bd 97 c3 90 3d
       0.03906586 -0.079444446 -0.08249566 0.07068556
000110 04 33 54 3d 0d f4 b0 bd 13 fc a8 3c 05 03 58 bd
       0.051806465 -0.08640299 0.02062801 -0.052737255
000120 40 d1 93 3d 4f d4 12 3e fd 59 16 3d 2d 5d 09 be
       0.07217646 0.14338802 0.036706913 -0.1341445
000130 fc 97 cf bc d6 8d 96 3d e2 a9 80 ba 1e e7 da bc
       -0.025341026 0.07351272 -0.0009816254 -0.026721533
000140 ae 23 9e bd 74 7b 1b 3d 47 56 f9 3d 6b 82 3e bc
       -0.07721649 0.03795953 0.12174659 -0.011627774
000150 18 1f 00 be d0 ec b5 bd d0 bc 7a 3d 94 c9 e9 bd
       -0.12511861 -0.08883059 0.061215222 -0.11415401
000160 30 05 0e 3d 47 b1 97 3d ef ef 92 bc df cc 73 3d
       0.034672916 0.0740686 -0.017936675 0.059521552
000170 7a 82 99 3d 37 2d f6 3d 6b 8c aa bd a6 3b b6 bd
       0.074955896 0.12020343 -0.08327564 -0.08898096
000180 12 72 bc 3d aa 7b 57 bd 0e 5e d6 3d 37 ab 3c bc
       0.09201445 -0.05260817 0.10467158 -0.01151543
000190 8d 0e 2a 3c b4 16 88 bd c9 f2 54 3d 3c f5 08 bd
       0.010379446 -0.06644955 0.05198935 -0.033437
0001a0 c2 11 48 3b 18 c6 a0 3d ed 68 85 3d b8 49 cc 3c
       0.0030528163 0.078502834 0.06514154 0.024937496
0001b0 da 64 a2 3d 44 37 a3 3d 2c f6 38 bd 6d 07 b2 bd
       0.07929392 0.079695255 -0.045156643 -0.086928226
0001c0 46 91 6f 3c 16 1f b3 bd 3b 89 f3 3d 4d 41 8d 3c
       0.014622038 -0.087461635 0.11891409 0.017243052
0001d0 a1 88 de bd 39 ef 02 3e d1 51 9a bc 3f 88 5b 3c
       -0.10865904 0.12786569 -0.018837841 0.013399183
0001e0 d1 13 91 3b 89 7b b8 3d 8f 1c f9 bc a1 90 43 bd
       0.004427411 0.090079375 -0.030409126 -0.04774535
0001f0 b9 73 6e bd 34 80 b5 bd aa af 1a 3e 59 82 d1 3c
       -0.05821583 -0.088623434 0.15106073 0.02557485
000200 b3 9c 59 bd 88 15 ca bc f4 16 34 3c 59 8d b8 3d
       -0.053127956 -0.02466847 0.010991801 0.09011335
000210 77 21 4b 3d 48 95 82 bc 06 bd 09 bd 99 69 92 3d
       0.04959246 -0.015940323 -0.033627532 0.071490474
000220 66 74 96 bc ad e5 56 bd 90 eb 47 3d 6a 02 bb 3c
       -0.01836605 -0.05246513 0.048808634 0.0228283
000230 eb 96 83 bd 8b 91 10 be 83 65 98 3c 16 1c bd 3d
       -0.0642527 -0.1411802 0.018603092 0.092338726
000240 25 17 8c 3b bc f2 0e 3d e7 6e 21 bd 3e 5b 65 bd
       0.00427522 0.03489946 -0.039412405 -0.05599522
000250 11 d0 6b bd 64 bc 9e bd 48 6f be 3d d6 fd dd 3d
       -0.057571474 -0.077507764 0.09298569 0.10839431
000260 77 3d b9 bd d9 36 92 3d f6 b0 ed bc cb 37 c9 3d
       -0.090449266 0.071393676 -0.029015046 0.09825095
000270 c6 9f d2 bd ee 8e 21 3e 0c 02 d5 3d 8f f9 44 3d
       -0.102843806 0.1577718 0.10400781 0.04808956
000280 0e e4 4c bc 1c bd cc 3d 32 de b7 3d 52 9e 04 3e
       -0.012505544 0.09997007 0.08977927 0.1295102
000290 8f dd f6 bd 08 b2 a7 bd c0 c2 a4 ba c4 c4 20 3c
       -0.12053978 -0.08188254 -0.0012570247 0.009812538
0002a0 0d 30 13 be f8 1d 2d 3c c3 f9 a5 bc 85 df 68 3d
       -0.14373799 0.010566227 -0.020260697 0.05685379
0002b0 db 29 13 3e 8e dd 04 39 3c 73 18 3e 9e 5c aa bd
       0.14371435 0.00012671037 0.14887708 -0.083184466
0002c0 9d fb da bd ce 1b 03 bd 6f b0 c9 bd 82 3a 2e bd
       -0.10692523 -0.03200894 -0.09848105 -0.042536266
0002d0 56 72 ad 3c de 07 e5 bc 7c fd 87 3c d9 ef e2 bc
       0.021172684 -0.027957853 0.016600363 -0.027702259
0002e0 12 3a 07 3e 4d 02 a9 bd 4e 29 ad 3d c8 6a b1 bd
       0.13205746 -0.08252392 0.08455144 -0.08662945
0002f0 6c 77 ed 3c 8e 49 50 3a ba 25 0a bd fe d9 cf 3c
       0.028987609 0.0007945531 -0.033727385 0.025372501
000300 77 a3 a0 3d a1 c6 ca 3d 35 35 06 3e 95 27 c8 bd
       0.078436784 0.09901167 0.13106234 -0.09773175
000310 3d c6 04 3e 7f bc 95 3d 05 e7 a2 3c d7 89 46 3d
       0.12966247 0.073113434 0.01988555 0.048471298
000320 25 79 b9 3d cf 76 5a bb 88 c2 94 3d 1c 17 c7 bd
       0.090563096 -0.0033334976 0.072636664 -0.09721205
000330 ba 79 25 bd 1c 78 b4 3d dc 2a bb bd 90 7a 1f 3e
       -0.04039929 0.088119715 -0.09139034 0.15574098
000340 cb 54 47 3d 9e 68 0e 3c c6 60 c7 bd 0d 4e ef 3b
       0.04866485 0.008691935 -0.09735255 0.0073030056
000350 5b d3 c3 3d 0c ef f5 bd a7 25 f7 bb e2 ce f1 3d
       0.09561797 -0.12008485 -0.0075423303 0.11807038
000360 92 58 90 3d ff 9c 0f 3e 93 58 36 bd 55 83 67 bc
       0.070481434 0.14024733 -0.044518065 -0.014130433
000370 e1 a1 a2 3d a3 d3 3f bc 7c 87 8c bd 44 e5 cd 3d
       0.07941032 -0.011708173 -0.06861779 0.100534946
000380 66 28 d2 bd 3f c0 8d bd c5 2b ea 3c f3 72 11 3e
       -0.10261612 -0.06921434 0.028585324 0.14204006
000390 2a 1c 7d 3a a6 90 c3 bd 8f 54 e4 3c ae 1a ae bd
       0.0009655381 -0.09549074 0.027872352 -0.085011825
0003a0 f1 1a c0 3d b0 12 b3 bd 7e 29 3e 3d 52 25 1e 3e
       0.09380139 -0.08743799 0.04642629 0.15443924
0003b0 43 0a d4 3d 11 00 87 3c 2d be a8 3d e1 0e cc bd
       0.1035352 0.016479524 0.08239398 -0.099637754
0003c0 e0 fb 9f 3d 76 c0 4e 3d 86 10 b3 bd 90 cf f2 bd
       0.07811713 0.050476514 -0.08743386 -0.11855996
0003d0 5d 7e 98 bd e2 02 8d bd 18 61 18 3e 3f 28 f9 3d
       -0.07445977 -0.068853155 0.14880788 0.121658795
0003e0 58 92 d2 3d 59 c6 05 3e 95 25 27 3c 05 00 ed bd
       0.10281819 0.13063945 0.010201831 -0.11572269
0003f0 ff 7c 6f 3d f5 4a 23 3d 4d d1 04 bd 40 09 e7 3d
       0.058468815 0.039866406 -0.032426167 0.11281061
