lstm_mid_model.pt (torch, 242997 bytes, 9 tensors)

lstm.weight_ih_l0 f4 [256, 36]
0.08676614 0.11896166 -0.0011652501 0.1932696 -0.050527554 0.06796188 -0.106195115 0.06898644
0.14438088 -0.032167364 0.18216525 0.045910846 0.18323705 -0.006533523 0.036156137 0.046613727
0.11325433 -0.006405163 -0.118204005 -0.033663645 -0.14037676 -0.110678084 -0.08232289 -0.011699522
-0.20100476 -0.16681089 -0.085463524 -0.089589 0.0085220765 -0.1514323 0.09456029 -0.116136745
0.24471931 0.14197013 -0.059970707 0.14681749 -0.055805113 0.0644403 -0.023307087 -0.12173974
0.082926355 -0.06507892 0.067803726 0.08798739 0.059703313 -0.101781934 0.02978697 0.05103602
0.0077790166 -0.08612817 -0.11479642 -0.12751773 -0.2121311 0.0014205151 0.116776034 0.15297173
0.079448454 0.0926097 0.16329172 -0.04406807 0.023270633 -0.08389024 -0.047242682 -0.040875435
0.042325675 -0.038682807 0.097704634 -0.034636486 -0.2097232 -0.071026124 0.18038446 0.09255474
0.06501913 -0.159093 -0.19943488 -0.16784362 -0.12073573 0.010665461 0.024326976 0.059329636
-0.107253544 -0.20571266 0.033291012 -0.024311272 -0.04197945 -0.044185616 0.06540499 -0.15668052
-0.14234754 0.03154978 -0.027739147 -0.015098578 0.0494623 0.07627951 -0.08408683 -0.07334164
0.16430315 -0.10399197 -0.13825597 -0.118691735 -0.13108173 0.0044966326 -0.08094469 -0.10851637
0.031373534 -0.0829128 -0.11858295 -0.078341156 -0.094326824 -0.05386638 0.1312718 0.083405726
-0.056952402 -0.14975375 -0.1751414 -0.120507784 -0.08288105 -0.097118445 -0.10141597 -0.20787781
0.064114265 -0.18583246 -0.15529405 -0.08587218 0.089017935 -0.071770266 -0.04629072 -0.12015784
0.107040435 -0.030044496 0.052378625 0.016348999 -0.053072855 0.09245796 -0.04433033 -0.13585734
-0.20925558 -0.13921896 -0.028471733 -0.14449859 -0.09501624 -0.09937919 0.0814999 -0.11746431
0.008876104 -0.008159134 0.066251576 0.0331931 0.16829586 -0.082408205 -0.025118127 -0.06247923
-0.04697481 -0.10633582 0.073209934 -0.10768746 0.0025836846 0.038969945 0.018761218 -0.13548076
0.05341698 -0.030447556 0.073207416 -0.044074386 0.054813635 0.044585988 -0.072874084 0.1541402
0.00914734 -0.066236295 -0.07800393 -0.025605869 0.06847658 -0.12746842 -0.10991124 -0.04808835
-0.05623151 0.04041956 0.095647715 -0.12282445 -0.074725434 -0.08362341 -0.15836747 -0.14057438
0.044206053 -0.011110974 -0.08304822 -0.16186783 -0.12979844 -0.08676619 -0.15101089 -0.06943951
-0.096359044 0.109492786 0.034049317 -0.1000936 -0.009821113 -0.07350095 0.08556531 -0.0064798906
-0.060144827 -0.06925134 0.1470125 0.02396898 -0.07483878 -0.16025756 -0.08036375 -0.27627334
-0.046798255 0.0018298151 0.07625356 0.085279144 -0.028555743 -0.03835083 0.02998674 0.18363996
0.0769522 -0.043711007 0.1860431 0.0071121845 -0.014147108 0.22398491 -0.042907383 0.08089527
-0.053771835 0.15389761 0.13663027 0.12287687 -0.012602402 -0.08729046 -0.046273846 0.25289264
0.18529253 0.037547614 0.092052095 0.0628312 0.011243511 -0.053492535 -0.069729604 -0.0900648
0.10190397 -0.09314229 0.006844396 -0.06553666 -0.004129812 -0.057071168 -0.046329502 0.068137765
-0.1865626 -0.048649255 -0.19588353 -0.32632962 -0.06331045 -0.075254686 -0.10994503 -0.18202598
00000000: 72b2 b13d 2ca2 f33d 4ebb 98ba 77e8 453e
00000010: fbf5 4ebd 992f 8b3d d37c d9bd c348 8d3d
00000020: 95d8 133e edc1 03bd 8789 3a3e 030d 3c3d
00000030: 7ea2 3b3e 2a17 d6bb 7518 143d 09ee 3e3d
00000040: e3f1 e73d 67e2 d1bb f114 f2bd e4e2 09bd
00000050: edbe 0fbe 31ab e2bd e798 a8bd 5aaf 3fbc
00000060: 31d4 4dbe 79d0 2abe 8007 afbd 707a b7bd
00000070: 2ea0 0b3c 1211 1bbe d3a8 c13d 1ad9 edbd
00000080: b397 7a3e 9e60 113e d8a3 75bd 5357 163e
00000090: e793 64bd 47f9 833d 81ee bebc af52 f9bd
000000a0: 4bd5 a93d 1948 85bd aedc 8a3d bc32 b43d
000000b0: 768b 743d 0c73 d0bd ce03 f43c 250b 513d
000000c0: 1fe7 fe3b f763 b0bd 631a ebbd 0294 02be
000000d0: e538 59be 9430 ba3a 4628 ef3d 9fa4 1c3e
000000e0: dfb5 a23d 28aa bd3d f235 273e b880 34bd
000000f0: 0ea2 be3c a5ce abbd 8b81 41bd 006d 27bd
00000100: b05d 2d3d dd71 1ebd 5e19 c83d fdde 0dbd
00000110: aec1 56be 2576 91bd b4b6 383e 578d bd3d
00000120: c028 853d 47e9 22be a838 4cbe 33df 2bbe
00000130: 4b44 f7bd 30be 2e3c 5e49 c73c a203 733d
00000140: bfa7 dbbd 57a6 52be 285c 083d 6f28 c7bc
00000150: a5f2 2bbd fafb 34bd 0df3 853d dc70 20be
00000160: 8ec3 11be 583a 013d 353d e3bc 0760 77bc
00000170: fb98 4a3d 6f38 9c3d b735 acbd 2434 96bd
00000180: 163f 283e bef9 d4bd f992 0dbe a714 f3bd
00000190: 4a3a 06be 7d58 933b 54c6 a5bd d53d debd
000001a0: 8981 003d 30ce a9bd 9edb f2bd 5471 a0bd
000001b0: 6c2e c1bd fea2 5cbd 1d6c 063e 9fd0 aa3d
000001c0: ec46 69bd 0c59 19be 4458 33be c9cc f6bd
000001d0: 8abd a9bd 09e6 c6bd 2db3 cfbd ecdd 54be
000001e0: 574e 833d dd4a 3ebe 6705 1fbe c1dd afbd
000001f0: 094f b63d 4afc 92bd 579b 3dbd 5015 f6bd
00000200: 0438 db3d e01f f6bc f88a 563d 56ee 853c
00000210: ec62 59bd 995a bd3d b893 35bd 301e 0bbe
00000220: 1847 56be 6a8f 0ebe 8d3d e9bc 70f7 13be
00000230: e097 c2bd 5187 cbbd 6be9 a63d 2191 f0bd
00000240: 146d 113c e3ad 05bc e8ae 873d 7df5 073d
00000250: c055 2c3e a2c5 a8bd 88c4 cdbc 39ea 7fbd
00000260: a968 40bd 98c6 d9bd 17ef 953d 3e8b dcbd
00000270: 0953 293b f39e 1f3d 20b1 993c 78bb 0abe
00000280: c3cb 5a3d 276d f9bc c5ed 953d 5887 34bd
00000290: 4384 603d cc9f 363d 023f 95bd eed6 1d3e
000002a0: bade 153c e5a6 87bd 86c0 9fbd 66c3 d1bc
000002b0: 733d 8c3d 1587 02be 2519 e1bd 4af8 44bd
000002c0: 0353 66bd fb8e 253d f3e2 c33d 638b fbbd
000002d0: a609 99bd c042 abbd 152b 22be bbf2 0fbe
000002e0: 6811 353d cd0a 36bc 2f15 aabd aec0 25be
000002f0: e2e9 04be 79b2 b1bd 99a2 1abe 4d36 8ebd
00000300: e457 c5bd c13d e03d 4c77 0b3d e0fd ccbd
00000310: bce8 20bc ab87 96bd de3c af3d 4355 d4bb
00000320: 6c5a 76bd a6d3 8dbd 728a 163e 985a c43c
00000330: 1345 99bd 8f1a 24be c095 a4bd b373 8dbe
00000340: 87af 3fbd 68d6 ef3a d42a 9c3d d5a6 ae3d
00000350: bced e9bc c315 1dbd c0a6 f53c 1d0c 3c3e
00000360: 1d99 9d3d 500a 33bd 1582 3e3e 540d e93b
00000370: 46c9 67bc 4d5c 653e a7bf 2fbd 6bac a53d
00000380: db3f 5cbd 5697 1d3e cee8 0b3e dea6 fb3d
00000390: 4e7a 4ebc 57c5 b2bd a589 3dbd 257b 813e
000003a0: 53bd 3d3e 87cb 193d cf85 bc3d a5ad 803d
000003b0: b436 383c fd1a 5bbd 65ce 8ebd e573 b8bd
000003c0: 07b3 d03d 63c1 bebd f446 e03b 1638 86bd
000003d0: 6053 87bb 75c3 69bd 01c4 3dbd d08b 8b3d
000003e0: 440a 3fbe 7144 47bd b195 48be ad14 a7be
000003f0: e9a8 81bd 211f 9abd dc2a e1bd 0565 3abe

lstm.weight_hh_l0 f4 [256, 64]
0.19507141 -0.12621206 -0.06939571 0.09995511 -0.012175452 -0.032091208 0.16866894 -0.12024805
0.010127123 -0.14401549 0.11605107 0.13992932 0.08038111 -0.21493977 -0.1063405 0.043915693
-0.11704313 -0.106476806 -0.14158703 0.0777498 0.03737669 -0.09699664 0.05750826 -0.0431142
-0.17684133 0.106934145 0.11922634 -0.14823174 -0.08320399 0.107081816 0.07600213 0.14830694
0.089836456 -0.13930601 0.11461678 -0.123206556 0.21840253 0.070813656 -0.039573837 -0.0041703824
-0.12273436 -0.11270789 0.048263285 -0.15748209 0.13745813 -0.047846295 0.010566557 -0.09210177
-0.098324664 -0.03499061 0.0794686 -0.00094274746 -0.1897403 -0.21892947 -0.012445141 0.016314765
-0.103209004 0.09757966 -0.021942137 -0.05686921 -0.031468134 0.08235042 0.045107994 -0.08491503
-0.0054956 -0.093760744 -0.15480255 0.04190691 0.09136034 0.088726826 0.113869734 0.00049776427
-0.04133402 -0.18374625 0.108117536 0.097237945 -0.0074143014 -0.031308558 -0.020331288 0.10702251
-0.0030221916 -0.03610893 -0.102696575 0.022164617 0.045872547 -0.12767442 -0.043199386 0.053058967
0.03133864 0.0526055 -0.082516104 0.03731269 -0.11462743 0.102618694 -0.07690017 -0.10330534
-0.17207451 -0.09102019 0.07128073 0.10768525 -0.025897834 0.0864146 -0.21682966 0.028775215
0.061880063 0.07987953 0.06305457 -0.20269947 0.1134393 -0.07302134 -0.09774973 -0.07338566
-0.04925757 0.055250563 0.04297638 -0.08549214 0.060863737 0.12626894 0.028613226 -0.0631314
0.09332738 0.041532163 -0.0068950644 -0.100253634 0.1657457 -0.048401814 -0.08030312 0.07351825
-0.004435716 0.046232253 0.053928014 0.094622076 -0.07481358 -0.03927351 0.10514949 -0.020811673
-0.083370954 -0.15001172 -0.1633401 -0.017130867 0.11041488 0.11024807 -0.02181794 0.035775095
-0.10399363 0.081956804 0.12844205 -0.09136562 -0.073979035 -0.09484875 -0.049580276 0.18025318
0.002169856 -0.075937316 0.039291326 -0.06539721 -0.0023427475 0.18297713 0.07051098 -0.05449707
-0.10583659 -0.05763359 0.11903314 -0.04201598 0.04613488 -0.078376785 -0.04230679 -0.095719524
-0.1611421 0.0041670552 -0.06439079 0.032024857 0.096302696 -0.13977031 -0.08819808 0.015088863
0.006958109 -0.112334855 0.13415353 0.03125625 -0.059985314 -0.1368436 -0.04865647 -0.060315
0.13474584 -0.059316244 0.14436759 0.026380952 0.042638037 -0.029402778 -0.031503387 0.10505434
-0.10312818 -0.08059688 -0.12330915 -0.061952505 0.08399773 -0.15386784 -0.19301955 -0.25312468
0.07805326 0.040156774 -0.06103163 -0.21308465 0.047669176 -0.10909345 -0.1245182 0.009055357
-0.14470764 -0.043976903 0.049422365 -0.12172458 -0.090403125 -0.06593009 -0.020077098 -0.050746262
0.08643051 0.021723146 -0.0018047534 0.025418108 -0.063792795 0.08454977 -0.00446086 0.019357946
-0.057592697 -0.09134856 0.052131634 -0.23190588 0.061919406 0.08343424 -0.064471066 0.2624413
-0.17333701 0.22204365 -0.026514094 -0.059364624 0.010157774 -0.0128057 -0.26185015 -0.15070835
-0.048776414 -0.12764886 0.14864188 -0.0028745134 -0.038804334 -0.032622237 -0.07783721 -0.08201692
-0.032832727 -0.14465433 0.23289618 -0.20192653 -0.14113657 -0.06657944 0.02749837 0.16013712
00000000: cdc0 473e bc3d 01be 571f 8ebd 44b5 cc3d
00000010: 8c7b 47bc 1272 03bd 8db7 2c3e 9c44 f6bd
00000020: 3cec 253c cc78 13be 2fac ed3d a249 0f3e
00000030: da9e a43d 2c19 5cbe 0cc9 d9bd f1e0 333d
00000040: 4fb4 efbd 8310 dabd 31fc 10be 4a3b 9f3d
00000050: 4d18 193d 2da6 c6bd c88d 6b3d 8498 30bd
00000060: e515 35be 4a00 db3d f02c f43d 10ca 17be
00000070: da66 aabd b64d db3d 01a7 9b3d c6dd 173e
00000080: 2dfc b73d 3ca6 0ebe 34bc ea3d b853 fcbd
00000090: eaa4 5f3e c006 913d 2d18 22bd b4a7 88bb
000000a0: 275c fbbd 65d3 e6bd b9af 453d fc42 21be
000000b0: d3c1 0c3e 7afa 43bd 5a1f 2d3c da9f bcbd
000000c0: 715e c9bd 5052 0fbd 6fc0 a23d b622 77ba
000000d0: 484b 42be 0c2f 60be b4e6 4bbc 8ba6 853c
000000e0: 3e5f d3bd d8d7 c73d ffbf b3bc b0ef 68bd
000000f0: bbe4 00bd 56a7 a83d 29c3 383d eee7 adbd
00000100: 6f14 b4bb a205 c0bd 8f84 1ebe 94a6 2b3d
00000110: 211b bb3d 69b6 b53d 8934 e93d 657c 023a
00000120: dd4d 29bd fa27 3cbe ba6c dd3d b024 c73d
00000130: abf3 f2bb 673d 00bd cd8d a6bc 9e2e db3d
00000140: f60f 46bb f5e6 13bd 9552 d2bd 9292 b53c
00000150: dae4 3b3d 15bd 02be d7f1 30bd 5c54 593d
00000160: f25c 003d dd78 573d 34fe a8bd 31d5 183d
00000170: c9c1 eabd c029 d23d d67d 9dbd c091 d3bd
00000180: 4d34 30be cb68 babd a2fb 913d 168a dc3d
00000190: b227 d4bc 23fa b03d 9808 5ebe 00ba eb3c
000001a0: f375 7d3d e197 a33d c122 813d 7390 4fbe
000001b0: dd52 e83d 368c 95bd 0331 c8bd 394b 96bd
000001c0: 4ec2 49bd 6a4e 623d 0008 303d 8116 afbd
000001d0: 414c 793d a54c 013e 4966 ea3c 094b 81bd
000001e0: 6d22 bf3d a11d 2a3d feef e1bb c751 cdbd
000001f0: 3eb9 293e fb40 46bd f675 a4bd bc90 963d
00000200: 7c59 91bb 085e 3d3d 9fe3 5c3d 38c9 c13d
00000210: dd37 99bd 43dd 20bd 9e58 d73d 3e7d aabc
00000220: 64be aabd ac9c 19be a142 27be 0856 8cbc
00000230: 3221 e23d bdc9 e13d 89bb b2bc e888 123d
00000240: 9dfa d4bd f8d8 a73d 5086 033e e61d bbbd
00000250: 5282 97bd 1040 c2bd b014 4bbd 4a94 383e
00000260: 2534 0e3b 0685 9bbd f1ef 203d f9ee 85bd
00000270: c888 19bb 5b5e 3b3e 1068 903d 5238 5fbd
00000280: dbc0 d8bd 3311 6cbd a6c7 f33d f318 2cbd
00000290: eef7 3c3d 0284 a0bd e249 2dbd 9908 c4bd
000002a0: 6f02 25be cb8b 883b 52df 83bd 7f2c 033d
000002b0: 593a c53d f31f 0fbe 32a1 b4bd 4737 773c
000002c0: d900 e43b d10f e6bd 8b5f 093e 8e06 003d
000002d0: 29b3 75bd bb20 0cbe 024c 47bd dd0c 77bd
000002e0: d0fa 093e 97f5 72bd 19d5 133e de1c d83c
000002f0: 39a5 2e3d 18de f0bc b209 01bd bb26 d73d
00000300: de34 d3bd fa0f a5bd 8289 fcbd e9c1 7dbd
00000310: 0007 ac3d 888f 1dbe eba6 45be 8f99 81be
00000320: 63da 9f3d 6e7b 243d 4dfc 79bd dd32 5abe
00000330: c140 433d 636c dfbd 6603 ffbd ec5c 143c
00000340: 3d2e 14be 2021 34bd 1b6f 4a3d bd4a f9bd
00000350: 4625 b9bd 5b06 87bd ba78 a4bc 50db 4fbd
00000360: 7b02 b13d bdf4 b13c 7a8d ecba a339 d03c
00000370: cca5 82bd 6e28 ad3d 682c 92bb 8e94 9e3c
00000380: 52e6 6bbd f414 bbbd fb87 553d bc78 6dbe
00000390: 349f 7d3d 92df aa3d 6809 84bd b55e 863e
000003a0: 427f 31be 695f 633e 1634 d9bc 5228 73bd
000003b0: cb6c 263c 00cf 51bc 3911 86be 4a53 1abe
000003c0: c7c9 47bd 62b6 02be 9435 183e 5562 3cbb
000003d0: 4bf1 1ebd e59e 05bd 1d69 9fbd 7df8 a7bd
000003e0: 9c7b 06bd 4420 14be 567c 6e3e d4c5 4ebe
000003f0: 1b86 10be cd5a 88bd 4344 e13c fcfa 233e

lstm.bias_ih_l0 f4 [256]
-0.06336235 -0.041528825 0.117001384 -0.0078706555 -0.051568143 0.0988624 0.008049815 0.15091775
-0.0698705 0.15634176 -0.06556678 0.10420773 0.06295547 0.019341586 0.14175582 0.10537345
-0.106959224 -0.08137978 0.054795016 -0.060974054 0.028794898 0.040679134 0.073504716 0.1207077
0.072097965 0.04312606 -0.06934073 0.09957058 0.11914792 0.17272837 0.10848688 0.06972681
0.111019805 0.044138804 -0.07654488 -0.0067452113 -0.016858716 -0.010831158 -0.050770815 -0.06608096
0.0780581 -0.04009821 -0.073478565 0.087628275 -0.0671213 0.08878337 0.074964486 0.10830816
0.1357475 0.073142864 -0.029277513 -0.005710227 0.07962935 -0.047836307 -0.08292548 -0.10704032
-0.01698489 0.11745544 0.015878737 0.11294013 -0.03622665 -0.0037938855 -0.04591375 0.19146697
-0.021495163 -0.11556645 0.13822596 0.1025451 0.12921017 0.0707299 -0.07299165 0.068535015
-0.060554106 -0.08700026 0.030537723 0.08587897 -0.03665843 0.014993068 -0.035294153 0.0925324
-0.018400736 -0.011754569 -0.010933405 -0.030412003 0.0610589 0.032044694 -0.05138725 -0.01400034
-0.045178484 0.10396387 -0.027677815 0.16238512 0.054525707 0.004235493 -0.0801429 0.034587275
0.010905831 0.11521891 -0.059646938 0.11793387 -0.04806918 -0.0061285645 -0.043040406 0.022974577
0.06092253 0.009606423 -0.067749456 0.08735204 0.022377111 0.12746495 0.030215673 0.12981333
0.092502825 0.035562485 0.11646861 -0.094230115 0.118357256 -0.025515182 0.076787464 0.10426116
0.091165006 0.08657114 0.009574947 0.22177681 -0.07811849 0.14570282 0.059714448 0.123926915
-0.03581798 -0.044938922 -0.042697843 0.0023642036 -0.13616678 0.14484936 0.082866 -0.15590052
0.0811366 -0.1061836 -0.07744217 0.10815749 0.02601331 0.09322147 0.09060444 0.03224257
-0.11779842 0.064209215 -0.0005662236 -0.10032541 -0.06949145 0.116636984 -0.058869205 0.08748069
0.05828352 -0.031068766 0.041415043 0.13019451 0.07326741 0.02898848 0.03319983 0.03849566
-0.06562857 -0.054739308 0.045156397 0.09122109 -0.021080678 -0.047902968 -0.072899684 0.04032448
-0.100875326 -0.047803976 -0.033255126 0.06298335 0.077920295 -0.037801992 -0.0024865118 -0.08906524
-0.10522379 -0.087906495 -0.011173828 0.039082028 0.08395701 0.056617245 -0.016859224 -0.057582982
0.117359586 -0.15938947 0.009355307 0.043255433 -0.14906876 0.1294121 -0.039795786 0.1453907
0.032955598 -0.02387029 0.09174214 -0.0024219193 -0.085274726 0.06379906 0.11352645 0.05908127
0.11996609 0.03564494 0.042160567 0.031913877 0.14876255 0.04347381 -0.05971513 0.042313926
-0.13129212 0.0361734 0.0032664058 -0.028377099 -0.08254084 0.012076965 -0.05494897 0.18422274
-0.0036292924 0.0019135912 0.08469697 0.01708739 0.0906279 -0.066639364 0.062661715 0.10621091
-0.08783711 0.16326919 0.11334545 0.07848249 0.05968228 0.013436715 0.15405983 0.12081469
-0.020493101 -0.016606944 0.13681789 -0.04195268 0.023679705 -0.040738203 0.11513691 0.017437687
0.15839645 -0.054355223 0.09758103 -0.07731296 -0.06985182 -0.073754616 0.034594174 0.034190986
0.115662545 0.17840755 0.08107131 0.05886935 0.09991962 -0.08608972 0.1315597 -0.056351893
00000000: 1fc4 81bd 211a 2abd 6c9e ef3d ecf3 00bc
00000010: 1e39 53bd 5f78 ca3d 5fe3 033c 2f8a 1a3e
00000020: 4418 8fbd 0e18 203e e047 86bd dd6a d53d
00000030: ccee 803d 3f72 9e3c 7028 113e 09ce d73d
00000040: 700d dbbd 71aa a6bd bd70 603d eebf 79bd
00000050: 47e3 eb3c 2a9f 263d a489 963d 9935 f73d
00000060: 19a8 933d f4a4 303d 8302 8ebd a9eb cb3d
00000070: d303 f43d b5df 303e 5f2e de3d eecc 8e3d
00000080: 5a5e e33d e4ca 343d 90c3 9cbd ef06 ddbb
00000090: 4a1b 8abc 2b75 31bc 0ff5 4fbd 7455 87bd
000000a0: eddc 9f3d 053e 24bd ee7b 96bd 7476 b33d
000000b0: e476 89bd 0ed4 b53d fb86 993d abd0 dd3d
000000c0: 6501 0b3e edcb 953d 65d7 efbc db1c bbbb
000000d0: b614 a33d 01f0 43bd d6d4 a9bd f537 dbbd
000000e0: e523 8bbc 7a8c f03d 2014 823c 284d e73d
000000f0: 6562 14bd d6a2 78bb 0e10 3cbd eb0f 443e
00000100: a016 b0bc 1aae ecbd 1b8b 0d3e 2a03 d23d
00000110: ac4f 043e d6da 903d a57c 95bd 165c 8c3d
00000120: 9507 78bd 312d b2bd 3f2a fa3c 50e1 af3d
00000130: 2627 16bd 7ca5 753c 9a90 10bd a081 bd3d
00000140: 24bd 96bc 3c96 40bc 0622 33bc 9822 f9bc
00000150: e618 7a3d 4c41 033d 707b 52bd af61 65bc
00000160: 130d 39bd 02eb d43d 96bc e2bc 4948 263e
00000170: 5956 5f3d e4c9 8a3b f621 a4bd 63ab 0d3d
00000180: 5fae 323c e4f7 eb3d 5950 74bd 5087 f13d
00000190: 30e4 44bd 20d2 c8bb 234b 30bd 2e35 bc3c
000001a0: e789 793d 4264 1d3c 3ac0 8abd a0e5 b23d
000001b0: 3450 b73c 2c86 023e dc86 f73c c9ed 043e
000001c0: 1f72 bd3d f8a9 113d 1887 ee3d b8fb c0bd
000001d0: 4a65 f23d 3705 d1bc bf42 9d3d e086 d53d
000001e0: b8b4 ba3d 364c b13d 3de0 1c3c 7619 633e
000001f0: 96fc 9fbd 1f33 153e 2397 743d 65cd fd3d
00000200: e0b5 12bd e011 38bd efe3 2ebd c1f0 1a3b
00000210: 4e6f 0bbe 6453 143e a6b5 a93d 63a4 1fbe
00000220: f22a a63d ca76 d9bd 009a 9ebd ad81 dd3d
00000230: dd19 d53c e6ea be3d d28e b93d c910 043d
00000240: 4c40 f1bd 1f80 833d 9f6e 14ba 6977 cdbd
00000250: 8951 8ebd 5fdf ee3d d620 71bd 1329 b33d
00000260: b3ba 6e3d ed83 febc d2a2 293d b651 053e
00000270: 390d 963d 4079 ed3c 8cfc 073d a0ad 1d3d
00000280: 4668 86bd 5336 60bd eaf5 383d 1fd2 ba3d
00000290: 63b1 acbc e735 44bd 6e4c 95bd 482b 253d
000002a0: b997 cebd 1ace 43bd 8736 08bd 6afd 803d
000002b0: ad94 9f3d 43d6 1abd bff4 22bb d667 b6bd
000002c0: 927f d7bd 5208 b4bd 6e12 37bc 7a14 203d
000002d0: a7f1 ab3d 7ce7 673d 5b1c 8abc 22dc 6bbd
000002e0: 395a f03d fe36 23be 0047 193c 9c2c 313d
000002f0: 7ba5 18be 9b84 043e e800 23bd 4de1 143e
00000300: 73fc 063d a08b c3bc 4ee3 bb3d 10b9 1ebb
00000310: 84a4 aebd 15a9 823d 8e80 e83d 34ff 713d
00000320: c8b0 f53d 6e00 123d 8fb0 2c3d 20b8 023d
00000330: 3655 183e 9811 323d da97 74bd 5e51 2d3d
00000340: 7171 06be 8f2a 143d 3211 563b 1777 e8bc
00000350: 2c0b a9bd 76de 453c 2c12 61bd e3a4 3c3e
00000360: 6cd9 6dbb 77d1 fa3a 9b75 ad3d dbfa 8b3c
00000370: 1f9b b93d 387a 88bd c954 803d 1b85 d93d
00000380: f1e3 b3bd 0a30 273e a921 e83d 6dbb a03d
00000390: 6875 743d ab25 5c3c dcc1 1d3e b16d f73d
000003a0: 26e1 a7bc 490b 88bc fd19 0c3e 93d6 2bbd
000003b0: f1fb c13c 1add 26bd e6cc eb3d 7bd9 8e3c
000003c0: ae32 223e 95a3 5ebd 90d8 c73d 4256 9ebd
000003d0: 790e 8fbd a90c 97bd 9fb2 0d3d d90b 0c3d
000003e0: 7ce0 ec3d 78b0 363e b708 a63d fd20 713d
000003f0: a8a2 cc3d cf4f b0bd 96b7 063e 3ed1 66bd

lstm.bias_hh_l0 f4 [256]
0.12578556 -0.057188857 0.146375 0.10799136 0.07211073 0.13306072 -0.05394722 0.06783276
0.044815205 0.17211516 0.050582666 0.14448737 -0.0011375428 -0.03931519 0.11156223 0.112383865
0.05431104 -0.057978813 -0.008272097 0.071537875 0.010664575 0.087621145 -0.08657126 0.12695833
0.10176383 0.058026582 -0.021815792 -0.10084195 0.13169952 0.065851234 -0.0015471419 0.110523984
0.13889407 -0.010017483 -0.016751012 0.007071612 -0.056466702 -0.06905826 -0.04330538 -0.0151228355
0.035939552 0.028316999 0.124116555 0.03787259 0.11543608 -0.058723934 0.07027265 0.023037191
0.07120255 0.0975068 0.15510505 0.030487506 0.07620472 0.14145549 0.14136015 0.05619857
-0.010120512 0.14548574 0.08885171 0.14930893 0.07104507 0.06231762 -0.017612573 0.15210505
0.061283756 0.11038279 -0.06492958 0.15777841 0.117171764 0.00693836 -0.081184454 0.113323145
0.022148231 0.101335935 0.06991077 0.13419867 -0.076210506 0.0124553675 -0.10531004 0.017534252
0.03302025 -0.072966136 0.111882195 -0.09454909 0.14966169 -0.1025659 -0.100434616 -0.025500996
0.0827717 -0.12173779 0.08298046 -0.06495243 0.057017352 -0.00716531 -0.0589243 -0.044204034
0.1379017 0.19865415 -0.1251842 -0.0072457925 -0.17369433 -0.0918698 1.5201949e-06 0.07133389
-0.048058476 0.14425892 0.1564748 0.09174815 0.10124583 0.07195146 0.16207473 0.11891889
-0.11480861 0.039256204 0.017767033 -0.095360324 0.13420852 -0.025616499 0.05002256 -0.05014773
0.15404938 0.09643771 -0.09241682 0.045676544 0.042462632 -0.08027231 0.09304307 -0.047707345
-0.110411204 -0.001990448 -0.09025202 0.070386246 -0.10856122 0.0148792295 0.07066265 0.03298021
-0.008588531 0.031053275 -0.12289781 -0.024360979 0.115286276 0.002519864 -0.09092426 0.0083504
-0.016613377 0.019516934 0.025791796 -0.10467263 -0.004095057 0.10823088 -0.054277577 0.07093259
0.06558951 0.048677128 0.0039372095 0.02405267 -0.14903101 0.10343469 -0.053236056 -0.13391927
-0.094815195 0.0049736896 -0.04511021 -0.06993326 0.032972407 -0.09702746 -0.053305242 0.1101468
-0.07017269 -0.105627105 -0.06893857 -0.046115465 -0.027776198 -0.100133575 -0.017328162 -0.04085447
0.07176559 0.10193443 -0.09882356 0.06908857 -0.13747932 -0.11335958 -0.10663069 -0.07114339
-0.0883945 0.021894677 0.118037514 -0.0980862 -0.14096038 -0.004632766 0.08966157 0.07230161
0.061901968 0.17037533 0.13056381 0.13789015 -0.060641754 0.06978275 0.016185647 -0.004412918
0.051578123 0.1566825 -0.028266724 -0.048776887 -0.0796522 0.06722665 -0.02410102 0.078181565
-0.0043524303 0.056657348 -0.078076586 0.09600674 0.114862695 0.06470778 0.03779812 0.1157683
0.06198801 0.06164838 0.0431754 0.14991482 0.06894766 0.121205136 0.1047295 -0.083827846
0.031112053 -0.06179284 -0.06386377 0.09461198 -0.032496046 0.1437498 0.15140344 -0.023548482
-0.06068754 0.031574283 -0.08793182 0.088884145 0.024423243 0.07685298 0.07504545 0.030830286
-0.0235895 0.0353391 0.10821153 0.014404441 0.010046282 -0.005387443 -0.022747427 0.03984308
0.11364606 0.004495925 -0.0343748 0.1643204 0.1107897 -0.08852548 -0.061110802 0.045673143
00000000: eecd 003e dd3e 6abd 54e3 153e 932a dd3d
00000010: caae 933d 1241 083e c3f7 5cbd e7eb 8a3d
00000020: 2690 373d f53e 303e c52f 4f3d 7ff4 133e
00000030: 9a19 95ba f708 21bd bd7a e43d 8329 e63d
00000040: 4175 5e3d 317b 6dbd b187 07bc 7382 923d
00000050: 78ba 2e3c b772 b33d 464c b1bd 5d01 023e
00000060: 8e69 d03d 48ad 6d3d 08b7 b2bc 3986 cebd
00000070: 3ddc 063e 03dd 863d 78c9 caba 665a e23d
00000080: 3f3a 0e3e 5e20 24bc 6b39 89bc fbb8 e73b
00000090: a149 67bd 6b6e 8dbd fb60 31bd c5c5 77bc
000000a0: 5a35 133d 0df9 e73c d230 fe3d 4a20 1b3d
000000b0: c069 ec3d 8288 70bd 1beb 8f3d 7eb8 bc3c
000000c0: a4d2 913d a5b1 c73d dcd3 1e3e efc0 f93c
000000d0: 3811 9c3d b5d9 103e b7c0 103e 7930 663d
000000e0: 81d0 25bc 37fa 143e e3f7 b53d 71e4 183e
000000f0: 1480 913d c340 7f3d 3e48 90bc 6dc1 1b3e
00000100: ad04 7b3d 5f10 e23d cdf9 84bd aa90 213e
00000110: c0f7 ef3d 2f5b e33b 0944 a6bd f715 e83d
00000120: 3570 b53c 3789 cf3d 612d 8f3d 606b 093e
00000130: 4114 9cbd 9911 4c3c caac d7bd fea3 8f3c
00000140: 3e40 073d 456f 95bd 7e22 e53d f4a2 c1bd
00000150: ea40 193e 120e d2bd aab0 cdbd 77e7 d0bc
00000160: 3684 a93d aa51 f9bd a9f1 a93d c805 85bd
00000170: 078b 693d faca eabb 9b5a 71bd 4a0f 35bd
00000180: 1a36 0d3e fe6b 4b3e 4930 00be 1d6e edbb
00000190: eddc 31be 3c26 bcbd 8009 cc35 8117 923d
000001a0: f7d8 44bd 9cb8 133e ee3a 203e 74e6 bb3d
000001b0: f959 cf3d 495b 933d ebf6 253e bf8b f33d
000001c0: c720 ebbd 1dcb 203d 2b8c 913c 464c c3bd
000001d0: f56d 093e b1d9 d1bc 75e4 4c3d b567 4dbd
000001e0: 1fbf 1d3e 2281 c53d 0845 bdbd 5417 3b3d
000001f0: 4ced 2d3d cf65 a4bd 5d8d be3d c768 43bd
00000200: 451f e2bd 2d72 02bb 0dd6 b8bd aa26 903d
00000210: 5855 debd 03c8 733c 94b7 903d 4216 073d
00000220: e9b6 0cbc 7063 fe3c d9b1 fbbd ad90 c7bc
00000230: 361b ec3d 4d24 253b 8036 babd 1ed0 083c
00000240: c718 88bc fae1 9f3c 5149 d33c 9b5e d6bd
00000250: d42f 86bb 27a8 dd3d 2a52 5ebd 1b45 913d
00000260: cb53 863d ab61 473d b503 813b 1b0a c53c
00000270: 969b 18be 91d5 d33d 0d0e 5abd 2222 09be
00000280: 782e c2bd 55fa a23b 7cc5 38bd 2b39 8fbd
00000290: 130e 073d 55b6 c6bd 9956 5abd a594 e13d
000002a0: b3b6 8fbd 0653 d8bd aa2f 8dbd 92e3 3cbd
000002b0: e98a e3bc d512 cdbd caf3 8dbc 0457 27bd
000002c0: d6f9 923d 00c3 d03d 0264 cabd 4f7e 8d3d
000002d0: 61c7 0cbe 1129 e8bd 3161 dabd a0b3 91bd
000002e0: 2d08 b5bd 775c b33c a7bd f13d 6be1 c8bd
000002f0: eb57 10be 75ce 97bb 7ca0 b73d de12 943d
00000300: eb8c 7d3d df76 2e3e 85b2 053e 1333 0d3e
00000310: 7d63 78bd 42ea 8e3d c397 843c 3d9a 90bb
00000320: 9543 533d 6171 203e 9e8f e7bc 46ca 47bd
00000330: b120 a3bd 20ae 893d 816f c5bc a81d a03d
00000340: d59e 8ebb 8911 683d 9ee6 9fbd 2f9f c43d
00000350: 223d eb3d 8385 843d 34d2 1a3d ee17 ed3d
00000360: 24e7 7d3d 0383 7c3d b0d8 303d 4583 193e
00000370: 6e34 8d3d 663a f83d 6c7c d63d efad abbd
00000380: b4de fe3c 7d1a 7dbd 02cb 82bd edc3 c13d
00000390: 931a 05bd 2633 133e 8109 1b3e bfe8 c0bc
000003a0: 7f93 78bd 0954 013d 9915 b4bd e408 b63d
000003b0: 4113 c83c 1865 9d3d 6eb1 993d cc8f fc3c
000003c0: c43e c1bc bbbf 103d 029e dd3d 9b00 6c3c
000003d0: 2999 243c 2689 b0bb d058 babc 7f32 233d
000003e0: 44bf e83d 8d52 933b 97cc 0cbd 9b43 283e
000003f0: b6e5 e23d d94c b5bd 524f 7abd c313 3b3d

lstm.weight_ih_l1 f4 [256, 64]
-0.12918612 0.0108298985 -0.08987394 -0.090776235 -0.12831497 0.23947388 0.092937835 0.06890717
0.15025343 -0.07606831 0.005313394 0.046034224 0.11307046 -0.010559028 -0.01858037 0.044958733
0.011245318 0.09019552 0.16390602 0.06573212 -0.1617084 0.04312945 -0.06916111 0.13632129
0.0059987814 0.11955636 0.05827858 0.117165044 -0.059914935 0.053732045 0.093996845 0.076511696
-0.09509909 0.014098492 -0.04951661 0.07077006 -0.04237167 -0.044747587 -0.11370438 0.038269546
-0.13702203 -0.12613484 -0.079890676 -0.020403191 0.08339672 0.002328495 0.028694434 -0.1100307
0.057157453 0.17342259 -0.033416413 -0.037018448 0.07837442 0.0717924 -0.017391104 -0.18504289
-0.022701014 -0.008618291 -0.09237829 0.04735232 0.037522957 -0.0014741423 -0.17517807 -0.063299075
0.15201858 0.10136077 0.09008209 -0.118304424 0.0050521544 0.10380411 -0.083947174 0.06546825
0.015003796 0.022675661 -0.09678477 0.013771496 -0.058088236 0.113679826 0.0062334333 -0.009610671
-0.08038293 0.17399085 0.10024396 -0.07817974 -0.06732149 -0.05141185 -0.08554217 -0.09649626
0.023840038 0.10357271 -0.065620705 0.15856165 0.045361686 -0.13625777 -0.05001139 0.097718686
-0.04754716 0.11816979 -0.056639466 0.15360214 -0.13289708 0.03506991 0.066151924 -0.059027024
-0.07031109 -0.04368808 -0.029803164 -0.007540966 -0.12374778 0.021794535 0.07028706 -0.058968358
-0.029957509 -0.05090328 0.03898503 0.05977167 0.10282109 0.025673486 0.030984055 -0.043257575
0.09075539 -0.08515524 0.042773105 0.12319284 -0.020305641 -0.035323877 0.06201958 -8.034134e-05
0.018300941 0.03480024 -0.11092322 -0.04666896 -0.14288059 -0.021740997 -0.02167393 -0.014326668
0.12856548 -0.032832436 0.028649516 0.07934085 0.08644029 0.11607708 0.06119865 0.14193358
-0.09224706 0.10581392 0.082785256 -0.13141969 -0.13828163 0.012305557 0.02456298 0.13471262
-0.15607561 0.14860715 0.025462307 0.017847024 -0.053842414 0.109179 0.100044996 0.002679644
-0.13146436 -0.028005112 -0.124004126 -0.08647133 0.074083924 -0.07118298 -0.08925325 -0.12919967
0.095265105 0.08555267 -0.12641065 -0.037135433 0.052916303 -0.04446244 -0.05684801 -0.055160277
0.023977716 -0.08310675 -0.15523985 0.086289525 0.05071219 0.02926405 -0.07734105 -0.07955811
-0.0020046013 -0.09423555 -0.107101075 0.09774769 -0.08629003 -0.08087089 -0.028030872 0.12041787
-0.06496983 -0.09444797 0.062408846 -0.044259388 0.056553096 -0.008069282 0.123841785 -0.03765611
0.1484718 0.02659215 0.061920907 0.06886003 -0.09401402 0.0732976 0.1345238 -0.06578783
0.037769742 0.082411185 0.14156623 -0.11297519 -0.12734568 0.06322281 -0.062813796 0.0026507464
0.083164394 0.14129943 -0.06756076 0.036468092 -0.07324054 0.0058125383 -0.032472283 0.10407954
0.050725866 0.00593743 -0.07662976 0.11134406 -0.08251396 -0.15555108 -0.06966245 -0.06694372
-0.09850789 0.05117402 -0.050814718 -0.0045646536 -0.1055748 0.075935155 0.09338291 -0.12334152
0.05758166 0.024137735 -0.07159923 0.08040126 -0.12251097 -0.13512614 -0.045845076 0.0716174
0.12678361 0.04431561 0.052283935 0.063787535 -0.015315041 -0.031682327 0.066575065 0.13184375
00000000: 5e49 04be e36f 313c d40f b8bd e4e8 b9bd
00000010: 0065 03be a438 753e 3156 be3d 341f 8d3d
00000020: 09dc 193e b4c9 9bbd fb1b ae3b 628e 3c3d
00000030: 7c91 e73d c6ff 2cbc dc35 98bc a626 383d
00000040: 483e 383c 6eb8 b83d fbd6 273e 909e 863d
00000050: e396 25be 82a8 303d 57a4 8dbd cf97 0b3e
00000060: 6d91 c43b f7d9 f43d 85b5 6e3d 3af4 ef3d
00000070: 5d69 75bd 2216 5c3d 6b81 c03d 2ab2 9c3d
00000080: 50c3 c2bd 5dfd 663c eed1 4abd e5ef 903d
00000090: eb8d 2dbd 3f49 37bd d8dd e8bd 87c0 1c3d
000000a0: 814f 0cbe 7e29 01be b99d a3bd 9824 a7bc
000000b0: e6cb aa3d aa99 183b 9710 eb3c c757 e1bd
000000c0: ef1d 6a3d b195 313e a6df 08bd a8a0 17bd
000000d0: c582 a03d e507 933d ca77 8ebc e27b 3dbe
000000e0: 7af7 b9bc bb33 0dbc d430 bdbd 82f4 413d
000000f0: acb1 193d 0238 c1ba e161 33be f2a2 81bd
00000100: c2aa 1b3e 3c96 cf3d f57c b83d 9749 f2bd
00000110: 8b8c a53b 4097 d43d 7fec abbd 3814 863d
00000120: 7bd2 753c 4fc2 b93c 1837 c6bd d7a1 613c
00000130: eeed 6dbd f8d0 e83d d441 cc3b 1376 1dbc
00000140: ce9f a4bd a82a 323e b54c cd3d b31c a0bd
00000150: d9df 89bd 3b95 52bd bc30 afbd d59f c5bd
00000160: 2f4c c33c ee1d d43d 2664 86bd fc5d 223e
00000170: 2dcd 393d 2887 0bbe bed8 4cbd bc20 c83d
00000180: d0c0 42bd 0103 f23d c9fe 67bd e149 1d3e
00000190: 2c16 08be 77a5 0f3d a97a 873d 52c6 71bd
000001a0: 43ff 8fbd 46f2 32bd c425 f4bc 351a f7bb
000001b0: 7a6f fdbd 748a b23c aaf2 8f3d ce88 71bd
000001c0: 7369 f5bc f57f 50bd c4ae 1f3d 23d3 743d
000001d0: dd93 d23d 3451 d23c 46d2 fd3c db2e 31bd
000001e0: f6dd b93d df65 aebd da32 2f3d 874c fc3d
000001f0: 0458 a6bc c5af 10bd 3e08 7e3d ee7c a8b8
00000200: dbeb 953c b28a 0e3d b72b e3bd f427 3fbd
00000210: 4a4f 12be 2d1a b2bc 878d b1bc 67ba 6abc
00000220: aba6 033e 4e7b 06bd 64b2 ea3c 757d a23d
00000230: 9b07 b13d d2b9 ed3d 70ab 7a3d 0957 113e
00000240: 07ec bcbd f8b4 d83d 518b a93d e292 06be
00000250: b399 0dbe 3f9d 493c 4d38 c93c 1bf2 093e
00000260: 49d2 1fbe 792c 183e 5496 d03c ec33 923c
00000270: dd89 5cbd 3d99 df3d 64e4 cc3d f79c 2f3b
00000280: 989e 06be fa6a e5bc e0f5 fdbd e117 b1bd
00000290: 50b9 973d 62c8 91bd 68ca b6bd eb4c 04be
000002a0: 5a1a c33d 3d36 af3d cb71 01be 531b 18bd
000002b0: c4be 583d 3f1e 36bd 75d9 68bd beef 61bd
000002c0: ea6c c43c df33 aabd 32f7 1ebe 90b8 b03d
000002d0: 96b7 4f3d 29bb ef3c fc64 9ebd 5def a2bd
000002e0: a15f 03bb 91fe c0bd cf57 dbbd f12f c83d
000002f0: d4b8 b0bd a39f a5bd 00a1 e5bc a59d f63d
00000300: e70e 85bd f06d c1bd 6ba0 7f3d 5549 35bd
00000310: 38a4 673d 0635 04bc c3a0 fd3d 4b3d 1abd
00000320: fe08 183e c8d7 d93c c7a0 7d3d 7d06 8d3d
00000330: 6c8a c0bd 0d1d 963d 9bc0 093e c5bb 86bd
00000340: 72b4 1a3d 32c7 a83d bdf6 103e 895f e7bd
00000350: e866 02be f67a 813d 85a4 80bd 25b8 2d3b
00000360: 1852 aa3d ccb0 103e 4c5d 8abd 915f 153d
00000370: 23ff 95bd 1b77 be3b a801 05bd a727 d53d
00000380: edc5 4f3d c68e c23b 10f0 9cbd 5b08 e43d
00000390: 14fd a8bd c848 1fbe 30ab 8ebd ca19 89bd
000003a0: 81be c9bd d99b 513d 1823 50bd 1793 95bb
000003b0: 9a37 d8bd e483 9b3d 8a3f bf3d 7b9a fcbd
000003c0: bfda 6b3d 80bc c53c 9ea2 92bd 6aa9 a43d
000003d0: 08e7 fabd 825e 0abe 0cc8 3bbd 25ac 923d
000003e0: 90d3 013e 4984 353d ae27 563d 0aa3 823d
000003f0: f0eb 7abc 54c5 01bd 8258 883d 0c02 073e

lstm.weight_hh_l1 f4 [256, 64]
0.03335149 0.14805345 0.12509102 -0.080454126 0.17145582 0.05715595 0.023175947 -0.04622099
-0.035602875 -0.098523974 0.09243604 0.06541047 0.020193655 -0.15475205 -0.01598804 0.090243794
-0.03457244 -0.12595978 -0.03242389 -0.081659734 0.04755562 0.027752008 0.009972411 -0.037834387
0.043694526 0.14675997 0.016694043 0.10540414 -0.024423199 0.17529804 0.05256805 -0.031741403
0.13884912 -0.040637236 0.15751012 0.008540793 -0.057601374 0.018516116 0.022373056 0.13569796
-0.16891153 0.016285574 0.02311213 -0.11104507 0.07268221 0.048512317 0.16665903 0.011778948
-0.11235899 -0.03545115 -0.14044213 -0.071241826 0.16331944 -0.16588788 0.10354911 -0.013762972
0.050514907 -0.17219679 0.0068014665 -0.004469271 -0.13560887 -0.0795065 -0.09728732 0.12342595
0.04153991 0.035482198 -0.0775666 0.064560615 -0.08609067 -0.032070473 -0.066736236 -0.096278235
0.051971838 0.08690532 -0.061344817 0.029032983 -0.04372736 -0.014911775 -0.086844444 0.09263606
-0.065343335 -0.022227753 0.0627556 0.0038919281 0.12082446 -0.13759637 -0.008193706 -0.04883064
0.029802019 -0.10166389 -0.026002115 0.18973798 0.014715435 -0.09583176 0.022204693 0.040071327
-0.018937124 0.051045153 -0.10731702 0.088693246 -0.11510978 0.07550001 -0.07541813 0.006638038
0.123169586 0.024107136 0.015948338 0.07373008 0.063389316 0.07518216 -0.055628985 0.043223735
0.103005506 -0.0324929 0.04036485 0.12266883 0.02097052 -0.06341016 0.10109878 -0.043981776
0.01836045 -0.08706925 0.08087619 -0.0041798092 -0.017578073 -0.039960794 0.13233079 0.024572646
-0.026597638 0.0715897 -0.007501484 0.07985246 0.13857277 0.11695226 -0.09524787 0.016625263
-0.05644449 -0.08909832 0.08359205 -0.019140523 0.03253234 0.06501604 -0.09111094 0.12263249
0.062429927 0.07063109 0.06462504 -0.038437985 0.077843636 -0.064489335 -0.13734931 -0.0539993
0.020283438 0.0063355267 0.121650256 0.105380334 -0.13178726 0.1306551 -0.036876287 0.0039545223
-0.0730511 -0.06875925 0.116354704 0.061039343 -0.04152282 0.14666405 0.15449715 -0.05107553
-0.023376308 0.043981217 -0.036576807 0.045656443 -0.021202374 -0.044475473 0.081342354 0.02039467
-0.010460003 0.046385486 0.019973256 0.0104388045 0.09305742 -0.01253211 0.0017804476 -0.053443234
0.140172 0.044730976 0.15222354 -0.088345245 -0.0718991 -0.056463785 0.07109397 0.15821847
-0.0011308903 0.14351536 0.1029824 -0.105099715 -0.018645518 0.087997064 -0.002686188 -0.1375419
0.009161143 0.08854568 0.057320464 -0.120591104 0.04374508 0.03778286 -0.055257875 0.0065723015
-0.09541892 -0.018623782 -0.036803238 -0.08970473 0.006006736 0.030373907 -0.11132111 -0.064045236
0.0059496476 -0.08953951 -0.080111556 -0.05996154 -0.13744125 0.14070177 0.14613372 0.04965182
0.0925169 0.008129022 0.084694944 -0.0706981 -0.14445262 0.024771957 -0.018106375 0.08463164
0.004105343 -0.04124542 -0.07654084 -0.023263477 -0.034731656 -0.015895445 -0.103297085 -0.061140805
0.01906113 0.02000629 -0.055287506 0.073545404 -0.03263288 0.07673782 -0.078020744 0.07567985
0.02117524 0.059671644 -0.072149806 0.046677362 -0.04889843 -0.07899713 -0.012000717 0.03703952
00000000: 929b 083d 539b 173e dc17 003e 22c5 a4bd
00000010: 1d92 2f3e 5c1c 6a3d 7cdb bd3c 3952 3dbd
00000020: 52d4 11bd f0c6 c9bd 1b4f bd3d edf5 853d
00000030: 2a6d a53c 5277 1ebe 5af9 82bc bdd1 b83d
00000040: d59b 0dbd 9afb 00be eace 04bd 383d a7bd
00000050: afc9 423d 2e58 e33c 5363 233c 3bf8 1abd
00000060: 08f9 323d 3f48 163e f2c1 883c 20de d73d
00000070: 2913 c8bc 5481 333e 9851 573d 4603 02bd
00000080: 772e 0e3e 3b73 26bd 554a 213e afee 0b3c
00000090: 6bef 6bbd 1caf 973c b347 b73c 68f4 0a3e
000000a0: 25f7 2cbe 5369 853c a655 bd3c 996b e3bd
000000b0: 69da 943d dab4 463d aaa8 2a3e 7dfc 403c
000000c0: 781c e6bd 3a35 11bd 10d0 0fbe 3ce7 91bd
000000d0: 363d 273e 83de 29be 8e11 d43d 177e 61bc
000000e0: b8e8 4e3d 5b54 30be d6de de3b f672 92bb
000000f0: 0ddd 0abe 4ed4 a2bd 933e c7bd bfc6 fc3d
00000100: c125 2a3d c855 113d 3ddb 9ebd 5b38 843d
00000110: 4e50 b0bd 545c 03bd 02ad 88bd 862d c5bd
00000120: 6ce0 543d 6bfb b13d b444 7bbd 94d6 ed3c
00000130: 761b 33bd 8450 74bc 80db b1bd fab7 bd3d
00000140: bad2 85bd fa16 b6bc 0286 803d b80f 7f3b
00000150: d172 f73d 10e6 0cbe e53e 06bc a302 48bd
00000160: 5d23 f43c 2835 d0bd 6302 d5bc ac4a 423e
00000170: 0219 713c 7143 c4bd 9ee6 b53c d521 243d
00000180: 0722 9bbc b914 513d 07c9 dbbd cea4 b53d
00000190: adbe ebbd c09f 9a3d d274 9abd e683 d93b
000001a0: 5640 fc3d 547c c53c 17a6 823c ccff 963d
000001b0: 42d2 813d 1bf9 993d 38db 63bd 5f0b 313d
000001c0: 8df4 d23d 4617 05bd 9d55 253d cc39 fb3d
000001d0: 5eca ab3c 30dd 81bd e10c cf3d 3c26 34bd
000001e0: a868 963c 5d51 b2bd 6aa2 a53d c8f6 88bb
000001f0: e4ff 8fbc eead 23bd b981 073e 934c c93c
00000200: 4ae3 d9bc 9f9d 923d 02cf f5bb b089 a33d
00000210: 05e6 0d3e ab84 ef3d 5111 c3bd b431 883c
00000220: 5632 67bd 2e79 b6bd 4f32 ab3d 96cc 9cbc
00000230: a240 053d 2127 853d 5f98 babd be26 fb3d
00000240: 86b6 7f3d 08a7 903d 225a 843d 2671 1dbd
00000250: 7c6c 9f3d fc12 84bd 4ca5 0cbe 5f2e 5dbd
00000260: 7429 a63c 409a cf3b c523 f93d a5d1 d73d
00000270: 3df3 06be 73ca 053e 970b 17bd f094 813b
00000280: d19b 95bd a6d1 8cbd 604b ee3d 6404 7a3d
00000290: d513 2abd 1a2f 163e 8034 1e3e 9334 51bd
000002a0: ac7f bfbc a625 343d 90d1 15bd 4002 3b3d
000002b0: 9ab0 adbc ea2b 36bd d296 a63d b912 a73c
000002c0: 6f60 2bbc b5fe 3d3d f49e a33c 8507 2b3c
000002d0: e394 be3d 7b53 4dbc e85d e93a 4be7 5abd
000002e0: 4089 0f3e d437 373d 7de0 1b3e 5aee b4bd
000002f0: d63f 93bd 9246 67bd b799 913d 0604 223e
00000300: 623a 94ba b1f5 123e 70e8 d23d 853e d7bd
00000310: 7cbe 98bc ce37 b43d c20a 30bb c9d7 0cbe
00000320: 9e18 163c 7057 b53d ddc8 6a3d 78f8 f6bd
00000330: 0a2e 333d 33c2 1a3d 1556 62bd 765c d73b
00000340: ff6a c3bd e790 98bc febe 16bd 1db7 b7bd
00000350: 27d4 c43b b3d2 f83c 52fc e3bd 262a 83bd
00000360: 43f5 c23b 7e60 b7bd 8711 a4bd 3b9a 75bd
00000370: 66bd 0cbe 2014 103e 14a4 153e b55f 4b3d
00000380: 8079 bd3d 972f 053c 8b74 ad3d 2aca 90bd
00000390: 63eb 13be 8fee ca3c d253 94bc 5a53 ad3d
000003a0: 1d86 863b f5f0 28bd 72c1 9cbd 0c93 bebc
000003b0: c842 0ebd 2a37 82bc 6c8d d3bd c86e 7abd
000003c0: 1626 9c3c 3be4 a33c 2775 62bd f99e 963d
000003d0: 0eaa 05bd b828 9d3d 57c9 9fbd 0afe 9a3d
000003e0: b277 ad3c 416a 743d 47c3 93bd c330 3f3d
000003f0: b849 48bd 3fc9 a1bd a89e 44bc c0b6 173d

lstm.bias_ih_l1 f4 [256]
-0.05172472 -0.039143432 0.078598544 0.0050749066 -0.020481786 0.020955814 -0.09762275 0.1199994
0.0875239 -0.08922379 -0.011092154 0.023846477 0.062153764 -0.002376786 -0.044284906 0.13560648
0.017952112 0.064755306 0.09816591 -0.054033022 0.031271946 -0.11283114 -0.073796116 -0.074355684
-0.045447253 0.080173075 -0.0013972124 -0.019596716 0.04496036 0.15592325 -0.072419584 0.03941985
0.10843556 0.08475486 0.0190728 -0.06562234 -0.07254766 -0.03547184 0.11683384 0.13430977
-0.086525604 -0.09555667 0.06439473 0.0730701 0.12846904 0.058452673 -0.022616228 0.08898198
0.06421021 -0.02837821 0.061528306 -0.093027666 0.010519963 -0.053675763 -0.033828057 -0.018010277
0.049664803 0.09132389 -0.08009108 -0.076460145 -0.018167552 0.09682794 0.15154317 -0.04206866
0.06583755 -0.08717354 -0.08695762 0.059120886 0.07244083 -0.068851106 0.030935349 -0.042902116
0.06239847 0.13917263 0.07859508 -0.12644804 -0.03576098 0.052816875 0.0008998595 -0.013789835
-0.062187422 0.049884573 0.13626203 -0.03430382 -0.17232583 -0.08857013 0.06811701 -0.113093585
0.07169732 0.079260744 -0.018751424 0.07823848 0.036945928 0.13863686 -0.074521445 -0.06738001
0.08663265 -0.021282556 0.09773772 0.022296308 0.015405726 -0.06318176 0.06177717 -0.020483194
0.009326571 0.07801222 0.06278117 0.039196756 0.07526646 0.09083932 -0.045120575 -0.06075544
0.0117157195 -0.082224995 0.124953866 0.026989775 -0.1397565 0.12911892 -0.0066830977 0.017429901
0.003765464 0.098618254 -0.019605095 -0.00933129 -0.07907529 -0.091754474 0.15761499 0.03324652
-0.033799488 -0.025128668 0.01179607 0.086808145 0.05107872 -0.01190938 -0.034712717 0.07220768
-0.01699944 -0.056038227 0.05332241 0.01915339 -0.06531276 -0.14372252 0.016113602 0.095081486
0.0018932819 0.033768386 -0.042036254 -0.054116473 -0.06618048 -0.07503747 0.093015835 0.115509935
-0.094421126 0.06931314 -0.0280412 0.09532347 -0.09753205 0.16253418 0.102886364 0.0521635
-0.0051804017 0.0995965 0.09810485 0.13939045 -0.11923538 -0.07869562 0.0017041839 0.014679051
-0.14307915 0.017608412 -0.017310278 0.06132413 0.14548773 -0.0049479376 0.15155427 -0.09205426
-0.1035711 -0.028066592 -0.09800289 -0.041309856 0.015601919 -0.026829291 0.021077188 -0.025013112
0.13308777 -0.08867763 0.085535884 -0.082529776 0.028697602 0.00093969255 -0.034205366 0.027878912
0.09113936 0.08099864 0.12910399 -0.112164184 0.13721992 0.08833353 0.041009884 0.044777475
0.08847585 -0.0147092305 0.110521376 -0.08896725 -0.05937125 0.09328377 -0.06252159 0.168432
0.06470202 0.008892034 -0.09889031 -0.009806055 0.06162736 -0.116744034 0.0013979722 0.110144
0.09165968 0.13564582 -0.032760352 0.01396213 0.066377126 0.0044342466 -0.05453022 0.078082785
-0.10063126 -0.051957626 0.029023062 0.16691127 0.010099254 -0.097333126 0.028017981 -0.061074644
0.1102372 -0.09218756 0.045686454 0.16271242 0.093316995 0.027933063 0.09551951 -0.09247356
0.07171626 0.054799795 -0.095222056 -0.103254005 -0.10420824 -0.07418952 0.17017402 0.12008765
0.1208544 0.14189714 0.022197945 -0.12941407 0.051864672 0.014806235 -0.03841624 0.114952125
00000000: 4ddd 53bd dd54 20bd 46f8 a03d 674b a63b
00000010: 6bc9 a7bc 87ab ab3c 70ee c7bd 3fc2 f53d
00000020: bb3f b33d f6ba b6bd debb 35bc b059 c33c
00000030: f294 7e3d dac3 1bbb 1764 35bd 6ddc 0a3e
00000040: 4f10 933c 6e9e 843d 350b c93d bb51 5dbd
00000050: 0317 003d 0314 e7bd 6b22 97bd cb47 98bd
00000060: e626 3abd c831 a43d ab22 b7ba 4b89 a0bc
00000070: 5b28 383d 58aa 1f3e b850 94bd b576 213d
00000080: 7613 de3d f593 ad3d 903e 9c3c 0165 86bd
00000090: de93 94bd ec4a 11bd 9546 ef3d 8088 093e
000000a0: 5634 b1bd 37b3 c3bd 62e1 833d c7a5 953d
000000b0: 638d 033e 126c 6f3d ab45 b9bc 2f3c b63d
000000c0: a580 833d 6b79 e8bc 1b05 7c3d 4a85 bebd
000000d0: ec5b 2c3c 1edb 5bbd 4a8f 0abd 4a8a 93bc
000000e0: 526d 4b3d 0508 bb3d cb06 a4bd 2397 9cbd
000000f0: 1ed4 94bc ba4d c63d 222e 1b3e 3050 2cbd
00000100: d6d5 863d 0a88 b2bd d616 b2bd be28 723d
00000110: dc5b 943d cf01 8dbd 216c fd3c 21ba 2fbd
00000120: 8a95 7f3d 4583 0e3e 75f6 a03d 987b 01be
00000130: 1b7a 12bd 8256 583d 8ce4 6b3a c3ee 61bc
00000140: 3db8 7ebd c453 4c3d 4688 0b3e 2a82 0cbd
00000150: 2f76 30be 4264 b5bd ee80 8b3d 9c9d e7bd
00000160: 0bd6 923d 7553 a23d 969c 99bc 7f3b a03d
00000170: 9d54 173d d2f6 0d3e b39e 98bd 88fe 89bd
00000180: 756c b13d c158 aebc b72a c83d bfa6 b63c
00000190: 4c68 7c3c 7065 81bd 0f0a 7d3d 5fcc a7bc
000001a0: 79ce 183c dfc4 9f3d 6a93 803d c78c 203d
000001b0: 4d25 9a3d f709 ba3d 5ad0 38bd b2da 78bd
000001c0: 4af3 3f3c 9465 a8bd d0e7 ff3d a919 dd3c
000001d0: 541c 0fbe c037 043e e3fd dabb 27c9 8e3c
000001e0: 01c6 763b 5ef8 c93d dd9a a0bc 44e2 18bc
000001f0: 3af2 a1bd c5e9 bbbd d365 213e 812d 083d
00000200: 5571 0abd a3da cdbc 4e44 413c 78c8 b13d
00000210: eb37 513d 8f1f 43bc ec2e 0ebd 9fe1 933d
00000220: 6942 8bbc 5788 65bd 9968 5a3d 92e7 9c3c
00000230: b2c2 85bd ff2b 13be ac00 843c 15ba c23d
00000240: 0028 f83a b850 0a3d 352e 2cbd 3ca9 5dbd
00000250: a289 87bd 3fad 99bd 167f be3d 7990 ec3d
00000260: dd5f c1bd 0cf4 8d3d a9b6 e5bc f438 c33d
00000270: e2be c7bd 5c6f 263e 16b6 d23d 65a9 553d
00000280: 5cc0 a9bb 40f9 cb3d 32eb c83d 5fbc 0e3e
00000290: ae31 f4bd 2b2b a1bd ec5e df3a 6780 703c
000002a0: 5783 12be 843f 903c 49ce 8dbc 032f 7b3d
000002b0: bcfa 143e 4f22 a2bb 0b31 1b3e f286 bcbd
000002c0: 161d d4bd e9eb e5bc bdb5 c8bd 8634 29bd
000002d0: 319f 7f3c 1ac9 dbbc 11aa ac3c 4ce8 ccbc
000002e0: 2948 083e 9e9c b5bd 702d af3d 5f05 a9bd
000002f0: 3c17 eb3c b355 763a ed1a 0cbd 5162 e43c
00000300: 46a7 ba3d 9de2 a53d d633 043e 56b6 e5bd
00000310: 6183 0c3e 36e8 b43d fbf9 273d 9668 373d
00000320: d432 b53d fcfe 70bc 0859 e23d 7634 b6bd
00000330: 452f 73bd 900b bf3d 520b 80bd 7079 2c3e
00000340: 7e82 843d e5af 113c 0187 cabd 93a9 20bc
00000350: f86c 7c3d 7f17 efbd 2a3c b73a 2d93 e13d
00000360: 12b8 bb3d bde6 0a3e b82f 06bd 6bc1 643c
00000370: bbf0 873d 284d 913b 145b 5fbd dee9 9f3d
00000380: c317 cebd 85d1 54bd c6c1 ed3c caea 2a3e
00000390: 5777 253c 9756 c7bd f785 e53c 6829 7abd
000003a0: 0bc4 e13d d5cc bcbd b821 3b3d 169e 263e
000003b0: fb1c bf3d e1d3 e43c bc9f c33d c762 bdbd
000003c0: f9df 923d c075 603d c803 c3bd d676 d3bd
000003d0: 216b d5bd adf0 97bd 1942 2e3e 84f0 f53d
000003e0: 8382 f73d 7c4d 113e 77d8 b53c 1f85 04be
000003f0: 0d70 543d da95 723c 595a 1dbd 056c eb3d

lstm.bias_hh_l1 f4 [256]
0.0034348187 0.015038006 -0.06227543 -0.07498267 0.059237484 0.14763331 0.14198697 0.004147282
0.074296795 -0.10686566 -0.03444 0.1083068 0.048070047 0.07116882 0.033026084 -0.007084231
0.14013724 0.16073962 0.07067255 0.08677662 -0.01051184 0.09755463 -0.080095716 0.034712408
-0.045269717 0.019664895 -0.06010322 0.055805985 -0.110005386 0.0014610615 -0.0067408583 0.07804187
-0.053412564 -0.050208475 0.14062452 0.103718765 0.13104013 0.14563362 -0.039164957 0.06889981
-0.05687395 -0.013456449 -0.040768363 -0.03655816 0.0610684 0.057110965 0.06328394 0.09817586
0.022314891 0.13853784 0.024600586 0.08575027 0.0858104 0.14339612 -0.014263324 -0.027888507
-0.061872773 -0.015064579 0.14363308 -0.035835188 -0.033983145 -0.11982103 -0.06335327 -0.029183408
0.10116913 -0.04133782 -0.015900956 -0.09188442 -0.06746215 -0.024172891 -0.10270406 0.027095813
-0.023835633 -0.04041371 -0.018164782 0.039243523 0.07129677 -0.01152968 0.08254016 0.15947053
-0.0057955794 -0.027563093 0.10385712 -0.070296645 -0.11434964 0.07254036 0.032939248 -0.10220583
0.07982596 0.089693375 0.13489962 -0.05906968 0.038206194 0.025787951 0.061364792 -0.10745442
-0.08560843 0.06578862 0.028924594 0.10362406 -0.034884825 0.1108513 -0.0024635042 -0.047746353
0.14832264 -0.04756139 -0.100687385 -0.05890458 0.08391805 0.030567346 0.031282373 0.07672641
-0.005009088 0.056356274 -0.0296874 -0.040739413 0.05519307 0.057554487 0.129711 0.14294137
0.121575125 -0.0010170258 -0.06364762 -0.026602605 0.0033028182 0.10841007 0.0550847 0.022977497
0.13776888 0.080914654 0.1350258 -0.0153430365 0.024618087 0.096300736 0.017738856 -0.10266524
-0.064710215 -0.090695165 0.025812214 0.05238295 0.05333206 -0.10654552 -0.07512335 -0.039583158
0.010310968 -0.09650717 0.06287811 0.0068621133 -0.07145636 0.08546227 -0.0028707155 0.04163259
0.041054115 0.089048855 -0.05230589 0.041095685 -0.101104766 -0.058411017 0.15246873 -0.04244827
0.044386137 0.068642884 -0.033593394 -0.018247306 -0.01364794 0.018819692 0.103320695 0.052241605
-0.031579886 0.0591777 0.10066101 -0.117918566 0.13248259 -0.022478567 0.12814148 0.049754046
-0.09447853 0.15801911 0.040715646 -0.08235574 0.12379595 0.06960838 0.13569857 0.06752574
0.07645113 -0.05837538 0.120107 -0.061187614 -0.0003473688 0.051228054 -0.062716156 0.11320953
0.11567117 0.022029636 0.03250947 -0.048325308 0.032030407 -0.07392205 0.07721586 0.08463093
0.061252177 -0.047861025 -0.052477818 -0.06825611 0.047197662 -0.061105818 0.14268331 0.16232099
0.1204425 -0.0076256925 0.024369234 -0.04179446 -0.02863196 -0.0040680105 0.11481433 0.08478557
0.13025218 0.0917521 0.10394449 0.093145035 0.10113877 0.092407405 -0.03471485 0.08261259
0.047897518 -0.05645622 0.021681301 0.09058253 -0.059570543 -0.0944602 -0.01695042 0.12978347
0.08875308 0.08117887 0.047554776 0.15011708 0.12850238 0.15342398 0.11925343 0.0802953
0.07110829 0.1418442 -0.10309088 0.05708327 0.096996464 0.056278773 0.058430046 -0.017131021
0.08237099 -0.013945906 0.085138336 -0.034938853 0.07266687 -0.083919734 -0.06368876 -0.06640931
00000000: b21a 613b f861 763c 8514 7fbd 8490 99bd
00000010: 01a3 723d 302d 173e 0865 113e ece5 873b
00000020: eb28 983d 62dc dabd f510 0dbd f5cf dd3d
00000030: 19e5 443d f5c0 913d 5c46 073d d622 e8bb
00000040: 2380 0f3e ed98 243e c5bc 903d f1b7 b13d
00000050: da39 2cbc b9ca c73d 3909 a4bd 992e 0e3d
00000060: bd6c 39bd 4618 a13c cb2e 76bd d194 643d
00000070: 814a e1bd 1781 bf3a 6be2 dcbb 6ad4 9f3d
00000080: 22c7 5abd 67a7 4dbd e0ff 0f3e 816a d43d
00000090: 622f 063e fb20 153e 6f6b 20bd 581b 8d3d
000000a0: a9f4 68bd 7078 5cbc bafc 26bd 02be 15bd
000000b0: dc22 7a3d 30ed 693d 039b 813d 6d10 c93d
000000c0: b8cd b63c dddc 0d3e 2b87 c93c d69d af3d
000000d0: 5dbd af3d 6fd6 123e b8b0 69bc 7076 e4bc
000000e0: 4e6e 7dbd 6dd1 76bc 8d14 133e ebc7 12bd
000000f0: e931 0bbd ba64 f5bd 5cbf 81bd 0b12 efbc
00000100: c331 cf3d d951 29bd b942 82bc e62d bcbd
00000110: 9829 8abd 3a06 c6bc 8256 d2bd 0af8 dd3c
00000120: f242 c3bc d988 25bd 4fce 94bc d1bd 203d
00000130: 0a04 923d fce6 3cbc d10a a93d 3e4c 233e
00000140: d8e8 bdbb ffcb e1bc 0bb3 d43d b0f7 8fbd
00000150: 2530 eabd 0a90 943d 4eeb 063d 4a51 d1bd
00000160: cb7b a33d 29b1 b73d 2023 0a3e 0cf3 71bd
00000170: 197e 1c3d 4141 d33c a659 7b3d 1011 dcbd
00000180: 7953 afbd 2fbc 863d 45f3 ec3c da38 d43d
00000190: 64e3 0ebd 0206 e33d be72 21bb ae91 43bd
000001a0: e4e1 173e bbcf 42bd 3035 cebd ee45 71bd
000001b0: 3add ab3d 5f68 fa3c f221 003d bc22 9d3d
000001c0: 4723 a4bb d6d5 663d fe32 f3bc 5fde 26bd
000001d0: 2112 623d 41be 6b3d f6d2 043e 395f 123e
000001e0: 61fc f83d b94d 85ba af59 82bd b5ed d9bc
000001f0: 1874 583b 1906 de3d 7fa0 613d 4e3b bc3c
00000200: 4913 0d3e 95b6 a53d 3444 0a3e 5c61 7bbc
00000210: dfab c93c 5239 c53d 1451 913c 2742 d2bd
00000220: ca86 84bd 63be b9bd 2374 d33c 818f 563d
00000230: b872 5a3d 8a34 dabd 45da 99bd f321 22bd
00000240: 56ef 283c 8da5 c5bd 3dc6 803d 94db e03b
00000250: b657 92bd d806 af3d 9d22 3cbb ef86 2a3d
00000260: 5c28 283d 3f5f b63d b33e 56bd f353 283d
00000270: 0410 cfbd 6440 6fbd c320 1c3e 3dde 2dbd
00000280: 3dce 353d a494 8c3d 3a99 09bd 607b 95bc
00000290: 9c9b 5fbc c12b 9a3c cd99 d33d 4bfb 553d
000002a0: e959 01bd 5164 723d 5c27 ce3d 4a7f f1bd
000002b0: 84a9 073e f924 b8bc 8537 033e e6ca 4b3d
000002c0: f67d c1bd c3cf 213e 73c5 263d 20aa a8bd
000002d0: bb88 fd3d d78e 8e3d 91f4 0a3e ef4a 8a3d
000002e0: 6992 9c3d 061b 6fbd a9fa f53d dd9f 7abd
000002f0: 0d1f b6b9 82d4 513d 5471 80bd 66da e73d
00000300: 02e5 ec3d 7f77 b43c a628 053d c2f0 45bd
00000310: 5132 033d 7264 97bd 5923 9e3d fb52 ad3d
00000320: 90e3 7a3d ec09 44bd fbf2 56bd dcc9 8bbd
00000330: 5652 413d 184a 7abd 931b 123e 7937 263e
00000340: 8faa f63d f2e0 f9bb fda1 c73c ab30 2bbd
00000350: 928d eabc f24c 85bb c723 eb3d 0fa4 ad3d
00000360: d460 053e 86e8 bb3d d9e0 d43d d3c2 be3d
00000370: d821 cf3d 1840 bd3d 2931 0ebd ca30 a93d
00000380: 3030 443d a33e 67bd fc9c b13c 5583 b93d
00000390: 3e00 74bd 5974 c1bd 9bdb 8abc f5e5 043e
000003a0: 2dc4 b53d 1b41 a63d ccc8 423d 4bb8 193e
000003b0: 2196 033e 2d1b 1d3e 243b f43d dd71 a43d
000003c0: 39a1 913d 9b3f 113e 5021 d3bd 26d0 693d
000003d0: 15a6 c63d 9284 663d 5854 6f3d 5b56 8cbc
000003e0: 1fb2 a83d 5f7d 64bc 025d ae3d 0b1c 0fbd
000003f0: 5ed2 943d 1cde abbd 416f 82bd 9b01 88bd
