lstm_gk_model.pt (torch, 245029 bytes, 9 tensors)

lstm.weight_ih_l0 f4 [256, 38]
0.1257192 0.12627864 -0.006425868 0.11482641 -0.05691058 0.012377152 -0.049011555 0.09371559
0.12819144 -0.06583789 0.098142095 0.0070019457 0.11143614 0.015840743 0.052392658 0.0030927265
0.11816552 0.018476114 -0.0878776 0.019015599 -0.045746755 0.0056461985 -0.05865064 0.1037
-0.0768197 -0.03864994 -0.06603786 -0.055896264 0.020074021 -0.1247151 0.11550327 -0.06504451
0.14103207 0.049468815 -0.02425068 0.020305144 -0.007162866 0.06568653 0.0055083185 -0.05390297
0.01779271 -0.03389743 0.0424784 0.12693311 0.059850007 -0.04831362 0.057481315 0.007723238
0.05035746 -0.06013236 -0.13868724 -0.03144712 -0.08092023 0.12472718 0.05770448 0.051776692
0.02940384 0.013155864 0.08541856 -0.08248128 0.022828126 -0.06246237 0.060959503 -0.05842504
0.020527208 -0.04409659 0.12821816 -0.055420782 -0.060691595 -0.08719057 0.1104089 0.0602851
0.10127167 -0.11699548 -0.10756764 -0.07851279 -0.08286107 0.048269928 0.047248017 0.10386555
-0.07269803 -0.1125819 0.056590527 -0.052644514 0.06540218 -0.029967284 0.07558254 -0.12565091
-0.070183694 0.0330179 0.019837692 -0.030874545 0.07549854 0.08497615 -0.09879153 -0.09410145
0.10472602 -0.044298016 -0.050902795 -0.1196839 -0.07031985 0.022067053 -0.016738616 -0.09047096
0.01781538 -0.05415775 -0.11788427 -0.073805936 -0.11544349 -0.072086 0.1331045 0.001247692
0.034254078 -0.15078847 -0.043138348 -0.07405254 0.060087096 -0.109990165 -0.07210135 -0.08621205
-0.040006775 -0.07996574 0.034248907 -0.03773308 -0.07433375 -0.0884032 0.00076062616 -0.1236088
0.09091116 -0.031782523 0.10122513 0.03894776 -0.124091856 0.075125925 -0.07474629 -0.0813686
-0.117656276 -0.13087343 0.02981541 0.015178327 0.012212625 -0.07927244 0.05060455 -0.14691047
-0.039511014 0.024391554 0.045541525 0.064130194 0.097676225 -0.13299918 0.071469344 -0.08002417
-0.04697911 -0.06805426 0.080510825 -0.09174381 0.0571626 0.0047549247 0.05151597 -0.090119906
0.075722046 -0.0063680364 -0.017356193 -0.15481953 0.015635513 -0.007608273 -0.043460403 0.07747285
-0.0024357794 -0.06915955 -0.072911195 -0.04514449 0.08069163 -0.054480843 -0.057516728 -0.07341254
-0.12439478 0.011166601 0.064184085 -0.15302669 -0.00022561557 0.029883724 0.006959121 -0.08363612
0.030736104 0.03918839 0.054925162 -0.011032699 -0.058353905 -0.009258972 -0.0071565714 -0.007322205
0.10284379 0.107424945 0.012012092 -0.022656536 0.035461422 0.021337206 0.04219196 0.039208807
-0.077129535 -0.04030164 0.11675631 0.046099875 -0.01165715 -0.100348935 -0.1016648 -0.11197086
-0.016358547 0.047543604 0.113340065 0.08651289 -0.115933 -0.09952183 -0.04427413 0.12840207
0.051321536 0.0014303107 0.06693848 -0.045591373 -0.061286684 0.12527375 -0.018482022 -0.031833123
-0.13648504 0.12345253 0.06031617 0.07301018 -0.052766446 -0.09448687 -0.07585281 0.09321253
0.07854467 0.11455251 0.10312143 0.062920816 0.021779343 -0.06360788 -0.10918414 -0.0944094
0.07055125 -0.026149234 0.008793265 -0.047537655 0.00044983704 -0.08797936 -0.063145496 0.050828323
0.00048812313 0.10845217 -0.0061512655 -0.067712955 0.0007391934 -0.03909498 -0.026087852 -0.10756618
00000000: 89bc 003e 304f 013e 1690 d2bb 1c2a eb3d
00000010: 111b 69bd 8ac9 4a3c 57c0 48bd f6ed bf3d
00000020: 9e44 033e 04d6 86bd b9fe c83d 9470 e53b
00000030: a238 e43d 72c4 813c af99 563d 57af 4a3b
00000040: c400 f23d 385b 973c 2cf9 b3bd 9ac6 9b3c
00000050: f360 3bbd bf03 b93b a73b 70bd aa60 d43d
00000060: a653 9dbd 664f 1ebd dc3e 87bd 7bf3 64bd
00000070: 4672 a43c a16a ffbd fa8c ec3d 0e36 85bd
00000080: b66a 103e d09f 4a3d 5da9 c6bc f956 a63c
00000090: 7ab6 eabb a986 863d 207f b43b 5cc9 5cbd
000000a0: 04c2 913c 08d8 0abd d5fd 2d3d c1fa 013e
000000b0: 4825 753d 81e4 45bd 8771 6b3d 3713 fd3b
000000c0: a043 4e3d 594d 76bd 0704 0ebe b2ce 00bd
000000d0: 81b9 a5bd f770 ff3d 885b 6c3d cc13 543d
000000e0: 52e0 f03c b18b 573c edef ae3d f2eb a8bd
000000f0: 0d02 bb3c 8bd8 7fbd acb0 793d 184f 6fbd
00000100: ad28 a83c a09e 34bd 9f4b 033e e700 63bd
00000110: c097 78bd f890 b2bd 101e e23d 82ed 763d
00000120: 8567 cf3d 549b efbd 6c4c dcbd 50cb a0bd
00000130: 11b3 a9bd b0b6 453d 2387 413d 76b7 d43d
00000140: b4e2 94bd 5791 e6bd 78cb 673d c6a1 57bd
00000150: 94f1 853d f37d f5bc 05cb 9a3d a2aa 00be
00000160: 78bc 8fbd c73d 073d a882 a23c 9dec fcbc
00000170: fb9e 9a3d fa07 ae3d 3753 cabd 43b8 c0bd
00000180: 987a d63d d671 35bd 737f 50bd d51c f5bd
00000190: db03 90bd f7c5 b43c 6c1f 89bc d748 b9bd
000001a0: 8ff1 913c 84d4 5dbd 4f6d f1bd 9127 97bd
000001b0: a36d ecbd d3a1 93bd 8c4c 083e 9989 a33a
000001c0: 014e 0c3d 4b68 1abe d6b1 30bd dca8 97bd
000001d0: e31d 763d 8642 e1bd dfa9 93bd f18f b0bd
000001e0: 25de 23bd 14c5 a3bd 9548 0c3d 018e 1abd
000001f0: 4b3c 98bd bd0c b5bd c264 473a 9c26 fdbd
00000200: a12f ba3d 642e 02bd 1f4f cf3d b087 1f3d
00000210: df23 febd 9fdb 993d 9514 99bd 95a4 a6bd
00000220: c6f5 f0bd af03 06be 723f f43c 85ae 783c
00000230: 7617 483c 9759 a2bd b746 4f3d b36f 16be
00000240: 4dd6 21bd ccd0 c73c c089 3a3d b156 833d
00000250: 790a c83d f030 08be 855e 923d b6e3 a3bd
00000260: 2b6d 40bd 0860 8bbd dce2 a43d 2ee4 bbbd
00000270: 5523 6a3d 33cf 9b3b 6902 533d c990 b8bd
00000280: 2914 9b3d f6aa d0bb 932e 8ebc 0389 1ebe
00000290: 0c16 803c d24e f9bb 8903 32bd 16aa 9e3d
000002a0: 99a1 1fbb 86a3 8dbd 7752 95bd 6ee9 38bd
000002b0: a741 a53d 4e27 5fbd a996 6bbd 5059 96bd
000002c0: b1c2 febd 1ff4 363c f272 833d 07b3 1cbe
000002d0: 3893 6cb9 b6ce f43c 5709 e43b 6a49 abbd
000002e0: 48ca fb3c 0184 203d 35f9 603d 7ec2 34bc
000002f0: 8104 6fbd f1b2 17bc ac81 eabb 1cef efbb
00000300: c49f d23d 9c01 dc3d 5ece 443c 339a b9bc
00000310: ff3f 113d 5dcb ae3c 7ad1 2c3d 6a99 203d
00000320: 17f6 9dbd 5513 25bd ef1d ef3d 39d3 3c3d
00000330: a2fd 3ebc be83 cdbd a235 d0bd fa50 e5bd
00000340: 5c02 86bc 15bd 423d d61e e83d ac2d b13d
00000350: 486e edbd 1ad2 cbbd ca58 35bd d57b 033e
00000360: 8836 523d 4379 bb3a 0b17 893d 05be 3abd
00000370: bf07 7bbd c347 003e 9c67 97bc 7363 02bd
00000380: bcc2 0bbe aed4 fc3d 170e 773d 5c86 953d
00000390: a121 58bd 5582 c1bd b858 9bbd 36e6 be3d
000003a0: 07dc a03d 829a ea3d 5431 d33d a1dc 803d
000003b0: 986a b23c d944 82bd ef9b dfbd b759 c1bd
000003c0: 2c7d 903d eb36 d6bc a011 103c d8b6 42bd
000003d0: 1bd8 eb39 862e b4bd 6d52 81bd 5c31 503d
000003e0: c7ea ff39 2c1c de3d 8e90 c9bb 17ad 8abd
000003f0: 6ec6 413a 0f22 20bd 31b6 d5bc a84b dcbd

lstm.weight_hh_l0 f4 [256, 64]
-0.021475878 0.10222817 0.10017227 -0.11662624 -0.117635526 -0.02129758 -0.091366224 -0.082339056
0.06091061 -0.014479448 -0.03491025 -0.020183362 0.07518151 0.11831231 0.073808454 -0.13838871
-0.08351825 0.025760379 0.05163609 -0.051143695 0.09837475 -0.009096599 0.059121985 0.13765751
0.09567717 -0.09995612 -0.053122148 0.05977854 0.06248875 -0.06131272 0.09233908 0.0054926467
-0.08805755 -0.0053846003 -0.15829112 0.014385765 -0.0737608 0.14829715 -0.10815073 0.05283419
-0.08708798 -0.011359836 -0.11590927 0.02899751 0.09770419 -0.14730124 -0.08026895 -0.020717235
-0.0049140174 -0.030569324 0.02214139 -0.013318266 0.14449716 0.040396083 -0.07707216 -3.9636638e-05
-0.11863172 -0.06697987 0.0848038 -0.052276812 -0.14798044 0.018478474 -0.0013214372 0.073187195
0.04520832 -0.13706963 -0.060699444 -0.07873835 0.14474624 -0.032501124 -0.09432023 -0.007956618
0.034528933 0.054892052 0.11490599 0.0795793 0.023698814 0.12733175 0.04130096 0.08329352
-0.09110317 0.032932255 -0.005939345 -0.10283494 -0.047740087 0.0946017 0.022404715 0.128268
0.07584879 0.011129503 0.09572353 0.041528348 -0.009961867 -0.054715335 0.10478823 0.07622297
0.10935443 -0.048165742 -0.09020748 -0.006875664 -0.015147833 -0.08873441 0.008121828 -0.008911933
0.08953011 0.025831303 -0.034617763 0.1458005 -0.015090364 -0.038046613 0.04467024 0.117531784
0.03579048 0.018909285 0.086953744 -0.042745493 0.13058755 -0.108774506 0.023370437 0.083379366
0.06632676 -0.045079257 0.089723185 0.08546413 -0.09513143 -0.020619014 -0.0793923 -0.054808512
0.0011319906 -0.038593456 -0.03790372 0.084979594 0.0049823774 -0.12410374 0.019342767 -0.120407954
-0.08327042 0.10167228 0.09337307 -0.040010925 -0.07801991 0.06549651 -0.11885235 0.08528313
0.06504025 0.034248535 0.03371171 0.017590981 -0.097540386 -0.056286544 0.07353809 0.12008012
-0.009973265 0.039674707 -0.12519403 0.10554372 -0.09395807 -0.07606404 0.12909754 -0.031122636
-0.048379313 0.019539397 0.09439647 0.10284719 0.01970806 0.08042913 0.07500534 -0.028816532
-0.10515902 0.019416785 -0.024591794 0.050324548 -0.096218154 -0.08101672 -0.09860011 -0.097056225
0.09929179 -0.13802312 -0.0013185019 -0.075361095 -0.052090142 -0.051833652 0.039626267 0.08940264
-0.01893564 -0.0026382522 -0.013203818 0.109919176 0.060628902 -0.035473175 0.085440755 -0.09601956
0.053180482 0.046329595 -0.06087419 -0.00627144 0.0056753787 -0.069326535 0.06451564 0.095512986
0.03072054 0.044815842 -0.04730215 -0.04202859 0.033054993 -0.049612846 -0.112079464 -0.060348768
-0.17464174 0.07497645 -0.03460649 -0.10416584 0.02413706 0.08506055 0.109472714 0.017572626
-0.07431243 -0.04280931 -0.15080541 -0.051165663 0.01897199 -0.047458474 -0.0030338878 0.079408206
0.020258224 0.057061534 -0.012422608 0.038258336 -0.013145589 0.100532874 -0.1617674 0.03915764
-0.07905541 0.095344655 -0.1724702 -0.07736868 0.05566448 -0.11812983 0.10215756 -0.08022589
0.10103909 0.103805676 -0.13222887 0.0008875909 0.009251539 -0.02053718 0.030613204 -0.18892723
-0.11970213 0.013818168 -0.07281212 -0.11249272 0.0464436 -0.16132517 0.109212115 -0.10565972
00000000: 2eee afbc 015d d13d 1e27 cd3d bdd9 eebd
00000010: e5ea f0bd 4378 aebc 371e bbbd 61a1 a8bd
00000020: 677d 793d 353b 6dbc 0dfe 0ebd 9457 a5bc
00000030: c3f8 993d b94d f23d e328 973d c5b5 0dbe
00000040: 9e0b abbd 6e07 d33c 5d80 533d 0d7c 51bd
00000050: b378 c93d e709 15bc e529 723d 17f6 0c3e
00000060: 64f2 c33d cbb5 ccbd 9c96 59bd 58da 743d
00000070: 34f4 7f3d 0c23 7bbd 461c bd3d a9fb b33b
00000080: 8457 b4bd 4d71 b0bb 1117 22be 46b2 6b3c
00000090: e70f 97bd 35db 173e 217e ddbd aa68 583d
000000a0: 2f5b b2bd 9b1e 3abc d761 edbd 308c ed3c
000000b0: 2219 c83d 23d6 16be 0c64 a4bd 31b7 a9bc
000000c0: c405 a1bb 856c fabc dc61 b53c db34 5abc
000000d0: 10f7 133e 5d76 253d 02d8 9dbd 843f 26b8
000000e0: 30f5 f2bd be2c 89bd 9dad ad3d 3620 56bd
000000f0: 2f88 17be 2b60 973c 1334 adba 2be3 953d
00000100: 5c2c 393d fb5b 0cbe fb9f 78bd 9241 a1bd
00000110: 5c38 143e e61f 05bd f72a c1bd 7a5c 02bc
00000120: 366e 0d3d 7dd6 603d d553 eb3d 79fa a23d
00000130: 0424 c23c 4163 023e 322b 293d cb95 aa3d
00000140: 4c94 babd f9e3 063d d69e c2bb 209b d2bd
00000150: 1c8b 43bd 89be c13d 188a b73c b058 033e
00000160: 9c56 9b3d 8558 363c b30a c43d a119 2a3d
00000170: 1937 23bc 301d 60bd 369b d63d ca1a 9c3d
00000180: 37f5 df3d 7149 45bd b3be b8bd 404d e1bb
00000190: 9e2e 78bc 63ba b5bd 6a11 053c 5b03 12bc
000001a0: 905b b73d 2b9c d33c 5bcb 0dbd ba4c 153e
000001b0: 933d 77bc c4d6 1bbd 24f8 363d 81b4 f03d
000001c0: 0a99 123d a5e7 9a3c ce14 b23d e615 2fbd
000001d0: beb8 053e 2bc5 debd 5c73 bf3c cdc2 aa3d
000001e0: 53d6 873d 07a5 38bd cac0 b73d d107 af3d
000001f0: 44d4 c2bd 35e9 a8bc 6e98 a2bd e47e 60bd
00000200: 4d5f 943a 2c14 1ebd ee40 1bbd c809 ae3d
00000210: 3643 a33b 1a2a febd b974 9e3c 7298 f6bd
00000220: af89 aabd 8e39 d03d 613a bf3d 7fe2 23bd
00000230: e7c8 9fbd 0923 863d dc68 f3bd eca8 ae3d
00000240: d333 853d 3148 0c3d 4a15 0a3d f61a 903c
00000250: 41c3 c7bd b88c 66bd 239b 963d 91ec f53d
00000260: e866 23bc f281 223d dd32 00be 4e27 d83d
00000270: 176d c0bd 77c7 9bbd 2532 043e e6f4 febc
00000280: 6329 46bd 1611 a03c f052 c13d 8ca1 d23d
00000290: cc72 a13c 07b8 a43d 669c 993d a610 ecbc
000002a0: 9d5d d7bd f30f 9f3c bb74 c9bc 1d21 4e3d
000002b0: 060e c5bd 18ec a5bd dbee c9bd 6ac5 c6bd
000002c0: 7e59 cb3d ef55 0dbe 95d1 acba eb56 9abd
000002d0: 795c 55bd 864f 54bd 274f 223d bb18 b73d
000002e0: ea1e 9bbc 87e6 2cbb d454 58bc 4e1d e13d
000002f0: 0356 783d 524c 11bd 90fb ae3d e7a5 c4bd
00000300: c7d3 593d 1ac4 3d3d 3757 79bd a780 cdbb
00000310: 87f8 b93b 12fb 8dbd c720 843d 509c c33d
00000320: a4a9 fb3c d190 373d e6bf 41bd 2c26 2cbd
00000330: ac64 073d d736 4bbd eb89 e5bd 4530 77bd
00000340: 49d5 32be 418d 993d 89bf 0dbd e654 d5bd
00000350: 15bb c53c 3a34 ae3d 3b33 e03d 78f4 8f3c
00000360: 1e31 98bd d158 2fbd bc6c 1abe 1693 51bd
00000370: 266b 9b3c d163 42bd 31d4 46bb c5a0 a23d
00000380: 93f4 a53c 5bb9 693d 3288 4bbc c6b4 1c3d
00000390: 9960 57bc 2ee4 cd3d 5aa6 25be c363 203d
000003a0: cee7 a1bd 0f44 c33d 079c 30be 7873 9ebd
000003b0: 7000 643d 0dee f1bd fc37 d13d 794d a4bd
000003c0: 95ed ce3d 1298 d43d 0167 07be 38ad 683a
000003d0: c493 173c 973d a8bc 8bc8 fa3c 2476 41be
000003e0: 6426 f5bd 9965 623c 851e 95bd 9562 e6bd
000003f0: a53b 3e3d 6d32 25be 9aaa df3d 2064 d8bd

lstm.bias_ih_l0 f4 [256]
-0.023455327 0.006679951 -0.020819377 -0.084398635 -0.060186572 0.075452186 0.04868088 0.13142107
0.11508715 0.016370578 0.10716657 0.0076567256 0.09063671 -0.06303775 -0.011095317 0.041885525
0.00356281 0.0578518 0.13120583 0.12930839 -0.10372843 0.0099102175 0.01910516 0.054331772
-0.10301209 0.09259865 0.033735964 0.09804109 -0.03088586 0.04843136 0.080629945 0.14623134
-0.0049697505 0.10015065 -0.023804838 0.08841017 -0.041586876 0.056158606 -0.092427224 0.06490595
-0.076267995 -0.029021595 -0.013211081 -0.010130159 0.09299801 0.13877468 0.099799894 -0.076624535
0.11839467 0.14944689 -0.0002305726 -0.046697788 0.093914084 0.1062425 0.07539889 -0.110792086
-0.07098065 0.08803578 -0.06896425 0.079090975 0.094063096 -0.0054387213 -0.12576208 -0.1090621
0.13049185 0.03727977 0.083481334 -0.03791142 -0.0176435 0.07506831 -0.07160267 0.059302136
-0.010251057 0.10990136 -0.035474215 -0.024393879 -0.06702007 0.11202003 0.0022498053 -0.026227102
-0.13826112 0.14196756 0.11863453 -0.050076865 -0.029430434 -0.00966132 -0.045159906 -0.09150036
-0.033512287 0.08226422 -0.06711331 0.14508803 -0.025186626 -0.053216685 -0.06099919 0.15990575
0.01586062 0.10947814 0.035898283 0.12725985 -0.080706105 0.068681814 0.065645546 -0.011618234
-0.074027956 0.016658526 0.027606606 -0.035958946 -0.0978548 0.09525403 0.046150148 -0.08487194
-0.010906408 0.025438149 0.10135794 0.076531075 0.11606928 0.0029967064 0.068685845 -0.05746471
0.061501373 -0.065135844 0.13250461 0.059881013 0.006285163 -0.0059006233 0.06192367 0.048958503
0.06518448 0.002854143 -0.09942903 -0.09139564 -0.15551704 -0.07046756 -0.028079687 0.0057042753
0.103360295 0.06046105 0.023803622 0.07930973 0.13339102 0.07833366 0.003130446 0.079424925
-0.09337063 0.043890834 0.0770446 -0.14767514 -0.08808759 0.010941926 0.06085563 0.08825053
-0.0874113 0.09767555 -0.010664033 0.0030549427 -0.0356374 0.051677044 0.079916894 0.03932171
-0.13563609 0.0012718275 -0.120827526 -0.15356182 0.032869067 -0.0022564514 -0.11806913 -0.11957576
0.13683844 0.14036357 -0.117989026 -0.09450213 0.075901195 -0.041333355 0.019728638 -0.018732829
0.03613901 -0.1477864 -0.14103983 0.07969304 0.08999516 0.049134374 -0.06863255 -0.082283
-0.05824735 -0.0937766 -0.083644755 0.07562123 -0.08633472 -0.14986716 -0.008036388 0.07916348
0.026309388 -0.11011406 0.094632074 -0.025172468 0.10520162 -0.0792314 0.13747582 -0.01631171
0.12486655 0.08847512 0.12984163 0.047854688 -0.051617168 0.04994021 0.1300499 -0.07950756
0.017584711 0.03793971 0.09970811 -0.06799716 -0.092476375 0.061438903 -0.0070608505 -0.042430013
0.008182574 0.12543029 -0.089258894 0.01273101 -0.046291154 0.014577128 -0.039126232 0.15134656
0.10208759 0.057647415 -0.016267743 0.104477234 -0.05576439 -0.07829385 -0.07114837 -0.008515894
-0.07293281 0.11712828 0.02685301 -0.012522023 -0.085587166 0.15300193 0.14300069 -0.08565305
0.12581341 0.02143282 -0.013449769 0.072220124 -0.09645238 -0.12150878 0.020498602 0.12581016
0.09839878 0.11151592 0.10238803 0.05481726 0.03922152 -0.046805296 0.10978385 0.10724972
00000000: 6325 c0bc 7ee3 da3b 668d aabc 31d9 acbd
00000010: 3286 76bd ad86 9a3d 9a65 473d 3f93 063e
00000020: d0b2 eb3d 971b 863c 267a db3d 45e5 fa3b
00000030: bd9f b93d f019 81bd 22c9 35bc 2890 2b3d
00000040: 087e 693b 02f6 6c3d d25a 063e 6b69 043e
00000050: 926f d4bd 775e 223c 6d82 9c3c fe8a 5e3d
00000060: 01f8 d2bd 5ca4 bd3d b92e 0a3d c4c9 c83d
00000070: 5804 fdbc f65f 463d 5021 a53d abbd 153e
00000080: 4ad9 a2bb c91b cd3d 5d02 c3bc 6410 b53d
00000090: 0057 2abd 9106 663d 7c4a bdbd 69ed 843d
000000a0: 6532 9cbd b2be edbc 4a73 58bc f7f8 25bc
000000b0: be75 be3d f31a 0e3e e363 cc3d 53ed 9cbd
000000c0: e878 f23d 9b08 193e dcc5 71b9 2e46 3fbd
000000d0: 0756 c03d ab95 d93d bc6a 9a3d f6e6 e2bd
000000e0: 4e5e 91bd 1a4c b43d 213d 8dbd 73fa a13d
000000f0: 27a4 c03d 4d37 b2bb c6c7 00be f35b dfbd
00000100: a89f 053e acb2 183d 43f8 aa3d 0149 1bbd
00000110: 1a89 90bc 6abd 993d 6ca4 92bd cce6 723d
00000120: 0df4 27bc f713 e13d 694d 11bd acd5 c7bc
00000130: d241 89bd c26a e53d 7871 133b 38da d6bc
00000140: 5394 0dbe f25f 113e a9f6 f23d 661d 4dbd
00000150: 1818 f1bc 834a 1ebc 98f9 38bd 8a64 bbbd
00000160: 2e44 09bd 257a a83d b472 89bd f591 143e
00000170: 2f54 cebc bdf9 59bd 49da 79bd 55be 233e
00000180: 22ee 813c 1336 e03d 140a 133d 6850 023e
00000190: 3e49 a5bd 0da9 8c3d 2c71 863d 685a 3ebc
000001a0: f89b 97bd 7677 883c 4027 e23c b049 13bd
000001b0: 1968 c8bd 8b14 c33d f007 3d3d 57d1 adbd
000001c0: cab0 32bc aa63 d03c c094 cf3d 53bc 9c3d
000001d0: bbb5 ed3d 6464 443b 2aab 8c3d 1e60 6bbd
000001e0: dde8 7b3d f165 85bd 4aaf 073e cb45 753d
000001f0: c5f3 cd3b 045a c1bb ada3 7d3d b688 483d
00000200: 717f 853d 930c 3b3b 73a1 cbbd a32d bbbd
00000210: dc3f 1fbe 4c51 90bd 5f07 e6bc eeea ba3b
00000220: 90ae d33d 02a6 773d d0ff c23c 246d a23d
00000230: a897 083e 666d a03d 2b28 4d3b 89a9 a23d
00000240: 1a39 bfbd e0c6 333d 8fc9 9d3d 2738 17be
00000250: 4467 b4bd c445 333c c143 793d b2bc b43d
00000260: b204 b3bd 1e0a c83d 32b8 2ebc 6f35 483b
00000270: 86f8 11bd 4fab 533d 78ab a33d cd0f 213d
00000280: 30e4 0abe 73b3 a63a 6c74 f7bd 4f3f 1dbe
00000290: b7a1 063d f9e0 13bb 3ace f1bd 23e4 f4bd
000002a0: 601f 0c3e 78bb 0f3e 3ba4 f1bd 558a c1bd
000002b0: 1672 9b3d 2a4d 29bd f49d a13c 9775 99bc
000002c0: 8006 143d 5155 17be bf6c 10be 1b36 a33d
000002d0: 624f b83d 2041 493d 398f 8cbd fd83 a8bd
000002e0: c694 6ebd f20d c0bd f14d abbd 4edf 9a3d
000002f0: 42d0 b0bd c776 19be 0eab 03bc 7620 a23d
00000300: c986 d73c 7b83 e1bd 76ce c13d 7e36 cebc
00000310: f273 d73d 1244 a2bd 76c6 0c3e 23a0 85bc
00000320: 09ba ff3d 7232 b53d 34f5 043e 4703 443d
00000330: 866c 53bd 1b8e 4c3d cd2b 053e dcd4 a2bd
00000340: d00d 903c ab66 1b3d c433 cc3d 1842 8bbd
00000350: 4164 bdbd 5ca7 7b3d b55e e7bb 18cb 2dbd
00000360: 3410 063c cc70 003e 5ecd b6bd ba95 503c
00000370: cb9b 3dbd e8d4 6e3c d442 20bd 98fa 1a3e
00000380: 4c13 d13d b21f 6c3d ee43 85bc 29f8 d53d
00000390: 3369 64bd 8758 a0bd 3db6 91bd 4086 0bbc
000003a0: cc5d 95bd f4e0 ef3d d8fa db3c 2c29 4dbc
000003b0: 5348 afbd 8aac 1c3e c66e 123e de6a afbd
000003c0: 3bd5 003e e293 af3c 6b5c 5cbc 25e8 933d
000003d0: d388 c5bd 98d9 f8bd afec a73c 61d4 003e
000003e0: 4d85 c93d 7562 e43d d1b0 d13d 1088 603d
000003f0: bfa6 203d e9b6 3fbd 5bd6 e03d bea5 db3d

lstm.bias_hh_l0 f4 [256]
-0.07879108 -0.123852156 -0.0048788697 -0.03948159 -0.013688492 0.10490779 0.0023527294 0.12884766
8.535857e-05 0.03994332 0.031135608 -0.009655303 0.0077653476 -0.024333091 -0.05816953 0.04703628
0.010032151 0.043113153 0.047527023 -0.023617305 -0.13693166 0.08803419 0.047251616 -0.110076174
0.099887244 0.008940516 -0.10842535 -0.053203113 -0.026740456 -0.06810269 0.035994817 -0.031907856
-0.03580634 0.1403948 -0.021681173 0.02383978 -0.07361599 0.018365467 -0.07181305 -0.04430847
-0.069322504 -0.006957666 0.06287685 0.08627606 0.070605114 -0.017665358 -0.06590516 -0.02758705
0.14271495 0.036268845 0.13297282 0.121362425 0.077713035 -0.019851884 0.051117565 -0.07011891
0.03364687 0.047709435 -0.035417583 -0.06100379 -0.042001408 0.033725824 -0.03052338 0.048593596
-0.03500686 0.10688898 -0.03639121 0.10291363 0.14376648 0.12174401 -0.047141835 -0.071835816
-0.05824069 -0.04872142 0.0036914765 -0.012787085 0.07212432 0.15217434 0.07369264 0.018079752
-0.060802855 -0.00043540762 0.11006831 -0.08576934 -0.022960046 -0.08929269 -0.011464684 -0.09582341
-0.13852607 0.06594542 -0.048284594 0.048652463 0.10378376 0.012607823 0.056579616 -0.01591001
0.11739881 0.1577984 -0.022522366 -0.07344151 0.10805625 0.11622337 0.06676142 0.031846978
0.03927303 0.06880311 0.057320468 -0.005252737 0.035857715 0.16364476 -0.008440042 -0.10746748
-0.06547459 0.029870097 0.08984797 0.041004542 0.1215109 0.027193138 0.086260214 -0.07641855
0.08191998 0.0703334 0.06711343 0.073165186 -0.09795884 0.15405305 -0.0074654697 -0.12538905
0.07468717 0.056205284 0.07873141 0.088567056 -0.010780905 0.04488208 0.15195876 0.08506008
0.06019343 0.016895033 -0.12376215 0.06848788 -0.05934045 -0.019397307 -0.13944875 -0.14789495
-0.038043138 -0.14709811 0.06726489 0.001584827 -0.016223574 0.14551538 0.06285682 0.059566915
-0.055378646 -0.12180765 -0.046067994 0.113463484 -0.111636974 -0.11720722 0.027128225 0.0734766
0.039940514 0.03358444 -0.03820465 -0.077569894 -0.013060568 0.10798352 -0.09971018 -0.13131827
0.0042019687 0.029701505 0.030558545 0.01570004 0.120804794 -0.06008495 0.07138289 -0.066723555
-0.1123996 -0.097647935 0.08129921 -0.052423786 -0.017237537 0.01649785 -0.1138153 0.015319055
-0.09422777 0.07783903 0.119208194 0.08204572 0.05929989 0.04061435 0.0042616143 0.018795826
0.035650004 -0.04915564 0.041672397 -0.049383137 -0.09648977 0.008398387 -0.040023647 -0.04044456
0.06622473 -0.008326986 0.15277208 -0.041954707 -0.09386503 0.07808313 0.041998416 0.054215
0.014969783 -0.015943682 -0.10710523 0.098835684 -0.04485018 0.12863101 -0.03477204 0.099354915
0.008688185 -0.0066356105 -0.035206825 0.1393613 0.10721083 -0.09487727 -0.033662193 -0.0016379812
0.06560795 -0.059933774 -0.062496442 0.042610105 0.01638088 -0.04859373 0.07978886 0.14005698
-0.03703358 0.1616939 0.06924432 0.05106487 -0.04365285 0.15188739 0.11621784 -0.11966021
0.05766829 -0.050639886 -0.02979153 -0.040690906 0.0022480288 -0.041752666 0.00084370846 0.13170788
0.024479551 -0.08809956 -0.022849215 -0.078840055 -0.034775797 0.09968222 0.046070393 -0.03351294
00000000: 385d a1bd 33a6 fdbd edde 9fbb 73b7 21bd
00000010: b245 60bc e5d9 d63d 4030 1a3b a4f0 033e
00000020: 8902 b338 9b9b 233d 1a10 ff3c 4731 1ebc
00000030: 7574 fe3b 3156 c7bc 2c43 6ebd 1da9 403d
00000040: e45d 243c 6b97 303d b2ab 423d 1479 c1bc
00000050: d037 0cbe 454b b43d e98a 413d 9e6f e1bd
00000060: af91 cc3d 3e7b 123c 1c0e debd 82eb 59bd
00000070: cd0e dbbc 6c79 8bbd 4d6f 133d d0b1 02bd
00000080: aba9 12bd a8c3 0f3e b79c b1bc a44b c33c
00000090: fbc3 96bd 2d73 963c b812 93bd cc7c 35bd
000000a0: f5f8 8dbd 22fd e3bb 94c5 803d 81b1 b03d
000000b0: 6a99 903d f1b6 90bc 49f9 86bd 3dfe e1bc
000000c0: de23 123e a48e 143d 072a 083e dd8c f83d
000000d0: 0328 9f3d 6ba0 a2bc a760 513d 819a 8fbd
000000e0: 4dd1 093d f86a 433d 0712 11bd 1cdf 79bd
000000f0: ab09 2cbd 1724 0a3d 2b0c fabc 140a 473d
00000100: 5a63 0fbd 9ce8 da3d f30e 15bd 62c4 d23d
00000110: 8537 133e ec54 f93d cc17 41bd a81e 93bd
00000120: ca8d 6ebd 1d90 47bd b3ec 713b ec80 51bc
00000130: eab5 933d 97d3 1b3e 2bec 963d fd1b 943c
00000140: 6a0c 79bd 6c47 e4b9 7e6b e13d d6a7 afbd
00000150: b516 bcbc 16df b6bd 5fd6 3bbc 103f c4bd
00000160: c7d9 0dbe 640e 873d 11c6 45bd ce47 473d
00000170: 948c d43d 0b91 4e3c 07c0 673d b655 82bc
00000180: ca6e f03d e795 213e d380 b8bc 8168 96bd
00000190: 984c dd3d 8506 ee3d 36ba 883d fa71 023d
000001a0: c2dc 203d a5e8 8c3d dec8 6a3d 271f acbb
000001b0: 8adf 123d 7e92 273e 1a48 0abc e917 dcbd
000001c0: 8b17 86bd 22b2 f43c 3602 b83d 61f4 273d
000001d0: b5da f83d 25c4 de3c 32a9 b03d 5481 9cbd
000001e0: aac5 a73d f50a 903d c472 893d a1d7 953d
000001f0: a59e c8bd 15c0 1d3e e6a0 f4bb fd65 00be
00000200: 96f5 983d 8337 663d ef3d a13d a562 b53d
00000210: 65a2 30bc 46d6 373d 149b 1b3e fb33 ae3d
00000220: 638d 763d 7467 8a3c 0377 fdbd 6043 8c3d
00000230: f90e 73bd 1ae7 9ebc a7cb 0ebe c671 17be
00000240: 1fd3 1bbd e3a0 16be 2dc2 893d f8b9 cf3a
00000250: 4de7 84bc fc01 153e 14bb 803d 70fc 733d
00000260: b8d4 62bd 4a76 f9bd cbb1 3cbd 8b5f e83d
00000270: eda1 e4bd 570a f0bd 033c de3c e67a 963d
00000280: aa98 233d d68f 093d 7b7c 1cbd f7dc 9ebd
00000290: fefb 55bc 7726 dd3d da34 ccbd 4c78 06be
000002a0: abb0 893b 9250 f33c ea55 fa3c 5f9d 803c
000002b0: 8168 f73d a31b 76bd 3131 923d 5ca6 88bd
000002c0: c331 e6bd a4fb c7bd 3380 a63d 53ba 56bd
000002d0: bc35 8dbc 8026 873c ff17 e9bd c6fc 7a3c
000002e0: 7dfa c0bd 126a 9f3d 6d23 f43d 9607 a83d
000002f0: 71e4 723d 3c5b 263d 03a5 8b3b b4f9 993c
00000300: bd05 123d 6d57 49bd adb0 2a3d f945 4abd
00000310: 6e9c c5bd 6399 093c d6ef 23bd 32a9 25bd
00000320: d5a0 873d e96d 08bc 4970 1c3e b3d8 2bbd
00000330: 4f3c c0bd 0cea 9f3d 8806 2c3d 8c10 5e3d
00000340: d243 753c 539c 82bc fd59 dbbd 5d6a ca3d
00000350: d3b4 37bd d9b7 033e 206d 0ebd 977a cb3d
00000360: e458 0e3c 896f d9bb 0835 10bd bbb4 0e3e
00000370: 5a91 db3d 044f c2bd 5ee1 09bd 87b1 d6ba
00000380: 765d 863d 1e7d 75bd 45fc 7fbd ef87 2e3d
00000390: 3231 863c 380a 47bd 5868 a33d 196b 0f3e
000003a0: 86b0 17bd 1693 253e f7cf 8d3d 6629 513d
000003b0: 55cd 32bd 5e88 1b3e 9e03 ee3d 6a10 f5bd
000003c0: 9635 6c3d c56b 4fbd 5e0d f4bc 82ab 26bd
000003d0: aa53 133b d804 2bbd 512c 5d3a 6ede 063e
000003e0: 5789 c83c 8b6d b4bd 472e bbbc e576 a1bd
000003f0: 1171 0ebd 3126 cc3d 4fb4 3c3d dd44 09bd

lstm.weight_ih_l1 f4 [256, 64]
0.09476342 0.032656882 0.13785177 -0.047111034 -0.13543117 -0.07529051 0.02326673 0.14406952
0.047879428 -0.07015547 0.042192955 0.15100634 -0.08166137 -0.05270213 0.09282527 0.0735664
-0.0019852195 0.06383492 0.04247866 -0.01967948 -0.033199586 -0.009848217 0.0376897 0.1051243
0.08490289 -0.086710565 0.13216981 -0.025148278 -0.08539961 0.060721286 0.04486757 0.049750444
-0.02387039 -0.082935624 0.12394906 -0.004455134 0.081079856 0.14370644 0.062457033 0.059989795
0.0354643 0.0820653 0.070573084 0.11250599 0.073202565 0.08312938 0.022648294 -0.028685216
-0.050172046 0.046849385 -0.0009109811 0.072758295 0.038510043 -0.024532355 -0.08575095 -0.04240667
-0.06307283 -0.053346228 -0.05685091 -0.08969722 0.087260276 -0.06253313 0.07116485 0.14211367
0.092882 0.09895961 0.049992178 -0.1362235 -0.091554515 0.014252754 0.03833765 0.040110145
-0.036426205 -0.046290472 -0.051065203 0.09151954 0.061508708 0.0062010735 0.041049633 -0.11752948
-0.10705693 0.007231451 0.13395832 -0.08867998 -0.06643337 0.054124814 0.006415382 -0.06110743
-0.11217825 -0.06427041 -0.0689842 0.023282124 -0.044618197 -0.046553437 -0.07113676 0.109393224
0.07663343 -0.013960075 0.007285581 0.08112913 -0.05986345 0.029749673 -0.074677624 -0.09278936
0.00059054245 -0.008212912 -0.14530577 0.087411985 -0.09447897 0.046271775 0.051461335 0.01727593
0.10229515 0.050378516 0.08887525 0.057665154 -0.021536076 0.0009024879 -0.08390066 -0.11147828
-0.026390057 -0.03606182 0.033395085 0.00056813314 -0.09333157 -0.019150503 -0.11218582 -0.06881413
-0.03449529 0.07161297 -0.05512592 -0.104140274 -0.009378601 0.053861234 0.043543894 0.12621139
0.021054382 0.041202936 -0.1261439 0.041978616 0.06166247 -0.0081375325 -0.05117608 -0.011870325
-0.093561985 -0.0523498 -0.09173015 -0.04938915 0.030262474 -0.01873769 -0.053583708 -0.025549151
-0.034243774 0.11498791 0.026730482 0.10166361 -0.07104165 0.014888229 0.037277095 0.049639937
-0.09522801 0.04518779 -0.005860802 -0.12661415 -0.12638779 -0.0072883675 -0.09861891 -0.14716056
-0.008933433 -0.03580271 -0.10450019 0.11719078 0.09381315 0.09075162 0.122914284 -0.125784
0.078421645 -0.011043588 0.007728857 -0.088973805 0.041065954 0.053121198 -0.030331295 -0.021310717
-0.043373577 0.034077823 -0.016740588 0.07509841 -0.120559365 -0.027504371 0.13341399 -0.049531966
-0.05667328 0.034825403 -0.08410629 -0.017133193 -0.093112856 -0.077590294 -0.108551726 0.022699215
0.015492884 -0.057326403 -0.15240103 0.057608694 0.07910055 -0.026700776 0.015642155 0.1054258
0.08986411 0.055362426 0.03722222 0.06071043 -0.08426542 -0.11604253 -0.09484975 0.12633169
0.0962712 0.1440766 -0.012959878 -0.12579466 -0.11149571 0.05595792 0.063719876 0.15853792
0.05234112 -0.06481474 -0.15835357 -0.068789974 0.083844125 0.052466042 -0.094022855 -0.02268449
-0.09152376 0.06547635 -0.12500425 -0.018373175 0.057232425 -0.11177367 0.0035553894 -0.13281938
-0.03040094 0.00044223794 -0.08684852 0.07977459 -0.06570878 0.05057886 0.056613088 -0.09042787
0.06463246 0.0786206 -0.022489138 0.055293694 0.08538448 0.051273 0.015036802 0.10526419
00000000: 5313 c23d 39c3 053d 0429 0d3e 80f7 40bd
00000010: 78ae 0abe e931 9abd df99 be3c f686 133e
00000020: 381d 443d acad 8fbd 85d2 2c3d 68a1 1a3e
00000030: 143e a7bd 30de 57bd 2d1b be3d fba9 963d
00000040: 751a 02bb e2bb 823d 1afe 2d3d dc36 a1bc
00000050: 4afc 07bd 6a5a 21bc 8460 1a3d 694b d73d
00000060: 91e1 ad3d 4f95 b1bd 8657 073e c303 cebc
00000070: fee5 aebd e2b6 783d 0fc7 373d 1fc7 4b3d
00000080: d68b c3bc 27da a9bd 01d9 fd3d 5ffc 91bb
00000090: 320d a63d c827 133e f2d2 7f3d dcb7 753d
000000a0: 0443 113d da11 a83d 9f88 903d 8a69 e63d
000000b0: 3aeb 953d bd3f aa3d ea88 b93c 42fd eabc
000000c0: 3481 4dbd 24e5 3f3d e8ce 6eba 4d02 953d
000000d0: b5bc 1d3d 14f8 c8bc 329e afbd 9eb2 2dbd
000000e0: 542c 81bd 9381 5abd 80dc 68bd 2db3 b7bd
000000f0: 84b5 b23d 5f11 80bd e0be 913d 3f86 113e
00000100: eb38 be3d 56ab ca3d 99c4 4c3d 2c7e 0bbe
00000110: ef80 bbbd 6284 693c f107 1d3d 894a 243d
00000120: a533 15bd 149b 3dbd bf29 51bd 996e bb3d
00000130: 8ef0 7b3d 6032 cb3b a923 283d 4cb3 f0bd
00000140: aa40 dbbd cff5 ec3b 5f2c 093e d99d b5bd
00000150: 380e 88bd fbb1 5d3d 2038 d23b c94b 7abd
00000160: b6bd e5bd 34a0 83bd 9747 8dbd 27ba be3c
00000170: 92c1 36bd d1ae 3ebd 26b0 91bd 8e09 e03d
00000180: fdf1 9c3d ccb8 64bc e2bb ee3b 0827 a63d
00000190: 6033 75bd 96b5 f33c 95f0 98bd 5908 bebd
000001a0: a2ce 1a3a 738f 06bc 09cb 14be 0e05 b33d
000001b0: 317e c1bd 7987 3d3d 1fc9 523d 4086 8d3c
000001c0: 1f80 d13d b459 4e3d 3a04 b63d 4c32 6c3d
000001d0: 6d6c b0bc f094 6c3a 1cd4 abbd b94e e4bd
000001e0: f62f d8bc 8fb5 13bd 49c9 083d c5ee 143a
000001f0: 9f24 bfbd 84e1 9cbc aec1 e5bd 6cee 8cbd
00000200: ef4a 0dbd d2a9 923d b7cb 61bd 7f47 d5bd
00000210: b4a8 19bc 999d 5c3d 155b 323d 8f3d 013e
00000220: 3d7a ac3c 69c4 283d de2b 01be c5f1 2b3d
00000230: c991 7c3d 4953 05bc 029e 51bd c07b 42bc
00000240: 6d9d bfbd be6c 56bd 04dd bbbd 474c 4abd
00000250: 02e9 f73c c97f 99bc 977a 5bbd 744c d1bc
00000260: 3343 0cbd c87e eb3d e2f9 da3c 0335 d03d
00000270: 497e 91bd c2ed 733c deaf 183d 3f53 4b3d
00000280: e706 c3bd d516 393d f80b c0bb 24a7 01be
00000290: cd6b 01be 42d3 eebb b6f8 c9bd 42b1 16be
000002a0: 895d 12bc dda5 12bd 3204 d6bd b801 f03d
000002b0: 1c21 c03d fcdb b93d 7cba fb3d 85cd 00be
000002c0: 879b a03d 2af0 34bc 5a42 fd3b e637 b6bd
000002d0: c634 283d 9d95 593d 5679 f8bc d093 aebc
000002e0: 7ea8 31bd 3095 0b3d 8f23 89bc 32cd 993d
000002f0: d4e7 f6bd d950 e1bc ad9d 083e 08e2 4abd
00000300: 3e22 68bd 15a5 0e3d eb3f acbd e95a 8cbc
00000310: f4b1 bebd a9e7 9ebd 5e50 debd b4f3 b93c
00000320: ded5 7d3c 17cf 6abd 040f 1cbe 18f7 6b3d
00000330: 78ff a13d 96bb dabc fa23 803c 7be9 d73d
00000340: ad0a b83d b6c3 623d 5476 183d 80ab 783d
00000350: 5993 acbd b5a7 edbd 9640 c2bd 185d 013e
00000360: d629 c53d d188 133e ab55 54bc 51d0 00be
00000370: dd57 e4bd 2234 653d 917f 823d c457 223e
00000380: a463 563d 97bd 84bd 7027 22be c2e1 8cbd
00000390: 78b6 ab3d a2e6 563d 0e8f c0bd d3d4 b9bc
000003a0: cf70 bbbd 7718 863d 1d01 00be 5783 96bc
000003b0: 8c6c 6a3d 98e9 e4bd 8901 693b ce01 08be
000003c0: 640b f9bc 2cdc e739 a3dd b1bd dc60 a33d
000003d0: 5392 86bd c72b 4f3d 20e3 673d 3f32 b9bd
000003e0: 065e 843d d603 a13d 243b b8bc a47b 623d
000003f0: 0fde ae3d a303 523d eb5c 763c c094 d73d

lstm.weight_hh_l1 f4 [256, 64]
-0.091640994 0.032806363 -0.11457654 0.0052850703 0.008213512 0.006381959 -0.088080995 0.05602769
5.5433033e-05 0.120298274 -0.027814895 -0.1445539 -0.088714 -0.11031739 -0.030304285 0.053273972
0.04921657 -0.02978176 -0.015838766 0.089443184 0.032373626 -0.09797516 0.009735202 0.15014578
0.066176586 -0.027812991 0.1565863 0.0510327 0.027981361 -0.07116175 0.118383095 0.07188088
-0.11119063 0.096702196 -0.09240832 0.020332491 0.08241332 -0.06945157 -0.08810308 0.092453666
0.021340778 0.0802067 0.018404854 0.14677271 -0.049926065 -0.060207974 0.053185638 0.059088085
-0.0666635 0.095750846 0.03424086 -0.0017256374 0.11276079 -0.071023665 0.10668172 -0.010953541
-0.1269207 0.009956816 -0.10107747 -0.12502404 -0.07285049 0.06950502 0.069352634 -0.055003628
-0.040688206 -0.05266874 0.1064444 0.09425009 0.11955532 -0.104628995 -0.032793157 -0.019120254
0.09348186 -0.040899035 -0.12086744 -0.016560799 -0.067713864 0.050685417 0.06012971 -0.011508494
0.106735766 0.09170712 0.07477823 -0.014611115 -0.07134229 0.074479274 -0.0038222633 0.123688936
-0.09754505 0.0040400918 0.10151668 0.06466882 0.004866228 -0.11051287 0.13068469 0.0521767
0.04783362 -0.06919398 0.11882096 0.013017937 0.05462474 0.098760694 0.10427843 0.04886037
-0.040068805 -0.003470411 -0.034246247 -0.055189226 -0.08762281 0.061037447 0.027507233 -0.0530793
-0.022962565 0.06826275 0.072709784 -0.05226316 0.021832466 -0.0384825 -0.0050311405 -0.06632602
-0.018977836 0.030251898 -0.120198205 0.08082977 -0.0072644274 0.09643556 0.014107496 0.068935566
0.002245782 0.023247335 -0.15517978 0.11735081 0.054281563 0.0065485365 0.13272664 -0.0475052
0.13070117 -0.016997268 0.031675037 -0.12742327 0.11233561 0.009581608 -0.13793941 -0.0806797
-0.04795041 0.13482687 -0.077833235 0.005315201 0.032541767 -0.11818449 -0.0540225 -0.04243623
-0.11753509 -0.081604004 -0.054432523 0.0007342085 -0.11822651 -0.0716996 -0.09872819 -0.11756
-0.067756645 -0.044365175 0.027058518 0.08895531 -0.015325378 0.029401103 -0.10048478 0.069160156
-0.048604805 -0.037370414 0.089687295 0.08705144 0.012034145 -0.015461761 0.00914234 -0.09461749
0.12722547 -0.09106058 0.05344126 0.111080825 0.058687717 0.09943816 -0.03450907 -0.007922309
0.019346576 -0.06361023 -0.14185986 -0.0043289904 0.08337411 0.10317929 0.05690868 0.08364781
0.08111238 -0.08008371 -0.15245521 0.14513001 -0.04794012 0.034407325 -0.025457548 0.014704452
0.041802943 0.097854435 -0.029125324 0.025058595 -0.036243152 0.063030876 -0.021932678 0.11919057
-0.11410211 -0.072442584 0.10241614 -0.09396778 -0.08751536 0.03780892 -0.021182487 -0.09331632
-0.037191376 0.07353197 0.039759945 0.0012068632 -0.15217884 -0.04765808 0.09718328 -0.13013504
0.14354374 0.009462479 0.12943976 -0.009209657 -0.113020234 0.07006403 -0.06191596 0.053799227
-0.044157915 -0.13941637 0.013133911 -0.045431804 0.08529741 -0.0190268 -0.06108515 -0.13450164
-0.09680036 0.0887362 0.10210263 0.07083762 -0.09638211 -0.0006272654 -0.057811204 0.046631414
0.09046081 0.08971784 0.01797807 -0.030251574 -0.056988314 -0.035734233 -0.06934855 0.076059625
00000000: 46ae bbbd f75f 063d 1ba7 eabd 622e ad3b
00000010: f791 063c c11f d13b cf63 b4bd 4b7d 653d
00000020: c480 6838 f15e f63d 10dc e3bc f005 14be
00000030: b0af b5bd 15ee e1bd b140 f8bc cf35 5a3d
00000040: 5097 493d e1f8 f3bc 4dc0 81bc fd2d b73d
00000050: 359a 043d 33a7 c8bd 6680 1f3c d1bf 193e
00000060: 9787 873d 12d8 e3bc 2958 203e aa07 513d
00000070: 2b39 e53c 40bd 91bd d672 f23d 4836 933d
00000080: eab7 e3bd cd0b c63d 9340 bdbd 5390 a63c
00000090: 51c8 a83d a03c 8ebd 636f b4bd 5958 bd3d
000000a0: dbd2 ae3c 6943 a43d c7c5 963c 964b 163e
000000b0: 467f 4cbd a39c 76bd 2fd9 593d 5906 723d
000000c0: e086 88bd 0519 c43d 2540 0c3d c82e e2ba
000000d0: 21ef e63d db74 91bd f27b da3d 7b76 33bc
000000e0: 80f7 01be ea21 233c b401 cfbd 4d06 00be
000000f0: a332 95bd a658 8e3d c108 8e3d 7c4b 61bd
00000100: ada8 26bd 2dbb 57bd 86ff d93d 3106 c13d
00000110: 6bd9 f43d ba47 d6bd 1e52 06bd 14a2 9cbc
00000120: 6b73 bf3d bf85 27bd 5989 f7bd 83aa 87bc
00000130: 91ad 8abd 839b 4f3d 924a 763d 1f8e 3cbc
00000140: 4898 da3d f1d0 bb3d 5425 993d 7563 6fbc
00000150: e81b 92bd 9788 983d f07e 7abb a050 fd3d
00000160: b3c5 c7bd bf62 843b fae7 cf3d 1671 843d
00000170: e174 9f3b 9254 e2bd 35d2 053e 3cb7 553d
00000180: 30ed 433d 93b5 8dbd 6758 f33d 2f49 553c
00000190: 31be 5f3d 0c43 ca3d ee8f d53d d021 483d
000001a0: 301f 24bd d66f 63bb cb45 0cbd 190e 62bd
000001b0: 9673 b3bd 6702 7a3d d956 e13c ae69 59bd
000001c0: fd1b bcbc 57cd 8b3d dee8 943d e511 56bd
000001d0: 00da b23c d39f 1dbd 44dc a4bb f0d5 87bd
000001e0: 6877 9bbc d4d2 f73c 7a2a f6bd 148a a53d
000001f0: 6f0a eebb 0280 c53d 2023 673c 172e 8d3d
00000200: f82d 133b 3271 be3c 73e7 1ebe 9f55 f03d
00000210: 5856 5e3d 1b95 d63b 7ee9 073e d094 42bd
00000220: 87d6 053e db3d 8bbc afbd 013d 3f7b 02be
00000230: 3610 e63d 2dfc 1c3c fd3f 0dbe 663b a5bd
00000240: a667 44bd 0e10 0a3e 0867 9fbd 232b ae3b
00000250: 844a 053d b60a f2bd b246 5dbd 9dd1 2dbd
00000260: 3db6 f0bd 0020 a7bd a3f4 5ebd e677 403a
00000270: be20 f2bd 3dd7 92bd 0132 cabd 4cc3 f0bd
00000280: ffc3 8abd 42b8 35bd d3a9 dd3c 342e b63d
00000290: 4b17 7bbc 95da f03c f7ca cdbd d7a3 8d3d
000002a0: d515 47bd b811 19bd f9ad b73d 0648 b23d
000002b0: dd2a 453c 5353 7dbc c1c9 153c d1c6 c1bd
000002c0: 6547 023e f87d babd 39e5 5a3d 587e e33d
000002d0: 8862 703d 3ca6 cb3d 6259 0dbd 93cc 01bc
000002e0: b67c 9e3c 1546 82bd b643 11be 34da 8dbb
000002f0: 0cc0 aa3d aa4f d33d 1319 693d 8b4f ab3d
00000300: 3f1e a63d ee02 a4bd 381d 1cbe f69c 143e
00000310: dc5c 44bd b2ee 0c3d 598c d0bc f1ea 703c
00000320: 9039 2b3d e867 c83d 3b98 eebc af47 cd3c
00000330: b373 14bd 5516 813d 29ac b3bc 301a f43d
00000340: 5eae e9bd c75c 94bd 8ebf d13d 2e72 c0bd
00000350: 413b b3bd 87dd 1a3d e586 adbc a01c bfbd
00000360: fc55 18bd ee97 963d 53db 223d 9c2f 9e3a
00000370: c5d4 1bbe 1e35 43bd 0708 c73d 1f42 05be
00000380: 21fd 123e 8308 1b3c db8b 043e 1ae4 16bc
00000390: 2777 e7bd bb7d 8f3d 979b 7dbd 945c 5c3d
000003a0: eede 34bd 2ac3 0ebe 9e2f 573c b316 3abd
000003b0: 69b0 ae3d 17de 9bbc 6c34 7abd ccba 09be
000003c0: 443f c6bd 53bb b53d 2f1b d13d 5013 913d
000003d0: fc63 c5bd 126f 24ba 71cb 6cbd 9500 3f3d
000003e0: 8443 b93d fdbd b73d bf46 933c 26d2 f7bc
000003f0: 946c 69bd 0f5e 12bd 9d06 8ebd 26c5 9b3d

lstm.bias_ih_l1 f4 [256]
0.037886947 0.104440995 0.11212109 -0.07119432 0.023331648 0.068395175 0.09934575 -0.059015825
-0.040815942 -0.082262166 0.042970467 -0.076307826 0.07441878 -0.074483015 0.029686337 0.022268893
-0.017830431 -0.09891481 0.086655945 0.12315858 0.024363108 0.083473414 -0.07721166 -0.029954687
-0.0074225264 0.14229076 0.045428757 -0.0982758 0.025269141 0.044865724 0.040450085 0.102024436
0.08840529 -0.0069670607 0.073989846 0.01837783 -0.055970214 0.092763536 0.042502914 0.11562168
-0.047528308 0.0037381267 -0.09926117 -0.0100108 0.10794337 -0.00019579688 0.07347145 0.071325146
-0.10528008 0.11607196 -0.061455887 0.13329203 0.0063994997 -0.09272851 0.040179003 0.15268677
0.07788736 -0.013789838 0.049720507 0.0838554 -0.08794305 -0.073363334 -0.09934654 0.105301216
-0.0701783 -0.031402774 0.09336447 -0.033276394 -0.0020749953 0.11123961 0.05365514 0.021634823
-0.083814174 -0.07122218 0.002963185 0.13900524 0.016107535 0.07490482 0.03197448 0.0033321353
0.096556686 0.013078295 0.0731073 0.06206277 0.098853216 0.110847294 -0.0057754423 -0.030413458
0.054198608 0.10490914 0.13095812 -0.04997005 0.015873322 0.10255515 0.075418666 0.14383061
0.03390515 -0.07493352 0.034562655 -0.033409897 0.037733868 -0.07652228 -0.032664046 0.027363025
0.0055324794 -0.05802205 0.056291364 -0.056578014 0.08468646 -0.0058533056 0.11443439 -0.0527364
0.07146798 0.101896666 0.11717853 -0.08919547 -0.002896532 -0.0874506 -0.08774608 -0.06070304
0.12872326 -0.040417653 -0.03393164 0.01894863 0.06591886 0.029197296 -0.07985122 0.053741198
0.092621304 0.12318584 0.030834408 0.10197948 0.04570972 0.10051832 0.14550118 -0.12190486
0.118685886 -0.07137604 -0.09845513 -0.03453308 0.06932835 -0.093274355 0.05466225 -0.06072104
-0.039993778 0.03690308 0.054713953 0.004636288 -0.130528 0.059796523 -0.05366663 0.107303806
0.0355194 -0.04945041 0.0257846 -0.09309136 0.015525697 -0.02545887 -0.03055361 -0.14566778
0.07703074 0.059687234 0.09876688 -0.061469644 -0.085565284 -0.06682463 -0.022207068 0.14171506
-0.027283125 -0.08449547 0.004680018 0.105513886 0.11079679 -0.032231405 0.12106189 -0.080877766
-0.09521952 -0.104044855 -0.09776033 0.061245993 0.060869746 -0.004273896 -0.017390508 -0.0057392507
0.08634598 -0.039762054 -0.03372579 -0.07006415 0.034093592 -0.008542509 -0.028368518 -0.0051437276
-0.113003545 -0.056869555 -0.0059959665 -0.0121944 -0.13284303 0.08043534 -0.07478467 -0.08897465
0.074250795 -0.069140464 0.12003577 0.028879192 -0.13080809 0.15175144 -0.096473195 -0.113844946
-0.12522848 0.0555763 -0.08621759 0.0026412003 0.11466447 -0.03464062 0.13772267 -0.11855517
0.08308605 -0.016017467 -0.08064201 0.07031466 -0.05659468 -0.08381374 0.09744935 -0.072446264
-0.05574071 -0.053518116 0.07570867 0.06588834 -0.08160769 -0.122792274 -0.11139598 0.062177554
-0.030706568 -0.0030518658 0.07717102 -0.06686612 0.00851053 -0.04514815 0.034575935 0.124110706
-0.09479095 0.12005488 0.12581989 0.11987352 0.043678116 0.1272956 0.13679521 -0.06737654
-0.009168867 -0.009672754 0.088980146 -0.016655983 0.063758045 0.12716787 0.12345192 0.035603713
00000000: 582f 1b3d 29e5 d53d be9f e53d 54ce 91bd
00000010: 0322 bf3c c512 8c3d c975 cb3d 94ba 71bd
00000020: 9e2e 27bd 1179 a8bd cd01 303d 4747 9cbd
00000030: e068 983d 8d8a 98bd c330 f33c 416d b63c
00000040: 2011 92bc d993 cabd ac78 b13d 913a fc3d
00000050: 2495 c73c 1cf4 aa3d 2621 9ebd 8863 f5bc
00000060: aa38 f3bb abb4 113e 8113 3a3d d344 c9bd
00000070: 3b01 cf3c 1fc5 373d fdae 253d 30f2 d03d
00000080: d50d b53d f14b e4bb fd87 973d 1a8d 963c
00000090: 0641 65bd cffa bd3d 8917 2e3d 0fcb ec3d
000000a0: 0bad 42bd 5cfb 743b 7149 cbbd 5704 24bc
000000b0: 6a11 dd3d d34e 4db9 3378 963d eb12 923d
000000c0: 159d d7bd 23b7 ed3d 2bb9 7bbd b57d 083e
000000d0: e5b2 d13b 72e8 bdbd bd92 243d ec59 1c3e
000000e0: 6883 9f3d c6ee 61bc bba7 4b3d 61bc ab3d
000000f0: 7c1b b4bd 843f 96bd 3376 cbbd 2aa8 d73d
00000100: a4b9 8fbd 32a0 00bd df35 bf3d d44c 08bd
00000110: a5fc 07bb 98d1 e33d 7ec5 5b3d 833b b13c
00000120: c4a6 abbd efdc 91bd ff31 423b 6457 0e3e
00000130: f3f3 833c b367 993d acf7 023d f45f 5a3b
00000140: 83bf c53d 5846 563c 48b9 953d 8835 7e3d
00000150: 8e73 ca3d e803 e33d ec3f bdbb a525 f9bc
00000160: 5cff 5d3d 9ada d63d e319 063e 65ad 4cbd
00000170: c508 823c 6f08 d23d 1a75 9a3d 5548 133e
00000180: 20e0 0a3d bf76 99bd 9291 0d3d d1d8 08bd
00000190: d48e 1a3d b7b7 9cbd bcca 05bd 6c28 e03c
000001a0: cd49 b53b 87a8 6dbd c691 663d 59be 67bd
000001b0: 1870 ad3d 16cd bfbb 945c ea3d 2002 58bd
000001c0: ce5d 923d 33af d03d 4cfb ef3d 1dac b6bd
000001d0: bed3 3dbb 4d19 b3bd 37b4 b3bd c0a3 78bd
000001e0: 08d0 033e fb8c 25bd e7fb 0abd 283a 9b3c
000001f0: 7800 873d 2b2f ef3c 0989 a3bd bb1f 5c3d
00000200: 3db0 bd3d dc48 fc3d 7198 fc3c 9eda d03d
00000210: 1e3a 3b3d 8ddc cd3d 43fe 143e 41a9 f9bd
00000220: 9611 f33d 9a2d 92bd d8a2 c9bd 8f72 0dbd
00000230: 06fc 8d3d a006 bfbd 86e5 5f3d a0b6 78bd
00000240: 84d0 23bd af27 173d bd1b 603d 01ec 973b
00000250: 22a9 05be 33ed 743d 8ad1 5bbd 19c2 db3d
00000260: ca7c 113d 838c 4abd 3a3a d33c afa6 bebd
00000270: 7e5f 7e3c 1f8f d0bc 904b fabc ef29 15be
00000280: 4bc2 9d3d 9a7a 743d 4a46 ca3d 98c7 7bbd
00000290: da3c afbd 5adb 88bd 99eb b5bc c11d 113e
000002a0: dc80 dfbc f60b adbd d65a 993b aa17 d83d
000002b0: 6de9 e23d 1405 04bd 4cef f73d 3ea3 a5bd
000002c0: 7402 c3bd 7815 d5bd 9136 c8bd 14dd 7a3d
000002d0: 8e52 793d 0a0c 8cbb 8a76 8ebc 5310 bcbb
000002e0: 29d6 b03d 89dd 22bd 0e24 0abd cb7d 8fbd
000002f0: b9a5 0b3d e1f5 0bbc 1865 e8bc b78c a8bb
00000300: 676e e7bd 0df0 68bd d079 c4bb 05cb 47bc
00000310: 0108 08be 49bb a43d b428 99bd 5738 b6bd
00000320: cd10 983d 8499 8dbd 50d5 f53d 0e94 ec3c
00000330: 8ef2 05be bb64 1b3e bd93 c5bd 8a27 e9bd
00000340: e53b 00be f9a3 633d d992 b0bd fd17 2d3b
00000350: 35d5 ea3d 53e3 0dbd 2c07 0d3e 0ecd f2bd
00000360: 0529 aa3d 1037 83bc a327 a5bd 2201 903d
00000370: d3cf 67bd 8aa6 abbd 8693 c73d b55e 94bd
00000380: 5f50 64bd d035 5bbd 260d 9b3d 77f0 863d
00000390: ef21 a7bd 847a fbbd 9323 e4bd e4ad 7e3d
000003a0: 578c fbbc d001 48bb d70b 9e3d 1bf1 88bd
000003b0: c06f 0b3c 44ed 38bd 7f9f 0d3d c12d fe3d
000003c0: c221 c2bd 55df f53d eed6 003e 4080 f53d
000003d0: d3e7 323d c759 023e 0b14 0c3e b6fc 89bd
000003e0: 0439 16bc 797a 1ebc 393b b63d 2172 88bc
000003f0: 9493 823d 4b38 023e 5cd4 fc3d 33d5 113d
