lstm_fwd_model.pt (torch, 242997 bytes, 9 tensors)

lstm.weight_ih_l0 f4 [256, 36]
000000 5a 66 f8 3d 61 86 d3 3d aa bd a0 3a 64 53 16 3e
       0.12128897 0.10328365 0.0012263556 0.14680248
000010 fa 24 ab bc f7 c5 08 3c 1a 39 9d bd 37 58 5a 3d
       -0.020891655 0.00834798 -0.07676907 0.053306784
000020 d8 a1 11 3e ec 56 7d bd 53 eb 0c 3e cd 06 67 3d
       0.14221895 -0.061850473 0.13761644 0.05640297
000030 d1 37 fb 3d 90 7c 79 3c cd 10 56 3d 4f 58 32 bd
       0.122665055 0.015227452 0.052262116 -0.04354125
000040 1f e3 c2 3d fd cb d5 3c 53 46 9e bd 98 d6 ef 3c
       0.09515976 0.026098246 -0.07728257 0.029277131
000050 cb 04 8f bd 43 66 b8 bc f8 15 ae bd 5b 49 5f 3d
       -0.06983336 -0.0225097 -0.08500284 0.054513317
000060 1d 7f dd bd 40 1e 2b bd 28 e8 61 bd 3b 02 cc bd
       -0.108152606 -0.041776896 -0.055153042 -0.09961363
000070 9d d7 3f bc 5d 63 14 be 86 62 b7 3d d2 96 fd bd
       -0.011709121 -0.14491029 0.08954339 -0.12382282
000080 0b 01 de 3d 66 e5 26 3d 60 ce 83 bc 54 ee e3 3d
       0.10840043 0.040746115 -0.016089618 0.11129442
000090 26 a9 07 bb 19 a7 98 3d 73 fb d8 3c b4 6b 84 bc
       -0.0020700186 0.07453746 0.026487088 -0.016164638
0000a0 7c 6e 18 3d 16 de 07 bd 9f 71 ed 3c 21 a8 ce 3d
       0.03721474 -0.033170782 0.028984843 0.10090662
0000b0 33 bf 95 3d 5f 6d 28 bd 3d 13 b0 3d 51 13 94 3c
       0.07311859 -0.04111993 0.085974194 0.018075617
0000c0 d4 20 9b 3d 4e 43 ae bd 15 07 00 be 72 a6 64 bd
       0.07574621 -0.08508931 -0.12502702 -0.055822797
0000d0 0a a6 02 be 0d 40 12 3e 08 92 5b 3d 60 35 b4 3d
       -0.12758651 0.14282246 0.053606063 0.08799243
0000e0 1b a2 18 3c 64 3f 51 3c b7 ef c4 3d 39 4a 98 bd
       0.009315993 0.012771461 0.096160345 -0.07436032
0000f0 7d 7c 26 3c ed 65 e7 bc 09 77 3b 3d 01 46 e9 bb
       0.010161516 -0.028246844 0.045767818 -0.007118941
000100 94 d4 ca 3c a6 f2 35 bd 15 bf b3 3d 0d 5e 47 bd
       0.024759568 -0.04442086 0.087766804 -0.04867368
000110 8a 5b a1 bd 7f 68 1c bd e3 33 f6 3d 3c 86 a8 3d
       -0.07878788 -0.038185593 0.12021615 0.08228728
000120 db 44 08 3e 24 0e e0 bd 53 92 c6 bd e8 31 af bd
       0.13307516 -0.10940197 -0.09695878 -0.08554441
000130 ea 6b 75 bd 3c b9 1e 3d 89 f5 f7 3c 4d 02 b4 3d
       -0.059917368 0.038750872 0.030268447 0.08789501
000140 37 67 23 bd 78 a2 82 bd b9 7e 96 3d 66 ad 0a bd
       -0.039893355 -0.06378645 0.07348389 -0.033856772
000150 d4 c1 c8 3d b7 f8 e0 bc 1e 72 94 3d 6b 8b e2 bd
       0.09802595 -0.027462346 0.072483286 -0.11061748
000160 7a a8 aa bd 03 9e f0 3c 22 65 13 3d 0f 67 4f bd
       -0.083329156 0.02937222 0.03598512 -0.050635394
000170 e0 1f 80 3d 03 b8 79 3d 62 0a da bd 3f 1b aa bd
       0.0625608 0.060966503 -0.106465116 -0.08305978
000180 b2 86 cc 3d 7d 02 09 bd f4 58 87 bd 9b 33 16 be
       0.099866286 -0.03344964 -0.06608763 -0.14668123
000190 b4 2a be bd 98 d8 5b 3c 5b 65 17 bd b3 f9 e4 bd
       -0.09285489 0.013418339 -0.036961894 -0.11180439
0001a0 aa cc 01 3d f7 04 d3 bd e2 dd b4 bd c5 0f 5b bd
       0.031689323 -0.10303681 -0.08831383 -0.053481836
0001b0 f5 7d d0 bd 01 79 a8 bd be ae e5 3d 83 13 8f 3c
       -0.101802744 -0.08226205 0.1121497 0.017465359
0001c0 ab b6 f6 3c 2a 44 ff bd ed 9a cd bd a1 46 50 bd
       0.0301164 -0.12464173 -0.100393154 -0.050848607
0001d0 bd b9 6d bb b2 f3 ee bd 7b 3a 81 bd 4d 1b db bd
       -0.0036274039 -0.11667575 -0.063099824 -0.106985666
0001e0 8c 68 2a bc 02 eb 39 bd aa 09 78 ba e7 c8 bd bd
       -0.0104009025 -0.045390137 -0.0009461889 -0.09266835
0001f0 d2 3a cf bd df 23 be bd 50 55 6e bd 99 14 05 be
       -0.10118641 -0.092841856 -0.05818683 -0.12996139
000200 0e 62 84 3d fb d6 85 bd c8 90 b8 3d cd 39 19 3b
       0.06464015 -0.06535145 0.0901199 0.00233804
000210 20 0e e2 bd 0c aa 21 3d aa 20 86 b8 43 6f 58 3b
       -0.110378504 0.03946881 -6.395702e-05 0.0033025302
000220 a2 e8 ac bd b7 37 c4 bd 0b 46 65 3d 8b 74 b6 3b
       -0.08442809 -0.09580939 0.055975 0.005568092
000230 0e 02 33 3b 3d 94 f1 bd 4a b8 c7 3d 4f 18 cf bd
       0.0027314457 -0.11795852 0.09751947 -0.10112058
000240 f9 5f 3c bd 9c 55 c0 38 66 f3 59 3d 8d 03 b4 3d
       -0.045989964 9.1712194e-05 0.05321064 0.0878974
000250 92 3e 02 3e 85 19 ff bd 28 df e0 3b 2a 67 ab bd
       0.12719181 -0.12456039 0.00686254 -0.08369286
000260 73 d9 95 bc b6 be d3 bd 87 b1 c3 3d d0 69 b2 bd
       -0.018292164 -0.103391096 0.09555345 -0.087115884
000270 23 ec 54 3d 3c 83 1b 3d 57 33 23 3d b5 c6 96 bd
       0.05198301 0.03796695 0.039843883 -0.07362119
000280 33 76 bb 3d f9 ae 5e 3c 7d ac 05 3d 69 1a 03 be
       0.09153404 0.013591521 0.0326352 -0.12803043
000290 57 e8 2a 3d 1f 09 21 bd 14 d6 94 bd 1e 78 f4 3d
       0.041725483 -0.03931534 -0.07267395 0.11936973
0002a0 4c 4a b6 3c c4 eb 59 bd 42 ac c3 bd 82 10 d4 bc
       0.022252224 -0.05320336 -0.0955434 -0.025886778
0002b0 53 2f 5c 3d fc fe 4e bd 4c c6 b4 bd d8 58 67 bd
       0.05375607 -0.05053614 -0.088268846 -0.056481212
0002c0 dd bc 9b bd 09 62 2e 3d da 22 d7 3d 58 c6 d7 bd
       -0.07604382 0.042573962 0.10504694 -0.10535878
0002d0 a4 10 3a 3d 5f 55 21 3d de 5c 0a 3a f2 4e 84 bd
       0.045426026 0.039388057 0.00052781205 -0.0646037
0002e0 91 fe 9e 3d cb 8f 97 3d d9 df b1 3c d0 e9 ba bc
       0.077633984 0.07400473 0.021713184 -0.022816569
0002f0 bd e5 f4 bc 97 ec c2 bb 71 87 4f bd 18 02 72 bc
       -0.029894704 -0.005948614 -0.050666276 -0.014771007
000300 e2 88 8d 3d 01 5c cf 3d 4f be 90 bc 82 76 15 b9
       0.06910874 0.1012497 -0.017668871 -0.00014253895
000310 4e 99 db 3c 42 bb 87 bd 64 ef 40 3d 91 af 8b 3c
       0.0268065 -0.066275135 0.0471033 0.01705149
000320 d6 e2 02 be e8 0f 8f bd 7b fa c4 3d ab 6a 93 3d
       -0.12781844 -0.06985456 0.09618088 0.0719808
000330 6b 16 0c 3d 0e 9a fd bd 61 94 87 bd f5 af b7 bd
       0.034201067 -0.12382899 -0.06620098 -0.08969108
000340 98 64 59 bd c6 5b b6 3b 04 96 6b 3d 7d 72 a5 3d
       -0.05307445 0.0055651395 0.057516113 0.080784775
000350 58 b5 ec bd cb 4c 3a bd 66 79 ed 3b 0e a8 22 3e
       -0.11558026 -0.04548339 0.007247138 0.1588442
000360 da 8a 6b 3d 4e 88 60 bc 53 b3 a8 3d e1 ae ba bc
       0.057505466 -0.013704373 0.082373284 -0.022788467
000370 d4 76 72 bd ee 94 d1 3d 29 80 31 bd 24 3b 1a bc
       -0.059195355 0.10233484 -0.043335114 -0.009413514
000380 59 32 b6 bd 95 66 f4 3d c1 c6 f1 3d bf 45 ae 3d
       -0.08896322 0.119336285 0.118054874 0.08509397
000390 da 5c 5d bd 94 5d ce bd 9e 30 9b bd 4b e5 ec 3d
       -0.05404363 -0.10076442 -0.07577632 0.11567172
0003a0 75 e2 8b 3d da 2e dc 3d 74 88 6a 3d 09 32 a0 3c
       0.068303026 0.10751124 0.057259038 0.019555109
0003b0 c3 c8 a0 3b 5e ba db bd 42 59 e0 bd e9 ff f1 bd
       0.004906745 -0.10728906 -0.109545246 -0.11816389
0003c0 87 a1 4a 3d 3e 10 b4 bd 64 2d 16 3c ff d1 04 bd
       0.04947045 -0.087921605 0.009166095 -0.03242683
0003d0 ed 83 04 3c 65 07 82 bd 11 9b 5a bd ee f6 a3 3d
       0.008088094 -0.06349067 -0.05337054 0.080060825
0003e0 09 c3 b0 bd a4 4d d9 3d a5 92 6c bd 5d 6a 9a bd
       -0.0863095 0.10610512 -0.05775704 -0.075398184
0003f0 87 7b 58 bd 44 61 ac bd f2 3a 40 bd a6 58 fc bd
       -0.05285218 -0.084169894 -0.046931215 -0.12321596

lstm.weight_hh_l0 f4 [256, 64]
000000 b8 40 81 3d e9 c6 b6 bd 27 3c cc bc 0d 90 f4 3c
       0.06311172 -0.08924658 -0.024931027 0.029853845
000010 f1 0a 8d 3d bb eb 1f 3d 40 83 da 3d ec c2 a8 bd
       0.068868525 0.03904317 0.10669565 -0.082403034
000020 9f 0a c2 bc be 6b db bc 41 45 03 3e 91 7e c6 3d
       -0.023686705 -0.026784774 0.12819387 0.096921094
000030 6c 5f 85 3c e6 ae f7 bd 71 a1 e3 bd 7e ed 32 bc
       0.016280852 -0.12093906 -0.11114777 -0.01092088
000040 e6 09 f2 bd 47 6a 6e bd 38 56 75 bd f1 db 4b 3d
       -0.11818294 -0.058206823 -0.059896678 0.0497703
000050 9a 34 51 bb d4 1d f8 bd f6 d1 cd 3d ff 96 d0 bd
       -0.0031922222 -0.12115064 0.100498125 -0.1018505
000060 4d d2 0c bd 63 26 d7 3d 81 9b 4a 3d df d4 c5 bd
       -0.034380246 0.105053686 0.049464706 -0.096597426
000070 12 93 d9 ba c7 7e d7 bb 40 88 16 3d e7 08 04 3e
       -0.0016599617 -0.0065763923 0.036751032 0.12894021
000080 66 a5 05 3e e8 4d 95 bc 1c 5d a8 3d 9a 23 12 be
       0.13051376 -0.018225625 0.08220884 -0.14271393
000090 ce 44 0a 3e 29 19 a2 3d 8b 2c 80 bd b3 78 91 bc
       0.1350281 0.07914955 -0.06258496 -0.01775775
0000a0 ac f5 88 bd 6a 71 4f bd f9 41 ae 3d d8 60 8c bd
       -0.06687483 -0.05064527 0.08508677 -0.06854409
0000b0 5e 36 92 3d 7c d8 6a bd 5f 1f a0 3d 78 db 8e bd
       0.07139276 -0.05733536 0.078184836 -0.06975454
0000c0 58 6d a1 3b b5 8b 82 bd 2f 63 e8 3c 7c 33 9f bd
       0.004926365 -0.06374303 0.028367607 -0.07773492
0000d0 a4 9c e8 bd 4f c5 14 be 4a 35 87 3d e7 fd 02 3c
       -0.11358002 -0.14528392 0.06601961 0.007995105
0000e0 8d 81 c5 bd 86 4d 25 3d 34 42 ed 3c 26 e1 82 bd
       -0.096438505 0.040357135 0.028962232 -0.063906
0000f0 78 46 99 bc c7 d5 78 3c 2d 32 66 3d 32 af c9 bd
       -0.01871036 0.015187687 0.056200195 -0.09847869
000100 89 74 13 be fd c8 df bd 15 65 15 be 31 da 0c 3d
       -0.14399923 -0.10927007 -0.14589341 0.03438777
000110 6e c4 cc 3c 4a f2 1f 3d 68 26 72 3d 5e 52 82 bb
       0.024996009 0.039049424 0.05911866 -0.003977104
000120 7d 9d b5 3b c7 1b 0d be 3a 7e e5 3d 0f 96 d2 3d
       0.0055424557 -0.13780127 0.112057164 0.10282528
000130 3b d9 2e 3c d0 5f b6 3c c6 2e 1f 3d 29 6c 0d 3e
       0.010671909 0.022262484 0.038862966 0.13810791
000140 b9 c6 ce bc f7 bc 23 bd 98 a8 84 bd 47 d8 65 3c
       -0.025241243 -0.039975133 -0.06477469 0.014028615
000150 63 5b 66 3d cf eb a7 bd 52 04 a7 3c d5 13 51 3d
       0.056239497 -0.08199274 0.020387802 0.051044304
000160 7d 44 90 3d 37 d6 b1 3d d6 dc 0e bd a9 15 64 3d
       0.07044313 0.08683436 -0.034878574 0.05568472
000170 1c 3f 00 be 32 57 e9 3d 0e 14 ba bd b2 88 fe bd
       -0.12524074 0.11393584 -0.090858564 -0.12428416
000180 35 18 d0 bd 1a 19 e5 bd 7b 19 0b bd 8b 23 b3 3d
       -0.10160867 -0.11186428 -0.033959847 0.08747014
000190 0c 4f 7c bd 10 d3 79 3d 9b 17 f9 bc f7 4f 02 3e
       -0.061598822 0.0609923 -0.030406764 0.12725817
0001a0 12 0f 65 3d 31 ab 4c 3d 5f da e0 3c 90 a5 85 bd
       0.055922575 0.04996795 0.027447877 -0.06525719
0001b0 b7 c2 18 3e cd c2 f2 bd 66 ef ee bd ea c1 e1 bd
       0.14918028 -0.118535616 -0.116667554 -0.11023314
0001c0 9b cc 59 bd b7 2c b9 3d 66 e8 ba 3c 87 8c a6 bd
       -0.053173643 0.09041732 0.022815894 -0.08132272
0001d0 a9 2f e0 3d 50 44 a5 3d 96 9e d7 3c e7 4f 1e be
       0.109465905 0.0806967 0.026320737 -0.15460168
0001e0 38 f9 c4 3d af 0f 32 3c 74 5b 55 bd 40 11 d8 bd
       0.09617847 0.010867997 -0.05208917 -0.10550165
0001f0 ad c7 90 3d 52 01 ad 3a ea 05 d9 bd cb fa 07 3e
       0.07069335 0.0013199246 -0.10596831 0.13279264
000200 8e 92 89 3c 01 6f 80 3c 7d d0 53 3d 09 fb 94 3d
       0.016793516 0.01567793 0.0517125 0.07274444
000210 a1 58 47 bd 3b d3 83 bc 68 f8 c1 3d 7d b1 bf bc
       -0.048668507 -0.016091933 0.09471208 -0.023400063
000220 8e 43 fb bd 7c 9c be bd e4 ab c0 bd 2e 8c 18 bc
       -0.122687444 -0.09307191 -0.094077855 -0.009310765
000230 f1 75 db 3d 1a e5 8b 3d b0 b7 21 3c 27 a1 79 3c
       0.10715855 0.06830807 0.009870455 0.015236176
000240 5e 58 a1 bd 12 86 c6 3d 96 50 66 3d c5 21 d4 bd
       -0.07878183 0.09693541 0.056229196 -0.103580035
000250 7b 31 c8 bd f8 7a 06 be ac 7c fd bb e2 5b c8 3d
       -0.09775063 -0.13132846 -0.0077358093 0.0978315
000260 21 1a 1d 3c 3f 3b 8c bd 90 7a 80 3c 06 2b 7b bd
       0.009588749 -0.06847238 0.015683442 -0.061320327
000270 3a 44 7a 3c a6 c5 de 3d 29 2a 4b 3d be 88 33 bd
       0.015275056 0.10877542 0.049600754 -0.04383158
000280 25 a5 16 bd 5d 64 ed 3c ec 86 c4 3d 56 86 55 bd
       -0.036778588 0.028978521 0.09596047 -0.052130066
000290 98 37 a1 3c 50 39 09 bc ea 60 e0 bb 6c 31 a5 bd
       0.01967983 -0.008375481 -0.0068474906 -0.08066067
0002a0 37 19 06 be 31 d0 db 3d ac 8f 18 bd 13 f0 4f 3d
       -0.13095556 0.10733069 -0.03724639 0.050766062
0002b0 a0 81 cd 3d d0 d6 37 bd 50 00 ac bd 9c 4d fa bb
       0.1003449 -0.044882596 -0.08398497 -0.0076386463
0002c0 df 58 f1 bb f1 f1 8a bd d8 3b 13 3e 2e 47 dd bc
       -0.0073653306 -0.06784428 0.14378297 -0.02701148
0002d0 68 5c 70 bd 2c 2d eb bd a9 a5 cb 3b 18 6c 07 bc
       -0.058681875 -0.11483225 0.0062148166 -0.008265518
0002e0 c6 97 0f 3e dd b6 81 bd 15 c0 be 3d 35 26 51 bc
       0.1402274 -0.063337065 0.093139805 -0.012765457
0002f0 14 8b 37 3d 40 6b 71 3b c0 02 0b bd 1d 74 9a 3d
       0.04481037 0.0036837608 -0.03393817 0.07541678
000300 8b 43 17 bd ad eb d8 3d c2 2b d5 bd a0 96 f2 bd
       -0.03692965 0.105918266 -0.10408737 -0.11845136
000310 b7 0a fd 3d 8d c7 c2 bc de 07 92 bd b7 fe a5 bd
       0.12355559 -0.023776794 -0.07130407 -0.081052236
000320 ad 32 25 3e 79 37 78 bd 5e 0b fd bd 87 68 97 ba
       0.16132613 -0.060599778 -0.12355684 -0.0011551537
000330 ec 80 87 bd e2 24 79 bd 44 b5 e2 bc 60 68 04 3e
       -0.06616387 -0.06082619 -0.027674325 0.12930441
000340 1a 44 8f 3d 0a c0 db 3d 38 42 df bb c4 53 1b bd
       0.06995411 0.10729988 -0.006813314 -0.037921682
000350 95 4f 75 bd ad ef 24 bd 97 e7 05 be 11 a7 b6 bd
       -0.05989035 -0.040267635 -0.13076626 -0.08918584
000360 b2 62 f3 3c b0 66 d5 3d e8 e8 10 3e d4 23 1c 3c
       0.029710148 0.10419977 0.14151347 0.009530026
000370 e6 e0 1c bc 55 2a 31 bc 1f 0b ac 3d 7c 39 1c bd
       -0.009575104 -0.010813315 0.08400559 -0.03814076
000380 e7 d6 97 bd 27 83 69 bd ff d9 29 be 94 59 80 bd
       -0.07414036 -0.057009842 -0.16587065 -0.06267086
000390 a1 ad 93 bd b0 8e cc bc 28 a8 e1 bd f5 ae 90 3c
       -0.072108515 -0.024970382 -0.110184014 0.017661551
0003a0 7e cd 9b bd 21 1e a9 3d e5 82 19 be 41 16 e0 3d
       -0.07607554 0.082577 -0.14991339 0.109417446
0003b0 45 d7 88 bd 8e 21 aa bc 02 04 fe bd d3 d1 0a be
       -0.066816844 -0.020767953 -0.12403108 -0.13556604
0003c0 f5 2a 17 be 6e 50 1e 3d 2e 5d bd 3d 7f 6b cc 3d
       -0.1476248 0.038650922 0.09246288 0.09981441
0003d0 79 e1 cb 3d 53 f7 5f 3c e7 61 9b bd 84 6b 22 bd
       0.09955115 0.0136698065 -0.07587033 -0.039653316
0003e0 dc 65 89 bc bb f0 02 be 3c 01 a2 3c f7 04 ae ba
       -0.016772203 -0.12787144 0.01977598 -0.0013276626
0003f0 d4 c0 bd bd cf 6b 9d 3d 1f 71 ee bc 3b ac 78 3d
       -0.09265295 0.076865785 -0.029106675 0.060711127

lstm.bias_ih_l0 f4 [256]
000000 b7 d1 c4 bd 89 09 e8 bc 9e e6 d9 3d ac b7 60 bd
       -0.096103124 -0.02832486 0.1063969 -0.054862663
000010 5d 60 3d bd f2 fd 38 3d c6 8c fe 3c d9 a3 09 3e
       -0.046234477 0.045164056 0.031072985 0.13441409
000020 22 16 95 bd 86 a7 1f 3d 0b 2a 5b bd 68 eb cd 3d
       -0.07279612 0.038978122 -0.053506892 0.10054666
000030 b5 d6 14 3d 02 eb d3 bc 4a 90 d8 3d 82 f8 e6 3d
       0.036337573 -0.025868896 0.10574396 0.11277868
000040 ab 1b a9 bd 20 f5 c1 bd 53 07 14 3d 7f 91 ac bd
       -0.0825723 -0.09470582 0.036139797 -0.08426189
000050 7d ff 59 3d 45 06 c3 3c 06 35 98 3d f4 fa c0 3d
       0.05322217 0.0238067 0.074319884 0.094228655
000060 b3 30 31 bd fe 58 68 3c a8 eb 60 bd b4 84 fa 3d
       -0.043259334 0.014181374 -0.05491224 0.12232342
000070 5d 3b 76 3d dc df 09 3e 65 cc e7 3d 34 aa b5 3d
       0.060115207 0.13464302 0.11318282 0.08870354
000080 b7 d5 de 3d 58 93 29 3c e8 4f bf bd 23 55 c6 bc
       0.108806066 0.010350071 -0.09341413 -0.024210518
000090 0f 29 33 bd c3 36 ef bc 24 71 b0 bd dd b7 ae bd
       -0.04374033 -0.029200917 -0.0861533 -0.08531163
0000a0 cf cf 7b 3d ef 38 34 bd b7 20 b5 bd 8f ea d6 3c
       0.06147748 -0.04399961 -0.088441305 0.026234893
0000b0 36 3d c0 bd bf 09 33 3d 40 90 25 3c 39 03 d0 3d
       -0.09386675 0.043710466 0.010105193 0.10156865
0000c0 0c ab f5 3d dd f1 b9 3d 89 22 98 bd 6e a6 13 3c
       0.11995515 0.09079335 -0.07428462 0.009011848
0000d0 d5 44 9d 3d 32 95 80 bd 3f d7 c6 bd bf ce b6 bd
       0.07679144 -0.06278457 -0.09709024 -0.089261524
0000e0 82 01 96 bd e3 3f ab 3d 2f ea 66 bd 78 b4 aa 3d
       -0.07324506 0.08361795 -0.05637568 0.08335203
0000f0 cb 20 09 bd d8 1f 0b bc 53 71 83 3a c8 c2 1d 3e
       -0.03347854 -0.008491479 0.001002828 0.15406334
000100 c7 6f 0c 3d 6e fd af bd eb e4 e0 3d 12 00 0f 3d
       0.034286287 -0.0859326 0.10981163 0.034912176
000110 6d cf 02 3e a5 65 9a 3c dc a7 a9 bd c3 d4 34 3d
       0.12774439 0.018847296 -0.0828397 0.044148218
000120 c8 66 6c bd 0c cf a3 bd 94 e9 1c 3d f3 f2 94 3d
       -0.057715207 -0.079984754 0.038308695 0.072729014
000130 28 fa 85 bd 7e 89 0c bd 5b 50 17 bd 8f 21 dc 3d
       -0.06541854 -0.03431081 -0.036941867 0.10748588
000140 0b 6b 8e 3c fe af c7 bc 79 ca 46 bd 88 e9 ee bc
       0.017385026 -0.024375912 -0.048532937 -0.02916409
000150 a7 0d ba 3c 98 0f 32 3d b6 2d b3 bc ff 74 a1 bc
       0.022711588 0.043471903 -0.021872383 -0.019709108
000160 1e 31 92 bd eb aa e2 3d 11 f7 31 bd fa 60 13 3e
       -0.071382746 0.11067756 -0.04344851 0.14392462
000170 11 67 4b 3c 2e 35 d9 bb 7a e1 4c bd d5 48 c6 3c
       0.01241471 -0.006628654 -0.05001972 0.02420465
000180 10 82 e1 3c 63 39 13 3d 0a 85 dc bc 57 22 fb 3d
       0.027527839 0.0359434 -0.026918907 0.12262409
000190 eb 9f 12 3b 10 eb 98 ba 76 35 dc bd 74 f4 89 3d
       0.002237315 -0.0011666734 -0.10752384 0.06736079
0001a0 87 cd dd 3c 2c f0 12 3c 57 ac bf bd 30 c0 0c 3d
       0.027075542 0.008968394 -0.09359043 0.03436297
0001b0 18 fc de 3c d7 6c a2 3d 5d c1 4e bd c9 d7 e6 3d
       0.027219817 0.07930916 -0.050477374 0.112716265
0001c0 c3 ce f0 3d ac d5 e9 3c 4c a5 e9 3d 36 34 e0 bd
       0.11758187 0.02854427 0.11408481 -0.109474584
0001d0 b0 20 dd 3d 6d 89 52 bb 1a a2 81 3d b1 5d ee 3d
       0.1079725 -0.003212537 0.063297465 0.11638964
0001e0 fe 80 8b 3c d4 d7 16 3d 2c 3e e0 3c 80 20 11 3e
       0.017029282 0.036826923 0.027373396 0.14172554
0001f0 66 f3 5e bd c3 d9 0b 3e ba f8 17 3d 83 7b c9 3d
       -0.05443134 0.13657288 0.03710244 0.09838011
000200 37 c7 fc bc c5 28 e9 bc 39 a5 30 bd ac 67 0e bc
       -0.030856712 -0.028461823 -0.04312632 -0.0086917095
000210 da 78 01 be b4 0e f7 3d 93 ba af 3d 55 0d 17 be
       -0.12643757 0.12063351 0.08580508 -0.1475118
000220 3f 8d b6 3d 97 41 e6 bd 72 ac 9f bd 46 10 03 3e
       0.08913659 -0.11242979 -0.07796563 0.12799177
000230 01 6f 87 3c cb 5e b4 3d 89 28 c6 3d f3 1a 3b 3d
       0.016532423 0.08807143 0.096757 0.045679998
000240 5a d1 f9 bd a6 df 91 3d 32 76 fb bc e3 5e aa bd
       -0.12198134 0.07122736 -0.030696008 -0.083188795
000250 17 90 8f bd 43 1d fd 3d 22 f3 88 bd 9c ce b2 3d
       -0.07009905 0.12359097 -0.06686999 0.08730814
000260 49 07 2c 3d 4e f4 01 bd f7 60 43 3d 48 ce 09 3e
       0.041999135 -0.031727128 0.047699895 0.13457596
000270 e5 e4 90 3d 07 94 05 3d e1 e7 1c 3d d2 2d 2e 3d
       0.07074908 0.032611873 0.038307074 0.042524166
000280 72 56 a1 bd 07 f8 58 bd 3f b7 14 3d a7 f0 f7 3d
       -0.07877816 -0.052970912 0.03630757 0.12106448
000290 45 e4 81 bc be 1c 3a bd 31 49 b3 bd 51 83 bb 3c
       -0.015855918 -0.045437567 -0.087541945 0.022889765
0002a0 b5 1f f5 bd a2 62 66 bd 9f 8e 12 bd a3 2a 8f 3d
       -0.11968938 -0.056246407 -0.035780545 0.06990554
0002b0 a2 a7 f2 3d 10 1e a4 bc 77 47 76 bc 9b 88 b6 bd
       0.1184838 -0.020033866 -0.015031687 -0.08912774
0002c0 a0 b6 fb bd 76 35 a9 bd 43 d0 d3 bb cf c1 2b 3d
       -0.12290692 -0.0826215 -0.0064640357 0.041932877
0002d0 de 65 a1 3d 25 2c 12 3d c0 50 ed bc e0 dc 74 bd
       0.07880758 0.03568663 -0.028969169 -0.059780955
0002e0 9c 74 f3 3d d4 56 12 be a6 ff a7 bc a3 57 39 3d
       0.11887476 -0.14290935 -0.020507645 0.045249593
0002f0 56 d3 20 be 31 3c 00 3e d5 c6 7f bd 2e 49 11 3e
       -0.15705618 0.12522961 -0.06244548 0.14188072
000300 99 db 8e 3a cc df 30 bd 38 3c 96 3d 7c 75 5b bd
       0.0010899185 -0.04318218 0.073357046 -0.05357884
000310 a2 e8 94 bd da 1b 33 3b ec e3 d9 3d 64 96 ae 3d
       -0.07270934 0.0027329833 0.10639176 0.085247785
000320 47 5d f2 3d c8 2e 12 bd 33 03 f0 3c 53 76 22 ba
       0.118341975 -0.035689145 0.0292984 -0.0006197441
000330 0b 6a ee 3d b8 a0 43 3c de 42 c3 bd 38 81 43 3d
       0.1164132 0.011940174 -0.09534238 0.047730654
000340 90 0f ce bd d9 9a fb 3c 2d 09 30 3c 86 d8 2b bd
       -0.10061562 0.030713486 0.010744375 -0.04195454
000350 c6 6a 93 bd 7b db cc 3b 7e 57 5c bd 7b 8f 1d 3e
       -0.071981 0.00625175 -0.053794377 0.15386765
000360 f1 8f 9d bc 7a d9 aa bc 93 ce e7 3d 46 5f 4f 3c
       -0.019233676 -0.020855654 0.11318698 0.012656992
000370 ff 4c bd 3c 41 38 dd bd 89 e1 80 3d 8c ef f5 3d
       0.023108004 -0.10801745 0.062930174 0.120085806
000380 91 de b9 bd 15 0b 12 3e 05 ac d7 3d e3 a8 c1 3d
       -0.09075654 0.1426204 0.10530857 0.09456041
000390 b5 db 9b 3b 1a f3 4a 3c ee 88 b8 3d eb 3b ca 3d
       0.0047564157 0.0123870615 0.09010492 0.0987471
0003a0 d7 aa 02 bd 73 dd 08 bd db b6 0e 3e 74 96 98 bd
       -0.031901207 -0.033414315 0.13936941 -0.07450572
0003b0 f2 1b a7 bc 3b d2 9c bd ce e5 62 3d 6c 63 e6 3b
       -0.020399068 -0.07657286 0.05539494 0.007030895
0003c0 d0 c9 10 3e 7a 10 07 bd 8a c3 8a 3d a3 2c 74 bd
       0.14139485 -0.032974698 0.06775577 -0.05961288
0003d0 c9 0a 6e bd 8b 86 a3 bd 9f d2 e6 3c 7e 2a 59 3d
       -0.058115754 -0.079846464 0.028176604 0.05301904
0003e0 ed c5 9a 3d fb 40 20 3e a4 3d 7f 3d 8e bf 03 3d
       0.075572826 0.15649788 0.062314644 0.032165103
0003f0 b0 9b d0 3d e8 8a b0 bd 8a 4d 14 3e e9 ec 96 bd
       0.10185945 -0.08620244 0.14482704 -0.07369406

lstm.bias_hh_l0 f4 [256]
000000 4d 8e be 3d 77 29 34 bd 7f 07 0b 3e 51 da 79 3d
       0.093044855 -0.043984856 0.13577078 0.06099922
000010 26 9b 9e 3d b8 88 a2 3d 61 54 fd bc 55 3e 52 3d
       0.07744436 0.07936233 -0.030924024 0.051328976
000020 55 94 2b 3d 1e 43 60 3d ab 4a 80 3d b6 34 10 3e
       0.041889507 0.054751508 0.06264242 0.14082608
000030 59 5f e3 bc c1 1b ad bd 2b ba 9a 3d fc 53 f5 3d
       -0.027755426 -0.08452559 0.0755504 0.119789094
000040 5f 2c a1 3d 4c 08 92 bd d0 96 dc bc d1 a1 45 3d
       0.07869791 -0.07130489 -0.026927382 0.048250023
000050 88 bc 0f 3d cf e4 90 3d e4 a0 af bd 12 c8 cd 3d
       0.035091907 0.07074892 -0.08575609 0.10047926
000060 e5 b6 5e bc 24 3d ee 3c cf 11 f2 bb 2e ed 9f bd
       -0.01359341 0.029081888 -0.007387377 -0.0780891
000070 54 d2 94 3d bd 75 e3 3c d5 5d 4e 3b cd 9b 04 3e
       0.072666794 0.027766103 0.0031489034 0.12950058
000080 e4 f5 0b 3e 37 6e 33 bd 5e b5 09 bd 5d 4a 2a bc
       0.13668019 -0.04380628 -0.03362023 -0.010393706
000090 7d b2 aa bd 7a 0d b3 bd 22 27 a1 bd 32 b6 0c bd
       -0.08334825 -0.08742805 -0.07868792 -0.034353442
0000a0 56 96 9e 3c 63 03 c8 3c 11 8c df 3d 8c ae c0 bc
       0.019358795 0.024415677 0.109153874 -0.02352073
0000b0 70 a3 b5 3d 75 93 d4 bd c2 62 b1 3b 92 82 85 3c
       0.08869064 -0.10379688 0.005413384 0.016297612
0000c0 cd f5 62 3d 97 d7 eb 3d f7 7a e1 3d ac 2d 39 3d
       0.055410195 0.1151573 0.11009782 0.04520957
0000d0 56 41 96 3d 15 8b 01 3e 87 3f 02 3e 79 81 97 3d
       0.073366806 0.12650712 0.12719546 0.07397742
0000e0 9f f2 87 bd bd a7 e4 3d fc f6 87 3c 32 30 f5 3d
       -0.06638073 0.11164806 0.016597264 0.11972083
0000f0 d3 20 97 3d f3 02 6c 3d f9 0e f0 3c 85 e8 ea 3d
       0.073793076 0.05762 0.029304015 0.11470131
000100 d5 bf ef 3d 93 60 0f 3e 03 2b bf bd 22 9e b8 3d
       0.11706511 0.14001684 -0.09334376 0.090145364
000110 47 f7 ec 3d 6e 17 38 bd 3e 6f ba bd 4f 24 b6 3d
       0.11570602 -0.04494422 -0.09103249 0.08893644
000120 c3 b1 cc 3c 5c e7 dd 3d 9b 17 9f 3d 6d e8 f7 3d
       0.024987107 0.10835144 0.07768174 0.121048786
000130 d2 fa d6 bd 76 ee 16 bd 9e 0c db bd e8 11 05 3d
       -0.10497059 -0.036848508 -0.10695766 0.03248778
000140 25 ea 8c 3d 91 48 af bd 83 21 98 3d a6 14 bf bd
       0.06880597 -0.08558763 0.07428267 -0.0933011
000150 da f8 e3 3d e9 a6 ba bd 5f 3e 91 bd ab ab ff bc
       0.11131449 -0.09113867 -0.070919745 -0.031209787
000160 3c b3 67 3d c5 91 eb bd 53 a5 89 3d 4c d4 aa bd
       0.056567416 -0.11502413 0.06720986 -0.08341274
000170 d5 39 74 3c 7c b2 93 bc 6e f0 eb bc 46 96 5f bd
       0.014906366 -0.018029444 -0.02880117 -0.05458667
000180 78 3b 1e 3e c2 7c f4 3d b1 59 bd bd c6 7b 27 bb
       0.15452373 0.11937858 -0.09245623 -0.0025555952
000190 c1 b2 fc bd c3 fc b1 bd 12 0f 84 bd a8 fe ec 3d
       -0.12338782 -0.086907886 -0.06448187 0.11572009
0001a0 0b be a7 bd 68 11 13 3e e1 c4 05 3e e0 c1 1e 3d
       -0.08190545 0.14362109 0.13063385 0.038759112
0001b0 fa 44 d9 3d 09 ef c2 3c 66 ab a6 3d f9 87 d0 3d
       0.10608859 0.023795621 0.081381604 0.10182185
0001c0 29 c4 b7 bd f5 0b 04 3d fd 09 7c 3c c4 84 e2 bd
       -0.089729615 0.032237966 0.015383241 -0.11060479
0001d0 60 97 fd 3d 2d 2d 59 bb 38 a3 15 3d 10 ba 1b bd
       0.12382388 -0.00331385 0.03653261 -0.03801924
0001e0 b0 a9 a3 3d b0 41 3f 3d 8a d1 98 bd 6d cc 0c bd
       0.0799135 0.046693504 -0.074618414 -0.034374643
0001f0 77 79 87 3d 9d 18 b7 bd 2c 3e 90 3d 47 06 96 bd
       0.066149645 -0.089402415 0.07043108 -0.07325416
000200 23 f6 d7 bd dd 59 6d 3c bf b6 b9 bd 77 04 73 3d
       -0.10544994 0.014486757 -0.09068059 0.05933043
000210 73 68 ca bd 49 f8 18 bc 82 bc 96 3d a8 72 29 3d
       -0.09883203 -0.00933654 0.07360174 0.04136911
000220 af 4a 1a ba ea 37 cb 3c 57 c4 fc bd 5f 56 94 bb
       -0.00058857625 0.024806935 -0.12342136 -0.004526898
000230 7b b0 d8 3d 3f 5f 2c bb c9 9c ad bd 69 7c b2 3c
       0.10580536 -0.0026301888 -0.0847717 0.021787839
000240 1c 5d aa bc 04 60 d9 3c c9 25 8e bb 15 46 b3 bd
       -0.020796351 0.026535042 -0.0043380004 -0.087536015
000250 9d 18 9a bb 16 e6 eb 3d 9f 17 7f bd a4 ea 90 3d
       -0.004702641 0.11518495 -0.062278386 0.07076004
000260 2c f4 49 3d 5b af 44 3d c0 7a 27 3c 80 ee e8 3c
       0.049305126 0.048018795 0.010222137 0.028434038
000270 ae 2f 1b be 45 41 db 3d b9 22 45 bd 01 02 05 be
       -0.15154907 0.107058086 -0.048128817 -0.12989046
000280 a8 1c dd bd a9 ec dc 3b 29 04 5d bd 38 35 24 bd
       -0.10796481 0.0067420793 -0.053959046 -0.040089816
000290 b7 74 1c 3d bf a9 c1 bd ff 27 8b bd c3 df bd 3d
       0.038197245 -0.094562046 -0.06794738 0.09271195
0002a0 b1 3e b6 bd 3b 9d e9 bd a7 5b 92 bd 05 89 20 bd
       -0.08898676 -0.114069425 -0.071463875 -0.039193172
0002b0 ca 81 51 3c 47 af a8 bd ef b8 f4 bc 83 98 27 bd
       0.012787292 -0.082365565 -0.02987334 -0.04091693
0002c0 ac 85 5d 3d dc 95 db 3d cb be c0 bd e8 54 93 3d
       0.054082558 0.10721943 -0.09411391 0.07193929
0002d0 40 0d 12 be 58 83 09 be 40 2e f3 bd 09 34 96 bd
       -0.14262867 -0.1342901 -0.11874056 -0.07334144
0002e0 d6 ed b1 bd bd 2e 1d 3d dd 94 b4 3d ee cb c4 bd
       -0.08687942 0.03837465 0.08817456 -0.09609209
0002f0 c8 85 18 be 75 6e 10 bc 8b 3d 89 3d a2 e2 8c 3d
       -0.14894783 -0.0088153975 0.067011915 0.06879164
000300 b8 0e f6 3c 59 b0 1a 3e eb bd e5 3d 38 a1 b1 3d
       0.030036315 0.15106334 0.112178646 0.08673328
000310 cf eb 44 bd cf d0 0e 3c aa 4a 14 3c bf 34 b2 3c
       -0.048076447 0.008716776 0.009051004 0.021753667
000320 7e 9c 4c 3d 2f cb ae 3d c0 76 28 bd 14 86 a6 bd
       0.04995393 0.08534848 -0.041128874 -0.08131042
000330 ff 60 e5 bd d4 32 12 3d a6 a5 74 bd 85 35 ab 3d
       -0.11200141 0.035693005 -0.059728287 0.083598174
000340 97 a5 d7 3c 6f b4 51 3d 03 96 90 bd 9c d0 a8 3d
       0.026324077 0.051197466 -0.070598625 0.08242914
000350 c5 6e 00 3e e9 2e 71 3d e5 8c 1f 3d 04 ed ae 3d
       0.12542255 0.058882628 0.038952727 0.08541301
000360 cc fc 3d 3d bc 3f 1f 3d 52 c5 92 3d cc f9 14 3e
       0.046383664 0.03887914 0.07166542 0.14548415
000370 5b 23 bb 3a 5c 7c a3 3d 31 09 d7 3d 7e 43 8f bd
       0.0014277505 0.07982704 0.104998 -0.06995295
000380 28 f4 e6 3c 24 d7 a8 bd a7 40 93 bd 63 b1 e2 3d
       0.028192595 -0.0824416 -0.07190066 0.1106899
000390 41 0a b3 bd f4 1f 12 3e 38 18 b3 3d f2 d7 3a bd
       -0.0874219 0.14270002 0.08744854 -0.045616098
0003a0 e0 a6 93 bd 0c f1 71 3c e4 db ae bd 68 bb 66 3d
       -0.07209563 0.014766943 -0.085380346 0.05633107
0003b0 ac 04 a1 bc d9 02 28 3d 74 bb 7a 3c 27 4f a7 3c
       -0.019655548 0.04101834 0.015303481 0.020423485
0003c0 c9 42 26 bd d2 52 68 3d fb 88 a0 3d 1f 80 03 3d
       -0.040591035 0.05671961 0.07838627 0.032104608
0003d0 d5 70 b2 3c 03 14 3c bc 7a eb ee bc 24 51 70 3d
       0.021782318 -0.011479381 -0.029165018 0.05867113
0003e0 b5 a4 96 3d 68 a7 8e bc 54 a0 59 bd 4a eb 0c 3e
       0.07355634 -0.01741381 -0.053131416 0.1376163
0003f0 be de e6 3d f2 87 b5 bd 67 f7 43 bd 3d 16 e8 3c
       0.112729535 -0.0886382 -0.047843363 0.028330917

lstm.weight_ih_l1 f4 [256, 64]
000000 57 72 af bd 04 93 c9 3c 0d 30 81 bd ad 0c ef bd
       -0.085667305 0.024606235 -0.06307993 -0.116723396
000010 c3 39 fb bd 06 7b e4 3d ea 9a 58 3d 12 41 a6 3d
       -0.122668765 0.11156277 0.052882113 0.0811788
000020 20 5f 03 3e c3 d8 18 bd d1 37 1d 3d 14 dd 90 bb
       0.12829256 -0.037316095 0.03838331 -0.004420886
000030 75 06 bf 3d 85 66 8f bd 83 8c ad bc 6f 60 f2 3c
       0.093274035 -0.07001976 -0.021185165 0.029586999
000040 77 0d b2 3c e2 2a 6f 3d 54 ee d7 3d 52 1d c0 3d
       0.021734936 0.058390506 0.10543504 0.093805924
000050 c9 89 fd bd 6f 0a 30 3c e6 a0 01 bd 4a aa 9d 3d
       -0.12379796 0.010744675 -0.031647585 0.07698496
000060 40 79 73 bd f5 eb a9 3d fa 6a 77 3d 8a 80 da 3d
       -0.059441805 0.08296958 0.060404755 0.10669048
000070 3e 25 0f bd 4e b7 1b 3d 6c 3e c0 3d 55 57 9f 3d
       -0.034947626 0.03801661 0.09386906 0.07780329
000080 96 9a 8d bd 42 c4 2b 3d 54 29 9a bd 7d c3 b2 3d
       -0.069142506 0.041935213 -0.07527414 0.08728693
000090 18 a6 43 bd af 68 b0 bb 5d 1b e2 bd 19 41 86 3d
       -0.04776582 -0.005383573 -0.110403754 0.06555385
0000a0 26 ea f6 bd 5f 45 d2 bd 6f ec 9c bd bd bc ab bc
       -0.12056379 -0.10267138 -0.07662284 -0.02096402
0000b0 f6 1d b4 3d cf 92 84 3d 5f f8 78 3d 41 3d d5 bd
       0.08794777 0.06473314 0.06078374 -0.10412074
0000c0 c0 e6 92 3d 51 1b 15 3e 01 21 2d bd df ff 31 bd
       0.07172918 0.14561202 -0.042267803 -0.04345691
0000d0 53 14 b2 3d 97 45 a6 3d 6c 92 6a 3c 4b b1 15 be
       0.08695283 0.08118742 0.014317136 -0.14618413
0000e0 33 78 55 bd 3c 68 74 3d cd dd 07 be e2 1a 8a 3d
       -0.052116584 0.05966972 -0.13268204 0.06743409
0000f0 8e 4e 1a 3d 2e d3 47 bc a8 b8 13 be f1 52 c8 bd
       0.03767257 -0.012196345 -0.1442591 -0.09781445
000100 db e2 d1 3d db 9e 94 3d 6f 64 4b 3d cc b5 c0 bd
       0.10248347 0.07256862 0.049656328 -0.09409675
000110 71 69 8c bd 44 5b be 3d 26 85 5d bd c2 de 3c 3d
       -0.06856049 0.09294751 -0.05408206 0.046110876
000120 11 40 85 3c 53 29 52 3d 84 13 d7 bd d1 51 b5 bc
       0.0162659 0.05130894 -0.10501769 -0.02213374
000130 e5 f4 98 bd 62 18 cb 3d c6 e2 8b bb c1 fd 6f bc
       -0.07468585 0.0991676 -0.004268977 -0.014647902
000140 14 fc ef bd da 12 08 3e c2 9f db 3d c2 83 96 bd
       -0.11718002 0.13288441 0.10723831 -0.073493496
000150 d6 5f 7e bd 83 20 6b bc db db d3 bd 78 c8 84 bd
       -0.062103115 -0.014351013 -0.103446685 -0.06483549
000160 45 ce c6 3b cb c6 b4 3d c1 09 7f bd 98 fd 20 3e
       0.0060670697 0.08826979 -0.06226516 0.15721738
000170 c0 c1 2f bc 0a 3a 8d bd 5a b7 48 bd fa 77 ba 3d
       -0.010727346 -0.06895836 -0.049002983 0.09104915
000180 2e c7 62 bd e0 7f 87 3d e0 24 b3 bc 40 08 08 3e
       -0.055365734 0.06616187 -0.02186817 0.13284397
000190 0d 9e e4 bd a8 d9 14 3c fc 0c 0d 3d 28 ee 48 bd
       -0.11162958 0.009085096 0.03443621 -0.04905525
0001a0 b6 df d6 bd 26 3a 68 bd 9d c2 2e bd e9 f3 1b bd
       -0.10491888 -0.05669608 -0.042666066 -0.038074408
0001b0 50 87 dc bd 3c 77 12 3d 4c 3b b8 3c 8e f5 cd bd
       -0.10767996 0.035758242 0.022489212 -0.100566015
0001c0 43 78 64 bd 90 f2 9f 3b 09 2c cf 3c 96 c0 97 3d
       -0.055778753 0.0048812106 0.025289552 0.0740978
0001d0 2d 12 d2 3d af 69 91 3b 55 8d ac 3c 51 9e db bd
       0.10257373 0.0044376473 0.021063486 -0.10723556
0001e0 f5 74 a7 3d 7b d8 ae bd 15 ca 9a 3d dc 67 7b 3d
       0.08176605 -0.08537384 0.07558075 0.061378345
0001f0 d1 0d 33 bd c6 a8 c9 bc 0c 0b 5b 3d d9 d3 5c 3d
       -0.04371435 -0.02461661 0.053477332 0.05391297
000200 5f 16 74 3c aa db 28 3d 95 c5 da bd 8f 41 94 bd
       0.014897912 0.041225113 -0.10682217 -0.07239067
000210 72 ef 1e be 0b 58 63 bc a2 d9 d0 bc d1 ef f8 bc
       -0.15521029 -0.013875972 -0.0254944 -0.03038779
000220 3a c1 f7 3d 68 70 8b ba c5 dd e4 3c 7c 4a a8 3d
       0.12097402 -0.0010638358 0.02793778 0.08217332
000230 c6 7b d8 3d 99 4a 08 3e 0b 87 61 3d 36 4b 03 3e
       0.10570483 0.13309707 0.055060428 0.1282166
000240 db cb b9 bd 22 18 c3 3d 0d f6 ef 3d b2 a9 f6 bd
       -0.090720855 0.09526087 0.11716852 -0.120440856
000250 f6 a5 0f be 65 0e 30 3c 65 51 b9 3c 3f f3 0d 3e
       -0.14028153 0.010745619 0.02262182 0.13862322
000260 f8 0e ef bd ff b8 0c 3e 93 ff 9e 3c 73 05 65 3b
       -0.11672777 0.13742445 0.019408977 0.0034945875
000270 70 a6 3d bd 3b 9b cb 3d 31 2e b5 3d 21 29 54 bc
       -0.046301305 0.09941717 0.08846701 -0.012949259
000280 46 88 08 be c9 38 b2 bc ea 40 f9 bd 57 de c0 bd
       -0.13333234 -0.021755593 -0.121705845 -0.09417408
000290 9c f7 36 3d 9e f1 81 bd cb 14 05 be 8f 5f f3 bd
       0.044669732 -0.06344913 -0.12996213 -0.11883461
0002a0 2c 6a b8 3d af ee ad 3d 07 26 f2 bd 70 39 62 bd
       0.09004626 0.08492791 -0.118236594 -0.055230558
0002b0 57 0c 72 3d 63 71 d1 bc a9 8f fc bc 27 e7 8e bd
       0.0590938 -0.025566762 -0.030830221 -0.069776826
0002c0 10 c1 ef 3c 5b 89 b5 bd 98 92 10 be 12 ff a0 3d
       0.029266864 -0.08864089 -0.14118421 0.07861151
0002d0 2a 20 45 3d ee 1a 0d 3d 0d 27 73 bd 61 25 77 bd
       0.048126377 0.03444951 -0.059363414 -0.06033838
0002e0 71 1a 27 bd 7f 72 d9 bd 50 c6 03 be 7f d3 9a 3d
       -0.0407967 -0.106175415 -0.12868619 0.07559871
0002f0 52 36 aa bd 8a 54 b7 bd e4 7d 68 bc c9 26 02 3e
       -0.08311142 -0.089516714 -0.014190171 0.12710108
000300 36 a0 08 bd 60 dd b8 bd 12 7a 63 3d 73 c6 b8 bd
       -0.033355914 -0.09026599 0.055536337 -0.09022226
000310 8c 67 73 3d e2 dd 8a bd fb 87 0f 3e 3d 79 36 bd
       0.059424922 -0.06780602 0.14016716 -0.044549216
000320 41 35 0f 3e f9 18 ee 3c 75 16 93 3d a3 59 01 3d
       0.13985159 0.029064642 0.07182018 0.031579625
000330 91 ee a6 bd 8d 88 14 3d f2 d7 07 3e 49 bc bf bd
       -0.08150972 0.036263037 0.1326597 -0.093620844
000340 48 4f 1b 3d 81 d8 15 3d 31 85 ec 3d d7 67 a7 bd
       0.037917405 0.036583427 0.11548842 -0.08174103
000350 7d a8 e9 bd d3 bf 69 3d ab e3 53 bd f6 45 0e bc
       -0.1140909 0.057067703 -0.051730793 -0.008683672
000360 8a e2 fb 3c 4b 64 f8 3d e0 fa 94 bd 27 b7 88 3c
       0.03074767 0.12128504 -0.07274413 0.016688896
000370 e2 dd a7 bd e6 48 82 3c dd 28 da bc 96 e0 d0 3d
       -0.08196618 0.015903901 -0.026630813 0.10199086
000380 26 ec 58 3d 39 d6 b8 bb 3e 80 47 bd 92 42 b7 3d
       0.052959584 -0.0056407717 -0.048706286 0.08948244
000390 44 06 8c bd ca 83 07 be 5a fd 80 bd 27 cc cb bc
       -0.068371326 -0.13233867 -0.06298323 -0.02487762
0003a0 61 f5 f4 bd 14 a3 75 3d c2 6d d3 bc 36 5b 2d bd
       -0.11960865 0.059969977 -0.025809173 -0.042323314
0003b0 8d 70 aa bd 7b 91 01 3e 2f db ae 3d c6 bb ce bd
       -0.083222486 0.12653153 0.085379 -0.10094409
0003c0 8b 49 92 3d 71 d2 27 3c e0 e2 90 bd fd 19 8e 3d
       0.071429335 0.010243044 -0.07074523 0.069385506
0003d0 52 7b 02 be 20 94 17 be 0a e5 18 bd 0e 05 a2 3d
       -0.12742355 -0.14802599 -0.037327804 0.0791112
0003e0 cf 92 db 3d c7 78 8d 3d aa c7 40 3d 4c 98 26 3d
       0.10721361 0.06907802 0.047065414 0.040672585
0003f0 2c 03 10 bc 9c fc 1c bd bb c6 90 3d 65 5d 0e 3e
       -0.008789819 -0.038326845 0.07069155 0.13902815

lstm.weight_hh_l1 f4 [256, 64]
000000 1a 25 10 3c d6 25 08 3e 98 ba e0 3d df a7 89 bd
       0.008797908 0.13295683 0.1097309 -0.06721472
000010 d8 ee 17 3e bf 3b 17 3d 52 f5 83 3c af 54 fe bc
       0.14837205 0.036922213 0.016108189 -0.03104624
000020 75 bd 70 bc 99 68 ab bd 16 df 96 3d 89 23 9c 3d
       -0.014693608 -0.0836956 0.07366769 0.07623965
000030 09 83 97 bb c0 30 11 be 18 69 ac 3b a4 b9 89 3d
       -0.004623775 -0.14178753 0.0052615516 0.06724861
000040 43 3c 7d bd 75 d5 d7 bd 02 6a 85 bd 47 68 6c bd
       -0.06182505 -0.105387606 -0.0651436 -0.057716634
000050 7c 0d cd 3d 4f d9 ac 3c 8d 4e 04 3d 84 6b 6a bd
       0.100123376 0.021099715 0.032301474 -0.05723144
000060 be f2 8c 3d dd e0 03 3e f3 4f 81 bb d1 17 d2 3d
       0.06882237 0.12878747 -0.0039462983 0.10258449
000070 a7 cc 56 bc 97 1f 15 3e 4c 5e e8 3c 83 a4 34 bd
       -0.013110316 0.14562832 0.028365277 -0.044102203
000080 25 10 02 3e d6 fd 91 bd 0a 97 13 3e b1 ed 71 3a
       0.12701471 -0.071284935 0.14413086 0.0009228839
000090 b5 b7 1a bd 23 be ec 3a ac 6c cf 3b c6 02 fd 3d
       -0.037772853 0.0018062036 0.0063300934 0.123540446
0000a0 2d cf 14 be b0 85 a8 b8 b4 88 0e 3d 6e fe ac bd
       -0.14532156 -8.0357655e-05 0.03479834 -0.08446966
0000b0 89 1e 77 3d 6f 2e a6 3d 85 76 13 3e 1d aa 04 bc
       0.060331855 0.08114325 0.1440068 -0.008097199
0000c0 72 eb c2 bd 6d eb 5c bd 92 c0 f6 bd e2 8f 8f bd
       -0.09517564 -0.053935457 -0.120484486 -0.07009865
0000d0 33 2d 06 3e 41 67 16 be 70 36 a6 3d 5f 18 fb bc
       0.1310318 -0.14687826 0.08115852 -0.03065127
0000e0 c6 3e ec 3c 86 8b 17 be 81 be 92 bc 7c b4 b7 3c
       0.028838526 -0.14799318 -0.017913105 0.022424929
0000f0 99 dd 00 be a7 60 9f bd b8 13 98 bd 6a a4 c9 3d
       -0.12584533 -0.07782107 -0.07425636 0.098458126
000100 3d 81 ac 3d 80 e1 27 3d 10 c0 35 bd 0f 98 bb 3b
       0.08423088 0.040986538 -0.04437262 0.005724914
000110 5b 90 3e bd e4 27 c7 bb 90 19 a6 b7 a3 6d 11 be
       -0.046524387 -0.0060777534 -1.9800646e-05 -0.1420198
000120 93 40 9e 3c b3 41 5c 3d dc 77 96 3c 70 98 4e 3a
       0.0193179 0.053773593 0.0183677 0.00078809913
000130 95 08 33 bc f1 2a 5d bd 98 7a 01 be 8e b3 16 3e
       -0.010927339 -0.05399603 -0.12644422 0.14716932
000140 7c 9a 62 bc bd ba 9a bd 87 1b af 3d d0 d4 c9 3d
       -0.013830777 -0.07555149 0.08550172 0.09855044
000150 3b bc 03 3e bc 42 5d bd 17 fc c9 bc 01 48 05 bc
       0.12864773 -0.05401872 -0.024656339 -0.008134843
000160 70 ff de bc 55 a5 9e bd 7e 6a cc 3c 56 34 0e 3e
       -0.027221411 -0.07746378 0.024953123 0.13887152
000170 38 f1 aa bb df aa 4c bd 60 ce 42 3d eb 90 55 3d
       -0.005216744 -0.049967643 0.047560096 0.052140158
000180 76 31 d4 3c d4 05 83 3d 8b bd 8f bd e6 92 1c 3e
       0.025902491 0.06397596 -0.07018574 0.15290412
000190 95 f1 19 be 41 f0 f0 3d a4 98 cc bc 5e e3 81 3d
       -0.15033562 0.11764575 -0.024975128 0.06342195
0001a0 b5 c5 aa 3d 5b 87 6f 3d af b8 34 bb 2f 6f b7 3d
       0.08338491 0.058478694 -0.00275759 0.089567535
0001b0 bc 90 ac 3d e1 d1 bf 3c d8 8a fc bb 32 bb d1 3d
       0.084260434 0.023415508 -0.007706981 0.10240783
0001c0 59 46 84 3d 87 cb 1e 3d 95 28 a7 3c f6 b9 0a 3e
       0.0645873 0.038768318 0.020405093 0.13547501
0001d0 2c a3 62 3d 57 5a a0 bd 6f fe 0b 3e d8 9d f7 bc
       0.055331394 -0.07829731 0.13671277 -0.030226633
0001e0 af 7a 8f 3d d3 1b fa bd d1 95 c2 3d c3 71 65 bc
       0.07005822 -0.12212338 0.095012315 -0.014004174
0001f0 fa eb 4b bd c5 e4 79 bd d7 f3 cd 3d d5 ac 7b 3d
       -0.04978559 -0.061009187 0.100562744 0.061444122
000200 6f 34 af bc 96 14 78 3d 5b b7 1b bc fb a1 ac 3d
       -0.021387307 0.060566507 -0.009504165 0.08429333
000210 7c 58 09 3e e9 7e f2 3d 72 e9 bf bd c2 9c a0 3c
       0.1341266 0.118406124 -0.09370698 0.019605998
000220 c0 5c 3c bd 91 e3 b0 bd 34 b0 b4 3d bc fe 22 bc
       -0.04598689 -0.08637155 0.088226706 -0.009948429
000230 d7 83 aa 3c 6c 4f 89 3d 78 5d ac bd 3a ff ee 3d
       0.02081482 0.06704602 -0.08416265 0.11669774
000240 7e 1f 58 3d ef 62 9f 3d 8c 60 6d 3d d0 f0 ba bc
       0.05276441 0.07782542 0.057953402 -0.022819906
000250 f5 00 d3 3d 0c c7 74 bd d2 e0 f4 bd 80 bb 62 bd
       0.10302917 -0.05976014 -0.119569436 -0.055354595
000260 9e 0f d2 3c 67 bb 87 3b 05 4b 03 3e a8 7c dd 3d
       0.025642212 0.004142213 0.12821586 0.10814792
000270 16 53 10 be 1d 45 e9 3d c5 f5 1f bd f5 6d 05 bd
       -0.14094195 0.113901354 -0.039052743 -0.032575566
000280 41 fd 9a bd 17 73 02 bd 42 6e 01 3e 18 a2 b2 3d
       -0.075678356 -0.03184804 0.12639716 0.08722323
000290 68 c1 db bc 6f bd 16 3e 51 06 1b 3e 7f 63 64 bd
       -0.026825622 0.147207 0.15139128 -0.05575895
0002a0 61 0d 8f bc 90 4f 46 3d 49 71 65 3c 93 0f 94 3d
       -0.017462434 0.04841572 0.01400406 0.07229533
0002b0 b9 66 c2 bc b5 b5 08 bd d3 ed a6 3d 45 0f 20 3c
       -0.023730623 -0.033376414 0.0815083 0.009769266
0002c0 f9 e9 09 3a fd b0 46 3d 26 98 d2 3c 0b f3 28 bc
       0.0005261 0.048508633 0.025707316 -0.010311852
0002d0 e6 4d b4 3d ad 1c c6 bb bf 54 4b 3b a9 99 84 bd
       0.088039204 -0.006045899 0.0031025854 -0.06474621
0002e0 a3 32 0c 3e d3 bd 47 3d 83 67 10 3e 1b 26 c3 bd
       0.13691191 0.048765015 0.14101987 -0.095287524
0002f0 73 b5 89 bd 34 5f 35 bd 44 da a1 3d e7 86 1c 3e
       -0.06724062 -0.044280246 0.07902959 0.15285836
000300 bb 52 d8 3b 93 a2 10 3e 29 e4 e1 3d 8f f2 f1 bd
       0.006601659 0.14124517 0.11029846 -0.118138425
000310 1f 32 63 bc 29 89 cd 3d e4 ce cb 3c 51 80 0a be
       -0.01386693 0.10035927 0.024878927 -0.13525511
000320 2a 8d a2 3c 29 5a b6 3d ff fd 9a 3d f7 db 00 be
       0.019842703 0.089039154 0.07567977 -0.1258391
000330 8f 12 0d 3d 82 e9 17 3d fb ff 0b bd c6 ea 74 3c
       0.034441527 0.037087925 -0.03417967 0.0149485525
000340 f0 6f b3 bd 44 10 d1 bc f1 23 06 bd f7 f5 a4 bd
       -0.08761585 -0.025520451 -0.03274912 -0.080547266
000350 ac 1a 17 3d c9 a4 4c 3d c6 e9 f4 bd 13 4f 5b bd
       0.03689067 0.04996184 -0.11958651 -0.053542208
000360 fa 51 b6 38 bc 52 bc bd 32 60 90 bd a6 bc bd bd
       8.6937056e-05 -0.09195468 -0.07049598 -0.092644975
000370 95 d9 da bd b2 1d 08 3e b1 0e 17 3e db 14 3a 3d
       -0.10686032 0.13292578 0.14751698 0.045430046
000380 dc 5e cb 3d a7 85 19 3d b2 37 b1 3d 7b 7d 1d bd
       0.09930202 0.037480976 0.08653201 -0.038449746
000390 80 e9 0d be 7c fb ed 3c 86 eb 70 bc f8 b7 c5 3d
       -0.13858604 0.029050581 -0.014704591 0.0965423
0003a0 4a 7b 64 3a f4 d0 09 bd 71 73 8d bd ba 14 06 bb
       0.0008715881 -0.03364654 -0.06906784 -0.0020459131
0003b0 38 6d 08 bd cb 9d 3d bc 28 c1 c2 bd cd dd 6f bd
       -0.033307284 -0.011573265 -0.09509498 -0.058561135
0003c0 07 5f 88 3c 90 db 0c 3d aa 29 5c bd 6c 8b 91 3d
       0.016646875 0.03438908 -0.05375067 0.07106671
0003d0 d8 92 70 bd f1 fb b2 3d 3d 32 9b bd ed 8a 91 3d
       -0.05873379 0.0873946 -0.075779416 0.07106576
0003e0 ff 34 bf 3c 9e cf 67 3d 73 55 ba bd b0 1a 56 3d
       0.0233407 0.056594484 -0.090983294 0.052271545
0003f0 f5 cf 85 bd 73 36 a1 bd b1 5e b4 bb 2f 23 14 3d
       -0.06533805 -0.078717135 -0.005504452 0.036166366

lstm.bias_ih_l1 f4 [256]
000000 2f b6 8b bd b4 d0 ba bc 5e 2b a5 3d 84 b6 c1 39
       -0.06821858 -0.022804596 0.08064912 0.00036947813
000010 6f a9 17 bd af 6a ba 3c ba 96 f6 bd 88 92 f6 3d
       -0.03702682 0.022755949 -0.120404676 0.12039667
000020 09 f0 b2 3d 22 ee 9e bd 78 c6 11 bd 64 e8 0e 3c
       0.08737189 -0.07760264 -0.035589665 0.008722398
000030 15 43 72 3d 23 3e 90 bb 04 e1 e3 bc 90 f3 00 3e
       0.059146006 -0.0044019385 -0.027817257 0.12592912
000040 bc 95 d7 3b 57 8b 76 3d dd 0b bc 3d 90 62 4f bd
       0.006579129 0.06019148 0.0918195 -0.050631106
000050 cf eb a8 3d 91 7b f6 bd 66 ec 88 bd f8 fd 8e bd
       0.08248102 -0.12035287 -0.066857144 -0.069820344
000060 69 f7 8e bd 49 ed 9b 3d 47 e3 2d bb 3f f1 45 bd
       -0.069807835 0.07613618 -0.0026533173 -0.048325773
000070 46 c0 88 3d b3 e4 1c 3e 57 04 a3 bd 67 e6 d4 3c
       0.06677298 0.15321617 -0.07959812 0.02598877
000080 26 72 da 3d 70 0f 39 3d 59 71 97 3c 3b 83 bd bd
       0.10666303 0.045180738 0.018486666 -0.09253546
000090 4f e9 93 bd 98 b0 54 bd 5f 5f eb 3d b8 aa dd 3d
       -0.072222345 -0.051926225 0.114928 0.10823578
0000a0 cc 7e b5 bd a2 d6 c0 bd 7f 9b 9e 3d a6 54 ad 3d
       -0.08862075 -0.09415938 0.07744502 0.08463411
0000b0 77 c2 01 3e c1 3f 41 3d b4 93 d4 bc 10 ad 9a 3d
       0.12671839 0.04717994 -0.025949337 0.0755254
0000c0 c1 d7 78 3d 2b 36 01 bd 79 33 7e 3d bd 32 df bd
       0.060752634 -0.0315458 0.062060807 -0.108983494
0000d0 5b 2f 0f 3d 15 22 57 bd 9a 32 34 bd e3 3a 50 bb
       0.03495727 -0.052522738 -0.04399357 -0.003177338
0000e0 62 ba 4b 3d 70 8a b7 3d 45 1f 9b bd a6 36 65 bd
       0.049738295 0.08961952 -0.075743236 -0.05596032
0000f0 18 28 95 bc 3a 7d f2 3d 66 3a 18 3e c6 52 3b bd
       -0.018207595 0.11840291 0.14866027 -0.045733236
000100 e6 2a 21 3d 2c ca a1 bd 71 31 a3 bd 13 27 90 3d
       0.03934755 -0.07899889 -0.079684146 0.07038703
000110 ce 94 70 3d cb f8 b1 bd d4 d3 a1 3c 27 8f 3f bd
       0.05873566 -0.086900316 0.019754328 -0.04676738
000120 f4 31 99 3d 80 b5 13 3e 16 d0 28 3d 4c b0 f7 bd
       0.07480231 0.14424706 0.04121407 -0.12094173
000130 30 e2 f6 bc 2c 07 9d 3d 42 bd 49 ba 48 9b df bc
       -0.030137151 0.076673836 -0.0007695743 -0.027295724
000140 7c d0 90 bd 17 c2 1c 3d 12 15 f3 3d a9 81 7d bc
       -0.07071015 0.038271036 0.11869253 -0.015472808
000150 7c 6e eb bd ed 63 b3 bd dd 58 7f 3d cb d1 ea bd
       -0.114956826 -0.08759294 0.062340606 -0.11465796
000160 2d c7 0d 3d ac 64 9d 3d 1f 3f 81 bc 86 d9 78 3d
       0.034613777 0.07685217 -0.015777169 0.06075432
000170 53 40 ab 3d 4d 39 06 3e c1 65 a6 bd 7a 64 c0 bd
       0.08361878 0.13107796 -0.08124877 -0.093941644
000180 e3 e4 bf 3d 91 3a 58 bd 53 c8 d9 3d 29 0b ef bb
       0.093698286 -0.05279023 0.10633912 -0.0072950316
000190 f7 67 29 3c 90 d5 85 bd 66 ac 60 3d 17 39 fe bc
       0.010339729 -0.065348744 0.054851912 -0.031033082
0001a0 17 97 73 3b fb 26 ab 3d 5b 81 99 3d 45 f6 d2 3c
       0.0037168914 0.08357044 0.07495376 0.025752196
0001b0 72 5d a1 3d 3a 36 98 3d 20 90 3a bd 08 0c b2 bd
       0.078791514 0.07432218 -0.045547605 -0.08693701
0001c0 54 7f 82 3c ea 1b b5 bd fb 6e f7 3d 6a 08 b7 3c
       0.015929855 -0.08843215 0.12081715 0.02234288
0001d0 ec 3b d4 bd 0c 25 03 3e 32 e3 8f bc 48 c0 88 3c
       -0.10362992 0.12807101 -0.01756439 0.01669325
0001e0 28 9b 8e 3b cf 47 b9 3d 9d 9e f9 bc d5 aa 39 bd
       0.004351992 0.090468995 -0.03047114 -0.045328934
0001f0 e1 f0 7b bd 37 c4 b3 bd b6 57 1b 3e 0d 81 e8 3c
       -0.061509017 -0.087776594 0.15170178 0.028381849
000200 89 c6 5a bd 22 68 c2 bc c3 e9 37 3c 4b 64 ba 3d
       -0.053411994 -0.023731295 0.011225167 0.091011606
000210 9f cb 4d 3d 10 84 82 bc de 54 0a bd c9 12 92 3d
       0.050243016 -0.015932113 -0.033772342 0.07132489
000220 ee 4e 99 bc 58 da 57 bd 65 bd 48 3d 2d 0c b9 3c
       -0.018714394 -0.052698463 0.049008746 0.022588814
000230 85 c6 83 bd de a0 10 be ab d4 92 3c 1c 57 bf 3d
       -0.06434349 -0.14123866 0.017923674 0.09342787
000240 7b 95 99 3b 10 6e 0d 3d e1 8f 24 bd 94 92 69 bd
       0.004687009 0.034528792 -0.040176276 -0.057024553
000250 51 ca 2e bd 6f bc a0 bd 6b 63 bd 3d 04 0c e3 3d
       -0.042673413 -0.07848441 0.09247478 0.11086276
000260 3c cf b8 bd 9f da 92 3d d9 87 ef bc a9 5c c9 3d
       -0.09023902 0.07170605 -0.029239582 0.09832127
000270 76 26 db bd fd f2 22 3e b4 6e d7 3d a6 69 3d 3d
       -0.10700695 0.15913005 0.10519162 0.046243332
000280 df cf 47 bc f7 f7 bf 3d d9 02 ba 3d f2 1e 08 3e
       -0.012195556 0.093734674 0.090825744 0.13293055
000290 0a 85 f7 bd 9b f1 a7 bd 50 9e 49 ba 15 74 24 3c
       -0.12085922 -0.082003795 -0.0007691132 0.010037442
0002a0 4a 04 13 be 0c b0 42 3c 60 2e a8 bc c9 18 69 3d
       -0.14357105 0.011882793 -0.020529926 0.056908403
0002b0 03 21 13 3e 2b 96 9d ba 2e 09 18 3e 28 7c aa bd
       0.14368062 -0.0012022903 0.14847252 -0.08324462
0002c0 08 b7 db bd 5e 5f 05 bd 99 51 cb bd 3c 69 2a bd
       -0.1072827 -0.032561652 -0.09927673 -0.041604266
0002d0 1d e9 ab 3c 61 8f e5 bc ed 08 86 3c ff 1e e2 bc
       0.02098518 -0.02802247 0.016361678 -0.02760267
0002e0 4b 3a 07 3e 7a f9 a8 bd a4 2b ad 3d c4 d9 ad bd
       0.13205831 -0.08250709 0.084555894 -0.08488801
0002f0 ed 71 ed 3c cd f3 e8 3a 19 14 0a bd f1 b2 d8 3c
       0.028984988 0.0017772854 -0.033710573 0.026452513
000300 01 47 9d 3d 49 be ce 3d 03 06 08 3e 43 8e d1 bd
       0.076795585 0.10094888 0.13283543 -0.102322124
000310 89 78 08 3e 2e 40 8f 3d 93 07 b2 3c ba 8e 5c 3d
       0.1332723 0.06994663 0.021732127 0.053847052
000320 a6 81 b8 3d 2a c6 7d bb 12 ce 9c 3d 17 d3 bd bd
       0.090091035 -0.0038722851 0.07656492 -0.09268778
000330 92 fd 48 bd 29 6a b8 3d 07 f5 b8 bd d3 b5 1e 3e
       -0.04906995 0.090046234 -0.0903111 0.15499048
000340 63 6d 4c 3d 4d ac 10 3c 61 36 d9 bd 88 18 93 37
       0.049909007 0.008830142 -0.10606075 1.7535189e-05
000350 f3 15 e7 3d e6 b0 ef bd 59 ab fa bb 2d 7c f1 3d
       0.11283483 -0.117036626 -0.0076498208 0.11791263
000360 16 b3 8f 3d 8f 15 12 3e ef e1 28 bd ea 6c 56 bc
       0.0701658 0.14266036 -0.041231092 -0.013087491
000370 ad f6 af 3d c1 29 88 bb 74 62 89 bd 5b 1e ba 3d
       0.085919715 -0.004155368 -0.067082316 0.09087821
000380 42 7a ca bd 3c d9 a2 bd 2d 69 05 3d 39 23 18 3e
       -0.098866 -0.079515904 0.032571007 0.14857186
000390 51 76 6a 3b 27 63 c2 bd b5 56 de 3c dd 0c b7 bd
       0.0035776088 -0.09491568 0.027140955 -0.08938
0003a0 e6 71 c3 3d 61 bb a9 bd 02 97 47 3d d5 1c 1f 3e
       0.09543209 -0.08287693 0.048727997 0.15538342
0003b0 f9 08 d8 3d 4b 11 82 3c 19 43 a7 3d c0 80 cb bd
       0.105485864 0.015877387 0.08167095 -0.099366665
0003c0 ed cc a2 3d 49 d1 4f 3d 48 26 a2 bd 97 f8 e5 bd
       0.07949243 0.0507367 -0.07917458 -0.112290554
0003d0 6d dd 8a bd 53 59 83 bd 53 c4 19 3e 5b 02 f8 3d
       -0.06780515 -0.064135216 0.15016298 0.12109824
0003e0 25 96 d7 3d 09 db 04 3e 85 ca 29 3c a8 5c ed bd
       0.10526685 0.1297418 0.010363226 -0.115899384
0003f0 13 d3 6f 3d 89 f9 e6 3c 07 80 db bc 9f 20 eb 3d
       0.058550905 0.02819516 -0.026794447 0.11480831
