lstm_def_model.pt (torch, 242997 bytes, 9 tensors)

lstm.weight_ih_l0 f4 [256, 36]
0.074569784 0.100820206 -0.0102990605 0.15206727 0.00304174 0.057303354 -0.10575249 0.08298956
0.110941574 -0.05783851 0.12674467 0.063299626 0.07091124 0.020787828 0.08502779 -0.0193214
0.10481524 0.07034805 -0.04545173 0.090042435 -0.098985046 0.0067095873 -0.0139996 -0.023800189
-0.13030958 -0.061294924 -0.09293158 -0.13008888 0.03617573 -0.18156745 0.11425799 -0.15047072
0.006181473 0.020123318 -0.09210649 0.032684255 -0.0036498099 0.10986542 0.0060575246 -0.110700585
0.038696036 0.038574148 0.05890676 0.15114103 0.036520027 -0.036779147 0.10918344 0.00986805
-0.041186124 -0.013426237 -0.14069004 -0.104475625 -0.14635757 0.017891131 0.05762241 0.14214784
0.042082448 0.04629365 0.12638175 -0.118114255 -0.01712124 -0.12461168 0.016768036 0.064686805
-0.16049479 0.0032269456 -0.00940007 -0.12074505 -0.24415934 -0.20346236 0.13014548 -0.0462378
0.14457662 -0.15917559 -0.10699833 -0.04178106 0.17752922 0.04162027 0.11610225 0.13803513
0.03882824 -0.046483744 0.094169594 -0.06384197 0.15546544 0.17027773 0.26766744 0.03133592
-0.020948578 0.054654993 0.09688971 -0.07268489 0.12318386 0.10778895 -0.020316038 -0.014937035
0.17046402 -0.051567793 -0.14239563 -0.19192007 -0.21110365 0.06708424 -0.062264554 -0.10789915
-0.072626635 -0.25431016 0.057943903 -0.022481117 -0.029336007 -0.028126266 0.21613584 0.13359654
0.05705118 -0.048241906 -0.17468916 -0.055536743 0.05064419 -0.026587002 -0.029444288 0.00013483677
0.08872811 -0.14281641 -0.11661126 0.00013706309 0.05363989 -0.0135741355 0.01222064 -0.08482041
0.08521077 -0.028884344 0.049617894 0.038644794 -0.065234676 0.043253902 -0.059941556 -0.039337628
-0.16207659 -0.1584877 -0.007043859 -0.052405544 0.073384225 -0.15377675 0.08345201 -0.15125558
-0.011453166 -0.019405574 0.19714618 0.08765008 0.15560764 -0.11800923 0.012206859 -0.08200058
-0.06491452 -0.016896516 0.18617874 -0.17200421 0.034044262 0.025350504 0.04233236 0.09180245
0.28388923 -0.015383048 0.064238995 -0.104506016 -0.043554254 -0.09889978 -0.17119159 0.110749334
0.09780581 -0.032472823 -0.15606569 0.037636377 0.10456546 0.00071215583 -0.028819997 -0.058478005
-0.15920141 -0.058091257 0.19716129 -0.11038102 0.05638532 0.01360673 0.003649572 -0.1432937
0.16277304 0.031733394 0.036654443 -0.06423091 -0.04515405 0.035106618 0.046491414 -0.055130973
0.010974303 0.23431739 0.067304134 0.21090502 0.23960581 -0.014860132 0.029687673 0.054335576
-0.18464044 -0.061174393 0.09729744 0.19867916 0.1712348 -0.11166531 -0.13109441 -0.054993905
-0.0945717 0.053226925 0.044301704 -0.065881796 -0.114026636 -0.05375066 -0.023282362 0.14126238
0.16377749 -0.012668053 0.072456464 -0.0062138108 -0.13404761 0.23197268 -0.08541597 0.037627824
-0.03328875 -0.009703198 0.07797836 0.15489128 0.044947486 -0.119659774 -0.08773014 0.27061948
0.148219 0.13756244 0.041848633 0.18156604 -0.035030406 -0.03018846 -0.105020076 -0.00780243
0.13047618 -0.10870093 0.08977619 -0.10726541 0.02127357 -0.07428935 -0.037453923 0.06402514
-0.08831299 0.13805565 -0.06482341 -0.06161706 -0.042312935 -0.11680543 -0.10074446 -0.120825626
00000000: 0bb8 983d d37a ce3d 64bd 28bc 86b7 1b3e
00000010: ee57 473b ecb6 6a3d c394 d8bd 6ef6 a93d
00000020: 5635 e33d 13e8 6cbd 5bc9 013e 3ca3 813d
00000030: ea39 913d 3c4b aa3c 0d23 ae3d ea47 9ebc
00000040: 5fa9 d63d a312 903d 982b 3abd 2b68 b83d
00000050: acb8 cabd 19dc db3b 945e 65bc 9df8 c2bc
00000060: e06f 05be 6310 7bbd ea52 bebd 0536 05be
00000070: 012d 143d d1ec 39be 1800 ea3d ff14 1abe
00000080: f48d ca3b a8d9 a43c 54a2 bcbd eddf 053d
00000090: a631 6fbb 1f01 e13d 337e c63b fdb6 e2bd
000000a0: bc7f 1e3d edff 1d3d 3748 713d b7c4 1a3e
000000b0: 0696 153d bba5 16bd 919b df3d 9aad 213c
000000c0: c8b2 28bd b8f9 5bbc 0d11 10be 51f7 d5bd
000000d0: c2de 15be 6c90 923c 7a05 6c3d 348f 113e
000000e0: a55e 2c3d 699e 3d3d 386a 013e e3e5 f1bd
000000f0: d841 8cbc 6934 ffbd 1f5d 893c 847a 843d
00000100: bf58 24be 2a7b 533b c002 1abc 2e49 f7bd
00000110: e804 7abe 7058 50be db44 053e d963 3dbd
00000120: e50b 143e edfe 22be f121 dbbd 9e22 2bbd
00000130: 38ca 353e 047a 2a3d 04c7 ed3d 1559 0d3e
00000140: 5c0a 1f3d bd65 3ebd fddb c03d 94bf 82bd
00000150: 5532 1f3e 495d 2e3e b50b 893e 185a 003d
00000160: 5a9c abbc eadd 5f3d 1d6e c63d d1db 94bd
00000170: d247 fc3d 74c0 dc3d d26d a6bc 77ba 74bc
00000180: 1f8e 2e3e c038 53bd 29d0 11be b286 44be
00000190: 8e2b 58be 7663 893d 1e09 7fbd 3bfa dcbd
000001a0: 46bd 94bd f134 82be 9656 6d3d 522a b8bc
000001b0: 1152 f0bc 0e69 e6bc b752 5d3e 88cd 083e
000001c0: 80ae 693d 4e99 45bd b7e1 32be 7f7a 63bd
000001d0: 4870 4f3d fccc d9bc 2635 f1bc f862 0d39
000001e0: 15b7 b53d 773e 12be e2d1 eebd 98b8 0f39
000001f0: 80b5 5b3d 0d66 5ebc 1439 483c 53b6 adbd
00000200: fc82 ae3d dc9e ecbc 223c 4b3d 014a 1e3d
00000210: c299 85bd 012b 313d 4785 75bd 7e20 21bd
00000220: 68f7 25be 9a4a 22be 2cd0 e6bb 32a7 56bd
00000230: 784a 963d a777 1dbe e3e8 aa3d bee2 1abe
00000240: 0fa6 3bbc 70f8 9ebc b0e0 493e e381 b33d
00000250: 9c57 1f3e d3ae f1bd 47ff 473c ecef a7bd
00000260: e7f1 84bd 906a 8abc a4a5 3e3e df21 30be
00000270: ff71 0b3d dcab cf3c b264 2d3d ec02 bc3d
00000280: ee59 913e 2e09 7cbc bc8f 833d 4007 d6bd
00000290: f265 32bd f88b cabd d94c 2fbe 8cd0 e23d
000002a0: 6a4e c83d 3902 05bd afcf 1fbe 9a28 1a3d
000002b0: 6a26 d63d f8af 3a3a ea17 ecbc a286 6fbd
000002c0: b205 23be 19f1 6dbd a6e4 493e 720f e2bd
000002d0: 4bf4 663d c3ee 5e3c a82d 6f3b 95bb 12be
000002e0: faad 263e e0fa 013d f822 163d 7f8b 83bd
000002f0: 74f3 38bd f5cb 0f3d c86d 3e3d 04d1 61bd
00000300: 90cd 333c e6f0 6f3e c0d6 893d 7cf7 573e
00000310: 3a5b 753e e977 73bc 9033 f33c fb8e 5e3d
00000320: 6212 3dbe 0092 7abd e143 c73d 8d72 4b3e
00000330: 2d58 2f3e c8b0 e4bd 9d3d 06be 4a41 61bd
00000340: cfae c1bd 7a04 5a3d b475 353d 09ed 86bd
00000350: cc86 e9bd a729 5cbd a7ba bebc 16a7 103e
00000360: 49b5 273e aa8d 4fbc 0e64 943d 399d cbbb
00000370: c743 09be 3f8a 6d3e 91ee aebd a21f 1a3d
00000380: c959 08bd 2afa 1ebc 1eb3 9f3d d29b 1e3e
00000390: db1a 383d 2f10 f5bd dcab b3bd a38e 8a3e
000003a0: b9c6 173e 2bdd 0c3e 7969 2b3d 73ec 393e
000003b0: 0b7c 0fbd ca4d f7bc c414 d7bd 87ab ffbb
000003c0: 8c9b 053e 989e debd 94dc b73d f8ad dbbd
000003d0: e945 ae3c 0425 98bd 4969 19bd 9d1f 833d
000003e0: 71dd b4bd 765e 0d3e 23c2 84bd 2c62 7cbd
000003f0: 5450 2dbd af37 efbd 1d53 cebd 6d73 f7bd

lstm.weight_hh_l0 f4 [256, 64]
0.18295965 -0.16241065 5.833985e-05 0.03260086 0.06580104 0.05918493 0.1498577 -0.13691454
0.04690781 -0.10079818 0.16137126 0.08286029 0.049038187 -0.19792573 -0.18925627 -0.010839978
-0.16492791 -0.18583578 -0.14717811 -0.043189306 0.005749563 -0.118484005 0.13630728 -0.1161096
-0.009500444 0.22579603 0.061284684 -0.08411754 -0.023934241 0.04993106 0.0105196815 0.08956809
0.07929149 0.027863055 0.0964578 -0.1783335 0.18387501 0.14465252 -0.1058148 0.08800629
-0.14970668 -0.034741405 0.1344258 -0.07376165 0.17022419 -0.008891562 0.0323187 -0.15695596
0.019015333 -0.118680775 0.02941778 0.032520182 -0.14714354 -0.22508314 0.015829038 0.009724994
-0.07271629 0.0065527232 0.100524396 -0.13139102 -0.101145945 0.082871385 0.06312852 -0.09865917
-0.16261901 -0.073370904 -0.09105124 0.073776625 -0.08428545 0.08105567 0.06735004 0.025044559
0.045809902 -0.28909442 0.13622849 0.23744735 -0.0032425218 -0.017317647 0.028533738 0.22514406
-0.18945457 0.08892582 -0.10643669 -0.10317191 0.28063092 -0.03131975 -0.10170279 0.11535691
0.08117526 0.09092682 -0.010853189 0.054540843 -0.26723132 0.11085333 -0.13888264 -0.11676963
-0.299537 -0.12556072 0.05888888 0.042114817 -0.049068816 -0.16677254 -0.18416272 -0.027266085
0.062305465 -0.108758435 -0.049240664 0.06304752 0.117561065 -0.2982347 -0.10060933 -0.09384795
-0.085944906 0.16756146 -0.0033517752 -0.008873724 0.24226841 0.13115193 -0.048156716 -0.3430928
0.19086888 -0.051552918 0.014475539 -0.053592 -0.07548945 0.0864778 -0.12243833 0.09175765
0.0057140295 -0.084089056 -0.030320931 0.114526615 -0.14477302 0.20026967 0.19073756 -0.22446321
-0.0971715 -0.21062309 -0.07456252 -0.06765133 -0.022582311 -0.025524434 -0.020101674 0.0009045339
-0.26370752 0.23585632 -0.06618185 -0.14218485 -0.16390471 -0.05529511 -0.18171999 0.07688639
-0.024224173 -0.13023786 0.051321562 -0.13570562 -0.062905826 0.16992848 0.055662766 -0.0617922
-0.182314 -0.08002186 0.28265497 0.011593126 0.06181621 -0.19579545 -0.3876015 -0.20753345
-0.21809514 -0.08474088 -0.19887188 0.220777 0.086829714 -0.08041063 -0.19055651 0.017067296
-0.12269439 0.04610885 -0.044128302 -0.009696495 0.05402522 -0.083802044 0.035664044 -0.20834695
0.16065922 0.084843956 0.18118319 -0.06738071 0.06371316 0.037307248 -0.02453196 0.13479754
-0.07769253 0.05187498 -0.21386036 0.013916321 0.09849072 0.06507587 -0.21629076 -0.06581433
0.024852507 -0.073455915 -0.08703187 -0.038774908 0.050739355 -0.10501448 -0.039678987 0.090593226
-0.08864186 0.023680788 -0.08709113 -0.17139357 0.09319045 -0.061170384 -0.23736146 -0.111505926
0.07885424 0.07553058 -0.044844456 -0.0022567583 -0.08286075 0.051959652 -0.053562734 0.053745963
-0.030399727 -0.051432434 -0.032057274 -0.1634024 -0.046993103 -0.031017782 -0.08534306 0.15788473
-0.13197817 0.08056836 -0.105471216 0.1106169 -0.084384724 0.014339848 -0.16499999 -0.14669724
-0.18572786 -0.01624375 0.034199815 0.055267457 0.031807438 -0.012017797 -0.16464202 -0.14778551
-0.038699344 -0.15043668 0.17101972 -0.090304464 -0.17928559 0.11045119 0.044715665 0.16072509
00000000: c659 3b3e fa4e 26be f0b1 7438 7b88 053d
00000010: b2c2 863d e66b 723d 4c74 193e 5333 0cbe
00000020: 6722 403d 476f cebd 823e 253e a8b2 a93d
00000030: 44dc 483d 0bad 4abe 65cc 41be 2a9a 31bc
00000040: dde2 28be bc4b 3ebe dcb5 16be 45e7 30bd
00000050: d566 bc3b bea7 f2bd 2394 0b3e dfca edbd
00000060: c0a7 1bbc 1337 673e a605 7b3d d145 acbd
00000070: be11 c4bc 8384 4c3d be5a 2c3c 7a6f b73d
00000080: 9463 a23d 1041 e43c ab8b c53d 0f9d 36be
00000090: bb49 3c3e ca1f 143e 6eb5 d8bd a43c b43d
000000a0: b54c 19be 014d 0ebd eba6 093e 5910 97bd
000000b0: 404f 2e3e eaad 11bc 9d60 043d 10b9 20be
000000c0: 0bc6 9b3c e80e f3bd 8efd f03c e233 053d
000000d0: ccac 16be 327c 66be e6ab 813c 9555 1f3c
000000e0: 47ec 94bd 3ab8 d63b bcdf cd3d 5e8b 06be
000000f0: 9b25 cfbd 79b8 a93d 8749 813d d20d cabd
00000100: 9985 26be 7c43 96bd 1379 babd 3318 973d
00000110: da9d acbd 8400 a63d d1ee 893d 3f2a cd3c
00000120: 2aa3 3b3d 2f04 94be 7b7f 0b3e 6625 733e
00000130: 7d80 54bb bddd 8dbc 96bf e93c 2a8c 663e
00000140: 6100 42be be1e b63d 7bfb d9bd cb4b d3bd
00000150: dbae 8f3e 2349 00bd 8d49 d0bd 3e40 ec3d
00000160: 373f a63d d737 ba3d 93d1 31bc 3866 5f3d
00000170: 8bd2 88be 1207 e33d 4037 0ebe ea24 efbd
00000180: ea5c 99be fd92 00be 7735 713d 9680 2c3d
00000190: 62fc 48bd 6cc6 2abe 2795 3cbe 205d dfbc
000001a0: 0434 7f3d bebc debd 94b0 49bd 0f1f 813d
000001b0: dbc3 f03d 38b2 98be 440c cebd 5b33 c0bd
000001c0: e203 b0bd 3b95 2b3e 75a9 5bbb 1963 11bc
000001d0: 3615 783e b14c 063e fa3f 45bd dca9 afbe
000001e0: 2273 433e 2729 53bd d02a 6d3c 4983 5bbd
000001f0: 369a 9abd 461b b13d f2c0 fabd 6feb bb3d
00000200: c13c bb3b e236 acbd 9a63 f8bc ee8c ea3d
00000210: 613f 14be 7e13 4d3e b550 433e afd9 65be
00000220: da01 c7bd 94ad 57be 3cb4 98bd c88c 8abd
00000230: 8afe b8bc 9e18 d1bc 44ac a4bc 3e1e 6d3a
00000240: ac04 87be 5284 713e 5a8a 87bd e898 11be
00000250: a3d6 27be 207d 62bd ce14 3abe 9d76 9d3d
00000260: c671 c6bc 135d 05be 8f36 523d 6af6 0abe
00000270: c5d4 80bd bb01 2e3e a4fe 633d d119 7dbd
00000280: 85b0 3abe 80e2 a3bd 27b8 903e 18f1 3d3c
00000290: ff32 7d3d 9a7e 48be b473 c6be a683 54be
000002a0: 5554 5fbe a08c adbd 12a5 4bbe 5e13 623e
000002b0: c7d3 b13d 54ae a4bd 3f21 43be b7d0 8b3c
000002c0: 3247 fbbd a2dc 3c3d e1bf 34bd 0cde 1ebc
000002d0: 8d49 5d3d 68a0 abbd 7614 123d e758 55be
000002e0: da83 243e abc2 ad3d 1688 393e e6fe 89bd
000002f0: 0c7c 823d 7ccf 183d 40f7 c8bc 5e08 0a3e
00000300: 431d 9fbd dc7a 543d 36fe 5abe 4801 643c
00000310: 81b5 c93d 7f46 853d 537b 5dbe aac9 86bd
00000320: 7c97 cb3c 0e70 96bd c43d b2bd 70d2 1ebd
00000330: 12d4 4f3d d511 d7bd 6f86 22bd f188 b93d
00000340: dd89 b5bd 36fe c13c d65c b2bd cc81 2fbe
00000350: a2da be3d cc8d 7abd e20e 73be 385d e4bd
00000360: 557e a13d c7af 9a3d d2ae 37bd 1fe6 13bb
00000370: e6b2 a9bd a5d3 543d 9964 5bbd ba24 5c3d
00000380: d908 f9bc d1aa 52bd 7d4e 03bd f552 27be
00000390: d77b 40bd 0119 febc 58c8 aebd 89ac 213e
000003a0: 4925 07be 0601 a53d 4b01 d8bd 1d8b e23d
000003b0: e6d1 acbd aff1 6a3c c2f5 28be cd37 16be
000003c0: 722f 3ebe 9d11 85bc 1b15 0c3d 2160 623d
000003d0: 8448 023d 4be6 44bc eb97 28be 1655 17be
000003e0: 3483 1ebd 130c 1abe cb1f 2f3e 8cf1 b8bd
000003f0: a496 37be 3c34 e23d c627 373d 1e95 243e

lstm.bias_ih_l0 f4 [256]
-0.07789352 0.041611057 0.14183182 -0.021754134 -0.07259945 0.092778094 0.046173695 0.15791857
-0.083660066 0.08046501 -0.037903838 0.13896805 0.08967543 0.031278204 0.10298628 0.101958
-0.01560652 -0.07823184 0.11062124 -0.063694455 0.16122866 0.010797823 0.07577595 0.10064528
-0.017759359 0.10682244 -0.07556952 0.12993908 0.13322067 0.15943848 0.18547948 0.0946319
0.10115504 0.04468425 -0.004598677 0.017468613 -0.026069576 0.00461744 -0.037355185 -0.010010727
0.061325658 -0.024177628 -0.063767456 0.08569587 0.019610882 0.041683324 0.023971163 0.10171213
0.10577691 0.08892131 -0.035036713 -0.008404572 0.104927026 -0.08252438 -0.087640814 -0.03296006
-0.06496887 0.15318637 0.023790734 0.16983038 -0.023918185 0.0034743606 0.011851008 0.17337422
0.029447602 -0.049903054 0.18396305 0.029298497 0.11943306 0.11859076 0.0046330416 0.08819606
-0.035290927 -0.036170453 0.01973169 0.054887716 -0.014033547 -0.01089333 -0.025578093 0.13929708
0.05387761 -0.043566514 -0.029131338 -0.0067096804 0.06988344 0.03135189 -0.0047826683 -0.027023088
-0.0062688966 0.16845897 -0.05690639 0.12224732 0.07515579 0.0076118037 -0.023943491 0.05464488
-0.030628083 0.019796863 0.008381401 0.07438005 0.090638846 -0.0056592375 -0.038522255 0.121235095
0.046599112 0.028526777 -0.06827261 0.061355032 0.040339522 0.0903587 -0.0040537217 0.10677884
0.105136976 0.050581444 0.12569949 -0.081670016 0.1698089 -0.031311948 0.07389125 0.14447272
0.051047567 0.13308181 0.12213709 0.20211367 -0.051645115 0.17659988 0.05189218 0.11058096
-0.029512025 -0.010819806 -0.024578549 -0.010884567 -0.1171991 0.09676052 0.06250461 -0.1163727
0.063804984 -0.10547974 -0.07943098 0.10563502 0.057304 0.10426269 0.10030471 0.033746812
-0.10152701 0.088848926 -0.035288934 -0.082380675 -0.026358636 0.11098762 -0.054651454 0.0827674
0.054085962 -0.04677066 0.032553468 0.113403946 0.07689833 0.01975878 0.031023107 0.060296815
-0.06928825 -0.03784641 0.09136488 0.12187205 0.008099756 -0.044649936 -0.0839659 0.030051634
-0.102594554 -0.049892887 -0.036377482 0.0761257 0.04855133 -0.026226684 0.011575057 -0.07767117
-0.11477527 -0.08556299 -0.0042614187 0.02621218 0.0821784 0.053728424 -0.017197553 -0.039651357
0.11547103 -0.13648324 -0.06039393 -0.016005285 -0.15159635 0.10533513 -0.0436044 0.12089392
-0.011470999 -0.003979074 0.083678804 -0.024355687 -0.07728467 0.06505572 0.13719513 0.12699385
0.13228975 0.00066488225 0.051764403 0.02360124 0.121588275 0.06876318 -0.06438609 0.05233121
-0.06407762 0.03428162 0.08748065 -0.027241338 0.019338124 -0.0016652833 -0.046040177 0.15368734
0.0062685837 0.037254915 0.05563093 0.011237593 0.08129428 -0.083775975 0.13777646 0.11213913
-0.06652794 0.15487255 0.175889 0.0891943 0.02594204 0.025866488 0.1412543 0.14882301
-0.037996896 -0.014695728 0.13573855 -0.013145187 0.115413174 -0.048759792 0.0683531 0.014138524
0.13062808 -0.050952353 0.10195811 -0.065721706 -0.0590017 -0.10717141 0.028226217 0.0955313
0.124491766 0.20253477 0.080941126 0.046825543 0.10669606 -0.06935043 0.1541162 -0.058501296
00000000: a386 9fbd 5b70 2a3d 5c3c 113e ba35 b2bc
00000010: 05af 94bd 7102 be3d a120 3d3d 68b5 213e
00000020: f855 abbd d7ca a43d 0e41 1bbd a44d 0e3e
00000030: c0a7 b73d 931d 003d 79ea d23d 5bcf d03d
00000040: 7db2 7fbc 0438 a0bd 648d e23d 3d72 82bd
00000050: 2019 253e 5ae9 303c 6c30 9b3d 1d1f ce3d
00000060: 137c 91bc b9c5 da3d 31c4 9abd c00e 053e
00000070: 006b 083e d743 233e 55ee 3d3e 5fce c13d
00000080: 602a cf3d d506 373d 80b0 96bb 561a 8f3c
00000090: dd8f d5bc e54d 973b c001 19bd 0804 24bc
000000a0: 9d30 7b3d 2910 c6bc 8398 82bd 5181 af3d
000000b0: 00a7 a03c 22bc 2a3d 2c5f c43c 734e d03d
000000c0: 91a1 d83d 601c b63d a882 0fbd 54b3 09bc
000000d0: fbe3 d63d 8b02 a9bd 077d b3bd 2101 07bd
000000e0: 660e 85bd e3dc 1c3e c9e4 c23c 04e8 2d3e
000000f0: 12f0 c3bc 19b2 633b bb2a 423c 0389 313e
00000100: 193c f13c 2567 4cbd cf60 3c3e 6703 f03c
00000110: 5299 f43d b6df f23d c5d0 973b 23a0 b43d
00000120: 388d 10bd 7827 14bd 5aa4 a13c f1d1 603d
00000130: f6ec 65bc f079 32bc 2689 d1bc e5a3 0e3e
00000140: c5ae 5c3d cd72 32bd d8a4 eebc e1dc dbbb
00000150: 0d1f 8f3d d76a 003d eeb7 9cbb 865f ddbc
00000160: 516b cdbb 8280 2c3e ad16 69bd ce5c fa3d
00000170: 47eb 993d 706c f93b 2425 c4bc 4fd3 5f3d
00000180: bfe7 fabc 082d a23c 2552 093c 9154 983d
00000190: dca0 b93d 2071 b9bb 83c9 1dbd 1b4a f83d
000001a0: b6de 3e3d fdb0 e93c 83d2 8bbd 6a4f 7b3d
000001b0: 0e3b 253d fb0d b93d 15d5 84bb ddae da3d
000001c0: 0e52 d73d 7d2e 4f3d 5eb7 003e 9c42 a7bd
000001d0: 62e2 2d3e f540 00bd 4c54 973d a8f0 133e
000001e0: 4117 513d 9946 083e 0323 fa3d e3f6 4e3e
000001f0: d489 53bd 99d6 343e e58c 543d 4578 e23d
00000200: 34c3 f1bc 8e45 31bc f458 c9bc 2f55 32bc
00000210: 1506 f0bd 612a c63d 6b02 803d cf54 eebd
00000220: 30ac 823d c305 d8bd b6ac a2bd 2c57 d83d
00000230: 99b7 6a3d ad87 d53d 8e6c cd3d 193a 0a3d
00000240: 65ed cfbd 6df6 b53d 218b 10bd 33b7 a8bd
00000250: 11ee d7bc 7a4d e33d 34da 5fbd f481 a93d
00000260: 3e89 5d3d 9792 3fbd c956 053d 5440 e83d
00000270: df7c 9d3d 2add a13c 2c24 fe3c cbf9 763d
00000280: ffe6 8dbd d604 1bbd 831d bb3d 0e98 f93d
00000290: d7b4 043c dae2 36bd 50f6 abbd d82e f63c
000002a0: 181d d2bd 7c5c 4cbd 8e00 15bd cae7 9b3d
000002b0: c2dd 463d 58d9 d6bc 4fa5 3d3c 1012 9fbd
000002c0: 4c0f ebbd a63b afbd 5fa3 8bbb edba d63c
000002d0: 264d a83d 5612 5c3d e2e1 8cbc 7669 22bd
000002e0: 137c ec3d 43c2 0bbe a05f 77bd 841d 83bc
000002f0: 133c 1bbe f2b9 d73d 879a 32bd 3b97 f73d
00000300: dbf0 3bbc e462 82bb cb5f ab3d 9485 c7bc
00000310: 6d47 9ebd ef3b 853d e17c 0c3e ad0a 023e
00000320: f776 073e 7e4b 2e3a e906 543d 6357 c13c
00000330: 4603 f93d b6d3 8c3d dbdc 83bd 4059 563d
00000340: 213b 83bd e26a 0c3d 0e29 b33d 3a29 dfbc
00000350: fc6a 9e3c a345 daba a094 3cbd 3760 1d3e
00000360: b168 cd3b 9c98 183d 42dd 633d e21d 383c
00000370: 9e7d a63d bd92 abbd 4615 0d3e 33a9 e53d
00000380: cd3f 88bd e996 1e3e 3f1c 343e 80ab b63d
00000390: 6784 d43c f5e5 d33c f8a4 103e 0f65 183e
000003a0: a2a2 1bbd 5ac6 70bc 0cff 0a3e e95e 57bc
000003b0: be5d ec3d 59b8 47bd b6fc 8b3d 45a5 673c
000003c0: 5ec3 053e 6ab3 50bd 6acf d03d 1a99 86bd
000003d0: c4ab 71bd af7c dbbd ab3a e73c eaa5 c33d
000003e0: 8af5 fe3d 4665 4f3e 76c4 a53d 24cc 3f3d
000003f0: 7783 da3d 9907 8ebd a3d0 1d3e 0e9f 6fbd

lstm.bias_hh_l0 f4 [256]
0.11125446 0.025951043 0.17120582 0.094107695 0.05107942 0.12697634 -0.015823307 0.074833654
0.031025592 0.09623843 0.07824539 0.17924745 0.025582373 -0.027378395 0.07279271 0.108968414
0.14566357 -0.05483092 0.047553975 0.0688175 0.14309835 0.057739936 -0.084300034 0.10689589
0.011906533 0.12172296 -0.028044596 -0.07047348 0.1457723 0.052561592 0.07544558 0.1354289
0.12902907 -0.009472061 0.055195145 0.03128545 -0.06567759 -0.053609677 -0.029889788 0.04094747
0.019206928 0.044237666 0.13382775 0.035940196 0.20216832 -0.105823986 0.019279364 0.016441183
0.041232064 0.11328526 0.1493457 0.027793126 0.10150238 0.10676717 0.13664477 0.13027887
-0.05810447 0.18121643 0.09676371 0.20619905 0.0833534 0.06958584 0.040152177 0.13401245
0.11222626 0.17604639 -0.019192416 0.0845317 0.10739457 0.054799326 -0.0035597056 0.13298424
0.04741146 0.15216587 0.05910476 0.10320749 -0.05358547 -0.013431035 -0.09559388 0.06429894
0.10529865 -0.10477837 0.09368416 -0.07084685 0.15848638 -0.103258625 -0.053830177 -0.038523726
0.121681206 -0.05724257 0.053751916 -0.10508992 0.07764745 -0.0037890263 -0.002724872 -0.024146372
0.096367575 0.10323196 -0.057155814 -0.050799657 -0.03498622 -0.09140039 0.004519635 0.16959439
-0.062381923 0.16317949 0.15595178 0.06575116 0.1192082 0.03484519 0.12780526 0.09588442
-0.102174506 0.054275174 0.026997907 -0.082800224 0.18566024 -0.03141326 0.047126416 -0.009936167
0.113931835 0.14294842 0.020145237 0.026013717 0.06893589 -0.049375106 0.0852207 -0.06105334
-0.10410527 0.03212878 -0.07213282 0.05713759 -0.08959357 -0.033209566 0.050301272 0.0725083
-0.02592029 0.03175697 -0.12488671 -0.026883518 0.14657675 0.013561079 -0.081223994 0.009854637
-0.00034211663 0.044156596 -0.008930923 -0.086727895 0.039037813 0.102581605 -0.050059788 0.06621927
0.061391972 0.0329752 -0.004924324 0.0072621494 -0.14540008 0.09420504 -0.055412803 -0.11211792
-0.0984749 0.021866573 0.0010983411 -0.03928217 0.062152945 -0.09377433 -0.06437133 0.099873744
-0.07189193 -0.10771582 -0.072060816 -0.032973025 -0.057145253 -0.08855829 -0.003266585 -0.029460454
0.062214173 0.10427794 -0.09191135 0.056218635 -0.13925806 -0.116248235 -0.106968924 -0.053211827
-0.09028315 0.044800762 0.048288316 -0.15734708 -0.14348798 -0.028709829 0.085853 0.04780478
0.01747541 0.19026622 0.12250049 0.11595634 -0.052651938 0.07103952 0.03985424 0.06349967
0.06390181 0.12170254 -0.018662896 -0.05708951 -0.10682638 0.09251603 -0.028772023 0.08819876
0.06286222 0.054765556 0.0061377143 0.0971423 0.21674176 0.050965477 0.046706915 0.08523273
0.07188584 0.09698969 0.014109252 0.14406478 0.059613988 0.104068525 0.17984433 -0.07789963
0.052421194 -0.07018945 -0.0013202098 0.10532379 -0.0662362 0.15617934 0.13859794 0.0044598626
-0.07819121 0.03348551 -0.089011215 0.11769162 0.11615671 0.06883139 0.028261578 0.02753111
-0.051357698 0.03874199 0.1125886 0.025995746 0.020896377 -0.038804322 -0.02911538 0.101183385
0.12247528 0.028623033 -0.034504972 0.15227695 0.117566146 -0.07178619 -0.03855432 0.043523803
00000000: 61d9 e33d 4897 d43c 9450 2f3e 89bb c03d
00000010: a738 513d 1606 023e e19f 81bc 6342 993d
00000020: 6229 fe3c a718 c53d 1e3f a03d a58c 373e
00000030: 2092 d13c a848 e0bc 5814 953d d52a df3d
00000040: d528 153e 6396 60bd f5c7 423d 30f0 8c3d
00000050: 6088 123e b680 6c3d 7fa5 acbd 3bec da3d
00000060: 9e13 433c e349 f93d c8bd e5bc 6654 90bd
00000070: 5545 153e d34a 573d 3683 9a3d e0ad 0a3e
00000080: 3220 043e b430 1bbc 4e14 623d 2c25 003d
00000090: f981 86bd d295 5bbd 6edb f4bc 89b8 273d
000000a0: d957 9d3c 8e32 353d 240a 093e 0736 133d
000000b0: 3605 4f3e 3fba d8bd c2ef 9d3c a9af 863c
000000c0: f4e2 283d 1a02 e83d 14ee 183e 69ae e33c
000000d0: 7be0 cf3d bfa8 da3d 9bec 0b3e d367 053e
000000e0: f4fe 6dbd cd90 393e 0d2c c63d d825 533e
000000f0: 30b5 aa3d 0583 8e3d 9c76 243d 8f3a 093e
00000100: e2d6 e53d 8145 343e 6a39 9dbc f51e ad3d
00000110: aff1 db3d 4275 603d f349 69bb 052d 083e
00000120: 8532 423d 5fd1 1b3e d517 723d 735e d33d
00000130: 707c 5bbd d80d 5cbc b9c6 c3bd 2aaf 833d
00000140: d2a6 d73d 0b96 d6bd 7bdd bf3d 2718 91bd
00000150: 414a 223e 4279 d3bd 087d 5cbd 0ecb 1dbd
00000160: ff33 f93d 2f77 6abd f82a 5c3d 6239 d7bd
00000170: a005 9f3d 5051 78bb c493 32bb 9dce c5bc
00000180: 5d5c c53d 476b d33d 371c 6abd 4d13 50bd
00000190: b64d 0fbd 2130 bbbd 7219 943b 27aa 2d3e
000001a0: 3084 7fbd 8618 273e d3b1 1f3e 8ba8 863d
000001b0: 6e23 f43d d4b9 0e3d 62df 023e 0d5f c43d
000001c0: de40 d1bd a54f 5e3d b72a dd3c 2a93 a9bd
000001d0: b81d 3e3e 31ab 00bd a107 413d 4ecb 22bc
000001e0: 1855 e93d 1261 123e a007 a53c b81a d53c
000001f0: 432e 8d3d 8d3d 4abd 3188 ae3d 1113 7abd
00000200: 2535 d5bd 7899 033d 5fba 93bd 1b09 6a3d
00000210: d57c b7bd c106 08bd b508 4e3d 3b7f 943d
00000220: ca56 d4bc 9913 023d 9ac4 ffbd d33a dcbc
00000230: 3718 163e 4a2f 5e3c c458 a6bd 5875 213c
00000240: 1e5e b3b9 8cdd 343d 0253 12bc 659e b1bd
00000250: 1de6 1f3d 4e16 d23d 7e0b 4dbd f89d 873d
00000260: 2676 7b3d 0111 073d 395c a1bb 53f7 ed3b
00000270: c2e3 14be 92ee c03d 89f8 62bd 149e e5bd
00000280: 35ad c9bd 8721 b33c 36f6 8f3a 57e6 20bd
00000290: 1694 7e3d c20c c0bd 1ed5 83bd 9b8a cc3d
000002a0: 143c 93bd 1d9a dcbd 9f94 93bd b90e 07bd
000002b0: 2411 6abd 0c5e b5bd 3414 56bb 0d57 f1bc
000002c0: 4ad4 7e3d ac8f d53d 053c bcbd 8345 663d
000002d0: aa99 0ebe 8e13 eebd 8612 dbbd a5f4 59bd
000002e0: 5fe6 b8bd 0181 373d f8c9 453d 981f 21be
000002f0: 83ee 12be e030 ebbc b3d3 af3d f2ce 433d
00000300: 9728 8f3c 26d5 423e 89e1 fa3d 857a ed3d
00000310: 8fa9 57bd 2b7d 913d 333e 233d 1d0c 823d
00000320: f4de 823d 2e3f f93d eee2 98bc b1d6 69bd
00000330: cac7 dabd 0b79 bd3d 4eb3 ebbc 8da1 b43d
00000340: e8bd 803d d951 603d e11e c93b 8bf2 c63d
00000350: 8df1 5d3e 2dc1 503d c04f 3f3d 7f8e ae3d
00000360: e238 933d 88a2 c63d 7e2a 673c b885 133e
00000370: cc2d 743d e121 d53d 1d29 383e d789 9fbd
00000380: 9bb7 563d 7dbf 8fbd e40a adba 00b4 d73d
00000390: d8a6 87bd 7aed 1f3e 9eec 0d3e 0a24 923b
000003a0: b722 a0bd 1a28 093d 834b b6bd 4e08 f13d
000003b0: 92e3 ed3d 79f7 8c3d d384 e73c ec88 e13c
000003c0: 735c 52bd ecaf 1e3d da94 e63d 08f5 d43c
000003d0: e12e ab3c 48f1 1ebd 6183 eebc 3c39 cf3d
000003e0: 52d4 fa3d da7a ea3c 1655 0dbd 7dee 1b3e
000003f0: 85c6 f03d a304 93bd 22eb 1dbd 0446 323d

lstm.weight_ih_l1 f4 [256, 64]
-0.11737063 0.024866665 -0.055013258 -0.0809545 -0.1355198 0.09853488 0.048477788 0.086866796
0.14490439 -0.030121109 0.033686165 0.046176706 0.107210815 -0.033988677 -0.035903722 0.017036077
-0.013946726 0.08886022 0.12699394 0.071458414 -0.15453997 0.024275977 -0.055769112 0.082883924
0.028567785 0.069558084 0.062170923 0.10788132 -0.03967006 0.05880893 0.10234972 0.07844439
-0.07806598 0.031460673 -0.026470352 0.116610885 -0.034500398 -0.024718914 -0.13731596 0.0574614
-0.11920179 -0.13306928 -0.07528078 0.022641288 0.047590263 0.021050304 0.065844886 -0.14254443
0.071230054 0.11159872 -0.08333654 -0.06817466 0.09943949 0.107205145 0.024650047 -0.15673973
-0.031785198 0.049798224 -0.12910569 0.0626903 0.041919354 0.017338313 -0.12814741 -0.06786167
0.13311364 0.110101834 0.15580437 -0.087892555 -0.0472755 0.037833206 -0.048723232 0.045258462
0.0059051365 0.033442054 -0.109515384 -0.01709409 -0.13384743 0.14049491 0.026820542 -0.03284127
-0.21281986 0.15864013 0.11817121 -0.05052394 -0.067364536 -0.03345281 -0.0781331 -0.06847387
0.109309375 0.11157599 -0.07797851 0.17342405 0.003649099 -0.06929767 -0.016127707 0.083354875
-0.026735764 0.094701156 0.006563265 0.11241077 -0.065952994 0.04996576 0.06449727 -0.07393745
-0.07672423 -0.032022335 -0.017632052 0.012523596 -0.13132079 0.02340834 0.059788454 -0.07615272
-0.028273908 -0.028017512 0.019457122 0.05920795 0.15304905 0.04915135 0.047212962 -0.013006068
0.09797323 -0.06895113 0.04416508 0.11736861 0.0027470656 -0.046322584 0.040048715 0.061229043
0.0014540891 0.006449556 -0.095255785 -0.01660017 -0.18193305 -0.0029776888 -0.029395143 -0.04943863
0.1399912 0.015767988 0.036646042 0.09960489 0.100332655 0.11437864 0.04908738 0.12173587
-0.1681807 0.08943642 0.065922424 -0.17123912 -0.15928136 0.008835384 0.01251793 0.123623155
-0.083605394 0.13401309 0.004826776 -0.0135536315 -0.047966454 0.09710666 0.07340899 0.00095156545
-0.13779399 -0.033394285 -0.05132708 -0.07843244 0.03770656 -0.086954616 -0.1865837 -0.14153358
0.11204773 0.054577224 -0.115993954 -0.01166649 0.059003178 -0.045349743 -0.037995834 -0.074761175
0.030741334 -0.071898706 -0.17651303 0.072193235 0.098012686 0.07013837 -0.018681904 -0.12390449
-0.047778998 -0.091653086 -0.112588614 0.07147164 -0.0733186 -0.08081721 0.007399192 0.14351289
-0.01819697 -0.040202096 0.17091481 -0.08807919 0.077711806 -0.1297951 0.15415771 -0.043832354
0.15879254 0.0040348554 0.056599606 0.07593057 -0.120196424 0.055376004 0.15809369 -0.10977257
-0.056803584 0.08407058 0.08817166 -0.098054655 -0.070821755 0.044818014 -0.04430882 -0.011905305
0.16138206 0.15290856 -0.062265977 0.039875474 -0.043067496 -0.004172451 0.00584872 0.1158737
0.066491894 0.025268577 -0.015896972 0.10164672 -0.05306881 -0.10336411 -0.05252182 -0.0846446
-0.09057366 0.08110923 0.0073660486 0.05284601 -0.12330251 0.11354146 0.14237173 -0.08739759
0.09737119 -0.01316381 -0.09777062 0.060534753 -0.034934606 -0.09656668 0.00946195 0.153679
0.10624754 0.07631583 0.037769075 0.08279042 0.022415914 -0.047553584 0.06323475 0.12216835
00000000: 0360 f0bd 2db5 cb3c 9555 61bd 79cb a5bd
00000010: b4c5 0abe a8cc c93d a590 463d 38e7 b13d
00000020: d161 143e 8bc0 f6bc 81fa 093d c923 3d3d
00000030: 5891 db3d b637 0bbd c80f 13bd 3e8f 8b3c
00000040: cf80 64bc 59fc b53d b30a 023e ca58 923d
00000050: ba3f 1ebe 6ade c63c 276e 64bd 0cbf a93d
00000060: fd06 ea3c 7874 8e3d f0a6 7e3d e2f0 dc3d
00000070: 137d 22bd a2e1 703d bb9c d13d 74a7 a03d
00000080: 0ee1 9fbd e8dc 003d 5ad8 d8bc b0d1 ee3d
00000090: 4a50 0dbd 527f cabc 8e9c 0cbe a55c 6b3d
000000a0: 1120 f4bd 5043 08be cf2c 9abd 397a b93c
000000b0: 02ee 423d b071 ac3c afd9 863d 2bf7 11be
000000c0: 10e1 913d df8d e43d 59ac aabd 289f 8bbd
000000d0: eea6 cb3d 5f8e db3d e5ee c93c 6180 20be
000000e0: 3231 02bd 39f9 4b3d 4834 04be c663 803d
000000f0: a1b3 2b3d 1409 8e3c 1339 03be 0ffb 8abd
00000100: f14e 083e 127d e13d 2e8b 1f3e 0301 b4bd
00000110: f4a3 41bd fef6 1a3d 0392 47bd f060 393d
00000120: e07f c13b 89fa 083d 9a49 e0bd e808 8cbc
00000130: 4d0f 09be e6dd 0f3e c1b6 db3c 9184 06bd
00000140: 73ed 59be 8f72 223e bf03 f23d 31f2 4ebd
00000150: 6bf6 89bd d005 09bd 3f04 a0bd 073c 8cbd
00000160: 98dd df3d f481 e43d 32b3 9fbd 1396 313e
00000170: b925 6f3b f0eb 8dbd 411e 84bc f6b5 aa3d
00000180: f604 dbbc aef2 c13d a810 d73b 9e37 e63d
00000190: 5d12 87bd e6a8 4c3d 2517 843d 856c 97bd
000001a0: 9821 9dbd da29 03bd 1871 90bc c52f 4d3c
000001b0: f578 06be d9c2 bf3c bde4 743d f5f5 9bbd
000001c0: af9e e7bc fb84 e5bc 8b64 9f3c 0984 723d
000001d0: e4b8 1c3e ed52 493d 6162 413d 6717 55bc
000001e0: 30a6 c83d 4036 8dbd 71e6 343d f45e f03d
000001f0: 1d08 343b c0bc 3dbd 1f0a 243d 4ecb 7a3d
00000200: 2297 be3a cc56 d33b 7715 c3bd 14fd 87bc
00000210: a84c 3abe 5425 43bb 15ce f0bc 2980 4abd
00000220: da59 0f3e de2b 813c 291a 163d a6fd cb3d
00000230: 357b cd3d 593f ea3d d90f 493d a850 f93d
00000240: 9037 2cbe 712a b73d 5602 873d 4f59 2fbe
00000250: a71a 23be 49c2 103c 0118 4d3c 232e fd3d
00000260: 4e39 abbd ba3a 093e ef29 9e3b 0d10 5ebc
00000270: 7978 44bd dbdf c63d 7457 963d 7a72 793a
00000280: de19 0dbe 72c8 08bd 583c 52bd 30a1 a0bd
00000290: 3272 1a3d 4315 b2bd cc0f 3fbe 2eee 10be
000002a0: 4879 e53d 5e8c 5f3d 3d8e edbd ce24 3fbc
000002b0: 51ad 713d a7c0 39bd 85a1 1bbd 631c 99bd
000002c0: 40d5 fb3c a13f 93bd d5bf 34be 0cda 933d
000002d0: e0ba c83d b5a4 8f3d cb0a 99bc a3c1 fdbd
000002e0: e9b3 43bd 9db4 bbbd dc94 e6bd b95f 923d
000002f0: 1028 96bd 7e83 a5bd ec74 f23b 0bf5 123e
00000300: d011 95bc f4aa 24bd 4b04 2f3e dd62 b4bd
00000310: 5e27 9f3d 02e9 04be 85db 1d3e 8e89 33bd
00000320: 839a 223e d236 843b fdd4 673d 7d81 9b3d
00000330: 8b29 f6bd f3d1 623d 50e3 213e 71d0 e0bd
00000340: e0aa 68bd 322d ac3d 5893 b43d e1d0 c8bd
00000350: ff0a 91bd 1893 373d 2a7d 35bd 780e 43bc
00000360: 5741 253e 1094 1c3e 9c0a 7fbd 7754 233d
00000370: 8b67 30bd 0eb9 88bb 9fa6 bf3b 314f ed3d
00000380: e72c 883d 0c00 cf3c 5e3a 82bc 282c d03d
00000390: ae5e 59bd 90b0 d3bd 1f21 57bd 265a adbd
000003a0: af7e b9bd 991c a63d e55e f13b 0f75 583d
000003b0: 0786 fcbd 6d88 e83d e5c9 113e 82fd b2bd
000003c0: 8c6a c73d 05ad 57bc f63b c8bd 4af3 773d
000003d0: 9717 0fbd c0c4 c5bd 4b06 1b3c 075e 1d3e
000003e0: 4f98 d93d 794b 9c3d bfb3 1a3d 068e a93d
000003f0: 94a1 b73c 8cc7 42bd 3881 813d 6633 fa3d

lstm.weight_hh_l1 f4 [256, 64]
0.013520516 0.12263023 0.10467183 -0.06671098 0.15065728 0.012750568 -0.011028611 -0.029946337
-0.008730141 -0.075628966 0.07839075 0.11257488 -0.016847614 -0.13921891 0.0034660222 0.085646994
-0.062344354 -0.10203393 -0.066317976 -0.07444187 0.069319785 -0.0059267236 0.051677693 -0.074008435
0.07076822 0.1193403 0.0018774569 0.13234362 -0.053867783 0.16201113 0.032664604 -0.08376907
0.12985048 0.01816893 0.15384303 -0.0010325939 -0.033095274 0.0039525516 0.0011966935 0.10485541
-0.14600092 0.0018397107 0.048809435 -0.08152371 0.054269418 0.07922135 0.14601655 -0.0142505905
-0.09503995 -0.04413095 -0.121571414 -0.16469847 0.16667329 -0.14187947 0.07990859 -0.05714203
0.032409567 -0.14124523 -0.03435338 -0.004914506 -0.12496349 -0.026501974 -0.06929722 0.10232768
0.05050992 -0.003944472 -0.07551289 0.036471695 -0.08114093 -0.028252719 -0.06320633 -0.10942291
0.054523196 0.0993011 0.0028530308 0.0422526 -0.051272195 -0.0129705435 -0.079013005 0.10412695
-0.043652978 -0.041887827 0.05681487 0.04757079 0.13558824 -0.09762584 0.010568768 -0.038338076
0.0068634967 -0.11263775 -0.006361286 0.16343483 -0.048971154 -0.08732109 0.021090254 0.061732363
-0.007172818 0.14820397 -0.07377845 0.14214101 -0.12201417 0.08114687 -0.06267614 0.033911612
0.11609229 0.028400766 0.033182662 0.11814241 0.04986452 0.059464984 -0.042665944 0.064634934
0.09635444 0.011414831 0.04568682 0.09598242 0.018591542 -0.039934896 0.10578488 -0.069541276
0.037729602 -0.09041966 0.054050766 -0.04995684 -0.009510535 -0.027646728 0.13373572 0.035638433
-0.03263741 0.018740237 -0.033502076 0.09322561 0.10744246 0.09681617 -0.13617493 0.033859763
-0.02260225 -0.051390734 0.084472485 0.042786397 -0.007355465 0.07494413 -0.07650033 0.115527205
0.030799193 0.09627177 0.038596448 -0.08836553 0.09675769 -0.09165251 -0.09341529 -0.0887339
0.033537112 -0.01495171 0.10595187 0.15418115 -0.2169572 0.12294436 -0.06682442 -0.05858795
-0.10214324 0.03188288 0.10080449 0.07135034 -0.009387302 0.12570874 0.13394648 -0.08066289
0.006855882 0.028803669 0.028711319 0.09331093 -0.04551156 -0.021082582 0.058284804 -0.027877092
0.030665511 0.046507247 0.049141288 -0.11608027 0.12363222 0.003722103 -0.016915455 -0.09119258
0.12945038 0.07486742 0.11784744 -0.14631139 -0.043157384 -0.008509512 0.0963637 0.14272697
-0.020292934 0.10098727 0.08089376 -0.081979685 -0.054323006 0.077591956 -0.072810665 -0.10421029
0.064635396 0.14299688 0.034428567 -0.073030815 0.00031649103 0.052681334 -0.0014501364 -0.02391784
-0.107998244 0.028901473 -0.062289026 -0.1802921 0.045915846 0.004505066 -0.08170868 -0.08459317
0.04924782 -0.1165346 -0.111400455 -0.0261547 -0.19311263 0.0793945 0.10932631 0.03145691
0.069481954 0.12325427 0.07072033 -0.07232212 -0.1074789 0.0012990822 -0.04245739 0.049422707
0.044244338 -0.06639165 -0.02506984 0.028861921 -0.059869595 0.020903375 -0.122148275 -0.114082366
0.064771034 0.0006551679 -0.019301252 0.006149889 -0.07383623 0.10474513 -0.10496981 0.041645866
0.0038338439 0.0996023 -0.11224215 -0.019130016 -0.02731405 -0.05071428 0.021639211 0.0019863348
00000000: 2885 5d3c 8f25 fb3d 2f5e d63d c49f 88bd
00000010: e745 1a3e c2e7 503c 59b1 34bc 0552 f5bc
00000020: de08 0fbc 5ce3 9abd 548b a03d a98d e63d
00000030: 0204 8abc 678f 0ebe 3426 633b b167 af3d
00000040: cb5c 7fbd 2af7 d0bd b8d1 87bd fb74 98bd
00000050: 88f7 8d3d f634 c2bb fdab 533d bc91 97bd
00000060: eeee 903d b068 f43d 0015 f63a 1685 073e
00000070: 77a4 5cbd 3fe6 253e 52cb 053d 1e8f abbd
00000080: 86f7 043e 02d7 943c 0789 1d3e 1a58 87ba
00000090: e98e 07bd 6884 813b 5fda 9c3a 6fbe d63d
000000a0: 4481 15be 7322 f13a 67ec 473d e7f5 a6bd
000000b0: 9c49 5e3d ce3e a23d 5d85 153e 4f7b 69bc
000000c0: 4ea4 c2bd a8c2 34bd 6ffa f8bd b7a6 28be
000000d0: 67ac 2a3e da48 11be 1da7 a33d c30d 6abd
000000e0: e5bf 043d 97a2 10be 21b6 0cbd dd09 a1bb
000000f0: dcec ffbd ab1a d9bc b3eb 8dbd 2d91 d13d
00000100: 7de3 4e3d a140 81bb 81a6 9abd 5863 153d
00000110: 372d a6bd 3f72 e7bc 5272 81bd 1e19 e0bd
00000120: b753 5f3d 605e cb3d eaf9 3a3b 1011 2d3d
00000130: cb02 52bd 6782 54bc 92d1 a1bd 8340 d53d
00000140: 77cd 32bd 9292 2bbd b6b6 683d 97d9 423d
00000150: a5d7 0a3e 0ef0 c7bd a028 2d3c 6308 1dbd
00000160: 2fe7 e03b 9fae e6bd 5672 d0bb 765b 273e
00000170: fa95 48bd 66d5 b2bd 78c5 ac3c 13db 7c3d
00000180: f509 ebbb c8c2 173e 2819 97bd 6a8d 113e
00000190: 91e2 f9bd 5530 a63d 595c 80bd e7e6 0a3d
000001a0: cbc1 ed3d b9a8 e83c 8bea 073d a6f4 f13d
000001b0: bd3e 4c3d 8e91 733d 7cc2 2ebd 525f 843d
000001c0: 7a55 c53d 4505 3b3c 1a22 3b3d 6e92 c43d
000001d0: 4a4d 983c c692 23bd bea5 d83d a86b 8ebd
000001e0: 5b8a 1a3d f12d b9bd 5664 5d3d 8b9f 4cbd
000001f0: 13d2 1bbc 647b e2bc 04f2 083e 9bf9 113d
00000200: ceae 05bd 2085 993c 7939 09bd 12ed be3d
00000210: cb0a dc3d 8e47 c63d 7171 0bbe 89b0 0a3d
00000220: 5b28 b9bc 177f 52bd e9ff ac3d ca40 2f3d
00000230: 1d06 f1bb 4f7c 993d 34ac 9cbd 8799 ec3d
00000240: 974e fc3c 222a c53d 4f17 1e3d fdf8 b4bd
00000250: e528 c63d 50b4 bbbd 8450 bfbd 1eba b5bd
00000260: 365e 093d 04f8 74bc 4bfd d83d aae1 1d3e
00000270: 072a 5ebe 41ca fb3d 3edb 88bd ebf9 6fbd
00000280: 7a30 d1bd 9f97 023d 9672 ce3d 2120 923d
00000290: 33cd 19bc cbb9 003e 4429 093e 9632 a5bd
000002a0: 4ea7 e03b acf5 eb3c 0034 eb3c cd19 bf3d
000002b0: 546a 3abd 61b5 acbc 0cbc 6e3d 805e e4bc
000002c0: 3d36 fb3c 627e 3e3d 6048 493d 7ebb edbd
000002d0: e432 fd3d 87ee 733b 4892 8abc 2dc3 babd
000002e0: a48e 043e 1754 993d 005a f13d a7d2 15be
000002f0: ccc5 30bd 7b6b 0bbc 555a c53d 0527 123e
00000300: 5e3d a6bc 6ad2 ce3d a1ab a53d f7e4 a7bd
00000310: cd81 5ebd 88e8 9e3d c21d 95bd 346c d5bd
00000320: 905f 843d c66d 123e f804 0d3d 2e91 95bd
00000330: b5ee a539 62c8 573d 8112 beba 59ef c3bc
00000340: 2f2e ddbd c8c2 ec3c c722 7fbd 7e9e 38be
00000350: 4112 3c3d 3c9f 933b e156 a7bd 2f3f adbd
00000360: 15b8 493d b1a9 eebd ec25 e4bd 6242 d6bc
00000370: 51bf 45be 9599 a23d 79e6 df3d f6d8 003d
00000380: 8e4c 8e3d bc6c fc3d d2d5 903d 9f1d 94bd
00000390: e61d dcbd f745 aa3a cde7 2dbd 776f 4a3d
000003a0: 8d39 353d 58f8 87bd 445f cdbc d66f ec3c
000003b0: d239 75bd 8e3d ab3c e028 fabd 04a4 e9bd
000003c0: ada6 843d 93bf 2b3a a91d 9ebc 0285 c93b
000003d0: 7337 97bd 9d84 d63d 69fa d6bd db94 2a3d
000003e0: 3a41 7b3b 4afc cb3d 36df e5bd 8db6 9cbc
000003f0: b7c1 dfbc c7b9 4fbd b744 b13c 2b2d 023b

lstm.bias_ih_l1 f4 [256]
-0.067992434 -0.04056583 0.06498609 -0.011388909 -0.04167608 0.027836245 -0.085601404 0.116076045
0.088415205 -0.07518834 -0.03950871 0.014788476 0.0885867 0.001808912 -0.037007377 0.13393188
0.013843293 0.043511268 0.10550485 -0.023360843 0.12467031 -0.13557065 -0.068080895 -0.09374625
-0.054937534 0.07014379 0.0017008863 -0.033734355 0.1091788 0.15485844 -0.07601748 0.03115806
0.104872614 0.09250613 0.009219704 -0.11923222 -0.07306294 -0.03114576 0.1131229 0.11929482
-0.08711844 -0.07857727 0.09589054 0.088312425 0.12990998 0.03961978 -0.02867316 0.08914555
0.06956112 -0.03676966 0.063713595 -0.10719028 0.028595543 -0.062459167 -0.030835344 -0.00610738
0.050386254 0.08891168 -0.083472244 -0.04889699 -0.019689774 0.10645283 0.14691691 -0.03227215
0.049101096 -0.11053886 -0.089955546 0.04908736 0.06728873 -0.08209707 0.022169666 -0.047735665
0.067312844 0.13132344 0.043299954 -0.1377828 -0.018224822 0.084104136 0.008561877 -0.0114332205
-0.05527229 0.028552035 0.15132736 -0.031831663 -0.13255775 -0.09038965 0.045545295 -0.1351094
0.052879278 0.07722334 -0.0021954055 0.062185567 0.11198959 0.13274811 -0.065716945 -0.08958149
0.09605697 -0.014903734 0.10195236 -0.021306427 0.0139686195 -0.04993534 0.05666555 -0.05795946
0.0024308674 0.10795852 0.06558479 0.03759424 0.08145846 0.065985866 -0.04389558 -0.07383816
0.02811648 -0.09209248 0.13133796 0.0066152853 -0.12838098 0.11857446 0.00850587 -0.0009658644
0.0014433635 0.086085446 -0.03607086 -0.04923595 -0.05710169 -0.11684835 0.14865512 0.04580178
-0.055712353 -0.024186581 0.0096185785 0.08938112 0.042894274 -0.01733079 -0.019358676 0.072566435
-0.019563138 -0.05436868 0.041760538 0.022175213 -0.06921107 -0.14307305 0.023603024 0.08683054
0.0009762505 0.035217836 -0.037845112 -0.06616848 -0.072288126 -0.075767316 0.09792829 0.09406792
-0.09035211 0.06955495 -0.032772437 0.09312102 -0.104282126 0.15995754 0.09510454 0.054397427
-0.008599 0.082093336 0.08639641 0.12709045 -0.119328804 -0.08148491 -0.005518807 0.011127725
-0.14302497 0.0022310433 -0.014067078 0.063116595 0.14750355 -0.0018048787 0.14736375 -0.081944026
-0.10785309 -0.03559212 -0.094818614 -0.04160944 0.019218829 -0.025392111 0.018670384 -0.027590426
0.12653308 -0.07966119 0.087292634 -0.08292909 0.026632596 0.003233651 -0.035236616 0.028029915
0.07057973 0.093773656 0.10524959 -0.1141954 0.12615012 0.078155674 0.053521167 0.025782252
0.094231084 -0.008438963 0.074244075 -0.098637424 -0.04948201 0.071821146 -0.08216319 0.15040256
0.04264029 -0.0024062137 -0.103804156 0.024924144 0.11312546 -0.12391982 -0.011973471 0.08277653
0.057142697 0.11911433 -0.03850062 -0.014533879 0.110238306 0.0107076485 -0.060076743 0.08318998
-0.10825774 -0.05752215 0.031850476 0.12849133 -0.0069484944 -0.08459173 0.008021079 -0.06310658
0.095695294 -0.06879148 0.06322681 0.1456375 0.103793316 0.0050441315 0.084520146 -0.104686014
0.087402895 0.04447361 -0.09391344 -0.11335871 -0.06967944 -0.08290522 0.15953481 0.105180874
0.08492622 0.12641658 -0.0020607847 -0.11920971 0.050197322 0.0014991298 -0.04413766 0.096192345
00000000: 9e3f 8bbd 5b28 26bd 6d17 853d 8c98 3abc
00000010: 8ab4 2abd d608 e43c ca4f afbd 47b9 ed3d
00000020: 0813 b53d 58fc 99bd e3d3 21bd 5d4b 723c
00000030: f26c b53d 0419 ed3a 0c95 17bd 7025 093e
00000040: fbce 623c df38 323d ed12 d83d 3d5f bfbc
00000050: 2653 ff3d 08d3 0abe ff6d 8bbd 09fe bfbd
00000060: 2e06 61bd 8ca7 8f3d 46f0 de3a 092d 0abd
00000070: 2299 df3d 3693 1e3e 0daf 9bbd 303f ff3c
00000080: 74c7 d63d db73 bd3d 3e0e 173c 0630 f4bd
00000090: 06a2 95bd 6525 ffbc fbac e73d d850 f43d
000000a0: 276b b2bd 1fed a0bd 4262 c43d 25dd b43d
000000b0: 1f07 053e 5a48 223d fae3 eabc f191 b63d
000000c0: 0f76 8e3d c89b 16bd 467c 823d 9486 dbbd
000000d0: 3341 ea3c 2fd5 7fbd 679a fcbc 6b20 c8bb
000000e0: d161 4e3d 5417 b63d 7ff3 aabd 3648 48bd
000000f0: 734c a1bc f103 da3d 6371 163e cd2f 04bd
00000100: 3b1e 493d 3362 e2bd 9d3a b8bd d40f 493d
00000110: acce 893d 8222 a8bd 299d b53c 7986 43bd
00000120: 51db 893d a779 063e 4b5b 313d ef16 0dbe
00000130: 394c 95bc ca3e ac3d 1d47 0c3c 6752 3bbc
00000140: 3265 62bd f5e5 e93c 8ff5 1a3e eb61 02bd
00000150: 38bd 07be 351e b9bd b48d 3a3d 1e5a 0abe
00000160: f197 583d 4527 9e3d cbe0 0fbb 4bb6 7e3d
00000170: cc5a e53d 1fef 073e 9b96 86bd 8076 b7bd
00000180: 84b9 c43d cb2e 74bc 66cc d03d d18a aebc
00000190: a3dc 643c 0089 4cbd 231a 683d e666 6dbd
000001a0: 304f 1f3b 5b19 dd3d 5251 863d 6bfc 193d
000001b0: b1d3 a63d 9923 873d dacb 33bd 7638 97bd
000001c0: 8854 e63c fb9a bcbd 757d 063e 09c5 d83b
000001d0: 4e76 03be 2bd7 f23d 345c 0b3c 1032 7dba
000001e0: 3e2f bd3a 914d b03d 0abf 13bd a3ab 49bd
000001f0: 76e3 69bd 304e efbd 0c39 183e a69a 3b3d
00000200: a332 64bd f022 c6bc 3e97 1d3c 730d b73d
00000210: e8b1 2f3d 4df9 8dbc 1696 9ebc b69d 943d
00000220: e042 a0bc b1b1 5ebd 190d 2b3d cba8 b53c
00000230: 89be 8dbd be81 12be 215b c13c 36d4 b13d
00000240: 10eb 7f3a 9440 103d 7a03 1bbd 5783 87bd
00000250: cc0b 94bd e52b 9bbd a18e c83d afa6 c03d
00000260: 870a b9bd d372 8e3d 643c 06bd 3cb6 be3d
00000270: de91 d5bd e9cb 233e 2bc6 c23d d6cf 5e3d
00000280: d2e2 0cbc 8d20 a83d 9af0 b03d 0024 023e
00000290: a962 f4bd 8fe1 a6bd 1cd7 b4bb 1051 363c
000002a0: 2375 12be b236 123b 9a79 66bc 4643 813d
000002b0: 2c0b 173e ae91 ecba 86e6 163e 45d2 a7bd
000002c0: 15e2 dcbd 0bc9 11bd 4330 c2bd a96e 2abd
000002d0: ce70 9d3c 1e03 d0bc a2f2 983c 5105 e2bc
000002e0: e391 013e 6825 a3bd 7bc6 b23d bad6 a9bd
000002f0: 9a2c da3c a9eb 533b 4554 10bd fe9e e53c
00000300: 1b8c 903d 670c c03d 198d d73d 47df e9bd
00000310: 7f2d 013e 1510 a03d 0339 5b3d 4d35 d33c
00000320: 3afc c03d 9443 0abc 470d 983d 6b02 cabd
00000330: a6ad 4abd f716 933d 2d45 a8bd 2103 1a3e
00000340: 96a7 2e3d 91b1 1dbb 4697 d4bd b82d cc3c
00000350: 52ae e73d adc9 fdbd 612c 44bc be86 a93d
00000360: 760e 6a3d 37f2 f33d d3b2 1dbd 821f 6ebc
00000370: 9fc4 e13d 226f 2f3c 0813 76bd 825f aa3d
00000380: 3cb6 ddbd 599c 6bbd a575 023d 3b93 033e
00000390: 32b0 e3bb 6e3e adbd d86a 033c 063e 81bd
000003a0: e5fb c33d 8ce2 8cbd 0f7d 813d ff21 153e
000003b0: 9791 d43d 3e49 a53b e618 ad3d 9f65 d6bd
000003c0: 4a00 b33d f629 363d b155 c0bd 9d28 e8bd
000003d0: 18b4 8ebd 36ca a9bd 185d 233e 1269 d73d
000003e0: cced ad3d 5973 013e 3b0e 07bb 3824 f4bd
000003f0: b59b 4d3d 737e c43a b1c9 34bd 7e00 c53d

lstm.bias_hh_l1 f4 [256]
-0.012832864 0.013615571 -0.07588781 -0.0914464 0.03804321 0.15451394 0.15400821 0.00022389836
0.075188115 -0.09283021 -0.062856615 0.09924893 0.0745031 0.075354636 0.04030364 -0.008758752
0.13602829 0.13949549 0.07801148 0.117448725 0.08288643 0.07481524 -0.074380495 0.015321864
-0.05475997 0.009635576 -0.05700513 0.041668404 -0.04578699 0.0003963412 -0.010338763 0.06978004
-0.05697574 -0.04245718 0.13077137 0.050108895 0.13052465 0.1499597 -0.042875756 0.053884994
-0.057466518 0.0035229758 -0.009272491 -0.021315735 0.062509306 0.038278073 0.05722699 0.09833946
0.027665773 0.13014616 0.026785797 0.07158767 0.103886135 0.13461246 -0.0112705175 -0.015985582
-0.061151247 -0.017476656 0.14025205 -0.008271975 -0.035505414 -0.110196166 -0.06797923 -0.019386891
0.08443268 -0.064703025 -0.018898984 -0.10191794 -0.07261424 -0.037418902 -0.111469656 0.022262365
-0.018921372 -0.04826313 -0.05345984 0.027908651 0.08883295 0.0197577 0.090202235 0.16182712
0.0011197148 -0.048895627 0.11892258 -0.06782446 -0.07458125 0.07072086 0.010367604 -0.12422174
0.061007906 0.08765597 0.15145554 -0.075122744 0.11324985 0.01989921 0.07016934 -0.12965581
-0.0761841 0.07216742 0.033139125 0.060021333 -0.0363219 0.12409758 -0.007575138 -0.085222475
0.1414269 -0.017615147 -0.09788375 -0.06050706 0.090110034 0.005713785 0.032507405 0.063643634
0.011391693 0.046488922 -0.023303246 -0.061113905 0.06656836 0.04700995 0.1448999 0.12454573
0.11925314 -0.013550036 -0.08011353 -0.06650742 0.025276449 0.08331622 0.04612475 0.03553273
0.11585608 0.08185698 0.13284805 -0.012770189 0.016433695 0.0908792 0.033092886 -0.102306485
-0.06727398 -0.08902585 0.014250371 0.055404656 0.04943379 -0.10589613 -0.06763388 -0.047834132
0.009393932 -0.09505789 0.06706934 -0.0051898942 -0.077563986 0.084732436 0.0020416358 0.02019073
0.045123037 0.08929064 -0.05703713 0.038893465 -0.10785484 -0.060987268 0.14468738 -0.040214352
0.040967505 0.051139716 -0.045301795 -0.030547164 -0.01374147 0.016030416 0.09609781 0.048690245
-0.031525467 0.043800324 0.103904195 -0.116126 0.13449846 -0.019335493 0.123950996 0.059864234
-0.09876052 0.15049392 0.043899935 -0.08265538 0.1274128 0.07104559 0.13329187 0.06494843
0.069896676 -0.04935891 0.12186373 -0.061586916 -0.0024123304 0.05352207 -0.06374738 0.113360584
0.09511154 0.034804564 0.008655028 -0.05035629 0.020960527 -0.08409991 0.08972706 0.065635815
0.06700739 -0.04159067 -0.08875511 -0.077926286 0.057086892 -0.082568474 0.12304154 0.14429156
0.09838084 -0.018923936 0.019455502 -0.007064288 0.022866206 -0.011243804 0.101442896 0.05741808
0.09573533 0.075220376 0.09820436 0.06464899 0.14500013 0.098680615 -0.040261354 0.08771978
0.04027082 -0.062020622 0.024508681 0.05216293 -0.07661837 -0.0817188 -0.036947254 0.12775156
0.07421117 0.104574926 0.065095134 0.13304214 0.13897856 0.13053505 0.108254075 0.06808285
0.08679493 0.131518 -0.10178227 0.046978805 0.1315255 0.047563057 0.04779103 -0.03203784
0.046442844 -0.029426798 0.06087957 -0.024734356 0.07099967 -0.09722678 -0.06941015 -0.08516909
00000000: ef40 52bc d813 5f3c 116b 9bbd 4048 bbbd
00000010: 32d3 1b3d e738 1e3e 54b4 1d3e 42c6 6a39
00000020: 3afc 993d c41d bebd f8ba 80bd 0643 cb3d
00000030: 1595 983d 8853 9a3d 6e15 253d de80 0fbc
00000040: 004b 0b3e e8d7 0e3e 7cc4 9f3d f588 f03d
00000050: 5cc0 a93d bc38 993d cd54 98bd 8e08 7b3c
00000060: fe4b 60bd 89de 1d3c 367e 69bd 7dac 2a3d
00000070: 248b 3bbd 04cc cf39 ea63 29bc d6e8 8e3d
00000080: 655f 69bd 94e7 2dbd eee8 053e fc3e 4d3d
00000090: 41a8 053e 098f 193e 7d9e 2fbd 83b6 5c3d
000000a0: 0362 6bbd bae1 663b a5eb 17bc 569e aebc
000000b0: e104 803d 78c9 1c3d d966 6a3d 3366 c93d
000000c0: 55a3 e23c 0945 053e e36d db3c 8e9c 923d
000000d0: 41c2 d43d d9d7 093e faa7 38bc 32f4 82bc
000000e0: bb79 7abd 342b 8fbc 3c9e 0f3e 2e87 07bc
000000f0: 206e 11bd 87ae e1bd b238 8bbd 42d1 9ebc
00000100: 0aeb ac3d 0583 84bd 0bd2 9abc 5aba d0bd
00000110: c6b6 94bd 9044 19bd 344a e4bd 905f b63c
00000120: fe00 9bbc 8faf 45bd b5f8 5abd afa0 e43c
00000130: 0dee b53d e6da a13c f3bb b83d 02b6 253e
00000140: 65c3 923a c846 48bd ae8d f33d 8de7 8abd
00000150: 0ebe 98bd 19d6 903d e2dc 293c f867 febd
00000160: 6de3 793d f984 b33d 2917 1b3e f4d9 99bd
00000170: 8aef e73d ab03 a33c f1b4 8f3d 7ec4 04be
00000180: 6906 9cbd 83cc 933d e4bc 073d eed8 753d
00000190: 46c6 14bd df26 fe3d dd38 f8bb 1f89 aebd
000001a0: 37d2 103e a44d 90bc 4777 c8bd 40d6 77bd
000001b0: 9c8b b83d b43a bb3b 7c26 053d 9857 823d
000001c0: 39a4 3a3c 2b6b 3e3d 73e6 bebc 9352 7abd
000001d0: fe54 883d 818d 403d a460 143e d511 ff3d
000001e0: fe3a f43d f800 5ebc 9012 a4bd 0b35 88bd
000001f0: 8e10 cf3c b2a1 aa3d 4eed 3c3d c58a 113d
00000200: f445 ed3d a2a4 a73d 5209 083e 0e3a 51bc
00000210: f59f 863c e01e ba3d 688c 073d 1086 d1bd
00000220: f1c6 89bd 2f53 b6bd 637a 693c feef 623d
00000230: 167b 4a3d 12e0 d8bd a283 8abd b9ed 43bd
00000240: 02e9 193c b6ad c2bd a65b 893d fd0f aabb
00000250: ded9 9ebd 3388 ad3d f7cc 053b 0867 a53c
00000260: efd2 383d 03de b63d c49f 69bd c14e 1f3d
00000270: 00e3 dcbd c9cd 79bd ee28 143e ceb7 24bd
00000280: 8bcd 273d e177 513d 608e 39bd 0c3e fabc
00000290: e723 61bc 3852 833c eece c43d 6c6f 473d
000002a0: d920 01bd f867 333d b9cb d43d 78d3 edbd
000002b0: f7b9 093e 7865 9ebc 05da fd3d 3334 753d
000002c0: f542 cabd 141b 1a3e 6bd0 333d 3947 a9bd
000002d0: 8078 023e 5a80 913d aa7d 083e af03 853d
000002e0: fd25 8f3d 922c 4abd b193 f93d 9042 7cbd
000002f0: 3018 1ebb f539 5b3d fd8d 82bd 9829 e83d
00000300: d7c9 c23d 3b8f 0e3d d2cd 0d3c 6642 4ebd
00000310: 69b5 ab3c 933c acbd d2c2 b73d 126c 863d
00000320: 2c3b 893d fa5a 2abd 3dc5 b5bd d197 9fbd
00000330: f2d3 693d a919 a9bd 34fd fb3d 2bc1 133e
00000340: e57b c93d 5f06 9bbc 2561 9f3c 8b7b e7bb
00000350: e951 bb3c ef37 38bc 4bc1 cf3d 382f 6b3d
00000360: e210 c43d 240d 9a3d 5e1f c93d b166 843d
00000370: ea7a 143e 1019 ca3d 17e9 24bd 6ea6 b33d
00000380: 04f3 243d 5609 7ebd 6ec6 c83c cca8 553d
00000390: 18ea 9cbd 305c a7bd 0156 17bd 4ed1 023e
000003a0: 07fc 973d 612b d63d 9950 853d 333c 083e
000003b0: 6550 0e3e fbaa 053e 50b4 dd3d 056f 8b3d
000003c0: 8ac1 b13d a8ac 063e 3973 d0bd d96c 403d
000003d0: 9fae 063e 7bd1 423d 87c0 433d 1c3a 03bd
000003e0: da3a 3e3d 7810 f1bc db5c 793d b49f cabc
000003f0: 4668 913d d61e c7bd e926 8ebd 226d aebd
