models/lstm_fwd_model.pt (torch, 245045 bytes, 9 tensors)

lstm.weight_ih_l0 f4 [256, 38]
0.15318783 0.09964159 0.030291215 0.1865792 -0.048208456 0.035419293 -0.04760914 0.09472505
0.16004968 -0.01817419 0.14996484 0.07591089 0.1471319 0.03557371 0.096175626 0.027607886
0.09602557 0.00930349 -0.12454044 0.0364991 -0.070532225 0.011934311 -0.056931797 0.19552116
-0.1212227 -0.057626292 -0.033938106 -0.1352561 0.0076310663 -0.11753609 0.106806755 -0.035728306
0.09074191 0.036738895 0.02211793 0.12223934 0.06866951 0.14841986 0.044288263 -0.03394804
0.095673285 0.0036012006 0.098461 0.15104389 0.10207852 -0.019803755 0.12402887 0.057139438
0.118461154 -0.017992057 -0.093988 0.004841366 -0.03397991 0.18322003 0.11605428 0.06560313
0.09087541 0.034372166 0.13968539 -0.060263213 0.06357378 0.021550504 0.14334919 -0.043047786
0.058576144 -0.039726224 0.1335956 -0.06095477 -0.04953162 -0.08981929 0.1272461 0.07523635
0.103690095 -0.061109643 -0.08950741 -0.059604038 -0.03300522 0.061582047 0.05859334 0.13567013
-0.07729765 -0.06203838 0.07439227 -0.029545454 0.09619986 -0.019337628 0.08480597 -0.07153273
-0.03951768 0.03600723 0.044744473 -0.004272014 0.100986436 0.075175755 -0.1342621 -0.07349256
0.0678028 -0.07331394 -0.05380951 -0.13531037 -0.1135812 0.031225458 0.029971948 -0.19135131
0.1010546 -0.024708709 -0.014805493 0.032858215 -0.013163348 -0.030728394 0.14820437 0.11258078
0.116892785 -0.032707084 -0.10367064 -0.07459123 0.0046088933 -0.10885485 0.02670026 -0.12972721
-0.00095043774 -0.092157625 -0.03648201 -0.08710628 -0.11757147 -0.10435634 -0.053697024 -0.12733118
0.1023713 -0.040494632 0.15017681 0.0025007487 -0.081317134 0.028589752 -0.019137278 -0.11781959
-0.093813665 -0.17876826 0.06482624 -0.027305484 0.07026365 -0.17324683 0.15470494 -0.078807145
-0.021165315 0.075263344 0.07445143 0.13790739 0.060559183 -0.120898336 -0.0038734903 -0.082486756
-0.0759073 -0.1405659 0.07176265 -0.14086369 0.12868562 0.0073992377 0.10187631 -0.095595054
0.08744525 -0.015578952 -0.03586325 -0.12838393 0.004997764 -0.011477435 -0.027918817 0.108558625
0.06432566 -0.10822891 0.013431401 0.0024511248 0.16392529 -0.019362383 0.08077075 0.014894637
0.01396246 0.04457906 0.0336772 -0.1411957 0.0607309 0.079473846 0.046304457 -0.068788074
0.08568668 0.089208946 0.045585867 -0.014096245 -0.027874077 0.019974468 0.013849762 -0.009295728
0.10955297 0.13240038 -0.00032025008 -0.015906056 0.015150752 0.0053520408 0.03993734 0.06325156
-0.08486972 -0.03487034 0.120311745 0.04636299 -0.004945495 -0.078747675 -0.08460815 -0.10132006
-0.02689417 0.04889534 0.07502566 0.055227045 -0.117734075 -0.13520502 0.003360319 0.12091869
-0.0041029057 -0.07433371 0.08159775 -0.03513652 -0.057135917 0.15255694 -0.022051701 -0.008927836
-0.13521482 0.11881221 0.12599015 0.07882141 -0.021075875 -0.1128744 -0.08468925 0.121659935
0.033046015 0.15241952 0.0765571 0.0654037 0.019540101 -0.0781922 -0.09998778 -0.09544397
0.08498204 -0.06801598 -0.024116851 -0.05749028 -0.0041292207 -0.08140546 -0.16281556 0.07220809
-0.06363149 0.077651 -0.021427337 -0.084793374 -0.04107416 -0.060593426 0.020433985 -0.1659937
00000000: 45dd 1c3e e410 cc3d 4825 f83c 9e0e 3f3e
00000010: 3b76 45bd d213 113d cd01 43bd 35ff c13d
00000020: 10e4 233e 0ae2 94bc 6290 193e 2b77 9b3d
00000030: bfa9 163e bdb5 113d baf7 c43d ef29 e23c
00000040: 0ea9 c43d aa6d 183c 0f0f ffbd 1580 153d
00000050: 3373 90bd 2188 433c 5131 69bd b336 483e
00000060: 9b43 f8bd 8c09 6cbd af02 0bbd 9380 0abe
00000070: 060e fa3b c3b6 f0bd 80bd da3d d857 12bd
00000080: e5d6 b93d 867b 163d a930 b53c 9e58 fa3d
00000090: 9aa2 8c3d 60fb 173e 9c67 353d 1a0d 0bbd
000000a0: 5bf0 c33d 1f02 6c3b eca5 c93d 40ab 1a3e
000000b0: 8b0e d13d 7c3b a2bc d902 fe3d 0b0b 6a3d
000000c0: c39b f23d 1464 93bc c87c c0bd 52a4 9e3b
000000d0: 852e 0bbd 089e 3b3e dead ed3d ef5a 863d
000000e0: e31c ba3d d4c9 0c3d b009 0f3e 8fd6 76bd
000000f0: f832 823d af8a b03c 21ca 123e e052 30bd
00000100: 8aed 6f3d f7b7 22bd 49cd 083e b5ab 79bd
00000110: abe1 4abd 2df3 b7bd cd4c 023e 8415 9a3d
00000120: 795b d43d 1b4e 7abd a94f b7bd 5d23 74bd
00000130: 7b30 07bd 753d 7c3d 92ff 6f3d 1ced 0a3e
00000140: 3b4e 9ebd f51b 7ebd f95a 983d 4f09 f2bc
00000150: 6f04 c53d f269 9ebc c1ae ad3d c07f 92bd
00000160: 4add 21bd 517c 133d fb45 373d 40fc 8bbb
00000170: fad1 ce3d bff5 993d 017c 09be 4483 96bd
00000180: 32dc 8a3d 9e25 96bd 5c67 5cbd cd8e 0abe
00000190: 439d e8bd 88cc ff3c bb87 f53c 99f1 43be
000001a0: b7f5 ce3d eb69 cabc bd92 72bc 5696 063d
000001b0: 15ab 57bc 1dba fbbc e3c2 173e c190 e63d
000001c0: 7c65 ef3d ddf7 05bd 4651 d4bd 49c3 98bd
000001d0: 3306 973b 4bef debd 81ba da3c 36d7 04be
000001e0: cc26 79ba 23bd bcbd 296e 15bd c764 b2bd
000001f0: 50c9 f0bd c7b8 d5bd 69f1 5bbd 1b63 02be
00000200: 0ba8 d13d b3dd 25bd f3c7 193e 9ae3 233b
00000210: 9989 a6bd 0e35 ea3c c8c5 9cbc 664b f1bd
00000220: 6121 c0bd 070f 37be 9fc3 843d c0af dfbc
00000230: 63e6 8f3d 9e67 31be f96a 1e3e a465 a1bd
00000240: e262 adbc ab23 9a3d fe79 983d 9837 0d3e
00000250: e80c 783d 8c99 f7bd 62da 7dbb d1ee a8bd
00000260: 4975 9bbd 82f0 0fbe 4cf8 923d 923e 10be
00000270: 2ac6 033e 4e75 f23b 87a4 d03d 57c7 c3bd
00000280: 7f16 b33d dc3e 7fbc 58e5 12bd 1477 03be
00000290: 48c4 a33b da0b 3cbc 01b6 e4bc fc53 de3d
000002a0: 2cbd 833d 1ea7 ddbd 610f 5c3c 0da3 203b
000002b0: 08dc 273e dc9d 9ebc 236b a53d a308 743c
000002c0: cdc2 643c 8898 363d 1bf1 093d 9b95 10be
000002d0: f7c0 783d 2fc3 a23d bea9 3d3d c3e0 8cbd
000002e0: 807c af3d 2eb3 b63d 3fb8 3a3d f0f3 66bc
000002f0: 2d58 e4bc 7fa1 a33c 1dea 623c 1c4d 18bc
00000300: 4f5d e03d f793 073e 3de7 a7b9 6b4d 82bc
00000310: dc3a 783c 2c60 af3b 5695 233d 098a 813d
00000320: 2dd0 adbd 34d4 0ebd 0166 f63d 1ee7 3d3d
00000330: d20d a2bb 7646 a1bd 0a47 adbd e480 cfbd
00000340: 2a51 dcbc 7b46 483d 0ea7 993d c135 623d
00000350: 901e f1bd 2f73 0abe cc38 5c3b 38a4 f73d
00000360: ab71 86bb 463c 98bd b91c a73d 50eb 0fbd
00000370: 5a07 6abd e337 1c3e c5a5 b4bc 0f46 12bc
00000380: c175 0abe d153 f33d 9003 013e 1f6d a13d
00000390: 50a7 acbc b22a e7bd 8f71 adbd d828 f93d
000003a0: 425b 073d dd13 1c3e f8c9 9c3d 60f2 853d
000003b0: 9012 a03c 3b23 a0bd 65c6 ccbd 2178 c3bd
000003c0: 100b ae3d f64b 8bbd b490 c5bc ee7a 6bbd
000003d0: 6a4e 87bb e8b7 a6bd 1fb9 26be d6e1 933d
000003e0: 3a51 82bd 7d07 9f3d 6288 afbc 26a8 adbd
000003f0: 613d 28bd d030 78bd 2c65 a73c 41fa 29be

lstm.weight_hh_l0 f4 [256, 64]
-0.030401869 0.064121835 0.06561571 -0.12019784 -0.12700465 0.019912427 -0.09291047 -0.09588602
0.050622765 0.003701921 -0.12123653 0.030052217 0.09425138 0.079437405 0.04438562 -0.17939812
-0.045994934 0.054776356 0.16314799 -0.05105272 0.12473825 0.029733127 0.10302945 0.17561199
0.11002621 -0.1244136 -0.04340894 0.10479145 0.09740291 -0.10316342 0.0073788664 -0.0025000328
-0.029423425 0.01644653 -0.18873265 -0.03171488 -0.11375774 0.13052318 -0.1043972 0.10531302
-0.061003786 0.009671077 -0.15209351 -0.004054178 0.073466286 -0.04389414 -0.10983186 0.010638422
-0.09651746 -0.054847788 -0.0051401793 -0.07882724 0.06748863 0.10642763 -0.10196432 -0.019406673
-0.15343007 -0.04828422 0.040679168 -0.041236673 -0.15008329 0.018535726 -0.014619924 0.034103397
0.073691376 -0.17098999 -0.053318843 -0.06091515 0.12733173 -0.077688284 -0.08222448 -0.025954807
0.005812792 0.043480814 0.089314416 0.14889829 0.017180996 0.058199715 0.0663547 0.07454932
-0.081073664 0.07168909 -0.03202243 -0.18718511 -0.041380677 0.05004557 0.061697595 0.08374178
0.09339157 0.03703578 0.1532415 0.062565885 -0.03652654 -0.07094993 0.064297944 0.09683661
0.0033011986 -0.066147305 -0.13885783 0.026339212 0.006281487 -0.08129404 0.035372283 -0.05986528
0.11381388 0.025631584 -0.07945908 0.076041535 0.031690206 -0.07166902 0.062852874 0.109218046
0.12474634 -0.032231353 0.04313003 -0.08466405 0.15818201 -0.1584182 0.04353253 0.06772775
0.080646135 -0.047405787 0.113114804 0.07602423 -0.14801854 -0.020614296 -0.12999974 -0.06351478
0.09747955 -0.08813328 -0.022398917 0.0044823983 -0.055863015 -0.20840056 0.08355123 -0.13905376
-0.14089091 0.11648405 -0.034124058 0.082629874 -0.105015576 -0.003212707 -0.13649234 0.05429938
0.16287795 0.13227734 -0.1172816 -0.065199345 -0.03989746 -0.10012433 0.095059805 0.22145371
0.10158533 0.029972034 0.078100845 0.18197873 -0.11050885 -0.19568224 0.13184157 0.07949321
-0.054840367 -0.049717307 -0.004175537 0.07639071 0.0017984324 0.15923885 0.12481797 -0.09112095
-0.091758944 0.061157893 -0.16271544 0.030286698 -0.018062346 -0.06458894 -0.127399 -0.17171593
0.10359696 -0.26838133 -0.02789401 -0.16917066 -0.16689113 0.012935767 -0.045503825 0.01206632
-0.019246345 0.0078095375 -0.023973923 0.21049741 -0.09883877 -0.09587502 -0.03532381 -0.06840302
0.027957244 0.1286404 -0.09573539 0.06700231 0.012183349 -0.08726314 -0.0014747441 -0.01856509
-0.046935014 0.008292156 -0.15767981 -0.07012573 -0.060019378 -0.14707029 -0.04449716 -0.111113966
-0.12569676 0.11494113 -0.13404416 -0.0756136 0.02798083 0.003719858 0.13334322 -0.031847443
-0.0019502658 -0.13140544 -0.026396446 -0.065784425 0.04552927 -0.09510777 -0.02152499 0.04074625
0.111457966 0.16815603 0.017683176 0.049754746 -0.05895401 0.057879373 -0.09025484 0.112951905
-0.19830754 -0.0022512344 -0.15510657 -0.058146637 0.080809444 -0.028684456 0.007501879 -0.014161696
0.0031032562 0.06269048 -0.0574703 -0.069760025 -0.17573409 0.06878107 0.062086258 -0.08015793
-0.09450092 0.059662342 -0.20711364 -0.09454518 -0.025893655 -0.11603417 0.1925662 -0.04774001
00000000: 570d f9bc 4f52 833d 8861 863d 492a f6bd
00000010: 820d 02be 631f a33c d847 bebd e45f c4bd
00000020: d159 4f3d ee9b 723b dc4a f8bd 1130 f63c
00000030: de06 c13d 14b0 a23d b2cd 353d 24b4 37be
00000040: 2f65 3cbd 2c5d 603d 4410 273e a81c 51bd
00000050: c576 ff3d e392 f33c 1b01 d33d a1d3 333e
00000060: 6c55 e13d 8fcc febd 93cd 31bd e69c d63d
00000070: 2d7b c73d 5847 d3bd 6bca f13b 97d7 23bb
00000080: 6509 f1bc e0ba 863c 2243 41be 76e7 01bd
00000090: d1f9 e8bd dea7 053e 33ce d5bd 5aae d73d
000000a0: 1bdf 79bd 7073 1e3c 67be 1bbe e9d8 84bb
000000b0: 7e75 963d 57ca 33bd 87ef e0bd c74c 2e3c
000000c0: f2aa c5bd 13a8 60bd f36e a8bb 2d70 a1bd
000000d0: 7b37 8a3d bbf6 d93d abd2 d0bd befa 9ebc
000000e0: c61c 1dbe adc5 45bd 339f 263d c9e7 28bd
000000f0: 6faf 19be 3cd8 973c 6888 6fbc 01b0 0b3d
00000100: 81eb 963d 0018 2fbe dc64 5abd 2a82 79bd
00000110: 4063 023e 091b 9fbd 4f65 a8bd 2d9f d4bc
00000120: 3c79 be3b f018 323d 7aea b63d cb78 183e
00000130: 29bf 8c3c d362 6e3d f9e4 873d 50ad 983d
00000140: f309 a6bd bbd1 923d f429 03bd 74ad 3fbe
00000150: c97e 29bd 95fc 4c3d 9eb6 7c3d cf80 ab3d
00000160: 1444 bf3d d4b2 173d 57eb 1c3e 8b22 803d
00000170: da9c 15bd 324e 91bd a4ae 833d 4652 c63d
00000180: ec58 583b 3d78 87bd bf30 0ebe 55c5 d73c
00000190: efd4 cd3b 7d7d a6bd 87e2 103d 4c35 75bd
000001a0: 4017 e93d 54f9 d13c 71bb a2bd aabb 9b3d
000001b0: 97cd 013d 35c7 92bd 02b9 803d b6ad df3d
000001c0: 027b ff3d 0605 04bd 1da9 303d 5864 adbd
000001d0: 77fa 213e 6138 22be 2b4f 323d d9b4 8a3d
000001e0: cd29 a53d 922c 42bd bca8 e73d 97b2 9b3d
000001f0: 2c92 17be 50df a8bc a71e 05be 0914 82bd
00000200: 5ca3 c73d 397f b4bd ef7d b7bc 15e1 923b
00000210: 9ed0 64bd f566 55be e81c ab3d 1c64 0ebe
00000220: b545 10be 318f ee3d abc5 0bbd da39 a93d
00000230: 6812 d7bd 478c 52bb a6c4 0bbe 0769 5e3d
00000240: 7ac9 263e b673 073e 5631 f0bd 3c87 85bd
00000250: 856b 23bd fc0d cdbd b7ae c23d c3c4 623e
00000260: f80b d03d e987 f53c 56f3 9f3d a258 3a3e
00000270: 7752 e2bd ed60 48be 7a01 073e 56cd a23d
00000280: 4ba0 60bd 60a4 4bbd f1d2 88bb bc72 9c3d
00000290: 61b9 eb3a 820f 233e 90a0 ff3d 9f9d babd
000002a0: 1dec bbbd b380 7a3d e09e 26be cf1b f83c
000002b0: 7cf7 93bc 3547 84bd e274 02be 4dd6 2fbe
000002c0: a52a d43d 4769 89be fb81 e4bc 133b 2dbe
000002d0: 82e5 2abe 8af0 533c 3862 3abd d0b1 453c
000002e0: 83aa 9dbc 26e7 ff3b f664 c4bc a28c 573e
000002f0: fb6b cabd 1f5a c4bd b3af 10bd e216 8cbd
00000300: 9706 e53c 4fba 033e eb10 c4bd 8238 893d
00000310: ab9c 473c 04b7 b2bd 334c c1ba d115 98bc
00000320: ee3e 40bd d3db 073c d176 21be 149e 8fbd
00000330: e1d6 75bd 9899 16be a742 36bd b88f e3bd
00000340: a7b6 00be 4166 eb3d df42 09be 4edb 9abd
00000350: 0e38 e53c dcc8 733b 208b 083e 7772 02bd
00000360: 10a0 ffba 268f 06be 5c3d d8bc fcb9 86bd
00000370: e67c 3a3d ddc7 c2bd 2d55 b0bc 8ae5 263d
00000380: 1344 e43d 1831 2c3e 4fdc 903c a2cb 4b3d
00000390: c379 71bd ec12 6d3d 88d7 b8bd 5453 e73d
000003a0: 2211 4bbe 7289 13bb 42d4 1ebe 2b2b 6ebd
000003b0: 6c7f a53d aafb eabc 52d2 f53b 7506 68bc
000003c0: 0060 4b3b de63 803d fa65 6bbd 58de 8ebd
000003d0: a3f3 33be 17dd 8c3d 294e 7e3d d729 a4bd
000003e0: b389 c1bd 8060 743d 9915 54be e7a0 c1bd
000003f0: ee1e d4bc 53a3 edbd 1330 453e 078b 43bd

lstm.bias_ih_l0 f4 [256]
-0.0053389403 0.032506704 0.019318739 -0.12343797 -0.033615716 0.07785958 0.04878655 0.21122228
0.16342133 -0.014541489 0.119884856 0.024601992 0.111789696 -0.042314857 -0.0063306764 0.086766884
0.0972722 0.031318422 0.15595135 0.13310863 -0.063169934 0.036211368 0.02908642 0.15510663
-0.101379186 0.1241785 0.06515301 0.14819475 -0.044353332 0.0438611 0.11560228 0.13755164
-0.010105423 0.088814855 0.014057985 0.11128373 0.04029106 0.09796673 -0.0794504 0.07719593
-0.0725166 -0.022694863 0.003966685 -0.020003594 0.13328269 0.086617045 0.103515364 -0.07090683
0.12416407 0.16374888 0.007676485 -0.026520468 0.14233963 0.16377811 0.08327445 -0.060189005
-0.070025414 0.094241045 -0.0637689 0.07123575 0.10237905 -0.0166578 -0.11637257 -0.12551619
0.13978034 0.018372064 0.037377663 -0.016768435 -0.023390839 0.050775003 -0.105404936 0.044351663
0.012731293 0.11221033 -0.041604623 0.001220044 -0.06862976 0.10522627 0.020413928 -0.049627643
-0.19640693 0.11670401 0.15471506 -0.03367306 0.020812865 -0.029198159 -0.08148789 -0.05204259
-0.06748885 0.04774032 -0.07526918 0.20612013 -0.021779059 -0.091652945 -0.06217702 0.13580568
0.009321867 0.064183824 0.03509717 0.1405329 -0.08581951 -0.00019164725 0.076738894 -0.024884528
-0.047465812 0.025299331 0.015581593 -0.05928687 -0.06312624 0.028147787 0.021395588 -0.099718295
0.0015084775 0.029818581 0.10152163 0.08260511 0.14572613 -0.036837995 0.09294442 -0.031797707
0.06313703 -0.08794766 0.120168984 0.01712082 -0.005853518 -0.02503838 0.12203208 0.060365554
0.057059504 0.003994644 -0.056794252 -0.07754976 -0.11634465 -0.056521654 -0.028104667 0.008778945
0.100920044 0.058501218 0.03453125 0.08485431 0.11915431 0.05942992 -0.0043456103 0.10254835
-0.0847223 0.0659193 0.08081379 -0.14438564 -0.09991118 0.010273697 0.055813886 0.07638556
-0.11792486 0.14669837 -0.007101353 -0.02490768 -0.03843378 0.074639626 0.03543969 0.033670127
-0.13433577 -0.043410245 -0.14261462 -0.16090795 0.009863443 -0.020255236 -0.12341252 -0.094119795
0.118128024 0.13781147 -0.11109638 -0.097122245 0.08138441 -0.012132559 0.012954831 -0.014255765
0.04616074 -0.14891876 -0.14496247 0.1138908 0.07940299 0.050785642 -0.061375186 -0.06361963
-0.050841764 -0.08031414 -0.095036685 0.07049876 -0.08801917 -0.13629612 -0.012192119 0.0858075
0.032515187 -0.06310442 0.10094837 -0.06033301 0.14877006 -0.079033285 0.15301912 0.044049866
0.16635299 0.072525 0.14999475 0.06208836 -0.022005606 0.043933462 0.14892474 -0.04356775
0.08336574 0.048444595 0.13113931 -0.06224872 -0.066483885 0.089787334 -0.002737743 0.044170707
0.0293737 0.1926415 -0.07238047 0.08248263 -0.050592355 0.010882542 -0.01855396 0.1377053
0.11454506 0.08090027 -0.0006093201 0.11702151 -0.009599937 -0.03818339 -0.0864262 0.0011398298
-0.041428316 0.12322327 0.050372425 -0.026919454 -0.06621516 0.11570846 0.14195712 -0.078126386
0.11125178 0.029792244 -0.014069922 0.09454406 -0.066164814 -0.080744356 0.04030114 0.16162144
0.123539835 0.13100162 0.08889213 0.053624958 0.055738155 -0.037366048 0.12496728 0.10926847
00000000: 47f2 aebb c025 053d 5542 9e3c 0ccd fcbd
00000010: a2b0 09bd d874 9f3d 68d4 473d a74a 583e
00000020: ec57 273e 6d3f 6ebc 3186 f53d 1e8a c93c
00000030: fff1 e43d 5852 2dbd 9071 cfbb d6b2 b13d
00000040: a636 c73d bf47 003d b6b1 1f3e a14d 083e
00000050: 3d5f 81bd 5f52 143d a546 ee3c 46d4 1e3e
00000060: e49f cfbd 4c51 fe3d f16e 853d 5dc0 173e
00000070: d7ab 35bd b2a7 333d e3c0 ec3d 56da 0c3e
00000080: 3791 25bc 90e4 b53d 7653 663c b9e8 e33d
00000090: 3d08 253d c8a2 c83d e4b6 a2bd e618 9e3d
000000a0: 9583 94bd 94ea b9bc f7fa 813b 94de a3bc
000000b0: 427b 083e 4764 b13d ddff d33d 9a37 91bd
000000c0: bb49 fe3d c9ad 273e 068b fb3b 7441 d9bc
000000d0: 7bc1 113e 73b5 273e cb8b aa3d bf88 76bd
000000e0: 7c69 8fbd 7301 c13d 4599 82bd 0de4 913d
000000f0: 1bac d13d f075 88bc be54 eebd 5187 00be
00000100: 9422 0f3e 0381 963c 5219 193d f55d 89bc
00000110: 259e bfbc 73f9 4f3d 8bde d7bd 17aa 353d
00000120: ea96 503c 88ce e53d 9c69 2abd e2e9 9f3a
00000130: c28d 8cbd df80 d73d 1c3b a73c 5b46 4bbd
00000140: e61e 49be 8302 ef3d a06d 1e3e c3ec 09bd
00000150: be7f aa3c fa30 efbc 1fe3 a6bd 9c2a 55bd
00000160: 9837 8abd 5b8b 433d ba26 9abd 2811 533e
00000170: ff69 b2bc 8ab4 bbbd 55ad 7ebd a510 0b3e
00000180: beba 183c cf72 833d 0dc2 0f3d dbe7 0f3e
00000190: 24c2 afbd ebf4 48b9 4829 9d3d a3da cbbc
000001a0: 836b 42bd 8b40 cf3c f049 7f3c cad6 72bd
000001b0: 5548 81bd 3096 e63c cd45 af3c 1b39 ccbd
000001c0: 1bb8 c53a 1946 f43c 93ea cf3d de2c a93d
000001d0: 3b39 153e 70e3 16bd a559 be3d 503e 02bd
000001e0: fd4d 813d e71d b4bd 281b f63d f640 8c3c
000001f0: dece bfbb 4a1d cdbc f5eb f93d df41 773d
00000200: 3ab7 693d 81e5 823b 17a1 68bd 69d2 9ebd
00000210: 1b46 eebd 4083 67bd c23b e6bc 90d5 0f3c
00000220: 2baf ce3d f99e 6f3d a470 0d3d 19c8 ad3d
00000230: 2d07 f43d ca6c 733d 9f65 8ebb df04 d23d
00000240: e382 adbd b300 873d b381 a53d d4d9 13be
00000250: 3c9e ccbd 0253 283c 1a9d 643d 0870 9c3d
00000260: 9782 f1bd 1938 163e 77b2 e8bb 310b ccbc
00000270: bd6c 1dbd a9dc 983d 3529 113d b0e9 093d
00000280: 518f 09be f1ce 31bd 9109 12be 0ec5 24be
00000290: 479a 213c 4fee a5bc b4bf fcbd e1c1 c0bd
000002a0: 1bed f13d 731e 0d3e 8086 e3bd 07e8 c6bd
000002b0: dfac a63d a4c7 46bc 8040 543c 0391 69bc
000002c0: 0b13 3d3d 297e 18be 0b71 14be 943f e93d
000002d0: 099e a23d 9b04 503d 8c64 7bbd 024b 82bd
000002e0: 743f 50bd bd7b a4bd 98a2 c2bd a761 903d
000002f0: 6543 b4bd 3691 0bbe 74c1 47bc d8bb af3d
00000300: a52e 053d e43c 81bd 05be ce3d bf1f 77bd
00000310: 2e57 183e 34dc a1bd 0bb1 1c3e a26d 343d
00000320: 7058 2a3e fd87 943d 3998 193e 5d50 7e3d
00000330: 1a45 b4bc 93f3 333d ba7f 183e 1974 32bd
00000340: a8bb aa3d d76d 463d 6249 063e 84f8 7ebd
00000350: b428 88bd 6ce2 b73d b56b 33bb 58ec 343d
00000360: 1da1 f03c d043 453e 363c 94bd a7ec a83d
00000370: ee39 4fbd b04c 323c 79fe 97bc 9e02 0d3e
00000380: 9a96 ea3d 0aaf a53d c8ba 1fba f9a8 ef3d
00000390: 0e49 1dbc 3066 1cbd 3800 b1bd 5766 953a
000003a0: bdb0 29bd 7b5c fc3d 5153 4e3d 3086 dcbc
000003b0: d09b 87bd 8ff8 ec3d 355d 113e ba00 a0bd
000003c0: f9d7 e33d dd0e f43c 8885 66bc 51a0 c13d
000003d0: 6b81 87bd 4c5d a5bd cf12 253d 1780 253e
000003e0: 7402 fd3d 4a25 063e 140d b63d d8a5 5b3d
000003f0: b14d 643d 240d 19bd d8ee ff3d 26c8 df3d

lstm.bias_hh_l0 f4 [256]
-0.0606747 -0.09802534 0.035259277 -0.07852095 0.012882335 0.10731519 0.002458374 0.20864888
0.048419587 0.009031251 0.04385394 0.007289953 0.028918343 -0.0036101497 -0.053404875 0.09191763
0.10374156 0.016579747 0.072272524 -0.019817103 -0.0963732 0.11433533 0.057232887 -0.009301494
0.10152015 0.040520377 -0.07700831 -0.0030495478 -0.04020792 -0.072673075 0.07096718 -0.040587515
-0.04094206 0.129059 0.01618164 0.04671331 0.008261956 0.060173657 -0.058836225 -0.032018464
-0.06557111 -0.0006309374 0.080054514 0.07640266 0.11088981 -0.06982299 -0.062189706 -0.021869369
0.14848423 0.05057096 0.14087978 0.14153974 0.1261386 0.037683744 0.05899311 -0.019515764
0.034602173 0.05391472 -0.030222228 -0.06885906 -0.03368542 0.022506721 -0.02113372 0.0321395
-0.025718438 0.08798124 -0.08249485 0.12405659 0.1380191 0.09745074 -0.08094411 -0.08678617
-0.0352583 -0.046412546 -0.0024389543 0.012826849 0.07051472 0.1453805 0.09185678 -0.005320783
-0.118948884 -0.025698867 0.14614886 -0.06936537 0.027283251 -0.10882959 -0.04779278 -0.056365643
-0.17250267 0.031421512 -0.056440473 0.10968437 0.107191294 -0.025828447 0.05540183 -0.04001004
0.11086017 0.11250414 -0.023323514 -0.06016839 0.10294284 0.047349937 0.07785477 0.018580694
0.06583507 0.07744391 0.045295466 -0.028580649 0.070586264 0.09653861 -0.033194613 -0.122313835
-0.053059716 0.034250524 0.090011664 0.047078494 0.1511678 -0.012641565 0.1105188 -0.050751586
0.08355562 0.047521733 0.05477778 0.030404981 -0.11009748 0.13491538 0.052642997 -0.113982014
0.06656212 0.057345774 0.121366166 0.10241293 0.028391415 0.058827996 0.15193373 0.08813474
0.057753198 0.014935241 -0.113034576 0.07403247 -0.073577136 -0.038301073 -0.14692475 -0.1247714
-0.029394919 -0.12506956 0.07103408 0.0048743333 -0.028047198 0.14484702 0.05781509 0.047701977
-0.085892215 -0.07278498 -0.042505346 0.08550085 -0.114433415 -0.09424465 -0.017348994 0.067825034
0.04124074 -0.0110976435 -0.05999177 -0.08491598 -0.036066145 0.08998464 -0.10505355 -0.1058623
-0.014508465 0.027149566 0.03745118 0.013079949 0.12628807 -0.030884132 0.064609 -0.062246446
-0.10237796 -0.09878032 0.07737664 -0.018226137 -0.027829621 0.018149143 -0.10655795 0.033982396
-0.08682214 0.09130149 0.10781632 0.07692324 0.05761548 0.0541854 0.000105882835 0.025439776
0.041855797 -0.002145939 0.047988452 -0.08454367 -0.0529213 0.008596463 -0.02448046 0.019917052
0.107711166 -0.02427702 0.17292516 -0.027721072 -0.06425342 0.07207641 0.06087348 0.09015496
0.0807508 -0.005438772 -0.075673945 0.104584165 -0.018857777 0.15697956 -0.030448947 0.18595557
0.029879304 0.060575545 -0.018328395 0.20911282 0.10290967 -0.09857187 -0.013089907 -0.015279372
0.07806543 -0.036680825 -0.046838082 0.055154458 0.0625453 -0.008483332 0.06451113 0.14971273
-0.005529096 0.16778873 0.09276383 0.03666746 -0.024280816 0.114593916 0.11517417 -0.11213352
0.043106675 -0.04228048 -0.030411648 -0.01836701 0.032535523 -0.0009881875 0.020646226 0.16751915
0.04962046 -0.06861384 -0.036345176 -0.08003231 -0.018259168 0.109121434 0.061253726 -0.031494297
00000000: 0986 78bd 82c1 c8bd 086c 103d 98cf a0bd
00000010: 6e10 533c 11c8 db3d ac1c 213b 0da8 553e
00000020: 9e53 463d d0f7 133c 30a0 333d 8fe0 ee3b
00000030: 29e6 ec3c 4398 6cbb 12bf 5abd 4f3f bc3d
00000040: 7476 d43d 40d2 873c 9e03 943d 7a57 a2bc
00000050: 505f c5bd a428 ea3d 086d 6a3d 4b65 18bc
00000060: cce9 cf3d b2f8 253d 88b6 9dbd ecda 47bb
00000070: 0fb1 24bd 9fd5 94bd 3e57 913d 183f 26bd
00000080: ddb2 27bd 0b28 043e 5c8f 843c 7556 3f3d
00000090: 285d 073c a778 763d 41fe 70bd cb25 03bd
000000a0: 254a 86bd 7e65 25ba 9ff3 a33d ff78 9c3d
000000b0: 321a e33d 5bff 8ebd a2ba 7ebd 6427 b3bc
000000c0: 400c 183e 7f23 4f3d ca42 103e cbef 103e
000000d0: 7a2a 013e 455a 1a3d c2a2 713d 86df 9fbc
000000e0: 02bb 0d3d aed5 5c3d 9b94 f7bc fb05 8dbd
000000f0: b9f9 09bd 0460 b83c a020 adbc b5a4 033d
00000100: 79af d2bc 822f b43d 0ff3 a8bd 6211 fe3d
00000110: e154 0d3e 4194 c73d 07c6 a5bd f3bc b1bd
00000120: 026b 10bd 151b 3ebd ddd6 1fbb b427 523c
00000130: 066a 903d a0de 143e 681f bc3d f659 aebb
00000140: 799b f3bd 6e86 d2bc 0ca8 153e 6e0f 8ebd
00000150: 2081 df3c 0ce2 debd 5dc2 43bd a9df 66bd
00000160: 8aa4 30be d8b3 003d 202e 67bd 33a2 e03d
00000170: 1c87 db3d 2e96 d3bc 07ed 623d 91e1 23bd
00000180: a80a e33d 9268 e63d f410 bfbc 2173 76bd
00000190: b2d3 d23d 02f2 413d 5272 9f3d 8a36 983c
000001a0: 8ad4 863d ea9a 9e3d bd87 393d f721 eabc
000001b0: 888f 903d 09b6 c53d 13f7 07bd ad7f fabd
000001c0: 2555 59bd 474a 0c3d 0958 b83d 61d5 403d
000001d0: bbcb 1a3e 911e 4fbc ae57 e23d e5e0 4fbd
000001e0: 351f ab3d 26a6 423d aa5e 603d de13 f93c
000001f0: ca7a e1bd 4227 0a3e 2fa0 573d 676f e9bd
00000200: b951 883d 67e3 6a3d d38e f83d dfbd d13d
00000210: 1d95 e83c a0f5 703d 8494 1b3e fd7f b43d
00000220: 9e8e 6c3d f1b2 743c ac7e e7bd 569e 973d
00000230: 9caf 96bd 96e1 1cbd 7173 16be 2688 ffbd
00000240: 9dcd f0bc 3c12 00be 517a 913d dfb8 9f3b
00000250: 3dc3 e5bc c752 143e 84cf 6c3d 2663 433d
00000260: 42e8 afbd 4b10 95bd 161a 2ebd 121b af3d
00000270: 115c eabd 5703 c1bd 7a1f 8ebc dae7 8a3d
00000280: 0dec 283d e4d2 35bc eeb9 75bd 6ee8 adbd
00000290: 18ba 13bd de49 b83d 5126 d7bd 55ce d8bd
000002a0: eab4 6dbc c468 de3c 6966 193d 484d 563c
000002b0: a951 013e b800 fdbc b951 843d 21f6 7ebd
000002c0: 89ab d1bd 564d cabd a577 9e3d fb4e 95bc
000002d0: f2fa e3bc 83ad 943c 0e3b dabd 2031 0b3d
000002e0: cecf b1bd 47fc ba3d cece dc3d ef89 9d3d
000002f0: 36fe 6b3d 83f1 5d3d 6a0d de38 1467 d03c
00000300: fc70 2b3d e2a2 0cbb 8a8f 443d 3b25 adbd
00000310: 01c4 58bd 2ed8 0c3c 3f8b c8bc 1629 a33c
00000320: ac97 dc3d 9ae0 c6bc 4b13 313e 4d17 e3bc
00000330: 4c97 83bd cc9c 933d 7856 793d 2aa3 b83d
00000340: ad60 a53d ba37 b2bb f1fa 9abd 3930 d63d
00000350: a07b 9abc 40bf 203e 1270 f9bc 236b 3e3e
00000360: 71c5 f43c 101e 783d 6e25 96bc ac21 563e
00000370: 4ec2 d23d 0ce0 c9bd 0d77 56bc 5556 7abc
00000380: c5e0 9f3d a23e 16bd 4ad9 3fbd a4e9 613d
00000390: c017 803d acfd 0abc 691e 843d 4b4e 193e
000003a0: 6b2d b5bb cfd0 2b3e f7fa bd3d 9e30 163d
000003b0: 90e8 c6bc 37b0 ea3d 6fe0 eb3d 42a6 e5bd
000003c0: a090 303d 4c2e 2dbd d921 f9bc 6976 96bc
000003d0: f843 053d 1286 81ba 4622 a93c 248a 2b3e
000003e0: d33e 4b3d 6a85 8cbd aede 14bd fbe7 a3bd
000003f0: 4094 95bc 0f7b df3d 30e5 7a3d 2a00 01bd

lstm.weight_ih_l1 f4 [256, 64]
0.11557169 -0.037312306 0.1561105 -0.034880016 -0.088950284 -0.07697853 0.030690128 0.14872673
0.07459416 -0.08861112 0.012768305 0.09575765 -0.024600705 0.03597668 0.070562564 0.0732687
0.018121492 0.111497425 0.020321777 0.017423593 -0.016101083 0.007118465 0.018317308 0.04887335
0.00583255 -0.0074433126 0.16863456 4.431724e-06 -0.09393481 0.037242167 0.020778378 0.10681893
-0.01726178 -0.1521228 0.1272667 -0.0041285953 0.0027126116 0.16182499 0.076477334 0.07999058
0.03679388 0.15428035 0.15037103 0.12744759 0.09631974 0.113799036 -0.0064240005 -0.086742654
-0.049344007 0.054897625 -0.0870079 0.117766984 -0.00017698207 -0.027009927 -0.087973714 -0.074981846
-0.07172236 -0.06806625 -0.0149365 -0.028969567 0.06610883 -0.10466938 0.0390484 0.14541407
0.08895284 0.17170803 -0.012876945 -0.1618922 -0.11756192 0.06987181 0.03695553 -0.009884138
-0.11717485 -0.04295303 -0.010262238 0.11391178 0.030907156 -0.041479584 0.06316216 -0.16913289
-0.13291371 -0.014888524 0.16304967 -0.11489586 -0.13012153 0.11486284 0.07643509 0.006148626
-0.09231272 -0.1705014 -0.08048852 0.041598417 -0.047885492 0.023531683 -0.079570286 0.050551914
0.09280462 0.02571053 0.015519596 0.10224198 -0.03965936 -0.02892993 -0.06832747 -0.035015136
-0.0023276922 -0.03185258 -0.22177038 0.051204048 -0.088484086 0.09998019 0.06079583 0.028969714
0.10350852 0.03807908 0.1643823 0.0038336262 -0.055321522 0.07086266 -0.09604125 -0.059333082
-0.09616985 0.013424131 -0.021592073 -0.0066381833 -0.043732937 0.016026367 -0.13901371 -0.085769095
-0.029646693 0.060823686 -0.016501965 -0.060444754 0.013538616 0.038771726 0.056853324 0.15629806
0.011938308 0.009937383 -0.12767436 0.017188344 0.09152193 -0.010401898 -0.044748854 -0.031420078
-0.024739038 -0.0049597933 -0.09718079 -0.038421616 0.014937193 0.00051208114 -0.02660097 -0.08410722
-0.031242145 0.14703228 0.027469227 0.13119122 -0.0707321 0.019100575 0.011013654 0.050439578
-0.12774497 0.012076059 0.040102534 -0.114234336 -0.13952729 0.005007589 -0.0515832 -0.1437158
0.060853608 -0.030874223 -0.05231449 0.13332266 0.102070756 0.13932985 0.11109733 -0.11460688
0.14601566 -0.00941157 0.008719247 -0.08826307 0.05229133 0.045906477 -0.05689141 -0.032770075
-0.050461873 0.028884144 -0.018001743 0.07202656 -0.109730065 -0.027066845 0.08675237 -0.03934015
-0.0536942 0.060996912 -0.051428415 -0.00012515587 -0.0744125 -0.11085832 -0.07939518 0.10039978
0.047141466 -0.06929427 -0.162099 0.067510575 0.13358618 -0.063221805 0.0078105237 0.06794969
0.15166946 0.11045213 0.084051214 0.01409861 -0.12257751 -0.068511456 -0.076589316 0.06826478
0.113343574 0.16728978 -0.017869879 -0.09129845 -0.100255765 0.061869428 -0.012715676 0.15394317
0.020814793 -0.08425643 -0.16812517 -0.122680634 0.02248175 0.07825442 -0.063125215 -0.04913109
-0.0208566 0.06487769 -0.07907129 -0.041835286 0.0738927 -0.02604372 0.014720269 -0.097945124
-0.03919693 -0.0064426847 -0.07865129 0.08435401 -0.034750424 0.058169514 -0.0032378645 -0.06252535
0.061154626 0.058140215 -0.033060748 0.06840842 0.091227986 0.064145386 -0.0884592 0.064197466
00000000: dab0 ec3d cad4 18bd 6edb 1f3e 59de 0ebd
00000010: 912b b6bd eba6 9dbd dd69 fb3c d24b 183e
00000020: d3c4 983d bf79 b5bd 2732 513c 961c c43d
00000030: 6b87 c9bc 495c 133d 1b83 903d e60d 963d
00000040: 8673 943c c358 e43d db79 a63c ecbb 8e3c
00000050: 6be6 83bc 0342 e93b 2e0e 963c 6c2f 483d
00000060: fa1e bf3b 08e7 f3bb 8aae 2c3e 38b4 9436
00000070: e560 c0bd 3e8b 183d 6b37 aa3c e2c3 da3d
00000080: 9468 8dbc 14c6 1bbe 3452 023e 2b49 87bb
00000090: 12c6 313b 73b5 253e 26a0 9c3d 1ad2 a33d
000000a0: 2eb5 163d abfb 1d3e ddfa 193e 9f81 023e
000000b0: 4943 c53d 780f e93d 6c80 d2bb 22a6 b1bd
000000c0: f11c 4abd 55dc 603d 3331 b2bd d12f f13d
000000d0: 4394 39b9 ec43 ddbc 902b b4bd 1590 99bd
000000e0: 2ce3 92bd 5166 8bbd 39b8 74bc 9651 edbc
000000f0: 1164 873d e65c d6bd 37f1 1f3d 6de7 143e
00000100: e82c b63d 3bd4 2f3e d2f9 52bc 12c7 25be
00000110: 4ec4 f0bd f418 8f3d af5e 173d 14f1 21bc
00000120: 5ef9 efbd 84ef 2fbd f222 28bc 944a e93d
00000130: 0131 fd3c 7fe6 29bd 2a5b 813d 2c31 2dbe
00000140: 881a 08be ffee 73bc 7ef6 263e 854e ebbd
00000150: 943e 05be 353d eb3d 008a 9c3d 6a7a c93b
00000160: 740e bdbd eb97 2ebe 2ad7 a4bd 1a63 2a3d
00000170: 9423 44bd 84c5 c03c bff5 a2bd 860f 4f3d
00000180: 5910 be3d e49e d23c e745 7e3c 3e64 d13d
00000190: da71 22bd 76fe ecbc 46ef 8bbd 086c 0fbd
000001a0: 328c 18bb da77 02bd c617 63be 56bb 513d
000001b0: 2537 b5bd 6ac2 cc3d 0c05 793d e551 ed3c
000001c0: 46fc d33d cff8 1b3d d553 283e 933d 7b3b
000001d0: d298 62bd 7120 913d 46b1 c4bd 3f07 73bd
000001e0: b3f4 c4bd e3f0 5b3c dce1 b0bc 1e85 d9bb
000001f0: 4f21 33bd ba49 833c 9c59 0ebe b5a7 afbd
00000200: 9fdd f2bc 4222 793d 212f 87bc eb94 77bd
00000210: 12d1 5d3c 1acf 1e3d 08df 683d 990c 203e
00000220: e598 433c 68d0 223c 11bd 02be 92ce 8c3c
00000230: da6f bb3d b96c 2abc 934a 37bd 57b2 00bd
00000240: 86a9 cabc c385 a2bb b906 c7bd fc5f 1dbd
00000250: 21bb 743c 2f3d 063a 47ea d9bc 6840 acbd
00000260: 87ef ffbc a18f 163e 2507 e13c fe56 063e
00000270: fedb 90bd cf78 9c3c 9d72 343c bb99 4e3d
00000280: 94cf 02be aada 453c 8e42 243d b1f3 e9bd
00000290: 3ee0 0ebe b316 a43b e848 53bd 3c2a 13be
000002a0: a241 793d f0eb fcbc b847 56bd bc85 083e
000002b0: 790a d13d 7cac 0e3e ff86 e33d 03b7 eabd
000002c0: 2185 153e fc32 1abc 2cdb 0e3c 45c3 b4bd
000002d0: 6f2f 563d 6e08 3c3d f806 69bd ea39 06bd
000002e0: 1cb1 4ebd 719e ec3c 6478 93bc a982 933d
000002f0: 28ba e0bd 4abb ddbc 3aab b13d 2323 21bd
00000300: 73ee 5bbd e6d7 793d 9aa6 52bd 463c 03b9
00000310: 9565 98bd b009 e3bd f199 a2bd 669e cd3d
00000320: 6917 413d 27ea 8dbd 48fd 25be fc42 8a3d
00000330: d1ca 083e 6f7a 81bd 6cef ff3b 3529 8b3d
00000340: 3d4f 1b3e ba34 e23d 0b23 ac3d dbfd 663c
00000350: eb09 fbbd bc4f 8cbd dcda 9cbd 68ce 8b3d
00000360: ad20 e83d 034e 2b3e da63 92bc affa babd
00000370: e552 cdbd cc6a 7d3d 6955 50bc 47a3 1d3e
00000380: c983 aa3c a38e acbd 0129 2cbe fc3f fbbd
00000390: a62b b83c da43 a03d cb47 81bd af3d 49bd
000003a0: 76db aabc 98de 843d 21f0 a1bd 7a5b 2bbd
000003b0: 0e55 973d a459 d5bc 482d 713c 7497 c8bd
000003c0: f68c 20bd 281d d3bb ed13 a1bd ccc1 ac3d
000003d0: 7656 0ebd 2843 6e3d 5a32 54bb 4a0d 80bd
000003e0: 467d 7a3d 6f24 6e3d b56a 07bd b719 8c3d
000003f0: bdd5 ba3d a85e 833d 192a b5bd f679 833d

lstm.weight_hh_l1 f4 [256, 64]
-0.11241272 0.017242627 -0.113995604 0.026374558 0.06423361 0.014848091 -0.09523157 0.07620301
0.049385414 0.12074485 -0.0159621 -0.15197408 -0.11812471 -0.10609677 -0.023488257 0.08075613
0.014734453 -0.03532242 -0.022244042 0.12592287 0.06538536 -0.14242046 -0.044791356 0.03229619
0.073357284 -0.02810308 0.15316525 0.060774 -0.010814644 -0.044116016 0.15098941 0.07423453
-0.07790949 0.05725177 -0.08182356 0.019893361 0.11099854 -0.060152255 -0.06739597 0.07717844
0.014709757 0.10366173 0.08350637 0.13076252 -0.08546563 -0.043978345 0.09900216 0.06545825
-0.0044203964 0.11927925 0.03307724 -0.0136046065 0.1350213 -0.04546477 0.11331532 -0.021832412
-0.1306345 0.028048681 -0.10876372 -0.10204959 -0.053219706 0.06651358 0.096856706 -0.07372967
-0.047920518 -0.027006226 0.0866603 0.105476 0.16845722 -0.047812138 -0.0014757823 -0.065255456
0.08388604 -0.0055801314 -0.166806 -0.06297456 -0.08210964 -0.007986021 0.08295792 0.01690736
0.17967416 0.027850736 0.11557449 -0.00080650905 -0.10489107 0.022719866 0.017780902 0.10648112
-0.1064375 -0.020107538 0.11619488 0.10666253 -0.026733128 -0.156827 0.1535636 0.025689181
0.06091176 -0.008720363 0.1769894 -0.019326182 0.105923705 0.09274182 0.06693012 0.043512337
-0.065831885 0.0039883005 -0.0009319796 -0.04036171 -0.042487405 0.08990447 0.03679782 -0.103959486
0.022945683 0.07958157 0.04855148 -0.03270254 -0.042139627 -0.07891712 0.020543575 -0.07134625
-0.06498337 0.045836948 -0.11519522 0.040351145 -0.04954963 0.0880594 -0.009765957 0.06581911
0.0073781647 0.032854263 -0.14549734 0.09236026 0.04928803 0.011773299 0.13805884 -0.03102112
0.13035752 -0.00083434477 0.03173859 -0.133109 0.0758494 0.005021691 -0.117461056 -0.059985686
-0.046099648 0.12742768 -0.07592035 0.024120808 0.0731898 -0.14787047 -0.09357032 -0.05446406
-0.12391397 -0.084794514 -0.056654096 -0.019229354 -0.13189434 -0.078962326 -0.09327625 -0.1155423
-0.073728584 -0.06429675 0.016965315 0.0894726 0.01798772 0.016926823 -0.09943424 0.019031435
-0.043377575 -0.0032498648 0.1947655 0.07904312 -0.035399932 -0.016924767 0.023424946 -0.08218108
0.18880245 -0.051508017 0.06336006 0.09675815 0.07222347 0.12400077 -0.03897904 -0.010522421
0.024920277 -0.062367 -0.14522229 -0.0035945887 0.100988604 0.09562638 0.0722219 0.07832006
0.11536683 -0.031167984 -0.14789341 0.13378336 -0.0338484 0.0485458 0.0038578152 -0.003729408
0.039872147 0.15455636 -0.06520288 0.0003120614 -0.05389237 0.04040172 -0.0064627766 0.15164402
-0.123652816 -0.10343642 0.11963562 -0.085093305 -0.07796796 0.0026092555 -0.010042316 -0.05330281
-0.039061632 0.058975857 0.039291643 -0.0018797182 -0.16154459 -0.068503715 0.11320043 -0.15413782
0.13789381 0.052916538 0.15398176 -0.027581125 -0.076070204 0.058140486 -0.071369454 0.045372657
-0.041950054 -0.116392344 0.13746454 -0.03496281 0.10998874 0.0013249299 -0.050943557 -0.12493348
0.01053326 0.12717375 0.10404851 0.060634837 -0.12532619 -0.02575656 -0.03632345 0.032721974
0.0671207 0.09349041 0.0008987627 -0.06824321 -0.07511551 -0.0476012 -0.09965172 0.084854186
00000000: a438 e6bd 6940 8d3c 8776 e9bd 750f d83c
00000010: e98c 833d 6845 733c c508 c3bd 5310 9c3d
00000020: 5c48 4a3d 1349 f73d f3c2 82bc 189f 1bbe
00000030: 5eeb f1bd 4349 d9bd 726a c0bc 7863 a53d
00000040: c668 713c 3eae 10bd 2339 b6bc edf1 003e
00000050: c2e8 853d abd6 11be 2477 37bd 0249 043d
00000060: 583c 963d 6e38 e6bc 5ad7 1c3e 28ee 783d
00000070: e82f 31bc ffb2 34bd f89c 1a3e 4608 983d
00000080: 038f 9fbd d580 6a3d 1c93 a7bd 67f7 a23c
00000090: 3453 e33d 3662 76bd e606 8abd bb0f 9e3d
000000a0: 3101 713c 9a4c d43d 6305 ab3d 9ce6 053e
000000b0: 9b08 afbd a322 34bd a5c1 ca3d fa0e 863d
000000c0: f9d8 90bb ae48 f43d 007c 073d dbe5 5ebc
000000d0: 0643 0a3e 4439 3abd dd11 e83d e3d9 b2bc
000000e0: 0dc5 05be 59c6 e53c 83bf debd 60ff d0bd
000000f0: e8fc 59bd 4638 883d cf5c c63d 95ff 96bd
00000100: 4e48 44bd 293c ddbc f57a b13d cd03 d83d
00000110: 0d80 2c3e a9d6 43bd 096f c1ba a7a4 85bd
00000120: 72cc ab3d 89d9 b6bb 31cf 2abe cef8 80bd
00000130: 1929 a8bd cdd7 02bc d8e5 a93d 4e81 8a3c
00000140: 81fc 373e 3a27 e43c 51b2 ec3d e86b 53ba
00000150: 21d1 d6bd 031f ba3c 41a9 913c c612 da3d
00000160: e7fb d9bd 90b8 a4bc 95f7 ed3d e271 da3d
00000170: 6fff dabc 4297 20be c73f 1d3e 1e72 d23c
00000180: 9c7e 793d dadf 0ebc b63c 353e f151 9ebc
00000190: 87ee d83d 6cef bd3d a912 893d fe39 323d
000001a0: ded2 86bd 4ab0 823b 1850 74ba 5252 25bd
000001b0: 4607 2ebd d61f b83d 50b9 163d b6e8 d4bd
000001c0: 96f8 bb3c aafb a23d ebdd 463d 19f3 05bd
000001d0: 9a9a 2cbd 4d9f a1bd 004b a83c fc1d 92bd
000001e0: 0016 85bd 86bf 3b3d 79eb ebbd 3e47 253d
000001f0: 8ef4 4abd 7d58 b43d 6401 20bc 2bcc 863d
00000200: 88c4 f13b 3192 063d 41fd 14be 6027 bd3d
00000210: 3fe2 493d cce4 403c 4c5f 0d3e 0120 febc
00000220: 717c 053e eeb7 5aba 5300 023d ba4d 08be
00000230: ee56 9b3d ff8c a43b 6c8f f0bd 8db3 75bd
00000240: fcd2 3cbd 677c 023e 217c 9bbd 0099 c53c
00000250: 89e4 953d 5b6b 17be cca1 bfbd b515 5fbd
00000260: 9cc6 fdbd bfa8 adbd 200e 68bd e186 9dbc
00000270: 4f0f 07be 00b7 a1bd 9e07 bfbd 71a1 ecbd
00000280: 03ff 96bd 04ae 83bd d8fa 8a3c 693d b73d
00000290: fc5a 933c 1faa 8a3c 2ea4 cbbd d0e7 9b3c
000002a0: afac 31bd affb 54bb 9b70 473e 5ce1 a13d
000002b0: 85ff 10bd cfa5 8abc ace5 bf3c 8e4e a8bd
000002c0: 6e55 413e 12fa 52bd ebc2 813d 2329 c63d
000002d0: e6e9 933d 1ef4 fd3d 7ca8 1fbd 3c66 2cbc
000002e0: 9c25 cc3c 8a74 7fbd 27b5 14be 3193 6bbb
000002f0: 1dd3 ce3d c3d7 c33d 13e9 933d 4566 a03d
00000300: 7245 ec3d 0054 ffbc 5f71 17be 81fe 083e
00000310: 9fa4 0abd f6d7 463d 66d3 7c3b 1569 74bb
00000320: fa50 233d 0644 1e3e 1689 85bd 2c9c a339
00000330: 3fbe 5cbd 467c 253d b3c5 d3bb 9248 1b3e
00000340: b03d fdbd 79d6 d3bd 8503 f53d 6645 aebd
00000350: aaad 9fbd 0b00 2b3b 8788 24bc 0c54 5abd
00000360: 17ff 1fbd ab90 713d 46f0 203d e060 f6ba
00000370: f26b 25be ad4b 8cbd a1d5 e73d 4ed6 1dbe
00000380: 0934 0d3e 03bf 583d 65ad 1d3e d0f1 e1bc
00000390: b2ca 9bbd b824 6e3d 262a 92bd aed8 393d
000003a0: d2d3 2bbd 1c5f eebd 81c3 0c3e 2a35 0fbd
000003b0: c741 e13d 45a9 ad3a 31aa 50bd 20dd ffbd
000003c0: b293 2c3c d639 023e 6317 d53d 3c5c 783d
000003d0: 8255 00be 6cff d2bc e6c7 14bd 7a07 063d
000003e0: 9476 893d e677 bf3d f29a 6b3a 19c3 8bbd
000003f0: 29d6 99bd 7af9 42bd 3316 ccbd 08c8 ad3d

lstm.bias_ih_l1 f4 [256]
0.030759005 0.1188652 0.10922766 -0.055572078 0.042193152 0.07356023 0.095915735 -0.052627727
-0.03148395 -0.07828997 0.04521805 -0.0728185 0.09107265 -0.077427514 0.03722266 0.009639009
0.0067430544 -0.08195934 0.086052865 0.12534386 0.046357464 0.08637864 -0.08122873 -0.0039435243
0.014925485 0.13470191 0.06262336 -0.1009238 0.055153064 0.019750476 0.051776566 0.09030436
0.08542177 0.028332805 0.0588878 0.025658906 -0.06271306 0.13055894 0.012981404 0.10112478
-0.07020997 -0.0033422883 -0.019946475 -0.0023123166 0.103185244 0.0045344355 0.07896502 0.12023589
-0.042218648 0.12438411 -0.08567545 0.11674985 0.027228434 -0.07017655 0.034175757 0.14867781
0.08690235 -0.0010937044 0.044752657 0.07509877 -0.07464836 -0.08896798 -0.095770106 0.123449184
-0.12239342 -0.020799868 0.09408673 -0.04803498 -0.007995254 0.118673176 0.05900559 0.006759919
-0.082072005 -0.092817836 0.023552323 0.13499609 0.002971392 0.074698485 -0.0058316193 0.011151832
0.108327664 0.0358454 0.06941859 0.09709101 0.10918641 0.09634199 -0.0076908655 0.004030126
0.061788797 0.100444235 0.13282022 -0.09715912 0.05439728 0.094151385 0.10771978 0.116295956
0.013628052 -0.08349509 0.012944037 -0.026426453 0.02922945 -0.12122541 -0.06607201 0.037634756
0.0030237818 -0.08451968 0.024586655 -0.059561998 0.07160586 -0.022577316 0.117686756 -0.027739441
0.038369443 0.018097134 0.083669655 -0.16126466 -0.00049685873 -0.0642682 -0.09199569 -0.062372234
0.14580375 -0.033760466 -0.019365894 0.019003393 0.073463365 0.0012242517 -0.10037557 0.048241105
0.090636395 0.12605713 0.028783992 0.11592893 0.04712315 0.10814192 0.14464521 -0.121705964
0.122548446 -0.06778228 -0.09360882 -0.032790493 0.0748247 -0.082418695 0.050349932 -0.072392054
-0.023871763 0.029229192 0.0540319 -0.004873695 -0.14108804 0.05828764 -0.054598734 0.1037269
0.03569987 -0.048359454 0.028025657 -0.105628364 -0.003297355 -0.020365436 -0.028223539 -0.15434773
0.07039548 0.06667673 0.087994166 -0.059789613 -0.090833984 -0.05950522 -0.026326234 0.14628194
-0.02649175 -0.09059753 -0.0028938309 0.11079608 0.11377026 -0.04144919 0.11520253 -0.084786266
-0.09326539 -0.05399999 -0.09094337 0.05871615 0.058473084 0.008059731 -0.017948646 0.0058173356
0.08726541 -0.052254934 -0.03406285 -0.0682728 0.020782715 -0.009938974 -0.018476354 0.0022920528
-0.112340234 -0.057730515 -0.005811649 -0.021081708 -0.11721707 0.07002753 -0.0813615 -0.089633785
0.059925392 -0.05986487 0.10564563 0.038181424 -0.12865902 0.14222899 -0.115078494 -0.1204357
-0.10188684 0.07574531 -0.101101786 -0.0037309811 0.113900624 -0.027958883 0.115965284 -0.095324546
0.07590573 -0.041369136 -0.07712368 0.050875608 -0.05115415 -0.090678535 0.1050832 -0.0696116
-0.07094387 -0.046363674 0.063777596 0.069843836 -0.07807021 -0.116503395 -0.12647474 0.0386812
-0.048170753 -0.024186892 0.14681566 -0.084711336 0.001827424 -0.042973746 0.018976659 0.14457712
-0.028940788 0.10967296 0.10081246 0.111710355 0.041859064 0.14005812 0.12352733 -0.07426022
-0.023346247 -0.010443374 0.07253138 -0.02575948 0.048434615 0.11537527 0.13182555 0.016478237
00000000: 4ffa fb3c 996f f33d c0b2 df3d 8c9f 63bd
00000010: bad2 2c3d bfa6 963d 786f c43d 2c90 57bd
00000020: 50f5 00bd 7e56 a0bd 9036 393d de21 95bd
00000030: 4c84 ba3d 5192 9ebd ca76 183d efec 1d3c
00000040: d7f4 dc3b 4cda a7bd 7c3c b03d 245a 003e
00000050: 53e1 3d3d 49e7 b03d 405b a6bd ae38 81bb
00000060: 058a 743c 4cef 093e ad40 803d 23b1 cebd
00000070: 2ee8 613d c0cb a13c aa13 543d 7ef1 b83d
00000080: 9cf1 ae3d 331a e83c 5534 713d a032 d23c
00000090: b46f 80bd 3eb1 053e f4af 543c 821a cf3d
000000a0: 3fca 8fbd 4b0a 5bbb ca66 a3bc 3c8a 17bb
000000b0: c952 d33d 9a95 943b 6ab8 a13d 3c3e f63d
000000c0: 76ed 2cbd 19bd fe3d 9c76 afbd 8c1a ef3d
000000d0: 2a0e df3c b9b8 8fbd e1fb 0b3d ff3e 183e
000000e0: dcf9 b13d a15a 8fba 904e 373d 62cd 993d
000000f0: 3de1 98bd d834 b6bd 1e23 c4bd edd2 fc3d
00000100: 67a9 fabd 7c64 aabc 8bb0 c03d 54c0 44bd
00000110: 87fe 02bc ec0a f33d d8af 713d 5082 dd3b
00000120: 5e15 a8bd 4717 bebd cdf0 c03c 6a3c 0a3e
00000130: afbb 423b 85fb 983d 2b17 bfbb 2cb6 363c
00000140: e5da dd3d a0d2 123d 552b 8e3d a7d7 c63d
00000150: 209d df3d f34e c53d a803 fcbb 260f 843b
00000160: 4016 7d3d b5b5 cd3d 0602 083e 5cfb c6bd
00000170: afcf 5e3d 71d2 c03d 309c dc3d 932c ee3d
00000180: 3148 5f3c 79ff aabd 3a13 543c 4a7c d8bc
00000190: 9972 ef3c 0745 f8bd c350 87bd e726 1a3d
000001a0: a42a 463b a718 adbd f469 c93c 48f7 73bd
000001b0: 18a6 923d 10f4 b8bc c105 f13d d33d e3bc
000001c0: 4729 1d3d 7140 943c ff5a ab3d 9022 25be
000001d0: a03f 02ba 0c9f 83bd 3c68 bcbd 077a 7fbd
000001e0: 944d 153e 6a48 0abd 39a5 9ebc 01ad 9b3c
000001f0: f673 963d 1277 a03a b591 cdbd 7798 453d
00000200: 939f b93d 1f15 013e 68cc eb3c 266c ed3d
00000210: 3404 413d 8379 dd3d e01d 143e fa40 f9bd
00000220: aefa fa3d 70d1 8abd fbb5 bfbd 534f 06bd
00000230: b13d 993d 22cb a8bd bb3b 4e3d 4942 94bd
00000240: b78e c3bc 0f72 ef3c 8e50 5d3d 84b3 9fbb
00000250: 6279 10be 05bf 6e3d eca2 5fbd c56e d43d
00000260: 073a 123d 9014 46bd 1096 e53c af53 d8bd
00000270: 7018 58bb 6ad5 a6bc 0d35 e7bc 550d 1ebe
00000280: 812b 903d cf8d 883d 4936 b43d f4e5 74bd
00000290: 2b07 babd bfbb 73bd 1daa d7bc efca 153e
000002a0: 3a05 d9bc 338b b9bd 6da6 3dbb 0ee9 e23d
000002b0: 6200 e93d a0c6 29bd 4eef eb3d 6ca4 adbd
000002c0: ed01 bfbd 182f 5dbd 8440 babd 5880 703d
000002d0: 7981 6f3d f60c 043c 0a09 93bc 599f be3b
000002e0: 35b8 b23d 4509 56bd 7d85 0bbd 9cd2 8bbd
000002f0: 8340 aa3c 14d7 22bc b95b 97bc 4436 163b
00000300: a312 e6bd d576 6cbd a56f bebb 8cb3 acbc
00000310: 810f f0bd 986a 8f3d dca0 a6bd eb91 b7bd
00000320: 5474 753d de34 75bd bc5c d83d 2064 1c3d
00000330: 31bf 03be 7aa4 113e 46ae ebbd fea6 f6bd
00000340: 0caa d0bd 5b20 9b3d 740e cfbd 7a83 74bb
00000350: bb44 e93d 070a e5bc 357f ed3d 8439 c3bd
00000360: 7774 9b3d af72 29bd 05f3 9dbd f162 503d
00000370: 0487 51bd abb5 b9bd dc35 d73d 8790 8ebd
00000380: 054b 91bd d6e7 3dbd d49d 823d 490a 8f3d
00000390: 46e3 9fbd 5599 eebd 9882 01be 2e70 1e3d
000003a0: b24e 45bd 9723 c6bc d856 163e 237d adbd
000003b0: 2d86 ef3a 3d05 30bd f074 9b3c 060c 143e
000003c0: 3b15 edbc 389c e03d c376 ce3d 66c8 e43d
000003d0: 6974 2b3d 656b 0f3e e6fb fc3d be15 98bd
000003e0: a140 bfbc af1a 2bbc 558b 943d 8c05 d3bc
000003f0: 6063 463d df49 ec3d 47fd 063e 5efd 863c
