models/lstm_gk_model.pt (torch, 245029 bytes, 9 tensors)

lstm.weight_ih_l0 f4 [256, 38]
000000 35 b9 0c 3e c5 4a db 3d 3e f1 ec 3b 1c 2a eb 3d
       0.13742526 0.107076205 0.0072309067 0.11482641
000010 f0 23 1c bd 10 e6 75 3b a8 90 48 bd d7 b8 b6 3d
       -0.03812021 0.003752116 -0.04896608 0.08921974
000020 9c 88 10 3e ac 52 5c bd 61 e7 eb 3d 6a ec 8d 3a
       0.14114612 -0.05378978 0.115187414 0.0010827903
000030 13 31 fd 3d bf c7 f9 3c c4 21 8a 3d 00 74 62 3c
       0.12362876 0.030490754 0.067447215 0.013821602
000040 6c 69 03 3e 38 5b 97 3c 9c 7d 8d bd 33 3d 2a 3c
       0.12833184 0.018476114 -0.06908724 0.010390568
000050 44 31 3b bd 33 c6 96 3a d4 91 32 bd 85 54 e9 3d
       -0.04570128 0.001150316 -0.043596104 0.11393074
000060 84 8a 89 bd f9 49 ef bc 7b 66 99 bd 06 c4 0a bd
       -0.06715873 -0.029210078 -0.0749025 -0.03387835
000070 bf b4 df 3c 1d dd d8 bd 0b 63 de 3d e4 e0 a0 bd
       0.027307866 -0.10589049 0.10858735 -0.078553945
000080 70 2f fd 3d 06 1f 0d 3d 57 51 9c ba cb c4 69 3d
       0.123625636 0.034453414 -0.0011926097 0.057072442
000090 a6 d7 b2 3b 44 a7 ab 3d e6 34 64 3c f4 06 48 bd
       0.005457836 0.08381513 0.013928628 -0.048834756
0000a0 65 8b 9e 3c 08 d8 0a bd 63 10 15 3d 66 f2 0b 3e
       0.019353578 -0.03389743 0.03639258 0.13666686
0000b0 f7 63 9d 3d 6b 3e 18 bd 17 bb 58 3d fe 9d 36 3c
       0.076850824 -0.0371689 0.052912798 0.011146067
0000c0 4a af 1a 3d dd d9 45 bd 63 67 12 be a2 2a 2f bd
       0.037764825 -0.048303474 -0.14297251 -0.042765267
0000d0 bd c6 b2 bd 05 9c bf 3d 17 75 e7 3c cc 13 54 3d
       -0.087293126 0.0935593 0.028254075 0.051776692
0000e0 71 05 bf 3c de 82 bb 3c 45 c1 d1 3d e1 18 92 bd
       0.023318024 0.02288955 0.10241941 -0.071336515
0000f0 06 cd 86 3c e5 cf c1 bd 50 c1 f9 3c ea ef 80 bd
       0.016455185 -0.09463481 0.030487686 -0.0629576
000100 f0 ba 91 3c 77 36 35 bd ff 7f e6 3d 41 18 6a bd
       0.017789334 -0.044241395 0.11254882 -0.057152037
000110 b7 09 89 bd 7a 58 90 bd 72 ec eb 3d e9 ef 40 3d
       -0.06691306 -0.070481256 0.11519708 0.047103796
000120 d4 24 f5 3d 07 90 04 be 49 e4 15 be 5d 0b fb bd
       0.11969915 -0.12945567 -0.14637865 -0.12258027
000130 8c 8b 04 be b4 9f 32 3d 43 09 c1 3c 76 b7 d4 3d
       -0.12943858 0.043609336 0.023563987 0.10386555
000140 33 96 12 bd 76 ea 02 be 0a 53 c2 3d 61 55 de bc
       -0.035787772 -0.12784752 0.09488495 -0.027140321
000150 67 cf 11 3d e2 71 91 bd 38 1e 7e 3d 8b 16 20 be
       0.035598185 -0.071017995 0.062040538 -0.156336
000160 57 13 e5 bd 71 ab cb 3d 23 07 a5 3d 9c 82 bb bc
       -0.111853294 0.09944809 0.08058002 -0.022889428
000170 14 96 a5 3d fa 07 ae 3d 35 77 7d bd d3 fb df bd
       0.08085266 0.08497615 -0.061881263 -0.109367035
000180 f6 73 12 3e 84 f5 99 bc e7 35 21 3c 51 e4 e5 bd
       0.14302048 -0.018793829 0.0098395115 -0.112251885
000190 d1 2e 86 bd 28 63 ee bc a6 3f 9c ba b9 b1 de bd
       -0.06551898 -0.029100016 -0.0011920824 -0.10873742
0001a0 cc a9 5a 3d 24 0e 61 bd ef 85 fb bd 7a 88 24 bd
       0.053384587 -0.054945126 -0.12281405 -0.040169217
0001b0 c7 e0 8d bd e5 bd 4b bd a2 8c e0 3d 02 06 29 3c
       -0.069276385 -0.049741644 0.109643236 0.010316374
0001c0 b5 ec db 3c 61 30 04 be d0 a5 ff bc d0 91 65 bd
       0.02684627 -0.1290908 -0.031206995 -0.05604726
0001d0 90 80 3b 3d 86 42 e1 bd 34 27 4a bd 96 05 c8 bd
       0.045776904 -0.109990165 -0.049353793 -0.097666904
0001e0 f0 43 31 bc 75 dc 7d bd 8f 7f 16 3d 2d 14 4b bd
       -0.01081942 -0.061977822 0.036742743 -0.049579788
0001f0 b7 12 a9 bd 88 f7 bd bd 3b ea ca 3a b6 ed cd bd
       -0.08255523 -0.092757285 0.0015481183 -0.100551054
000200 2c 05 ce 3d 12 21 df bc 86 c4 d7 3d b0 87 1f 3d
       0.1005958 -0.027237449 0.10535531 0.03894776
000210 93 8d cf bd fa 65 82 3d ff 9b 3a bd ba cd 81 bd
       -0.10134425 0.06367107 -0.045558926 -0.06338067
000220 4a 20 dd bd 97 80 02 be 66 66 06 3d 21 0f 66 3c
       -0.10797174 -0.12744366 0.0328125 0.014041693
000230 23 68 47 3d 93 1f 95 bd 74 56 01 3e a5 8d 9f bd
       0.048683297 -0.07281413 0.12630635 -0.077906884
000240 93 71 ba bc a2 0b 03 bb 06 fd 5a 3d 30 91 05 3e
       -0.022759235 -0.0019995947 0.05346396 0.13043666
000250 ff ff 04 3e de c4 ed bd 85 cd 78 3c 3c 2b 90 bd
       0.1298828 -0.11609815 0.015185718 -0.07039496
000260 50 f6 2d bd 76 e6 e1 bd d3 ce f4 3d 2e e4 bb bd
       -0.04247123 -0.11030285 0.11953511 -0.09174381
000270 6b a5 a4 3d 24 93 63 3d 36 1c 04 3d fd 65 92 bd
       0.080393635 0.055560246 0.032253467 -0.07148359
000280 af 3c d5 3d 7e dc cd 3c 08 bf d4 3c 51 c3 d2 bd
       0.10411965 0.025129553 0.025969997 -0.1029116
000290 0d 0d 30 3d cc d7 9e bc 53 45 6d bd a4 bc e1 3d
       0.042981196 -0.01939001 -0.05792744 0.110223085
0002a0 61 37 f3 3c 86 a3 8d bd 71 7d 4b bd 79 7e b9 3b
       0.029689493 -0.06915955 -0.049680177 0.0056608287
0002b0 15 9d 7b 3d b8 d1 12 bd 39 6c 93 bd 40 d7 24 bd
       0.061429102 -0.035844535 -0.07198376 -0.04024434
0002c0 e9 1c bc bd 6e 09 08 3d e1 0d a6 3d b7 91 de bd
       -0.09185202 0.033212118 0.08108116 -0.10867637
0002d0 2b c7 eb 3c 31 22 79 3d b5 79 d6 3b 98 dc b4 bc
       0.028781494 0.060823623 0.0065452703 -0.022077844
0002e0 ba dd 8a 3d af b0 65 3d bc 12 60 3c 4e c1 37 bd
       0.06780572 0.0560767 0.013676342 -0.044862084
0002f0 e2 d9 5c bd f9 b2 0a bc a6 fd 84 3b c5 11 c4 bb
       -0.053918727 -0.008465522 0.0040585576 -0.0059835636
000300 c9 fa d0 3d 9c 01 dc 3d 14 dd 8c bc 70 6b 42 bd
       0.102040835 0.107424945 -0.017195262 -0.04746574
000310 c2 95 16 3d c1 27 bb 3c 49 6d 55 3d 68 23 72 3d
       0.036763914 0.022846105 0.052106176 0.059115797
000320 49 0d c6 bd 4b 29 53 bd 01 d8 01 3e a9 d2 16 3d
       -0.09670503 -0.051553052 0.12680055 0.036821995
000330 9d 65 a4 bc 5e 88 c2 bd 03 3d c3 bd fa 50 e5 bd
       -0.020067984 -0.09498666 -0.095331214 -0.11197086
000340 4f a3 3a bd 8b 3d ba 3c b9 c9 ea 3d c5 44 b4 3d
       -0.0455659 0.022734424 0.11464257 0.08802179
000350 f2 a7 fe bd 48 02 c1 bd 62 b2 1b bd b8 ee 10 3e
       -0.12434377 -0.09424263 -0.038011916 0.14153564
000360 f6 1b 1f 3d 4a 2a f6 3a 07 34 25 3d 4a e9 30 bd
       0.038845025 0.0018780914 0.04033282 -0.04319123
000370 69 ef 50 bd 37 37 01 3e 4f f7 e5 bc 0d 12 1f bd
       -0.05100957 0.12618719 -0.028072027 -0.038835574
000380 43 06 df bd 52 a8 eb 3d 23 be 01 3e cf 42 9e 3d
       -0.10889866 0.11506714 0.12670188 0.077275865
000390 01 83 4e bd 46 30 c1 bd 1b c7 96 bd 36 e6 be 3d
       -0.050417904 -0.094330356 -0.07362195 0.09321253
0003a0 6a a8 3c 3d d9 6a 9a 3d 6b 7b b9 3d ac 0f 40 3d
       0.04605905 0.07539911 0.09056743 0.046889946
0003b0 f1 ef aa 3c 8f 3e 86 bd 5d 30 e6 bd 74 54 0e be
       0.020866366 -0.06554901 -0.11239693 -0.13899404
0003c0 b8 f8 95 3d ec 36 19 bd 61 bd 05 bb a6 aa 49 bd
       0.0732283 -0.037405893 -0.0020407068 -0.04923501
0003d0 77 73 be b9 86 2e b4 bd 41 da c3 bd 26 48 3f 3c
       -0.00036325652 -0.08797936 -0.09563113 0.011674916
0003e0 b0 af 45 bc 61 47 bd 3d 9e 24 8b bc 80 1d 8e bd
       -0.012065813 0.0924213 -0.016985234 -0.069392204
0003f0 50 cc 4e b8 82 29 16 bd dd 13 9f bc 95 73 b2 bd
       -4.9304508e-05 -0.03666068 -0.019418651 -0.08713452

lstm.weight_hh_l0 f4 [256, 64]
000000 00 97 ba bc 6a b3 f8 3d ce 09 d5 3c 96 a1 15 be
       -0.02277708 0.121435955 0.026005652 -0.14612421
000010 e5 73 e0 bd e1 4b 2b bb 36 ae d7 bd e5 1b 6e bd
       -0.10959605 -0.0026137757 -0.10531275 -0.05813207
000020 7b 95 84 3d 37 cb c7 3b e0 8e f3 bc 07 1e 0f 3d
       0.06473824 0.006097223 -0.029731214 0.034940746
000030 27 71 ba 3d 8b 85 13 3e 07 e9 99 3d 42 ba d3 bd
       0.09103613 0.14406411 0.075151496 -0.1033826
000040 51 88 c8 bd 43 36 57 3d 19 aa 05 3e 6f 59 ce bd
       -0.09791625 0.052541982 0.13053168 -0.10075652
000050 99 50 db 3d 9a 8a f0 bb 31 20 53 3d 64 ed 13 3e
       0.10708732 -0.0073407413 0.051544372 0.14446026
000060 57 e6 f3 3c 80 dc e6 bd eb 4b a1 bd 6a b5 56 3d
       0.02977292 -0.11272526 -0.07875808 0.052419104
000070 3f a7 79 3d 1c ba 3d bd 02 f4 ef 3d 22 e7 0c 3c
       0.060950514 -0.046320066 0.11716463 0.008600028
000080 7b e0 af bd 39 21 f0 bb 9e 2a 4a be 40 d1 a3 3c
       -0.08587738 -0.007328179 -0.1974282 0.01999724
000090 5b 02 01 be f3 06 07 3e dc 9d 21 be 4e b8 81 3d
       -0.12598555 0.13186245 -0.15782875 0.063339815
0000a0 e8 ff 98 bd 78 8f ac 3c d6 0f 05 be e7 a4 d1 bb
       -0.07470685 0.021064505 -0.12994322 -0.0063978317
0000b0 bf 33 ae 3d 7b 5b 03 be 0b 30 9a bd ea 2d b9 bc
       0.085059635 -0.12827866 -0.07528695 -0.022604901
0000c0 4c 42 85 bb d2 db fa bc 98 e9 b8 bc 65 b2 da bc
       -0.004066741 -0.030622397 -0.022572324 -0.026696393
0000d0 f7 5d 60 3d 74 28 65 bc 5d 61 a9 bd 59 f0 ee 3c
       0.05477711 -0.013986696 -0.08270524 0.029167341
0000e0 b8 6a bc bd 45 63 8e bd 26 26 a4 3d 92 03 24 bd
       -0.092000425 -0.06952528 0.08015089 -0.040042467
0000f0 e5 80 22 be ab 1d 2b 3d 0c c4 df bc 75 84 15 3d
       -0.15869482 0.04177634 -0.027315162 0.036503274
000100 e6 90 17 3d 5b e6 0c be cc c2 40 bd 11 7c 8d bd
       0.03700342 -0.13759749 -0.047060773 -0.069084294
000110 f7 8c 07 3e 2e 9c 34 bd 0c 0d b6 bd 46 c9 0f bd
       0.13237368 -0.044094257 -0.08889207 -0.03510406
000120 c2 d9 17 3b 64 5e 2d 3d f7 79 e6 3d 27 27 92 3d
       0.0023170565 0.042326346 0.11253732 0.07136374
000130 a8 39 c4 3b 0c 96 d9 3d 73 95 92 3d 60 61 8f 3d
       0.0059883185 0.10624322 0.071574114 0.07000995
000140 52 11 a9 bd 5f e8 30 3c fc 72 14 bd 8a 5d d2 bd
       -0.08255257 0.010797589 -0.03624247 -0.102717474
000150 02 7b 4c bd 28 96 9e 3d 90 3b 16 3d a9 21 cc 3d
       -0.049921997 0.07743484 0.036677897 0.09967358
000160 d3 c1 c0 3d 40 b8 97 3c 7a 96 f9 3d 7f e8 88 3c
       0.09411969 0.018520474 0.12186904 0.016712425
000170 5f d6 a5 bb 71 77 40 bd 59 52 a9 3d 39 b2 70 3d
       -0.0050609554 -0.04698891 0.0826766 0.058763716
000180 49 1a c7 3d 90 e6 8d bc fa 74 c4 bd b4 ba df 3c
       0.0972181 -0.017321855 -0.09592624 0.027310707
000190 ca a6 f7 3a ab 98 d3 bd 2e 42 1a 3d c9 ac 5a bb
       0.0018894312 -0.103318535 0.03766077 -0.0033367148
0001a0 e2 64 bb 3d 2a e7 03 3c 00 52 41 bd 74 40 e9 3d
       0.09150101 0.008050719 -0.047197342 0.113892466
0001b0 72 a8 9a bc ad 51 e7 bc 11 e0 67 3d 7a b6 03 3e
       -0.01887915 -0.028237188 0.05661017 0.12862578
0001c0 29 14 5a 3d d3 66 d9 3c 29 94 ae 3d 21 e5 24 bd
       0.053241882 0.026538288 0.08524353 -0.040257577
0001d0 df 7d ff 3d 48 71 c4 bd ab 5b 8b 3c b1 46 01 3e
       0.1247518 -0.09591919 0.017011484 0.12624623
0001e0 a1 2c 93 3d e0 1f 0f bd 7d 93 a6 3d 5d 78 83 3d
       0.07186247 -0.034942508 0.081336 0.06419442
0001f0 56 8c ee bd b1 f3 21 bb b8 fc 9f bd 91 48 69 bd
       -0.11647861 -0.0024711902 -0.07811874 -0.05695397
000200 8a a1 31 3d 4f 68 a3 bd 98 0b a5 bc 46 96 b3 3d
       0.043366946 -0.0797888 -0.02014713 0.08768897
000210 bf 3d 42 3d ba 44 49 be 56 8d da 3d 4e f4 cd bd
       0.047422167 -0.19655123 0.10671489 -0.10056363
000220 8f 86 01 bd ec db c3 3c e3 66 11 3d 91 44 7a bd
       -0.031622466 0.023908578 0.03549851 -0.061100546
000230 1f 11 3f bd 88 1c e2 3c f2 39 35 be 91 52 0a 3c
       -0.046647187 0.027601495 -0.17697886 0.008442537
000240 da 21 0d 3e bd 85 e0 3d 15 3e c6 3c 34 23 6c 3d
       0.13782445 0.109630086 0.024199525 0.05765076
000250 eb a3 92 bd ae e6 d6 bc c9 15 85 3d 4a a6 a5 3d
       -0.07160171 -0.026233044 0.06498296 0.08088358
000260 9e dd 8e 3c 75 9c 91 3d be 8f 1e bd fb 84 14 3e
       0.01743966 0.0710992 -0.038711302 0.14503853
000270 30 1f 19 be da d0 05 be 24 8b d9 3d d9 1f 9c 3c
       -0.14953303 -0.13067952 0.10622242 0.019058155
000280 6a 97 e2 bd b6 19 8a 3d ed 0a cb 3d ef 88 77 3d
       -0.11064036 0.06743185 0.09914193 0.060433324
000290 53 b5 19 bd a4 d2 0e 3e f5 35 f1 3d f8 5f c8 bd
       -0.03752644 0.1394754 0.117778696 -0.097839296
0002a0 50 18 41 bd a5 7c 19 3d f6 08 c3 bc 3f 37 83 3d
       -0.047142327 0.037472386 -0.023807984 0.06407022
0002b0 8f 62 db bc 1a ce 77 bc b5 dc 45 bd 7a bf 9f bd
       -0.026780395 -0.015124822 -0.048306186 -0.07800193
0002c0 6f 88 63 3d c5 d8 49 be eb ec 9b bc ac 17 ff bc
       0.055550035 -0.19711597 -0.01903387 -0.031139217
0002d0 49 71 03 bd 38 7e 39 bd 20 1d d8 b9 ca 95 97 3a
       -0.03209046 -0.045286387 -0.0004122043 0.0011565026
0002e0 ce 4b 02 3d d5 e4 2e bd 4f ee 89 bd 20 f8 1c 3e
       0.031810574 -0.0426987 -0.06734907 0.15329027
0002f0 2e 04 95 bc b9 ed c8 bd 00 7e b5 3d 3c 53 b5 bd
       -0.01819047 -0.09810967 0.08861923 -0.08853766
000300 12 cd 8c 3d 50 f3 c6 3d 6b bf b8 bd 88 4c d7 3c
       0.068750516 0.09714377 -0.09020885 0.02628161
000310 f6 06 2c 3d 4d f5 91 bd 54 72 df 3c 9d 93 fe 3d
       0.041998826 -0.071268655 0.027276196 0.12430499
000320 e3 b6 06 3d 21 18 78 bc 57 79 40 bd d4 59 97 bd
       0.032889258 -0.0151424715 -0.04699072 -0.0739018
000330 d1 cd 8c 3d c4 a4 06 be 45 b3 00 be 8b bb 9f bc
       0.06875194 -0.1314879 -0.12568386 -0.019498607
000340 9e de 06 be 4a 07 ad 3d e7 e2 fb bb 1f c0 9e bd
       -0.13170859 0.08448656 -0.007686961 -0.07751488
000350 a7 f7 75 3d 18 37 a2 3d 9a 07 58 3d f0 6b 52 bd
       0.060050633 0.079206645 0.052741624 -0.05137247
000360 a9 a9 a7 3b f2 fc c7 bd 56 c4 00 be 1a 1c 72 bd
       0.0051166606 -0.09765042 -0.12574896 -0.05910883
000370 c5 59 e7 3c 59 39 44 bd 0a d1 50 bb ac 79 72 3d
       0.028241048 -0.047906253 -0.0031862878 0.059198067
000380 33 4a 5d 3d f3 60 6c 3d 48 af 9f 3d 2a 9c 1d 3d
       0.05402584 0.057709645 0.07797104 0.038479008
000390 8b 98 5a bd c2 26 8c 3d fe a5 0a be 5b 12 7e 3d
       -0.053368133 0.0684333 -0.13539883 0.062029224
0003a0 66 85 30 bd 70 3f 69 3d c5 62 df bd 34 50 dc bc
       -0.04309597 0.056945264 -0.10907511 -0.026893713
0003b0 b1 27 4c 3d f6 8a c0 bd 99 7e 94 3d f8 85 50 3b
       0.04984254 -0.09401505 0.07250709 0.0031818133
0003c0 3c 94 d9 3d 64 88 05 3e 00 86 c2 bd 35 a8 16 bc
       0.106239766 0.1304031 -0.09498215 -0.009195377
0003d0 a6 d3 58 3c a7 07 9b bd cf c7 4c 3d 86 03 9e bd
       0.013234055 -0.07569819 0.04999524 -0.07715516
0003e0 5c 76 b7 bd a2 a2 77 bb b9 9a f6 bd cc 80 d6 bd
       -0.08958122 -0.0037786146 -0.1204123 -0.10473785
0003f0 93 b2 65 3d 94 24 76 bd 09 6d a1 3d 20 a5 6c bd
       0.056078505 -0.060093477 0.07882125 -0.057774663

lstm.bias_ih_l0 f4 [256]
000000 23 24 8c bc 92 a8 3c bc c1 32 e9 3b 66 bc d6 bd
       -0.017107075 -0.0115148 0.007116646 -0.10485153
000010 b9 20 7f bd 7b 3a ac 3d d3 81 6e 3d 6c 50 1d 3e
       -0.062287066 0.08409592 0.05822928 0.1536271
000020 5a 03 0e 3e 39 80 5d ba d8 64 cc 3d 9d 3a 23 3d
       0.13868466 -0.00084495876 0.09980172 0.03985082
000030 cc 68 ba 3d e3 fe f4 bc 37 40 4a bb b3 0d 8b 3d
       0.0910202 -0.029906696 -0.003086103 0.06789722
000040 27 73 29 3d 96 94 3f 3d 91 c9 06 3e 1f 16 13 3e
       0.041369583 0.046772562 0.13162829 0.14363907
000050 d1 d8 c8 bd da 44 5f 3c 4d 18 2a 3d 64 86 6b 3d
       -0.098069794 0.013627255 0.04152708 0.05750121
000060 57 2d c3 bd 13 b0 e4 3d 3f 3e 62 3d 5e d5 d3 3d
       -0.09530132 0.11166396 0.055235144 0.10343431
000070 34 5d 9e bc b2 2b 3a 3d d6 83 c5 3d 42 d5 0d 3e
       -0.019331552 0.045451827 0.09644286 0.13850883
000080 92 5c a0 bc db 4c cd 3d b2 47 2c bc 5a 48 d1 3d
       -0.019575391 0.10024425 -0.01051514 0.10218878
000090 1b 90 71 bc dd 0f 9b 3d e4 a0 8e bd 22 54 93 3d
       -0.01474383 0.07571385 -0.06964281 0.071937814
0000a0 9b 71 8c bd 88 6e 0d bd 3f 1b c4 bb e0 53 7b bc
       -0.06857606 -0.03452924 -0.0059846933 -0.015339822
0000b0 ff fc ce 3d 73 19 e7 3d b9 7b 68 3d 25 28 93 bd
       0.10106849 0.11284151 0.056758616 -0.07185391
0000c0 18 74 0a 3e ce 0d 1b 3e 0a 58 97 bb b0 04 44 bd
       0.13520849 0.15141985 -0.0046186494 -0.047856033
0000d0 bf bf fa 3d b0 dc f7 3d e7 dd b4 3d 95 89 c0 bd
       0.12243604 0.1210264 0.08831387 -0.09401242
0000e0 61 cb be bd 10 68 e9 3d a6 00 bd bd c4 b4 a4 3d
       -0.09316135 0.113968015 -0.09228639 0.08042291
0000f0 83 7f d2 3d cc 0d fa 3a b6 31 ef bd 59 76 ee bd
       0.10278227 0.0019077598 -0.116794035 -0.11643667
000100 02 78 00 3e c0 87 b7 3c 42 67 b3 3d 9f 5d 20 bd
       0.1254578 0.022403598 0.08759929 -0.039151784
000110 0d fa a7 bd fc 5b 7a 3d fc 22 b2 bd e9 db 9b 3d
       -0.0820199 0.06112288 -0.08698079 0.07610304
000120 78 21 fe 3a 33 b0 b1 3d 4d 43 4b bd 3b 1a 44 3c
       0.0019388637 0.086761855 -0.04962473 0.011969144
000130 ce 2e 9f bd f8 b7 f7 3c 13 d9 2e bc 78 c2 77 bd
       -0.07772599 0.03023909 -0.010671872 -0.060488194
000140 a0 f2 10 be c6 c6 c9 3d 85 0f f6 3d 02 34 0d bd
       -0.14155054 0.09852366 0.12014679 -0.034473427
000150 fc 35 c3 bc e0 13 d9 bc f8 82 8c bd 46 09 f5 bd
       -0.023829453 -0.026498735 -0.06860918 -0.119646594
000160 5f 52 fe bc 0a a9 53 3d f8 c2 a8 bd d0 cd 11 3e
       -0.031045137 0.05167488 -0.08240312 0.14238667
000170 15 0c ee bc d7 33 87 bd 4a a5 71 bd b4 80 18 3e
       -0.029058496 -0.066016845 -0.058995523 0.14892846
000180 fe fe 8a ba 39 39 d3 3d 7b 7c 5d 3d 9b fd f3 3d
       -0.0010604558 0.10313649 0.054073792 0.11913606
000190 3e 39 c4 bd 4a c5 48 3d 80 88 c6 3d ae 01 27 bd
       -0.095812306 0.049016275 0.09694004 -0.040773086
0001a0 56 8e a2 bd 9d 0d 47 3c 52 76 41 3c aa ad 13 bd
       -0.07937305 0.012149242 0.011807995 -0.03605429
0001b0 fc 4c cc bd 0a 4b 15 3d cd b5 14 bc 32 86 ac bd
       -0.09975621 0.036448516 -0.009076548 -0.08424033
0001c0 f1 21 c2 bc f7 2b c1 3c f9 99 d8 3d a7 b3 6d 3d
       -0.023697825 0.023580534 0.10576243 0.058032658
0001d0 e2 23 fa 3d e5 7e cc 3c 4e 5b 98 3d d5 e5 b8 bd
       0.12213875 0.024962852 0.0743929 -0.09028212
0001e0 46 4d 4e 3d 93 b5 4e bd e7 82 73 3d b0 1d 61 3d
       0.050366662 -0.05046613 0.05945101 0.054959953
0001f0 4a b8 75 3c 42 e9 c2 bc 22 6b 5a 3d 0e 76 76 3c
       0.014997551 -0.023792867 0.053324826 0.015042795
000200 d5 fa 8b 3d af 00 07 3c be d3 ce bd 06 a3 9e bd
       0.06834952 0.008239909 -0.1009898 -0.07745938
000210 6f 2e db bd 36 f4 97 bd 1b 4f b3 bc 5d ac f7 3b
       -0.10702216 -0.074196264 -0.021888306 0.007558389
000220 6e 25 f2 3d ea 48 ea 3c 46 38 98 3c f6 16 b2 3d
       0.118235454 0.028599221 0.01858152 0.08695786
000230 83 7c 0d 3e 8f 6c 8b 3d c5 0c 29 bc f0 18 96 3d
       0.13817029 0.06807815 -0.010317986 0.07328975
000240 7c b0 b5 bd b4 41 c9 3d 0f 81 b8 3d d6 df 1e be
       -0.08871552 0.09826985 0.09008991 -0.15515074
000250 e6 33 a3 bd 86 d0 8e 3c 8d 93 93 3d 14 ae b5 3d
       -0.07968883 0.017433416 0.072058775 0.088710934
000260 ec fd c3 bd 87 8b 19 3e 0e 13 7d 3c 3c 17 e2 3b
       -0.09569916 0.14994632 0.0154464375 0.0068997424
000270 74 20 2f bd ba f7 45 3d 6f 91 06 3d 07 a4 38 3d
       -0.04275556 0.048331954 0.03285354 0.045078304
000280 9e a0 0d be 53 60 83 3c c8 fe 08 be 32 ec 21 be
       -0.13830802 0.016037142 -0.13378441 -0.15812758
000290 cd b7 79 3c 18 4b 91 3b 5c 2b d8 bd d4 bc 00 be
       0.015241575 0.0044340007 -0.10555145 -0.12572032
0002a0 f5 52 16 3e 55 ca 18 3e 42 32 03 be 41 84 cb bd
       0.14680083 0.14920934 -0.1281214 -0.09937335
0002b0 2c a5 b6 3d 87 96 18 3c 87 81 7f ba 7c 7d b7 bc
       0.08918223 0.009313232 -0.0009746779 -0.022398703
0002c0 15 c5 b9 3c e2 3f 1b be 82 70 15 be cf 93 ac 3d
       0.022676984 -0.15161088 -0.145937 0.0842663
0002d0 52 78 ff 3c a8 d4 46 3d 94 81 96 bd 57 21 b3 bd
       0.031185303 0.04854265 -0.07348934 -0.087465934
0002e0 ba 32 e0 bc 09 1a d3 bd 3d 5d 06 be 8a 8d ac 3d
       -0.027367938 -0.103077 -0.13121505 0.08425434
0002f0 c6 9c bc bd b3 62 1f be 63 2b f3 bb 2a d2 8e 3d
       -0.0920959 -0.15564995 -0.0074209436 0.06973679
000300 f1 a8 e8 3c d1 f7 f9 bd 5a 02 f3 3d 2d 37 46 bd
       0.02840087 -0.1220547 0.11865683 -0.048392463
000310 46 84 cd 3d e3 00 91 bd d1 78 19 3e 16 c4 f4 3b
       0.10034995 -0.07080247 0.14987494 0.0074696643
000320 fa 3d 17 3e 1a 3b 89 3d 11 0e ff 3d 82 9c 94 3d
       0.14769736 0.06700726 0.12453855 0.07256414
000330 ff bb 42 bd db 94 80 3d 60 aa 0d 3e e0 4e 10 bd
       -0.04754257 0.06278392 0.13834524 -0.03523147
000340 70 86 75 3d c7 cf c1 3c 65 ab cb 3d dc f7 45 bd
       0.059942663 0.023658646 0.099448 -0.04833208
000350 de 0f c6 bd 59 33 80 3d 0d 42 b0 3c cb fa 3c bd
       -0.09670995 0.06259794 0.02151587 -0.046137612
000360 a1 b7 b4 3c 3f ad 1b 3e 24 8c 9f bd 74 8d ad 3c
       0.022060217 0.15202807 -0.077904016 0.021185614
000370 09 7a 07 bd f2 c2 57 3c 10 92 a7 bc 4c c2 14 3e
       -0.033075366 0.013169037 -0.02045539 0.14527243
000380 de 84 b5 3d b1 ee 72 3d 7b 06 cd 3a 0a 6e e6 3d
       0.08863233 0.059309665 0.001564219 0.11251457
000390 7d 6b 55 bd 29 bc 79 bd 12 05 65 bd 71 48 26 bb
       -0.052104462 -0.06097046 -0.05591304 -0.0025372768
0003a0 d5 75 87 bd d5 a8 e3 3d b4 2d e5 3c 6e be ab bb
       -0.066142716 0.111161865 0.027975895 -0.005241207
0003b0 74 ca 9e bd 53 54 08 3e db c8 c7 3d d2 d1 a1 bd
       -0.077534586 0.13313417 0.09755107 -0.07901348
0003c0 60 dd 17 3e b1 8d b3 3c 04 a7 37 bc c7 20 93 3d
       0.14830542 0.02191815 -0.011209253 0.07183986
0003d0 68 9e 92 bd e7 40 d6 bd 10 58 07 3d 5a e6 f7 3d
       -0.0715912 -0.10461598 0.033042967 0.12104483
0003e0 4c 00 f2 3d 17 27 0a 3e 0e 38 c2 3d b8 6b 6e 3d
       0.11816463 0.13491474 0.09483348 0.058208197
0003f0 12 15 44 3d 5f a3 14 bd c7 97 da 3d 0c 10 b1 3d
       0.047871657 -0.036288615 0.106734805 0.08645639

lstm.bias_hh_l0 f4 [256]
000000 e9 5c 94 bd bf 74 11 be 67 e2 bc 3c e1 7d 75 bd
       -0.07244284 -0.14204691 0.023057176 -0.0599345
000010 e2 57 81 bc b3 8d e8 3d e7 fc 42 3c d3 ad 1a 3e
       -0.015788976 0.11355152 0.011901117 0.15105371
000020 92 02 c2 3c 9e 2f ba 3c de ba c2 3c 4f a3 b8 3c
       0.023682866 0.022727784 0.023770746 0.02253881
000030 af 82 05 3c a7 25 10 3c dc 74 4d bd 2e 9a 95 3d
       0.008148833 0.0087980395 -0.050160274 0.07304798
000040 c1 f2 43 3d ff 35 03 3d aa 66 44 3d 35 27 18 bc
       0.04783893 0.032033917 0.04794947 -0.009286691
000050 6c 6c 06 be 15 e8 bb 3d ff b0 8e 3d f0 f1 da bd
       -0.13127297 0.091751255 0.06967353 -0.10690677
000060 59 5c dc 3d 6f 6c e5 3c 58 06 b2 bd 57 d4 43 bd
       0.107598014 0.028005807 -0.08692616 -0.047809925
000070 40 cf 78 bc 91 93 91 bd 5a 34 54 3d 70 53 22 bd
       -0.015186131 -0.07108224 0.05180774 -0.039630353
000080 d0 7c 4e bd 31 dc 0f 3e 66 7c 09 bc c1 15 1a 3d
       -0.050412 0.1404884 -0.008391475 0.037618402
000090 f7 94 3f bd c6 52 1b 3d 44 d2 48 bd 55 af 18 bd
       -0.046772923 0.037920736 -0.04902865 -0.037276585
0000a0 54 70 7c bd 7d 3b 4c bc 47 92 8f 3d 27 06 a6 3d
       -0.061630562 -0.012465355 0.07010322 0.08106642
0000b0 ab 20 a1 3d 6d 94 32 bd 4e 1f df bd 89 e9 ba bc
       0.07867559 -0.04359858 -0.10894643 -0.022816436
0000c0 83 5b 23 3e 86 a3 1c 3d bc ab 03 3e 9a 2d f6 3d
       0.15952878 0.038241886 0.1285848 0.120204166
0000d0 bb 91 d9 3d 45 11 a6 bb 73 23 83 3d 45 7a 5a bd
       0.10623499 -0.0050679767 0.06403246 -0.05333926
0000e0 81 dc 3b 3c 76 d1 96 3d 0a 99 70 bd 93 6a 74 bd
       0.011466146 0.0736417 -0.0587397 -0.05967195
0000f0 e3 52 08 bd 6e 3b 28 3d cd 94 b0 bc 4c d5 28 3d
       -0.033282172 0.0410723 -0.021555329 0.04121904
000100 f2 01 24 bd 36 71 bc 3d f5 30 04 bd 0c 3a d0 3d
       -0.040040918 0.09201281 -0.03227325 0.101673216
000110 41 97 a2 3d 82 c5 dc 3d 6f 0a 80 bd 3f 6c 61 bd
       0.07939006 0.10779859 -0.0625199 -0.055034872
000120 b9 9f 3c bd d5 2b 93 bd 75 5c 2b bc 56 22 c1 3c
       -0.04605076 -0.07186095 -0.010459055 0.023575943
000130 e0 91 7b 3d 65 2a 90 3d 06 eb 78 3d c1 8e 84 bc
       0.061418414 0.07039336 0.06077101 -0.016181352
000140 e1 42 83 bd c9 ba 33 bd 5b 84 e4 3d 1b b3 8f bd
       -0.064092405 -0.043879304 0.11158057 -0.070165835
000150 9c 34 8e bc bf 5a d9 bd f1 01 0f bd cc e3 fd bd
       -0.01735907 -0.106130116 -0.03491396 -0.123969644
000160 02 53 0b be 84 d1 10 3d 47 33 82 bd 4b 37 3c 3d
       -0.13605884 0.03535606 -0.063574366 0.04595117
000170 96 9e cc 3d f0 a6 49 b9 07 f5 6f 3d 7f 42 dc bc
       0.09991185 -0.00019231043 0.058583286 -0.026887177
000180 47 c7 cd 3d 7f 17 1b 3e 63 70 8e bb b4 0b a7 bd
       0.10047775 0.15145682 -0.0043468936 -0.08156529
000190 98 5c be 3d 23 c0 c5 3d 89 d1 c8 3d 4a 6e 30 3b
       0.092950046 0.09655788 0.09805591 0.0026921206
0001a0 f2 f7 0a 3d 7b ac 83 3d d6 12 2a 3d d1 3e af bb
       0.033927865 0.064293824 0.04152187 -0.0053480645
0001b0 d6 15 0b 3d 0b b6 d6 3d b5 63 82 bd c4 cc da bd
       0.03395637 0.10483941 -0.06366674 -0.10683587
0001c0 f4 49 a0 bd 6f 7a e5 3c 71 07 c1 3d b0 5e b8 3c
       -0.078266054 0.028012482 0.094252475 0.022506088
0001d0 6e a4 02 3e 46 5b 49 3d 56 59 bc 3d 19 b7 df bd
       0.12758037 0.04915931 0.09196727 -0.10923595
0001e0 e0 f7 90 3d 2b 16 ae 3d ce a5 c2 bb 9d c3 8b 3d
       0.070785284 0.08500322 -0.0059401756 0.0682442
0001f0 d2 c6 b6 bd be 6d 0b 3e 54 99 83 bc c2 20 23 be
       -0.08924641 0.13616082 -0.016064323 -0.15930465
000200 f8 70 9f 3d eb 46 7c 3d a4 0b 9e 3d 42 ed d1 3d
       0.07785219 0.06159107 0.07717064 0.102503315
000210 e6 79 1a 3d 6f 90 28 3d 20 f2 21 3e 12 00 b2 3d
       0.037713908 0.041153368 0.1581502 0.0869142
000220 8b bd 99 3d 53 37 75 bc 74 14 04 be 31 ed 9b 3d
       0.075068556 -0.014966804 -0.12898427 0.076136
000230 a8 7b 5f bd 91 ea f2 bc 0e 91 1c be 15 ba 1d be
       -0.054561287 -0.029652866 -0.15289709 -0.15403016
000240 e4 c1 08 bd 76 e3 bd bd ad 79 a4 3d 21 07 c1 bb
       -0.033388034 -0.092719 0.0803102 -0.0058907424
000250 7d 33 00 bc af a7 1b 3e c0 ac 97 3d 25 df 75 3d
       -0.007824776 0.15200685 0.07405996 0.06002726
000260 98 63 82 bd 5d 69 8e bd ef 7d a3 bc 4c 3f f0 3d
       -0.06366652 -0.0695369 -0.01995751 0.11730823
000270 ee 35 f3 bd 24 e4 f6 bd f9 4e a3 bc 03 45 a2 3d
       -0.11875521 -0.12055233 -0.019935118 0.07923319
000280 ea a6 18 3d 64 0a 46 3d d7 8e 51 bd bb 36 a8 bd
       0.037268557 0.048349753 -0.051161613 -0.08213564
000290 84 65 fb bc 2f da ea 3d fc 91 b2 bd 11 c3 0c be
       -0.030688055 0.114673965 -0.087192506 -0.13746287
0002a0 74 11 68 3c c7 e3 1d 3d d0 54 a7 3c 85 6b 31 3c
       0.014164317 0.038547304 0.020426184 0.010828857
0002b0 c9 4d 09 3e 4e a3 1a bc 63 95 4f 3d 51 28 90 bd
       0.13408579 -0.009438349 0.050679576 -0.0703894
0002c0 e7 e1 00 be c2 d0 cf bd aa 78 9c 3d f4 fe 43 bd
       -0.12586175 -0.10147239 0.07640202 -0.047850564
0002d0 b7 be 9b bd 9f 4d 82 3c 59 0a f3 bd 20 12 26 3c
       -0.07604735 0.015906153 -0.11867208 0.010136157
0002e0 c7 bc 81 bd fb 5d 8c 3d ef b6 92 3d d2 b5 b9 3d
       -0.063348345 0.06853863 0.07163798 0.090678826
0002f0 57 4b 5b 3d ae ab 0e 3d b7 cf 9f 3b 0f 81 19 3c
       0.053538647 0.034831695 0.0048770565 0.009369149
000300 d5 96 1a 3d 18 40 7a bd 37 8c 86 3d f6 b0 94 bd
       0.0377415 -0.06109628 0.065697126 -0.07260315
000310 1a 8c cf bd 77 d9 89 3c f8 4c e2 bc 36 81 88 bc
       -0.10134144 0.016827328 -0.027624592 -0.016663175
000320 c6 62 b6 3d 6a 14 f4 bc 22 02 17 3e f2 45 8d bc
       0.08905558 -0.02979489 0.14746907 -0.017245267
000330 07 e4 b7 bd d5 37 ba 3d dc 00 4e 3d bb b5 c9 3d
       -0.0897904 0.0909268 0.05029379 0.098491155
000340 7d d0 6a 3d e3 99 f7 bc 5f e2 db bd 8a b0 f2 3d
       0.057327736 -0.030224746 -0.10736536 0.118500784
000350 06 0c 49 bd aa e7 04 3e 36 02 cb bb c0 e2 c3 3d
       -0.049083732 0.12978998 -0.006195332 0.095647335
000360 f9 db b8 3c ab 87 a3 3c 33 65 c3 bc 0d 5d 17 3e
       0.022565829 0.019962152 -0.023851966 0.1478159
000370 40 a2 f6 3d 40 31 c5 bd 3e 9e 75 bc 37 b6 fc bb
       0.120426655 -0.09628534 -0.014991341 -0.0077121514
000380 1a 9e 55 3d 1a ae 6e bd 20 f2 36 bd af 73 4f 3d
       0.05215273 -0.058271505 -0.044664502 0.050647434
000390 98 2c a4 3c 5e 15 00 bd 0d 9c c2 3d 57 8a 15 3e
       0.020040795 -0.031270377 0.095024206 0.14603554
0003a0 12 c1 f7 bc 02 77 1f 3e ae 1c 90 3d e7 fb 6e 3d
       -0.03024343 0.15572742 0.0703672 0.0583457
0003b0 78 d1 11 bd 27 30 07 3e e5 ee 90 3d 5e 77 e7 bd
       -0.035600156 0.13201962 0.070768155 -0.11302064
0003c0 20 2b a4 3d db 6e 4d bd af b2 e1 bc 40 3a 28 bd
       0.08016038 -0.05015455 -0.027551023 -0.041071177
0003d0 23 14 de 3c df a6 cb bc a7 59 5b 3c 3e fd 01 3e
       0.027109211 -0.024859844 0.013388074 0.1269426
0003e0 ab 3a 35 3d cb 81 84 bd 4d 11 f9 bc 0c 85 9a bd
       0.044245403 -0.064700685 -0.030403757 -0.07544908
0003f0 85 05 d6 bc f3 af e1 3d 32 37 30 3d 49 70 5e bd
       -0.026125679 0.11019888 0.04302139 -0.054306302

lstm.weight_ih_l1 f4 [256, 64]
000000 13 36 cd 3d 7a b1 01 3d 4e 4b e9 3d d0 d2 4f bd
       0.100200795 0.031663395 0.11391316 -0.050738156
000010 4b 58 c1 bd 9f 4c 9e bd 1e be d0 3c db e5 24 3e
       -0.09440669 -0.07729458 0.02548128 0.16103308
000020 04 41 6c 3d 5a b7 7e bd 7d ec 29 3d ae 4d 0b 3e
       0.05767919 -0.062186576 0.0414853 0.13603851
000030 31 c9 2f bd ed 7d 98 bd f7 44 b9 3d 42 e5 9d 3d
       -0.04291648 -0.074458934 0.09046357 0.07709743
000040 6b 13 41 3c c7 76 cd 3d 1f 48 df 3d 48 9b 00 bd
       0.011784415 0.100324206 0.10902428 -0.031398088
000050 95 2d 9f bd df 33 12 3d 3b f1 3c 3d cc 1e db 3d
       -0.07772366 0.035694 0.046128493 0.106992334
000060 f1 71 17 3d 8b ef b1 bc 06 c2 00 3e c3 71 96 bc
       0.036973897 -0.021720668 0.12574014 -0.018364793
000070 b8 64 be bd 10 14 70 3d e6 c8 0e 3d 69 ec ce 3d
       -0.09296554 0.058612883 0.03485956 0.101036854
000080 bb 50 07 bd 32 22 87 bd 79 42 68 3d 2b 65 87 bc
       -0.033035975 -0.06598319 0.05670402 -0.016527733
000090 d7 4a 0a 3d 19 6e 23 3e de 66 3f 3d 34 9a 6a 3d
       0.03376278 0.15959968 0.04672896 0.057275966
0000a0 0d 90 19 3d c9 9c 03 3e fd a1 57 3d 94 02 b1 3d
       0.037490893 0.12852778 0.05264472 0.0864307
0000b0 03 bb 93 3d 54 55 be 3d a3 47 13 3b 09 4b 75 bd
       0.07213404 0.09293619 0.0022473119 -0.059886012
0000c0 07 46 cf bd fb 9c 26 3d fe ba 38 bd 4d 8b d6 3d
       -0.101207785 0.040677052 -0.045100205 0.10475788
0000d0 66 ad 2e bd 37 2a 9a bc 1c a4 cf bd 2c e5 74 bd
       -0.042645834 -0.018818958 -0.10138723 -0.059788868
0000e0 6c e3 34 bd 9d 79 82 bd 2e 47 7b bd e7 de 59 bd
       -0.0441622 -0.06370852 -0.06134718 -0.053191092
0000f0 60 5c a6 3d 7e a6 a8 bd 73 c5 c7 3d 8c 17 6b 3d
       0.08123088 -0.08234881 0.09754457 0.057395503
000100 af 8f bf 3d a1 9c f4 3d 5f 5f d9 3c 02 48 09 be
       0.09353577 0.11943937 0.026534734 -0.13406375
000110 26 bc d0 bd a8 b4 c3 3c 70 b9 d5 3c f3 84 37 3d
       -0.101921365 0.023889855 0.0260894 0.044804525
000120 f4 42 0b bd 8e 48 13 bd 41 6a 16 bd 49 e8 cb 3d
       -0.0339994 -0.035957865 -0.036722425 0.09956414
000130 8d d3 5e 3d bb 55 e5 3c 43 e5 41 3d 90 13 94 bd
       0.05440097 0.027994981 0.04733778 -0.07230294
000140 61 ed 02 be 2b 2c 88 3c 58 40 14 3e 0f 1d d4 bd
       -0.12785865 0.016622623 0.1447767 -0.10357105
000150 50 2e 1a bd e1 b7 32 3d 8d db bb 3c 8f 65 5b bd
       -0.037641823 0.04363239 0.022931838 -0.05356365
000160 89 d6 04 be 0c 0d ef bd d6 b8 68 bd 41 77 b7 3c
       -0.12972464 -0.1167241 -0.0568169 0.022395732
000170 50 3f 45 bd c7 35 49 bd f3 59 8b bd 34 94 d5 3d
       -0.048156083 -0.04912355 -0.06804266 0.10428658
000180 c3 59 98 3d 58 95 cb ba 13 29 ff bb 97 88 bf 3d
       0.07438996 -0.0015532179 -0.007786879 0.09352224
000190 ee 24 9f bd 0b 30 c0 b8 35 2c ac bd c1 0d b4 bd
       -0.07770716 -9.164222e-05 -0.08406869 -0.08791686
0001a0 98 0c 4c 3c 29 eb 9a bb 16 56 0f be d6 15 94 3d
       0.012454174 -0.0047277403 -0.13997683 0.072307274
0001b0 ff 13 cc bd 28 70 50 3d 09 e9 57 3d 35 5c 25 3c
       -0.099647515 0.05088821 0.052712474 0.010092785
0001c0 d0 fe 01 3e 51 0d 2f 3d 23 72 8f 3d 59 34 2e 3d
       0.1269486 0.04273731 0.07004192 0.04253039
0001d0 b1 3d 5f bd e4 d0 a8 bc 68 68 c9 bd ce fa ca bd
       -0.054502193 -0.02060742 -0.09834367 -0.099111184
0001e0 78 f5 2b bc 52 47 38 bd 78 1b 8a 3c d9 6e 96 bb
       -0.010495536 -0.04498989 0.016858801 -0.004590851
0001f0 88 c0 d4 bd f9 63 82 bc 65 a3 ea bd c6 d8 a3 bc
       -0.10388285 -0.015916811 -0.11456946 -0.020000827
000200 c6 90 04 bd 95 d8 b9 3d f5 b8 b9 bc c6 16 ad bd
       -0.03236463 0.09074513 -0.022671202 -0.08451609
000210 89 c2 80 3c cf 88 07 3d 30 01 82 3d 0c d6 1e 3e
       0.015717762 0.033089455 0.06347883 0.1551134
000220 82 e3 ff 3c 96 60 9b 3b d9 85 f8 bd c4 8b 8f bc
       0.031236414 0.0047417386 -0.121349044 -0.0175227
000230 9b 21 a8 3d f3 2b 9d bd 64 ef 66 bd 7a f8 4f bd
       0.08209535 -0.07674398 -0.056380644 -0.050774075
000240 e5 e3 26 bd fc 6e ad bc 01 9f b9 bd 8e a1 cf bc
       -0.04074468 -0.021171086 -0.09063531 -0.02534559
000250 e7 44 76 3c 22 4c 58 3b 4e 87 94 bd 98 15 89 bd
       0.015031076 0.0033004363 -0.0725237 -0.06693572
000260 d3 ba 1b bc 99 e6 0e 3e c9 aa e7 3c a2 ff e3 3d
       -0.009504992 0.13955154 0.028279679 0.111327425
000270 9d d2 97 bd d0 00 9b 3c d6 47 1c 3b f6 72 35 3d
       -0.07413218 0.018921286 0.0023846528 0.04429909
000280 ea 17 d1 bd 80 03 b7 3d 79 15 18 3c 4b 9f 05 be
       -0.10209639 0.089362144 0.009282463 -0.13049047
000290 29 82 14 be 56 90 8d 3b 2d 41 93 bd 9d b0 15 be
       -0.14502777 0.0043201847 -0.07190166 -0.14618154
0002a0 cc 88 ee 3c 4d 58 1d bd 34 09 47 bd c0 7d 0b 3e
       0.029117964 -0.03841429 -0.04859276 0.13622189
0002b0 55 60 b2 3d df 60 1f 3e d1 a6 c9 3d 31 7f e8 bd
       0.0870978 0.15564297 0.09846271 -0.11352385
0002c0 63 42 94 3d 21 0a 16 bc a6 c7 be 3c 7e dd 92 bd
       0.07239225 -0.009157688 0.02328856 -0.071711525
0002d0 d2 98 7f 3c 60 d2 85 3d 04 28 60 bd d3 3e 8c bc
       0.0156004 0.065342665 -0.054725662 -0.0171198
0002e0 53 ef 19 bd 01 93 0a 3d 05 5e 78 bd 26 c9 9b 3d
       -0.037581753 0.0338316 -0.06063654 0.076067254
0002f0 50 53 f0 bd 8e 37 ea bc 93 15 21 3e 57 f9 b9 bd
       -0.117346406 -0.028590944 0.15730886 -0.09080761
000300 a8 24 78 bd 7d a1 f0 3c 11 87 44 bd 70 6a 04 3d
       -0.060581833 0.029373879 -0.047980372 0.03232807
000310 c0 85 74 bd dd 61 e9 bd 85 25 af bd 63 3e 70 3d
       -0.059697866 -0.11395619 -0.08552078 0.058653247
000320 8f 06 0d 3d 10 98 fb bd 52 45 15 be 51 3c 2d 3c
       0.034430083 -0.12284863 -0.14577225 0.010573463
000330 fa 20 b3 3d 04 6f 8f bd ad e6 10 3b d5 29 9b 3d
       0.08746524 -0.070035964 0.002211015 0.07576338
000340 dd f6 05 3e c7 64 db 3d ab 74 5a 3d b1 8f b4 3d
       0.13082452 0.10712581 0.05333392 0.088164695
000350 e3 fa a8 bd e0 84 e1 bd d8 33 e9 bd 5d a7 8f 3d
       -0.08250978 -0.11011672 -0.113868415 0.07014344
000360 64 f8 cb 3d 3a e3 16 3e 2e d3 b7 bb 3b 6a de bd
       0.09959486 0.14735118 -0.0056098914 -0.108601056
000370 3d 17 04 be 40 ca 80 3d 44 27 a4 b9 51 42 13 3e
       -0.1289949 0.06288576 -0.00031309773 0.14380766
000380 f4 dd 10 3d 7b f5 28 bd 31 e6 08 be 03 fc 89 bd
       0.03536792 -0.041249733 -0.13369061 -0.067375205
000390 2f 59 fa 3c fa 73 48 3d 0d f9 84 bd 48 cb 1a bd
       0.030560104 0.04893873 -0.06492815 -0.03779152
0003a0 ab ee 83 bd b4 94 61 3d c8 d2 ce bd 9b a9 5e 3c
       -0.06442007 0.055073455 -0.10098797 0.013590242
0003b0 7e 65 74 3d 17 0a 73 bd a3 c1 3d 3a b4 88 08 be
       0.059667103 -0.059335794 0.0007238632 -0.13333398
0003c0 58 61 df bc 2d 86 a1 3b cc 9a a2 bd 61 4a a4 3d
       -0.027268097 0.004929325 -0.079396814 0.08021999
0003d0 55 57 a9 bd 88 14 52 3d 4f 91 1d 3d a8 07 a3 bd
       -0.082686104 0.05128911 0.038468655 -0.07960445
0003e0 42 c6 be 3d 76 0b 71 3d ed 1c 7d bd 90 de 30 3d
       0.093151584 0.05884882 -0.061795164 0.043181002
0003f0 e9 8c b1 3d 6e 4b 7c 3d 0a 8f 1b 3d cd 9d 98 3d
       0.086694546 0.061595373 0.03797821 0.07451973

lstm.weight_hh_l1 f4 [256, 64]
000000 72 6b be bd 7a bf af 3d 43 2b 01 be ac 18 5a 3d
       -0.09297837 0.08581443 -0.1261416 0.053246185
000010 82 5d 6c 3c 06 22 1d 3d 4f 8b 65 bd 70 b2 ad 3c
       0.014426591 0.038362525 -0.05604106 0.02120325
000020 59 73 33 3d 93 9b fe 3d 7e 09 dc bc 16 6e 18 be
       0.043811176 0.12432017 -0.026859995 -0.14885744
000030 21 4f 3b bd b7 06 f1 bd c5 88 f8 bc 92 b7 9d 3d
       -0.04572976 -0.11768859 -0.030338654 0.07701029
000040 a2 08 62 3d 21 87 1f bd 12 c8 5a bc fe dd b3 3d
       0.055184014 -0.03894723 -0.013353365 0.08782576
000050 c2 53 bc 3d 32 05 07 be e7 3f 16 3c 6c cc c6 3d
       0.09195663 -0.13185576 0.009170509 0.09706959
000060 e1 e3 31 3d 7f 32 06 bd 1a f9 21 3e a1 9a ba 3d
       0.043430213 -0.032763 0.15817681 0.091115244
000070 29 e9 d5 bc cb 2d a5 bd e1 25 11 3e 90 2b 0e 3d
       -0.026112156 -0.08065375 0.14174606 0.034709513
000080 29 db 90 bd 6e a9 ea 3d 3f f7 62 bd 38 75 dd bb
       -0.070730515 0.114580974 -0.055411573 -0.0067583583
000090 14 97 ee 3d db fb 3c bd 71 ed 08 be 61 af 06 3e
       0.116499096 -0.046138626 -0.13371827 0.13152839
0000a0 c3 5a ac 3b db 9e 84 3d 60 5f d9 3c cc 66 17 3e
       0.005259843 0.06475612 0.026534736 0.14785308
0000b0 91 18 13 bd 9a 35 ee bc 96 e8 be 3d 6a ac fc 3c
       -0.0359121 -0.029078294 0.09321706 0.030843932
0000c0 91 8a 20 bd 50 dd cc 3d e3 32 03 3d 1b fe 64 bb
       -0.039194647 0.100031495 0.03203095 -0.0034941498
0000d0 2b f3 94 3d 1a 89 cf bd ce e7 f0 3d ce d4 81 bc
       0.07272943 -0.10133572 0.11762963 -0.015848543
0000e0 6a b4 17 be fa 38 0a 3d a7 52 d6 bd dd a8 06 be
       -0.14814916 0.033745743 -0.104649834 -0.13150354
0000f0 2d e5 a7 bd fe 65 89 3d dc 21 95 3d 90 ec 6b bd
       -0.08198009 0.067089066 0.07281849 -0.05759865
000100 cf a8 89 bd 02 23 27 bd da 76 da 3d e9 9d c0 3d
       -0.06721651 -0.04080487 0.106672004 0.09405119
000110 5d 62 cb 3d 9e 38 dd bd da 7e ae bc bb 62 ad bc
       0.09930871 -0.108018145 -0.021300722 -0.021165242
000120 2a d5 b3 3d 27 7a 4d bd ee f7 e6 bd 44 11 22 bb
       0.08780892 -0.05016532 -0.112777576 -0.002472953
000130 18 86 af bd 06 07 64 3d e2 54 ba 3d 41 fa ec bc
       -0.08570498 0.05567076 0.09098221 -0.028927924
000140 aa 78 ff 3d c2 88 8f 3d d3 ae 81 3d 54 73 07 bd
       0.12474187 0.07008506 0.06332173 -0.03306897
000150 10 b1 71 bd 15 5a c2 3d a4 82 c8 3b d3 b6 0e 3e
       -0.05900675 0.09489838 0.006119089 0.1393693
000160 08 87 a6 bd a4 38 18 3c b0 09 af 3d 6a 9c 18 3d
       -0.08131224 0.009290848 0.085467696 0.037258543
000170 bf f7 32 3c 39 66 ce bd 29 d4 eb 3d e7 1b 23 3d
       0.010923325 -0.10078091 0.11515076 0.03982153
000180 cf e0 55 3d 73 f2 84 bd 1d 48 ef 3d a5 fa 34 3c
       0.052216347 -0.06491556 0.116836764 0.011046086
000190 ef 6a 40 3d ba 50 c0 3d 6f 9d d6 3d c1 fb 55 3d
       0.04697698 0.09390397 0.10479247 0.052242044
0001a0 a8 7a 2c bd 67 bf a3 bc d1 ff 00 bd 41 05 96 bd
       -0.04210916 -0.019988729 -0.031493966 -0.07325221
0001b0 4c 6b c1 bd ed 60 5a 3d fd 4f 41 3d 39 6e 9e bd
       -0.094442934 0.053315092 0.047195423 -0.07735867
0001c0 3c f8 71 bc b3 8b 3a 3d fb dc 97 3d 37 19 aa bd
       -0.014768656 0.045543384 0.074151956 -0.083055906
0001d0 33 06 cc 3b 2f 45 12 bd 60 d3 17 bc 0d c9 3e bd
       0.006226325 -0.03571051 -0.009266704 -0.046578456
0001e0 61 75 04 bc 6f 19 84 3c b6 16 e5 bd a5 d9 9e 3d
       -0.008084626 0.016125409 -0.111859724 0.07756356
0001f0 11 38 88 3b 39 79 a4 3d da 6c c2 3c 75 ec 9b 3d
       0.0041570743 0.08030934 0.023733545 0.0761346
000200 84 7a d8 3b c7 e8 ce 3c 45 bf 17 be d4 c8 dd 3d
       0.006606402 0.025257481 -0.14819057 0.108293205
000210 be 52 4d 3d 93 c7 38 ba a7 fa 08 3e a5 aa 34 bd
       0.050127737 -0.0007048782 0.13376866 -0.04410805
000220 13 a4 ff 3d 0e aa b2 bb f4 60 cd 3c ba ad f9 bd
       0.124824665 -0.005452401 0.025070645 -0.12191339
000230 93 6c e2 3d 11 6e 33 3c a2 aa 02 be 21 d8 87 bd
       0.11055865 0.010951535 -0.12760404 -0.0663302
000240 c4 6c 32 bd 08 74 11 3e 1b 16 b1 bd 28 cf f5 b9
       -0.04356076 0.14204419 -0.086467944 -0.00046884385
000250 45 93 c0 3d bc 5f f5 bd f7 ae 94 bd 0e 76 41 bd
       0.094030894 -0.119811505 -0.072599344 -0.047231726
000260 60 23 e5 bd 65 8a 9d bd 62 89 7d bd ab d7 02 bc
       -0.11188388 -0.07692412 -0.061898597 -0.00798599
000270 5c 4c f0 bd d3 fe 82 bd b0 80 c3 bd 4e 95 ec bd
       -0.117333144 -0.0639626 -0.095460296 -0.11551915
000280 e0 fb 93 bd 53 9e 2b bd a1 af c7 3c 51 9c b6 3d
       -0.07225776 -0.041899037 0.024375739 0.08916534
000290 a2 d8 04 bc eb d5 f2 3c 95 58 11 be 46 c6 63 3d
       -0.00810829 0.02964302 -0.14193948 0.05560901
0002a0 c1 43 30 bd 9e 3b b6 bc af 70 05 3e e6 a6 a3 3d
       -0.043033365 -0.022245225 0.13031267 0.07990818
0002b0 fa 25 ec bb ed e1 b6 bc aa db ff 3a 80 20 a4 bd
       -0.0072066756 -0.022324527 0.0019520421 -0.080140114
0002c0 9d bb 16 3e 4c 08 6c bd dc 54 77 3d 3a 08 ea 3d
       0.14720006 -0.0576251 0.060383663 0.1142735
0002d0 87 0b 82 3d 1c b6 cd 3d 62 8e 23 bd 4a f9 ee b9
       0.06349855 0.100445 -0.03993071 -0.00045580632
0002e0 fa 85 bd 3c 25 55 8d bd 6a 65 06 be da b6 d6 bb
       0.023135174 -0.06901006 -0.13124624 -0.0065525593
0002f0 b1 0d aa 3d b1 94 c1 3d 9c f3 47 3d 06 42 62 3d
       0.08303393 0.09452189 0.04881631 0.055238746
000300 03 ad dd 3d 4d 0c ba bd 85 b2 12 be 3c 52 08 3e
       0.10824015 -0.090843774 -0.14325912 0.1331262
000310 47 b6 0f bd 0a fb da 3c 07 4d f3 bc c8 52 0c 3d
       -0.035085943 0.026731033 -0.029699815 0.034258634
000320 4c c5 16 3d 0d 92 06 3e 32 36 0a bd b2 bd 63 3c
       0.03680925 0.13141651 -0.03374309 0.013900207
000330 68 10 9d bc 2a 00 81 3d 45 ff 49 bc b0 28 07 3e
       -0.019172862 0.062988594 -0.012328927 0.13199115
000340 31 09 fd bd 27 81 1c bd 39 70 c7 3d 6f 12 b9 bd
       -0.12355269 -0.038209107 0.09738202 -0.09036719
000350 d0 6e 26 bc da 73 38 3d 6a 83 24 bd 3b 56 e0 bd
       -0.010158256 0.04503236 -0.04016439 -0.10953947
000360 b7 ac cd bc a5 4d 9a 3d 12 27 0b 3d 90 ce 5b bc
       -0.02510677 0.07534341 0.033972807 -0.013415948
000370 be c8 12 be bb de 5d bd 07 c7 b4 3d 1f 99 e9 bd
       -0.1433439 -0.05416749 0.08827024 -0.11406159
000380 d4 36 09 3e 2e e2 b0 3c 83 ec ed 3d d0 05 e7 bb
       0.13399822 0.021592226 0.11617377 -0.0070502535
000390 62 33 da bd e5 63 a0 3d b7 ce e2 bd 45 26 ab 3c
       -0.10654332 0.07831553 -0.11074584 0.020892272
0003a0 34 cd fd bc f9 8d ff bd db 50 67 3d 29 b0 3c bd
       -0.030981638 -0.12478251 0.056473594 -0.046066437
0003b0 0b c0 9e 3d 1c ff a8 bc 6d f1 a6 bd 08 db a5 bd
       0.07751473 -0.020629458 -0.08151517 -0.080984175
0003c0 a9 01 4c bd d5 a3 08 3e 9b 4d d5 3d cd 52 98 3d
       -0.04980627 0.13343747 0.10415193 0.07437668
0003d0 cb d7 a8 bd b7 79 5d 3c ae 12 6f bd 98 c7 2b 3d
       -0.08244284 0.013517789 -0.058367424 0.041938394
0003e0 53 98 c5 3d 2b e0 a6 3d 92 1f 4c 3c 34 29 17 bd
       0.09648194 0.081482254 0.012458699 -0.03690453
0003f0 6b 96 8a bd 87 01 44 bd 4c af a9 bd af a6 99 3d
       -0.06766971 -0.04785302 -0.08285388 0.075024955

lstm.bias_ih_l1 f4 [256]
000000 3d d3 61 3d 1b c8 e5 3d 23 3f dd 3d e2 a0 9f bd
       0.055133093 0.11219808 0.10803058 -0.07794358
000010 fb e4 ae 3c b5 37 83 3d 84 05 ca 3d 58 61 74 bd
       0.02134942 0.0640711 0.09864333 -0.059663147
000020 5a 36 24 bc 13 81 75 bd 5d 65 28 3d f5 0b 96 bd
       -0.010022724 -0.059937548 0.041112293 -0.073264994
000030 aa 57 95 3d 74 cb 9c bd 2d 0a 10 3d 73 69 25 3d
       0.07292111 -0.07655993 0.035165954 0.040383767
000040 ae 68 c3 bc 9c c2 d3 bd c1 bd b3 3d e9 17 09 3e
       -0.023853626 -0.10339853 0.08776427 0.13388027
000050 5a b7 27 3b bb bc cc 3d 2a b6 b1 bd 10 bb 22 bd
       0.0025591464 0.09996935 -0.08677323 -0.039729178
000060 f3 72 63 bb 10 a8 0f 3e 41 71 69 3d 76 54 b8 bd
       -0.0034705966 0.14028955 0.056992773 -0.09000485
000070 b2 82 37 3d 1d 21 0d 3d 70 f6 34 3d b9 4f d2 3d
       0.044802375 0.034455407 0.044180334 0.10269112
000080 92 9e c3 3d 62 91 9a 38 c5 7c 93 3d b5 6d 97 3c
       0.09551729 7.370372e-05 0.07201532 0.01848493
000090 fa 83 4b bd 12 93 ed 3d 70 49 21 3d c4 22 b5 3d
       -0.04968641 0.11600317 0.039376676 0.08844522
0000a0 e8 b5 58 bd 56 6e 0d bc aa cb d1 bd cf 5a 57 bb
       -0.052907854 -0.008632263 -0.10243924 -0.0032860523
0000b0 10 e5 f1 3d 64 55 9d 3b 1a 34 7e 3d 51 95 3c 3d
       0.11811268 0.004801439 0.062061407 0.046040837
0000c0 6b a5 d5 bd fb 23 04 3e f8 c8 82 bd 2f 5e 0b 3e
       -0.104319416 0.1290435 -0.06385988 0.13610147
0000d0 d9 6b d4 3b a3 ad af bd 81 a2 1c 3d 67 25 1c 3e
       0.006482583 -0.085780405 0.038240913 0.15248643
0000e0 9b e9 a0 3d bb 7b 53 bb 3c de 7f 3d 84 a6 a4 3d
       0.07857057 -0.0032269794 0.0624678 0.08039573
0000f0 81 9b 9c bd 6a 6e 91 bd 09 02 d3 bd 90 63 d4 3d
       -0.076468475 -0.07101138 -0.103031226 0.103705525
000100 27 5f a7 bd 50 da c3 bc 15 6a b6 3d 45 50 4f bd
       -0.08172446 -0.02390781 0.08906952 -0.05061366
000110 bc ff 74 ba b1 f6 db 3d 44 a7 47 3d 14 94 7a 3c
       -0.0009345969 0.10740412 0.0487435 0.015294094
000120 4b d8 7a bd 59 dd 93 bd f0 a8 3a b7 97 5f 02 3e
       -0.06124143 -0.07219953 -1.1125798e-05 0.12731777
000130 50 51 60 3c f2 b6 92 3d b8 31 d0 3c a4 c2 57 3c
       0.013691261 0.071638 0.025414333 0.013168965
000140 b7 92 cb 3d a2 16 7e 3c 18 e0 81 3d d2 35 5e 3d
       0.09940093 0.015508326 0.063415706 0.054250546
000150 e3 37 a7 3d 20 1b e9 3d 5c f4 72 bc 1a fe f6 bc
       0.081649564 0.11382127 -0.014828768 -0.030150462
000160 ae f0 29 3d 0b 50 ca 3d 58 c3 06 3e 94 ff 59 bd
       0.041489296 0.09878548 0.13160455 -0.053222254
000170 0b 54 f0 3c 58 bf bc 3d 2a 09 9b 3d ca 3e 11 3e
       0.02933695 0.092161834 0.07570107 0.14184108
000180 34 1c 10 3d c1 81 96 bd ff af ed 3c 9f d4 15 bd
       0.035183147 -0.07348967 0.029014586 -0.036579724
000190 dc 95 22 3d 08 ef 87 bd a8 bd 58 bd 16 26 c1 39
       0.0396937 -0.066373885 -0.052915245 0.00036840205
0001a0 f6 b8 c1 ba 28 05 70 bd c4 ac 28 3d 59 19 7c bd
       -0.0014779854 -0.058598667 0.041180387 -0.06154761
0001b0 96 46 ae 3d 54 7b 92 bb ed c1 de 3d b8 48 7d bd
       0.08509557 -0.0044702683 0.10876832 -0.061836928
0001c0 ec c5 8b 3d 74 ac ee 3d f8 80 e2 3d 4f 6e d4 bd
       0.0682486 0.116539866 0.11059755 -0.10372602
0001d0 fb 65 ae bb e5 97 b2 bd 4c 95 b8 bd 83 44 84 bd
       -0.0053222156 -0.08720378 -0.09012851 -0.0645838
0001e0 85 dd 02 3e e9 96 26 bd 01 ab 0b bd bf d3 70 3c
       0.12779815 -0.040671263 -0.03409863 0.014698922
0001f0 55 ec 8e 3d cb f5 4b 3c c3 41 be bd 37 55 5d 3d
       0.069786705 0.012448738 -0.09289887 0.054036345
000200 a9 5c bd 3d 23 d1 fe 3d 7f 93 03 3d 15 db d4 3d
       0.09246189 0.124422334 0.032123085 0.10393349
000210 fa 5d 34 3d 88 ce cc 3d 4c 2b 13 3e d5 e8 fb bd
       0.044034936 0.1000033 0.14371985 -0.123002686
000220 27 ae 02 3e ed 80 92 bd 82 d0 c7 bd 33 ae 0c bd
       0.12761746 -0.07153497 -0.097565666 -0.034345817
000230 38 e2 93 3d 3d 98 be bd b2 85 5f 3d 82 dd 69 bd
       0.07220882 -0.09306381 0.05457086 -0.057096012
000240 24 7a 1d bd b4 51 0e 3d 30 9b 5d 3d c8 54 8e 3b
       -0.03844656 0.034745887 0.054103076 0.004343603
000250 68 22 9c bd ae 8a 5f 3d 25 41 67 bd 53 95 d9 3d
       -0.0762375 0.054575615 -0.05645861 0.106241845
000260 5f 65 10 3d 2c b1 47 bd 76 e4 d2 3c 17 f4 b6 bd
       0.035252925 -0.04875295 0.025743704 -0.08933275
000270 3e 3b 06 bc e6 ac d2 bc f5 43 fe bc ef b8 15 be
       -0.008192835 -0.02571721 -0.031038264 -0.14621328
000280 0f 18 99 3d 20 80 84 3d d2 0c d5 3d 50 d5 7f bd
       0.07475292 0.064697504 0.10402836 -0.06245929
000290 58 20 b0 bd 64 d9 82 bd cf 1f f4 bc ac e0 12 3e
       -0.08599919 -0.0638912 -0.029800324 0.14343518
0002a0 c8 6d d5 bc c7 87 ac bd 36 cc f0 3b f3 8b d4 3d
       -0.026053324 -0.08424335 0.0073485626 0.10378256
0002b0 e0 b2 e9 3d 9d 92 f8 bc 04 82 f8 3d 10 81 9c bd
       0.11411071 -0.030343348 0.121341735 -0.07641804
0002c0 79 1d bb bd bf 41 8a bd fa 26 c6 bd 63 38 7d 3d
       -0.09136481 -0.06750821 -0.09675403 0.061821353
0002d0 31 06 71 3d b4 d0 42 bb 70 fb 95 bc 5a 36 cd bb
       0.058843795 -0.0029726448 -0.018308371 -0.0062625827
0002e0 89 a2 af 3d b0 f3 1d bd 29 28 0b bd fb 0b 8d bd
       0.08575923 -0.038562477 -0.033973847 -0.06887051
0002f0 51 ce 09 3d 90 a7 35 bc 72 c0 ce bc 35 69 d4 bb
       0.033644024 -0.011087313 -0.02523825 -0.006482268
000300 d9 ea c0 bd d8 b4 4c bd 74 2d eb bb e1 79 10 bd
       -0.09419794 -0.049977154 -0.0071770493 -0.035272483
000310 42 a4 09 be d8 66 97 3d 93 ac a7 bd 48 af c6 bd
       -0.13441566 0.07392663 -0.08187213 -0.09701401
000320 e1 ab cb 3d 14 33 48 bd 47 b4 f1 3d 46 80 bf 3c
       0.09944893 -0.048876837 0.11801963 0.023376595
000330 ee 61 0a be 83 59 19 3e 14 7c bf bd bc 6c cd bd
       -0.1351392 0.14975552 -0.09349838 -0.10030505
000340 e9 ac 07 be a5 a8 45 3d 90 f4 c2 bd 40 f8 a6 3b
       -0.13249554 0.048256535 -0.09519303 0.0050955117
000350 95 6e e4 3d 36 4c 9c bc ee 7c ff 3d ac cb 08 be
       0.11153904 -0.019079309 0.12475 -0.13358945
000360 10 c9 a5 3d 14 1c 9d bc cf 32 94 bd 5b b6 8e 3d
       0.0809499 -0.019178428 -0.072362535 0.06968375
000370 0b 66 2f bd 66 08 c0 bd 66 a9 d5 3d aa 53 9b bd
       -0.042821925 -0.09376602 0.10432701 -0.07584317
000380 87 78 68 bd f5 b7 58 bd c9 f2 98 3d a9 d3 80 3d
       -0.05675557 -0.05290981 0.074681826 0.06290371
000390 cc eb 98 bd 79 10 cc bd f2 82 e0 bd 80 c0 15 3d
       -0.0746685 -0.099640794 -0.10962476 0.036560535
0003a0 20 72 1b bd ea 3b 07 bc fa 16 90 3d 6e 16 88 bd
       -0.037950635 -0.008254031 0.070356324 -0.06644903
0003b0 c0 f6 8a 3b c9 c2 20 bd b8 a9 87 3c 69 d8 ec 3d
       0.0042408407 -0.03924826 0.01656042 0.115647145
0003c0 ef 74 be bd 14 37 00 3e 24 95 f7 3d 83 a0 e9 3d
       -0.09299647 0.1252101 0.12088993 0.11407568
0003d0 dd da 0c 3d b9 29 fc 3d ff d3 07 3e af 3a 8e bd
       0.03438841 0.123126455 0.13264464 -0.06944787
0003e0 1b 6f 26 bc 55 ca 00 3c d0 88 c7 3d 25 10 a6 bc
       -0.010158326 0.00786074 0.09742892 -0.02027137
0003f0 da 14 88 3d 76 52 02 3e 61 f2 fa 3d 3c 21 d5 3c
       0.06644602 0.12726769 0.12253261 0.026016824
