models/lstm_mid_model.pt (torch, 245045 bytes, 9 tensors)

lstm.weight_ih_l0 f4 [256, 38]
0.16505136 0.12923342 0.09933239 0.130763 0.057965226 0.057885412 -0.011154218 0.11157062
0.14636691 -0.010914165 0.13346437 0.05241472 0.13324015 0.05011363 0.09777286 0.029694697
0.13771483 -0.040306475 0.014131176 -0.018770956 -0.037709847 -0.05586471 0.06397645 0.054485805
-0.10253809 -0.057626292 -0.09926737 -0.11942666 -0.029926457 -0.1386719 0.08877562 -0.08301839
0.08514188 0.039437793 -0.02050818 0.08448363 0.009076698 0.099235825 0.011543573 -0.07880359
-0.012927519 -0.0836377 0.007172252 0.13995598 0.090781584 -0.022716843 0.06467603 -0.02964281
-0.011887825 -0.056792643 -0.18930599 -0.040480003 -0.08786677 0.16604637 0.12704459 0.06083467
0.04384235 0.018032746 0.17477532 -0.039425496 0.02417717 0.029921027 0.16818085 -0.043047786
0.018171908 -0.035195112 0.097618565 -0.07666888 -0.057435334 -0.075166754 0.12823556 0.052210145
-0.035724383 -0.13697557 -0.15381818 -0.12981807 -0.011604302 0.099660665 0.04630412 0.08057684
-0.10409906 -0.1320634 0.07502838 -0.0864227 0.08899158 -0.015436371 0.0888788 -0.084938645
-0.07743785 0.08674845 0.05312298 -0.008312168 0.17422013 0.1141564 -0.08962285 -0.12986307
0.1368609 -0.06727007 -0.08249362 -0.12489813 0.014942287 0.031225458 -0.029289866 -0.047537733
-0.027950693 -0.032236356 -0.11365139 -0.021457776 -0.09328136 -0.05888066 0.13876599 0.062991284
0.086043365 -0.07297804 -0.18208113 0.012648257 -0.021864975 -0.06038343 -0.083733395 -0.054924455
0.020808758 -0.018355342 -0.046306476 -0.15903337 -0.11822867 -0.09132235 -0.075011835 -0.11668419
0.08157861 -0.093396835 0.03933779 0.062815346 -0.18027546 0.13570014 0.03802111 0.012731562
-0.066052034 -0.10945242 -0.016338939 -0.027305484 0.0498434 -0.07165149 0.039261162 -0.04253395
0.06845746 0.0729266 0.15278512 0.12840188 0.13093555 -0.08128477 0.056801446 -0.031902067
-0.0054605515 -0.023599751 0.06266879 -0.17273846 0.027697753 0.051256698 0.053128496 -0.053649444
0.121636 -0.025969485 -0.0802328 -0.081865974 -0.008390848 0.039848704 -0.0045485967 0.09745685
0.015876183 -0.16176677 -0.12232672 -0.07970744 0.052243378 -0.09614088 -0.0649129 -0.11401264
-0.1462377 0.04457906 0.10592311 -0.2058577 -0.046740826 0.107195765 0.026493376 0.04938325
0.11455163 0.10277731 0.107113004 0.10904444 0.083348624 0.13761765 0.019495584 -0.02340826
0.10567538 0.09186648 0.001681757 -0.00584796 0.0316394 0.008308712 0.047188476 0.074666835
-0.111068554 -0.0017539017 0.09980757 0.058391344 -0.0054034134 -0.06342607 -0.049484827 -0.11211
0.019270923 0.017012494 0.13063842 0.049490936 -0.11114022 -0.1071889 -0.0002788324 0.12091869
0.018405134 0.02816911 0.05345182 -0.0024455627 -0.06322319 0.13383219 -0.029483642 -0.0050853402
-0.012293621 0.16882624 0.16398263 0.122819856 -0.017804166 -0.079541445 -0.059294306 0.105026275
0.06184061 0.13263312 0.087725446 0.04150304 0.028295303 -0.065442346 -0.11841964 -0.07117292
0.055261713 -0.024286373 0.00592948 -0.028512634 0.051696707 -0.0868286 -0.071391374 0.027101755
-0.012323598 0.069031335 -0.050832763 -0.059054885 0.04532838 -0.060593426 -0.0988723 -0.11537632
00000000: 3903 293e c455 043e c86e cb3d bce6 053e
00000010: f26c 6d3d 4119 6d3d 2ec0 36bc 237f e43d
00000020: 35e1 153e 53d1 32bc e2aa 083e d1b0 563d
00000030: 1b70 083e f343 4d3d 233d c83d 4b42 f33c
00000040: 1e05 0d3e 6718 25bd 7386 673c 8cc5 99bc
00000050: a475 1abd 65d2 64bd 1606 833d 822c 5f3d
00000060: 7dff d1bd 8c09 6cbd b14c cbbd f795 f4bd
00000070: 5428 f5bc 0200 0ebe fecf b53d 8c05 aabd
00000080: de5e ae3d 8689 213d c500 a8bc c105 ad3d
00000090: 6eb6 143c 273c cb3d 4121 3d3c c763 a1bd
000000a0: f2cd 53bc 3e4a abbd 3605 eb3b 9f50 0f3e
000000b0: b2eb b93d ac18 babc de74 843d 7ad5 f2bc
000000c0: 27c5 42bc 679f 68bd 6ed9 41be 5cce 25bd
000000d0: 7ef3 b3bd 0f08 2a3e fa17 023e c62d 793d
000000e0: 0994 333d 69b9 933c 4df8 323e a17c 21bd
000000f0: 330f c63c f11c f53c 9a37 2c3e e052 30bd
00000100: 41dd 943c c028 10bd 3eec c73d 9304 9dbd
00000110: 5041 6bbd 07f1 99bd 2f50 033e 4eda 553d
00000120: bb53 12bd 5343 0cbe 8382 1dbe 07ef 04be
00000130: f81f 3ebc e41a cc3d 64a9 3d3d 7805 a53d
00000140: e331 d5bd a13b 07be 7ba8 993d 62fe b0bd
00000150: 3841 b63d d5e8 7cbc 1706 b63d 50f4 adbd
00000160: bc97 9ebd 2ca9 b13d 7b97 593d c22f 08bc
00000170: c366 323e d5ca e93d 2f8c b7bd d3fa 04be
00000180: 4425 0c3e e4c4 89bd 6af2 a8bd 97ca ffbd
00000190: 7ed0 743c 88cc ff3c 4df1 efbc edb6 42bd
000001a0: daf8 e4bc 450a 04bd 0fc2 e8bd 38c8 afbc
000001b0: 4c0a bfbd d92c 71bd ac18 0e3e 9301 813d
000001c0: 8137 b03d 8375 95bd 7a73 3abe a33a 4f3c
000001d0: 2d1e b3bc 9e54 77bd 6a7c abbd 77f8 60bd
000001e0: 2177 aa3c f15d 96bc dcab 3dbd a5d9 22be
000001f0: df21 f2bd 3607 bbbd ce9f 99bd 1ff8 eebd
00000200: b012 a73d d746 bfbd aa20 213d 55a5 803d
00000210: 219a 38be faf4 0a3e 06bc 1b3d 0b98 503c
00000220: 4a46 87bd 9728 e0bd 3dd9 85bc c0af dfbc
00000230: 9828 4c3d 04be 92bd 50d0 203d 1438 2ebd
00000240: 6d33 8c3d 8b5a 953d b473 1c3e c87b 033e
00000250: f813 063e a178 a6bd a2a8 683d beab 02bd
00000260: 6dee b2bb 4454 c1bc 7f58 803d 5ae2 30be
00000270: 66e6 e23c 8bf2 513d 449d 593d 85bf 5bbd
00000280: 4c1c f93d f5bd d4bc 1851 a4bd 59a9 a7bd
00000290: c479 09bc 6538 233d 650c 95bb 7597 c73d
000002a0: c50e 823c 30a6 25be 6e86 fabd a83d a3bd
000002b0: 27fd 553d 82e5 c4bd 0ef1 84bd 767f e9bd
000002c0: 56bf 15be 8898 363d 37ee d83d 5ccc 52be
000002d0: 4f73 3fbd 7489 db3d a308 d93c 1746 4a3d
000002e0: 0c9a ea3d e97c d23d 105e db3d b152 df3d
000002f0: afb2 aa3d a4eb 0c3e 34b5 9f3c aec2 bfbc
00000300: 556c d83d 7e24 bc3d 676e dc3a 3ea0 bfbb
00000310: 5198 013d 4421 083c b448 413d edea 983d
00000320: e977 e3bd 2de3 e5ba e967 cc3d c32b 6f3d
00000330: 1e0f b1bb 87e5 81bd 9ab0 4abd ed99 e5bd
00000340: 0ede 9d3c c95d 8b3c 14c6 053e 02b7 4a3d
00000350: 7c9d e3bd db85 dbbd 4030 92b9 38a4 f73d
00000360: 5dc6 963c e8c2 e63c 4cf0 5a3d bc45 20bb
00000370: 297b 81bd 4e0b 093e ae87 f1bc eda2 a6bb
00000380: 2f6b 49bc c9e0 2c3e 10eb 273e fa88 fb3d
00000390: 0bda 91bc a0e6 a2bd 96de 72bd 0418 d73d
000003a0: 944c 7d3d fad0 073e 66a9 b33d 17ff 293d
000003b0: 8dcb e73c a306 86bd ff85 f2bd 1cc3 91bd
000003c0: 1b5a 623d 37f4 c6bc 154c c23b 5493 e9bc
000003d0: edbf 533d 31d3 b1bd a435 92bd 8004 de3c
000003e0: ebe8 49bc 4d60 8d3d 0436 50bd 89e3 71bd
000003f0: 40aa 393d d030 78bd 8f7d cabd 6c4a ecbd

lstm.weight_hh_l0 f4 [256, 64]
-0.04559388 0.10412155 0.08900464 -0.17138103 -0.1495244 -0.006714993 -0.12085824 -0.09369773
0.045557067 0.053539507 -0.035923894 0.031564835 0.04271163 0.040673483 0.0878475 -0.101666585
-0.09327194 0.05505698 0.15371288 -0.0675038 0.1250772 0.03963965 0.058306493 0.17309362
0.14389919 -0.10430359 -0.08579621 0.07631703 0.07625072 -0.07023022 0.08066496 0.0033470758
-0.07839152 0.02366566 -0.21063556 -0.027528033 -0.08637736 0.088934764 -0.11622148 0.08970571
-0.08772211 0.025884079 -0.1257514 -0.007528747 0.07792028 -0.13719122 -0.10540441 0.010196383
-0.024364915 -0.025349207 -0.02714719 -0.035290908 0.06955236 0.080004774 -0.0826876 0.040369224
-0.1331839 -0.047282368 0.078485824 -0.046120353 -0.14633568 0.016437087 -0.022194715 0.015810058
0.022051161 -0.13494445 -0.112910524 -0.1092364 0.062537014 -0.016187038 -0.15822607 -0.10801124
-0.007833374 0.12854515 0.06322996 0.12973303 0.018661633 0.08614017 0.06775347 0.14923698
-0.13760449 -0.0142046325 0.049448475 -0.23508722 0.0007724126 0.07240463 0.074842066 0.18981585
0.13356444 -0.07632687 0.10246005 -0.009672814 0.01949702 -0.030594818 0.09613976 0.062245052
0.10618824 0.03391959 -0.15371506 0.07176208 0.030755714 -0.15062605 0.017115414 0.0523891
0.06785709 -0.015026271 -0.04599371 0.038967457 -0.02685548 -0.08038759 0.0031243216 0.1355206
0.12598294 0.018653037 0.010048991 -0.08795866 -0.023308102 -0.079830505 0.004460967 0.1528455
0.016510636 -0.013194708 0.11651786 0.081986 -0.14482208 0.025297811 -0.22525005 -0.029585166
0.031901006 -0.12652479 0.09036013 0.0650171 -0.08015914 -0.20239805 0.09931873 -0.13320087
-0.033755153 0.009541513 0.092446074 -0.022272209 -0.03258128 0.018871909 -0.18718357 0.10481708
0.09595135 0.14072032 0.045683388 -0.033196487 0.012803853 -0.029308781 0.11957705 0.22146188
0.04251674 0.049280435 -0.073074654 0.21414122 -0.1824502 -0.08547473 0.10103175 -0.0013398712
-0.14930017 -0.0010230746 0.0026142616 0.116384506 -0.041745268 0.11750275 0.177152 -0.045743905
-0.1279344 0.11486925 -0.07678359 -0.0049656443 -0.051735323 -0.0052356343 0.033786215 -0.23025346
0.18344387 -0.13445574 -0.055941798 -0.009741524 -0.088386245 -0.023390085 0.024505425 0.005853878
-0.020640152 -0.051928315 0.052516058 0.1469893 0.026285958 -0.105574384 0.020067168 0.012405717
0.068888225 0.028153269 0.071542904 0.07105373 0.18860263 -0.187797 0.12694098 0.06061356
-0.0047894805 -0.17631102 -0.03963467 -0.12854502 -0.031077893 -0.11457399 -0.1676746 -0.09380301
-0.05000694 0.17514805 -0.14210732 0.06883859 0.07125112 0.054679327 0.1030215 -0.08225781
-0.09173095 -0.017687483 -0.074512124 -0.033644773 -0.060827225 -0.12076409 -0.07565538 0.050750308
-0.050874 -0.0008346017 0.103901915 0.11415268 -0.047818124 0.16449642 0.0020884757 -0.09687769
0.008445916 0.12018481 -0.14245725 0.04701792 0.16094106 0.0149948625 0.16838618 -0.051060654
0.1941458 0.062642656 -0.056226816 -0.020604257 0.10084763 -0.0993411 0.07486223 -0.17251736
-0.06103203 -0.059580494 -0.005019967 -0.08134585 0.08874708 -0.20528418 0.0816991 0.018965421
00000000: a6c0 3abd ae3d d53d 1148 b63d 827e 2fbe
00000010: ed1c 19be 7209 dcbb 8684 f7bd 98e4 bfbd
00000020: 0c9a 3a3d 3e4c 5b3d ef24 13bd 214a 013d
00000030: 64f2 2e3d 3d99 263d 64e9 b33d 9236 d0bd
00000040: 5c05 bfbd 6e83 613d e966 1d3e 6f3f 8abd
00000050: 3d14 003e 305d 223d cad2 6e3d 743f 313e
00000060: 4f5a 133e 1f9d d5bd ecb5 afbd 1a4c 9c3d
00000070: 5629 9c3d ddd4 8fbd ac33 a53d 9d5a 5b3b
00000080: bc8b a0bd 7cde c13c d9b0 57be 7882 e1bc
00000090: 9de6 b0bd 6e23 b63d 8705 eebd a1b7 b73d
000000a0: a6a7 b3bd d90a d43c fac4 00be b5b3 f6bb
000000b0: ab94 9f3d db7b 0cbe 44de d7bd bb0e 273c
000000c0: ee98 c7bc 24a9 cfbc c963 debc 338d 10bd
000000d0: 7871 8e3d 8bd9 a33d 1e58 a9bd 335a 253d
000000e0: 5c61 08be 28ab 41bd 2dbd a03d b2e8 3cbd
000000f0: 05d9 15be 12a7 863c b1d1 b5bc 1884 813c
00000100: a3a4 b43c e12e 0abe a23d e7bd 55b7 dfbd
00000110: 6813 803d ae9a 84bc 0406 22be ff34 ddbd
00000120: 8d57 00bc 57a1 033e b67e 813d bcd8 043e
00000130: 48e0 983c 426a b03d 55c2 8a3d 94d1 183e
00000140: 31e8 0cbe 8cba 68bc 7c8a 4a3d b4ba 70be
00000150: bb7b 4a3a e148 943d cc46 993d 165f 423e
00000160: 1ec5 083e 4351 9cbd 93d6 d13d b97a 1ebc
00000170: 37b8 9f3c fca1 fabc ece4 c43d abf4 7e3d
00000180: 3879 d93d 45ef 0a3d 7b67 1dbe fff7 923d
00000190: 68f3 fb3c b73d 1abe a035 8c3c f495 563d
000001a0: a8f8 8a3d c030 76bc e763 3cbd 579c 1f3d
000001b0: 0600 dcbc 40a2 a4bd 6bc1 4c3b eac5 0a3e
000001c0: ac01 013e 41ce 983c 86a4 243c ac23 b4bd
000001d0: a2f0 bebc 2d7e a3bd 4e2d 923b 8883 1c3e
000001e0: 5041 873c 9e2e 58bc eaa0 ee3d 47e8 a73d
000001f0: 3d4c 14be 5b3d cf3c f3a7 66be 975c f2bc
00000200: a1aa 023d b78f 01be bb0e b93d af27 853d
00000210: 7a2a a4bd 6f41 4fbe 9e67 cb3d cf65 08be
00000220: d842 0abd 0254 1c3c 5e54 bd3d 3574 b6bc
00000230: f373 05bd 4399 9a3c 0dad 3fbe 56aa d63d
00000240: 2482 c43d fd18 103e 811e 3b3d 0af9 07bd
00000250: 40c7 513c f818 f0bc d0e4 f43d e7c6 623e
00000260: 0826 2e3d 48da 493d 2aa8 95bd d647 5b3e
00000270: 3ad4 3abe 600d afbd bce9 ce3d 9e9e afba
00000280: 25e2 18be b018 86ba 0854 2b3b 005b ee3d
00000290: 16fd 2abd 48a5 f03d 5567 353e f65d 3bbd
000002a0: 3c01 03be 9240 eb3d b740 9dbd d8b6 a2bb
000002b0: 6be8 53bd af8f abbb 6a63 0a3d 90c7 6bbe
000002c0: b6d8 3b3e c4ae 09be 3a23 65bd ea9a 1fbc
000002d0: d903 b5bd 909c bfbc 9abf c83c e3d1 bf3b
000002e0: 8915 a9bc c9b2 54bd 141b 573d 5d84 163e
000002f0: a655 d73c 6237 d8bd e763 a43c 5941 4b3c
00000300: 4515 8d3d afa1 e63c 1685 923d 9e84 913d
00000310: 0c21 413e db4d 40be d1fc 013e ed45 783d
00000320: 13f1 9cbb e08a 34be f757 22bd 4ea1 03be
00000330: 1197 febc c5a5 eabd e4b2 2bbe cb1b c0bd
00000340: 14d4 4cbd 035a 333e 9584 11be 3ffb 8c3d
00000350: 1bec 913d 6ef7 5f3d f0fc d23d c876 a8bd
00000360: 70dd bbbd 57e5 90bc d099 98bd 1acf 09bd
00000370: f825 79bd 2a53 f7bd 35f1 9abd 8edf 4f3d
00000380: 4161 50bd 2cc9 5aba 87ca d43d e1c8 e93d
00000390: f0dc 43bd c071 283e cfde 083b cf67 c6bd
000003a0: bd60 0a3c 7423 f63d 50e0 11be dd95 403d
000003b0: bccd 243e 03ad 753c 6d6d 2c3e fa24 51bd
000003c0: 28ce 463e cb4a 803d 174e 66bd 42ca a8bc
000003d0: 3489 ce3d 5973 cbbd 5e51 993d 64a8 30be
000003e0: b9fc 79bd ad0a 74bd 897e a4bb a798 a6bd
000003f0: 07c1 b53d 0436 52be dc51 a73d 5f5d 9b3c

lstm.bias_ih_l0 f4 [256]
-0.009798227 -0.01692414 -0.014290022 -0.10260042 0.012875721 0.110132545 0.07032259 0.19754405
0.15449591 -0.011266251 0.07862599 -0.0056157773 0.11406495 -0.07326481 0.006774082 0.042590264
0.04221294 0.034028128 0.12015846 0.14881091 -0.08509587 0.023932984 0.012677625 0.08544301
-0.071848854 0.18811084 0.018481007 0.070189826 -0.040780276 0.055015028 0.05252979 0.13601209
-0.015425693 0.13728826 -0.020655284 0.078357175 -0.021882597 0.072601005 -0.09079521 0.054995466
-0.020580774 0.009718127 -0.0058571706 -0.027542172 0.13361977 0.131578 0.095901564 -0.050863516
0.11453634 0.16082585 0.0029534986 -0.07520051 0.09179879 0.088684924 0.07819592 -0.06750207
-0.07880262 0.10971121 -0.07588901 0.05668297 0.08250983 0.0077775833 -0.1289322 -0.09637053
0.11712444 -0.004759671 0.04430905 -0.10864029 -0.112048745 0.0605195 -0.1039272 0.08010344
0.016685033 0.115407184 -0.033211596 -0.025437132 -0.051387254 0.06805885 -0.006503424 -0.012468453
-0.16006072 0.1352437 0.10696338 -0.04630741 0.03429819 -0.021562127 -0.056079768 -0.14249042
-0.064472765 0.074943215 -0.1139601 0.118275546 -0.036624566 -0.06135003 -0.08440652 0.14263391
0.002760086 0.061769165 -0.014348718 0.13607292 -0.109467044 0.042998023 0.05587106 -0.03280116
-0.07136153 0.063433215 -0.0021556355 -0.058298945 -0.06985586 0.09065497 0.006816219 -0.0707621
-0.041729234 0.01469551 0.14053403 0.058097437 0.104282886 -0.00921999 0.059023153 -0.098833226
0.03125358 -0.08975389 0.097731344 0.06716791 0.000987575 -0.021606741 0.031075412 0.11530572
0.05778973 0.012013576 -0.08608634 -0.06477383 -0.07308515 -0.07104603 -0.04396847 0.024613341
0.1070878 0.06802288 0.015059982 0.09158275 0.13775127 0.028148042 -0.01047514 0.07693475
-0.09775794 0.077539325 0.059461277 -0.13003734 -0.12960093 0.019416392 0.09667694 0.08669203
-0.13758735 0.14892873 0.01237532 -0.0031137415 -0.03065444 0.059531245 0.037062123 0.019491728
-0.13843851 0.008107119 -0.11943042 -0.15028101 0.003503358 -0.008275856 -0.14478868 -0.12816425
0.14580722 0.13939571 -0.12627876 -0.091106914 0.06553014 0.010466639 0.04180482 -0.015085997
0.030632624 -0.1575177 -0.11534676 0.07196117 0.03701591 0.049394783 -0.076603025 -0.09635717
-0.060493045 -0.096178606 -0.10910937 0.06254388 -0.07754528 -0.14519925 0.0028237994 0.070944555
0.02160887 -0.11696566 0.1165631 -0.06992117 0.18539256 -0.05713836 0.14910762 0.041691575
0.13539074 0.073223785 0.10569553 0.037923735 -0.03666523 0.009409582 0.12693423 -0.09113149
0.0914742 -0.0035326553 0.07840115 -0.048239745 -0.079320356 0.07041071 -0.034451645 -0.012699825
0.021849276 0.20749201 -0.12979501 -0.014420396 -0.057662167 0.017051578 -0.051837794 0.13958372
0.08073524 0.046717234 -0.015619607 0.10975503 -0.039223485 -0.059481267 -0.08380925 0.014422055
-0.0190404 0.13658462 0.013612074 -0.023222333 -0.03608825 0.17410374 0.13278463 -0.056699567
0.14389382 0.016717397 -0.018968174 0.04800482 -0.11595723 -0.16146415 0.029201949 0.17330448
0.10827447 0.11510032 0.07744222 0.023501003 0.034580134 -0.023173954 0.13107541 0.11761841
00000000: be88 20bc 7ea4 8abc b220 6abc 2b20 d2bd
00000010: b0f4 523c 2c8d e13d 4a05 903d fd48 4a3e
00000020: 2d34 1e3e 1596 38bc aa06 a13d 8e04 b8bb
00000030: e29a e93d dc0b 96bd 1ef9 dd3b 2173 2e3d
00000040: 7ae7 2c3d 1461 0b3d a415 f63d e361 183e
00000050: be46 aebd 1b0f c43c d0b5 4f3c bffc ae3d
00000060: 7e25 93bd 21a0 403e 7b65 973c afbf 8f3d
00000070: 3809 27bd 7057 613d 7a29 573d c146 0b3e
00000080: 0cbc 7cbc 4b95 0c3e 4535 a9bc ba79 a03d
00000090: 2243 b3bc d6af 943d d7f2 b9bd ed42 613d
000000a0: 0399 a8bc c738 1f3c 82ed bfbb 1fa0 e1bc
000000b0: 9fd3 083e 62bc 063e 0a68 c43d 4356 50bd
000000c0: 0792 ea3d 88af 243e 7c8f 413b ba02 9abd
000000d0: 0101 bc3d 71a0 b53d 2f25 a03d 863e 8abd
000000e0: 4563 a1bd 45b0 e03d b36b 9bbd 672c 683d
000000f0: eafa a83d 19db fe3b cd06 04be ea5d c5bd
00000100: f0de ef3d 04f7 9bbb 687d 353d cd7e debd
00000110: d079 e5bd 4ce3 773d c9d7 d4bd 460d a43d
00000120: 0daf 883c 9a5a ec3d e208 08bd 8861 d0bc
00000130: 717b 52bd 7062 8b3d ad1a d5bb 7b48 4cbc
00000140: f5e6 23be 537d 0a3e 9e0f db3d d7ac 3dbd
00000150: 427c 0c3d 0fa3 b0bc e6b3 65bd 02e9 11be
00000160: 4c0a 84bd d47b 993d ea63 e9bd 733a f23d
00000170: a403 16bd 2b4a 7bbd 53dd acbd a00e 123e
00000180: 8fe2 343b aa01 7d3d e316 6bbc b356 0b3e
00000190: 4230 e0bd b21e 303d 0dd9 643d 825a 06bd
000001a0: fe25 92bd 46e9 813d 9045 0dbb e0ca 6ebd
000001b0: 9710 8fbd 50a9 b93d 975a df3b b8eb 90bd
000001c0: 46ec 2abd 70c5 703c 27e8 0f3e 94f7 6d3d
000001d0: 4492 d53d 710f 17bc 43c2 713d 1369 cabd
000001e0: c103 003d e3d0 b7bd 5f27 c83d 548f 893d
000001f0: 8571 813a 9f00 b1bc dd91 fe3c 6825 ec3d
00000200: edb4 6c3d 97d4 443c 094e b0bd 24a8 84bd
00000210: abad 95bd 9580 91bd 4818 34bd eba1 c93c
00000220: d950 db3d 944f 8b3d 25be 763c bd8f bb3d
00000230: ab0e 0d3e b996 e63c ec9f 2bbc f78f 9d3d
00000240: 5135 c8bd f0cc 9e3d ab8d 733d 8228 05be
00000250: 1bb6 04be 200f 9f3c 8ffe c53d 978b b13d
00000260: b3e3 0cbe c680 183e dbc1 4a3c ea0f 4cbb
00000270: 051f fbbc 09d7 733d 74ce 173d 1ead 9f3c
00000280: d3c2 0dbe b9d3 043c f097 f4bd 44e3 19be
00000290: 9898 653b 7597 07bc 7c43 14be 7d3d 03be
000002a0: 7d4e 153e c0bd 0e3e 384f 01be 4396 babd
000002b0: ab34 863d 447c 2b3c 883b 2b3d 422b 77bc
000002c0: 45f1 fa3c 524c 21be ec3a ecbd 6160 933d
000002d0: ff9d 173d 2f52 4a3d 0ce2 9cbd e856 c5bd
000002e0: 8ec7 77bd 4af9 c4bd bc74 dfbd 0117 803d
000002f0: 0fd0 9ebd 1daf 14be 7e0f 393b 614b 913d
00000300: 1605 b13c b18b efbd a2b8 ee3d d532 8fbd
00000310: 8cd7 3d3e ea09 6abd abaf 183e c9c4 2a3d
00000320: dfa3 0a3e 5af6 953d e676 d83d eb55 1b3d
00000330: 482e 16bd a62a 1a3c 0cfb 013e 26a3 babd
00000340: d356 bb3d 1f84 67bb c890 a03d 0a97 45bd
00000350: b672 a2bd 7e33 903d 2b1d 0dbd ed12 50bc
00000360: 41fd b23c c978 543e fce8 04be 8643 6cbc
00000370: 2a2f 6cbd c0af 8b3c de53 54bd 09ef 0e3e
00000380: 8458 a53d 925a 3f3d 61e9 7fbc 3fc7 e03d
00000390: cea8 20bd a1a2 73bd 2fa4 abbd 7c4a 6c3c
000003a0: 9dfa 9bbc d7dc 0b3e 2d05 5f3c c33c bebc
000003b0: 46d1 13bd 4048 323e b2f8 073e ce3d 68bd
000003c0: e758 133e ecf2 883c 2563 9bbc b4a0 443d
000003d0: fc7a edbd dc56 25be ed38 ef3c bb76 313e
000003e0: 01bf dd3d b7b9 eb3d 079a 9e3d 2d85 c03c
000003f0: e6a3 0d3d 4ed7 bdbc a238 063e ece1 f03d

lstm.bias_hh_l0 f4 [256]
-0.065134 -0.14745629 0.001650511 -0.057683393 0.059373885 0.1395884 0.02399436 0.19497065
0.03949415 0.012306491 0.002595022 -0.022927817 0.031193677 -0.034560144 -0.040300116 0.047741015
0.048682272 0.019289518 0.036479697 -0.0041148895 -0.11829913 0.10205691 0.040824056 -0.07896489
0.13105063 0.10445293 -0.12368032 -0.08105443 -0.03663487 -0.061519116 0.007894683 -0.04212692
-0.046262316 0.17753242 -0.018531611 0.013786721 -0.053911675 0.034807853 -0.070181035 -0.05421898
-0.013635343 0.031782053 0.07023074 0.06886407 0.11122684 -0.024862044 -0.06980349 -0.0018258813
0.1388567 0.0476481 0.13615699 0.092859685 0.07559774 -0.03740948 0.053914495 -0.026828801
0.025824917 0.06938488 -0.042342253 -0.083411835 -0.05355458 0.04694216 -0.033693362 0.061285198
-0.048374314 0.06484959 -0.07556349 0.03218471 0.049361087 0.107195206 -0.079466395 -0.0510346
-0.031304568 -0.043215852 0.00595407 -0.013830316 0.0877572 0.10821317 0.064939424 0.031838432
-0.08260277 -0.0071591134 0.09839717 -0.08199983 0.04076861 -0.101193555 -0.022384472 -0.1468135
-0.16948663 0.058624357 -0.09513139 0.021840012 0.092345886 0.004474462 0.03317225 -0.0331819
0.10429822 0.11008963 -0.07276938 -0.064628355 0.07929531 0.09053957 0.05698693 0.010664047
0.041939367 0.115577884 0.027558269 -0.027592728 0.06385675 0.15904601 -0.047773954 -0.09335764
-0.09629736 0.019127455 0.12902412 0.022570923 0.10972452 0.014976443 0.07659759 -0.11778691
0.051672272 0.04571537 0.032340124 0.08045213 -0.10325645 0.1383472 -0.038313773 -0.059041824
0.067292415 0.06536474 0.0920741 0.115188874 0.07165094 0.04430353 0.13607006 0.1039691
0.06392097 0.024456887 -0.13250571 0.0807609 -0.05498031 -0.06958297 -0.15305416 -0.15038507
-0.042430613 -0.113449514 0.049681548 0.01922263 -0.057736915 0.15398978 0.098678134 0.058008417
-0.105554685 -0.07055462 -0.023028625 0.107294835 -0.10665402 -0.10935294 -0.015726583 0.053646605
0.037137996 0.040419724 -0.03680767 -0.07428922 -0.042426277 0.1019641 -0.12642977 -0.13990684
0.013170555 0.0287337 0.022268994 0.01909532 0.110433474 -0.008284962 0.093459025 -0.06307668
-0.117906004 -0.10737935 0.10699247 -0.06015566 -0.070216805 0.01675828 -0.12178579 0.0012447276
-0.09647349 0.075437024 0.09374361 0.06896836 0.068089314 0.04528224 0.015121797 0.01057683
0.030949488 -0.05600714 0.06360339 -0.094131835 -0.016298696 0.03049145 -0.028391771 0.017558765
0.076748855 -0.023578333 0.12862602 -0.051885646 -0.07891298 0.03755254 0.038882583 0.04259111
0.0888593 -0.0574161 -0.12841223 0.11859316 -0.031694185 0.13760293 -0.062162887 0.12908499
0.022354888 0.075426325 -0.07574287 0.11220981 0.095839895 -0.09240286 -0.046373688 -0.013400767
0.0442554 -0.07086393 -0.061848387 0.047887847 0.03292172 -0.029781153 0.06712798 0.1629949
0.016858831 0.18115033 0.056003448 0.040364616 0.0058461763 0.17298917 0.10600188 -0.090706795
0.075748794 -0.055355262 -0.035309967 -0.06490619 -0.017256886 -0.081707895 0.009547044 0.17920227
0.034355223 -0.08451512 -0.04779506 -0.11015623 -0.03941711 0.123313524 0.06736195 -0.023144267
00000000: f964 85bd c8fe 16be f655 d83a 6c45 6cbd
00000010: 0832 733d 43f0 0e3e d28f c43c 63a6 473e
00000020: 9ec4 213d 2aa1 493c 3f11 2a3b 1ed3 bbbc
00000030: e289 ff3c f08e 0dbd bc11 25bd 158c 433d
00000040: 1067 473d 0d05 9e3c bc6b 153d 32d6 86bb
00000050: d046 f2bd 3703 d13d 2037 273d 58b8 a1bd
00000060: 2332 063e 6beb d53d 1c4c fdbd ddff a5bd
00000070: 720e 16bd 78fb 7bbd b358 013c 478d 2cbd
00000080: 8e7d 3dbd 0fcb 353e 9bcf 97bc b3e1 613c
00000090: 7dd2 5cbd ae92 0e3d 13bb 8fbd b914 5ebd
000000a0: c666 5fbc e62d 023d 22d5 8f3d 9b08 8d3d
000000b0: e6ca e33d 7cab cbbc 22f5 8ebd 6952 efba
000000c0: 7330 0e3e a72a 433d bd6c 0b3e 382d be3d
000000d0: fdd2 9a3d af3a 19bd 72d5 5c3d 13c8 dbbc
000000e0: c78e d33c a919 8e3d 126f 2dbd d3d3 aabd
000000f0: 0c5c 5bbd 6c46 403d 0d02 0abd 3006 7b3d
00000100: 2524 46bd ddcf 843d 08c1 9abd 1dd4 033d
00000110: da2e 4a3d 2989 db3d 47bf a2bd a809 51bd
00000120: 3839 00bd 1b03 31bd 5c1a c33b 8d98 62bc
00000130: 0cba b33d de9e dd3d f6fe 843d 0469 023d
00000140: a42b a9bd ff96 eabb 7584 c93d 87ef a7bd
00000150: fcfc 263d 913e cfbd a45f b7bc 4756 16be
00000160: e78d 2dbe 1820 703d 3fd4 c2bd d3e9 b23c
00000170: d71f bd3d 829e 923b a0df 073d bee9 07bd
00000180: 4e9a d53d ac76 e13d 1d08 95bd df5b 84bd
00000190: 9465 a23d cf6c b93d 216b 693d 41b8 2e3c
000001a0: 9dc8 2b3d 19b4 ec3d e1c1 e13c 250a e2bc
000001b0: 54c7 823d f5dc 223e 9fae 43bd 4a32 bfbd
000001c0: 8d37 c5bd 2eb1 9c3c e61e 043e a8e6 b83c
000001d0: 40b7 e03d c15f 753c 33df 9c3d 433a f1bd
000001e0: 4ea6 533d 0a40 3b3d 1477 043d 16c4 a43d
000001f0: 1e78 d3bd e3aa 0d3e e7ee 1cbd d7d5 71bd
00000200: 9bd0 893d f3dd 853d 5991 bc3d 25e8 eb3d
00000210: babd 923d 9e77 353d f355 0b3e c0ed d43d
00000220: ffe8 823d cf59 c83c 94af 07be f965 a53d
00000230: 0933 61bd 8481 8ebd 3bba 1cbe 8bfe 19be
00000240: b9cb 2dbd 3858 e8bd e17e 4b3d c778 9d3c
00000250: 8b7d 6cbd 7faf 1d3e c317 ca3d 3c9a 6d3d
00000260: 0e2d d8bd f17e 90bd 87a6 bcbc 65bd db3d
00000270: 6c6d dabd 6ff4 dfbd 09d5 80bc 8bbc 5b3d
00000280: 031e 183d 278f 253d a4c3 16bd f224 98bd
00000290: 2dc7 2dbd 8ed2 d03d ce76 01be bd43 0fbe
000002a0: 50c9 573c f062 eb3c 776d b63c ca6d 9c3c
000002b0: f22a e23d a6bd 07bc 7267 bf3d 592e 81bd
000002c0: b478 f1bd b4e9 dbbd de1e db3d c865 76bd
000002d0: d4cd 8fbd a948 893c d46a f9bd 2126 a33a
000002e0: e593 c5bd ba7e 9a3d a6fc bf3d 493f 8d3d
000002f0: 6972 8b3d df79 393d 6ac1 773c 714a 2d3c
00000300: c889 fd3c be67 65bd 7e42 823d 31c8 c0bd
00000310: d884 85bc 35c9 f93c dc95 e8bc 66d7 8f3c
00000320: 812e 9d3d 5927 c1bc 8ab6 033e 0b86 54bd
00000330: 219d a1bd b1d0 193d 5843 1f3d 0474 2e3d
00000340: ddfb b53d 252d 6bbd 7f7e 03be f8e0 f23d
00000350: c3d1 01bd c8e7 0c3e 839e 7ebd db2e 043e
00000360: 9921 b73c 1e79 9a3d 141f 9bbd 42ce e53d
00000370: b547 c43d b63d bdbd 56f2 3dbd e48e 5bbc
00000380: 2645 353d 1c21 91bd bc54 7dbd 0c26 443d
00000390: edd8 063d 9bf7 f3bc 657a 893d 23e8 263e
000003a0: 881b 8a3c 797f 393e df63 653d 5e55 253d
000003b0: 4891 bf3b 1324 313e 8317 d93d 7cc4 b9bd
000003c0: 2f22 9b3d 33bc 62bd 2fa1 10bd 89ed 84bd
000003d0: 505e 8dbc 7856 a7bd 346b 1c3c cd80 373e
000003e0: 10b8 0c3d 4316 adbd c1c4 43bd 9799 e1bd
000003f0: d673 21bd cd8b fc3d 10f5 893d 0c99 bdbc

lstm.weight_ih_l1 f4 [256, 64]
0.10427402 -0.049531043 0.11565026 -0.039211046 -0.08908026 -0.091373466 -0.012909607 0.14744332
0.060556944 -0.083079554 -0.031141013 0.08598074 0.0040800953 -0.0025237564 0.077833235 0.053980846
0.05303085 0.14124182 0.069221 -0.0013937614 -0.0075035775 0.0042157387 -0.0028380817 0.13545682
0.056584302 -0.030936796 0.16479495 -0.0054350877 -0.072985105 0.018544467 0.0375956 0.13890706
-0.026608486 -0.07824221 0.07682877 0.022410383 0.027106015 0.12920766 0.09685072 0.08052654
0.047345754 0.14877622 0.14075738 0.121168725 0.091553375 0.10763677 -0.04742569 -0.123724096
-0.09631106 0.02162171 -0.10751502 0.121736966 -0.08083055 -0.021313969 -0.12746899 -0.080973625
-0.040190734 -0.07418392 0.028652571 -0.010146039 0.056241382 -0.11604093 0.07349601 0.16797566
0.050727602 0.16027577 0.016501179 -0.107912146 -0.110799685 0.059577785 -0.0032950575 -0.0049754702
-0.077743344 -0.05163157 -0.04067033 0.07862368 0.095070645 -0.021517513 0.06521188 -0.07490488
-0.15767485 0.0039268075 0.16268668 -0.103430286 -0.119281895 0.085172355 0.07301833 -0.06732368
-0.097049266 -0.15516089 -0.09001819 0.013989058 -0.022957403 -0.0028097513 -0.110342205 0.076961175
0.10227095 0.049433764 -0.009951216 0.09309178 -0.0410144 -0.024505364 -0.07927639 -0.0313432
-0.027751919 -0.04387022 -0.15599696 0.071075164 -0.12208256 0.0473384 0.00081473065 -0.011755359
0.12229387 0.08325622 0.13435261 0.030203534 -0.07365267 0.08341196 -0.0798338 -0.10919131
-0.054837987 -0.016653936 -0.026111506 -0.01964488 -0.016584782 0.029787658 -0.10832229 -0.0652177
-0.01925016 0.047613323 -0.028683102 -0.06538402 0.026307346 0.03855706 0.08729384 0.18390095
0.046902973 0.039902616 -0.13169017 -0.0041433144 0.11579139 0.008556389 -0.052524395 -0.035278168
-0.0452693 -0.015214043 -0.11496656 -0.010561135 0.03915385 -0.039442647 -0.06072212 -0.0634266
-0.04130891 0.1581154 0.023527196 0.123452164 -0.069629386 0.00972287 0.039861128 0.055331726
-0.116342165 0.044241033 0.022881117 -0.118944965 -0.15163037 0.015055738 -0.06749727 -0.14120705
0.060609873 -0.015559486 -0.035281755 0.13419275 0.088334195 0.10874974 0.08173815 -0.07449869
0.0470047 -0.013949065 -0.0329218 -0.06408448 -0.022135364 0.04967808 -0.06126357 -0.019585159
-0.04007372 0.020568198 -0.016072715 0.08242819 -0.1443873 -0.033075225 0.16360484 -0.015970571
-0.086582065 0.031706057 -0.05255087 -0.02070131 -0.102698535 -0.12442107 -0.13341606 0.01768904
0.0061280946 -0.11100591 -0.16282089 0.004881155 0.08009711 -0.06992529 0.0155208865 0.0712451
0.099779256 0.14630695 0.05753445 0.06344405 -0.081954606 -0.1091668 -0.13758016 0.17072698
0.15907454 0.119313695 -0.01759868 -0.10343406 -0.12228449 0.05500001 -0.0029350913 0.14500713
0.018897325 -0.04483651 -0.18766998 -0.021683812 0.06526447 0.006806966 -0.001659744 -0.022596508
-0.09881561 0.07001404 -0.07825964 -0.0018284045 0.05326314 -0.049160037 -0.055493876 -0.18024284
0.0034262226 0.029715084 -0.11462934 0.08725866 -0.12461587 0.05623114 0.044004545 -0.052402694
0.08407304 0.07349553 0.01379974 0.043369498 0.0780465 0.056235004 0.008661171 0.15073757
00000000: 9e8d d53d 10e1 4abd 0bda ec3d c39b 20bd
00000010: b66f b6bd 0322 bbbd d182 53bc 62fb 163e
00000020: 8f0a 783d 9d25 aabd 701b ffbc ac16 b03d
00000030: 52b2 853b 9b65 25bb 0867 9f3d 051b 5d3d
00000040: e036 593d b2a1 103e bdc3 8d3d dfae b6ba
00000050: 92e0 f5bb 2e24 8a3b 1cff 39bb 31b5 0a3e
00000060: f1c4 673d 2a6f fdbc 02c0 283e d218 b2bb
00000070: 3779 95bd 91ea 973c d8fd 193d a73d 0e3e
00000080: 0afa d9bc 743d a0bd 6758 9d3d fb95 b73c
00000090: 6f0d de3c 034f 043e ac59 c63d 19eb a43d
000000a0: 9fed 413d cb58 183e b422 103e 4f27 f83d
000000b0: 5680 bb3d ab70 dc3d 7141 42bd 0f63 fdbd
000000c0: bc3e c5bd 0320 b13c d630 dcbd 3b51 f93d
000000d0: 7d8a a5bd a29a aebc 3b87 02be 80d5 a5bd
000000e0: 0a9f 24bd bded 97bd ccb8 ea3c 923b 26bc
000000f0: 5d5d 663d dea6 edbd 1385 963d d001 2c3e
00000100: bfc7 4f3d 551f 243e 7b2d 873c 0b01 ddbd
00000110: f2ea e2bd d607 743d e4f1 57bb 4509 a3bb
00000120: e737 9fbd a07b 53bd ef95 26bd 7405 a13d
00000130: 66b4 c23d 7f45 b0bc ce8d 853d bb67 99bd
00000140: 8475 21be 73ac 803b 5697 263e 42d3 d3bd
00000150: 114a f4bd d86e ae3d a28a 953d ffe0 89bd
00000160: c4c1 c6bd 7fe2 1ebe 755b b8bd 5d32 653c
00000170: 2a11 bcbc ce23 38bb 18fb e1bd d29d 9d3d
00000180: 6f73 d13d 0f7b 4a3d 6d0a 23bc e7a6 be3d
00000190: b7fe 27bd 79bf c8bc a95b a2bd ba61 00bd
000001a0: fe57 e3bc 43b1 33bd abbd 1fbe db8f 913d
000001b0: 6c06 fabd e9e5 413d a693 553a 8d99 40bc
000001c0: 3575 fa3d 3d82 aa3d bb93 093e 676d f73c
000001d0: 36d7 96bd e4d3 aa3d e77f a3bd b29f dfbd
000001e0: cc9d 60bd d66d 88bc cce7 d5bc 4dee a0bc
000001f0: cfdc 87bc 3f05 f43c 14d8 ddbd dc90 85bd
00000200: 83b2 9dbc 3006 433d d3f8 eabc 0fe8 85bd
00000210: 8182 d73c 02ee 1d3d 1dc7 b23d 8850 3c3e
00000220: 551d 403d ed70 233d cad9 06be a4c4 87bb
00000230: 0924 ed3d 1930 0c3c d223 57bd d77f 10bd
00000240: 4d6c 39bd 5244 79bc 9673 ebbd 9c08 2dbc
00000250: ca5f 203d 9d8e 21bd c2b7 78bd cee5 81bd
00000260: 8833 29bd 01e9 213e 1bbc c03c 7dd4 fc3d
00000270: da99 8ebd ac4c 1f3c 6c45 233d 85a3 623d
00000280: cd44 eebd 1636 353d 2e71 bb3c 6b99 f3bd
00000290: fe44 1bbe 58ac 763c 023c 8abd 9598 10be
000002a0: 0f42 783d 37ed 7ebc 9a83 10bd d369 093e
000002b0: 8fe8 b43d 2fb8 de3d 5566 a73d c592 98bd
000002c0: 0088 403d 9e8a 64bc 02d9 06bd b93e 83bd
000002d0: 3955 b5bc 3e7b 4b3d 82ef 7abd 0e71 a0bc
000002e0: 5724 24bd a37e a83c edaa 83bc 1cd0 a83d
000002f0: 44da 13be e379 07bd 0788 273e b7d4 82bc
00000300: f051 b1bd 36de 013d 953f 57bd cb95 a9bc
00000310: 9c53 d2bd 79d0 febd 389e 08be 9be8 903c
00000320: 2fce c83b 1157 e3bd 85ba 26be 19f2 9f3b
00000330: f409 a43d fe34 8fbd 514b 7e3c f3e8 913d
00000340: 1159 cc3d 7dd1 153e 3ea9 6b3d f4ee 813d
00000350: d1d7 a7bd d892 dfbd d0e1 0cbe 0ed3 2e3e
00000360: 70e4 223e bd5a f43d 1b2b 90bc 3dd5 d3bd
00000370: 4a70 fabd b147 613d a95a 40bb c07c 143e
00000380: 90ce 9a3c 7da6 37bd 8f2c 40be 40a2 b1bc
00000390: 61a9 853d f80c df3b c48b d9ba 501c b9bc
000003a0: d75f cabd 8563 8f3d 9746 a0bd 13a7 efba
000003b0: 732a 5a3d 095c 49bd 8c4d 63bd 9491 38be
000003c0: 7a8a 603b 0c6d f33c cac2 eabd abb4 b23d
000003d0: 9b36 ffbd a052 663d 1c3e 343d 35a4 56bd
000003e0: 7c2e ac3d d384 963d 4e18 623c 37a4 313d
000003f0: d8d6 9f3d ad56 663d 96e7 0d3c f35a 1a3e

lstm.weight_hh_l1 f4 [256, 64]
-0.10055894 0.003421773 -0.12668844 0.06563495 0.021681422 0.0026291998 -0.102025114 0.0367897
0.044722877 0.10428278 -0.030823266 -0.13803561 -0.14093453 -0.12202981 -0.021129955 0.07351228
0.012534294 -0.081443384 -0.014585379 0.10450892 0.042654328 -0.14915651 -0.04332537 0.006424488
0.07684675 -0.026015874 0.13822533 0.043087773 -0.030646142 -0.038375277 0.15624267 0.03476727
-0.0752673 0.0937751 -0.08938623 0.019653717 0.11486377 -0.070046015 -0.092169344 0.064314
0.013468332 0.07479603 0.035617117 0.13474889 -0.065787934 -0.06626702 0.12447641 0.07540911
0.09607884 0.056187555 0.036543764 -0.035903856 0.115163036 -0.0371871 0.11813954 -0.010821208
-0.114879526 0.036722966 -0.1215757 -0.13052838 -0.06872458 0.08209087 0.12425176 -0.09118572
-0.09299137 -0.060174435 0.13359018 0.064804316 0.16004165 -0.13610445 -0.045494594 0.013893331
0.06463439 -0.051283132 -0.10406891 0.0061995992 -0.029925428 0.062412158 0.11132792 -0.035595246
0.09517532 0.118816614 0.05860975 -0.041111257 -0.09205266 0.111359335 -0.027275845 0.12024945
-0.052340105 0.029613603 0.06555567 0.065785676 0.03732684 -0.095077746 0.094461374 0.061681777
0.02685303 -0.07171971 0.104879335 0.024116231 0.046962235 0.05271838 0.065320514 0.05082055
-0.020099672 0.049300186 -0.007818663 -0.08962464 -0.07205309 0.03655278 0.00085836963 -0.060462184
0.042376008 0.03698632 0.07575126 -0.06783045 0.022092303 -0.0366811 -0.025962804 -0.03323822
0.004449176 0.0015111653 -0.08841705 0.089883395 0.0136567345 0.052321516 0.03966731 0.024393039
-0.003337789 0.02350234 -0.14811523 0.1270812 0.05316707 8.644113e-05 0.124403216 -0.05570969
0.13532442 -0.028706664 0.030255245 -0.113832265 0.054220837 0.0064876853 -0.13578127 -0.06514967
-0.04870958 0.13782781 -0.0875678 0.010501896 0.08145436 -0.14877781 -0.083909094 -0.060507607
-0.09999663 -0.07953582 -0.061503347 -0.039115723 -0.12504837 -0.05094824 -0.08795911 -0.12680845
-0.07497367 -0.050114986 0.023179239 0.08957827 0.006509141 0.0217003 -0.12644215 0.040388174
-0.04513353 -0.040183757 0.12946072 0.08328176 -0.034473974 -0.010077668 0.027420841 -0.06943337
0.18243715 -0.07458115 0.06388458 0.091039926 0.08129754 0.1307196 -0.040004894 0.0076958463
0.022348503 -0.068756066 -0.13871032 -0.009552358 0.07449255 0.09770332 0.07455691 0.057515096
0.105167724 -0.110810645 -0.12741086 0.15087236 -0.029373964 0.00015269715 -0.05783678 0.0437196
0.05122396 0.097944416 -0.019620012 0.035574477 -0.12788697 0.07620414 0.009182462 0.10611399
-0.13107008 -0.08410902 0.109914996 -0.0918508 -0.056632403 0.038236927 -0.111751296 -0.14554758
-0.014377796 0.08288151 0.027580818 -0.068636164 -0.14419612 -0.019368665 0.07696276 -0.10804655
0.12870015 0.030344317 0.08757421 0.0061500827 -0.11830193 0.05238649 -0.066137426 -0.056476876
-0.009194085 -0.08654286 0.107236676 -0.047308315 0.04427784 -0.024771236 -0.05543367 -0.025939452
0.035131436 0.08096312 0.12954359 0.043413922 -0.055029303 0.06679645 -0.068549365 0.0656033
0.123266704 0.068633296 -0.011596098 -0.01564685 -0.06650768 -0.055971127 -0.047077134 0.035620667
00000000: d8f1 cdbd d33f 603b 9dba 01be 9e6b 863d
00000010: 3d9d b13c a74e 2c3b 8bf2 d0bd ccb0 163d
00000020: 562f 373d 3692 d53d 1381 fcbc 3559 0dbe
00000030: 2451 10be c4ea f9bd ba18 adbc 9b8d 963d
00000040: a45c 4d3c cacb a6bd 83f7 6ebc c608 d63d
00000050: 4eb6 2e3d 7cbc 18be f175 31bd 8384 d23b
00000060: d461 9d3d 3e1f d5bc f18a 0d3e ce7c 303d
00000070: 9e0d fbbc 652f 1dbd 14fe 1f3e 2068 0e3d
00000080: be25 9abd 290d c03d 2110 b7bd d500 a13c
00000090: b23d eb3d 4974 8fbd 48c3 bcbd 0fb7 833d
000000a0: 47aa 5c3c a92e 993d 41e3 113d 9dfb 093e
000000b0: d3bb 86bd 01b7 87bd 7ded fe3d 1770 9a3d
000000c0: fcc4 c43d ec24 663d eaae 153d ec0f 13bd
000000d0: 99da eb3d 8051 18bd 25f3 f13d 704b 31bc
000000e0: f545 ebbd d26a 163d aefc f8bd 3ba9 05be
000000f0: 79bf 8cbd 421f a83d b577 fe3d 94bf babd
00000100: 4272 bebd 7879 76bd ddcb 083e 20b8 843d
00000110: f5e1 233e f75e 0bbe 8a58 3abd dba0 633c
00000120: 095f 843d 430e 52bd 1522 d5bd 0226 cb3b
00000130: 2c26 f5bc e4a3 7f3d e4ff e33d 52cc 11bd
00000140: 47eb c23d 2056 f33d c710 703d 4764 28bd
00000150: 1b86 bcbd 5d10 e43d 9871 dfbc 5845 f63d
00000160: 9462 56bd 3a98 f23c 0d42 863d a4ba 863d
00000170: 07e4 183d 1fb8 c2bd f774 c13d 08a6 7c3d
00000180: e3fa db3c c9e1 92bd faca d63d 678f c53c
00000190: 795b 403d 3aef 573d c3c6 853d 3629 503d
000001a0: 11a8 a4bc feee 493d d919 00bc 208d b7bd
000001b0: 9290 93bd 5eb8 153d 3604 613a 32a7 77bd
000001c0: 7792 2d3d f87e 173d 7a23 9b3d b1ea 8abd
000001d0: ebfa b43c ec3e 16bd f2af d4bc cd24 08bd
000001e0: 65ca 913b 4b12 c63a 0014 b5bd c914 b83d
000001f0: 7fc0 5f3c 164f 563d 307a 223d e9d3 c73c
00000200: cfbe 5abb fb87 c03c 85ab 17be 9321 023e
00000210: b7c5 593d ba47 b538 1dc7 fe3d d82f 64bd
00000220: 7c92 0a3e 3d2a ebbc d9d9 f73c e420 e9bd
00000230: ab16 5e3d a696 d43b 3f0a 0bbe 316d 85bd
00000240: b283 47bd bc22 0d3e bf56 b3bd 2510 2c3c
00000250: 8bd1 a63d 3659 18be 88d8 abbd d3d6 77bd
00000260: 08cb ccbd ade3 a2bd efea 7bbd cf37 20bd
00000270: ae0c 00be 1aaf 50bd e823 b4bd 13da 01be
00000280: cc8b 99bd 5f45 4dbd 63e2 bd3c d074 b73d
00000290: a24a d53b d4c4 b13c 0d7a 01be 126e 253d
000002a0: f0dd 38bd b997 24bd 5a91 043e a18f aa3d
000002b0: 9534 0dbd ce1c 25bc aca1 e03c 1533 8ebd
000002c0: ced0 3a3e 01be 98bd ebd5 823d 2473 ba3d
000002d0: 537f a63d 5cdb 053e 2cdc 23bd 702d fc3b
000002e0: 3514 b73c fbcf 8cbd 140a 0ebe 7e81 1cbc
000002f0: 8d8f 983d ae18 c83d 4bb1 983d f394 6b3d
00000300: 2d62 d73d b1f0 e2bd fe77 02be 497e 1a3e
00000310: aba1 f0bc 541d 2039 42e6 6cbd 5313 333d
00000320: 37d0 513d 1597 c83d 26ba a0bc 8bb6 113d
00000330: cdf4 02be eb10 9c3d 0972 163c 4b52 d93d
00000340: 3c37 06be 5a41 acbd 1d1b e13d 461c bcbd
00000350: 61f7 67bd 539e 1c3d dddd e4bd 6d0a 15be
00000360: d990 6bbc c8bd a93d 2bf1 e13c 1e91 8cbd
00000370: 26a8 13be 09ab 9ebc a79e 9d3d 8247 ddbd
00000380: f9c9 033e a594 f83c 1b5a b33d a286 c93b
00000390: 4848 f2bd 3793 563d 0f73 87bd 4c54 67bd
000003a0: caa2 16bc 623d b1bd e79e db3d 5dc6 41bd
000003b0: ae5c 353d 0ced cabc 6a0e 63bd f97e d4bc
000003c0: fbe5 0f3d fecf a53d 13a7 043e ccd2 313d
000003d0: 6866 61bd 94cc 883d 9c63 8cbd 065b 863d
000003e0: 4173 fc3d 9d8f 8c3d 8ffd 3dbc d32d 80bc
000003f0: 2e35 88bd fb41 65bd f4d3 40bd fae6 113d

lstm.bias_ih_l1 f4 [256]
0.038532462 0.10237768 0.111107744 -0.08998237 0.02688142 0.082068525 0.08900949 -0.051922414
-0.058752593 -0.067229 0.047016308 -0.07415718 0.059230957 -0.07880955 0.018169034 0.012611527
-0.026969919 -0.08431442 0.068725556 0.11562545 -0.011958338 0.07636939 -0.07003634 -0.010348502
0.019600915 0.13314039 0.05588126 -0.11071739 0.042110868 0.047075216 0.044376668 0.09868162
0.06306628 -0.033209495 0.0632128 0.03827025 -0.03555694 0.12343312 0.023987848 0.10269111
-0.03872489 -0.021291403 -0.08903816 0.0069047534 0.09594717 0.015021806 0.04487066 0.092542864
-0.072787866 0.15647238 -0.066904396 0.10873108 0.015826596 -0.089467786 0.033602856 0.15228269
0.08284981 -0.010171302 0.028324446 0.07881092 -0.09530042 -0.09382615 -0.08997247 0.13142264
-0.092543766 -0.043689806 0.09844873 -0.043725602 0.003251804 0.12226801 0.038795903 0.04099661
-0.08516042 -0.08152712 0.006857664 0.12617874 0.03913328 0.07514884 0.0010058546 0.0015516685
0.08111407 0.027675474 0.05902589 0.04927976 0.015785653 0.109858796 0.0017417256 -0.03169981
0.055534374 0.075613685 0.1290032 -0.052495178 0.013076598 0.09542255 0.08052345 0.13196817
0.015956823 -0.093920045 0.025264291 -0.015482297 0.05906201 -0.10193018 -0.054923695 0.0051710303
0.017065369 -0.10216016 0.040750723 -0.05944101 0.07196344 -0.019977257 0.09319943 -0.033608027
0.08066462 0.007127153 0.11569121 -0.14723274 0.010265203 -0.094295375 -0.10072024 -0.048770748
0.13352865 -0.05058298 -0.036299493 0.016096704 0.06393708 0.0016588565 -0.06778425 0.064032756
0.098872624 0.13270105 0.028321518 0.100989975 0.042469695 0.106893726 0.15801863 -0.12520972
0.11648554 -0.06942036 -0.10076241 -0.038359847 0.08081413 -0.0971743 0.049408566 -0.06744936
-0.039007675 0.038101055 0.05322794 0.010803026 -0.065176174 0.06849607 -0.043612417 0.12346879
0.026256219 -0.05200735 0.026003234 -0.09057751 -0.006104197 -0.039632615 -0.028108923 -0.14870605
0.08026109 0.056418248 0.1095513 -0.066193156 -0.07658876 -0.055266567 -0.02961072 0.16114163
-0.037410684 -0.0829554 -0.01956321 0.10816499 0.122232884 -0.013691461 0.1268363 -0.0900376
-0.12126991 -0.0228222 -0.11296499 0.0718248 0.051462997 -0.009503712 -0.015724817 -0.017244712
0.08412192 -0.029771443 -0.030731846 -0.07636825 0.025617765 -0.00441719 -0.04084095 -0.00033486536
-0.114617564 -0.06583859 -0.0084584495 -0.028908715 -0.12871687 0.08769583 -0.092778996 -0.08508043
0.047163904 -0.07426239 0.119095854 0.029018048 -0.15807642 0.1448491 -0.12691227 -0.09661631
-0.13224885 0.054335587 -0.10896976 -0.028788203 0.07195278 -0.047657758 0.13638563 -0.10069626
0.0700346 -0.032316968 -0.10030982 0.03493572 -0.066906966 -0.07052729 0.0909435 -0.060767487
-0.06729468 -0.073579825 0.056373935 0.06833242 -0.07254337 -0.119023636 -0.15826283 0.063502625
-0.027879072 -0.024745755 0.09801856 -0.08604061 0.0041581606 -0.023019705 0.015462478 0.14342983
-0.060308486 0.13406037 0.1404995 0.10787359 0.051474124 0.12663932 0.123943776 -0.061635196
-0.02606732 -0.025381276 0.08147235 -0.023936216 0.04653817 0.14170134 0.124341376 0.04455383
00000000: 37d4 1d3d 64ab d13d 758c e33d ad48 b8bd
00000010: 6c36 dc3c 8b13 a83d 9c4a b63d 99ac 54bd
00000020: 8fa6 70bd 5caf 89bd 2c94 403d b8df 97bd
00000030: 299c 723d e766 a1bd 3ad7 943c 94a0 4e3c
00000040: 05f0 dcbc 0aad acbd fcbf 8c3d 09cd ec3d
00000050: e8ec 43bc 8e67 9c3d 366f 8fbd c38c 29bc
00000060: 1992 a03c f455 083e c0e3 643d cdbf e2bd
00000070: 727c 2c3d f1d1 403d 4fc4 353d 9719 ca3d
00000080: e528 813d ae06 08bd b675 813d 44c1 1c3d
00000090: 27a4 11bd 81ca fc3d 2a82 c43c b74f d23d
000000a0: fe9d 1ebd 4f6b aebc a459 b6bd 4541 e23b
000000b0: f37f c43d 051e 763c 4cca 373d 1d87 bd3d
000000c0: ce11 95bd 4c3a 203e 2c05 89bd 67ae de3d
000000d0: c7a6 813c e33a b7bd 26a3 093d feef 1b3e
000000e0: 29ad a93d 88a5 26bc ab08 e83c 9f67 a13d
000000f0: de2c c3bd ed27 c0bd 7d43 b8bd a893 063e
00000100: 9687 bdbd 15f4 32bd 7d9f c93d 9e19 33bd
00000110: 381c 553b a767 fa3d 74e8 1e3d 10ec 273d
00000120: 9668 aebd b1f7 a6bd 41b6 e03b 0035 013e
00000130: 384a 203d a3e7 993d e1d6 833a 5b61 cb3a
00000140: 221f a63d adb7 e23c 22c5 713d 93d9 493d
00000150: ea50 813c a6fd e03d 9d4a e43a a9d7 01bd
00000160: 0378 633d 59db 9a3d 6a19 043e 2f05 57bd
00000170: 3a3f 563c e66c c33d 7be9 a43d aa22 073e
00000180: e2b7 823c 2759 c0bd 0ff7 ce3c 76a9 7dbc
00000190: 02eb 713d c5c0 d0bd abf7 60bd bf71 a93b
000001a0: accc 8b3c 5939 d1bd 3bea 263d 6b78 73bd
000001b0: 9161 933d 58a7 a3bc 58df be3d 92a8 09bd
000001c0: 7e33 a53d e58a e93b 83ef ec3d 2ec4 16be
000001d0: 622f 283c ef1d c1bd 6a46 cebd d6c3 47bd
000001e0: bcbb 083e 1930 4fbd c7ae 14bd 3cdd 833c
000001f0: 72f1 823d fd6d d93a 78d2 8abd 9b23 833d
00000200: bb7d ca3d c9e2 073e 8702 e83c d5d3 ce3d
00000210: b4f4 2d3d 19eb da3d a3cf 213e fa36 00be
00000220: f98f ee3d 432c 8ebd 865c cebd 371f 1dbd
00000230: e181 a53d 5203 c7bd a360 4a3d e422 8abd
00000240: 83c6 1fbd da0f 1c3d 8a05 5a3d 2dff 303c
00000250: 167b 85bd ab47 8c3d efa2 32bd 34dd fc3d
00000260: 4817 d73c a905 55bd bc04 d53c b480 b9bd
00000270: b705 c8bb cf55 22bd af44 e6bc 6646 18be
00000280: ed5f a43d d216 673d 6f5c e03d 4790 87bd
00000290: 91da 9cbd 325f 62bd 2e92 f2bc 5002 253e
000002a0: f23b 19bd 85e4 a9bd 0643 a0bc 9b85 dd3d
000002b0: 3c55 fa3d 2652 60bc 60e1 013e a265 b8bd
000002c0: 5c5c f8bd 9ff5 babc 305a e7bd e118 933d
000002d0: ddca 523d 75b5 1bbc 55d1 80bc c844 8dbc
000002e0: 1d48 ac3d 3ee3 f3bc 5ac1 fbbc f566 9cbd
000002f0: 59dc d13c 13be 90bb d748 27bd de90 afb9
00000300: 9dbc eabd 62d6 86bd 4f95 0abc f8d1 ecbc
00000310: 5bce 03be df99 b33d ea02 bebd a63e aebd
00000320: f02e 413d e116 98bd 87e8 f33d 42b7 ed3c
00000330: c9de 21be 5353 143e 4af5 01be c6de c5bd
00000340: 3e6c 07be fe8e 5e3d 8a2b dfbd 3dd5 ebbc
00000350: fb5b 933d c834 43bd ada8 0b3e d739 cebd
00000360: 4d6e 8f3d cc5e 04bd 3c6f cdbd c218 0f3d
00000370: 8506 89bd 9d70 90bd 9640 ba3d 54e7 78bd
00000380: cbd1 89bd 05b1 96bd 5be8 663d def1 8b3d
00000390: 9e91 94bd aac2 f3bd a70f 22be aa0d 823d
000003a0: a762 e4bc 9cb7 cabc f4bd c83d 0f36 b0bd
000003b0: 2e41 883b d293 bcbc 5556 7d3c 45df 123e
000003c0: 0806 77bd 1f47 093e 1adf 0f3e d4ec dc3d
000003d0: 88d6 523d bdad 013e 3cd6 fd3d 3075 7cbd
000003e0: 228b d5bc 65ec cfbc fada a63d e215 c4bc
000003f0: cf9e 3e3d 281a 113e b1a6 fe3d 147e 363d

lstm.bias_hh_l1 f4 [256]
0.03834751 -0.011777914 0.08795706 -0.043699387 0.071331784 0.045560658 -0.09193489 0.12953383
-0.06261345 0.10027991 0.015276707 0.14204903 0.084538534 0.10928913 -0.016419327 -0.004963708
-0.07610271 0.004044452 0.12955762 0.03517029 0.07693512 -0.11197317 0.103080645 -0.10524597
0.08246885 -0.09573454 0.00238866 -0.097490646 -0.047439907 0.1567223 -0.00014079273 0.09761385
-0.040412083 -0.059495304 -0.1052118 0.035821036 0.1684865 -0.024074607 -0.05034884 -0.093089126
-0.07431626 0.096982144 0.060194656 -0.05165567 0.08836802 0.0026053279 0.04076858 0.033408105
0.03597533 -0.04822929 -0.012279565 -0.09233797 0.16356005 0.074984245 0.07489899 0.101343736
-0.04150187 0.120623656 0.07758449 0.08459716 0.13644549 0.03996189 -0.03515769 0.099572614
-0.021183617 -0.07399806 0.030925466 -7.257685e-05 -0.11869051 -0.041795768 0.08761639 0.03014067
0.037004888 -0.09548644 0.010486489 0.038788572 0.12787597 0.029642824 0.0068315635 -0.12331753
-0.10045071 -0.09830412 0.10699969 0.080758646 0.04977862 -0.030056767 0.14425051 0.019903194
0.0245114 0.077265345 0.06782109 0.09923173 0.029273745 -0.02532488 0.07196757 0.025045918
0.035590515 0.09793166 0.09616693 -0.0040676836 0.15799452 0.07033632 -0.074654065 0.042147722
-0.03847332 -0.048379716 -0.09107203 0.14603196 -0.12277467 0.013305762 -0.083677575 0.03131372
-0.12839197 -0.16605256 0.14083324 -0.0300143 0.1530327 -0.08061146 -0.031062115 0.16878779
-0.016994955 -0.06263434 0.1271997 -0.0650569 0.07246621 -0.109305166 0.051801674 0.0067502866
-0.0846132 0.15419124 -0.1052054 -0.03584357 0.10056669 -0.07331879 0.030958964 0.0772702
-0.06448556 -0.03209714 -0.03568469 -0.14316408 0.10384182 -0.035975426 -0.14081876 -0.0064250324
-0.052210834 0.07941974 0.12584285 0.07837592 0.03117512 0.10695425 0.13986467 0.08612227
-0.1451229 -0.069669254 -0.06325368 0.0685156 0.04435619 0.03939895 0.004466126 -0.07896697
0.10279589 0.0854912 0.16306153 -0.11059615 0.15848844 -0.034659095 0.042190704 -0.025474157
-0.16456683 0.064313345 -0.031167932 0.07479407 0.00054615695 0.029051166 -0.009496845 -0.101256765
0.058707293 -0.02325605 -0.051335774 -0.0014362489 -0.16682751 0.02836194 0.15501328 -0.082192935
-0.14395888 0.0533321 -0.108606204 -0.06339217 -0.11188963 0.026252657 -0.035589032 -0.07451227
-0.10252194 -0.019024802 0.117743604 -0.005938498 -0.048652124 0.006689269 -0.08708215 -0.044084277
-0.12169617 -0.11494885 0.1445913 -0.064549014 -0.07822287 0.062029283 -0.049654134 0.077534735
0.08532677 -0.0010414579 0.12054789 -0.049765594 -0.031172141 -0.045597367 0.06839424 -0.07453679
0.12607448 0.03728468 -0.10693242 0.087880775 -0.06866785 0.0884688 0.012836628 0.0033387013
-0.03774324 -0.10552155 0.026153486 0.056227572 0.15127067 0.04344206 -0.13062929 0.054847453
0.1334784 0.058493488 0.12047072 -0.036088023 0.10546565 0.07754697 0.025543198 -0.05954096
-0.030940708 0.058390208 -0.0743965 0.063462034 -0.039642334 0.009155715 -0.05422613 0.1352299
-0.0028327608 0.07159601 0.045737933 0.037101135 -0.002759688 0.14517839 -0.043473907 0.093585715
00000000: 4712 1d3d 27f8 40bc d522 b43d 21fe 32bd
00000010: 6616 923d d09d 3a3d 5c48 bcbd 84a4 043e
00000020: 7b3b 80bd 8e5f cd3d 274b 7a3c 4d75 113e
00000030: 8a22 ad3d fbd2 df3d d381 86bc 9aa6 a2bb
00000040: bddb 9bbd 5387 843b c1aa 043e b90e 103d
00000050: 2990 9d3d 3052 e5bd f21b d33d 338b d7bd
00000060: 6ee5 a83d 7810 c4bd 118b 1c3b 2da9 c7bd
00000070: 5950 42bd d07b 203e c3a1 13b9 c5e9 c73d
00000080: 2487 25bd 59b1 73bd 4979 d7bd 14b9 123d
00000090: ba87 2c3e 1c38 c5bc 963a 4ebd 83a5 bebd
000000a0: 2033 98bd 939e c63d ac8e 763d e594 53bd
000000b0: 4bfa b43d 26be 2a3b f4fc 263d f0d6 083d
000000c0: de5a 133d 138c 45bd 3b30 49bc b11b bdbd
000000d0: 497c 273e 5791 993d a464 993d 4e8d cf3d
000000e0: ddfd 29bd 8909 f73d 9ee4 9e3d 4741 ad3d
000000f0: 5eb8 0b3e 14af 233d 8301 10bd baec cb3d
00000100: 4489 adbc 4b8c 97bd 6757 fd3c 6634 98b8
00000110: 0314 f3bd 0a32 2bbd 3970 b33d 91e9 f63c
00000120: 7092 173d 658e c3bd 86cf 2b3c c4e0 1e3d
00000130: ebf1 023e 82d5 f23c 4fdb df3b e78d fcbd
00000140: 1ab9 cdbd ac53 c9bd a722 db3d ca64 a53d
00000150: abe4 4b3d 9c39 f6bc 68b6 133e 060c a33c
00000160: 22cc c83c 4b3d 9e3d c9e5 8a3d 013a cb3d
00000170: 7ecf ef3c 1f76 cfbc bc63 933d 192d cd3c
00000180: 5cc7 113d 6590 c83d 2bf3 c43d 344a 85bb
00000190: 51c9 213e 7d0c 903d 3be4 98bd 17a3 2c3d
000001a0: 3396 1dbd cf29 46bd f983 babd 6789 153e
000001b0: 4971 fbbd 6900 5a3c 265f abbd d142 003d
000001c0: 2f79 03be af09 2abe 9736 103e 8de0 f5bc
000001d0: 9bb4 1c3e 9f17 a5bd fa75 febc b5d6 2c3e
000001e0: 0139 8bbc 6f46 80bd a340 023e 8d3c 85bd
000001f0: 2a69 943d 63db dfbd fe2d 543d 8231 dd3b
00000200: af49 adbd 4fe4 1d3e ee75 d7bd b5d0 12bd
00000210: e9f5 cd3d 2928 96bd a79d fd3c d73f 9e3d
00000220: 0111 84bd 4a78 03bd 1c2a 12bd 9b99 12be
00000230: 05ab d43d f85a 13bd cb32 10be 1489 d2bb
00000240: 07db 55bd d1a6 a23d f3dc 003e 8e83 a03d
00000250: f762 ff3c d40a db3d af38 0f3e df60 b03d
00000260: 199b 14be c1ae 8ebd 258b 81bd e851 8c3d
00000270: d6ae 353d cb60 213d 9558 923b 6fb9 a1bd
00000280: a786 d23d 0316 af3d 9af9 263e 3c80 e2bd
00000290: cb4a 223e b2f6 0dbd 29d0 2c3d 2eaf d0bc
000002a0: 3584 28be b7b6 833d e453 ffbc a22d 993d
000002b0: f92b 0f3a b6fc ed3c a898 1bbc b55f cfbd
000002c0: 0f77 703d 7983 bebc 7645 52bd 8440 bcba
000002d0: d5d4 2abe 4d57 e83c cdbb 1e3e c554 a8bd
000002e0: f569 13be c372 5a3d ee6c debd c1d3 81bd
000002f0: 6426 e5bd d00f d73c cec5 11bd e499 98bd
00000300: 06f7 d1bd e7d9 9bbc 8f23 f13d bb97 c2bb
00000310: 7347 47bd a831 db3b 2058 b2bd b791 34bd
00000320: d73b f9bd 4d6a ebbd be0f 143e 4632 84bd
00000330: 5033 a0bd 6b12 7e3d 2262 4bbd 88ca 9e3d
00000340: cdbf ae3d 8781 88ba d0e1 f63d 02d7 4bbd
00000350: b85c ffbc 4ec4 3abd 4812 8c3d bfa6 98bd
00000360: ab19 013e d2b7 183d 62ff dabd d6fa b33d
00000370: bba1 8cbd 212f b53d b850 523c 1dce 5a3b
00000380: a898 1abd af1b d8bd d63f d63c e24e 663d
00000390: b3e6 1a3e 4df0 313d afc3 05be b9a7 603d
000003a0: 90ae 083e de96 6f3d 5ab9 f63d 09d1 13bd
000003b0: 60fe d73d f2d0 9e3d f83f d13c 39e1 73bd
000003c0: 5e77 fdbc 922a 6f3d 315d 98bd 62f8 813d
000003d0: 0060 22bd da01 163c 381c 5ebd b579 0a3e
000003e0: d7a5 39bb eea0 923d b357 3b3d 5cf7 173d
000003f0: e2db 34bb a5a9 143e b211 32bd dea9 bf3d
