models/lstm_def_model.pt (torch, 245045 bytes, 9 tensors)

lstm.weight_ih_l0 f4 [256, 38]
000000 71 d7 15 3e 79 f4 55 3d 94 fb 11 bd d9 b8 00 3e
       0.14632966 0.0522351 -0.035640314 0.12570514
000010 fc 3a 4e 3d 53 5d 27 3d 33 c1 0e 3c fd ab 11 3e
       0.05034922 0.040860485 0.0087130545 0.14225765
000020 1c 9d 4e 3e b1 17 eb bd f7 41 e3 3d 26 e8 33 3e
       0.2017712 -0.11479128 0.11096566 0.17569026
000030 f1 77 2d 3e 36 cc 6d 3d b3 04 01 3e 57 0c 04 3d
       0.16940285 0.05805608 0.12599449 0.03223833
000040 70 38 e6 3d 70 7e e2 3b 11 98 c3 bd b5 fa b8 3d
       0.11241233 0.006912045 -0.09550489 0.090321936
000050 f2 69 a0 bc f7 7c 4c 3d 02 27 27 bd f8 ba fa 3d
       -0.019581769 0.049923863 -0.040808685 0.12242693
000060 9a fe 87 bd 8c 09 6c bd c3 ab 7c be 4b de 0e be
       -0.06640358 -0.057626292 -0.24674897 -0.13951986
000070 45 60 02 3b a6 35 0a be 33 8d ca 3d 64 25 c1 bd
       0.0019893807 -0.13497028 0.09890213 -0.0943096
000080 10 ad b3 3d 51 ed 12 3d 8f 30 be bc 48 48 cf 3d
       0.087732434 0.035870854 -0.023216514 0.101212084
000090 41 a7 9e 3c 01 bb e6 3d 27 12 60 ba 1c 42 ea bd
       0.019366862 0.11266137 -0.0008547627 -0.114383906
0000a0 62 b6 0a 3e ed 3a 92 bc c6 03 02 3e 64 1f dc 3d
       0.13546136 -0.017850364 0.12696752 0.10748175
0000b0 ad ee c9 3d 04 2c 22 bd 24 7b c9 3d 51 24 bb bc
       0.09859977 -0.039592758 0.0983794 -0.022844465
0000c0 2a d2 74 3e 4b 47 09 be 05 bf c4 bd 3c 3b a2 3c
       0.23908296 -0.13406102 -0.096067466 0.019803636
0000d0 f3 63 dd b9 31 77 39 3e c9 27 b5 3d a5 80 a1 3d
       -0.00042226873 0.18111874 0.08845479 0.07885865
0000e0 2a 7f b7 3c a2 46 86 3c b5 8b 38 3d ea 36 e7 bd
       0.022399504 0.016391102 0.04505511 -0.11289771
0000f0 34 d6 dc 3c 11 d8 b2 bd c2 50 99 3c e0 52 30 bd
       0.026957609 -0.08732618 0.018715266 -0.043047786
000100 0d 2d 57 bd f6 3a 9b 3b 1f 95 a7 3b ef 43 e5 bd
       -0.0525332 0.0047372533 0.005114212 -0.11194598
000110 bd a3 8d bd f3 85 87 bc 69 dd 13 3e d7 b0 50 3d
       -0.06915996 -0.016543364 0.1443993 0.050949898
000120 81 53 06 3e 69 31 0c be 3d 38 38 be 32 1d 13 be
       0.13117792 -0.13690723 -0.17990203 -0.14366606
000130 33 73 96 bc e2 40 80 3d 51 fd b3 3c 05 40 a5 3c
       -0.018365478 0.062623754 0.021971377 0.020172128
000140 68 06 78 bd d0 c8 e4 bd 81 19 03 3e 31 52 0a bd
       -0.060552984 -0.111711144 0.12802698 -0.03376979
000150 bb 19 cc 3d fb 68 b0 bc e5 16 e1 3d 69 39 04 be
       0.09965845 -0.021534434 0.10990695 -0.12912525
000160 dd 04 6d bd 81 20 01 3e 8d e0 e0 3d 8b ec 1a bd
       -0.057865966 0.12610056 0.1098033 -0.03782324
000170 1b 4f 24 bb 2f a7 62 3d 66 e4 f4 bd 47 d3 02 be
       -0.0025071565 0.05533522 -0.11957626 -0.12775908
000180 1b 0d 2c 3e 2a 57 f7 bc 09 05 ae bc cd fd 09 be
       0.16801874 -0.03019293 -0.021242635 -0.13475724
000190 7f 66 04 be 88 cc ff 3c a3 ba 22 3d df 53 02 be
       -0.12929724 0.031225458 0.039728772 -0.12727307
0001a0 24 7a 91 3c 31 3d 3f bd f1 7c 4d be 88 4e 7e bd
       0.017758437 -0.046689216 -0.20067193 -0.062086612
0001b0 b0 c3 14 be 93 45 15 be e3 9d 01 3e 05 2a 3b 3d
       -0.14527774 -0.14577322 0.12657885 0.04569437
0001c0 53 52 e6 3d 56 a4 89 bd 91 b0 2d be 9f 49 36 be
       0.11246171 -0.06720798 -0.16961886 -0.17801522
0001d0 fb ef 3d 3d 07 ce 40 bc 32 c9 43 bd 01 0f 1d be
       0.04637144 -0.011767871 -0.047799297 -0.15337755
0001e0 66 83 17 be ac 25 61 be 14 fa c8 bd 92 d1 80 be
       -0.14796218 -0.21987027 -0.098133236 -0.2515989
0001f0 fd 20 5c bd 40 d3 d8 bd 82 7e 25 be 08 f8 11 be
       -0.053742398 -0.10587168 -0.1616154 -0.14254773
000200 e1 96 4e bc 0a f7 10 3c 16 40 07 3e 8b 14 e1 3d
       -0.0126092145 0.008847961 0.1320804 0.109902464
000210 f6 52 a1 bd 00 e3 6e ba 19 af 5f be 9b aa 5f be
       -0.07877152 -0.0009112805 -0.21844138 -0.21842425
000220 dd 44 2f be 6c b2 fb bd da 06 11 bc c0 af df bc
       -0.17116113 -0.12289891 -0.008851731 -0.027305484
000230 07 3d 68 3e 14 b6 60 bd 3f ba 24 3e 5c 5e 8a 3c
       0.2267953 -0.054861143 0.16086672 0.016890697
000240 bb dd 5a 3e 1e f2 ca 3d 9f 32 89 3e 4b 10 2d 3e
       0.21373646 0.099094614 0.26796433 0.16900747
000250 8b 4d 2d 3e a0 e7 a7 bd 70 a6 c9 3c c4 5f 48 bd
       0.16924112 -0.08198476 0.024615496 -0.048919454
000260 12 3c 97 bd 32 ce d0 bd dc 01 0d 3d 71 3a 03 be
       -0.073845044 -0.10195579 0.0344256 -0.12815262
000270 28 8a 92 3c e9 0c e9 bd 6d df 97 3d b9 20 e2 bd
       0.017888144 -0.113794155 0.07415662 -0.110413976
000280 7b 63 ab 3d 40 47 06 bd d8 44 d1 3b 14 14 6f be
       0.08368584 -0.032782793 0.0063863806 -0.23347503
000290 bb 36 87 3c 05 93 0d 3d f3 87 92 bc 4a 46 98 3d
       0.01650559 0.034564037 -0.017887091 0.074352816
0002a0 8f a2 43 bc 0e 77 cb bd 7c 9e c3 bd ed 26 50 be
       -0.011940612 -0.09934817 -0.09551713 -0.20327349
0002b0 1f cd 7e 3b 85 97 27 be e7 70 48 bd 39 a5 68 bd
       0.0038879586 -0.16366394 -0.048935797 -0.056798194
0002c0 6c ac eb bd 88 98 36 3d 76 3d 1a 3e 42 d0 a7 bd
       -0.11507496 0.04457906 0.15062508 -0.08194019
0002d0 83 77 73 3d c0 93 14 3e c4 dd 25 3d 9c 7f b0 3b
       0.059440147 0.14509487 0.040494695 0.005386306
0002e0 f8 a8 df 3d 6a 5f 1b 3e 50 b4 12 3d da 12 9b bb
       0.109209 0.15173116 0.03581649 -0.004732472
0002f0 ac 60 c4 3b 9e 37 2d 3d fe 53 9e bc f0 16 47 bd
       0.0059929695 0.04228937 -0.01932716 -0.04860586
000300 2c a6 ee 3d 86 51 10 3e 46 1c 2e 3d 2a 75 4e bc
       0.116527885 0.14093599 0.042507432 -0.012601176
000310 83 93 4d bd 1e af b8 bc fd 1a d8 3c 78 37 b6 3c
       -0.050189506 -0.02254444 0.026380057 0.022243246
000320 1f 1e 1c be d4 85 25 ba d7 79 f2 3d c6 70 6d 3b
       -0.15245865 -0.00063141924 0.11839645 0.0036230548
000330 19 37 70 bd 0f 17 ec bd b0 59 ae bd 4a ca d8 bd
       -0.058646295 -0.115278356 -0.085132 -0.105854586
000340 95 21 c0 bc 48 20 8d 3d cb a9 73 3d 10 cc 3a 3d
       -0.023453513 0.06890923 0.0594881 0.045604765
000350 cf 41 18 be 4f f5 a5 bd 17 a9 0b 3b 38 a4 f7 3d
       -0.14868854 -0.081034295 0.0021310502 0.12091869
000360 74 3c 5e bd 8e 93 3a 3c b7 29 51 3d 6a 60 6a bc
       -0.05425687 0.011387719 0.051065173 -0.0143052135
000370 48 f8 76 bd 9d 8b 60 3d 6a 98 94 bd 8f e1 d7 bc
       -0.060295373 0.054820646 -0.07255633 -0.026352672
000380 03 5e ec bc e1 aa 11 3e 76 30 15 3e 91 9d cd 3d
       -0.028853422 0.14225341 0.14569268 0.10039819
000390 bc bd 2d bd 69 d9 02 be d4 48 de bd 66 ba 34 3d
       -0.042417273 -0.12778248 -0.108537346 0.044123076
0003a0 91 28 25 3e b2 71 b9 3d 73 31 d4 3c 59 71 85 bc
       0.16128756 0.09054889 0.025902485 -0.0162894
0003b0 d1 cd 0d bd fa ae f6 bd 7e 5a f1 bd 49 d1 21 be
       -0.03462011 -0.12045093 -0.11784838 -0.15802492
0003c0 2a 81 1a 3d b9 48 ad bd 66 a9 f3 bc 50 e1 58 bd
       0.037720837 -0.08461136 -0.029743861 -0.05294925
0003d0 1d f4 b0 3b c7 c5 02 be 75 ac 07 bd e6 19 50 3d
       0.0054001943 -0.12770759 -0.033123452 0.05080595
0003e0 88 f1 86 3b 6d 20 dc 3d 39 35 bc 3c dd 07 76 bd
       0.0041181482 0.10748372 0.022974597 -0.060066093
0003f0 c6 77 45 3b d0 30 78 bd 1e 06 5a bd 45 cf 1d be
       0.0030131205 -0.060593426 -0.05322849 -0.15411098

lstm.weight_hh_l0 f4 [256, 64]
000000 04 8a 5c bc 12 d4 95 3d e1 67 a0 3d 95 88 cb bd
       -0.01346064 0.0731584 0.07832313 -0.0993816
000010 db e9 e1 bd a5 05 a2 bb e4 e8 10 be 50 f9 8d bc
       -0.110309325 -0.0049445205 -0.1415134 -0.017330796
000020 67 27 88 3d fd a4 c3 3d d4 0a c9 bc 57 1e 83 3c
       0.066481404 0.095529534 -0.024541296 0.016005678
000030 17 6a 82 3d f3 d8 86 3d 5a 55 ac 3d 88 35 cb bd
       0.06367891 0.065843485 0.08414717 -0.0992232
000040 11 76 de bd 0d f3 c3 3d be d2 09 3e 11 e5 81 bd
       -0.10862363 0.09567843 0.13459298 -0.06342519
000050 e4 7c bc 3d 70 ce 52 3c 0e 2c 42 bd e8 63 2f 3e
       0.092035085 0.012866601 -0.047405295 0.17127955
000060 18 0b ed 3d bb 2b d5 bd 52 1a a7 bd 51 01 07 3d
       0.115743816 -0.104087315 -0.08159317 0.03296024
000070 ce 6c 1a 3d e6 3f 8a bd 2d 95 39 3e 83 8a a2 3c
       0.03770142 -0.06750469 0.18123312 0.019841438
000080 1e 72 f1 bc f9 cc a1 3c ae 26 6d be 88 61 7a bd
       -0.02947336 0.019751059 -0.23159286 -0.06112817
000090 7f 60 84 bd 44 d7 1d 3e c1 6b 07 be 01 47 a9 3d
       -0.06463718 0.15414149 -0.13224699 0.08265496
0000a0 66 de cc bd 87 42 83 ba db 14 1f be 82 41 1c bc
       -0.10003357 -0.0010014334 -0.155353 -0.009537103
0000b0 f0 8f 79 3d 34 6e 1f be 8c 24 30 be 48 5b 47 bd
       0.060928285 -0.15569383 -0.17201442 -0.048671037
0000c0 be e1 d2 3a 41 50 00 3d 03 7b f6 bb 4f ee b3 3c
       0.0016089005 0.031326536 -0.0075219884 0.02196422
0000d0 1f a6 8e bc ba a2 d8 3d 87 d5 f8 bd e2 71 5c 3d
       -0.017413197 0.10577913 -0.12150102 0.053819545
0000e0 3e 9d 0b be 6d 49 10 bd cf 9c cc 3d 4d 4f d8 bc
       -0.13634202 -0.035226274 0.09990846 -0.026405001
0000f0 88 29 03 be 5e 8a 85 3c 72 d6 60 3d 94 76 b3 3d
       -0.12808812 0.01630133 0.05489201 0.08762851
000100 d8 e1 9a 3c e1 a0 48 be 67 93 9d bb 26 9c ca 3d
       0.018906519 -0.1959262 -0.0048088315 0.09893064
000110 0e ad 40 3e fa fb c1 bd 64 ad a7 bc bb aa 03 be
       0.18816015 -0.09471889 -0.020468421 -0.12858097
000120 47 7c 80 3c 52 42 85 bd 94 3a 17 3e cf 25 c1 3d
       0.01568426 -0.0650679 0.1476844 0.094310395
000130 54 f0 ba bc 9e fe 55 3d 8e 6d 1d 3d 6f 1f 9c 3d
       -0.022819676 0.052244775 0.038434558 0.07623183
000140 80 c2 35 be fc b8 fa bc 5d 23 09 bd cb 10 86 bd
       -0.17749977 -0.030605786 -0.03348099 -0.06546172
000150 de 8e 90 bc 3c 9f a4 3d 92 98 3a ba 93 32 e1 3d
       -0.01764625 0.08038184 -0.00071180717 0.109959744
000160 7f fc 63 3d 72 f6 13 bd 57 54 aa 3d 44 c0 0c bd
       0.05566072 -0.0361237 0.08316868 -0.034363046
000170 3b 21 e1 bc f4 1c 03 bd 44 9e 0d 3c ee 92 1e 3d
       -0.027481666 -0.032010034 0.0086436905 0.03871434
000180 36 a0 6c 3e 3b 1d 9b bd 27 15 1e be b8 94 69 bd
       0.2310799 -0.07573935 -0.15437756 -0.057026595
000190 d5 bf ce 3c 34 0f c3 bb 8f 9b 59 3d eb 7b 0b bd
       0.025237957 -0.00595274 0.053126868 -0.034053724
0001a0 9f ae 49 3d fb 23 4a bc b6 2d ce bd 4b cc ee 3d
       0.049238797 -0.01233768 -0.100673124 0.116600595
0001b0 b0 0a 04 bd 75 34 81 bd ee 5b f0 3c 75 10 2f 3e
       -0.032236755 -0.063088335 0.02934071 0.17096122
0001c0 2e f4 37 3e f9 5e d3 3d 19 8a 66 3e 48 74 f5 bd
       0.17964241 0.10320849 0.22513618 -0.119850695
0001d0 82 83 1a 3e 3c 60 b8 3c e3 99 80 3d ad 5a 57 3d
       0.15089229 0.022506826 0.062793516 0.05257671
0001e0 4b 41 e0 3c fb 04 40 bd 31 97 87 3d 52 88 31 bd
       0.027374884 -0.04687975 0.06620634 -0.043342896
0001f0 d5 1b ff bd c8 17 9a 3c 8c 94 e2 bd 47 ce 86 3d
       -0.124564804 0.018810168 -0.11063489 0.06582313
000200 00 cd c5 bb b2 6f d9 3d 21 ad 90 3d c6 87 d4 3d
       -0.006036401 0.10617007 0.07064272 0.10377459
000210 af 5a ce bd e1 ed 4f be d8 31 b7 3d ff 94 f9 ba
       -0.1007589 -0.20305587 0.08945054 -0.0019041597
000220 22 f7 6c 3d 03 cd 33 3d 07 59 06 3e 7e 95 18 3d
       0.05785287 0.043896686 0.13119899 0.03725194
000230 e9 dc 11 be f4 f7 94 bc 7c 98 b8 bd 58 21 1b be
       -0.14244427 -0.01818464 -0.09013459 -0.15149438
000240 e8 d4 5a 3d ad 1d 06 bd 7a 72 6e bd d7 df a3 3d
       0.0534257 -0.032743145 -0.058214642 0.080016784
000250 79 fe 09 be 74 d4 34 bd 6e ee 9c 3d 3b 2c f9 3d
       -0.1347598 -0.044147924 0.07662664 0.121666394
000260 0f f0 0e bd b3 e1 23 3e 1e d7 1c be 96 c2 b4 3d
       -0.034896906 0.16004066 -0.15316436 0.08826177
000270 29 da d5 bb 59 92 20 bc 27 7d fb 3d 8d 7c 50 bd
       -0.006526251 -0.009800517 0.1227973 -0.05090003
000280 d5 31 af be 44 6d 23 bd 74 04 47 3d 17 39 de 3d
       -0.34217706 -0.039899126 0.04858823 0.10850733
000290 6e dd 9d bc 54 dc 76 3e 85 9f b4 bd ab 33 1c be
       -0.019270625 0.24107486 -0.088194884 -0.15254085
0002a0 15 57 bb bd be af 86 3b b9 58 ce bd 0c 89 2b 3c
       -0.09147469 0.0041103056 -0.10075516 0.010469686
0002b0 c0 54 36 bd df db 90 3b 27 39 1d 3e d2 a0 83 b9
       -0.044514418 0.004420742 0.15353833 -0.00025106088
0002c0 9b 49 0e 3c 73 19 60 be a0 cf 16 3d 0b 8a 72 bd
       0.008684541 -0.21884708 0.0368191 -0.05921368
0002d0 55 79 39 3c 3d 39 08 be fc 2a ce 3d fb 10 02 3e
       0.011320432 -0.13303085 0.10066792 0.1270179
0002e0 85 11 d3 3d 75 9c 3b bd 06 bb 61 3e 2c b5 7c 3d
       0.10306076 -0.045803506 0.22044 0.061696216
0002f0 e9 7e c0 3d 25 d5 fc bc 20 be 14 3e b0 6c ef bd
       0.09399206 -0.030863354 0.14525652 -0.11690652
000300 7d 69 90 3d bd 94 20 bd de eb 92 bd fb cc 00 3e
       0.0705137 -0.039204348 -0.07173894 0.12578194
000310 68 94 91 3d 0d 58 0e be 4c 3b 1c 3e ce 79 61 3d
       0.07108384 -0.13900776 0.15256995 0.055047803
000320 dc c9 dd 3d c0 22 ad bd b5 32 82 bd 12 88 3c bc
       0.10829517 -0.08453894 -0.06357328 -0.011507051
000330 51 e5 65 3d c0 65 4e be 0f 97 1a be 45 d8 48 bd
       0.056126896 -0.20156002 -0.15096687 -0.049034376
000340 e0 30 46 bc 60 b7 ac 3c d3 8a e3 bd ac 13 ca 3b
       -0.012096614 0.021083534 -0.11110463 0.006166896
000350 45 5a 0f 3e c0 10 ee 3c e4 8c 4c 3d 79 42 6d 3b
       0.13999279 0.029060721 0.04993905 0.003620295
000360 56 0c 1a bc 61 2a 1e be fe f3 a7 bd 24 4d 0a bd
       -0.009402355 -0.15445854 -0.08200835 -0.033764973
000370 55 a6 af 3d 10 33 1a be cc de 25 bd 16 02 13 3d
       0.08576647 -0.15058541 -0.04049568 0.03589066
000380 8a ba 88 3d 54 3b 53 3d c3 ca 09 3e c4 eb 9c 3d
       0.066762045 0.05157025 0.13456254 0.07662156
000390 eb 69 46 bd 64 cc 6b 3d 26 7d 22 be 73 a7 d4 3c
       -0.048440855 0.05756797 -0.15868053 0.025958752
0003a0 40 cd f2 bd 4d f8 8d 3d 2b ab 23 be 54 77 6b 3d
       -0.118555546 0.06932125 -0.15983264 0.057486847
0003b0 5f b1 ae 3d df 8e b3 bd 9d be 3f 3e fe 78 0e be
       0.085299246 -0.08767485 0.18725057 -0.13913342
0003c0 8a cc 3e 3e 8d 3a 99 3d 40 c1 f4 bc 55 aa 39 be
       0.18632713 0.07481871 -0.029877305 -0.18131383
0003d0 98 e1 ca bc 86 ce 58 bc 74 24 b8 3d 27 46 55 be
       -0.024765775 -0.013232833 0.08991328 -0.20827542
0003e0 4f 48 ff bd 3a 9a 4d be 03 85 25 be 22 a6 56 be
       -0.12464964 -0.20078364 -0.16164021 -0.20961812
0003f0 fc cc 63 3c 50 67 24 be b6 28 96 bd 5f 86 8b 3d
       0.013903853 -0.16055036 -0.07331984 0.068127386

lstm.bias_ih_l0 f4 [256]
000000 ec 48 14 bd 8f 3e 02 bd 02 5f 9f 3c 72 d7 3f bd
       -0.036202356 -0.03179794 0.019454483 -0.046836324
000010 54 75 f5 3b 96 19 95 3d d2 72 82 3d c6 0b 35 3e
       0.0074907932 0.07280271 0.063695565 0.17680272
000020 ab bf 1e 3e cb 86 c4 3b 32 d6 fe 3d 3f c0 4c 3d
       0.15502803 0.005997514 0.12443198 0.049988028
000030 25 4b c9 3d e3 77 91 bd 46 cc 5a 3c 79 c6 c8 3d
       0.09828786 -0.07102945 0.013354367 0.09803481
000040 5c 37 7a 3d a5 90 3c 3d 92 6f 18 3e 1f 91 29 3e
       0.06108795 0.04603638 0.1488631 0.16559266
000050 c2 4e 05 be 31 ab 2a 3d 97 28 b8 3c aa 7e fc 3d
       -0.13018325 0.041667167 0.022480292 0.12328847
000060 e9 a6 b5 bd 26 6f d4 3d c1 f8 09 3d 3a c2 94 3d
       -0.08869726 0.103727624 0.033684496 0.07263608
000070 8d af a2 bc 8b 5a 12 3d 53 6a f1 3d 9a f2 e6 3d
       -0.0198591 0.03573088 0.11787858 0.11276741
000080 59 b8 db bc 87 ef ab 3d fc b6 55 3c 6e 02 21 3e
       -0.026821302 0.083952956 0.013044115 0.15723583
000090 f6 26 36 3b 52 16 e1 3d 5a ed c9 bd 74 e6 a6 3d
       0.0027794219 0.109905854 -0.09859724 0.08149424
0000a0 0d 07 ac bb 46 82 a6 bd d6 77 f4 3c a3 33 af bc
       -0.005249864 -0.081303164 0.029842298 -0.021386927
0000b0 a9 03 01 3e 07 c7 cf 3d 94 a2 1c 3e b0 7b 03 bd
       0.12599052 0.10145383 0.15296394 -0.03210038
0000c0 c0 a7 53 3e d3 d3 33 3e 5b 8f e4 bc 8d d3 91 bd
       0.2066946 0.17561273 -0.027900388 -0.07120428
0000d0 d1 d3 31 3e 39 f5 03 3e e4 19 c4 3d 43 71 b2 bd
       0.17365958 0.12886514 0.09575251 -0.08713009
0000e0 13 30 05 3c 44 c5 15 3e df 5d 2b bd 4e 5b 9e 3d
       0.008129138 0.14626032 -0.04183757 0.07732259
0000f0 44 7f 77 3d 93 5d 81 bb 88 82 0b be c7 88 b8 bd
       0.060424104 -0.0039479225 -0.13624012 -0.09010463
000100 0e 68 de 3d f0 1f 76 3d 8f d7 c7 3d 66 d3 a1 3c
       0.108596906 0.06008905 0.097579114 0.019754123
000110 53 de 9c bd 45 1b 1f 3d b2 10 cb bd d8 b4 b2 3d
       -0.076595925 0.038844366 -0.09915294 0.087258995
000120 71 5d be 3c 2b f0 20 3e 77 ed 33 bc a5 33 0a 3c
       0.023237916 0.15716617 -0.010981909 0.008435165
000130 e8 bc a6 bd 07 e5 00 3e 17 1c bc bc 7c 4f 94 3c
       -0.081415 0.12587367 -0.022962613 0.018104307
000140 21 cc 0a be 74 b5 02 3e 8e 9b 00 3e 88 d7 be 3c
       -0.13554431 0.12764531 0.1255934 0.023296133
000150 88 79 55 bd a3 65 84 bd 08 61 a9 bc 64 62 09 be
       -0.052117854 -0.06464698 -0.02067615 -0.1341644
000160 ee d1 87 3b 1f 0b dd 3d 9e bd d1 bd 91 c8 06 3e
       0.0041448986 0.10793137 -0.10241245 0.13162448
000170 fa 1f f8 bb 0d 2d 30 bd 8f 4e 14 be de 41 36 3e
       -0.0075721713 -0.043011714 -0.14483093 0.17798564
000180 71 77 0b bc 3b 82 f6 3d 72 cb 05 3e a9 60 1f 3e
       -0.008512364 0.12036558 0.1306589 0.15564217
000190 29 59 ce bd 03 08 95 3d 6b e1 01 3e e9 6f 37 bd
       -0.100756 0.07276919 0.12683646 -0.04478446
0001a0 c2 38 01 be 38 77 be bc 8b 8b cb 3d b9 34 20 bd
       -0.12619308 -0.023250207 0.09938725 -0.03911278
0001b0 c8 c7 ca bd b7 5a 2b 3d 6a c2 23 3e 14 99 66 bd
       -0.099013865 0.04183456 0.15992132 -0.05629833
0001c0 80 22 8e bc 51 14 8e 3d 45 e0 22 3e cf 9f 6b 3c
       -0.017350435 0.06937469 0.15905865 0.014381363
0001d0 24 08 f1 3d 9b d4 6d bc b0 d2 a8 3d bb 2e cd bd
       0.11769131 -0.014516021 0.082433105 -0.10018679
0001e0 e1 58 8f 3c fd bc 19 bd 78 3d 32 3e 53 74 70 3d
       0.017498435 -0.03753375 0.17406261 0.058704685
0001f0 fc 3d 3e bc bd 93 36 bb 60 13 91 3d a0 a5 2d 3d
       -0.011611458 -0.0027859055 0.070837736 0.04239428
000200 54 75 19 3d b4 b2 23 3c 33 12 ad bd 30 ba e9 bd
       0.03746541 0.009991337 -0.08450737 -0.114124656
000210 d7 b2 06 be 8b a5 69 bd f3 6b 14 bd 27 f9 30 3c
       -0.1315416 -0.05704264 -0.03623576 0.01080159
000220 36 38 a1 3d b1 66 46 3d b4 96 01 3d fa bc 98 3d
       0.078720495 0.048437778 0.031637862 0.074579194
000230 40 4f 07 3e 1a 92 11 3e 85 98 6e 3b fa 3f aa 3d
       0.13213825 0.1421589 0.0036406827 0.08312984
000240 0e ac 9f bd 76 5a 59 3d a2 d7 b2 3d 63 07 21 be
       -0.07796489 0.053064786 0.08732535 -0.15725474
000250 2e 59 d0 bd 75 d1 d5 3c da 6d 10 3e 47 f3 aa 3d
       -0.1017326 0.026100853 0.14104405 0.08347183
000260 18 07 af bd b5 15 00 3e 6e 9e 59 3c 9b ca 07 3c
       -0.08546275 0.1250828 0.0132824015 0.008288051
000270 11 85 64 bc 84 9d 88 3d bb 45 66 3d 29 55 82 3c
       -0.013947741 0.06670669 0.056218844 0.015909748
000280 e1 62 05 be fd 97 62 bd 5d df 09 be f0 14 11 be
       -0.13026 -0.05532073 -0.13464113 -0.14168143
000290 e0 0d b0 3c 87 c6 93 bc 8a 69 d4 bd 1f b0 c6 bd
       0.021490991 -0.018039001 -0.103716925 -0.09701561
0002a0 a4 c8 12 3e bf 04 07 3e b6 6d f4 bd 93 85 c8 bd
       0.14334351 0.13185404 -0.11934988 -0.09791102
0002b0 10 71 34 3d eb 76 da bb 7e 5f 37 3c df df 9a bc
       0.044053137 -0.006667008 0.011192201 -0.018905578
0002c0 8d 73 b1 3c 24 54 12 be 24 1e fe bd b6 33 ab 3d
       0.021661544 -0.1428991 -0.124080926 0.083594725
0002d0 b7 18 b0 3d a6 e1 61 3d dc 44 9f bd e1 6a a2 bd
       0.08598464 0.055146836 -0.07776806 -0.07930542
0002e0 83 fe 55 bd 42 ff 8d bd e2 c7 ee bd d8 3e 97 3d
       -0.052244674 -0.06933452 -0.11659218 0.07385033
0002f0 e3 b9 89 bd ca ed 06 be bb 1e ff bc 2b 50 b2 3d
       -0.06724908 -0.13176647 -0.031142583 0.08706697
000300 0b 94 58 3c 83 cc 05 be 93 0d c7 3d e1 87 74 3c
       0.01321889 -0.13066296 0.09719386 0.014924974
000310 a0 27 34 3e dc 64 89 bd ba 73 26 3e a0 9d fe 3c
       0.1759324 -0.067086905 0.16255084 0.03108102
000320 24 42 1b 3e 41 2c b5 3d 29 c0 08 3e f3 71 c7 3d
       0.1516195 0.088463314 0.13354553 0.09738531
000330 96 09 18 bd 2f fc 48 3d 47 ef 1c 3e c2 cc d0 bc
       -0.037118517 0.049068626 0.15325652 -0.025488261
000340 e7 05 9a 3d b3 8f df 3c e8 5c 01 3e ae 83 5a bd
       0.07520657 0.0272902 0.12633097 -0.053348236
000350 ce bc cd bd ad 68 b4 3d d0 cd c6 3a c5 25 0c ba
       -0.10045777 0.08809028 0.0015167538 -0.0005346204
000360 4c 32 04 3d 51 c8 35 3e 5a 9d da bd 3d 30 48 bb
       0.03227453 0.17752196 -0.10674544 -0.003054633
000370 a6 e9 be bc b8 4f 6a bc 7d e3 82 bc 08 12 00 3e
       -0.023304772 -0.014301233 -0.015977615 0.12506878
000380 88 7e 9d 3d d8 a4 61 3d ff db 11 3c c5 87 1d 3e
       0.076901495 0.055088848 0.008902549 0.15383823
000390 7a 1e 92 bb b2 71 d6 bc f8 96 82 bd 66 07 38 3b
       -0.0044591995 -0.026177261 -0.06376451 0.0028080582
0003a0 bd 06 ea 3a 1c 0b 90 3d c4 20 89 3d f9 0a 70 bb
       0.0017854791 0.07033369 0.06695703 -0.0036627634
0003b0 26 c9 83 bd cf 3d 6a 3e 9d 5d 5e 3e 70 94 74 bc
       -0.064348504 0.2287514 0.21715398 -0.014927968
0003c0 1e 23 45 3e 40 df 30 3d f5 e0 72 bc b5 43 76 3d
       0.19251677 0.043181658 -0.014824142 0.060123164
0003d0 11 a9 5b bd fc 0d c1 bd b5 1e 2a 3d 0f 22 0a 3e
       -0.05362803 -0.094264954 0.04153319 0.13489555
0003e0 09 ad 41 3e 23 9d 10 3e 1f ee af 3d c7 00 89 3d
       0.18913664 0.14122443 0.0859034 0.066896014
0003f0 17 cf c2 3c da b7 a1 bc 36 22 1a 3e ca 96 15 3e
       0.023780389 -0.019740988 0.15052113 0.14608303

lstm.bias_hh_l0 f4 [256]
000000 61 78 bb bd dd 39 26 be 59 fa 10 3d 43 92 fb ba
       -0.0915382 -0.1623301 0.035395 -0.001919337
000010 63 23 5d 3d d6 6c d1 3d f9 45 8e 3c 2c 69 32 3e
       0.053988826 0.10225837 0.01736735 0.17422932
000020 7b f2 23 3d 51 3d f2 3c 26 40 46 3d 3e d7 05 3d
       0.04002617 0.029570254 0.04840102 0.032675974
000030 9a 95 7c 3c f9 66 04 bd be 1d 0a bd f3 52 d3 3d
       0.015416527 -0.032324765 -0.03371977 0.10318556
000040 75 5b 8a 3d 11 32 00 3d 67 7f 85 3d 9f 89 4f 3c
       0.06755725 0.031297747 0.06518441 0.012667089
000050 d0 4e 27 be 03 55 f5 3d 04 5e 4f 3d d0 6c 28 bd
       -0.16338658 0.11979105 0.05062677 -0.041119397
000060 c7 e2 e9 3d 9a 68 a4 3c 34 29 de bd 4c fd a0 bd
       0.114202075 0.02006941 -0.108477026 -0.078608125
000070 00 ba 80 bc 34 7c a5 bd a2 00 96 3d b0 e1 85 bd
       -0.015713692 -0.080803305 0.073243394 -0.06537187
000080 b9 2a 6c bd 0f 5b fe 3d 47 82 78 3c 81 c7 bd 3d
       -0.05765793 0.12419712 0.015167779 0.09266568
000090 20 9d ef bc e1 af 93 3d 96 b5 9f bd 87 15 e3 bc
       -0.029249728 0.072112806 -0.07798307 -0.027720226
0000a0 8a 40 de 3a c0 a4 72 bd f6 f1 d8 3d bb a3 99 3d
       0.001695649 -0.05923915 0.105930254 0.07501932
0000b0 ff 2a d4 3d 19 39 61 bd 62 c0 50 bc c4 bf 8a 3c
       0.10359763 -0.054986093 -0.01274118 0.016937144
0000c0 2c 8f 6c 3e a9 bb 7f 3d 04 a9 d7 3d 67 5c c6 3d
       0.2310149 0.062434826 0.10530284 0.09685593
0000d0 cd 3c 21 3e 0a 94 35 3b 70 5f 92 3d 99 49 3e bd
       0.1574585 0.0027706646 0.071471095 -0.046456907
0000e0 f2 ec e6 3d dd f3 d8 3d 62 d6 07 bc bd 8e 80 bd
       0.112756625 0.10593388 -0.008290859 -0.06277225
0000f0 63 e9 9a bd 44 3f 10 3d dc f0 27 bd 44 58 8a 3d
       -0.07564046 0.035216585 -0.041001186 0.067551166
000100 02 12 69 bd a3 cf 04 3e b8 a0 b6 bc e1 6e 24 3e
       -0.05690194 0.12969832 -0.022293434 0.16057922
000110 fb b2 ad 3d 24 25 af 3d 2e f8 98 bd 6e ba 33 bd
       0.084814034 0.08552006 -0.074692115 -0.043878965
000120 2f c4 ca bc 6d f0 be ba a4 e1 e6 3c 19 2f a4 3c
       -0.02475175 -0.0014567502 0.028183766 0.02004199
000130 80 75 6c 3d 39 03 2a 3e 39 93 46 3d c1 a2 7f 3d
       0.057729244 0.16602792 0.048480246 0.062411074
000140 80 eb 6d bd 8a c9 71 bc f7 ab ef 3d dc 19 4b bc
       -0.05808592 -0.014757523 0.117027216 -0.012396302
000150 da f8 3a bd bc bd 13 be f2 4d 55 3c a5 cf 0d be
       -0.04564748 -0.14427847 0.013019072 -0.13848741
000160 49 94 ce bd 64 9f bb 3d f2 2d ab bd 52 22 10 3d
       -0.10086877 0.09161261 -0.08358373 0.03518898
000170 a9 9f f8 3d d9 e1 ba 3c 7f 3f df bc 4f 37 0e 3b
       0.12139828 0.02281277 -0.027251957 0.0021700447
000180 66 84 be 3d fa bb 2c 3e 9e f1 93 3d 16 90 38 bd
       0.09302597 0.16868582 0.07223819 -0.045059286
000190 ad 3c b4 3d 7d 65 f6 3d f1 05 03 3e 00 eb ac ba
       0.088006355 0.12031076 0.12795235 -0.0013192594
0001a0 a6 39 53 bc e0 b3 ec 3c 18 33 04 3e bf bb 09 bc
       -0.012892162 0.028894365 0.12910116 -0.008406579
0001b0 3a 20 0e 3d cb bd e1 3d e4 b7 d7 3d 1a 93 a1 bd
       0.034698702 0.11022528 0.10533121 -0.078893855
0001c0 1a 4a 93 bd ef 27 97 3d fb 16 17 3e 9e 38 ad bc
       -0.07191868 0.073806636 0.1475486 -0.021145161
0001d0 1e 2d fc 3d cb 9a 1e 3c b7 d0 cc 3d ef ff f3 bd
       0.12313293 0.00968046 0.10000747 -0.1191405
0001e0 f1 4e 1b 3d 69 92 c8 3d 15 8f de 3d e1 6e 93 3d
       0.03791708 0.097935505 0.108671345 0.07198883
0001f0 ab 45 ed bd 8e f0 20 3e 76 df bd 3a b6 1e 07 be
       -0.11585554 0.15716764 0.0014486152 -0.13195309
000200 a2 61 40 3d b7 b9 81 3d 2f cd bf 3d 18 d6 86 3d
       0.04696811 0.063342504 0.093653075 0.06583804
000210 c7 2d 58 3c 40 d3 6e 3d 01 41 13 3e 64 a4 b8 3d
       0.013194508 0.058306932 0.14380266 0.0901573
000220 aa a0 11 3d 16 a4 9f 3b b9 6b ed bd 34 93 82 3d
       0.03555361 0.0048718555 -0.11592812 0.06375733
000230 a5 30 78 bd 1e fa 35 3d e4 45 0e be 7f a6 13 be
       -0.060593266 0.044427983 -0.13893849 -0.14418982
000240 1c 72 b9 bc fb 3b 0d be 40 d0 9e 3d 58 fc 02 bc
       -0.02263742 -0.13792412 0.07754564 -0.007994734
000250 2f af f4 bc c9 87 24 3e 77 7a 12 3e 89 69 60 3d
       -0.02986869 0.16067423 0.14304529 0.054788146
000260 8f d9 5a bd 13 55 c1 bd 3b 38 b5 bc 2f 17 f3 3d
       -0.053430136 -0.09440055 -0.02212154 0.11869656
000270 47 36 b8 bd 82 42 d1 bd 54 cc 60 3b 7a 10 4d 3d
       -0.089947276 -0.102177635 0.0034301477 0.05006454
000280 d7 9d 39 3d 82 7b bc bc 4e 11 55 bd 20 88 86 bd
       0.045316543 -0.023008112 -0.052018456 -0.065689325
000290 9a 33 c8 bc d2 d3 bc 3d 2a d0 ae bd 80 bc de bd
       -0.024438668 0.09220089 -0.08535798 -0.10875797
0002a0 a4 6c 2f 3c 3b 9b ad 3c 83 2f ef 3c 9b 60 49 3c
       0.010707054 0.021192184 0.02919746 0.012291099
0002b0 f7 2e b6 3d bd 3a d0 bc aa b5 80 3d e5 00 89 bd
       0.088956766 -0.025418634 0.0628465 -0.06689624
0002c0 0d ec 01 be 2f f9 bd bd 83 3b c9 3d 1a bf 46 bd
       -0.12687702 -0.092760436 0.09825804 -0.048522092
0002d0 6d 10 ae bc a8 67 b8 3c 91 cd fb bd 17 e3 95 3c
       -0.021248067 0.022510365 -0.12295068 0.018296761
0002e0 52 af b4 bd c2 78 d1 3d 84 a9 b0 3d 20 67 a4 3d
       -0.08822502 0.10228111 0.086260825 0.08027482
0002f0 96 88 a0 3d 23 7f 70 3d fa 5f 9a bc d4 b8 da 3c
       0.07838552 0.058714997 -0.018844593 0.026699461
000300 b9 ce b8 3c 42 c1 8e bd fd 2e 35 3d ad 22 18 bc
       0.02255951 -0.06970455 0.044234265 -0.009285611
000310 7e 04 d3 bc 6b 49 a8 3c f3 ea 74 bc 94 ad e3 3b
       -0.025758978 0.02054282 -0.014948594 0.0069481824
000320 1a 6b be 3d b4 9f 08 bc 44 3b 20 3e b1 3f f8 3b
       0.09297772 -0.008338857 0.15647608 0.007575952
000330 d1 8a a2 bd 09 21 9e 3d 3e 8a 85 3d e8 a9 dd 3d
       -0.079366334 0.07721145 0.06520508 0.10823423
000340 f0 aa 94 3d ec d9 d9 bc e9 d3 a4 bd 96 6a e8 3d
       0.07259166 -0.026593171 -0.08048231 0.11348455
000350 0e 66 58 bd 51 02 1f 3e a5 95 d6 bc ed a3 10 3e
       -0.052831702 0.15528227 -0.026194403 0.14125033
000360 7a 44 06 3d 42 30 3a 3d d8 d4 57 bd 41 15 fd 3d
       0.032780148 0.04545618 -0.052693218 0.123575695
000370 72 52 05 3e 90 73 fd bd 2d 41 2c bc 76 af e4 bc
       0.13019732 -0.123755574 -0.010513586 -0.027915698
000380 46 91 25 3d 00 f8 7f bd 58 e3 18 bd 3c 5b bc 3d
       0.040421747 -0.06249237 -0.037326187 0.09197089
000390 fe 9e 8a 3d 82 e0 66 3b a0 87 b2 3d 97 03 1b 3e
       0.067686066 0.0035229032 0.08717275 0.15138088
0003a0 4b 5b 1a 3d 5b 50 eb 3d f5 f1 df 3d fe 72 75 3d
       0.03768472 0.11489936 0.109348215 0.05992412
0003b0 ff 9d b7 bc a3 19 69 3e 9d f0 42 3e 3a 70 48 bd
       -0.022414206 0.22763686 0.19037099 -0.048935153
0003c0 72 b6 fe 3d db ac ec bc ab 4f ff bc 2b 38 58 bd
       0.124371424 -0.028891018 -0.031165918 -0.05278794
0003d0 de 9d 38 3d 12 b6 6d bc 19 3a b3 3c 1d 2c 10 3e
       0.04507243 -0.014508741 0.021878289 0.14079328
0003e0 31 f7 eb 3d 65 2b 6f bd 7e 1c 21 bd 1c ba 88 bd
       0.115217574 -0.058390994 -0.039333813 -0.066761225
0003f0 4d b0 4d bd d2 c9 01 3e 35 c8 b1 3d 50 56 ae 3b
       -0.05021696 0.12674645 0.086807646 0.005320348

lstm.weight_ih_l1 f4 [256, 64]
000000 2d da b1 3d 02 b6 59 bd 02 f8 15 3e f2 4c e1 b9
       0.08684192 -0.05315209 0.14645389 -0.00042972673
000010 90 f5 f8 bd f3 2f 5a bd a6 1f bb bc ad 4d 2c 3e
       -0.12156212 -0.053268384 -0.02284224 0.16826506
000020 7b 34 ec 3c 0c f5 c0 bd 70 03 21 3d 83 22 fe 3d
       0.028833618 -0.09421739 0.03930992 0.12408926
000030 b4 8b 23 3d ce 7a 89 3d fc 80 00 3e fb 82 b4 3d
       0.039928153 0.06712876 0.12549204 0.08814045
000040 ed 27 7a 3d d0 a8 3a 3e 3a 03 92 3d 59 a7 0e 3c
       0.061073232 0.1822846 0.07129522 0.008706891
000050 0e bd bc bd 7f 11 d1 3d 5f 7a 12 bd 09 cf ac 3d
       -0.09215747 0.10208415 -0.035761233 0.08437926
000060 85 44 76 bd 95 2a 3a bc ea cf 03 3e 85 96 95 bd
       -0.06012394 -0.011362691 0.12872282 -0.073041
000070 82 71 10 be 4f 05 83 3d a0 26 d0 bb 7c 1f a2 3d
       -0.141058 0.06397497 -0.0063522607 0.079161614
000080 4c 99 a8 bc cc 45 9b bd cb e1 d8 3d 91 e0 2a 3d
       -0.02058091 -0.07581672 0.105899416 0.04171807
000090 c7 39 c3 3d 4e ba 15 3e 43 3d cc 3d 28 64 b0 3d
       0.095325045 0.14621851 0.09972622 0.08612853
0000a0 52 84 a5 3d 94 82 c4 3d 94 70 35 3e 1f c1 cf 3d
       0.08081879 0.09595218 0.17718726 0.10144257
0000b0 fe 58 ad 3d 3d 76 f2 3d 0c 4b c9 bd db d5 37 be
       0.084642395 0.118389584 -0.09828767 -0.17952673
0000c0 2b 19 c8 bd 46 78 a0 3d b8 28 26 bd f0 b3 fb 3d
       -0.097704254 0.0783544 -0.040566176 0.1229018
0000d0 ba 0f a7 3c 47 6e 16 3e 32 43 e6 bd 09 43 e7 ba
       0.020393241 0.14690505 -0.11243285 -0.0017643879
0000e0 75 f8 bf bd f9 89 3b bd ed 5c f5 3c 7d 31 13 bd
       -0.09373561 -0.045785878 0.029951537 -0.035935868
0000f0 7f d7 d8 3d b9 b9 61 bd 01 35 71 3e b9 f0 34 3e
       0.105879776 -0.05510876 0.23555376 0.17669953
000100 fe bf 47 3c ab e2 62 3e 09 36 87 bd 4e e3 18 be
       0.012191771 0.2215678 -0.06602103 -0.1493046
000110 6a c1 4d be 37 b9 a8 3d 86 6a c2 bc 76 3a 61 bc
       -0.20093313 0.08238452 -0.023732435 -0.013746848
000120 c1 a1 37 be 3b 1c 12 bd 54 c5 5d bc b2 80 17 3e
       -0.17932798 -0.035671454 -0.013535816 0.14795187
000130 ef e6 3c 3d 2a da 43 3c 9d 70 b7 3d 3d 32 9e bd
       0.046118673 0.01195387 0.08957026 -0.07724426
000140 e9 c7 1f be 22 a3 1c bc 2f 2f 24 3e 9d 68 fc bd
       -0.15603603 -0.009560378 0.16033624 -0.12324641
000150 66 51 04 be c5 30 01 3e 38 8b c0 3d cb fe c3 bc
       -0.12921676 0.1261626 0.09401554 -0.023925206
000160 ce 75 00 be 07 19 4b be 8e 85 df bd 8e eb f1 bb
       -0.12544939 -0.19833766 -0.109141454 -0.0073828166
000170 ea cd 04 bd 19 4c 48 3d c6 5e 01 be 72 fb 7e bc
       -0.032422937 0.048900697 -0.1263381 -0.015562879
000180 cf 8d e3 3d 57 77 93 3d 56 e7 ac bd ae 5f e3 3d
       0.11111032 0.07200497 -0.08442561 0.11102234
000190 ec 15 30 bd 79 0d 25 bd 62 3d 66 bb 05 8c e0 3b
       -0.042989656 -0.04029605 -0.0035131802 0.006852629
0001a0 24 b3 e2 bb a9 b0 9e bd ad 6b 4c be fe 96 ad bc
       -0.006918328 -0.07748539 -0.1996295 -0.021190163
0001b0 28 50 06 be 00 39 23 3d 61 16 96 3d bb 5b f3 3b
       -0.13116515 0.03984928 0.07328487 0.0074267066
0001c0 d2 9e 39 3e 89 5c ef 3d f1 00 cc 3d 2d fb 8d 3d
       0.18126991 0.116875716 0.09961117 0.069326736
0001d0 f1 37 e7 bd 85 c2 be 3d f2 b6 06 be 6e 1d 09 bd
       -0.11289967 0.093144454 -0.13155726 -0.033475332
0001e0 3c f0 b9 bd b5 89 4f 3d 11 d5 85 bd 2f fd bb bd
       -0.09079024 0.050668437 -0.0653478 -0.0917915
0001f0 02 11 20 bb 49 1e 73 3d c8 d8 6f be 82 cd 89 bb
       -0.00244242 0.059355054 -0.23422539 -0.0042054066
000200 dc a9 30 bd 87 fe db 3d de ab ff bc 52 99 48 bd
       -0.04313074 0.107419066 -0.031209882 -0.048974343
000210 45 65 af 3c f2 61 63 3d 4b fe 9c 3d 11 30 4e 3e
       0.021410594 0.05551333 0.0766569 0.20135523
000220 03 00 11 3d ed 75 00 3d 0e 51 ee bd f8 64 89 3c
       0.0354004 0.031362463 -0.11636554 0.016771778
000230 45 f2 aa 3d 00 b9 1e 3d a5 a3 69 bd 8d 0d a3 bd
       0.083469905 0.03875065 -0.05704083 -0.07961569
000240 03 8b 95 bd e7 b5 83 bd e0 86 e7 bd 5b 37 cc bb
       -0.07301905 -0.064311795 -0.11305022 -0.006232185
000250 27 44 26 3d dc 94 c9 bc ba 1f 18 bd 99 b8 8b bd
       0.04059234 -0.024607114 -0.03713963 -0.068223186
000260 3c 4f 36 bd 8c 0e fa 3d ea d8 60 3c ad 34 ef 3d
       -0.044509158 0.12209806 0.013723591 0.11679969
000270 8a 9a c2 bd 41 fe 09 3d 0a 4a f3 3c ff 01 57 3c
       -0.09502132 0.03368974 0.02969839 0.0131230345
000280 df bf 02 be c0 29 9e 3c b8 c3 b6 3c 30 21 22 be
       -0.12768506 0.019307017 0.022310123 -0.15832973
000290 f0 76 1d be fb 6b 4e 3d 8a c2 a7 bd 80 18 20 be
       -0.15377402 0.050395947 -0.08191402 -0.15634346
0002a0 6f d1 7b 3d 98 46 93 bd f5 55 85 bd fc 66 f6 3d
       0.06147903 -0.07191199 -0.06510536 0.120313615
0002b0 be 90 be 3d e2 68 31 3e 34 1d ee 3d e2 1e 00 be
       0.09304951 0.17325166 0.11626664 -0.12511781
0002c0 01 fc b9 bb 6e 7d c1 3c 21 63 59 3c ea 61 1c bd
       -0.005675793 0.02361938 0.013268263 -0.038179316
0002d0 da 1e be bc c3 fa 9f 3d d4 d8 2e bd b8 41 b7 3a
       -0.02320807 0.07811501 -0.042687252 0.0013981378
0002e0 c5 8a e7 bb c1 44 3e 3d 3f 95 11 bd 4a a0 64 3d
       -0.007066103 0.046452288 -0.035542723 0.055816926
0002f0 56 9e ca bd ca f0 7d 3a cf 2d 36 3e 3f 72 df 3b
       -0.098934814 0.00096870644 0.17790912 0.006819039
000300 57 a0 ad bd a6 98 10 3c 93 d7 0f bd 67 03 66 3d
       -0.08477848 0.008825457 -0.035117697 0.05615559
000310 1d 18 7e bd 06 91 dd bd 41 01 dc bd fe 2c 99 3d
       -0.062034715 -0.10818677 -0.10742427 0.07479285
000320 95 e8 d4 3c b1 d2 5f bd c0 ad 07 be fa f9 eb 3d
       0.02598981 -0.05464429 -0.13249874 0.115222886
000330 ff 38 f2 3d 1e 38 ef 3b 13 64 cc 3c fa 6f 9d 3d
       0.118272774 0.007300391 0.024950063 0.076873735
000340 2b 7f 1d 3e 9f dc 00 3e bd 0d a7 3d 2e 01 a0 3d
       0.15380542 0.1258416 0.08156917 0.07812725
000350 52 5a 61 bc 5f 7a a2 bd aa 0d 0b be 5d dc 79 3d
       -0.013754444 -0.07933497 -0.13579431 0.06100117
000360 56 45 3c bb 78 ea 1c 3e c3 44 71 bd 96 4d 0b be
       -0.002872785 0.15323818 -0.058903467 -0.13603815
000370 a3 6c 15 be 08 ec 84 3d 98 c7 6d bb 5d 21 fb 3d
       -0.14592223 0.06490332 -0.0036282297 0.12262223
000380 8a 37 fe 3c 36 c8 46 bd 00 d6 1d be 88 23 52 bd
       0.031032342 -0.04853078 -0.15413666 -0.051303416
000390 aa f1 77 3d b6 54 bb 3d 36 55 97 bd 0b 21 1e bd
       0.060533203 0.09147017 -0.073892996 -0.03860573
0003a0 fa b4 5d 3c 71 29 8c 3c 07 e8 8b bd d7 ac 3c bd
       0.013531918 0.017109605 -0.06831365 -0.04606327
0003b0 42 2a 59 3d 07 7d 61 bd 8c f9 06 bd 22 4a 71 be
       0.053018816 -0.055050876 -0.03295283 -0.23563436
0003c0 48 a9 5b bd eb fc 58 3d 06 c0 61 bd d3 a0 d6 3d
       -0.053628236 0.052975576 -0.05511477 0.104798935
0003d0 f4 83 3e bd 1a 15 78 3e 56 9b 30 3c ee 3d a3 bd
       -0.04651256 0.242268 0.0107792225 -0.079707965
0003e0 d7 8a 89 3d f0 3f 5f 3d 4f da 5c 3d e0 c7 45 3c
       0.06715935 0.054504335 0.053919133 0.01207158
0003f0 34 8a 15 3e 59 7c 9f 3d b2 20 1a 3e 1b 8c 16 3e
       0.14603502 0.07787389 0.15051535 0.14701883

lstm.weight_hh_l1 f4 [256, 64]
000000 06 49 11 be 79 96 14 3d 0f 2e cf bd 2b ab 1f 3c
       -0.14188012 0.036276314 -0.10116207 0.0097453995
000010 c2 d1 e1 3a 33 09 c7 bb 56 be c6 bd c2 99 bb 3d
       0.001722865 -0.0060740947 -0.097042724 0.09160186
000020 d2 94 07 3d f9 07 c8 3d c6 31 af ba d5 d7 ee bd
       0.03310091 0.09767146 -0.0013366274 -0.116622604
000030 db 6e 22 bc 54 37 c0 bd 9e f4 e9 3a f9 ea 31 3d
       -0.009914125 -0.09385553 0.0017849391 0.043436978
000040 c1 95 e0 3b 03 62 12 3d c1 3f 83 bd 80 3e 95 3d
       0.0068537896 0.035738003 -0.064086445 0.072873116
000050 34 b9 94 3d ce 4c e1 bd 34 74 34 bd bd 7c 8b 3d
       0.07261887 -0.110009775 -0.044056132 0.06810901
000060 c0 a2 4e b8 6a b7 f2 ba 09 79 f6 3d 8a e7 59 3c
       -4.92658e-05 -0.0018517796 0.120348044 0.013299832
000070 e4 b0 97 3c df 8a 65 bd 60 96 de 3d 8e 86 57 3d
       0.018516965 -0.05604064 0.108685255 0.052618556
000080 b9 2f b2 bd 70 86 54 3d 0f 23 f4 bd 53 dd 07 3d
       -0.087005086 0.051886022 -0.119207494 0.033170056
000090 d8 49 b4 3d c2 b8 a9 bd e7 ed c6 bd 62 25 2b 3d
       0.08803147 -0.08287193 -0.09713345 0.041783698
0000a0 06 36 05 3d 17 78 ea 3d 41 f9 d2 3c f4 d0 03 3e
       0.032522224 0.114486866 0.02575362 0.12872678
0000b0 f3 ac 82 bd c0 c6 80 bd 3f 58 aa 3d 27 27 99 3d
       -0.06380644 -0.062879086 0.08317613 0.07478171
0000c0 77 44 e0 bc 6c 4b 1c 3e e8 2c 4c 3d 8d b1 48 bd
       -0.027376397 0.15263146 0.049847513 -0.04899745
0000d0 6d fb 0c 3e b0 18 32 bd eb e3 ca 3d 33 0d e7 3c
       0.13767786 -0.043480575 0.09906753 0.028204536
0000e0 75 6d e8 bd ef 2f 2a 3c b5 42 be bd 29 f1 d3 bd
       -0.11349002 0.010387405 -0.09290067 -0.10348732
0000f0 70 e8 44 bd 28 d5 3a 3d 35 e5 ee 3d b1 0b a4 bd
       -0.048073232 0.045613438 0.116648115 -0.080100425
000100 09 3d 9e bd af 00 dc bb d5 6a 08 3e 71 56 8c 3d
       -0.07726485 -0.0067139487 0.13322003 0.06852425
000110 16 43 68 3e a2 7d f1 bd 4b c0 5c bb 89 48 13 bd
       0.22681841 -0.11791541 -0.0033683951 -0.035957847
000120 09 86 45 3d 79 2c 7a bd d0 99 04 be 36 91 45 bb
       0.04822353 -0.06107757 -0.129493 -0.0030146367
000130 1a 2c a1 bd 1b cf 1c 3d a5 c9 0a 3e a2 8a 5a bd
       -0.0786974 0.03828345 0.13553484 -0.053354867
000140 7a 99 7a 3e 85 ae 8b bd 4b 1f a8 3d 94 2c 38 bd
       0.24472609 -0.06820396 0.08209094 -0.044964388
000150 e5 15 14 be 40 9a a9 3d 8f e4 c8 3c e1 46 40 3e
       -0.14461477 0.08281374 0.024523048 0.18777038
000160 18 6d dd bc 91 36 fe 3c 4d 80 b9 3d f2 20 4e 3e
       -0.027029559 0.031031879 0.090576746 0.20129755
000170 64 9e 85 3c 01 40 14 be a9 c3 e1 3d f0 23 0b 3d
       0.016310878 -0.1447754 0.11023647 0.03396982
000180 e3 67 c6 3c 51 ca b2 3c 85 6e 54 3e 71 51 dc 3c
       0.024219459 0.021824988 0.20745285 0.026894303
000190 49 ac 20 3d 0f d0 5e 3d 9f 5d d2 3d 55 c4 6d 3d
       0.039226804 0.05439764 0.10271763 0.058048565
0001a0 df 17 1d bd 60 6b fe 3b b9 7b 6e 3d 22 2e b4 bd
       -0.038352843 0.007764265 0.05822346 -0.08797862
0001b0 89 99 59 bd 33 b7 01 3d 5c 19 90 3a 36 1d 0f be
       -0.05312494 0.031668853 0.0010993886 -0.13975987
0001c0 1e c4 e3 bc f8 2b 83 bb b0 fb b0 3d 19 b2 7a bd
       -0.027803477 -0.004003044 0.086417556 -0.061205003
0001d0 50 92 a7 bd a3 a5 d8 bd 38 32 a4 bc 57 ae 72 bd
       -0.08182204 -0.10578468 -0.020043477 -0.059248295
0001e0 6b a8 c6 bc e5 42 58 3b 54 3b bc bd 34 4e 42 3d
       -0.02425023 0.0032998857 -0.091910034 0.04743786
0001f0 c3 84 14 bd 6a 91 f4 3c fa 4b ce bb f7 e4 8e 3d
       -0.036259424 0.029854495 -0.006295678 0.06977265
000200 a8 cd ae bc 62 c9 44 3d 72 8e 00 be 56 a4 bc 3d
       -0.021338299 0.048043616 -0.12554339 0.09211032
000210 59 0c 2e 3d b3 6e 21 bc de d7 d3 3d 8d bc 2c bd
       0.042492244 -0.009853053 0.10343908 -0.042172004
000220 11 52 be 3d df 39 0c bd 94 4f 4f 3d 22 d9 ff bd
       0.09292997 -0.034234878 0.050613 -0.12492587
000230 51 0a 09 3e c1 48 b2 3c aa be 00 be ef 31 cc bd
       0.13382842 0.021763207 -0.12572733 -0.099704616
000240 74 16 45 bd 22 8e 33 3e 6f c3 07 be 30 65 80 bc
       -0.048117116 0.17534688 -0.13258146 -0.01567325
000250 44 d0 3e 3d 03 b2 dd bd 17 24 b9 bd 3c d0 a6 bd
       0.046585336 -0.10824969 -0.09040087 -0.08145186
000260 e8 a4 68 bd e9 63 8f bd d3 4f af bd 72 c4 e1 3a
       -0.05679789 -0.07001478 -0.08560147 0.0017224683
000270 f1 fd be bd c8 e3 05 bd 5f 12 eb bd 81 cd d5 bd
       -0.09325779 -0.032687932 -0.114781134 -0.104395874
000280 55 67 b3 bd 1b f9 5b bd 95 92 be 3c 67 a1 cb 3d
       -0.087599434 -0.053704362 0.023263255 0.099428944
000290 5a 76 96 bc 5e 18 d3 3a 3e a2 70 be 7a 43 37 3d
       -0.018366981 0.0016105284 -0.2349939 0.044742085
0002a0 11 d6 0f bd d8 a6 e7 bb 74 30 08 3e 15 9e 89 3d
       -0.03511626 -0.00706945 0.13299733 0.06719605
0002b0 1d e3 12 3c 79 16 61 bd 62 48 b1 bc f5 36 be bd
       0.008965281 -0.054953072 -0.02164096 -0.09287826
0002c0 58 a9 2a 3e 28 95 aa bd d7 75 b0 3d 59 11 95 3d
       0.16666162 -0.083292305 0.08616226 0.072786994
0002d0 58 42 89 3d 6b e6 01 3e 06 8d 43 bd 23 b5 15 3d
       0.06702107 0.12685554 -0.047741912 0.0365497
0002e0 25 41 fd 3c 5c cf ba bd 3c 88 db bd cc d2 af 3c
       0.030914852 -0.09121582 -0.10719344 0.02146282
0002f0 de a0 fd 3d 9c a1 96 3d 2b 9c a3 3d 4c 4e 20 3d
       0.123841986 0.07355043 0.07988771 0.03913717
000300 08 1a 91 3d 6e 85 28 bd 1b ce ee bd 21 6e b2 3d
       0.07085043 -0.041142873 -0.11660405 0.08712412
000310 65 14 75 bd c7 41 f1 bb f3 a2 20 bd 24 e5 74 3d
       -0.059833903 -0.0073625776 -0.0392179 0.059788838
000320 56 cb b7 3b 2d bc b7 3d 02 d2 91 3b 05 6d 51 3d
       0.0056089563 0.089714386 0.0044500837 0.05112936
000330 c4 ba 5f 3c ff d9 c7 3d 34 db f4 3c e8 e1 b9 3d
       0.013655368 0.09758376 0.02988968 0.09076291
000340 ce 9f 33 be 43 74 e5 3c 92 5f 3a 3d 57 26 0f be
       -0.1754143 0.02800954 0.0455013 -0.13979469
000350 16 11 34 bd 05 da a4 3d 18 1e b2 bd 98 63 07 be
       -0.043961607 0.080493964 -0.08697146 -0.13221586
000360 d9 da 16 bd 6d 5e e8 3d 1a 44 87 bc c6 dd 18 3d
       -0.036829803 0.11346135 -0.016511966 0.037320875
000370 24 08 c0 bd c9 f8 13 bd 25 3c 56 3d be ed 0e be
       -0.09376553 -0.036125932 0.052303452 -0.13957879
000380 56 27 c8 3d b3 18 7e bc ae 5c a3 3d e2 9d eb 3c
       0.09773128 -0.015508818 0.079766616 0.028761808
000390 24 2d 0d be 0f b3 93 3c 8d 8c 3a be 07 d6 0f bd
       -0.13786751 0.018029718 -0.18217678 -0.03511622
0003a0 a7 82 a7 bb 6c 69 53 bd 20 fd f9 3d b7 68 9d bd
       -0.0051120105 -0.05161421 0.12206483 -0.076859884
0003b0 75 4e 17 3e 8f 96 6a bd 67 0a bd bd 14 ba e3 bd
       0.14776023 -0.05727249 -0.092305 -0.11119476
0003c0 5d 88 1e 3c 14 28 e7 3d b5 25 0d 3e 3c f3 94 3c
       0.009676066 0.11286941 0.13783915 0.01818239
0003d0 1e 32 a1 bd 9f 6c 13 3d 1d d1 9e bd 20 cd b9 3d
       -0.07870887 0.03599226 -0.07754729 0.090723276
0003e0 9a 17 0c 3e 0f 84 28 3d 7f 65 11 3d b6 fc 18 bc
       0.13680878 0.041141566 0.035497185 -0.009337595
0003f0 67 ad 29 bc 75 16 8e bd dd 2c 13 bc c2 75 2d 3d
       -0.010356284 -0.06937877 -0.008982864 0.04234863

lstm.bias_ih_l1 f4 [256]
000000 83 5f e4 3c b2 7c e8 3d a2 ef cf 3d 58 b5 db bd
       0.027877575 0.11351909 0.10153128 -0.10727948
000010 d5 7a a3 3c ce 73 93 3d 02 38 d4 3d bc c8 cd bd
       0.019956032 0.07199822 0.10362245 -0.10048053
000020 69 8e 54 bd f7 b4 18 bd d4 f8 47 3d 63 2b 9e bd
       -0.051893625 -0.037281957 0.048821285 -0.07723119
000030 28 aa 0c 3d 28 4b 7b bd 7b 69 38 3c f2 8c 00 3d
       0.03434196 -0.06135097 0.011255617 0.031384416
000040 a2 47 02 3c 85 fe a1 bd 6d 60 d8 3d 9f 03 c9 3d
       0.007951649 -0.07909874 0.10565267 0.09815144
000050 d3 da 1c 3c c2 77 a0 3d fb 92 b7 bd 3a 93 84 3c
       0.009573656 0.07835342 -0.08963581 0.016183484
000060 1a 25 a4 3a 5d f1 11 3e a9 44 5b 3d ad a1 9e bd
       0.0012523264 0.14252229 0.053532276 -0.07745681
000070 ea b5 b3 3d ec a8 16 3d db b2 69 3d 4a 55 e8 3d
       0.08774932 0.03678219 0.057055335 0.113443926
000080 64 d9 d2 3d 59 94 ac bc 6c 53 84 3d f8 6b 48 3d
       0.1029537 -0.021066831 0.06461224 0.048931092
000090 11 23 30 bd 79 9a 00 3e aa 7d f5 3c fb 97 4a 3d
       -0.043002192 0.12558927 0.029967148 0.049461346
0000a0 3d d3 b5 bc 12 77 e3 bc c9 69 c6 bd ab ef f0 bb
       -0.022195453 -0.027766738 -0.09688146 -0.0073527894
0000b0 ea 36 61 3d b7 c3 c1 bb 98 9f cf 3c 1c ed 79 3d
       0.05498401 -0.0059132236 0.025344655 0.06101714
0000c0 4d 4d c9 bd ef d8 a9 3d 48 eb 98 bd 6f 44 c9 3d
       -0.09829197 0.0829333 -0.07466751 0.09827506
0000d0 0f b3 51 3b 6b 8d c9 bd a0 0c 94 3c 33 5e 07 3e
       0.0031997596 -0.098414265 0.018072426 0.13219528
0000e0 3c a4 98 3d e5 86 a8 3c 87 6a 7f 3c 41 03 e8 3d
       0.074532 0.020572135 0.015589363 0.11328746
0000f0 f6 9e e0 bd 8a 8b b8 bd 79 0b 0f be a4 3c 94 3d
       -0.109678194 -0.0901099 -0.1396922 0.07238129
000100 6f 0d e6 bd 2f 76 0c bc 3a d7 ad 3d 4d 43 e5 bd
       -0.11233031 -0.008573099 0.08488317 -0.11194477
000110 ed 68 8d bb 50 b3 cc 3d 26 17 aa 3d a8 ab 5c bc
       -0.0043154866 0.09995139 0.083051965 -0.01346866
000120 4c 21 a9 bd ae c3 02 be a0 21 88 3b 89 27 19 3e
       -0.08258304 -0.12769958 0.004154399 0.14956488
000130 23 c6 09 3c 64 9d af 3d 40 57 d2 3c a5 66 7d bc
       0.008409056 0.08574942 0.02567637 -0.015466367
000140 50 56 eb 3d 06 49 ac 3c 7b 22 84 3d 69 28 57 3d
       0.11491072 0.021030914 0.06451889 0.052528773
000150 bb ac cf 3d d5 71 db 3d 68 73 1d bc 01 da 26 bd
       0.101403676 0.10715071 -0.0096100345 -0.04073525
000160 37 b1 b8 3d 64 f6 e0 3d 1b 1d 07 3e 9a e2 18 bd
       0.09018176 0.10984495 0.13194697 -0.03732548
000170 c4 c9 98 3d 03 0e ca 3d 98 2e d6 3d d6 8a 2d 3e
       0.07460359 0.09865954 0.10458106 0.16947493
000180 02 28 40 3d e7 47 ae bd 71 25 26 3d f4 c1 cc bb
       0.046913154 -0.08509808 0.04056305 -0.006248707
000190 43 89 5b 3d 93 77 04 be c4 c3 78 bd 97 72 8b bc
       0.0535977 -0.12936239 -0.06073357 -0.017022414
0001a0 d7 b5 71 3d c7 ec a7 bd 1a ce e5 bc 11 52 a5 bd
       0.059011307 -0.081994586 -0.028052378 -0.080722935
0001b0 b1 11 be 3d de c0 91 bc d7 3c e9 3d 92 d0 43 bd
       0.09280718 -0.017792162 0.113885574 -0.04780633
0001c0 25 f5 3c 3d e2 d7 5b 3d c0 f0 f5 3d 52 da 19 be
       0.046132226 0.05367268 0.1200881 -0.15024689
0001d0 d1 0c 15 ba c4 9e bb bd ad 45 d0 bd cf 51 2e bd
       -0.0005685809 -0.091611415 -0.101695396 -0.042558488
0001e0 11 da 15 3e a4 15 c3 3b 6e 2a 03 bd 9b 4f 8b 3d
       0.14633967 0.0059535075 -0.032022886 0.06802293
0001f0 a1 ae 73 3d 93 23 14 bc 7f 2e df bd 82 20 46 3d
       0.05949271 -0.009041685 -0.1089754 0.048370846
000200 71 c9 ce 3d 40 f7 06 3e cf ca ea 3c 3b f5 e1 3d
       0.10097016 0.13180256 0.02866116 0.11033102
000210 15 9e 10 3d 1a f9 f3 3d 77 34 37 3e 01 ea f8 bd
       0.03530701 0.11912747 0.17891107 -0.12154008
000220 05 a3 ee 3d 0b 14 97 bd 39 a2 c4 bd 19 76 30 bd
       0.11652187 -0.0737687 -0.09601254 -0.043081377
000230 88 ce 91 3d 66 99 d1 bd a8 65 3b 3d 7c 58 55 bd
       0.07119471 -0.102343366 0.045751244 -0.05208634
000240 f5 17 a9 bc 8e b7 92 3c f4 7c 8c 3d 84 34 22 3c
       -0.020641306 0.017909791 0.068597704 0.009900216
000250 29 1f 0a be f7 98 83 3d 78 12 52 bd 96 5c 01 3e
       -0.13488449 0.0642566 -0.051287144 0.12632975
000260 20 71 f0 3c 77 99 62 bd 6f 73 00 3d a0 9d 0c be
       0.029350817 -0.055322137 0.031360086 -0.13732004
000270 d4 48 24 bd 57 17 58 bd b5 cd e5 bc 86 39 06 be
       -0.040108517 -0.052756634 -0.02805219 -0.13107881
000280 75 6a b4 3d 02 08 9e 3d 32 38 ed 3d 56 73 a4 bd
       0.088093676 0.07716371 0.11582984 -0.08029811
000290 f1 f4 8a bd 5e fb 64 bd ca 8b da bb 39 ce 0a 3e
       -0.06785 -0.055903785 -0.006669496 0.1355523
0002a0 87 0f e6 bc 8b 70 bf bd 3a 69 f3 bc 34 d8 d9 3d
       -0.028083576 -0.09347638 -0.029713262 0.106369406
0002b0 7e 02 e1 3d a5 5d 4d bc b8 30 00 3e 69 d3 af bd
       0.109868035 -0.012534534 0.12518585 -0.08585245
0002c0 3c 87 dd bd a2 52 76 bd 42 c2 ca bd 9f 2e 96 3d
       -0.108168095 -0.0601374 -0.09900333 0.07333111
0002d0 c4 f4 59 3d 6e d2 43 bc 71 e9 a7 bc c3 e7 20 bc
       0.053211942 -0.011952026 -0.020497056 -0.009820881
0002e0 d1 fe 9d 3d 38 88 dc bb 0c 3a 1a bd ff f2 9b bd
       0.07714618 -0.0067301057 -0.037653014 -0.07614707
0002f0 79 7a 03 3d bf 86 46 bb 95 98 29 bd e8 5a 27 bc
       0.03209922 -0.0030292717 -0.04140528 -0.010214545
000300 ae 64 e8 bd 20 97 0a bd 9b 4b 8b bc b5 c3 76 bd
       -0.11347328 -0.03383553 -0.017003825 -0.060245235
000310 a7 40 0a be 36 3f b7 3d dd f1 c4 bd a0 cd d9 bd
       -0.13501225 0.089476034 -0.09616444 -0.10634923
000320 ed 80 a0 3d c0 e2 2f bd 86 25 be 3d c3 f2 54 3c
       0.07837091 -0.042940855 0.09284501 0.012997332
000330 64 65 07 be 2f f0 15 3e 12 cf e4 bd a3 16 0f be
       -0.13222271 0.14642404 -0.11172308 -0.13973479
000340 68 da fb bd 30 e9 a6 3d 76 b5 c4 bd de 7c 42 bd
       -0.12297517 0.08149946 -0.096049234 -0.047482364
000350 f8 ef c8 3d e2 c3 84 bd e3 13 e6 3d 54 d9 e9 bd
       0.098113954 -0.06482674 0.11234262 -0.11418405
000360 14 ee a8 3d 69 e9 10 bd c4 0a c6 bd b4 71 b9 3d
       0.08248535 -0.035378847 -0.09670022 0.0905489
000370 3d e8 20 bd c7 eb b7 bd 41 6e ba 3d 10 78 5e bd
       -0.03928398 -0.08980518 0.091030605 -0.05431372
000380 d5 0a a4 bd 07 87 3e bd 75 62 ac 3d a8 5c 8e 3d
       -0.080098785 -0.04651549 0.08417217 0.069512665
000390 cd 2a da bd 99 86 0c be f6 4a f1 bd 9a 70 75 3c
       -0.10652695 -0.1372322 -0.11781876 0.01498046
0003a0 d9 83 c4 bc 84 26 d2 b7 95 41 cc 3d 51 d4 b9 bd
       -0.023988651 -2.5051886e-05 0.09973446 -0.09073699
0003b0 38 72 d1 bb bf e4 99 bd 8f 9a 14 3a 96 b8 fe 3d
       -0.0063917898 -0.07514333 0.0005668783 0.12437551
0003c0 fe 5a b1 bd e7 59 f5 3d 76 76 b2 3d 78 77 a7 3d
       -0.086599335 0.11980038 0.08714001 0.08177084
0003d0 9c a0 11 3d 30 c8 d9 3d 8d a3 fb 3d 17 d2 d3 bd
       0.03555356 0.10633886 0.12287054 -0.10342806
0003e0 7b af db bc 2c 81 37 3b fe e0 6a 3d 0f 79 e8 bc
       -0.026817074 0.0028000576 0.057343476 -0.028378038
0003f0 eb 96 fa 3c e0 64 fc 3d 82 40 ca 3d 88 b1 bc 3b
       0.030589541 0.12323928 0.09875585 0.005758468
