models/lstm_mid_model.pt (torch, 245045 bytes, 9 tensors)

lstm.weight_ih_l0 f4 [256, 38]
000000 19 6b 2e 3e 60 22 0d 3e 92 db 28 3e 39 3d 01 3e
       0.17033042 0.13782644 0.1649001 0.12621011
000010 ba c4 07 3e 56 25 e9 3d be 67 e9 3c 1c ce f7 3d
       0.13258639 0.113840744 0.028491851 0.12099859
000020 6d 1a 15 3e 77 63 c7 3c 48 d2 05 3e 03 3c 04 3d
       0.14560862 0.02433942 0.13068497 0.032283794
000030 5e 21 2c 3e e6 2c 24 3d ce 04 c6 3d 3f 3f 84 3d
       0.16809604 0.04008188 0.09668885 0.06457376
000040 18 59 13 3e 85 69 85 bd 0e 50 6e bc 3f 32 24 3d
       0.14389455 -0.06514267 -0.014545454 0.04008698
000050 9a f0 af bd 10 48 40 bd bc 33 5c 3d 0b 7a 4a 3d
       -0.08590813 -0.046943724 0.053760275 0.049432795
000060 3b 9d a4 bd 8c 09 6c bd 41 33 a6 bd f5 d3 00 be
       -0.08037802 -0.057626292 -0.08115245 -0.12580855
000070 61 4c 22 bd 9a 3c 34 be 17 9f e3 3d 7b a6 6f bd
       -0.03962362 -0.17601243 0.11114328 -0.058508378
000080 38 db d0 3d 18 20 1c 3b 76 3b 08 3d ec 84 07 3e
       0.10198063 0.002382284 0.03325983 0.132343
000090 9a 1f 67 3d 00 c8 16 3e 23 37 14 bd 20 8f fb bd
       0.056426622 0.14724731 -0.036185395 -0.12283158
0000a0 ac ef 3f 3d 66 83 b0 bb 45 19 0d 3e 3c 16 60 3e
       0.04685943 -0.0053867577 0.13779171 0.21883482
0000b0 c3 dd 3e 3d a5 fa 95 3c 8e 55 30 3c a6 a8 69 3d
       0.046598207 0.018307993 0.010762585 0.0570456
0000c0 11 3f a7 bc 23 cd 07 be 57 c3 09 be 18 8c 02 be
       -0.020415815 -0.13261847 -0.13453422 -0.12748754
0000d0 8b 75 44 be 0d a8 69 3e 93 63 69 3e c3 6e fb 3d
       -0.19185464 0.22818013 0.22791891 0.122769855
0000e0 ac 72 ba 3d 86 c4 74 3d 56 e7 4e 3e 8f 22 55 3c
       0.09103903 0.05975773 0.20205435 0.013008728
0000f0 ef c2 9c bd 4d 19 11 3e c3 74 90 3e e0 52 30 bd
       -0.07654368 0.14169808 0.28214082 -0.043047786
000100 f5 bc 6b 3c 9d 19 19 bd 43 1d a6 3d 56 13 0d be
       0.014388313 -0.037377942 0.0811105 -0.13776907
000110 08 c5 5f bb f2 99 64 bd d6 ef 33 3e b1 27 32 3d
       -0.003414454 -0.055810876 0.17571959 0.043494884
000120 96 18 0e be fa ca 4a be 43 bc eb bd c5 ba 0e be
       -0.13876566 -0.19803992 -0.115105174 -0.13938434
000130 89 0a 89 3b 8e 2a c9 3d c5 45 a0 3d a2 44 a7 3d
       0.004182164 0.0982257 0.078258075 0.081673875
000140 3e 95 c6 bd c0 ef 26 be b3 88 d1 3d 96 ed ca bd
       -0.096964344 -0.16302395 0.102311514 -0.09908597
000150 b0 c7 0d 3e b2 d6 fd 3c 25 55 24 3e a4 5a 83 bd
       0.13845706 0.030986164 0.16048105 -0.06413773
000160 4a 7d 13 bd 9a 39 29 3e 02 31 dc 3d e6 b3 56 3d
       -0.036008157 0.1652588 0.10751535 0.05241766
000170 26 6f 99 3e d8 0c 35 3e 64 af 06 be 54 78 2c be
       0.29967612 0.17680681 -0.13152844 -0.16842777
000180 e2 40 0b 3e 3c 8d d6 bd 36 18 d8 bd 97 e9 dd bd
       0.1359897 -0.10476157 -0.10551493 -0.10835569
000190 33 43 aa 3d 88 cc ff 3c e8 57 a9 bd 8b 6a ce 3d
       0.083135985 0.031225458 -0.0826872 0.10078915
0001a0 dd be 27 bd 17 05 4f bb 9f ca 1d be f7 15 ad 3c
       -0.040953506 -0.0031588727 -0.15409325 0.021128638
0001b0 12 db fc bd c0 6a 80 bc 79 00 c5 3d 29 ef ef bb
       -0.12346472 -0.015675902 0.09619231 -0.0073222113
0001c0 14 4f 5f 3c 94 82 14 be d0 cf 94 be 3b fb 10 bd
       0.013629694 -0.14502937 -0.29064798 -0.035395842
0001d0 fe ae 4b bd 6f 70 9d bd 40 8f e1 bd 05 28 69 bc
       -0.049727432 -0.07687461 -0.11013651 -0.014230733
0001e0 61 e1 3e be 7e 4c bf bd 63 71 da bd 3c 47 63 be
       -0.18640663 -0.093407616 -0.10666158 -0.22195143
0001f0 76 0b aa bd 74 2e a0 bd f6 88 05 be ea 6e 62 be
       -0.08302967 -0.0782136 -0.13040528 -0.22112623
000200 71 f7 b8 bc 2f d9 9d bd e0 db 0a 3e 08 00 8c 3d
       -0.022578927 -0.0770744 0.13560438 0.068359435
000210 f3 12 29 be 2e 90 20 3e d7 12 16 bd 64 af 5c bb
       -0.16511135 0.1568 -0.03663906 -0.0033673877
000220 6e db ac bd 4b 2c 5b be ac 31 10 bd c0 af df bc
       -0.084402904 -0.21403615 -0.03520362 -0.027305484
000230 4e eb b8 bc a7 f4 d2 bc 87 56 b8 bb 1e 2f 92 bd
       -0.02257314 -0.025751425 -0.0056255492 -0.07137893
000240 a4 51 d4 3d 19 e2 67 3d 40 d8 35 3e e7 74 19 3e
       0.10367134 0.056612108 0.17758274 0.14986001
000250 3d d0 83 3e 62 6c 86 3d 7e 9a 15 3e 4f 21 b5 3d
       0.2574481 0.06563641 0.14609715 0.08844244
000260 6e 03 3b 3d 8a d2 f9 bc 53 34 fa 3d ae 6c 0c be
       0.045657568 -0.0304959 0.12217011 -0.13713333
000270 74 c2 c8 3d da 71 82 3d d9 d3 1d 3d 9b ef 4e bd
       0.09802714 0.06369372 0.03853211 -0.050521474
000280 c9 5f 57 3e be d5 91 3c fb d6 ee bd 69 59 3e bb
       0.21032633 0.017802116 -0.11662098 -0.0029044992
000290 95 1d 3f 3d f1 42 23 3e 10 e7 ee 3d e3 1f f6 3d
       0.04665907 0.15943505 0.116651654 0.12017801
0002a0 07 32 41 bc d7 59 33 be 95 48 37 3b 6f b2 95 bd
       -0.011791713 -0.1751474 0.0027966846 -0.07309424
0002b0 23 4e 8c bc 23 40 04 be 45 f6 f7 3c f5 2e 9c bd
       -0.017127102 -0.12915091 0.030268798 -0.07626144
0002c0 61 74 e2 bd 88 98 36 3d e0 e1 02 3e 19 0b bc bd
       -0.11057354 0.04457906 0.12781477 -0.09181804
0002d0 12 db c6 bd e4 f4 09 3e bc 48 93 3c 09 86 93 3d
       -0.09709753 0.13472325 0.017979018 0.072032996
0002e0 cf a4 0a 3e ce b8 14 3e 66 52 8e 3d 36 86 05 3e
       0.13539432 0.14523622 0.0694931 0.13039479
0002f0 01 a8 c4 3d 62 49 1e 3e fa 0f 8b 3b 55 5d 8f bd
       0.09602357 0.15457681 0.004243848 -0.070002235
000300 5f 83 70 3d 11 07 00 3d ec 25 97 3c 63 c2 d7 bc
       0.058719035 0.03125674 0.0184507 -0.026337808
000310 8c 32 dd 3c 1b 43 16 bd 1d 68 07 3d 21 b6 51 3d
       0.027001642 -0.03668509 0.033058275 0.051199082
000320 21 d3 61 be 23 2e 8b bb b5 8e 85 3d f9 90 57 3d
       -0.22053196 -0.0042474433 0.0652136 0.05262849
000330 4e a3 db bb 57 01 b1 bd d9 15 ce bc 6d 5c df bd
       -0.006702817 -0.08642834 -0.025156902 -0.10906301
000340 77 ad 0c 3c bf 03 f1 bc 09 a7 5c 3e 30 1d f0 3c
       0.008586279 -0.029420732 0.21548094 0.029310793
000350 e0 b1 93 bd cd 35 c6 bd 2d 2e f3 3c 38 a4 f7 3d
       -0.07211661 -0.096782304 0.029685104 0.12091869
000360 02 d4 f3 bc 7c bb f3 3d 0a e5 68 3d 8a 31 cb bc
       -0.02976418 0.11900994 0.056859054 -0.024803896
000370 bf e6 d4 bd 87 3f c5 3d 9b d6 a5 bd 8a 08 fe bc
       -0.10395574 0.096312575 -0.08097573 -0.031009931
000380 04 30 7b 3d 98 77 4a 3e 28 4e 30 3e c2 b4 10 3e
       0.06132509 0.19772184 0.17217314 0.14131454
000390 02 5c ad bc 7c 6b bf bd c0 f8 e5 bd 02 8e e1 3c
       -0.021162037 -0.09346673 -0.11229086 0.027533535
0003a0 7e 94 e5 3d ff bf 02 3e 8b 6e 79 3d 79 40 5b bc
       0.11209963 0.12768553 0.060896438 -0.013382071
0003b0 dd f8 9b bc 40 63 de bd ba 43 7d be c5 2e db bd
       -0.019039566 -0.10858774 -0.24732867 -0.1070228
0003c0 52 f0 df bc 97 00 0b bd c9 5f 85 bc bf 3c ce bc
       -0.027336273 -0.03393611 -0.016281025 -0.02517545
0003d0 84 1f e6 3d 4b cc a6 bd 5e 66 0c 3d 8c 66 5b bb
       0.1123648 -0.081444345 0.034277312 -0.003347787
0003e0 7c ea ba bc 32 66 8e 3c 6b 75 ad bd 92 df 8f bd
       -0.022816889 0.017382715 -0.08469661 -0.070250645
0003f0 ec 0e d4 3d d0 30 78 bd 3f 53 ff bd 3f 8b ca bd
       0.103544086 -0.060593426 -0.1246705 -0.0988984

lstm.weight_hh_l0 f4 [256, 64]
000000 fa be 5e bd 06 af 1a 3e ca 6e a8 3d 20 96 35 be
       -0.05438135 0.15105829 0.08224256 -0.1773305
000010 54 8e 3a be 2b b1 6b bd 80 22 00 be 1e 1f 06 be
       -0.18218356 -0.057542007 -0.1251316 -0.13097808
000020 57 96 b6 3b cf 76 e9 3d ff de 08 bd fa 1b c6 3d
       0.005572121 0.11399614 -0.03341579 0.09673305
000030 51 b3 94 bd a7 88 98 bd de 10 b1 3d 28 40 f5 bd
       -0.072607644 -0.07447939 0.08645795 -0.119751275
000040 f0 68 17 be 05 91 52 3d fe a5 01 3e 35 41 89 bd
       -0.14786124 0.051407833 0.12660977 -0.067018904
000050 ef 9b 93 3d 50 03 5f 3d 45 72 17 3e 3c 7b 6b 3e
       0.07207476 0.05444652 0.14789684 0.22996229
000060 97 67 3e 3e 2f 39 5f be fc a2 3c bd 73 c4 94 3d
       0.18594204 -0.21799158 -0.04605387 0.07264032
000070 c3 6b 40 3d a2 28 0d be af 09 a7 3d a5 ef 06 3c
       0.04697777 -0.13785031 0.08156144 0.008235847
000080 ea 24 b7 bd fa 08 18 3d 8a 76 92 be 27 8a 0e bc
       -0.08942588 0.037117936 -0.28606063 -0.00869993
000090 ee 3f 9a 3b 27 03 78 3d 3f 82 ee bd 0c 8d a1 3d
       0.004707328 0.06054988 -0.11645936 0.07888231
0000a0 f5 67 09 be 77 4b c3 bb c0 87 56 be 26 c0 8b bc
       -0.13418563 -0.005959924 -0.20950222 -0.017059397
0000b0 7c 72 d2 3d dd 7d 1a be e6 8f e2 bd 61 a5 ec bd
       0.102757424 -0.15087076 -0.11062603 -0.11554981
0000c0 f8 8a cc bc 6f b2 63 bd d2 77 92 bc f6 73 80 bd
       -0.02496861 -0.05559009 -0.0178794 -0.06272118
0000d0 b2 6d b9 3b f0 84 33 3e f0 53 bf bd ea e6 8b 3c
       0.0056588287 0.1753118 -0.09342182 0.017077882
0000e0 81 03 2a be a2 22 fd 3b bb 2e 25 3e d0 9a 3e bd
       -0.16602899 0.007725076 0.16131108 -0.04653436
0000f0 40 4d 43 be 74 bc 0b bd 77 a6 dd bd 00 07 79 bd
       -0.19072437 -0.03411527 -0.10822766 -0.06079769
000100 80 2a 60 37 3a a9 27 be c7 b8 26 be 0f 1e a5 3c
       1.3361336e-05 -0.16373149 -0.16281424 0.020155935
000110 29 ec 78 bd c6 95 4a 3d 8a 64 66 be 74 56 56 be
       -0.060772095 0.04945924 -0.2249929 -0.20931417
000120 5d 2f cc bc 3e 1b 09 3e 34 cb 5a 3d 15 f6 8a 3e
       -0.024924928 0.13389298 0.053416446 0.2714087
000130 09 be e5 3d a7 c3 49 be fe 54 a7 3c 0d 78 3b 3e
       0.11217887 -0.19703542 0.02042627 0.18307514
000140 c2 2f 62 be fe cc 1b bd e0 89 8b bd e6 a2 b4 be
       -0.2208853 -0.038037293 -0.06813407 -0.35280532
000150 fe 14 3d 3d e0 d9 2f 3e 02 6e cf 3c f0 e8 4a 3e
       0.046162598 0.17172956 0.02532101 0.19815421
000160 11 66 40 3e 4d 8b 07 bd 26 7d 8f 3e 40 28 4d bd
       0.18788935 -0.033091832 0.28025168 -0.050087214
000170 97 c6 fd bd d9 28 88 bb ee b3 9d 3e 31 ac 0f 3c
       -0.12391394 -0.00415526 0.30801338 0.008769081
000180 70 32 bc 3d 0a 4b ba 3d 7a e2 6f be 2f 74 7a 3e
       0.09189308 0.09096344 -0.23426238 0.24458383
000190 91 86 64 3d 03 6c 87 be f1 10 16 be ea af 43 3e
       0.055792395 -0.26449594 -0.146549 0.19110075
0001a0 27 b7 71 bc 71 06 42 bd 64 78 ce bd 62 3a 80 be
       -0.01475314 -0.047369424 -0.100815564 -0.25044543
0001b0 47 07 ff 3c 61 61 12 bc d2 85 8b bc d9 79 2d 3d
       0.0311314 -0.00893435 -0.017031584 0.04235253
0001c0 3e 7e b6 3e 19 fc c2 3d f1 e8 f6 3c d6 eb d1 bd
       0.3564319 0.0952074 0.030140372 -0.1025006
0001d0 6a 03 0f be 91 4c ec bd 7e 30 78 bd d1 c5 07 3e
       -0.13966146 -0.115380414 -0.06059312 0.13259055
0001e0 3d 0f 93 bd bf b9 98 bd 47 64 64 3e 0e 02 94 3d
       -0.07180641 -0.07457303 0.22303878 0.072269544
0001f0 b7 43 82 be 46 ce 3b 3d 3b e8 83 be 2a 6c 7a 3d
       -0.25442287 0.045851015 -0.25763115 0.06113831
000200 ed c7 c3 3d f6 19 3a be ac 21 85 3e d7 de 13 3e
       0.09559617 -0.18173966 0.26002252 0.14440475
000210 f9 43 25 be 90 25 68 be df f6 5e 3e cb ba f8 bd
       -0.16139211 -0.22670579 0.21773861 -0.12145003
000220 ff 8a 22 3d 5d 3a 83 bd 10 b6 6d 3d 23 07 fc 3c
       0.03968334 -0.06407616 0.058034956 0.030765122
000230 de 94 d9 ba 80 7f 38 bc 52 0b 80 be e3 20 15 3e
       -0.0016600152 -0.011260867 -0.25008637 0.14563327
000240 da d2 04 3e b7 e1 6c 3e d1 d3 82 3d 26 1e 92 3d
       0.12971058 0.23132978 0.06388057 0.071346566
000250 7f 3f 29 3e 7a a2 75 bd 4f 0d 80 3e 1b e5 73 3e
       0.16528128 -0.059969403 0.25010154 0.23817866
000260 22 3e 0e bd 08 8a 9c 3d ab ec 28 be 44 ce 87 3e
       -0.034727223 0.07643515 -0.16496532 0.26524556
000270 91 04 73 be 90 c9 b8 bd 5a 34 21 3e 48 45 d5 bc
       -0.2373221 -0.0902282 0.15742627 -0.026034012
000280 54 56 f9 bd c2 48 8a bd b9 58 8a bd 32 09 43 3e
       -0.12174669 -0.06752159 -0.06755204 0.19046476
000290 cb 06 06 3c 51 8b 6b 3e 38 26 12 3e b1 9c 0d be
       0.0081803305 0.23002364 0.14272392 -0.13829304
0002a0 a2 61 c2 bd 27 ea 49 3e 51 e4 eb bd c0 cc 9a bd
       -0.09491278 0.19718228 -0.11518157 -0.07558584
0002b0 7d 23 b0 bd 12 e9 c7 3c 1b 82 1c 3e f6 18 4c be
       -0.08600519 0.024403129 0.15284006 -0.19931397
0002c0 b9 51 7a 3e e9 45 c4 bd 50 ba 3d be 8f fa 12 3e
       0.24445237 -0.09583647 -0.18528104 0.14353393
0002d0 7e dd 9d 3c 87 46 82 bd 5b ac 05 3d dc 0c 43 be
       0.019270655 -0.06361108 0.032635074 -0.19047874
0002e0 d7 7e 9a bd 24 75 64 bd 92 10 c9 3d ee d5 43 3e
       -0.07543724 -0.055775777 0.09817614 0.19124576
0002f0 8f 1a 5a bc 27 5a 3a be 74 5e 3e 3d 2c f7 c4 3d
       -0.013311996 -0.18198453 0.046476796 0.09617457
000300 23 0a 8e 3d 8a a1 bd bd 30 cc 52 3e 5e 63 96 3d
       0.06935527 -0.09259327 0.20585704 0.073431715
000310 88 32 04 3e b5 1e 58 be 15 f7 2b 3e 77 cf 99 bd
       0.12909901 -0.21105464 0.16793473 -0.07510274
000320 0c 70 f1 bd db b1 5a be df e3 a8 bd 96 d3 b7 3b
       -0.11788949 -0.21356909 -0.08246588 0.00560994
000330 c3 40 a2 bd 0e cc 27 be 3c d9 03 be 50 f6 60 bd
       -0.079225086 -0.16386434 -0.12875837 -0.054922402
000340 3f 43 80 3d e3 ad 73 3e 8b 60 a7 bd 20 c0 1a 3e
       0.06262826 0.23796801 -0.08172711 0.15112352
000350 fc 27 73 3d 16 dc e1 3e c2 f9 8e 3e 3d f4 30 3d
       0.059364304 0.44113225 0.27924925 0.043201674
000360 72 74 ba 3c a0 fa 11 bd d2 71 0a be 25 e1 16 bc
       0.022760604 -0.035639405 -0.13519982 -0.009208952
000370 67 61 3c be 73 8b 01 be 90 d4 92 be 76 33 f0 3c
       -0.18396531 -0.12650852 -0.28677797 0.029321413
000380 62 c7 01 be bf bf 63 bd 44 59 24 bd d6 8b 1e 3e
       -0.12673715 -0.055602785 -0.040124193 0.1548303
000390 dc f2 ae 3c f6 2c 44 3e ae 55 a8 bd 35 d0 3e be
       0.021356039 0.19157776 -0.08219467 -0.18634112
0003a0 c9 fd 93 3c 71 33 67 3e b0 4f 48 be 69 b9 d2 3d
       0.01806535 0.22578217 -0.19561648 0.102892704
0003b0 f0 b0 82 3e 43 b0 1d 3e 97 d8 33 3e 31 ab 42 3d
       0.25525618 0.1539927 0.17563091 0.047526542
0003c0 19 5c 7f 3e 7f 0f 80 3d 5c a8 8f 3c 45 56 01 3d
       0.24937476 0.06252956 0.017536335 0.031576414
0003d0 61 4a 47 3d 96 58 4f be 2d 5d 41 3e ca 94 9d be
       0.048654918 -0.20248637 0.188832 -0.3077758
0003e0 98 12 d1 bc c9 f3 8f bd 87 f4 95 3d a3 0a 2c be
       -0.025521562 -0.0702892 0.073220305 -0.16800933
0003f0 b5 c9 41 3e 1d dd 82 be 65 61 76 3d 66 d5 a5 bd
       0.18924601 -0.2555932 0.060151476 -0.08097343

lstm.bias_ih_l0 f4 [256]
000000 c3 5c 0c 3d ca 4b 00 3d 00 bc 53 3d 75 d2 a1 bc
       0.034268152 0.031322278 0.051692963 -0.019753674
000010 47 4e a8 3d e0 00 f4 3d 42 a9 93 3d d5 5a 56 3e
       0.08218055 0.119142294 0.07210018 0.20933087
000020 9b d6 63 3e d1 17 a4 3d 38 ca d4 3d c2 40 09 3d
       0.22249834 0.08012355 0.10390133 0.033509023
000030 4b 04 0f 3e 53 10 75 3c 07 e0 2a 3d 32 c9 67 3e
       0.13966481 0.014957505 0.041717555 0.22635344
000040 fc 47 b7 3d df 56 09 3e 55 48 33 3e be 4c 2d 3e
       0.08949277 0.13412045 0.17508061 0.16923806
000050 72 49 80 bd c6 d4 1d 3d 0f 0a a3 3c 6c 19 33 3e
       -0.062640086 0.038532995 0.019902257 0.17490166
000060 45 44 3d 3d 19 5e 8e 3e b9 85 96 3d 8f fa 9e 3d
       0.046207685 0.27806166 0.07349724 0.07762634
000070 e3 12 3b bd 87 a5 c5 3d 14 bf 1e 3e 5e cb 3f 3e
       -0.04567231 0.096507125 0.15502578 0.18729922
000080 d0 54 77 3d ff 88 4f 3e 59 d0 4f 3d 72 e4 8a 3d
       0.060383618 0.20267104 0.050735805 0.06781854
000090 98 9d 70 3b e7 4f 04 3e 63 60 7b bd 15 42 97 3d
       0.0036715027 0.12921105 -0.06137122 0.07385651
0000a0 18 d4 b0 bc 1d b2 5f 3d 82 ea 2c 3d 58 2f 3d 3d
       -0.02158551 0.05461322 0.04221583 0.04618773
0000b0 57 80 20 3e 7f ee 54 3e 97 14 e8 3d fd 45 f0 3d
       0.15673958 0.20794104 0.11332052 0.11732099
0000c0 bb 48 39 3e c8 b7 6b 3e df 59 78 3d 42 3e 55 bd
       0.1809415 0.23019326 0.060632583 -0.052061327
0000d0 81 3a 00 3e 74 29 15 3e b0 d6 cf 3d 76 11 ac 3b
       0.12522317 0.14566594 0.1014837 0.005251105
0000e0 a6 86 6d 3b 98 97 10 3e a9 d1 4c bc c3 25 06 3e
       0.0036243587 0.14120328 -0.012501159 0.13100342
0000f0 9c fc 0f 3e e0 c9 29 3d 74 dd d7 bd 2a cc 84 bd
       0.14061207 0.04145229 -0.10540286 -0.06484254
000100 16 cb 2b 3e 1f d0 64 3c 27 12 a9 3d 3e 2d 15 bd
       0.1677669 0.013965636 0.082554154 -0.0364201
000110 1c 1b 40 bd f5 c6 95 3d a6 f6 a1 bd e0 7d f8 3d
       -0.046900854 0.07313339 -0.079083726 0.12133384
000120 41 8c 49 3d df a8 29 3e 85 db 58 3d e6 99 45 bd
       0.049206022 0.16568325 0.052943725 -0.048242472
000130 76 82 10 bd c9 13 05 3d d4 37 74 3d 46 46 42 3d
       -0.035280667 0.03248957 0.059623554 0.0474303
000140 5c 3d e1 bd a8 30 43 3e 4f 90 86 3e bd 37 21 bd
       -0.109980315 0.1906153 0.26281974 -0.039359797
000150 c3 3d c2 3c 3a 56 0a bd 2d 84 cc bc 42 88 e4 bd
       0.02371109 -0.03377364 -0.02496537 -0.111588016
000160 85 2d 72 bd 42 9e 36 3e ee 67 b0 bd 2c 54 1b 3e
       -0.059125442 0.17833808 -0.08613573 0.15168828
000170 74 ce e0 bc e5 e9 c4 bc ce 0f 0b bd af 07 2e 3e
       -0.027442195 -0.02403731 -0.03395062 0.16995119
000180 2c f2 33 3d 38 77 4a 3d de 61 3c bd d9 62 28 3e
       0.043932125 0.049430102 -0.04599177 0.16443957
000190 bc f0 44 bd 61 f0 a4 3d aa 39 9d 3d 5a 48 45 3b
       -0.048081145 0.08053661 0.07677014 0.003010294
0001a0 4f 1d 60 bd f8 18 b5 3d c6 c0 dc 3c d7 18 2e bd
       -0.05471545 0.08842653 0.02694739 -0.042504158
0001b0 80 06 db bc 88 78 17 3e ea ad d6 3d 90 8c 44 39
       -0.026736498 0.14792073 0.1048239 0.0001874438
0001c0 9d 6d 0b bd 5a 29 33 3d 78 b1 2d 3e 03 8e ea 3d
       -0.034040082 0.043740608 0.1696223 0.11452868
0001d0 f3 e0 37 3d 3e 23 d7 3d 81 07 95 3d 5f 87 69 bd
       0.044892263 0.10504769 0.07276822 -0.057013866
0001e0 43 56 09 3e 6c 6a 25 bd 66 7a 3a 3e dd 37 33 3e
       0.13411812 -0.040384695 0.18210754 0.17501779
0001f0 67 be 53 3d 46 34 b0 3a 14 ba 22 3d a9 bb 09 3e
       0.051695254 0.0013443313 0.03972824 0.13450493
000200 c1 17 09 3d 75 59 1c 3d a0 9c eb bd ed d1 aa bd
       0.03346992 0.03817125 -0.11504483 -0.083408214
000210 0c b5 e0 bd e7 b2 6a bd 67 32 94 bd 7f 0e 66 3c
       -0.10972032 -0.05729952 -0.07236176 0.014041542
000220 52 ac b9 3d cd 95 9d 3d 3c af 58 3d 36 ed 72 3d
       0.090660706 0.07694588 0.05290149 0.059308253
000230 bf 59 02 3e af 47 09 3e ca 67 bc 3c e3 df cd 3d
       0.12729548 0.13406251 0.02299871 0.10052469
000240 1f c6 ad bd de 18 3f 3d d6 70 77 3d 15 70 1f be
       -0.08485054 0.046654575 0.060410343 -0.155701
000250 e5 bf 13 be 8e bd 1e 3b ca 19 6e 3d 01 fb 9e 3d
       -0.1442867 0.002422187 0.058130063 0.07762719
000260 e4 d4 04 be 9b 02 ef 3d 92 47 df 3c 4a 2a 8c bc
       -0.12971836 0.11670419 0.027255807 -0.017110009
000270 fe 46 17 bc 3e fc b1 3d ed a5 d6 3d 6a 38 db 3b
       -0.009233234 0.086906895 0.104808666 0.0066900747
000280 67 0a 06 be d8 af 91 bc 0d 0c cd bd 8f e8 0a be
       -0.13089906 -0.017784044 -0.10012064 -0.13565277
000290 d4 a2 b3 3c 5e 97 b7 bc fd f0 0b be 35 bd d1 bd
       0.021928228 -0.022411045 -0.13666148 -0.102411665
0002a0 30 d7 1f 3e 21 a5 ee 3d 24 d6 03 be e3 92 a9 bd
       0.15609431 0.116525896 -0.12874657 -0.082799695
0002b0 bf c5 ee 3c b0 57 ad 3c e8 e1 a9 3d d3 62 89 bc
       0.029147027 0.021159977 0.08295041 -0.016770756
0002c0 0b 26 ef 3c 45 e0 24 be 37 dd bc bd d2 73 85 3c
       0.029192945 -0.16101177 -0.09221881 0.016290579
0002d0 00 af 70 3d 19 74 a9 3c df 14 7d bd 38 49 c4 bd
       0.058760643 0.020685242 -0.061787482 -0.09584278
0002e0 a5 cd 3d bd e0 23 b5 bd f8 e7 08 be 25 c3 e2 3c
       -0.046338696 -0.08844733 -0.13369739 0.027680943
0002f0 86 22 8b bd 2d 53 03 be c2 e7 43 3b 78 c0 36 3d
       -0.06793694 -0.12824698 0.0029892777 0.044617146
000300 0f f8 a9 3c 75 35 9b bc b0 cb 28 3e d3 2e a8 bb
       0.020748166 -0.018946389 0.1648395 -0.005132535
000310 42 70 84 3e 0d 6b 55 bd cc df 28 3e f9 be 72 3d
       0.25866896 -0.052104045 0.16491622 0.059264157
000320 6a 2c 19 3e e9 0d 04 3e 9c fc 25 3e bc 9d a1 3d
       0.14958349 0.12895931 0.16209644 0.078914136
000330 73 e2 5e bc f0 6b 8c 3d bd 49 31 3e 4b 09 c2 3d
       -0.013603794 0.06856525 0.17313285 0.09474429
000340 d8 f7 33 3e 76 25 fd 3c e7 bd bf 3d 17 cb 60 bd
       0.17575014 0.030901652 0.09362393 -0.05488118
000350 cf 59 8e bd 1b e1 bb 3d e4 26 8c 3c 73 af d9 3d
       -0.069507234 0.09173795 0.017108388 0.106291674
000360 d6 2e e8 3d 7b bb 62 3e bb 59 4c bd 72 72 d5 3a
       0.11337058 0.2214183 -0.04989026 0.0016284718
000370 44 c3 4f bd 3a de 04 3d 36 45 5d 3c d6 a7 2e 3e
       -0.05072333 0.032438494 0.013505271 0.17056212
000380 ea 5e 12 3e ff d8 89 3d 1b 7b 06 3d 79 f7 13 3e
       0.1429402 0.06730842 0.032832246 0.14449872
000390 8f 85 c3 3c 7b 79 9e bb da dd 65 bd d7 11 48 3d
       0.023867397 -0.004836259 -0.056119777 0.04884514
0003a0 9e f3 95 ba a5 b0 35 3e 7d 57 5e 3d e2 bb e8 3c
       -0.0011440401 0.17743166 0.054282654 0.028409902
0003b0 78 f4 1a 3c 43 11 8e 3e 26 db 57 3e 8d a3 9a 3c
       0.0094577 0.27747545 0.21079692 0.018876815
0003c0 15 1b 60 3e b0 35 46 3d 26 77 1a 3c 17 47 c3 3d
       0.21885331 0.048391044 0.009427821 0.09535044
0003d0 78 70 75 bd 6e 5d e7 bd c8 3d 74 3d 35 44 86 3e
       -0.05992171 -0.11297117 0.05962923 0.26223913
0003e0 6c b3 19 3e 82 d7 01 3e 31 dc 4a 3e f5 8f 83 3d
       0.1500985 0.12679866 0.19810559 0.06423942
0003f0 b1 09 8b 3d 39 f4 c5 bc 81 86 28 3e d3 83 39 3e
       0.06788958 -0.024164306 0.16457559 0.18116693

lstm.bias_hh_l0 f4 [256]
000000 4c 96 ac bc 8f 2e cb bd 6c 83 8a 3d 87 23 ce 3c
       -0.02106776 -0.0992099 0.06763348 0.025163425
000010 50 c4 03 3e 17 2a 18 3e 00 20 d3 3c 3b b8 53 3e
       0.12867856 0.14859806 0.025772095 0.20675747
000020 4b 27 dc 3d bb 5e d4 3d 9d 50 e4 3c 80 af 84 3c
       0.10749682 0.10369631 0.02787047 0.016196966
000030 45 a0 68 3d 09 cd 5b 3d 44 86 af bb 70 0f 6d 3e
       0.05679347 0.053662334 -0.005356582 0.2315042
000040 c4 87 c4 3d 6a 7e f4 3d d6 30 bb 3d 1a a2 85 3c
       0.09596208 0.11938174 0.09140174 0.016312648
000050 97 49 c4 bd e6 e9 ee 3d bc ce 44 3d 86 ed 2b 3c
       -0.09584349 0.11665706 0.04804872 0.010493642
000060 ec 15 7f 3e c4 11 47 3e d0 9f 8c bd ec c4 96 bd
       0.24910706 0.19440371 -0.06866419 -0.073617786
000070 19 18 2a bd ab 0f a4 bc 8a 14 e2 3d 59 13 16 3c
       -0.041526888 -0.020027002 0.11039074 0.009159886
000080 85 0c f2 3c cb be 78 3e 2b 83 58 3d f0 dd 54 3b
       0.029546985 0.24291532 0.052859467 0.0032480918
000090 f5 4d e8 bc 55 39 bb 3d db f0 26 bd 94 d3 10 bd
       -0.028357485 0.091417946 -0.04075704 -0.035358027
0000a0 b0 dc 6f bc e7 08 9d 3d 4e 49 f2 3d 31 04 12 3e
       -0.014640018 0.076677136 0.11830388 0.14259411
0000b0 33 92 09 3e bf f2 52 3d 31 91 56 bd da 59 2a 3e
       0.13434677 0.051501032 -0.05238456 0.16635838
0000c0 35 30 52 3e b7 a5 ef 3d e3 7c 46 3e d4 90 ed 3d
       0.20526202 0.117015295 0.19383578 0.115998894
0000d0 01 47 df 3d 5e 54 a0 3c 44 1c 9e 3d 17 1b 3c 3d
       0.10902215 0.01957148 0.07720235 0.045924272
0000e0 29 b3 dd 3d a6 98 ce 3d a0 67 ac 3c 10 f4 14 bc
       0.10825188 0.10087709 0.021045506 -0.009091392
0000f0 2a 03 95 3b 66 1a a5 3d 19 87 26 bc de 14 be 3d
       0.0045474963 0.08061676 -0.010164046 0.09281324
000100 1d a5 14 3b 4c 29 ab 3d 23 db 18 bd 3f d2 d5 3d
       0.0022681423 0.08357486 -0.03731836 0.10440492
000110 b6 83 ea 3d 67 5e f5 3d 43 bc 5f bd ec a0 20 bc
       0.11450903 0.119808964 -0.0546229 -0.009803992
000120 0a 6f 9f 3a c4 59 e7 3b dc a3 bc 3d 4c 0f 16 bd
       0.001216383 0.0070602614 0.09210941 -0.036635682
000130 77 b6 d4 3d 35 c6 94 3d 44 36 06 3e b3 e0 bb 3d
       0.10386365 0.072643675 0.13106638 0.09173717
000140 e2 35 05 bd 88 7a 45 3d 86 2d 82 3e f0 b4 99 bd
       -0.03252209 0.048212558 0.25425357 -0.07505214
000150 27 3f f7 3c de 40 e8 bd 1e 07 0f 3c c0 62 ed bd
       0.03018148 -0.113404974 0.008729724 -0.11591101
000160 26 14 28 be 5f e8 25 3e 46 d8 89 bd 9c 50 62 3d
       -0.16413936 0.16201924 -0.06730704 0.055252656
000170 0c ee cf 3d 13 29 2b 3d 52 45 ab 3d d1 2b c0 bb
       0.10152826 0.04178722 0.08362831 -0.0058645983
000180 35 f6 14 3e 4c 31 c8 3d 3b d6 d5 bd b5 86 14 bd
       0.14547046 0.09775028 -0.10441252 -0.03626128
000190 b9 0e 10 3e e7 26 03 3e b6 82 9f 3d 16 5d 3e 3d
       0.14068116 0.12807809 0.07788603 0.046475492
0001a0 42 f7 6f 3d e5 f1 0f 3e 97 15 68 3d 7e 4c 41 bc
       0.058585413 0.14057119 0.056661215 -0.011798022
0001b0 47 16 db 3d ce 80 5d 3e cd c1 4d 3d 8c 91 b7 bc
       0.106976084 0.21631166 0.05023365 -0.02240827
0001c0 37 78 b5 bd 9c 50 45 3d 32 e8 21 3e df cb a1 3d
       -0.0886082 0.04817258 0.15811232 0.079002135
0001d0 e7 2a 4e 3d 97 58 04 3e 83 05 b9 3d 10 95 9b bd
       0.050333884 0.1292442 0.090342544 -0.07596791
0001e0 e2 3e 1e 3e c0 bb c2 3d 22 09 ef 3d 2c d2 40 3e
       0.15453675 0.09508467 0.11671664 0.18830174
0001f0 6b 3d 57 bd 47 2b 25 3e 61 fb f2 bc 10 32 23 bd
       -0.052548807 0.1612979 -0.029660882 -0.039842665
000200 f4 03 30 3d 11 70 bb 3d c1 42 81 3d 59 be c5 3d
       0.04297252 0.09152234 0.063115604 0.096554466
000210 ca 6c 0f 3d 03 c6 6d 3d ad 85 dc 3d 2b 47 bf 3d
       0.03501586 0.058050167 0.10767684 0.09339746
000220 ea 88 42 3d 3f b9 08 3d 75 df c1 bd be 99 46 3d
       0.047493853 0.03337979 -0.09466449 0.048486464
000230 64 03 86 bd 71 d0 14 3d 6d e6 f4 bd 80 d6 01 be
       -0.065436155 0.036331598 -0.11958013 -0.12679482
000240 cf da f1 bc 5a cc 13 be 08 62 4f 3d 4e 12 d3 bb
       -0.029523281 -0.14433423 0.0506306 -0.006441391
000250 31 52 94 bd 84 48 0c 3e 32 4c 76 3d 2b 79 48 3d
       -0.07242239 0.13699538 0.06013126 0.04894368
000260 6c 0f c8 bd bd 7d d2 bd b1 7f 05 bc 44 13 bf 3d
       -0.097685665 -0.10277889 -0.00814812 0.093298465
000270 95 8e ae bd b6 e3 a7 bd bd 12 55 3d 38 4d 27 3d
       -0.08523289 -0.08197729 0.052019823 0.040845126
000280 ad ff 36 3d 38 09 6e 3c 92 57 8f bc 12 5f 74 bd
       0.044677425 0.014528565 -0.017497811 -0.05966098
000290 c2 9e c4 bc a3 df b3 3d 97 48 f2 bd bc c9 e9 bd
       -0.024001483 0.0878289 -0.11830252 -0.11415431
0002a0 1b 2a c0 3c b2 22 c0 3b 3d 36 a2 3c 5e 7b e0 3c
       0.023457577 0.005863511 0.019801253 0.027402576
0002b0 d7 a7 97 3d 56 d6 1d 3b c5 d5 09 3e b8 a1 84 bd
       0.0740506 0.0024084053 0.13460453 -0.06476158
0002c0 7b 6b f4 bd 9d 11 e3 bd 3c 3e 05 3e 58 36 ed bd
       -0.11934563 -0.11087344 0.13012022 -0.11582631
0002d0 6f 8a 46 bd d8 ce 43 bc 2f 13 db bd b2 95 e6 3a
       -0.048471864 -0.011951171 -0.10697018 0.001759222
0002e0 ee 96 a8 bd 24 54 aa 3d 7d a1 8d 3d 2f b2 0b 3d
       -0.082319126 0.0831683 0.06915567 0.034105476
0002f0 f8 1f 9f 3d be e9 7e 3d 8c 77 7a 3c df 06 81 bc
       0.077697694 0.062234633 0.015287291 -0.015750347
000300 c9 7c f6 3c d7 14 2c 3d 69 21 e5 3d 3a 61 f0 bc
       0.0300888 0.042012062 0.11188013 -0.029343236
000310 7f 61 69 3d 65 83 11 3d a4 2b 4e bc d5 e5 0f 3d
       0.056977745 0.0355257 -0.012583647 0.035131294
000320 8a 3f ba 3d 84 b7 03 3d c6 77 3d 3e a9 81 32 bc
       0.0909415 0.032157436 0.18502721 -0.010895171
000330 a2 c4 64 bd f8 0e c6 3d 28 3f ae 3d 4d f3 69 3e
       -0.055851586 0.09670824 0.0850814 0.22846718
000340 5c 4a 31 3e 56 44 bc bc e7 cf e7 bd e7 46 e5 3d
       0.17313522 -0.022981804 -0.11318951 0.11195164
000350 d0 3f b3 bc 88 be 22 3e 5e b7 2d bc c3 07 7e 3e
       -0.021881014 0.15892994 -0.0106028 0.24807648
000360 ed 37 e9 3d 8c fe b6 3d b5 5e 88 3b 40 56 03 3e
       0.1138762 0.0893527 0.0041616806 0.1282587
000370 a4 7d d2 3d 8d ba 9d bd 8f 65 9b 3c 75 ff 8f 3c
       0.1027787 -0.07701597 0.018969325 0.017577866
000380 02 08 da 3d c3 ea 4d bd ea 7c 5b bc a5 3a a9 3d
       0.106460586 -0.050272714 -0.013396481 0.08263139
000390 48 a2 c4 3d 39 af cb 3c 97 2f c2 3d f3 27 4a 3e
       0.09601265 0.024863826 0.09481733 0.19741802
0003a0 64 5b 0e 3d 39 53 63 3e 00 fd c5 3d c7 68 bc 3d
       0.034755126 0.22199716 0.096673965 0.09199672
0003b0 7e 80 52 3d 2f 7f 8d 3e 3e 6e 3c 3e d6 e4 77 bc
       0.05139207 0.27636096 0.18401429 -0.015130242
0003c0 2f 53 1a 3e 21 00 c2 bc 37 8e e2 bb 39 db 8f bc
       0.15070795 -0.023681702 -0.006913926 -0.017560588
0003d0 45 d6 1e 3d 0d 0c 08 bd 3a bc 23 3d 33 49 89 3e
       0.038778562 -0.033214618 0.03997443 0.2681366
0003e0 ee 03 9c 3d fe 20 95 bd 1d 3c 95 3d d8 2a 8e bd
       0.07617937 -0.072816834 0.07286856 -0.069417655
0003f0 2e 23 c8 bb 76 84 fa 3d de 90 ce 3d bd 7e 25 3d
       -0.0061077094 0.12232296 0.10086225 0.04040407

lstm.weight_ih_l1 f4 [256, 64]
000000 bc 50 c9 3d 7a f4 0d be ee 85 09 3e e2 d2 43 be
       0.09829852 -0.13862792 0.13429996 -0.19123414
000010 b5 71 0e be cf 10 99 bd ad 95 4a bd f5 61 e9 3d
       -0.13910563 -0.07473909 -0.04945915 0.11395637
000020 da a9 b0 bc f0 53 2d be be 68 a3 bd 4f 24 09 3e
       -0.021565367 -0.16926551 -0.07978962 0.13392757
000030 3c c0 a6 3d 2c 9a b7 bd af 74 25 3d 14 28 81 3d
       0.081421345 -0.08964953 0.04039448 0.063064724
000040 ed 6d 87 3d d3 d1 1b 3e c6 3b 7f 3d 25 5e a0 bc
       0.066127636 0.1521676 0.062312864 -0.019576142
000050 2d d7 b5 3d 28 33 46 bd f6 f7 c9 bb ce 4a 85 3e
       0.08878932 -0.04838863 -0.0061635925 0.26033634
000060 d9 90 15 3e cb 34 4f bd f0 b1 17 3e 1a dc 03 3b
       0.14606036 -0.050587457 0.14813972 0.0020120204
000070 cf 34 1b bd da 9f ec 3c 82 81 ab 3d f2 b1 17 3e
       -0.03789216 0.028884817 0.08374311 0.14813974
000080 30 8e 82 bb b1 87 66 bd 24 92 91 3d 0a 26 3e 3d
       -0.003984235 -0.05628175 0.07107952 0.046422996
000090 a8 0c 6f 3b 5a 63 b8 3d 44 d7 fe 3d 73 f2 b3 3d
       0.003647605 0.09003325 0.124434024 0.08786478
0000a0 d5 f9 34 bc 4d ef 12 3e 00 93 21 3e 2b 19 97 3d
       -0.011045893 0.14349099 0.15778732 0.07377847
0000b0 90 fc c6 3c 2d 17 c9 3d ae 50 df bd eb 88 81 be
       0.024290353 0.098188736 -0.1090406 -0.25299773
0000c0 d3 c3 85 3d fb c8 a7 3d 23 ea 39 be f7 fd f4 3d
       0.06531491 0.08192631 -0.18155722 0.119625024
0000d0 1a c6 93 bc d2 38 9f bc fd 79 a8 bd 2f 08 1b bd
       -0.018038798 -0.019436274 -0.082263924 -0.0378496
0000e0 a0 1e ee bd 5d c7 26 bd c1 61 23 3e 4f cb 80 bd
       -0.11626935 -0.04071747 0.15955259 -0.06288778
0000f0 6f b0 ea 3c 10 1a d3 bd 8b 2a 3e bd a7 9a 90 3e
       0.028648583 -0.103077054 -0.04642729 0.2824299
000100 14 81 cc 3c 35 b9 12 3e f0 37 19 bc 65 45 64 bd
       0.024963893 0.14328463 -0.009351715 -0.055730242
000110 6d 36 9a bd c8 0e cd 3d 6b 3c 26 bc 65 b6 61 3c
       -0.07529912 0.10012585 -0.010146241 0.013776396
000120 07 82 04 be a8 af b6 bb a5 d8 80 bb 5a 4f 00 3e
       -0.12940226 -0.005575139 -0.003932076 0.1253027
000130 4e ab e6 3d cb 02 1e bc b4 61 c1 3d a6 30 84 bd
       0.112631425 -0.009644221 0.094424635 -0.064545915
000140 cb 6d 54 be 16 ab bd bc 5d 48 6c 3e 57 69 af bd
       -0.20745008 -0.02315287 0.2307448 -0.08565014
000150 96 55 0d be e0 93 fc 3d b9 72 23 3e cd 9b 78 bd
       -0.1380218 0.123328924 0.15961732 -0.06069546
000160 a9 f2 ba bd 13 85 2f be 88 48 1e be b5 07 1f bd
       -0.09128315 -0.17140608 -0.15457356 -0.03882571
000170 76 97 9d b9 1b f9 c1 3d 2a f7 80 bd 9c ab 1a 3c
       -0.0003005822 0.09471341 -0.06297143 0.009440329
000180 69 06 ed 3d 91 d0 a5 bc a2 91 75 bd 23 0c c0 3d
       0.11573488 -0.020241054 -0.05995334 0.09377315
000190 03 53 42 3d 7e f1 04 bc 88 35 f8 bd 19 07 a6 bd
       0.047442447 -0.008114217 -0.12119585 -0.081068225
0001a0 bf 50 5a bc 30 be 85 bc c6 5a 4a be ae e8 5a 3d
       -0.013324915 -0.01632604 -0.1976119 0.053444557
0001b0 9e 8e 28 be 2f 60 63 3d 79 06 79 3d 30 49 8a 3d
       -0.16460654 0.05551165 0.06079719 0.06752241
0001c0 23 59 5d 3e de 01 04 3e 28 ff 5d 3e d5 08 a2 3c
       0.21616034 0.12891337 0.21679366 0.019779602
0001d0 a0 f9 fa bd b5 56 d6 3d db d9 93 bd 0b 8e 00 be
       -0.122546434 0.10465757 -0.07219287 -0.12554185
0001e0 e5 f1 b1 bd d3 11 07 3b a3 f3 52 bd 25 86 42 bd
       -0.08688716 0.002060999 -0.05150188 -0.04749121
0001f0 95 dc 33 3d f2 8a 39 3d f8 0f 20 be 9f ec 30 bd
       0.043911535 0.045298524 -0.15631092 -0.04319441
000200 d6 25 42 bc a6 60 d1 3d 6d 97 8e 3d e3 bc b0 bd
       -0.011849841 0.10223512 0.06962476 -0.08629777
000210 97 e7 76 3d b0 65 62 bb 93 75 01 3e ff 50 32 3e
       0.060279455 -0.0034545474 0.12642507 0.1741371
000220 b5 e7 52 3d 3a e5 70 3d 54 bd ed bd 2e 9d 37 3d
       0.051490504 0.058812357 -0.11608377 0.044827633
000230 c9 3e 88 3d 0e 49 f7 3a c4 3b 4a bd 3e c1 35 be
       0.066526 0.0018866376 -0.049373403 -0.17749497
000240 99 6e 20 3b 4c 4c a8 3b cd df 27 be bb 84 3e 3c
       0.0024479984 0.0051360484 -0.16393967 0.011628325
000250 c3 ae d1 3c 78 29 eb bc 6e 3c d4 bb 84 98 34 bd
       0.025596028 -0.028706297 -0.0064769303 -0.044090763
000260 ac f3 5a bd e8 63 3c 3e 89 f9 27 3d 53 4a c8 3d
       -0.05345504 0.18397486 0.04100946 0.09779801
000270 ec 5d ca bd dc 74 ec bb a6 16 af 3d ff d6 cf bb
       -0.098811954 -0.007216079 0.08549242 -0.006342768
000280 74 b6 12 bd 21 47 25 3b da c3 d9 bc f1 73 93 bd
       -0.035818532 0.0025219398 -0.026582647 -0.071998484
000290 99 71 16 be ea bf 5e 3d 3b 34 63 bd b1 12 28 be
       -0.14691772 0.054382242 -0.055469733 -0.1641338
0002a0 25 05 07 bc 73 5f 13 bd c4 8a 89 bd 27 06 11 3e
       -0.008240973 -0.0359797 -0.067159206 0.14162503
0002b0 2c a0 0a 3e ff 2d 0e 3e 7b 7f 2f 3e b7 ba 1e be
       0.13537663 0.13884734 0.17138474 -0.15500914
0002c0 dd 1c 47 3e af 52 b9 bc 0f ab 2d bc 59 40 b1 bd
       0.19444604 -0.022622434 -0.010599866 -0.086548515
0002d0 ce 37 00 3d d8 ee d5 3d 35 d5 ef bd 6a 83 97 bd
       0.03130322 0.104459465 -0.11710588 -0.07398112
0002e0 62 7c ea bd 43 a4 0c 3d 85 72 39 bd cd 31 b6 3d
       -0.114495054 0.03433634 -0.04527523 0.088962175
0002f0 7c 63 d7 bd 0d 0a 90 bd 94 cc 6d 3b cb ae e7 bc
       -0.10517022 -0.07033167 0.0036285268 -0.02828159
000300 df 48 54 bd 3b ae 11 bd 6d e5 42 3c 70 4b ea bd
       -0.051827308 -0.03556655 0.01189552 -0.1144017
000310 cf f6 89 bd 44 15 f0 bd ba 56 06 be cc f7 f4 ba
       -0.06736528 -0.11722806 -0.13119021 -0.0018689572
000320 eb f1 cb bc 01 7d f1 bd f2 20 4a be 14 8f c5 3d
       -0.024895629 -0.11791421 -0.1973913 0.096464306
000330 32 1f d3 3d 1c fc 2c be c7 21 18 bd 39 0b c8 3c
       0.103086844 -0.16893047 -0.037141588 0.024419414
000340 9a 1b 30 3e 52 80 70 3e 4f d6 50 ba 9d 57 6b 3d
       0.17198029 0.2348645 -0.0007966505 0.0574566
000350 45 21 4e bd d5 78 06 be cc 44 f9 bd d5 32 34 3e
       -0.050324697 -0.13132031 -0.12171325 0.17597516
000360 62 20 36 3e 73 b0 18 3e 2d 5a 2a 3d 62 18 ae bd
       0.1778579 0.1491106 0.041589905 -0.085007444
000370 61 a2 f1 bd 6a 81 43 3d 03 9e 95 bc 46 91 01 3e
       -0.117985494 0.04773084 -0.018263822 0.12653074
000380 86 e3 81 3d 9f 6c 67 bd bc ba 71 be 7c 3e 76 3c
       0.06342225 -0.056500074 -0.2360639 0.015029546
000390 62 ad 9b 3d fe 1b 32 3c 02 47 33 3c f7 5e f3 bc
       0.076014295 0.010870932 0.010942223 -0.029708369
0003a0 31 82 02 be 7a 41 e1 3d e0 dc 9b bd 39 eb d7 bc
       -0.12744977 0.10998817 -0.07610488 -0.02635728
0003b0 09 a4 8b 3d 54 32 b0 bc ad f5 94 bd 0e 7f 8f be
       0.068183966 -0.021508373 -0.072734214 -0.28026623
0003c0 72 97 d4 3d 89 f6 38 3d 18 dc 22 be 8d 4d c2 3d
       0.103804484 0.04515699 -0.15904272 0.09487448
0003d0 b0 35 05 be fc c9 f3 3c a0 94 f0 3c ce 24 be bd
       -0.13008761 0.0297594 0.029367745 -0.09284364
0003e0 55 c8 91 3b c6 2f 96 3d 8c 57 81 3d 91 76 c2 3c
       0.0044489303 0.07333331 0.06315526 0.023738177
0003f0 e8 87 c7 3d 12 11 2d 3c 9a fd de bd d1 40 4e 3e
       0.09742719 0.010563152 -0.108882144 0.20141913

lstm.weight_hh_l1 f4 [256, 64]
000000 c4 1a b0 bd c1 ff 22 bd db 9f b8 bd c9 8e aa 3c
       -0.08598855 -0.039794687 -0.09014865 0.020820038
000010 8b c1 24 3e cd b1 09 bd d3 d5 ef bd 51 03 88 3d
       0.16089456 -0.03361683 -0.117107056 0.066412576
000020 24 8e 84 3d e9 ae c5 3d 49 dc d9 3c c8 cd 22 be
       0.06472424 0.09652502 0.026594298 -0.15898812
000030 7c 60 03 be bb 19 88 bd 23 7d 4d bc 17 b0 d4 3c
       -0.12829775 -0.06645533 -0.012542042 0.025962872
000040 6f 6c 30 bc 02 be ac bd f5 58 8b bc 3a a9 bb 3d
       -0.01076804 -0.084346786 -0.017010191 0.09163137
000050 04 97 d6 bc 74 f2 f6 bd 16 c5 02 be d1 32 43 bd
       -0.026195057 -0.12057963 -0.12770495 -0.047655884
000060 43 81 57 3d ce 52 0a 3c 14 1d 0e 3e f1 e3 1e 3e
       0.052613508 0.008442594 0.1387828 0.1551664
000070 30 d6 90 3c 4c b1 bc 3a 58 9e db 3d b0 33 0e 3d
       0.017680258 0.00143961 0.10723561 0.03471726
000080 1a f8 5a bd 30 66 0f 3e a1 03 0b be c3 07 04 3d
       -0.053459264 0.14003825 -0.13575603 0.032233965
000090 fc a4 94 3d e9 41 f6 bd 9b ef eb bd 30 d9 10 bd
       0.07258031 -0.1202429 -0.115203105 -0.035363376
0000a0 63 2e 49 3d e0 ce a3 3d 53 b7 02 3e bb 32 cd 3d
       0.049116503 0.07998443 0.12765245 0.10019442
0000b0 79 b5 13 be 5d 4f 1d bd 78 aa b3 3d 70 1d 58 3e
       -0.14424695 -0.038405765 0.08772749 0.2110498
0000c0 eb 2b 98 3d ea 8c b8 3d bb 40 46 3d 5f 7a c4 bc
       0.07430252 0.09011252 0.048401576 -0.023984132
0000d0 6a 5b 30 3e b5 6d e5 3c 88 f8 a9 3d 5a 3e 91 bc
       0.17222372 0.028006414 0.08299357 -0.017729927
0000e0 1a 6c ba bd 30 b3 6f bc b9 7f a8 bd ae a8 ac bd
       -0.0910265 -0.014630124 -0.08227486 -0.084306106
0000f0 c3 1b 8c bd 88 2f 0b 3d 9c 9b da 3d 8b 2a f0 bd
       -0.06841233 0.033980876 0.106742114 -0.117268644
000100 cc 92 cc bd 7e 54 f7 bc 14 15 49 3e ad 2f 83 3c
       -0.09988937 -0.030191656 0.19636947 0.016013945
000110 b7 e8 2a 3e 6b 1c 49 be 65 42 f0 bd 2d 28 4e 3c
       0.16690336 -0.19639747 -0.11731414 0.012582821
000120 42 d3 a2 3c 8e f5 11 be 1e 21 93 bd bb 43 0d 3d
       0.019876126 -0.14253828 -0.07184051 0.03448842
000130 0f fe 3f bc af 02 c1 3d dc 58 4a 3e 06 0b 94 bd
       -0.011718287 0.0942434 0.1976046 -0.07228665
000140 14 3d 89 3d da 92 27 3e 84 36 31 3d 0d 63 bc bd
       0.06701103 0.16364613 0.04326488 -0.0919858
000150 b8 3f ad bd 16 f0 28 3e e3 d2 52 bc 46 c2 12 3e
       -0.08459419 0.16497836 -0.012867662 0.14331922
000160 60 84 e7 3c 5f 81 6e 3d 4f 1a 32 3d f7 82 d0 3d
       0.028261364 0.058228847 0.04348212 0.101812296
000170 19 aa be 3d 63 db 4d bd 9c 46 36 3d 19 5e 9d 3d
       0.09309787 -0.05025805 0.044500932 0.07683963
000180 7c 21 ed 3c 77 f3 08 be a7 b0 a6 3d 5c 74 47 3d
       0.02894663 -0.13374124 0.081391625 0.048694953
000190 9d c3 aa 3c d9 63 57 3c a5 f1 d2 3c d8 a9 6f 3d
       0.020845229 0.013146364 0.02574999 0.058511585
0001a0 af eb ba 3b 8a 65 bf 3d 64 79 21 3c a3 01 ec bd
       0.005704365 0.09345539 0.009855602 -0.1152375
0001b0 5d ac d9 bd ac 85 72 3c 08 92 91 bc d4 2d bf bd
       -0.10628579 0.014802378 -0.017769828 -0.09334913
0001c0 96 ea aa 3d 1f ef 71 bc 05 9c 04 3e 31 75 08 be
       0.08345525 -0.014766484 0.12950142 -0.13325955
0001d0 5e b2 29 3c 8b 2c 61 bd f7 1e 95 bd c1 47 13 bd
       0.010357467 -0.05497412 -0.07281297 -0.0359571
0001e0 c7 73 c2 3c 45 7d 36 bd d2 a3 ad bc 80 8d fc 3d
       0.023736848 -0.04455306 -0.02119628 0.123316765
0001f0 e1 ed 60 3d 22 b9 c1 ba fd 67 9b 3d b3 d5 b2 bc
       0.05491436 -0.0014779905 0.075881936 -0.021830415
000200 bb d2 f3 3b 34 25 67 3d b2 4a 2e be 81 51 05 3e
       0.0074408925 0.056431964 -0.17020682 0.13019373
000210 e4 80 b0 3d 8c 37 c0 3b c8 3e 19 3e 76 b5 84 bd
       0.08618334 0.0058659967 0.14965355 -0.064799234
000220 f2 23 17 3e 8b 2e 05 ba 34 09 cb 3c 84 66 fd bd
       0.14759806 -0.0005080483 0.024784662 -0.12373069
000230 a6 15 87 3d 8b 1b 5b bc c0 cf 0d be c0 4f a2 bd
       0.06595926 -0.013373266 -0.13848782 -0.07925367
000240 b4 02 90 bc c9 90 06 3e f9 89 b6 bc d7 65 f0 3c
       -0.017579414 0.13141169 -0.022282587 0.029345436
000250 b1 f3 e3 3d ed 49 11 be 8f 4a 47 bd ef 2c c4 bd
       0.11130465 -0.14188357 -0.04865509 -0.09578883
000260 78 f2 20 be 35 76 93 bd 51 ce 40 bd fb fb 90 3c
       -0.15717494 -0.072002806 -0.04707176 0.017698279
000270 59 1b eb bd d0 43 89 bd 02 87 e3 bd ef fc 04 be
       -0.114798255 -0.06702387 -0.11109735 -0.12987112
000280 15 21 09 bd f5 34 e5 bc a7 d8 03 3d 75 b6 82 3d
       -0.033478815 -0.027979353 0.032189038 0.06382457
000290 21 13 6e 39 8a 54 20 3c 68 f0 21 be c2 0a 7a 3d
       0.00022704575 0.009785781 -0.15814364 0.061045416
0002a0 28 8b 54 bd 15 04 55 bd 55 0c 0a 3e e4 c1 cb 3d
       -0.051890522 -0.052005846 0.13481267 0.09949091
0002b0 3d 4e 3f bd 87 92 ab bc 59 5f bf 3c 29 88 b5 bd
       -0.046705473 -0.020943893 0.023360895 -0.08863861
0002c0 1c 46 19 3e 5c 14 94 bd 08 29 5c 3d 6c 16 17 3e
       0.14968151 -0.07230446 0.053750068 0.14754647
0002d0 e2 f4 0d 3d d9 de d4 3d e9 78 1a bd 4c 7f 6c bd
       0.034657367 0.10394067 -0.037712965 -0.057738587
0002e0 1a da fe bb d9 78 ad bd f4 af 3d be d8 d6 20 bc
       -0.0077774646 -0.084703155 -0.18524152 -0.009816848
0002f0 c0 a3 64 3d 60 54 ce 3d 6e 96 ee 3c cc 87 05 3e
       0.055820227 0.10074687 0.029124465 0.13040084
000300 e4 89 c3 3d 56 b1 d6 bd 7b 72 f7 bd 2e 63 e8 3d
       0.09547785 -0.10483043 -0.12082382 0.11347042
000310 72 52 42 3d 74 e0 ee bc 7a 14 42 bd 79 1d 92 3d
       0.047441907 -0.029159762 -0.04738281 0.07134528
000320 2d 3e 92 3d a6 ae c7 3d fd c7 4c 39 ee 01 06 bd
       0.07140765 0.097501084 0.00019529457 -0.032716684
000330 f9 90 43 bb dc 28 cb 3d 79 4f fa 3c 39 1b 87 3d
       -0.002984105 0.09919903 0.030555474 0.06596989
000340 8a 9e 3d be d1 2e b4 bd ab 33 f1 3d 8e a7 d8 bd
       -0.18517509 -0.08797992 0.11777433 -0.105788335
000350 18 be 31 be 53 b5 89 3d 55 7c 17 be 87 0b 54 be
       -0.17357671 0.06724038 -0.14793523 -0.20707522
000360 82 ad 96 bd 2e b7 d8 3d 46 3d bf 3c 8c 58 bd 3c
       -0.07357313 0.10581814 0.023344647 0.023113512
000370 f0 da cf bd ec fc e7 3b 3c 86 3f 3d 9f 25 df bd
       -0.10149181 0.007079711 0.046758875 -0.108958475
000380 66 f8 33 3e 06 fb 36 3d dc a8 69 3d 80 f1 fa 3c
       0.17575225 0.04467299 0.057045802 0.030632734
000390 69 87 12 be 40 1b 29 3b f6 9d 60 be af 8e c5 bd
       -0.14309467 0.0025803596 -0.21935257 -0.09646355
0003a0 5d 74 0d 3c 82 7c 9a bd 58 9e 35 3e e3 3f 6d bd
       0.0086337 -0.07543279 0.17736185 -0.057922255
0003b0 0f 75 65 3d 5e 15 77 bc 94 92 ba bd 06 f8 b3 3c
       0.05601984 -0.015080778 -0.09109989 0.021968853
0003c0 a7 34 37 3d e6 07 8d 3d 0a 14 f2 3d 70 2e 86 3d
       0.044727948 0.06886272 0.118202284 0.06551826
0003d0 da f1 2c bd 46 54 94 3d b0 17 b2 bd 1b bf 49 3d
       -0.042222835 0.072426364 -0.08695924 0.049254518
0003e0 35 e4 0b 3e 61 17 0b 3d 31 70 25 bd 4c 48 60 3c
       0.13661273 0.033957843 -0.040390197 0.013689112
0003f0 20 a5 21 bd 05 a7 dd bd ed 82 90 bd 4a 50 9b bb
       -0.039464116 -0.10822872 -0.07056222 -0.004739796

lstm.bias_ih_l1 f4 [256]
000000 bf 6d a2 bc 29 d7 c2 3d 47 7e 01 3e 12 74 e1 bd
       -0.019827722 0.09513695 0.12645827 -0.11008467
000010 b0 b8 40 3d 91 e5 6f 3d 47 e2 90 3d 18 22 3c bd
       0.04705113 0.05856854 0.07074409 -0.04593095
000020 3d 9d 2a bd af 94 b1 bd cb 7a d1 3c dd 45 98 bd
       -0.04165386 -0.08670937 0.025571248 -0.074352
000030 d0 21 8f 3d 7e af 49 bd 8e 01 30 bc ff 1b fa 3c
       0.06988871 -0.049239628 -0.010742558 0.030530928
000040 7b 26 e8 bc 8c 2f d3 bd 6e f4 95 3d f1 82 16 3e
       -0.028338661 -0.10311803 0.07322012 0.14698388
000050 2d 33 0b 3c f3 5c 80 3d 62 8c 27 bd 51 13 1a 3d
       0.008496088 0.06267729 -0.040905364 0.037616078
000060 2f bb 30 bd cc 8c 08 3e 5f 81 0c 3d 77 91 ce bd
       -0.043147262 0.1333496 0.034303065 -0.10086339
000070 c6 ca 33 3d 61 e4 40 3d 72 fe 1d 3c 27 10 89 3d
       0.04389455 0.0470928 0.009643184 0.06692534
000080 99 96 6d 3d 2a 42 51 bd 60 d1 e5 3d 42 fc cf 3c
       0.05800495 -0.05108849 0.11221576 0.02538884
000090 cd b9 35 bd 97 1a 94 3d db a7 b1 bc a4 d5 3d 3e
       -0.044366647 0.07231634 -0.021686485 0.18538529
0000a0 b7 35 17 bd dd ab 5b bd 67 cf 49 bd 4f 56 ea bc
       -0.03691646 -0.0536307 -0.04927006 -0.028605608
0000b0 f4 c3 94 3d e6 da 31 bd 4f 0d f4 3c 54 33 02 3e
       0.072639376 -0.04342165 0.029791502 0.12714893
0000c0 c5 ed ea bd e0 27 a1 3d 94 a5 d5 bd 80 0c a4 3d
       -0.11471132 0.07868934 -0.10431972 0.08010197
0000d0 4a 6a 6e 3c 63 ce a7 bd 1b 22 90 3a 15 55 48 3e
       0.0145517085 -0.08193662 0.0010996492 0.19563706
0000e0 fe cc 8f 3d cf 52 f4 bc 9e a0 85 3d 13 83 c8 3d
       0.07021521 -0.029824642 0.06524776 0.097906254
0000f0 b7 a9 fe bd 6c b2 f0 bd 8e 41 ea bd 32 8a 0e 3e
       -0.12434714 -0.11752781 -0.11438285 0.13919905
000100 57 c1 fc bd fb b0 6a bc dd 12 dd 3d f9 57 60 bd
       -0.12341564 -0.014324422 0.107946135 -0.054771397
000110 2a 03 dc 3c b8 45 00 3e d0 81 79 3d f9 69 78 3d
       0.026856977 0.12526596 0.060914814 0.06064794
000120 45 f4 76 bd c1 87 5d bd c2 9f 3e bb 98 5c 25 3e
       -0.060291547 -0.054084543 -0.0029086922 0.16148603
000130 76 89 c4 3c f5 44 ee 3d c6 f6 19 3c 02 fb ad 3c
       0.023991328 0.11634246 0.009397214 0.021237854
000140 c2 9f ae 3d 70 7a 2d 3d 5f 58 99 3d 1f a3 c9 3d
       0.08526565 0.042353094 0.074875586 0.09845566
000150 c8 39 11 3d 95 95 cb 3d 39 da 23 3d 6b 7d 84 3d
       0.035455495 0.0994064 0.040003035 0.06469234
000160 62 26 a9 3c 1e 72 dc 3d 3c 22 0e 3e b8 6b 68 bd
       0.020648185 0.107639536 0.13880247 -0.056743354
000170 49 63 de bc d7 a5 02 3e 34 c1 a2 3d ca 5c d2 3d
       -0.027146952 0.12758575 0.07947007 0.10271604
000180 cf 39 96 bc 35 a8 df bd 9e 44 d8 3d 1a 58 82 bc
       -0.018338112 -0.10920755 0.10559963 -0.01591115
000190 5f 1e 5c 3d 03 97 82 bd e5 59 b7 bd 5d d2 23 3d
       0.0537399 -0.063764594 -0.08952693 0.03999554
0001a0 87 b3 9c 3b 88 af f2 bd 76 93 d6 3d ef 0e 60 bd
       0.0047821435 -0.11849886 0.10477345 -0.05470174
0001b0 a6 8e 78 3d ee a8 ca bc f5 98 bf 3d 77 c1 8c bd
       0.060682915 -0.024738755 0.09355346 -0.06872838
0001c0 02 f9 b1 3d 33 38 2f 3d a7 1d d9 3d aa a1 2c be
       0.086900726 0.042778205 0.10601359 -0.16858545
0001d0 28 c7 1b bd 6a 53 9b bd 4c 52 f4 bd 2f af bd 3d
       -0.038031727 -0.07584269 -0.119297594 0.09261929
0001e0 66 f8 2c 3e 22 58 65 bd 00 e0 67 34 a2 75 05 3c
       0.16891631 -0.055992253 2.1595042e-07 0.008145722
0001f0 1e 5a 91 3d 49 09 14 3c 5f ae db bd 64 a8 89 3d
       0.070972666 0.009035417 -0.10726618 0.06721571
000200 73 8e bf 3d 23 d6 12 3e 61 83 0d 3d d8 d8 d2 3d
       0.09353342 0.14339499 0.03454912 0.10295266
000210 95 1b b3 3b 96 2e cb 3d 1f 69 36 3e 7a 4a 05 be
       0.0054659345 0.09920995 0.17813538 -0.13016692
000220 5e 84 fb 3d b9 74 a4 bd 10 5a e2 bd ff d4 3f bd
       0.122811064 -0.080300756 -0.11052334 -0.04683399
000230 de 95 97 3d 44 6c e3 bd 40 af 17 3d e1 8e 36 bd
       0.07401632 -0.111046344 0.037032366 -0.044569854
000240 20 26 ff bc d9 05 21 3d c2 0e 36 3d 08 13 8b 3c
       -0.03114611 0.039312217 0.044447668 0.016976848
000250 74 a2 a7 bd c4 d4 86 3d d5 62 2b bd 10 f1 1e 3e
       -0.08185282 0.065835506 -0.0418423 0.15521646
000260 50 97 0f 3d df 13 7b bd 50 e4 dd 3b 0d 90 fb bd
       0.035056412 -0.061298247 0.0067716017 -0.12283335
000270 30 6f 1d bd cb f5 87 bd dd 2b c1 bc 3f f5 12 be
       -0.038436115 -0.06638678 -0.023580486 -0.14351366
000280 f2 0a 7d 3d 55 b3 42 3d b8 02 0a 3e 60 37 6d bd
       0.061778016 0.047534306 0.134776 -0.057914138
000290 af 91 a8 bd d5 bc cd bc 85 9e 87 3c f7 2c 24 3e
       -0.08230912 -0.025114456 0.01655508 0.16032778
0002a0 85 80 36 bd 4c 4e a1 bd 3f a5 9f bd 8f 2c f1 3d
       -0.04455616 -0.07876262 -0.0779519 0.11776077
0002b0 d0 b4 fb 3d 44 1b e2 bc 25 3a ff 3d ac ed b9 bd
       0.122903466 -0.027600892 0.12462262 -0.090785354
0002c0 25 9a 17 be a3 b6 be bb 9b 71 00 be 1e 80 f7 3c
       -0.14804895 -0.005820112 -0.12543337 0.030212458
0002d0 ac b7 93 3d 0d 16 68 bc 25 c8 5b bc e8 34 8f bc
       0.07212767 -0.014165414 -0.013414417 -0.017481282
0002e0 65 b1 bb 3d 91 97 ee bc 98 41 09 bd 01 07 c8 bd
       0.09164695 -0.029125007 -0.03350982 -0.09766961
0002f0 93 42 4d 3d f1 0f 80 bb e4 af 81 bd 17 85 24 bc
       0.05011232 -0.0039081504 -0.063323766 -0.010041497
000300 73 bb 0e be e0 ac 2a bd f9 8e 68 3b 8b 1b 32 bd
       -0.13938694 -0.041668773 0.003548561 -0.0434833
000310 07 2e 99 bd 84 5e d9 3d d0 d8 79 bd ef 07 f4 bd
       -0.07479482 0.106137305 -0.060997784 -0.11915576
000320 01 9a b9 3d 48 25 87 bd ed cf db 3d aa 02 ec 3c
       0.09062577 -0.06598908 0.10733018 0.028809864
000330 9c da 03 be a2 4b 20 3e 70 53 1c be 08 a1 91 bd
       -0.12876362 0.15653852 -0.15266204 -0.071107924
000340 96 b7 1d be 60 34 18 3d 50 3f f9 bd 4a 6f 3a bc
       -0.15402064 0.037159324 -0.12170279 -0.011379072
000350 74 8e c4 3d bd ac 71 bd 1a 5c 10 3e b7 b7 0a bd
       0.09597483 -0.059002627 0.14097634 -0.03386661
000360 8f f3 56 3d 6c d3 3a bd e3 82 cb bd 36 38 c4 3d
       0.05247837 -0.045611784 -0.09937074 0.09581034
000370 e0 98 a2 bd 31 21 b6 bd 78 8d 94 3d 51 8c a6 bd
       -0.07939315 -0.088930495 0.072535455 -0.08132232
000380 3d 88 d6 bd f7 04 e4 bd 52 8f 15 3e 80 5f 80 3d
       -0.10475204 -0.111337595 0.14605454 0.06268215
000390 c6 6b bf bd 58 8d c5 bd 91 ac 11 be e3 2d 13 3e
       -0.09346728 -0.096461 -0.14225985 0.14372973
0003a0 8a f9 96 bd ec 87 8c bd 50 d0 07 3e 52 c4 c5 bd
       -0.073718145 -0.068618625 0.13263059 -0.09656586
0003b0 c6 a1 58 bb 19 54 94 bd 73 76 fe 3b f5 a3 38 3e
       -0.003305541 -0.07242603 0.007765585 0.18031295
0003c0 ef da c7 bd 0c b1 7b 3d 47 5c 0c 3e ff 90 85 3d
       -0.09758555 0.061448142 0.13707076 0.065217964
0003d0 cb 49 96 bb 7d d9 0a 3e a3 c5 cf 3d 49 7d 64 bd
       -0.0045864335 0.13559528 0.10145118 -0.055783544
0003e0 8a 16 5b bc 8e 20 fe 3a bd c8 c2 3d 9b 98 97 bc
       -0.013372073 0.0019388364 0.09510944 -0.018505385
0003f0 e7 da 73 3d a3 90 bc 3d e4 04 ea 3d 03 ce 4a 3d
       0.059534933 0.09207275 0.11426714 0.049512874
