models/lstm_fwd_model.pt (torch, 245045 bytes, 9 tensors)

lstm.weight_ih_l0 f4 [256, 38]
00000000: 388a 0d3e 2aa4 a53d 434b 863c 6033 2a3e
00000010: 1182 f7bc cf82 bf3c d68e 33bd b7b7 aa3d
00000020: 3066 133e e8a7 00bd ff99 133e 072e 5f3d
00000030: 56ca 003e 65b6 373d e65e cb3d 55fe 983c
00000040: 60f1 ad3d 31e7 a8bb e702 1abe a439 df3c
00000050: be8e 53bd 3094 e53b bf32 19bd 8185 373e
00000060: fa9f e6bd 8c09 6cbd eff9 0bbd 9a79 16be
00000070: 00bb e13b 7d10 f9bd 0325 df3d ab04 4fbd
00000080: 6630 b23d 6bdd 0f3d 5b46 803c 5888 e63d
00000090: 1685 773d 58db 0e3e d9c9 1d3d ad0c 33bd
000000a0: 65ee 9f3d 8d3c eeba f5fe be3d 1e95 023e
000000b0: a543 e43d da6b 32bd 8b4a de3d 54bd 503d
000000c0: ba51 c03d ae62 12bd 474e d3bd 9c8b f7bb
000000d0: d667 3dbd a333 223e e445 e93d 57db 793d
000000e0: e819 f33d d80e 303c 99dd 143e 34f5 b2bd
000000f0: c0fd 563d e26d c23b b827 123e e052 30bd
00000100: 9709 053c 0a4c 1bbd cee8 de3d 57ce 7cbd
00000110: 2933 8ebd 0a93 edbd 9746 d73d bb9b 8b3d
00000120: 06cd cc3d dde3 92bd 9ad4 c6bd 8784 8abd
00000130: 5796 22bd 42d1 663d 4906 703d c496 043e
00000140: 3562 7fbd 36be 76bd 5502 a93d eda1 ecbc
00000150: 7700 c33d 00b6 8ebc 06a8 b03d 2aec a1bd
00000160: ea37 22bd 40f1 533d bbc4 583d 1627 e4bb
00000170: a3b2 b33d 074c 8e3d 9db7 dcbd fcb6 8ebd
00000180: a430 b73d 826e 81bd 2099 28bd bc6a 0dbe
00000190: 87ef d3bd 88cc ff3c 7929 363d 94d5 2abe
000001a0: 61b4 b03d f811 3fbd ca3e fbbc e02a e03c
000001b0: 150c cabc 413a 2fbd 27cc 083e 77b6 d73d
000001c0: f8cf da3d 38c7 29bd d560 f7bd 31f8 c7bd
000001d0: 5737 ac3c 8256 acbd 3257 5ebc 1b68 ffbd
000001e0: 0874 013b 7cf2 c5bd c3a5 25bd 5dee 6cbd
000001f0: 5342 81bd 3dc9 f6bd 8860 3cbd 980c e7bd
00000200: cd06 f73d 7663 86bd fd31 ad3d ab00 bf3c
00000210: 82fe cdbd 5261 893d a0d1 00bc 422c babd
00000220: fa84 9abd d0a5 34be 860c 5d3d c0af dfbc
00000230: 364f b23c 7193 22be 5e4c 163e 6344 98bd
00000240: 7372 1cbd acda 813d 2b8e 713d bb58 173e
00000250: 279e 6b3d f741 f5bd e038 3f3b 0ca8 a0bd
00000260: 66d0 8fbd 4e86 efbd 1acb a53d f6a1 e9bd
00000270: 5851 cc3d a78b 033c 49d3 1d3d be38 d8bd
00000280: 74e4 a23d 819b 26bb 34d1 e9bc 3501 1dbe
00000290: b98b cc3c 3d9c 11bd c682 7ebd 7c7c a93d
000002a0: fcc9 353d 4d7f f3bd f380 d73c 8595 4dbc
000002b0: 618d f33d 9f97 2cbd 909f 9c3d 694b 69bc
000002c0: 63d3 87bc 8898 363d f861 733d 33f8 22be
000002d0: 6aac 2d3d 1882 903d 36c4 db3c 3092 2abd
000002e0: 60cc 9f3d 3a98 8e3d 4ff8 a83d c6bd 9dbc
000002f0: 2a05 bbbc 84a3 a43c 48fe 803c 69a1 29bc
00000300: 171e db3d 593b 023e e184 40bb 91f4 a5bc
00000310: ee49 703b 5306 84bb 74c8 233d b94c 6c3d
00000320: 5198 b0bd d2d4 16bd 9ccf ef3d 8692 773d
00000330: a272 ec3b bee4 a7bd 74e2 b2bd d278 e0bd
00000340: 3bac aabb 96b1 0a3d 88ec 8f3d 3148 133d
00000350: 53d7 bcbd d402 1dbe 5eb6 c7bc 38a4 f73d
00000360: 728e 7cbb dc51 84bd f72d a73d a559 48bd
00000370: 2050 6cbd f089 263e 2463 b3bc ef8a 4dbc
00000380: 1e34 08be cfe6 e93d 0f59 f03d 82bf 933d
00000390: c4f3 2cbd 84bf 0dbe 03e5 b5bd 4db5 e43d
000003a0: f8c0 503d cbf9 063e 086b a73d 8280 403d
000003b0: cb22 113c 38e1 a8bd 967d c5bd c761 dfbd
000003c0: 00ef 8e3d cb37 69bd c467 48bc f651 81bd
000003d0: ac0d bebc d47f c0bd acf2 20be 9a6e 843d
000003e0: e266 74bd 1ebf 943d fb55 cebc 7820 a5bd
000003f0: 229f 29bd d030 78bd 786d 1a3d 3afc 3cbe
0.13822258 0.080879524 0.01639331 0.1662116 -0.030213388 0.023377804 -0.04383739 0.08335822
0.1439445 -0.031410128 0.14414214 0.054487254 0.12577185 0.04485168 0.0993021 0.018675962
0.08493304 -0.0051545133 -0.1504017 0.027249165 -0.0516498 0.0070061907 -0.03740191 0.17922021
-0.11260982 -0.057626292 -0.034173902 -0.14694825 0.006888747 -0.12161348 0.10895731 -0.05054156
0.087006375 0.03512327 0.015658548 0.11256474 0.060429655 0.1395086 0.038522575 -0.04371326
0.07809142 -0.0018176005 0.09325973 0.12752196 0.11145715 -0.043559887 0.10854062 0.050961807
0.09390588 -0.03573864 -0.103176646 -0.0075544845 -0.046241604 0.1584001 0.11390284 0.061000194
0.118701756 0.0107457265 0.14537658 -0.08738175 0.05248809 0.005933509 0.14272964 -0.043047786
0.008119962 -0.037914313 0.10884248 -0.06172022 -0.06943352 -0.11600311 0.10511511 0.068168126
0.100000426 -0.07172368 -0.09708519 -0.06763559 -0.039694156 0.056351908 0.058599744 0.12948138
-0.062349517 -0.060239993 0.08252398 -0.028885806 0.09521573 -0.017420769 0.08625798 -0.07906373
-0.039604105 0.051743746 0.05292199 -0.006962667 0.087743066 0.06948095 -0.10777209 -0.06968495
0.08944824 -0.06319906 -0.041161656 -0.13810247 -0.103484206 0.031225458 0.044473145 -0.16683036
0.086281545 -0.046647996 -0.030669589 0.027364194 -0.024663964 -0.042780165 0.13359128 0.10532849
0.10684198 -0.041449755 -0.12079016 -0.09764136 0.021022482 -0.084149376 -0.013570594 -0.124710284
0.0019752998 -0.09665391 -0.040441286 -0.05784451 -0.063114785 -0.12050102 -0.045990497 -0.11281699
0.12061844 -0.065619394 0.084568 0.023315748 -0.10058309 0.067080155 -0.0078624785 -0.09090473
-0.075448945 -0.17641377 0.05396702 -0.027305484 0.021766286 -0.15876557 0.1467757 -0.07434919
-0.038195085 0.063405365 0.058973473 0.14779942 0.057523873 -0.119754724 0.0029178187 -0.078445524
-0.07022171 -0.116955385 0.08095379 -0.11407845 0.099764526 0.008028901 0.038531575 -0.10557698
0.0795373 -0.0025422277 -0.028542139 -0.15332492 0.024968969 -0.03554939 -0.062136434 0.08275697
0.04438208 -0.11889515 0.026306605 -0.012547855 0.118922 -0.042136785 0.07647622 -0.014239171
-0.01658029 0.04457906 0.059419602 -0.15914993 0.042400755 0.070560634 0.02682696 -0.04164332
0.07802653 0.06962629 0.08250486 -0.01925553 -0.02282961 0.020097502 0.01574625 -0.010353425
0.106990986 0.12717952 -0.0029376077 -0.02025822 0.003666516 -0.004029074 0.03998609 0.057690356
-0.08622802 -0.036824055 0.1170952 0.06044247 0.0072158137 -0.08197926 -0.08734599 -0.10960545
-0.0052085198 0.033860765 0.07027537 0.03595752 -0.09220757 -0.1533311 -0.024378952 0.12091869
-0.0038537052 -0.06460926 0.08163064 -0.048913617 -0.0576936 0.16263556 -0.02189786 -0.012545331
-0.13301131 0.11420976 0.117357366 0.072142616 -0.04222466 -0.13842589 -0.08881571 0.11167393
0.05096528 0.13181226 0.081747115 0.046997555 0.008858393 -0.08246082 -0.09643094 -0.109073214
0.069791794 -0.056937974 -0.012231771 -0.06314461 -0.023199879 -0.09399381 -0.15717572 0.06466408
-0.05966843 0.07263015 -0.025187483 -0.080628335 -0.041411527 -0.060593426 0.037702054 -0.18455592

lstm.weight_hh_l0 f4 [256, 64]
00000000: fd89 e2bc a01d 773d 37bf 833d 6b0a 05be
00000010: 577e f6bd f588 8e3c c2c6 cfbd 656e 8fbd
00000020: 5ae9 503d 3648 15bc 350c c4bd 4e39 053d
00000030: 471b dc3d f65c b63d 6905 5c3d 816c 24be
00000040: cde0 77bd fca0 743d aa03 323e e82d 6ebd
00000050: 621b e33d 1456 8d3c 94a9 c13d 92a9 133e
00000060: b2eb df3d ab36 e4bd 7dc3 8bbd c587 de3d
00000070: b3cb a83d d948 aabd e2ac 2f3d 3923 313c
00000080: b710 3dbd b698 5e3c 5721 3abe 5dff 12bd
00000090: fb5a ccbd bf0d 023e 91c8 f1bd 48d5 913d
000000a0: 5343 85bd 87b4 953c 7e65 0dbe 8503 4cbc
000000b0: c5f2 943d 2c42 a1bd 096e bdbd a35e 473d
000000c0: a217 b2bd b335 22bd d2ca debb b31f 3ebd
000000d0: c4f7 b23d cf2a 7e3d d844 d1bd d711 7cbc
000000e0: 4433 11be d9de 85bd 311e 823d 214d 49bd
000000f0: 1d60 0dbe 3fb1 bd3c e72c ae3a 1e49 143d
00000100: c19a 843d 748a 0dbe 3864 17bd 3027 8bbd
00000110: 026e f13d dbf7 26bd 00d1 b3bd fb75 83bb
00000120: de84 0e3c cad9 4e3d 7f47 033e 9acd 1f3e
00000130: ccca e73c f38e 8d3d 00a9 503d f75f d73d
00000140: 4af9 06be 79c4 903d 2ddb 9fbc 8299 49be
00000150: 4b82 81bc 8ed5 b13d d002 833d 4872 f73d
00000160: b820 b93d b1a0 aa3c b371 f43d 54cd bc3d
00000170: 0172 3abd 8347 7bbd d5e0 e03d 6941 b23d
00000180: f209 153d ee1c 6cbd ee61 03be 62d7 253d
00000190: 9838 833c dc2d cebd b0b1 8e3c 162c 0fbd
000001a0: 9c76 063e cc24 383d 52f1 7ebd 7172 903d
000001b0: 7f07 2f3c b948 40bd 52eb 423d daa2 0e3e
000001c0: b41f f43d 8f13 c13b 824c 563d e353 6cbd
000001d0: fd63 123e 450c 06be 86d2 423d 584e a13d
000001e0: feb2 803d 6346 47bd 85e5 dd3d 1759 9a3d
000001f0: 3d65 e9bd f420 7cbc 6a9e 01be d54c 5bbd
00000200: b688 823d 1be5 cabd 6c2c 68bc 8c46 fe3c
00000210: 8566 e0bc fc82 3bbe 5bfd a43d 653e 0ebe
00000220: df45 efbd a555 723d e476 96bb f1b5 573d
00000230: 7bb7 ccbd a83e d93c 0a4e 0ebe a700 003d
00000240: c07a 1a3e e159 023e 2e7d ddbd ae12 bdbc
00000250: c12f 7abd 9377 07be 4ea6 d13d 9589 383e
00000260: ebe8 8d3d 26af 283d ca3b d73c 5e5b 263e
00000270: 928e fcbd e0ee 28be 2aab 0b3e ec94 713d
00000280: cf45 8abd a34b 86bd f1d6 253d cb09 ce3d
00000290: 827e d7bc d4c4 073e 3af3 113e 2dfc c9bd
000002a0: e7d5 d8bd 8c3f 303d 819a fcbd fcda 123d
000002b0: c909 0fbd 3f98 7bbd 11b6 b0bd 9e14 1ebe
000002c0: b76a 033e bf61 5ebe b883 2abc 221d 1ebe
000002d0: ef2e d6bd 9c35 80bc 1da1 04bd 2262 9d3c
000002e0: a726 4ebc 73b7 b43b fb70 143b e0f3 333e
000002f0: 3cf3 85bd c823 9fbd 410c 953c f3d7 8cbd
00000300: cd9e 833c fb1f 003e b314 f1bd 3e13 093d
00000310: a490 163c 463c 80bd 2966 393c d4d2 bc38
00000320: e1d3 69bd c816 e03c 6cb1 0bbe b783 32bd
00000330: 6a6b 99bc 4090 34be 369a f9bb b171 ebbd
00000340: 63c7 0fbe 3983 123e aa77 f4bd 4896 e1bd
00000350: af10 08bb 1131 65bd 3f75 1d3e 6c19 50bc
00000360: f82b 1d3c 3866 f4bd 1ffd 86bd 89c8 b4bd
00000370: f393 2b3d 7ddb babd e68f 2bbd 79f3 163d
00000380: e7ae 9a3d f3bf 083e 00c4 49bc 3869 a53c
00000390: d1d0 46bd a3b6 983d 47be c0bd 82cb a43d
000003a0: cc94 24be 7048 98ba bbe1 2abe 1baf b0bd
000003b0: 29d8 9f3d f836 13bd 391c 623d c03e 853a
000003c0: f179 923c dcbc 5f3d afc6 05bd 86b6 16be
000003d0: 38f2 99bd 25f0 553d 5949 7e3d d182 9cbd
000003e0: d969 cdbd 9f63 ae3d 1d2e 20be 48a7 f8bd
000003f0: 2caf 41bc 0eb2 d0bd f141 493e 6682 b3bd
-0.027653689 0.060330987 0.06432956 -0.12992255 -0.12035816 0.01739929 -0.10145332 -0.07003478
0.05100379 -0.009111455 -0.09572641 0.032525353 0.1074739 0.0890445 0.053716097 -0.16057016
-0.06051712 0.05972384 0.1738421 -0.05814925 0.11089207 0.01725296 0.094561726 0.14420155
0.10933627 -0.111432396 -0.06824396 0.1086574 0.082419775 -0.08314676 0.042889483 0.01081162
-0.04615852 0.013586214 -0.1817678 -0.035888065 -0.09978291 0.12700556 -0.11805833 0.07120758
-0.06506982 0.018274559 -0.13808247 -0.012452011 0.07272867 -0.078739494 -0.09249503 0.048674237
-0.08695914 -0.039601993 -0.0067990804 -0.04641695 0.08738664 0.062052544 -0.10218209 -0.015385113
-0.14179713 -0.065366454 0.06353415 -0.04914582 -0.13806196 0.023155807 0.0013288528 0.036202542
0.064748295 -0.13822347 -0.03696081 -0.06794584 0.117885605 -0.040763717 -0.08780098 -0.004011867
0.00869867 0.05050067 0.12820242 0.15605775 0.028294943 0.06912031 0.05094242 0.10516351
-0.13181034 0.07068724 -0.01951369 -0.19687465 -0.015809199 0.086833104 0.06397021 0.12082344
0.09039444 0.020828577 0.11935749 0.09218851 -0.04551888 -0.061347496 0.10980383 0.08703882
0.036386438 -0.057644777 -0.12830326 0.04048861 0.016018197 -0.10067341 0.017418712 -0.034954153
0.13131183 0.044956967 -0.06224186 0.07053078 0.01068294 -0.046944354 0.0475877 0.1392931
0.119201094 0.005892224 0.052319057 -0.057697188 0.14295955 -0.13090618 0.047564052 0.07876271
0.0628414 -0.04865111 0.10834793 0.07536524 -0.11396263 -0.015388716 -0.12658086 -0.05354007
0.06373732 -0.0990698 -0.014170747 0.031039499 -0.027392635 -0.18311685 0.08056136 -0.13890989
-0.11683249 0.05916371 -0.0045918096 0.052663747 -0.099959336 0.026519135 -0.13896957 0.031250622
0.15085888 0.12729599 -0.10814892 -0.023080196 -0.061080698 -0.13229208 0.10236798 0.18021233
0.06929191 0.04118266 0.026273627 0.16245791 -0.12331881 -0.16497374 0.13639513 0.058979914
-0.06751596 -0.06557395 0.040488187 0.100604616 -0.02630544 0.13258678 0.1425294 -0.09862552
-0.10587674 0.043029353 -0.12334157 0.03585337 -0.03492144 -0.06142449 -0.086284764 -0.15437552
0.12833677 -0.21716975 -0.010407381 -0.15440801 -0.104581706 -0.015650563 -0.032380212 0.019211832
-0.012582458 0.005515033 0.002265035 0.175735 -0.06540534 -0.077704966 0.01819432 -0.068771265
0.016066933 0.125122 -0.11771526 0.033465616 0.009189758 -0.06261496 0.011315861 9.0038084e-05
-0.05708683 0.027354613 -0.136419 -0.043582644 -0.018727977 -0.17633152 -0.0076172603 -0.11496294
-0.14040904 0.1430787 -0.119368866 -0.11014992 -0.0020761897 -0.055954996 0.15376757 -0.012701374
0.0095930025 -0.11933559 -0.06591248 -0.088273115 0.041889142 -0.09123895 -0.04188528 0.036853287
0.07552891 0.13354473 -0.012314796 0.020191774 -0.048538987 0.0745671 -0.094112925 0.080466285
-0.16072387 -0.0011618268 -0.16687672 -0.08627149 0.07804901 -0.035941094 0.055202696 0.0010165796
0.017880412 0.05462347 -0.032660183 -0.14718065 -0.07516903 0.052230973 0.06208167 -0.07642139
-0.100299545 0.08515095 -0.15642591 -0.12141281 -0.011821549 -0.10190211 0.19654061 -0.08765106

lstm.bias_ih_l0 f4 [256]
00000000: d6a5 6fbb a292 fc3c 9422 21bc 7d43 e6bd
00000010: efbf 2fbd b614 b63d 9664 423d 124b 3f3e
00000020: bacc 183e 154c 763b 289d fa3d ed23 0d3d
00000030: 6332 c63d faf0 31bd 1e2b c8bb 5a9a b23d
00000040: 28cc 9b3d 236d 233d 1a5a 263e 5669 0c3e
00000050: 0d81 71bd 3ffa d23c 92f1 103d 3e5b 003e
00000060: 34af cebd 0a75 ef3d 05e2 9b3d fb2d 0b3e
00000070: ef0a 23bd d6ff 583d 02d9 f73d 5ca4 0a3e
00000080: 76ad f0bc 523a 023e 42c6 643c 6466 ea3d
00000090: 34e2 013d a27b c83d 0411 a8bd b83b 473d
000000a0: 26da 7dbd edd7 a1bc ef68 b03b 2e3a febb
000000b0: fbe2 0c3e a921 b03d 835d e93d 13de 81bd
000000c0: 712d 3e3e 9926 1f3e 6461 753c 7e2a 10bd
000000d0: 4a8a 1c3e f821 153e b606 b43d 45cc 74bd
000000e0: bcb4 83bd 55ab cb3d 650e e5bd 2f52 943d
000000f0: 450b f53d d5ff 52bb 33be d9bd ea5b ebbd
00000100: 2b28 103e ced0 1e3c 8559 243d d3d9 aebc
00000110: c819 61bd c87b 483d 5ab9 d4bd 45d7 b03d
00000120: cf78 0d3b 842c df3d e56c 38bd bd7c 033b
00000130: 98e0 90bd ad1b e73d 5a12 fe3b c0b0 16b7
00000140: d06e 40be a067 fd3d 8a91 223e 33e7 3dbd
00000150: b884 4b3c fca8 02bc b4c1 cbbd 9ce8 9dbd
00000160: 88a5 7abd fb60 3c3d b1cd 5dbd 3fa4 4e3e
00000170: f937 41bc d20e c0bd 8a26 8bbd 9a47 103e
00000180: 25f1 88bc 90ba 913d 72ca c23c c178 033e
00000190: 104e e4bd d161 ba3a df10 6a3d a2b5 07bd
000001a0: 36f0 7abd 1893 fe3c 800b bd3c e0d5 0cbd
000001b0: a240 66bd f640 963b 6be5 2f3d b8d8 dcbd
000001c0: 6e14 fd3c a37f 6f3c 97df e03d fb6b bc3d
000001d0: 8238 053e a00d 49bd ec49 c33d 5416 2cbd
000001e0: 9aaf 6e3d 098e 9fbd ef00 d53d d809 233c
000001f0: 6563 eb3a 1d80 babc 4043 fe3d 0fdf 843d
00000200: 0305 6f3d 0558 bcbb 9b35 80bd 3ef0 a3bd
00000210: 9c80 e2bd c481 63bd 5c6f dcbc 840c 1cbb
00000220: fea8 d83d f8fa 813d 57c0 1b3d 562c a23d
00000230: d7ea f83d 8de9 863d fcfd b0bb 606a c13d
00000240: 4652 b1bd bf22 7d3d 49ce a73d 98f9 0fbe
00000250: 73e6 c1bd 1d43 bc3a c2c6 2e3d 0144 ac3d
00000260: 518d e9bd 841b 1a3e 76b2 0e3c 27e2 cfbc
00000270: 0f3a 02bd 2ae5 9b3d 3b89 073d 253b cf3c
00000280: 8985 09be 8e2e 0bbd c1ae 06be 49b6 21be
00000290: ab18 713c 0119 64bc e7ff 01be 8b40 c8bd
000002a0: 9b3d fc3d d9b2 0a3e a953 d6bd 2182 bebd
000002b0: 83fd 903d 1698 59bc 3f3f 483c 9430 8cbc
000002c0: f472 5a3c bee1 11be 013a 10be b530 b73d
000002d0: b393 b23d c947 583d 8121 7bbd 4dad 7fbd
000002e0: 6e7c 4bbd 79ec a9bd bd4a c4bd 342d 853d
000002f0: 369a a2bd 749c 0cbe d0c7 acbb 838e b93d
00000300: 006c c33c 0ede 93bd 066d a33d c47f 4cbd
00000310: cea9 063e d2e0 87bd 8356 1d3e 63d7 d93c
00000320: 3a89 193e 4bb9 ba3d 4639 203e eb96 983d
00000330: b3f1 f9bc bd5b 0b3d 8ebb 233e c151 ecbc
00000340: 94df b63d b638 1f3d b916 073e ccba 77bd
00000350: f2e5 8fbd 2514 d33d fca6 80bb 1740 96bb
00000360: 57df f93c 9ae3 383e 8351 68bd 25ba 8b3d
00000370: f290 46bd 99af 203c 297a 6dbc bd50 0e3e
00000380: bf47 c33d 5ae1 d53d b57f f63b 561f f53d
00000390: b596 babc 8725 53bd ccc3 86bd 5fc2 c3bc
000003a0: ad89 2cbd 3e47 003e 7a25 643d b60a f4bb
000003b0: 081e 50bd 96f1 043e b078 153e 8e66 98bd
000003c0: fff2 3b3e 650a be3c 2930 88bc b116 b73d
000003d0: 3af1 2bbd 93e9 dcbd 8725 253d 265c 203e
000003e0: b37d fc3d 058c fc3d 0782 4b3d cb0e 623d
000003f0: 0192 853d 9da8 1dbd 2200 133e dd9d e83d
-0.0036567352 0.030831639 -0.009834904 -0.11243341 -0.04290765 0.08890669 0.047459207 0.18680981
0.14921847 0.003758197 0.122370064 0.03445809 0.09677579 -0.043442704 -0.0061086556 0.087208465
0.07607299 0.039899003 0.16245309 0.13712057 -0.058960963 0.025754092 0.03538663 0.12534806
-0.10092011 0.11692245 0.07611469 0.13591759 -0.03980535 0.05297836 0.12101938 0.1353926
-0.029379588 0.1271756 0.013963284 0.11445311 0.031709865 0.09789206 -0.082063705 0.048640937
-0.06197562 -0.019756282 0.005383603 -0.0077584004 0.13758461 0.0860017 0.11394789 -0.063411854
0.18572022 0.15542068 0.014976833 -0.035196774 0.15287128 0.1456374 0.087903425 -0.05976512
-0.06430957 0.09944788 -0.11184386 0.07242238 0.1196504 -0.0032195945 -0.10631981 -0.114921406
0.14077823 0.009693338 0.040124435 -0.021344101 -0.054956228 0.048946172 -0.103869155 0.086348094
0.00215869 0.108971626 -0.045025725 0.0020063363 -0.07074088 0.112845756 0.0077536525 -8.9818495e-06
-0.18792272 0.123732805 0.15875831 -0.046363067 0.012421779 -0.007974859 -0.09949055 -0.07710382
-0.06119302 0.045990925 -0.05415124 0.20179842 -0.01179313 -0.09377827 -0.0679446 0.14089814
-0.01671655 0.07115662 0.023778174 0.12839033 -0.11147702 0.0014219825 0.057144996 -0.033132203
-0.06126424 0.031076 0.023076773 -0.034383655 -0.056213982 0.0045853807 0.0429434 -0.10783523
0.03089353 0.014617833 0.109801464 0.09200283 0.13009837 -0.04908526 0.09535584 -0.04201348
0.058272935 -0.07790763 0.10400569 0.009951077 0.0017958699 -0.022766167 0.12415171 0.064878576
0.05835439 -0.0057477974 -0.062602244 -0.08004807 -0.110596865 -0.055543676 -0.026908569 -0.002381117
0.10579108 0.063466966 0.038025226 0.07918613 0.12154167 0.06587515 -0.005401371 0.094441175
-0.086582705 0.061800715 0.08193643 -0.14060056 -0.09467783 0.0014363263 0.04267002 0.08411408
-0.11403907 0.15049559 0.008709541 -0.025376393 -0.03179365 0.07612069 0.033089858 0.025296757
-0.13429846 -0.033979945 -0.13152601 -0.15792193 0.014715354 -0.013921977 -0.12695275 -0.097779356
0.12316438 0.13544787 -0.10465176 -0.09302164 0.070796035 -0.013280889 0.01222211 -0.017113008
0.013333071 -0.1424627 -0.14084627 0.08944837 0.08719578 0.052802835 -0.06131125 -0.062421132
-0.049679212 -0.08297057 -0.09584568 0.065027624 -0.0793957 -0.13731557 -0.005272843 0.09060385
0.02385521 -0.07220088 0.07979779 -0.049926534 0.13150713 -0.06634678 0.15365033 0.026591962
0.14993754 0.09117373 0.15646848 0.0745066 -0.030510759 0.034023035 0.15989515 -0.028847577
0.08929363 0.038872443 0.13192262 -0.060480878 -0.070262805 0.10306577 -0.003926156 -0.004585277
0.030502005 0.18055573 -0.05671836 0.068226136 -0.048478074 0.009807491 -0.014494457 0.13897987
0.09535169 0.10443373 0.007522548 0.119688675 -0.02277694 -0.05154946 -0.06580314 -0.023896394
-0.042123485 0.12527177 0.055699803 -0.007447566 -0.05080989 0.12982783 0.1459682 -0.07441436
0.18354414 0.023198316 -0.016624527 0.08939875 -0.0419781 -0.10786738 0.040318992 0.15660152
0.12328663 0.12331394 0.04968455 0.05518989 0.06521989 -0.03849088 0.1435552 0.11358235

lstm.bias_hh_l0 f4 [256]
00000000: 34a2 71bd ba2f ccbd 9511 c83b 0846 8abd
00000010: b14c 6b3b ee67 f23d 9840 943a 7aa8 3c3e
00000020: ca26 0c3d 25e5 df3c 14ce 3d3d da75 8c3c
00000030: 2acf 633c 9a41 9bbb 4ed6 59bd d926 bd3d
00000040: f10b a93d 161d ce3c 7054 a13d f879 81bc
00000050: 9cc0 bcbd ffbd d43d a41d 823d 52fd 1fbd
00000060: 7cda d03d 2840 083d 6743 87bd 3c1c 7bbc
00000070: 2610 12bd 8829 82bd 646f 9c3d f916 2fbd
00000080: 56a5 76bd 0970 2b3e c9c8 833c da51 4c3d
00000090: 415e a7b9 482a 763d 7eb2 7bbd e01b 78bd
000000a0: 4e67 61bd f13b 173b 8ada a63d f88c b53d
000000b0: 8fe9 eb3d fb41 90bd 51ff 53bd 0682 6bbc
000000c0: df14 573e cb06 2d3d 8cbc 173e 5e0d 083e
000000d0: 49f3 0b3e 7918 a03c 4d4c 823d 9b66 9cbc
000000e0: 7324 253d 7c29 723d 435a a0bd d897 8abd
000000f0: d676 86bc 023b 133d 288d 35bc 270a 2f3d
00000100: 0283 cabc 6169 a23d fc52 a3bd 6cb2 f43d
00000110: 6004 da3d 6bd5 c33d d4a0 a2bd 8d75 37bd
00000120: 33b9 3bbd 105f 4bbd f105 c0bb a109 5f3c
00000130: 1a17 8c3d 07ac 1c3e ce31 a23d bc71 353d
00000140: 113b e2bd 15f2 98bc f5cb 193e bd0c a8bd
00000150: bec3 9a3c f16a b3bd abbf 86bd 22c3 a6bd
00000160: 2332 2abe fb12 f33c 65ae 10bd 65c8 d73d
00000170: a3fa ef3d 3eff e4bc 3d4d 4b3d b005 0fbd
00000180: f0b6 ad3d 4fb0 f43d 40e5 0dbd bf17 94bd
00000190: c647 9e3d 0a8e 483d f3a2 6e3d d34b 293c
000001a0: 8e24 553d 8a6f aa3d 003b 583d eb00 71bb
000001b0: 86b7 9e3d 8e74 953d 2fd2 3ebc a68f 05be
000001c0: 39f1 c1bc 460e 9c3c 0d4d c93d ac53 673d
000001d0: ffca 0a3e 9ee3 cbbc f547 e73d cab8 79bd
000001e0: 0a29 a13d bbc5 6b3d 2d2a 1e3d f957 be3c
000001f0: 5bd0 d1bd da7a 0c3e ca4e 603d 3a31 e0bd
00000200: a5f8 8a3d b8fb 423d c4a9 ec3d 0aa0 cc3d
00000210: 99d5 0b3d 18f7 743d 14ce 1c3e fca4 9d3d
00000220: 1c41 803d 5f07 a33c b756 e0bd 9102 8c3d
00000230: 09cc 91bd 4b7b 02bd 3988 17be 5311 08be
00000240: 8d05 00bd e549 04be e7c6 933d e0e0 0d3c
00000250: e5e3 babc 2146 0b3e 2cf9 363d 120b 633d
00000260: fdf2 a7bd 6649 8dbd 35ae dabc 5425 ae3d
00000270: b3c2 dcbd defa bdbd 645f a1bc 8883 733d
00000280: 7913 293d 348a daba b94e 48bd e8ca a7bd
00000290: 0db5 ffbc 5e42 c53d 6a66 debd 0b4d e0bd
000002a0: 6330 1bbc b20b cb3c 3ccc 333d 57be 8c3c
000002b0: dff3 ec3d 7f34 03bd 97d1 823d 1f55 85bd
000002c0: 5573 0abe 9714 bdbd b1e5 a63d 08c5 2ebd
000002d0: 4924 a4bc d233 a53c 8319 dabd ce19 103d
000002e0: 536e afbd 8b8b b53d a926 db3d 7f55 923d
000002f0: 4aa8 873d a1c4 593d 5a33 e63b e1b1 f73c
00000300: 59f8 073d 4732 38bc 9cdb db3c 34d5 97bd
00000310: c4bc 8fbd 9659 ae3c 2d5f c3bc 3c29 213b
00000320: 34f9 ba3d f16d b8bb 58b4 373e 95b8 7abc
00000330: 7102 95bd bda1 7e3d d622 933d b0c8 d63d
00000340: 9984 b13d 57f0 75bc 5960 99bd 13cf d93d
00000350: 8270 b9bc 1058 2e3e 3096 01bd 0a7e 0c3e
00000360: b003 fe3c 499d 463d fabb 2ebb 7988 473e
00000370: c816 d73d af13 ccbd 51f4 13bc 6473 65bc
00000380: d523 713d a868 57bc 568a 1ebd 3fd6 6c3d
00000390: 6736 4a3d 7efd b2bc ca5a ae3d 6156 ff3d
000003a0: def4 cbbb d8e9 2d3e f4e3 c83d 5bf2 653d
000003b0: d36a 11bc 69cd 033e 7417 f43d 120c debd
000003c0: 5a56 ec3d 8f30 48bd a207 07bd c29c c0bc
000003d0: a855 683d 6549 e6bc c547 a93c 3666 263e
000003e0: 6735 4a3d f643 9cbd 5abb 9abd 8ab3 a0bd
000003f0: 2ecf 0fbc 6c2d dd3d 1b84 a33d a2a9 debc
-0.05899258 -0.099700406 0.0061056116 -0.06751639 0.0035903866 0.11836229 0.0011310754 0.18423644
0.03421668 0.027330944 0.04633911 0.01714604 0.013904372 -0.004738045 -0.053182893 0.09235925
0.08254231 0.025160354 0.07877433 -0.01580523 -0.09216425 0.103878014 0.0635331 -0.039059944
0.101979226 0.03326431 -0.06604653 -0.015326556 -0.03565993 -0.06355578 0.076384336 -0.042746518
-0.06021627 0.16741957 0.016086953 0.049882747 -0.00031922947 0.060098916 -0.06144952 -0.06057346
-0.05503016 0.00230765 0.08147152 0.08864778 0.11519157 -0.07043835 -0.05175716 -0.014374262
0.21004055 0.042242806 0.14818019 0.13286349 0.13667025 0.01954292 0.063622095 -0.019091895
0.040317964 0.059121594 -0.07829716 -0.06767243 -0.016414087 0.035944946 -0.011081018 0.04273429
-0.024720673 0.07930256 -0.079748124 0.11948094 0.10645366 0.095621906 -0.07940832 -0.04478984
-0.045830917 -0.049651206 -0.0058600833 0.013613136 0.06840344 0.15299998 0.07919656 0.04429792
-0.11046422 -0.018670121 0.1501921 -0.08205555 0.018892165 -0.08760632 -0.065795265 -0.081426874
-0.16620688 0.029672137 -0.035322566 0.10536269 0.11717727 -0.02795374 0.049634207 -0.034917533
0.08482158 0.11947691 -0.034642458 -0.07231092 0.077285334 0.048963584 0.05826087 0.010333019
0.052036814 0.08322056 0.05279064 -0.0036774229 0.07749848 0.07297622 -0.011646791 -0.13043079
-0.023674594 0.019049775 0.098291494 0.05647628 0.13554 -0.02488881 0.112930216 -0.060967244
0.07869156 0.057561617 0.03861444 0.023235308 -0.10244819 0.13718739 0.05476264 -0.10946889
0.067857064 0.04760334 0.11555818 0.099914625 0.03413925 0.05980596 0.15312988 0.07697484
0.06262419 0.019900976 -0.109540395 0.06836427 -0.07118995 -0.031855863 -0.14798059 -0.13287859
-0.031255294 -0.12918814 0.07215672 0.008659571 -0.022813747 0.13600971 0.044671223 0.05543048
-0.08200643 -0.06898765 -0.026694397 0.085032135 -0.107793234 -0.09276365 -0.019698806 0.05945161
0.041278336 -0.0016673268 -0.0489032 -0.08192998 -0.031214261 0.09631799 -0.10859378 -0.10952195
-0.0094719855 0.02478585 0.043895945 0.017180605 0.11569952 -0.032032486 0.06387632 -0.06510376
-0.13520558 -0.09232443 0.08149279 -0.042668372 -0.020036833 0.020166311 -0.10649397 0.03518086
-0.085659645 0.08864506 0.10700733 0.07145213 0.066238955 0.053166036 0.0070251646 0.030236186
0.033195827 -0.011242456 0.026838116 -0.07413712 -0.07018426 0.021282952 -0.023849094 0.0024591228
0.09129563 -0.0056283404 0.1793989 -0.015302797 -0.07275856 0.062165964 0.07184379 0.10487497
0.08667869 -0.015010915 -0.0748908 0.106351994 -0.022636656 0.1702578 -0.03163737 0.13719955
0.031007618 0.048489843 -0.0026662336 0.19485654 0.10502392 -0.09964692 -0.009030418 -0.014004562
0.058872063 -0.013147511 -0.038706146 0.05782151 0.04936829 -0.02184939 0.085134104 0.12467647
-0.006224259 0.16983736 0.098091036 0.05613933 -0.008875567 0.12871327 0.11918536 -0.10842146
0.11539908 -0.048874434 -0.032966264 -0.023512248 0.056722313 -0.02811117 0.020664105 0.16249928
0.049367335 -0.0763015 -0.07555266 -0.07846744 -0.008777423 0.10799679 0.079841815 -0.027180497

lstm.weight_ih_l1 f4 [256, 64]
00000000: 40d5 d63d 9a84 e6bc a473 033e f16c 51bd
00000010: bbd7 b7bd 37ac 7abd 7d45 143c 7c58 193e
00000020: 50c6 7e3d b366 94bd 00af e53c 99eb e03d
00000030: cbcc 66bd 89e2 863c c17d b43d d107 ff3d
00000040: f2b0 0e3c ad2e c33d a6ea 593d c37c 493b
00000050: 9d27 98bc 3106 813b 5cbd 503c 4dd1 8a3d
00000060: 5888 a83c 40ac 86bc 3a14 183e 5ed1 edbc
00000070: 6b4c 60bd 8565 523d 3f46 293d c0c5 d93d
00000080: 1492 c8bc c496 23be 4b05 013e cb91 dbbc
00000090: f098 193d a55d 263e 1649 723d a1df b63d
000000a0: 8ed6 5b3d a9ff 153e 4d84 133e 3aa4 fc3d
000000b0: 8598 9c3d e3e9 c43d 8796 113c 0d5c 6cbd
000000c0: 064b b5bd 6534 8c3d 0e98 b0bd d49a b23d
000000d0: 7272 363d 96d4 6cbd 9bc1 9fbd a27e 50bd
000000e0: d8ee 8cbd 3836 4ebd 30ef b1bc 779c 11bd
000000f0: c271 9e3d b1de a4bd 3207 ea3c 5b93 eb3d
00000100: 254a ca3d 1443 213e 2aff 0c3d 8cfb 08be
00000110: 2fb4 dcbd 9013 4f3d c124 373d a82a 4b3c
00000120: b2b8 abbd bad8 3fbd ff9c eebc 1c75 cd3d
00000130: d137 6f3c 224c 8ebc dc14 5f3d 6eae 18be
00000140: e690 07be b189 2bbc 12d5 1b3e 4bfa e7bd
00000150: 8010 d5bd d751 7c3d 2169 f43c 3d82 48bd
00000160: 8153 e3bd ee54 02be 144a 7bbd 75d2 2e3d
00000170: e0c8 40bd a8eb 19bc ccad cebd 17e5 8c3d
00000180: beb3 ab3d 2464 f03c ad01 523c 3f97 c03d
00000190: 8a8e 28bd d25c 65bb 2849 82bd a978 6fbd
000001a0: 1d86 be3b 92ba 99bc 015a 43be d461 6a3d
000001b0: d116 97bd b0d8 ce3d ea61 813d 316b 2b3d
000001c0: e93e b23d b480 bd3c 37b4 fe3d ce4c 393d
000001d0: 36b2 97bd 0866 833d 5e20 edbd 8f22 96bd
000001e0: fca2 8abd 3d83 5f3b 077a b03b e7f0 bb3b
000001f0: dc14 83bd 5b51 973b c531 13be 12e2 7dbd
00000200: 0b4b 10bd ee0e 743d f958 38bc c2cc 71bc
00000210: a538 793c 4c1f db3c deba 653d efc8 f83d
00000220: d988 093c ba1f bcbc 7a35 0ebe 1fcf 6fbc
00000230: 1189 b03d 539e d83c 5a86 1abd 105c e6bc
00000240: d229 e5bc de18 78bc c398 02be b7cd b63a
00000250: 61e6 023c 77d1 063d a42f 713a 59eb c7bd
00000260: ef12 40bd f797 eb3d acd7 643d 1f6c fc3d
00000270: 8d9a b0bd ee97 993c 45f2 753c 104e 2c3d
00000280: e3ed c5bd 09a3 c63c 8df7 863d 7bdc c5bd
00000290: 8d2b 10be f9a7 38bc ef49 15bd 1e74 16be
000002a0: cea2 873c b6a9 1dbd f34d 2dbd e911 203e
000002b0: 5f56 dc3d 87ed 383e dea1 cc3d 6ad8 05be
000002c0: 0fd6 363e 1335 0dbc dab7 043d b7dd c3bd
000002d0: 470e 833d 82f9 3f3d 2f4b 12bd 2881 49bd
000002e0: 0627 1abd c605 323d e6a3 21bd 1269 823d
000002f0: 81ba 03be e1ad b1bc 861e e93d 6d68 b4bc
00000300: 53f6 76bd b826 603d 0173 79bd d6da 213d
00000310: 354a 2cbd 931f ebbd 3e76 a4bd 205c da3d
00000320: c457 3c3d 7c07 d3bd 413a 2cbe c38f 123d
00000330: ce74 053e a76c c1bc fa02 af3b 1b7e 073e
00000340: 0ccb 043e 88d2 143e e296 793d 1555 4a3d
00000350: d611 dcbd b1c7 a7bd 8415 ccbd 3f74 f63c
00000360: da52 873d 4831 323e 9f93 b3b9 9ed5 d3bd
00000370: 7c27 cdbd 6cf2 4e3d f021 f038 e64b 163e
00000380: 61c5 923c 08b1 d8bd 1131 13be 050d e6bd
00000390: 84ec 843b ef59 933d 1bfa 87bd d500 f5bc
000003a0: cc6d a1bc a7b4 643d 479d 6dbd 1e25 183b
000003b0: 977e 773d a245 dabc 3bb4 8839 3e84 f4bd
000003c0: 6ba9 d4bd 526b 4f3b db8a c3bd 3719 a43d
000003d0: cec1 21bd a821 313d e48b ea3c a209 6cbd
000003e0: 591d 913d 81cc 803d b02a 0cbd d769 813d
000003f0: d073 ca3d d4d2 953d 68dc 3cbd d201 aa3d
0.10489893 -0.028139401 0.12837082 -0.051129285 -0.08976694 -0.061199393 0.00904977 0.1497516
0.062200844 -0.07246151 0.028037548 0.10982437 -0.05634765 0.016465442 0.08813048 0.12452663
0.008709179 0.09530387 0.053202294 0.003074453 -0.018573577 0.0039375057 0.012740459 0.06778202
0.020572826 -0.016439557 0.14851466 -0.029030498 -0.054760378 0.051366348 0.041326758 0.10633421
-0.024483718 -0.15975481 0.12599675 -0.026802918 0.03749937 0.1624666 0.05915173 0.089293726
0.053671412 0.14648308 0.14405937 0.12336011 0.07646278 0.09614923 0.008885986 -0.057704974
-0.088522 0.06845931 -0.08622752 0.08720937 0.044542737 -0.057819925 -0.07800599 -0.050902016
-0.06881493 -0.050344676 -0.021720499 -0.035549607 0.07736541 -0.080502875 0.028567884 0.11502715
0.09877423 0.15748245 0.03442303 -0.13377208 -0.10776555 0.050555766 0.044712786 0.012400307
-0.08384837 -0.046837546 -0.029127596 0.100321025 0.01460071 -0.017370287 0.054463252 -0.1491029
-0.13238868 -0.01046984 0.15217999 -0.113270365 -0.10403538 0.061601486 0.029835286 -0.04895233
-0.110999115 -0.1272771 -0.061349943 0.042681176 -0.04706657 -0.009394564 -0.10091743 0.06879633
0.083838925 0.029344626 0.012817782 0.09403848 -0.04115156 -0.0034997952 -0.0636161 -0.05846468
0.0058143274 -0.018765721 -0.19077303 0.057222202 -0.07377399 0.100999236 0.06317504 0.041850273
0.087034054 0.02313266 0.12436717 0.045239262 -0.07407038 0.06415945 -0.11578439 -0.0733081
-0.06769368 0.0034105324 0.0053856405 0.005735505 -0.06400463 0.0046178526 -0.14374454 -0.061983176
-0.035227817 0.05958455 -0.0112516815 -0.014758291 0.015211259 0.026748322 0.056086414 0.121477
0.008394443 -0.022964347 -0.13887587 -0.014636784 0.08619893 0.026442682 -0.037725784 -0.02812007
-0.027974043 -0.015142648 -0.12753586 0.0013946806 0.007989497 0.032914605 0.00092005194 -0.09761686
-0.046893056 0.11503594 0.055869743 0.1232531 -0.08623228 0.018749204 0.015011375 0.042066634
-0.09664514 0.024247663 0.06590185 -0.09661194 -0.14079113 -0.011270517 -0.03644746 -0.14692733
0.016557124 -0.038491927 -0.042310666 0.15631832 0.107586615 0.1805936 0.09991811 -0.13070837
0.17855094 -0.008618611 0.032401897 -0.09563773 0.063992076 0.04686881 -0.035716232 -0.04919544
-0.037634872 0.043462537 -0.039462946 0.06367697 -0.12864114 -0.021689357 0.11382775 -0.02202245
-0.060293507 0.054724425 -0.060900692 0.03951534 -0.042062957 -0.11480632 -0.080303654 0.10662103
0.045982137 -0.10304162 -0.16819097 0.035781633 0.13032839 -0.02361138 0.005340931 0.13231699
0.12968081 0.14533436 0.06093491 0.049397547 -0.107455894 -0.08192385 -0.09965041 0.030084727
0.066075996 0.17401612 -0.00034251527 -0.103434786 -0.10017297 0.05052416 0.00011450413 0.1467739
0.017916383 -0.10580641 -0.14374186 -0.11232952 0.004056515 0.07194888 -0.06639501 -0.029907623
-0.019705676 0.055836346 -0.05801132 0.0023215483 0.06042346 -0.026644532 0.00026074224 -0.11939286
-0.103838764 0.0031649661 -0.09547969 0.08012622 -0.039491467 0.043244988 0.028631158 -0.057626374
0.07085676 0.06289006 -0.034220397 0.063190155 0.09885371 0.07315603 -0.046108633 0.083011284

lstm.weight_hh_l1 f4 [256, 64]
00000000: 39fe fbbd 4ba2 1b3d ec5c e9bd 4fb7 8b3c
00000010: 4aad d93c 7e7a 1a3c 9c0b c3bd 9574 993d
00000020: f32f 223d 3144 b53d 081a 4abb 861a 0dbe
00000030: 28a9 febd 02e8 aabd d8e2 5ebc 97d2 6b3d
00000040: 05bf 213c 0724 abbc 649b 47bd 5e94 ab3d
00000050: 7270 ca3d 8233 09be 619c 14bd a6d7 663d
00000060: ae32 b33d 6afe 13bc 5541 153e 9a02 613d
00000070: f2a5 86bc d243 d3bc 6360 0c3e 09d3 b33d
00000080: 53ce c3bd 1039 283d 2063 b0bd 475c fe3c
00000090: ef9d c43d 603f 98bd fe86 17be c6a1 9e3d
000000a0: 1612 e23c 581a b23d 0f72 d33d 5163 033e
000000b0: 3e7a 9bbd b988 86bd 685b c13d d4f6 7d3d
000000c0: 3a55 e2bb ac1d 0c3e e0cb 483d a8e6 ecbc
000000d0: d678 103e 3e00 6bbd 89cc ce3d 9e05 42bc
000000e0: c93f f3bd 0fe1 733c 6218 c9bd 4a61 c1bd
000000f0: 2775 4dbd aa5f 753d 4aeb df3d 7cc2 8fbd
00000100: fbfb 2dbd e239 51bd 20f2 ba3d eceb d33d
00000110: 62de f83d dc6d 95bd 1cea c8bb d362 45bd
00000120: 28b9 d73d ddb6 993c f4fb 23be 71f4 1abd
00000130: 30f1 b2bd e5f2 173c ee4f 9b3d fbb9 ad3b
00000140: eaf6 d83d b039 063d cfc8 cf3d beca 993b
00000150: 5401 bdbd 7b7f 543d 36a2 9f3a fd5e dd3d
00000160: bb79 d9bd f887 77bc 536e e73d eea6 833d
00000170: a837 82bc 5e2b 16be c83d 1b3e f9de 023d
00000180: 253d 713d a5d7 09bd 8b4b 0f3e f96e aabc
00000190: f65e b63d 3f57 df3d 45fd 9a3d 91c4 d43c
000001a0: efa6 8abd e61b 0fbb 6f96 0dbd 34a2 35bd
000001b0: 920b 98bd 5489 a93d 8160 583d e01e 9dbd
000001c0: 6024 24bd 89f3 9c3d ee73 263d 76d7 babc
000001d0: dd4b 93bb ca25 51bd bb27 c43c 125f a2bd
000001e0: 6302 57bd 836e 5b3d 672a 09be 0cb7 3c3d
000001f0: 7b5c 29bd b979 b93d 0b0c 9fbc fd5b 953d
00000200: 9bcb 533c a676 fc3b e81f 1bbe c15f c93d
00000210: cbc3 873d acde 1a3a 58ac 013e 9df2 1fbc
00000220: 36e0 093e 763b f2bc 9e94 1d3d 1618 13be
00000230: e8a6 933d 7003 4239 e607 0fbe fa0a 85bd
00000240: d39e 81bd 1f61 0c3e 58d8 c2bd 2af0 d03c
00000250: b6b7 c63d b5b7 1cbe a6db e6bd ac53 98bd
00000260: a434 09be 4b9f 9cbd 3169 55bd bf62 36bd
00000270: 83e9 0dbe f3dd 7ebd 37fa c5bd a3da b8bd
00000280: 491d 93bd 3ae4 a0bd aea7 093b c319 b03d
00000290: be8b 3a3b 2cb7 1e3d 6266 07be a241 97ba
000002a0: bb5b 41bd 971a 53bc fc2c 393e eda6 b83d
000002b0: 0f4f 53bd 38db f6bc 0efa 0d3d 4f68 82bd
000002c0: 9943 2f3e 7a0c e3bc 2ebc 2f3d f363 e53d
000002d0: 4e7c c43d 8ee6 1f3e 225f 20bd 4cce ffbc
000002e0: 2b45 003d 0b0b 81bd 5fe4 1abe aaf4 753b
000002f0: 0af8 e43d f5bf f13d 4d7f 953d fadd 8d3d
00000300: 7d5d b13d ea3c 88bd 5878 13be 53ca f33d
00000310: 10c7 3bbd 3393 803c cfc6 12bd bc75 b43c
00000320: 6d07 c33c 032a fb3d f90d 08bd 9428 df3c
00000330: 910b 54bd 41d2 9c3d aee1 4a3c eb8b fc3d
00000340: e8ba 15be 571d 80bd d3c5 d13d 15f8 c8bd
00000350: 6cbc 92bc a2b0 373d cd1f 39bd ec66 dcbd
00000360: 762c 5abb 00a0 ab3d fc0a 2a3c 97ec 25bc
00000370: 56c4 04be 386f 27bd 56d2 9b3d 3bdd 03be
00000380: bccb e73d 54c4 d33c ad21 003e 4859 4ebb
00000390: 0014 d3bd f043 7d3d 44ba f1bd e759 243c
000003a0: 58df dcbc b147 c3bd 92ec e03d 8417 6ebd
000003b0: f5de bd3d 4619 e6bc a803 5dbd 08e6 e9bd
000003c0: 1df9 2dbc 8acb cc3d a974 e43d 5624 543d
000003d0: 9df7 c9bd 0905 193b dfec 77bd 28e2 393d
000003e0: 5c7f d93d 13ac 8f3d 9b33 ab3c 74f6 e3bc
000003f0: 1727 94bd 83e2 5abd d78e 58bd 3516 963d
-0.123043485 0.03799657 -0.113946766 0.017055182 0.026571888 0.0094286185 -0.09523699 0.074929394
0.03959651 0.08850897 -0.003083827 -0.13779649 -0.12434608 -0.08345033 -0.013603888 0.05757388
0.009872203 -0.020891203 -0.048732176 0.08377908 0.098847285 -0.13398555 -0.036281947 0.056358002
0.08749901 -0.009032825 0.14575703 0.05493412 -0.01643655 -0.025789175 0.13708644 0.08780486
-0.095608376 0.041070044 -0.086126566 0.03104986 0.09600436 -0.07433963 -0.14797589 0.077456996
0.027596515 0.08696431 0.10324489 0.12830855 -0.07591675 -0.065690465 0.094412625 0.06200297
-0.0069071325 0.13683194 0.049022555 -0.02891858 0.14108595 -0.057373278 0.10097606 -0.01184216
-0.118774004 0.014885201 -0.09819104 -0.094423845 -0.050160553 0.059905685 0.1093355 -0.07019517
-0.042476635 -0.051080592 0.09128213 0.10347733 0.12151791 -0.07296345 -0.0061314236 -0.04818995
0.105333626 0.018763954 -0.16014081 -0.037830774 -0.08737409 0.009274219 0.07583605 0.0053017116
0.1059397 0.03276986 0.10145723 0.004693358 -0.09228769 0.051879387 0.001217908 0.10809133
-0.10618921 -0.015108101 0.113003395 0.06428324 -0.01589568 -0.14664981 0.15160286 0.031950925
0.058896203 -0.03365292 0.13993661 -0.020804869 0.08904831 0.10905313 0.075678386 0.025972636
-0.06770121 -0.0021836697 -0.034567293 -0.044344142 -0.07424082 0.082781464 0.05282641 -0.076719046
-0.040073752 0.07663638 0.040637903 -0.022807818 -0.0044951276 -0.05106143 0.023944726 -0.079282895
-0.05249251 0.05357219 -0.13395081 0.046073005 -0.041347962 0.0905642 -0.019414922 0.07292936
0.012926961 0.0077045737 -0.1514889 0.09832717 0.066291414 0.00059078145 0.126634 -0.009762433
0.13464436 -0.029569369 0.03847181 -0.14364657 0.07209569 0.00018502562 -0.13967857 -0.06496234
-0.063291214 0.13708924 -0.095139205 0.025505144 0.09703009 -0.15304454 -0.11272363 -0.07437834
-0.13398987 -0.0764757 -0.05210227 -0.044527765 -0.13858609 -0.062223386 -0.09666865 -0.09026077
-0.0718332 -0.07856031 0.0021004486 0.08598664 0.002846464 0.038748905 -0.1322265 -0.0011539946
-0.04720662 -0.0128847575 0.18083566 0.090162136 -0.051589068 -0.030133829 0.0346623 -0.063675515
0.1711563 -0.02771591 0.04290407 0.112007044 0.09594022 0.15615293 -0.039153226 -0.0312263
0.031315964 -0.063009344 -0.15126179 0.0037529864 0.11180122 0.11804191 0.07299671 0.06927104
0.086604096 -0.066522434 -0.14401376 0.11903825 -0.045844138 0.01569519 -0.03583413 0.022028796
0.023807252 0.122638725 -0.03321645 0.027241029 -0.051768843 0.0765729 0.012382908 0.12331375
-0.1462208 -0.06255596 0.1024281 -0.09812943 -0.017912112 0.044846185 -0.045196343 -0.10761818
-0.003329066 0.08380127 0.010378595 -0.010127208 -0.12965521 -0.04087755 0.07608478 -0.12877361
0.11318156 0.025850452 0.12512846 -0.0031486321 -0.10306549 0.06183237 -0.118031055 0.0100312
-0.026961967 -0.095351584 0.10982622 -0.058127895 0.09271041 -0.028088223 -0.053958565 -0.11420828
-0.010618475 0.099997595 0.11155064 0.051792465 -0.098616816 0.0023348948 -0.060528632 0.045381695
0.10619995 0.070152424 0.02089863 -0.027827479 -0.07234018 -0.053438675 -0.052870598 0.073284544

lstm.bias_ih_l1 f4 [256]
00000000: 5904 f53c 5e7b e83d 0a70 cb3d 2ac5 9fbd
00000010: eb1c 043d 2636 9a3d 9d9b a03d ef6d 80bd
00000020: 963e a5bc 265d 88bd 7d8a 1a3d d282 abbd
00000030: b90a 973d d263 99bd f6b4 da3c 571c 883c
00000040: 9ace de3b 9c8e aebd 9cb8 b03d 0378 053e
00000050: 1265 1c3d 61bd 9f3d 24c0 b9bd 79dc bfbc
00000060: 8b7e aa3b b08e 143e e5f4 443d 33ce fdbd
00000070: 9718 293d cbce c93c 3a46 3c3d e365 bf3d
00000080: 80ae b63d d653 ac3c df42 8d3d c5d7 c13c
00000090: 6abc 55bd 3897 163e 25c2 413d d2e6 b63d
000000a0: b87a 68bd 5b8d 0a3c 55cf 32bd 61b8 83bb
000000b0: 7a2c f13d 64de b5b9 3282 c43d 7f35 de3d
000000c0: 09cb 77bd 2382 373e e6eb 98bd 914e de3d
000000d0: 90f4 d53b 4b16 acbd 584e 093d ad37 1e3e
000000e0: 1bff a43d 13c3 5b3c f173 5f3d b560 9a3d
000000f0: 778c aabd 1120 a3bd a873 cbbd c1b6 de3d
00000100: 35f3 f2bd d0a8 12bd 7fdd bf3d 3723 83bd
00000110: a8cc 9dba 2c14 013e 5989 1a3d 0483 373c
00000120: 2b4a a6bd b19d bbbd fc9c 373b dd98 0d3e
00000130: b8cb a03c 1295 9f3d 65d9 d93a f0ae f43a
00000140: 030f d83d 0e28 0b3d ccf0 633d 643b a23d
00000150: 7b05 403d 6caf ab3d d8bd 73bc 85ef 4cbc
00000160: 8729 8f3d e4d1 b43d 340e 063e 4c96 a0bd
00000170: b1da b03c db2d cb3d 46b1 983d 880d 073e
00000180: 2213 c03c fb10 9ebd 2048 c23c 90ea fbbc
00000190: 5b89 143d 82d4 c8bd 303e a1bd 5691 ef3b
000001a0: 07b2 633c 7743 97bd f4f7 313d a592 7bbd
000001b0: 7fa3 b33d ec3d a6bc a33f 0e3e cda9 e7bc
000001c0: 857d 873d 7de3 a03d f4f9 d33d 5ae0 09be
000001d0: bdb4 cab9 a3a7 abbd cd33 c5bd f558 6abd
000001e0: 432e 0e3e e88f aabc 6388 8ebc 1caf 383c
000001f0: 0c47 5d3d 0931 dabb f864 dbbd 477d 413d
00000200: 7b0e bb3d 5c56 fb3d 60e3 1e3d c3fa d13d
00000210: c15a 253d 961d d33d 3197 0c3e 4e6c f5bd
00000220: 097c f53d 0fce 8abd 9f99 bfbd 2219 f5bc
00000230: 1914 963d 7ac4 aabd 4e97 573d 570e 9bbd
00000240: 3247 dabc bbe3 133d f014 4e3d 9ed2 beba
00000250: bb78 e5bd 591a 733d 051b 68bd 7a52 e23d
00000260: 7eae 0c3d 9b06 37bd a824 cb3c 9481 d1bd
00000270: 3cf8 ca3b 6f26 7bbc ec61 0ebd ae98 07be
00000280: 8a47 973d 8830 7a3d 05ce ca3d 1776 82bd
00000290: 7376 bfbd 8dd8 7abd 73fa 0ebc 5ae6 043e
000002a0: 963b aebc 910a 9fbd d003 b9bb a94a d03d
000002b0: 1def e03d 1171 29bd 7976 f33d 1034 a3bd
000002c0: 5939 dbbd caa0 37bd 50fc c0bd 1055 5d3d
000002d0: 08be 833d e9c6 033c c342 9fbc 3be1 173c
000002e0: 5587 b33d 45fe 37bd 7fc5 fcbc 97b0 8fbd
000002f0: 9825 443d 6a2c e9bb 71fe abbc 3c18 72ba
00000300: 69fe d4bd c589 5abd 3a3a 8fbc c44b 12bd
00000310: b9f0 00be a8de 8e3d e844 b3bd be62 b0bd
00000320: 5475 963d 8e21 7bbd 8665 dc3d 55d6 033d
00000330: c1dd 06be 3efe 143e 3be1 e4bd 0c42 dabd
00000340: ae9e cfbd cecc 773d a2b5 b7bd e7f3 a538
00000350: 86f5 e33d 2dab c1bc 697d e73d 8657 e3bd
00000360: b4e1 913d 8766 19bd f308 a5bd f836 023d
00000370: c528 74bd c3b8 bbbd bfc2 c93d 1c18 86bd
00000380: c49a 8bbd bfa8 fbbc a098 803d 8bb0 803d
00000390: aa86 97bd 4cc1 d0bd 536b c9bd de28 053d
000003a0: bd47 29bd f4ce c0bc 2d1a e23d a1a7 9cbd
000003b0: 81e5 763c 0a8d 0fbd 8d6e 413d a087 203e
000003c0: 0a6d 9ebd b7b1 9e3d 4916 e13d 9719 cb3d
000003d0: f633 593d 03b4 0d3e 5409 f73d 234e 9dbd
000003e0: 4e2f 7fbc 638e 3d3a a5e5 ad3d 2156 e4bc
000003f0: f377 5f3d 6e31 043e d83e e03d d917 d23c
0.0299093 0.113516554 0.09933479 -0.07801278 0.03225414 0.07529859 0.07842181 -0.06270968
-0.020171445 -0.06658392 0.03772973 -0.08374561 0.07375092 -0.07489742 0.026697617 0.016615076
0.006799531 -0.08523294 0.086289614 0.13034062 0.038182326 0.07799793 -0.09069851 -0.02342056
0.0052030734 0.14507556 0.048085112 -0.12392845 0.041283216 0.02463474 0.04596541 0.09345605
0.08920002 0.02103607 0.0689752 0.023662457 -0.05218164 0.14706123 0.04730429 0.08930744
-0.05675766 0.008456553 -0.04365476 -0.0040197824 0.11776061 -0.00034688704 0.09595145 0.10850047
-0.060496364 0.17920737 -0.07466869 0.10854829 0.0065293983 -0.084026895 0.03352198 0.15450926
0.0805647 0.013413209 0.05455393 0.07537977 -0.08327573 -0.079651006 -0.09934169 0.10874701
-0.11862794 -0.035805523 0.09368419 -0.06403201 -0.0012039142 0.12605351 0.03772864 0.01120067
-0.08119615 -0.091609366 0.0028017154 0.13827844 0.01962839 0.07792105 0.0016620575 0.0018667858
0.10549738 0.033973746 0.055649564 0.07921484 0.046880227 0.083830684 -0.014876805 -0.012508278
0.069903426 0.08829096 0.13091356 -0.07841167 0.021588655 0.099208556 0.07455687 0.13188756
0.023446623 -0.077180825 0.023716033 -0.030751497 0.036263805 -0.09806158 -0.078731894 0.0073110266
0.0138974255 -0.07385915 0.043449357 -0.061419148 0.08771419 -0.020293199 0.13891463 -0.02827921
0.06615738 0.0785589 0.10350409 -0.1346449 -0.00038663103 -0.083815835 -0.09629021 -0.057213742
0.13884835 -0.020820573 -0.017399019 0.011272218 0.054022834 -0.0066586775 -0.10712618 0.047238614
0.09133621 0.12272331 0.03879106 0.10252907 0.040369753 0.103083774 0.1372955 -0.11983548
0.119865485 -0.06777584 -0.09355473 -0.02991921 0.07328052 -0.08338256 0.05263453 -0.075710945
-0.026645277 0.036105853 0.050312936 -0.0014558618 -0.11204668 0.0593513 -0.056666393 0.110508874
0.034346096 -0.044684034 0.024797752 -0.10229793 0.0061941426 -0.0153289875 -0.034761354 -0.13241836
0.07386692 0.06108144 0.09902576 -0.0637018 -0.09348764 -0.061241675 -0.008726704 0.12978497
-0.021268647 -0.07765687 -0.0056462064 0.1017049 0.10983107 -0.041367594 0.11887831 -0.079689145
-0.107042976 -0.044831075 -0.09423125 0.0540362 0.0643273 0.008043029 -0.019441014 0.009270008
0.08766047 -0.044920225 -0.030855892 -0.07016104 0.047887415 -0.0071158903 -0.02099535 -0.00092351786
-0.104000874 -0.053354044 -0.01748382 -0.035716787 -0.12591828 0.06976062 -0.08753377 -0.086125836
0.07346597 -0.061311297 0.107615516 0.032186825 -0.1317053 0.1455011 -0.11175772 -0.10657129
-0.101376876 0.06049805 -0.089701906 7.9132435e-05 0.11130814 -0.023641193 0.11303217 -0.11100678
0.071231276 -0.037451293 -0.080583476 0.031790704 -0.059609193 -0.091661 0.09851598 -0.06547567
-0.068166286 -0.030720113 0.06279111 0.06283673 -0.07398732 -0.101931185 -0.098349236 0.032509677
-0.04132818 -0.023536183 0.11040149 -0.0764916 0.015069366 -0.035046615 0.04722457 0.15676737
-0.07735641 0.0774874 0.10990579 0.0991699 0.05302807 0.138382 0.12062326 -0.07680919
-0.015575243 0.0007230995 0.08491067 -0.0278731 0.054557752 0.12909481 0.109494865 0.025646137
