models/lstm_mid_model.pt (torch, 245045 bytes, 9 tensors)

lstm.weight_ih_l0 f4 [256, 38]
0	0x3e4ddf4d	0.20104714
1	0x3e11496c	0.14188164
2	0x3e04f3f9	0.12983693
3	0x3e07f998	0.13278806
4	0x3d9caf34	0.07650605
5	0x3d38dfc2	0.045135267
6	0xbce655c3	-0.028117066
7	0x3dc576b1	0.09641779
8	0x3e156a11	0.14591242
9	0xbbee409e	-0.0072708866
10	0x3e0f45b5	0.13991435
11	0x3c9ce90f	0.0191541
12	0x3e219c74	0.15782338
13	0x3d605aca	0.054774083
14	0x3dc2c0c4	0.095094234
15	0x3d32505a	0.04353366
16	0x3e2690b7	0.16266142
17	0xbcc7c49b	-0.024385741
18	0xbcd3c3e4	-0.025850244
19	0x3d1198d1	0.035546128
20	0xbd829ef3	-0.063779734
21	0xbcabdd4d	-0.020979548
22	0x3cf3de75	0.029769162
23	0x3da5d3dc	0.080970496
24	0xbd8001cd	-0.062503435
25	0xbd6c098c	-0.057626292
26	0xbdd6b9c0	-0.10484648
27	0xbdef0945	-0.1167169
28	0xbb4e5d41	-0.003148869
29	0xbe10ce5a	-0.14141217
30	0x3daacd6b	0.083399616
31	0xbdaa88bd	-0.08326862
32	0x3da85ffa	0.08221431
33	0x3d655b21	0.05599511
34	0xbd1d7826	-0.03844466
35	0x3dbee1c5	0.09320406
36	0x3ca1cd34	0.019751169
37	0x3ddf34e2	0.108987585
38	0x3d0381d1	0.032106224
39	0xbd882345	-0.06647352
40	0x3d94c84a	0.072647646
41	0x3c337a7c	0.0109544955
42	0x3d9d4e34	0.07680932
43	0x3e63fd34	0.22264558
44	0x3e13ab1f	0.14420746
45	0x3d826e33	0.06368675
46	0x3dc71d9a	0.09722443
47	0x3d7f6cc7	0.062359598
48	0x3da8818b	0.08227833
49	0xbd2d52fb	-0.042315464
50	0xbdbb6c56	-0.09151523
51	0xbd2f904d	-0.042862225
52	0xbdcbd74d	-0.09953175
53	0x3e68a15b	0.22717802
54	0x3e3a7ed1	0.18212439
55	0x3de4b8cf	0.11168062
56	0x3cdc40df	0.026886402
57	0x3d42d4a4	0.04756607
58	0x3e8be56c	0.27323472
59	0x3cdf513c	0.027260415
60	0x3c0643c9	0.008194872
61	0x3d8a6ded	0.06759248
62	0x3e39d118	0.18146169
63	0xbd3052e0	-0.043047786
64	0x3c9838b0	0.018581718
65	0xbd17e5f2	-0.037084527
66	0x3dfb18c2	0.122605816
67	0xbd980af1	-0.07423962
68	0xbcebda09	-0.02879049
69	0xbd3ea19a	-0.046540834
70	0x3e2703c1	0.16310026
71	0x3da1ca16	0.07899873
72	0xbe10f80d	-0.14157124
73	0xbe16bdd4	-0.14720851
74	0xbdd89ffe	-0.10577391
75	0xbde025c1	-0.10944701
76	0x3c83908b	0.016060134
77	0x3dc525c8	0.09626347
78	0x3d845cde	0.064630255
79	0x3d9d9dfc	0.07696149
80	0xbde12b7a	-0.109946206
81	0xbe217d3c	-0.1577043
82	0x3da6b39e	0.08139728
83	0xbdcd4b6c	-0.10024151
84	0x3de38652	0.11109604
85	0x3c3f4317	0.01167371
86	0x3e2c2bfd	0.16813655
87	0xbd9d87a0	-0.07691884
88	0xbd7f08eb	-0.062264364
89	0x3e035f83	0.12829404
90	0x3da7dfba	0.08196969
91	0x3d0bfcb8	0.03417656
92	0x3e8cc1d4	0.2749163
93	0x3e224bef	0.15849279
94	0xbdc7e437	-0.097603254
95	0xbe302b88	-0.17204106
96	0x3de5aad2	0.11214222
97	0xbdefa6da	-0.11701746
98	0xbdd04d8d	-0.10171042
99	0xbe01989b	-0.1265587
100	0x3d2302f2	0.03979773
101	0x3cffcc88	0.031225458
102	0xbd094f13	-0.033522677
103	0x3d35b2b6	0.044359885
104	0xbb407417	-0.002936607
105	0xbcea4822	-0.028598849
106	0xbe04ffc8	-0.12988198
107	0x3c5732b3	0.013134646
108	0xbdc2bd55	-0.095087685
109	0xbcd85773	-0.026408887
110	0x3e2b244f	0.1671307
111	0x3d076612	0.033056326
112	0x3da72784	0.08161834
113	0xbdb86d8e	-0.09005271
114	0xbe68d654	-0.2273801
115	0xbdcf43db	-0.10120364
116	0x3c02a449	0.007973739
117	0xbcb7c430	-0.022432417
118	0xbd5a3db6	-0.05328151
119	0xbdf3ad21	-0.11898256
120	0x3e097eac	0.13427228
121	0xbc9fae57	-0.019492311
122	0x3d89126c	0.06692967
123	0xbd8cb349	-0.068701334
124	0xbcafe6cf	-0.021472363
125	0xbd47236a	-0.048617758
126	0x3d2f9d6a	0.04287473
127	0xbcb308f2	-0.021854851
128	0x3e4a23e7	0.19740258
129	0xbcfe1a68	-0.03101845
130	0x3dbe2ae9	0.09285528
131	0x3d4725ff	0.04862022
132	0xbdd00f24	-0.10159138
133	0x3dd5f243	0.104465984
134	0x3dff9f8c	0.12481603
135	0x3d092aea	0.03348819
136	0x3d2b5124	0.04182543
137	0xbe066b2d	-0.13126822
138	0x3d43b603	0.047781
139	0xbcdfafc0	-0.027305484
140	0x3d90d275	0.070713915
141	0xbccd82a2	-0.025086705
142	0x3d176430	0.03696078
143	0xbd73cce4	-0.05952157
144	0x3d826963	0.06367757
145	0x3df3e191	0.11908258
146	0x3e22a6e7	0.1588398
147	0x3e12766b	0.14302985
148	0x3e828faa	0.25500232
149	0xbdbf630e	-0.09345065
150	0x3d294e1e	0.041334264
151	0xbd3c2323	-0.045931946
152	0x3cac7011	0.021049531
153	0xbcb72924	-0.022358485
154	0x3dd6448f	0.10462295
155	0xbe1552ad	-0.1458232
156	0x3df5293d	0.11970756
157	0x3d9c5860	0.07634044
158	0x3dc0a137	0.09405749
159	0xbcb3f811	-0.021968873
160	0x3e23f515	0.1601146
161	0x3be5e6fa	0.00701606
162	0xbda44679	-0.08021254
163	0xbd8bf740	-0.068342686
164	0x3cd7dd91	0.026350768
165	0x3ddbdfa0	0.107360125
166	0x3d83dc60	0.064385176
167	0x3e2bc492	0.16774204
168	0x3d8b0726	0.06788473
169	0xbe132d32	-0.1437271
170	0xbc665761	-0.014058919
171	0xbd1aae00	-0.037763596
172	0x3d0c59f2	0.034265466
173	0xbda23d8d	-0.07921896
174	0xbd1b34fd	-0.03789233
175	0xbd322dc6	-0.043500684
176	0xbcdf0bf0	-0.027227372
177	0x3d369888	0.04457906
178	0x3dfb78e7	0.1227892
179	0xbe01198e	-0.12607405
180	0xbd52140d	-0.051288653
181	0x3dd0f0a2	0.10202147
182	0xbb2ecbb2	-0.0026671705
183	0x3d52625f	0.051363345
184	0x3dd8f88e	0.10594283
185	0x3def1fa6	0.11675958
186	0x3d9c64d9	0.07636423
187	0x3df7aefc	0.120939225
188	0x3dc2a8fe	0.09504889
189	0x3e190aac	0.14945477
190	0x3ca84d6c	0.02054473
191	0xbce2ad0d	-0.027670408
192	0x3da88fe5	0.08230571
193	0x3d798985	0.060922164
194	0x3c118b3c	0.008883294
195	0xbd6b8fd1	-0.0575102
196	0x3d45fe2e	0.048338108
197	0xbd072d58	-0.033002228
198	0x3cf337b9	0.029689657
199	0x3da487e3	0.08033731
200	0xbe1f7b3b	-0.15574352
201	0xbcc17653	-0.023615992
202	0x3da9b664	0.082867414
203	0x3d4dc615	0.050237734
204	0xbc7e1f8d	-0.015510452
205	0xbdd454f0	-0.10367763
206	0xbd43e5cf	-0.047826584
207	0xbddd7a5b	-0.10814353
208	0x3cc2bce7	0.023771716
209	0xbcafb26c	-0.021447383
210	0x3e51423b	0.20435421
211	0x3cee3b39	0.029080974
212	0xbdd5a177	-0.104311876
213	0xbdd97f54	-0.10619989
214	0xbc654dd3	-0.0139956055
215	0x3df7a438	0.12091869
216	0xbbafc2aa	-0.005363782
217	0x3db9ef1b	0.09078809
218	0x3d9c7415	0.076393284
219	0x3bfa94e5	0.007647144
220	0xbdcce50c	-0.10004625
221	0x3de939e2	0.113879934
222	0xbd82e9b5	-0.06392232
223	0xbb0b4641	-0.0021251591
224	0xbb572d61	-0.0032833444
225	0x3e3a214a	0.18176761
226	0x3e315961	0.17319252
227	0x3e0924a7	0.13392888
228	0xbbc66363	-0.0060543283
229	0xbd9287f4	-0.07154837
230	0xbd8ca4e9	-0.068673916
231	0x3d8db3db	0.0691907
232	0x3dd77eb0	0.105222106
233	0x3e04c778	0.12966716
234	0x3d94f99a	0.0727417
235	0x3b48005c	0.0030517792
236	0x3b8f889b	0.0043802983
237	0xbda04abb	-0.07826754
238	0xbe22b084	-0.15887648
239	0xbda4cc8d	-0.080468275
240	0x3cbdd535	0.023172954
241	0xbd437496	-0.047718607
242	0xbccc0568	-0.024904922
243	0xbc484452	-0.01222332
244	0x3de332e3	0.1109369
245	0xbd325fa8	-0.043548256
246	0xbc36871a	-0.011140609
247	0x3d42af0c	0.04753022
248	0x3b356230	0.0027676933
249	0x3d9dee85	0.077115096
250	0xbd98ab82	-0.074545875
251	0xbd215b8c	-0.039393947
252	0x3dba7acb	0.09105452
253	0xbd7830d0	-0.060593426
254	0xbdcdb92e	-0.10045086
255	0xbd74b56a	-0.059743322

lstm.weight_hh_l0 f4 [256, 64]
0	0xbcf9b724	-0.030482836
1	0x3d9dcbe0	0.07704902
2	0x3d8adc3f	0.0678029
3	0xbe3f100d	-0.18658467
4	0xbe1d47d8	-0.15359437
5	0xbc848061	-0.016174497
6	0xbe1b40cd	-0.15161438
7	0xbd7dd1c7	-0.061967637
8	0x3d86d2f2	0.065832034
9	0x3d983c7c	0.074334115
10	0xbd6216d3	-0.055197548
11	0x3d31443e	0.04327797
12	0x3d1453a6	0.036212586
13	0x3b9a4cfc	0.0047088843
14	0x3d617efe	0.05505275
15	0xbcd696aa	-0.02619489
16	0xbdf3ec18	-0.11910266
17	0x3da67b77	0.08129018
18	0x3e4492e0	0.19196653
19	0xbde6944b	-0.112587534
20	0x3e128d01	0.14311601
21	0x3d2466da	0.04013715
22	0x3db35c02	0.087577835
23	0x3e337aad	0.17527266
24	0x3e190a95	0.14945443
25	0xbe0cb807	-0.13742076
26	0xbdccfc61	-0.10009075
27	0x3dc503be	0.096198544
28	0x3d9895af	0.07450425
29	0xbd86fd80	-0.0659132
30	0x3cd77ce8	0.026304677
31	0x3cf59317	0.029977364
32	0xbd8da166	-0.0691555
33	0x3d815b83	0.063162826
34	0xbe7dcf84	-0.24786192
35	0xbcb9ba22	-0.022671763
36	0xbd72c656	-0.05927118
37	0x3d6f2916	0.058388792
38	0xbe2a44f5	-0.16627868
39	0x3e12465e	0.14284655
40	0xbdaa047d	-0.08301637
41	0x3cd35656	0.025798004
42	0xbe0dd17b	-0.13849442
43	0xbd3e0373	-0.04639001
44	0x3d1d3862	0.03838385
45	0xbe6c33d7	-0.2306665
46	0xbe3a689e	-0.18203971
47	0x3c7d7304	0.015469316
48	0x3c77ca6f	0.0151239475
49	0xbcdeae92	-0.027182851
50	0xbd7928e2	-0.060830005
51	0x3c968832	0.01837549
52	0x3d85f0ac	0.06540045
53	0x3e2436c0	0.1603651
54	0xbdcfe6d4	-0.10151449
55	0x3d975b95	0.07390515
56	0xbddf216e	-0.10895048
57	0xbd951f74	-0.0728139
58	0x3d8cf579	0.06882758
59	0xbc221790	-0.009893313
60	0xbe184e9d	-0.14873739
61	0x3cdf15d3	0.027232086
62	0xbcdbe8b1	-0.026844354
63	0xbc80186c	-0.015636645
64	0x3ccbc0a4	0.024872132
65	0xbe3fde20	-0.18737078
66	0xbe4a6f25	-0.19768961
67	0xbe336c70	-0.17521834
68	0xbd36fa86	-0.04467251
69	0x3d2bb7c0	0.041923285
70	0xbe5078a2	-0.20358518
71	0xbe225960	-0.15854406
72	0xbc4f3627	-0.012647188
73	0x3e567b5a	0.20945492
74	0xbd3b830d	-0.045779277
75	0x3e85978a	0.26092178
76	0x3cc9ba82	0.024625067
77	0xbd84930b	-0.06473359
78	0x3c75ed8e	0.015010251
79	0x3e5107c1	0.20413114
80	0xbe0734c9	-0.1320373
81	0xbd8edc67	-0.06975632
82	0x3d23d12e	0.03999441
83	0xbea5615c	-0.32300842
84	0x3cbdfa75	0.023190716
85	0x3b4b0833	0.003098023
86	0x3da94859	0.08265752
87	0x3e6723c2	0.22572234
88	0x3e23f915	0.16012986
89	0xbe252061	-0.16125633
90	0x3e08858e	0.13332197
91	0xbd27816a	-0.040894903
92	0x3d21da3b	0.03951476
93	0xbd1a1fdb	-0.037628036
94	0x3e43f572	0.19136599
95	0x3d94c4ec	0.07264122
96	0x3de0442a	0.10950501
97	0x3de244a0	0.110482454
98	0xbe6a56ed	-0.22884722
99	0x3dad1ee3	0.08453157
100	0x3d2211d1	0.039567772
101	0xbe5a9342	-0.21345237
102	0xbdafff1f	-0.08593582
103	0x3e29e48e	0.16591093
104	0x3c951f91	0.018203529
105	0xbd4c33dd	-0.04985415
106	0xbd91c14c	-0.071169466
107	0xbd4ac8c5	-0.049507875
108	0xbd89a18d	-0.067202665
109	0xbe39f111	-0.18158366
110	0xbd2e60e8	-0.042572886
111	0x3dcf1735	0.10111848
112	0x3e9fb04b	0.31189188
113	0xbc993c3d	-0.018705482
114	0x3c9df234	0.01928053
115	0xbc789fbf	-0.015174805
116	0xbe265b87	-0.16245852
117	0xbd134524	-0.03595461
118	0xbd3f4c11	-0.046703402
119	0x3dbc43ef	0.09192645
120	0xbd085582	-0.03328467
121	0xbd352f59	-0.044234607
122	0x3dfcac05	0.123374976
123	0x3dfd035a	0.12354155
124	0xbe459cd8	-0.19298112
125	0x3d2d4912	0.042306013
126	0xbe867a84	-0.26265347
127	0xbc38ffb5	-0.011291434
128	0x3d81000a	0.062988356
129	0xbe2cda9b	-0.16880266
130	0x3e2c2a0c	0.16812915
131	0x3d8e9edb	0.06963893
132	0xbe20765f	-0.15670155
133	0xbe5733ce	-0.21015856
134	0x3e583b91	0.21116473
135	0xbddcabad	-0.10774932
136	0x3c7aa32c	0.015297692
137	0x3d0186a0	0.03162253
138	0x3ddc3de2	0.10753991
139	0x3d49f771	0.049308244
140	0xbc0b0e1f	-0.008487253
141	0xbd4d8079	-0.05017135
142	0xbe73468c	-0.2375738
143	0x3dcbd652	0.09952988
144	0x3d9f1b55	0.07768885
145	0x3e267a19	0.16257514
146	0x3df4207a	0.11920257
147	0xbd9060ef	-0.070497386
148	0x3e047d81	0.12938501
149	0xbc913e9a	-0.017730046
150	0x3e1bea1d	0.15226026
151	0x3e3d9849	0.18515123
152	0x3c82824e	0.015931275
153	0x3cb9604f	0.022628931
154	0xbdc525e8	-0.09626371
155	0x3e5089de	0.20365092
156	0xbe5d389c	-0.21603626
157	0xbd8f99cb	-0.070117556
158	0x3ddc733e	0.10764168
159	0x3c9c406f	0.019073693
160	0xbe2e08b4	-0.16995507
161	0xbc5a8aca	-0.013338754
162	0xbd11c03e	-0.035583727
163	0x3e0bbfb6	0.1364735
164	0xbd1ef763	-0.038810145
165	0x3e419b01	0.18906786
166	0x3e5380bc	0.20654577
167	0xbd417683	-0.047232162
168	0xbdf7fbd3	-0.121085785
169	0x3e1a4a03	0.15067296
170	0xbd30ed37	-0.043194976
171	0xbd9242bf	-0.07141637
172	0xbdcc9113	-0.09988608
173	0x3d5ecfa2	0.054397233
174	0x3d903667	0.070416264
175	0xbdf88ce4	-0.12136248
176	0x3df84a30	0.12123525
177	0xbdac1fdc	-0.08404514
178	0xbdf48b9c	-0.11940691
179	0x3dcdfd95	0.100581326
180	0xbd92733f	-0.07150888
181	0xbd83b08b	-0.06430157
182	0xbbe71922	-0.0070525566
183	0xbd4802a7	-0.048830654
184	0xbd3f8056	-0.04675325
185	0xbdc2bae5	-0.095083036
186	0x3e06e663	0.13173823
187	0x3e2450ca	0.16046444
188	0x3cb51a6d	0.022107327
189	0xbde17faf	-0.11010682
190	0x3cf25c33	0.02958498
191	0x3d2fd90c	0.0429316
192	0x3d1fdd54	0.039029434
193	0x3cfc177a	0.030772913
194	0x3d74aaa2	0.05973304
195	0xbd47d1d4	-0.048784092
196	0x3db50e2d	0.088405944
197	0xbe3ae18a	-0.18250099
198	0x3dc15d6a	0.094416454
199	0x3d956412	0.072944775
200	0xbd3a3f23	-0.045470368
201	0xbd18d9bb	-0.03731702
202	0xbd85c0a7	-0.06530886
203	0xbbbcac04	-0.0057578105
204	0xbbcd4efd	-0.0062655197
205	0xbe688b32	-0.22709349
206	0xbe59d0d5	-0.2127107
207	0xbdd90aaf	-0.10597741
208	0xbca1112e	-0.019661512
209	0x3e200833	0.15628128
210	0xbddee82f	-0.10884129
211	0xbd7ef561	-0.06224573
212	0x3e3b28f1	0.18277337
213	0x3dfb033a	0.12256475
214	0x3dae990d	0.08525286
215	0x3d877ae9	0.0661524
216	0xbbe3e6b2	-0.0069549913
217	0xbd58ed7d	-0.05296086
218	0xbdc16951	-0.09443916
219	0xbcc18f6e	-0.023627963
220	0xbc51b252	-0.0127988625
221	0xbdbf7416	-0.093483135
222	0xbdc76177	-0.09735387
223	0x3d5062b9	0.0508754
224	0xbdc4d8fe	-0.096117005
225	0x3c62ad58	0.013835274
226	0xbcfb5a86	-0.030682813
227	0x3d0c46c1	0.034247164
228	0xbd9c3e4e	-0.07629071
229	0x3e07737c	0.13227648
230	0xbd0900bd	-0.03344797
231	0xbd4697f6	-0.048484765
232	0xbbc45a37	-0.0059921998
233	0x3db00452	0.08594574
234	0xbe5eed19	-0.21770133
235	0xbd4d6368	-0.05014363
236	0x3e10abb9	0.14128007
237	0xbd12e851	-0.035866085
238	0x3e15de13	0.14635496
239	0x3cb2528b	0.021767875
240	0x3e228e3b	0.15874569
241	0x3db1916b	0.086703144
242	0xbdca80be	-0.09887837
243	0xbc850fe5	-0.01624293
244	0xbd051aae	-0.032496147
245	0xbd64fcb3	-0.055905055
246	0x3dfff084	0.124970466
247	0xbe278bbb	-0.16361897
248	0xbd877082	-0.06613256
249	0xbd070128	-0.032960087
250	0xbc6aee17	-0.014338992
251	0xbe02031c	-0.12696499
252	0x3d973d5c	0.0738475
253	0xbe392d72	-0.18083742
254	0xbbb5907f	-0.005540907
255	0xbd5a2b11	-0.053263728

lstm.bias_ih_l0 f4 [256]
0	0xbb56b8cc	-0.0032763956
1	0xbc097122	-0.008388789
2	0x3cd08464	0.025453754
3	0xbd858da6	-0.06521158
4	0x3da71abc	0.08159396
5	0x3dfed0f1	0.12442196
6	0x3dd30266	0.10303192
7	0x3e605d59	0.2191061
8	0x3e3c9d9c	0.18419498
9	0x3c82a3c3	0.015947228
10	0x3db8e7b8	0.09028572
11	0x3c3c78c6	0.011503404
12	0x3e0dd2a2	0.13849881
13	0xbd1995b7	-0.037496295
14	0x3b94ea9e	0.00454457
15	0x3e1302bb	0.1435651
16	0x3d8d1614	0.06888977
17	0x3d781cb3	0.060574245
18	0x3e1cdc04	0.15318304
19	0x3e241cd9	0.1602663
20	0xbd915579	-0.07096381
21	0x3cbb9de9	0.022902446
22	0x3c2c784c	0.010526728
23	0x3dea9b5a	0.11455412
24	0xbd105a2d	-0.03524225
25	0x3e8073a2	0.2508822
26	0x3d36ec24	0.044658795
27	0x3d86fd77	0.06591313
28	0xbd38326b	-0.044969957
29	0x3dd53d1f	0.104120485
30	0x3d1b7427	0.03795257
31	0x3e23fe8f	0.16015075
32	0x3bd61946	0.0065337745
33	0x3e42f082	0.19037059
34	0xbc1284a3	-0.008942756
35	0x3da75098	0.08169669
36	0xbc6116c2	-0.013738336
37	0x3db31a42	0.08745243
38	0xbdcd8b8a	-0.100363806
39	0x3db34823	0.08753993
40	0xbbec9f18	-0.007221114
41	0x3c95345f	0.018213449
42	0x3d7a345d	0.061085094
43	0xbcda2883	-0.026630646
44	0x3e012ceb	0.12614791
45	0x3e355262	0.17707208
46	0x3dc643eb	0.09680923
47	0xbbf28e30	-0.007402204
48	0x3e636cad	0.22209425
49	0x3e4b3a64	0.19846493
50	0x3cee1015	0.029060403
51	0xbdad8f1c	-0.084745616
52	0x3df2fa70	0.118641734
53	0x3ddae658	0.10688466
54	0x3db70b10	0.08937657
55	0xbd265a42	-0.04061342
56	0xbd3a3c15	-0.045467455
57	0x3de99896	0.114060566
58	0xbd92adea	-0.07162078
59	0x3db8206e	0.089905605
60	0x3dea4311	0.11438573
61	0xbb5e35e3	-0.003390663
62	0xbd9f8759	-0.077894874
63	0xbdb19d98	-0.08672637
64	0x3e00cae8	0.12577403
65	0xbbe498ed	-0.006976238
66	0x3da1da16	0.07902925
67	0xbdab49d9	-0.08363695
68	0xbd9bcb97	-0.07607191
69	0x3da60ea6	0.08108263
70	0xbdcdeff4	-0.10055533
71	0x3de8fcb9	0.11376328
72	0x3cf478af	0.029842703
73	0x3e0e3118	0.13885915
74	0xbcb7f086	-0.022453558
75	0xbce65211	-0.028115304
76	0xbcd5c9d0	-0.026097208
77	0x3dc47934	0.0959343
78	0x3ccfc15e	0.02536076
79	0x3cd861fa	0.026413906
80	0xbe0b9ebb	-0.1363477
81	0x3e299e58	0.1656431
82	0x3e4d2f4f	0.20037578
83	0xbcd66dbf	-0.026175378
84	0x3d2f2375	0.042758424
85	0xbccabb07	-0.024747385
86	0xbccd77f6	-0.025081616
87	0xbdf7bd59	-0.12096662
88	0xbd2be0b4	-0.04196234
89	0x3dc63565	0.09678153
90	0xbde3a816	-0.11116044
91	0x3e1eebb4	0.15519601
92	0xbd21b33d	-0.039477576
93	0xbbf1c59d	-0.0073782937
94	0xbd8fa97b	-0.07014748
95	0x3e43b36e	0.19111416
96	0x3c8b6ee6	0.017020654
97	0x3d9a349b	0.07529565
98	0xbc4bc8ff	-0.012438058
99	0x3e24b635	0.16085131
100	0xbdeabef1	-0.114622004
101	0x3d79c920	0.060982823
102	0x3c77b0ee	0.015117867
103	0xbc48bad1	-0.012251572
104	0xbd75c226	-0.059999608
105	0x3d89e5ef	0.067333095
106	0x3d5197a6	0.051170014
107	0xbd56f214	-0.052476957
108	0xbd2feb4c	-0.042949006
109	0x3dc276e8	0.09495336
110	0x3cf88a14	0.030339278
111	0x3c034305	0.008011584
112	0xbcfc46f6	-0.030795556
113	0x3cd18dd4	0.025580324
114	0x3e2d8054	0.16943485
115	0x3dbe2539	0.092844434
116	0x3df97418	0.12180346
117	0x3d0e4d23	0.034741532
118	0x3d6b9735	0.05751725
119	0xbdae45ec	-0.0850943
120	0x3db56dae	0.0885881
121	0xbd867e52	-0.065670624
122	0x3df43f42	0.11926128
123	0x3dfc20df	0.12310957
124	0x3d3978f0	0.04528135
125	0xbcd8eea3	-0.026480978
126	0x3d7e02cf	0.062014397
127	0x3e0a2453	0.13490419
128	0x3d308a36	0.04310056
129	0x3cd86137	0.026413543
130	0xbdcbb4fe	-0.09946631
131	0xbda97e02	-0.08275987
132	0xbdc2c1be	-0.0950961
133	0xbd8cfd1d	-0.06884215
134	0xbd8a9081	-0.06765843
135	0x3c750f61	0.01495728
136	0x3dc1277f	0.094313614
137	0x3d7fbc9a	0.062435724
138	0x3c888559	0.016665148
139	0x3dab1572	0.083537
140	0x3e07d801	0.13265993
141	0x3d3d57ab	0.046226185
142	0x3c0b3f03	0.00849891
143	0x3da7c3b4	0.08191624
144	0xbdf17350	-0.11789572
145	0x3d784191	0.060609404
146	0x3d69df31	0.057097618
147	0xbe133b45	-0.14378078
148	0xbe0a43f4	-0.13502485
149	0x3b84c2f8	0.0040515624
150	0x3d94c61d	0.072643496
151	0x3db57a8e	0.08861266
152	0xbdef8b4d	-0.116964914
153	0x3e062c37	0.13102804
154	0xbbba97e6	-0.0056943772
155	0xbc716b27	-0.01473502
156	0xbcafe55f	-0.021471677
157	0x3d9031a3	0.070407175
158	0x3d7dee14	0.061994627
159	0x3c939cbf	0.018019078
160	0xbdf7c33a	-0.120977834
161	0x3c32e596	0.010918995
162	0xbdf38031	-0.11889685
163	0xbe05f852	-0.13083008
164	0x3b8d8db4	0.004319871
165	0xbc4fba8d	-0.0126787545
166	0xbdd9d4b5	-0.10636274
167	0xbdef6e76	-0.116909906
168	0x3e11747c	0.14204592
169	0x3dff680f	0.124710195
170	0xbdff6aa9	-0.12471516
171	0xbdb574a0	-0.08860135
172	0x3d44d9aa	0.048059143
173	0xbb32a42a	-0.0027258494
174	0x3d926abf	0.071492665
175	0xbc05f5e2	-0.008176299
176	0x3d1b7b08	0.03795913
177	0xbe21fbf5	-0.1581877
178	0xbdd62b74	-0.10457507
179	0x3d4865dd	0.04892527
180	0x3d4c8f67	0.049941447
181	0x3d1ae603	0.037817013
182	0xbda736bf	-0.08164739
183	0xbdbf1532	-0.093302146
184	0xbd10e740	-0.035376787
185	0xbdc12307	-0.09430509
186	0xbdf6cfa3	-0.12051322
187	0x3d3193e7	0.04335394
188	0xbd889d70	-0.06670654
189	0xbe089fab	-0.13342158
190	0xbb093355	-0.0020935137
191	0x3d849666	0.06473999
192	0x3cbfce26	0.023413729
193	0xbd9f37e1	-0.0777433
194	0x3e1456a2	0.14486173
195	0xbc37367b	-0.011182423
196	0x3e851716	0.25994176
197	0xbd777f4d	-0.060424138
198	0x3e22473f	0.1584749
199	0x3d8f1e1a	0.06988163
200	0x3e11b51f	0.14229248
201	0x3d9a3ad4	0.07530752
202	0x3dce05a5	0.1005967
203	0x3d801ea9	0.06255848
204	0xbc68eaff	-0.014216184
205	0x3d24e318	0.040255636
206	0x3e0857db	0.13314764
207	0x3c6bfa48	0.014402933
208	0x3dfc1af7	0.12309831
209	0x3d20184c	0.03908567
210	0x3da3323c	0.07968566
211	0xbd0c3b36	-0.034236155
212	0xbd9d3401	-0.076759346
213	0x3d8c81df	0.068607084
214	0xbd2428dd	-0.040078033
215	0x3cb8f194	0.02257613
216	0x3d89624f	0.06708204
217	0x3e81ef58	0.25377917
218	0xbde486dc	-0.11158535
219	0x3b9986d7	0.0046852636
220	0xbd70dfc6	-0.058807157
221	0x3ce43547	0.027857436
222	0xbd5b4a5c	-0.05353771
223	0x3e24f21c	0.16107982
224	0x3dc83410	0.09775555
225	0x3db8f35c	0.09030792
226	0xbc0d9175	-0.008640637
227	0x3e0a4287	0.1350194
228	0xbc278918	-0.010225557
229	0xbd392dba	-0.045209624
230	0xbe11e6a4	-0.14248139
231	0x3d8cbe33	0.06872215
232	0xba4f4788	-0.00079070823
233	0x3e13bb79	0.14426984
234	0x3d5a4f9d	0.05329858
235	0xbc93b890	-0.018032342
236	0xbd2be8d9	-0.041970108
237	0x3e6118d2	0.21982124
238	0x3e4b142d	0.19831915
239	0xbc20ebdd	-0.009821859
240	0x3e467714	0.19381362
241	0x3cb41123	0.021980828
242	0xbbf7f32f	-0.0075668315
243	0x3d9c5b55	0.07634608
244	0xbdc13468	-0.09433824
245	0xbe1985dc	-0.1499247
246	0x3d40fd53	0.04711659
247	0x3e655810	0.22396874
248	0x3e0c1c3b	0.13682644
249	0x3de91f17	0.11382883
250	0x3dcb9e74	0.09942332
251	0x3d428ab4	0.04749556
252	0x3d5d45a0	0.054021478
253	0xbd295a33	-0.041345786
254	0x3e35f7d4	0.1777032
255	0x3e0c635a	0.13709775

lstm.bias_hh_l0 f4 [256]
0	0xbd70136d	-0.058612276
1	0xbe0e4138	-0.13892066
2	0x3d298d09	0.041394267
3	0xbca64075	-0.020294407
4	0x3e032a8f	0.12809204
5	0x3e1d9218	0.15387762
6	0x3d68423c	0.05670379
7	0x3e5dbabf	0.21653269
8	0x3d8db527	0.06919318
9	0x3d21dfba	0.039520003
10	0x3c698cbe	0.014254747
11	0xbbbe563c	-0.00580862
12	0x3d63d982	0.055627353
13	0x3a9e60ba	0.001208327
14	0xbd2e3386	-0.042529605
15	0x3e1848fb	0.1487159
16	0x3d9a55dd	0.07535908
17	0x3d3bbe1c	0.0458356
18	0x3d8e5824	0.06950405
19	0x3bf08a33	0.0073406934
20	0xbdd5558b	-0.10416707
21	0x3dcee6f5	0.10102645
22	0x3d1e67ca	0.0386732
23	0xbd4c3376	-0.049853764
24	0x3e2bae58	0.16765726
25	0x3e2b3cc6	0.16722402
26	0xbdc7af53	-0.09750237
27	0xbdaec21d	-0.08533118
28	0xbd2737aa	-0.04082457
29	0xbc4b6188	-0.01241339
30	0xbbdaf988	-0.0066825785
31	0xbc935cc2	-0.017988566
32	0xbcc716c7	-0.024302853
33	0x3e6c264c	0.23061484
34	0xbbdf72c3	-0.0068191006
35	0x3c8c4c64	0.01712627
36	0xbd3b768f	-0.045767363
37	0x3d4b679b	0.049659353
38	0xbda353c6	-0.07974963
39	0xbcb18eb3	-0.02167449
40	0xb990838f	-0.0002756384
41	0x3d24f9eb	0.040277403
42	0x3e0c7710	0.13717294
43	0x3d8ee692	0.069775715
44	0x3dd47d81	0.103755005
45	0x3ca90508	0.020632282
46	0xbd8d1944	-0.06889585
47	0x3d2a89ca	0.041635312
48	0x3e7c5419	0.24641456
49	0x3daeaaee	0.08528696
50	0x3e26285c	0.16226333
51	0x3daaa0d6	0.08331458
52	0x3dd1cc66	0.10244064
53	0xbc9d5df6	-0.019209843
54	0x3d8550a9	0.06509525
55	0x387a97b8	5.9745944e-05
56	0x3d7251ea	0.05916015
57	0x3d9701f6	0.07373421
58	0xbd1bf37c	-0.038074
59	0xbd4d933f	-0.050189253
60	0xbcb1979e	-0.021678742
61	0x3d1287b3	0.035773944
62	0x3c8e1504	0.017344005
63	0x3d914370	0.07092941
64	0xbd22b68f	-0.039724883
65	0x3d8045be	0.06263302
66	0xbd274b4e	-0.0408433
67	0x3d6a3e05	0.057188053
68	0x3daec5b5	0.085338034
69	0x3e02d30a	0.12775818
70	0xbd9bd76e	-0.07609449
71	0xbc8e5541	-0.017374637
72	0xbc94a8bc	-0.018146865
73	0xbca1e799	-0.019763755
74	0x3c88e7df	0.016712127
75	0xbc873cd8	-0.016508505
76	0x3de78548	0.11304718
77	0x3e0b5acc	0.13608855
78	0x3dc64101	0.09680367
79	0x3d90d60a	0.07072075
80	0xbd713663	-0.058889758
81	0x3cbe6206	0.0232401
82	0x3e4469b9	0.19180955
83	0xbd7d6927	-0.06186786
84	0x3d49a421	0.04922879
85	0xbdd5c474	-0.10437861
86	0x3c0d2018	0.008613609
87	0xbe004bf0	-0.12528968
88	0xbe1680d9	-0.14697589
89	0x3da4c9a9	0.08046276
90	0xbdbd1868	-0.09233171
91	0x3d70ae6f	0.058760103
92	0x3db747f1	0.089492686
93	0x3d6f6558	0.05844626
94	0x3d42474e	0.047431283
95	0x3c7aa4ed	0.01529811
96	0x3df2cf13	0.118559025
97	0x3dfd2a61	0.12361599
98	0xbd911e62	-0.07085873
99	0xbd2339c6	-0.03985002
100	0x3d97d6e5	0.07414035
101	0x3dde4202	0.10852434
102	0x3c84fca3	0.016233748
103	0x3cffb3d0	0.031213671
104	0x3d5a528f	0.05330139
105	0x3df4b0b1	0.11947764
106	0x3da5a66a	0.080883816
107	0xbcb258b3	-0.02177081
108	0x3db9e23f	0.09076356
109	0x3e2743a2	0.16334394
110	0xbcc6a9f4	-0.024250962
111	0xbc6ef1ab	-0.014583985
112	0xbdaed333	-0.08536377
113	0x3cf5dc4c	0.030012272
114	0x3e21b709	0.15792479
115	0x3d6ac602	0.05731774
116	0x3e024c8a	0.1272451
117	0x3d7168ef	0.058937963
118	0x3d99c99f	0.07509159
119	0xbdd51750	-0.10404837
120	0x3ddf3ee2	0.10900666
121	0x3d8ef298	0.06979865
122	0x3d5ca6d7	0.05387005
123	0x3e0baad0	0.13639379
124	0xbd7182bc	-0.05896257
125	0x3e08ad1b	0.13347284
126	0xbbf1a7c7	-0.007374737
127	0xbd218f47	-0.03944328
128	0x3d577678	0.052603215
129	0x3da35bae	0.07976471
130	0x3da12a64	0.078694135
131	0x3dc7123e	0.09720276
132	0x3d4b533e	0.049639933
133	0x3d3e7e95	0.046507437
134	0x3de62787	0.11238008
135	0x3dc1273d	0.09431312
136	0x3d517f5f	0.05114686
137	0x3c9a94e7	0.01886983
138	0xbe060acb	-0.13090055
139	0x3d94ebac	0.07271513
140	0xbd760d6e	-0.0600714
141	0xbd52f6b7	-0.051504817
142	0xbe094c71	-0.13408066
143	0xbe14e4af	-0.14540361
144	0xbd8023bd	-0.062568165
145	0xbe058231	-0.13037945
146	0x3d41d071	0.047317926
147	0x3bb38ac4	0.0054791886
148	0xbd815a66	-0.0631607
149	0x3e0df3ca	0.1386253
150	0x3d98df51	0.07464469
151	0x3d757818	0.059928983
152	0xbdadf101	-0.084932335
153	0xbdb527e0	-0.08845496
154	0xbd2856b4	-0.04109831
155	0x3dc3f076	0.09567349
156	0xbdc79f03	-0.09747126
157	0xbdc9ae5e	-0.09847711
158	0x3c16d48f	0.009205951
159	0x3d55b44d	0.0521739
160	0x3d5fa301	0.054598812
161	0x3d3113b5	0.043231685
162	0xbd14940f	-0.036274012
163	0xbd609de2	-0.05483807
164	0xbd2a6f0b	-0.041609805
165	0x3dc7ce32	0.097561255
166	0xbdb43b55	-0.08800379
167	0xbe03bd6c	-0.12865227
168	0x3c1a2a07	0.009409434
169	0x3c662adc	0.014048304
170	0x3cc33ca8	0.023832634
171	0x3cb0f40c	0.021600746
172	0x3dbe6333	0.092962645
173	0xbcaff187	-0.021477474
174	0x3dfc346a	0.12314685
175	0xbd660f51	-0.05616695
176	0xbde27788	-0.11057955
177	0xbddd4918	-0.10804957
178	0x3df12e20	0.11776376
179	0xbdaa6050	-0.083191514
180	0xbd6aaa31	-0.057291213
181	0x3ba9c11e	0.005180492
182	0xbe01dfca	-0.12683025
183	0x3b8ce659	0.0042999205
184	0xbd9223a4	-0.07135704
185	0x3d9e54fd	0.07731054
186	0x3da8a1c3	0.082339786
187	0x3d4be483	0.049778473
188	0x3da1a50a	0.07892807
189	0x3d69b81b	0.057060342
190	0x3c2730c6	0.0102045
191	0x3b8f45ee	0.00437235
192	0x3d06296b	0.032754343
193	0xbc898091	-0.016784938
194	0x3dbc370d	0.091901876
195	0xbd10f83e	-0.035392992
196	0x3d6e97d2	0.058250256
197	0x3cdede4b	0.027205607
198	0xbc9bd998	-0.019024655
199	0x3d3b631b	0.04574881
200	0x3dab50e5	0.08365039
201	0xbcb0157a	-0.021494616
202	0x3dfcfbbb	0.12352701
203	0xbcdf3d56	-0.027250927
204	0xbd6746c1	-0.05646396
205	0x3d8c1486	0.06839852
206	0x3d38b6c3	0.04509617
207	0x3e17ae47	0.14812575
208	0x3df6bffd	0.120483376
209	0xbc727230	-0.014797732
210	0xbe022dc0	-0.12712765
211	0x3e07c761	0.13259651
212	0xbceea8b9	-0.029133188
213	0x3e0b0ef8	0.13579929
214	0xbd8ad514	-0.06778923
215	0x3e284e49	0.16436113
216	0x3d8a6b66	0.06758766
217	0x3df944c4	0.12171319
218	0xbd6ba805	-0.057533283
219	0x3e067797	0.13131557
220	0x3dc1ef59	0.0946948
221	0xbda71c45	-0.08159689
222	0xbd44e8ec	-0.048073694
223	0x3c04a1e4	0.008095238
224	0x3d7afc5e	0.061275832
225	0xbcdf6c34	-0.027273275
226	0xbd60bec6	-0.054869436
227	0x3d95d0ea	0.07315238
228	0x3d7d9f67	0.061919596
229	0xbc7e1b88	-0.015509494
230	0x3c0a8a67	0.008455849
231	0x3e5e8295	0.217295
232	0x3d0fcded	0.035108496
233	0x3e415e0d	0.18883534
234	0x3dc3f8fe	0.09568976
235	0x3d3a9753	0.04555447
236	0xb815de5c	-3.5731457e-05
237	0x3e5ff4a6	0.2187067
238	0x3e2fa731	0.17153622
239	0xbd338635	-0.04382916
240	0x3e00af2c	0.12566823
241	0xbd4d2d22	-0.05009187
242	0xbcc3dbdf	-0.023908554
243	0xbd15c51e	-0.03656494
244	0x3b8ef022	0.004362122
245	0xbd8fb478	-0.070168436
246	0x3ce0f76d	0.027461732
247	0x3e6b6220	0.2298665
248	0x3d80d562	0.062906995
249	0xbdafb0ea	-0.085786656
250	0xbcd377a9	-0.025813894
251	0xbdb07589	-0.08616168
252	0xbca3a45e	-0.019975837
253	0x3dd75491	0.10514177
254	0x3de97367	0.113989644
255	0xbb702f31	-0.0036649222

lstm.weight_ih_l1 f4 [256, 64]
0	0x3da5e49e	0.08100246
1	0xbd81398f	-0.063098066
2	0x3dd263c8	0.10272938
3	0xbda30e4d	-0.07961712
4	0xbda4588a	-0.080247
5	0xbd867575	-0.06565372
6	0xbc93c5fb	-0.01803874
7	0x3e115fb2	0.14196661
8	0x3d3d1924	0.046166554
9	0xbddfbd6e	-0.10924803
10	0xbce21090	-0.027595788
11	0x3dbcafb6	0.09213202
12	0x3d590039	0.052978728
13	0xbc75a9ac	-0.014994066
14	0x3d787c7d	0.060665596
15	0x3d1bedb3	0.038068485
16	0x3d415803	0.047203075
17	0x3e07e67f	0.13271521
18	0x3d2aece1	0.04172981
19	0xbbb89dfd	-0.005634068
20	0x3c5b807f	0.013397335
21	0xb9e5bf96	-0.00043821026
22	0xbc7b0e3b	-0.015323217
23	0x3e39f69c	0.1816048
24	0x3d6aec7f	0.057354447
25	0xbd5e19d5	-0.054223854
26	0x3e183b7c	0.14866441
27	0x3b914d39	0.0044342545
28	0xbdcbe77f	-0.09956264
29	0x3c89e50c	0.01683285
30	0x3d4186e5	0.047247786
31	0x3dfa98b5	0.12236158
32	0xbc2aa8c3	-0.0104162125
33	0xbdf3bf50	-0.11901724
34	0x3da1aa94	0.07893863
35	0x3cf0bc74	0.029386736
36	0x3cae985b	0.021312883
37	0x3de1007a	0.10986419
38	0x3da4e922	0.08052279
39	0x3dda8d2a	0.10671456
40	0x3d4e5725	0.050376076
41	0x3e1274f5	0.14302428
42	0x3e20b5d6	0.15694365
43	0x3e06ff5e	0.13183352
44	0x3daac47b	0.08338257
45	0x3de1a341	0.11017466
46	0xbd87f98e	-0.06639396
47	0xbe4a8610	-0.19777703
48	0xbcc2e092	-0.023788724
49	0x3d47d6b4	0.04878874
50	0xbe0fc89c	-0.1404137
51	0x3e0b2a08	0.13590252
52	0xbe21e48d	-0.15809841
53	0xbcb127e0	-0.02162546
54	0xbdf29367	-0.11844521
55	0xbd594476	-0.053043805
56	0xbda7906f	-0.081818454
57	0xbd8cc7a1	-0.06874014
58	0x3d388470	0.045048177
59	0xbd3fc400	-0.04681778
60	0x3d88ee06	0.06686024
61	0xbdcebe46	-0.100948855
62	0x3d6f25e3	0.05838574
63	0x3e43c591	0.19118334
64	0x3cbf3c04	0.023344047
65	0x3e5c5069	0.21515049
66	0x3c433f8d	0.011917007
67	0xbe1abe28	-0.15111601
68	0xbdde17e7	-0.10844403
69	0x3d867e92	0.0656711
70	0xbc9b682e	-0.018970575
71	0xbcab37d2	-0.02090064
72	0xbdeefa1a	-0.11668797
73	0x3c624ed6	0.013812741
74	0xbd7a8f91	-0.06117207
75	0x3ddf5c50	0.10906279
76	0x3dc009d1	0.09376872
77	0xbd5ad1e9	-0.053422842
78	0x3dab637f	0.08368587
79	0xbdcf1a1b	-0.10112401
80	0xbe42e959	-0.19034328
81	0x3c266283	0.010155323
82	0x3e36b64b	0.17842977
83	0xbe070a83	-0.13187604
84	0xbdea4ce5	-0.11440448
85	0x3dfe73ee	0.124244556
86	0x3df175c0	0.11790037
87	0xbdaa192c	-0.083055824
88	0xbda987ab	-0.0827783
89	0xbe04913c	-0.12946028
90	0xbdf37614	-0.11887756
91	0xbcb34436	-0.021883111
92	0xbcefafce	-0.029258635
93	0x3c8f3088	0.017479196
94	0xbe0a9632	-0.13533857
95	0x3ce1131e	0.027474936
96	0x3d547195	0.051866133
97	0x3d3ccef1	0.046095792
98	0xbd43c17d	-0.047791947
99	0x3da4b335	0.080419935
100	0xbb490825	-0.003067502
101	0x3c14b23d	0.009075698
102	0xbdbd0097	-0.09228628
103	0xbca11beb	-0.019666633
104	0xbc2aac97	-0.010417125
105	0xbcef42eb	-0.029206714
106	0xbe511d94	-0.2042144
107	0x3cac7032	0.021049593
108	0xbdfd37ea	-0.123641804
109	0x3d9edfae	0.07757507
110	0x3d908f20	0.07058549
111	0xbd066a39	-0.032816146
112	0x3e13dd1b	0.14439814
113	0x3dad059a	0.08448334
114	0x3e31468b	0.17312066
115	0x3c61ed49	0.013789483
116	0xbdb3aef9	-0.08773608
117	0x3e094a47	0.13407241
118	0xbdb982f6	-0.09058182
119	0xbdab0ee1	-0.08352447
120	0xbdd44f18	-0.103666484
121	0x3bbeea65	0.005826282
122	0xbd115cc6	-0.035488866
123	0xbce87aeb	-0.028378924
124	0x3c3b0a51	0.011416034
125	0x3c96cee8	0.018409207
126	0xbdaf53a6	-0.085608765
127	0xbda06726	-0.07832174
128	0xbd20f6ae	-0.039297752
129	0x3d008e6c	0.031385824
130	0x3c745894	0.014913697
131	0xbd25b019	-0.040451143
132	0xbb12b652	-0.0022386503
133	0x3ca09017	0.019599957
134	0x3dc375ae	0.0954393
135	0x3e139985	0.14414032
136	0x3c8dbecf	0.017302899
137	0x3d3b36c7	0.045706537
138	0xbe019fcb	-0.12658612
139	0x3bfea3fb	0.007771013
140	0x3d92477a	0.07142539
141	0xbc19639c	-0.009362128
142	0xbd4ab7fb	-0.049491864
143	0xbda3215d	-0.07965348
144	0xbd1e7ca3	-0.03869308
145	0xbd280f8e	-0.04103046
146	0xbe210a7a	-0.15726653
147	0x3c724495	0.014786859
148	0x3c981f78	0.018569693
149	0xbcc51e54	-0.024062313
150	0xbc78a385	-0.015175705
151	0xbd01ac04	-0.031658188
152	0xbc773fdb	-0.015090908
153	0x3de11135	0.1098961
154	0x3d2c32b5	0.042040545
155	0x3dc896de	0.09794401
156	0xbd94cfc3	-0.0726619
157	0xbc91bce2	-0.017790262
158	0x3c98d16b	0.018654546
159	0x3d153589	0.03642801
160	0xbdbd4769	-0.09242136
161	0xbd14b7ef	-0.036308225
162	0x3c395576	0.011311879
163	0xbdd312d8	-0.103063285
164	0xbdea5eef	-0.114438884
165	0x3c93dabc	0.018048637
166	0xbd82708d	-0.063691236
167	0xbe2d993e	-0.16952989
168	0x3c42d345	0.011891191
169	0xbd405ef9	-0.046965573
170	0xbd943df6	-0.072383806
171	0x3e1cceca	0.15313259
172	0x3dfa4800	0.12220764
173	0x3e0e4e06	0.13896951
174	0x3dfedf1d	0.12444899
175	0xbe09e9f3	-0.13468151
176	0x3dbff682	0.093731895
177	0xbc95ba52	-0.018277321
178	0x3c4f0e6f	0.012637719
179	0xbdbd83cb	-0.09253653
180	0xbd31b171	-0.043382112
181	0x3d98c505	0.074594535
182	0xbd9a2afc	-0.0752773
183	0xbda0afd5	-0.07846037
184	0xbd8068c8	-0.062699854
185	0x3d12b301	0.035815243
186	0x3bc31fb0	0.005954705
187	0x3d5c057c	0.053716168
188	0xbe0647d7	-0.13113342
189	0xbd2a3f75	-0.041564424
190	0x3d4f20a5	0.05056824
191	0xbc0ea6ab	-0.008706729
192	0xbd937e38	-0.07201809
193	0xbd53c7c6	-0.05170419
194	0xbd0dabcd	-0.03458767
195	0x3af55348	0.0018716836
196	0xbe34023d	-0.17578979
197	0xbdf2a9d8	-0.118488014
198	0xbdda4e0d	-0.10659418
199	0x3cc296f8	0.023753628
200	0xbb2a380a	-0.0025973343
201	0xbe19e11f	-0.15027283
202	0xbe416735	-0.18887027
203	0x3d006286	0.03134396
204	0x3dfe7114	0.12423912
205	0xbdf84ec2	-0.12124397
206	0x3b691ae5	0.003556901
207	0x3caa5d60	0.020796478
208	0x3dcdeefe	0.1005535
209	0x3e148fe7	0.1450802
210	0x3d0c4723	0.03424753
211	0x3c1c8acc	0.009554576
212	0xbda797f3	-0.08183279
213	0xbd95b38e	-0.07309638
214	0xbe0b3dd0	-0.13597798
215	0x3e64c3c4	0.22340304
216	0x3e0e9c94	0.13926917
217	0x3de160c5	0.110047854
218	0xbcb48553	-0.02203623
219	0xbd8aa224	-0.06769207
220	0xbe0f374f	-0.13985942
221	0x3c933966	0.017971706
222	0xbc7a9d6f	-0.015296324
223	0x3e147fee	0.14501926
224	0x3c047b32	0.008086013
225	0xbdd7951f	-0.105264895
226	0xbe5de4a9	-0.21669258
227	0x3d056284	0.032564655
228	0x3dbe1a4d	0.0928236
229	0x3cc0de40	0.023543477
230	0xbd29e5ca	-0.04147891
231	0xbc73f54a	-0.014890024
232	0xbdb1cf72	-0.08682145
233	0x3d812967	0.06306725
234	0xbd8adda9	-0.067805596
235	0xbc52fd14	-0.012877721
236	0x3d8efa59	0.06981344
237	0xbd5be23f	-0.053682562
238	0xbd6df3cf	-0.058093842
239	0xbe26447b	-0.1623706
240	0x3d9fbbda	0.07799502
241	0x3cde63fb	0.027147284
242	0xbe08f114	-0.13373214
243	0x3dc5cba1	0.0965798
244	0xbe85e383	-0.2615014
245	0x3d0850e0	0.033280253
246	0x3ce0c777	0.027438862
247	0xbdb840c0	-0.08996725
248	0x3d5be844	0.053688303
249	0x3d79c686	0.060980342
250	0x3d86c996	0.06581418
251	0x3c89c7ae	0.016818848
252	0x3d9241b4	0.07141438
253	0x3d689d90	0.05679089
254	0xbd5af007	-0.053451564
255	0x3e2b8fce	0.16754076

lstm.weight_hh_l1 f4 [256, 64]
0	0xbdd7b87c	-0.105332345
1	0x3c8eef24	0.017448016
2	0xbde24c19	-0.11049671
3	0x3d69edd3	0.057111572
4	0x3a73a074	0.0009293624
5	0xbc8857c3	-0.01664341
6	0xbdc4c1c6	-0.09607272
7	0x3cd2ec04	0.025747307
8	0x3d87cbec	0.06630692
9	0x3dc8e5b3	0.09809437
10	0xbc895b40	-0.016767144
11	0xbdf5ce1e	-0.12002204
12	0xbe3d1d67	-0.18468247
13	0xbdc2779b	-0.09495469
14	0xbc0b5eb4	-0.008506466
15	0x3d9de138	0.07708973
16	0xbcd224b0	-0.02565226
17	0xbd4e14d2	-0.050312825
18	0xbc89a75c	-0.016803436
19	0x3dd4e2c2	0.10394813
20	0x3c7ce237	0.015434793
21	0xbe1f3621	-0.15547992
22	0xbdaf1951	-0.085497506
23	0x3d2188b2	0.039437003
24	0x3ddd7ce0	0.10814834
25	0xbb06b5bd	-0.0020555102
26	0x3e0d04da	0.13771382
27	0x3d577e0e	0.05261045
28	0xbcd4ad96	-0.025961678
29	0xbd0eb07c	-0.034836277
30	0x3e00a397	0.12562405
31	0x3d886580	0.066599846
32	0xbdac8c59	-0.08425207
33	0x3db41194	0.08792415
34	0xbddd46aa	-0.10804494
35	0x3d07a081	0.033112053
36	0x3dcac20d	0.099002935
37	0xbdaefbbd	-0.08544109
38	0xbdaf906c	-0.08572468
39	0x3d3b3136	0.045701228
40	0x3ceb1a25	0.02869899
41	0x3dd88d85	0.10573868
42	0x3d733ee3	0.059386145
43	0x3e085142	0.13312247
44	0xbdea8889	-0.11451823
45	0xbbf06ad9	-0.007336956
46	0x3ded81ba	0.11597009
47	0x3e0a735a	0.13520566
48	0x3dcaba4b	0.09898814
49	0x3dcec9c8	0.100970805
50	0x3d5b1ff0	0.053497255
51	0xbca886dd	-0.02057212
52	0x3e0226f6	0.12710175
53	0xbc0a668b	-0.0084473
54	0x3dcc2037	0.09967082
55	0xbc0ac9a8	-0.00847093
56	0xbdde4ede	-0.108548865
57	0x3cbbf27c	0.022942774
58	0xbdfa743a	-0.122292
59	0xbdc44018	-0.095825374
60	0xbdb93878	-0.09043974
61	0x3d68166a	0.056662
62	0x3e0a73cf	0.1352074
63	0xbdd6231a	-0.10455914
64	0xbdb217f2	-0.086959735
65	0xbd1f3feb	-0.038879316
66	0x3e0fed64	0.14055401
67	0x3d80ae83	0.062832855
68	0x3e1eb615	0.15499146
69	0xbe02cd49	-0.12773623
70	0xbd737dd0	-0.059446156
71	0x3aa34c61	0.0012458676
72	0x3d841e89	0.064511366
73	0xbd3687d3	-0.044563126
74	0xbdfc53a7	-0.12320643
75	0xbbee533c	-0.007273106
76	0xbb1707fa	-0.0023045526
77	0x3d300b71	0.04297966
78	0x3e038e69	0.12847294
79	0xbce952df	-0.028481899
80	0x3d702baf	0.05863541
81	0x3df399b2	0.118945494
82	0x3d733a68	0.059381872
83	0xbd232642	-0.039831407
84	0xbdb48128	-0.08813697
85	0x3df00f7b	0.11721703
86	0xbc844191	-0.016144546
87	0x3daf90b9	0.085725255
88	0xbd5a115b	-0.053239208
89	0x3ccae3e9	0.02476688
90	0x3d807bdf	0.062736265
91	0x3db1f3df	0.08689093
92	0x3d521f35	0.051299293
93	0xbdb95a0a	-0.09050377
94	0x3dbee8cf	0.093217485
95	0x3d9eb550	0.07749426
96	0x3ce2cdc2	0.027686004
97	0xbd7f9a38	-0.062402934
98	0x3df92ab4	0.12166348
99	0x3cb54661	0.022128286
100	0x3d879591	0.066203244
101	0x3d4c4747	0.049872663
102	0x3d841cf7	0.06450837
103	0x3d0885e5	0.033330817
104	0xbd0b2e5f	-0.03397977
105	0x3d223583	0.039601814
106	0xba7f2576	-0.000973306
107	0xbdbe33f9	-0.09287257
108	0xbd2021ed	-0.039094854
109	0x3d551b3c	0.052027926
110	0x3c2168a2	0.009851607
111	0xbda5dd8f	-0.080988996
112	0x3b4c1316	0.0031139306
113	0x3d2002d5	0.0390652
114	0x3d76e42b	0.06027619
115	0xbd8141ad	-0.06311355
116	0x3b5dce82	0.0033845012
117	0xbd74c44d	-0.05975752
118	0xbcd4cb20	-0.025975764
119	0xbd66c5be	-0.056340925
120	0xbca09dec	-0.019606553
121	0x3b5e65f0	0.0033935271
122	0xbdb38cee	-0.087671146
123	0x3d889b1d	0.066702105
124	0x3b275530	0.0025532953
125	0x3d49fb9e	0.049312226
126	0xb9babe63	-0.00035618534
127	0xbc38e66d	-0.011285407
128	0x3c3c4831	0.011491821
129	0x3d1b5bdc	0.0379294
130	0xbe2234c1	-0.15840437
131	0x3e0d69bf	0.1380987
132	0x3d2160c1	0.039398912
133	0xbcb14aa8	-0.021642044
134	0x3e1921fc	0.1495437
135	0xbda261fc	-0.07928845
136	0x3e05b6d3	0.13058023
137	0xbc618172	-0.013763772
138	0x3d20d965	0.039269824
139	0xbdf42205	-0.11920551
140	0xba46fbd0	-0.00075906236
141	0x3cd53842	0.026027802
142	0xbdfd5f7f	-0.1237173
143	0xbdbb7811	-0.0915376
144	0xbd6349ac	-0.05549018
145	0x3e0bf2ac	0.1366679
146	0xbd5baf2b	-0.05363385
147	0x3b4d0cf7	0.0031288245
148	0x3d4e10e2	0.05030907
149	0xbe267b9a	-0.16258088
150	0xbdc6debb	-0.09710451
151	0xbd4a6fe3	-0.04942311
152	0xbe016593	-0.12636404
153	0xbd76a80c	-0.060218856
154	0xbd2caacc	-0.042155072
155	0xbd1faa6a	-0.03898088
156	0xbdd9e622	-0.106395975
157	0xbd845396	-0.06461255
158	0xbdd3c44b	-0.10340174
159	0xbdd8a61a	-0.10578556
160	0xbd8d753a	-0.06907125
161	0xbd429f0e	-0.047514968
162	0x3ccbaddd	0.024863178
163	0x3dc0504d	0.09390316
164	0xbc82486d	-0.015903676
165	0xbb415b28	-0.0029503796
166	0xbdaceed8	-0.08443993
167	0x3ca21b76	0.019788485
168	0xbd1eb988	-0.038751155
169	0xbd0098ee	-0.031395845
170	0x3e2c79f7	0.16843401
171	0x3dc3ab7b	0.09554192
172	0xbc10cedf	-0.008838384
173	0xbcc2c9bf	-0.02377784
174	0x3cbd950f	0.023142366
175	0xbd5a5c50	-0.053310692
176	0x3e35f166	0.17767867
177	0xbda5e31f	-0.080999605
178	0x3da64490	0.08118546
179	0x3e0668ee	0.13125965
180	0x3d958ae5	0.07301883
181	0x3df87dfb	0.12133404
182	0xbd2a269f	-0.04154074
183	0x3b38a371	0.002817359
184	0x3c878022	0.01654059
185	0xbda11005	-0.078643836
186	0xbe12982d	-0.14315863
187	0x3c15c6a1	0.009141595
188	0x3d8ab285	0.06772331
189	0x3daea315	0.08527199
190	0x3d541dbd	0.051786173
191	0x3dadd5b1	0.08488024
192	0x3de7d258	0.11319417
193	0xbdce7c87	-0.100823455
194	0xbe12aa0a	-0.14322677
195	0x3e3622f1	0.17786767
196	0xbcbbf009	-0.022941606
197	0xbc316781	-0.0108279
198	0xbd26626c	-0.040621206
199	0x3cc3bb3d	0.023892993
200	0x3da40396	0.080084965
201	0x3dd27bc2	0.10277511
202	0xbd0d1f76	-0.03445383
203	0x3c2accd8	0.010424815
204	0xbe25ada6	-0.16179523
205	0x3dba6660	0.09101558
206	0x3c255eba	0.010093385
207	0x3e08ffae	0.13378784
208	0xbe472892	-0.1944907
209	0xbd7ced10	-0.061749518
210	0x3df6eca1	0.12056852
211	0xbda625f9	-0.081127115
212	0xbdc9adf4	-0.09847632
213	0x3c9152c9	0.01773967
214	0xbe07903a	-0.13238612
215	0xbdd84183	-0.1055937
216	0x3cf44111	0.029816182
217	0x3dc1858c	0.094493
218	0x3cf260cf	0.029587178
219	0xbcf48ee9	-0.029853301
220	0xbe03120d	-0.12799855
221	0xbce814ac	-0.02833017
222	0x3da31af5	0.07964126
223	0xbdc52eb5	-0.09628049
224	0x3e0f4c6c	0.13993996
225	0x3d48ae52	0.04899437
226	0x3dcd6e5e	0.100308165
227	0x3bc5cfd6	0.006036739
228	0xbdfe344a	-0.12412317
229	0x3d5a9a4d	0.05336981
230	0xbe055446	-0.13020429
231	0xbda9e23a	-0.082951024
232	0xbc8169d8	-0.01579754
233	0xbda76c11	-0.08174909
234	0x3de8a4f7	0.113595895
235	0xbceff14e	-0.029289868
236	0x3d4146bc	0.0471866
237	0x3b9f9dfe	0.004871129
238	0xbd4fe213	-0.05075271
239	0xbc83f599	-0.016108321
240	0x3cb5b246	0.022179734
241	0x3dc336e3	0.09531953
242	0x3dfcc8aa	0.12342961
243	0x3dbbc383	0.0916815
244	0xbd8d61c5	-0.06903414
245	0x3daf402d	0.085571624
246	0xbd8af78e	-0.067854986
247	0x3d02e0ed	0.031952787
248	0x3dd481fa	0.103763536
249	0x3d812899	0.063065715
250	0xbd0ac585	-0.033879776
251	0x3b14fc84	0.002273352
252	0xbde4343b	-0.11142775
253	0xbd6b1dda	-0.057401516
254	0xbd5ebee5	-0.05438127
255	0x3c943c9b	0.018095305

lstm.bias_ih_l1 f4 [256]
0	0x3c2fe523	0.010735783
1	0x3e001b69	0.12510456
2	0x3de00106	0.10937695
3	0xbda95ed7	-0.082700424
4	0x3ca0079a	0.019534875
5	0x3d29f127	0.041489746
6	0x3da925a4	0.082591325
7	0xbd8c19b1	-0.06840838
8	0xbd83cf3d	-0.06436012
9	0xbd94f184	-0.07272628
10	0x3cfdbbe5	0.030973384
11	0xbd9e1749	-0.07719285
12	0x3d75ebc2	0.06003929
13	0xbda301bf	-0.079593174
14	0xba3ad89e	-0.00071276154
15	0xb9eea69c	-0.0004551903
16	0x3abce5ef	0.0014411787
17	0xbd8f91bd	-0.07010219
18	0x3d995f68	0.074889004
19	0x3dd61de0	0.10454917
20	0x3d02c392	0.03192479
21	0x3d9dc33b	0.07703253
22	0xbd25bbfa	-0.04046247
23	0x3cd86991	0.026417525
24	0xbc356267	-0.011070824
25	0x3e0da3ac	0.13831967
26	0x3d455453	0.04817612
27	0xbe09827f	-0.13428687
28	0x3d164456	0.036686264
29	0x3d55db79	0.05221126
30	0x3d0f2668	0.034948736
31	0x3dea3d68	0.114374936
32	0x3d0f2903	0.03495122
33	0xbd27419a	-0.040834047
34	0x3d7e44b5	0.062077243
35	0x3bb3b560	0.005484268
36	0xbcf7f1f7	-0.030266745
37	0x3db14c4f	0.08657133
38	0x3d4309d7	0.047616806
39	0x3e186b38	0.1488465
40	0xbd47a6ba	-0.048742987
41	0xbd609361	-0.05482805
42	0xbd4962c7	-0.049166467
43	0xbc40ced9	-0.011768066
44	0x3d87c966	0.066302106
45	0xbcf69a5c	-0.030102901
46	0x3d37e313	0.04489429
47	0x3dedcec0	0.116117
48	0xbdd8a0ca	-0.10577543
49	0x3e2cbcc8	0.1686889
50	0xbd8ec62d	-0.06971393
51	0x3d8eccd3	0.06972661
52	0x3c050b04	0.008120302
53	0xbdc00340	-0.0937562
54	0x3b5974c7	0.0033181177
55	0x3e0f28f8	0.13980472
56	0x3d8ab1bd	0.06772182
57	0xbb239a19	-0.0024963676
58	0x3cedcf84	0.029029615
59	0x3db94205	0.09045795
60	0xbdfd54a2	-0.12369658
61	0xbdc421fb	-0.09576794
62	0xbde0fd14	-0.10985771
63	0x3df796cf	0.12089311
64	0xbdf748f7	-0.12074464
65	0xba8b273b	-0.001061655
66	0x3dd99fad	0.10626159
67	0xbc06b64e	-0.008222176
68	0xbb22ffac	-0.002487163
69	0x3db15596	0.08658902
70	0x3cded7ae	0.027202453
71	0x3c5e367a	0.013562793
72	0xbd948f95	-0.072539486
73	0xbd975ec7	-0.07391124
74	0xbc1102d4	-0.008850772
75	0x3e0c2db1	0.13689305
76	0x3d8f64b6	0.07001631
77	0x3dbc9896	0.09208791
78	0x3b3690a3	0.0027857206
79	0x3cd4204c	0.025894307
80	0x3dd4d753	0.10392632
81	0x3d24ade1	0.040204886
82	0x3d7619e0	0.06008327
83	0x3d63d725	0.0556251
84	0x3d675f8f	0.056487616
85	0x3ddee406	0.10883336
86	0x3cfd3c4c	0.03091254
87	0xbc9f0f9c	-0.019416623
88	0x3d465dbb	0.048429232
89	0x3dbef764	0.0932453
90	0x3e08f768	0.13375628
91	0xbd9be60d	-0.07612238
92	0x3c2d1854	0.010564882
93	0x3df7d8ca	0.12101896
94	0x3da0502c	0.078277916
95	0x3e21b289	0.15790762
96	0x3c2dd913	0.010610837
97	0xbdbc5a79	-0.09196944
98	0x3c3e2cda	0.011607373
99	0xbd32db0d	-0.043665934
100	0x3d813685	0.06309227
101	0xbda7d2cd	-0.08194504
102	0xbd589aeb	-0.052882116
103	0x3c174b0e	0.009234203
104	0x3c3879ed	0.011259538
105	0xbdd6bc88	-0.10485178
106	0x3d8f2446	0.069893405
107	0xbdb29e20	-0.08721566
108	0x3d43f3b2	0.047839828
109	0xbc65feee	-0.014037831
110	0x3da6e1e3	0.08148553
111	0xbd59c8e0	-0.053170085
112	0x3dbd616d	0.09247098
113	0x3da4d58a	0.08048542
114	0x3ddc913f	0.10769891
115	0xbe02cfe2	-0.12774613
116	0xbc172d06	-0.009227043
117	0xbdec37fb	-0.11534115
118	0xbdcfb114	-0.10141197
119	0xbcc47463	-0.023981279
120	0x3e0c20f3	0.13684444
121	0xbd157026	-0.036483906
122	0xbc30ad1e	-0.010783462
123	0xbb98a6d1	-0.004658558
124	0x3d229d10	0.039700568
125	0x3b085480	0.002080232
126	0xbdbb1b6a	-0.09136088
127	0x3d96f01c	0.07370016
128	0x3dd0ae62	0.10189511
129	0x3e13597b	0.14389603
130	0x3d115559	0.035481784
131	0x3dbdde95	0.0927097
132	0x3d39daae	0.045374565
133	0x3dc60d4d	0.09670506
134	0x3e314c7e	0.17314336
135	0xbdf17dac	-0.11791548
136	0x3dded00b	0.10879525
137	0xbd93837d	-0.07202814
138	0xbdc85fbb	-0.09783884
139	0xbd1c16ad	-0.038107563
140	0x3daa40f4	0.0831317
141	0xbdba0f58	-0.09084958
142	0x3d369ac0	0.044581175
143	0xbd8f620f	-0.07001125
144	0xbd16b848	-0.036796838
145	0x3d129d2e	0.03579443
146	0x3d389628	0.045065075
147	0x3ba12807	0.0049181017
148	0xbb4415b9	-0.0029920174
149	0x3d8edb74	0.06975451
150	0xbd417fa3	-0.047240864
151	0x3df9b289	0.12192256
152	0x3d03c662	0.032171614
153	0xbd759b9a	-0.059962846
154	0x3cca34ad	0.02468332
155	0xbdc68c57	-0.096947365
156	0xbcea92c2	-0.028634433
157	0xbd5f5100	-0.054520607
158	0xbc045696	-0.008077284
159	0xbe1df392	-0.15424946
160	0x3d8679b5	0.065661825
161	0x3d4ce3ef	0.050022062
162	0x3dc6c1d5	0.09704939
163	0xbd8e6889	-0.06953532
164	0xbda5f4d0	-0.08103335
165	0xbd67f6ba	-0.05663178
166	0xbcb957c3	-0.022624856
167	0x3e2e6e65	0.170343
168	0xbd148570	-0.03626007
169	0xbdb7a0a2	-0.08966185
170	0xbd0bcf72	-0.034133382
171	0x3ddb7530	0.10715711
172	0x3df748d8	0.12074441
173	0xbd17de85	-0.037077446
174	0x3dee493d	0.11635063
175	0xbdb743d1	-0.08948482
176	0xbdfabc74	-0.12242976
177	0x3c6ec2cf	0.014572813
178	0xbdf71da1	-0.12066198
179	0x3d864e79	0.06557936
180	0x3d6f693e	0.058449976
181	0xbc948364	-0.018129058
182	0xbc1f9a91	-0.009741441
183	0xbc6b0559	-0.014344537
184	0x3dacdefe	0.0844097
185	0xbc9a335b	-0.018823316
186	0xbcee5cd9	-0.029097008
187	0xbd9c196d	-0.07622037
188	0x3d4064ef	0.046971258
189	0xbc0e8662	-0.008699032
190	0xbca018b3	-0.019543028
191	0xbcbbc5ac	-0.022921406
192	0xbe0f655e	-0.14003512
193	0xbd329840	-0.04360223
194	0xbc85b8ab	-0.016323408
195	0xbd3edef8	-0.04659936
196	0xbe0bcd0a	-0.13652435
197	0x3d8b491a	0.068010524
198	0xbdc680cd	-0.096925355
199	0xbe107678	-0.14107692
200	0x3da1eb6f	0.079062335
201	0xbd7414ab	-0.059590023
202	0x3ddc025f	0.1074264
203	0x3c97b5ee	0.018519368
204	0xbe1dd56a	-0.15413442
205	0x3e1d2cda	0.15349141
206	0xbe182704	-0.14858633
207	0xbda9115e	-0.08255266
208	0xbdb6f9c4	-0.08934358
209	0x3d5d9fad	0.054107357
210	0xbde06a6d	-0.10957799
211	0xbce8914e	-0.0283896
212	0x3e188765	0.14895399
213	0xbd42aa71	-0.047525827
214	0x3e05ce74	0.13067037
215	0xbda42207	-0.08014303
216	0x3dc1a57b	0.09455391
217	0xbd12a9ea	-0.035806574
218	0xbdbcb26b	-0.09213718
219	0x3d278c83	0.040905487
220	0xbd0d6915	-0.034524042
221	0xbdac0926	-0.084001824
222	0x3d8cb295	0.06869999
223	0xbd5d250b	-0.053990405
224	0xbddb13b5	-0.10697118
225	0xbda5c182	-0.08093549
226	0x3d7bd0a2	0.061478265
227	0x3d74e5b3	0.05978937
228	0xbd415bb5	-0.0472066
229	0xbe04eb6d	-0.12980433
230	0xbe052954	-0.13004047
231	0x3dcf8065	0.10131911
232	0xbd67eb87	-0.0566211
233	0xbd49ba40	-0.049249887
234	0x3e02e0bd	0.12781043
235	0xbdc4d1db	-0.09610339
236	0xbc6d8ca9	-0.014498868
237	0xbd558161	-0.05212534
238	0xbbe23cb7	-0.0069042104
239	0x3e2dc25b	0.16968672
240	0xbd86dc62	-0.065850034
241	0x3dee1ee3	0.11626985
242	0x3e06e1a3	0.13172011
243	0x3db39f06	0.08770566
244	0x3d402427	0.046909478
245	0x3e100477	0.14064203
246	0x3de54b09	0.111959524
247	0xbd4aaf6a	-0.049483694
248	0xbc8c11ae	-0.017098274
249	0xba7b79c9	-0.00095930375
250	0x3ddb02a0	0.1069386
251	0xbd018962	-0.03162516
252	0x3d62a854	0.05533631
253	0x3e07219d	0.13196416
254	0x3e02754d	0.12740059
255	0x3d1a7d7b	0.037717324
