models/lstm_fwd_model.pt (torch, 245045 bytes, 9 tensors)

lstm.weight_ih_l0 f4 [256, 38]
00000000: 992e 0e3e 3223 a53d 10b6 f43c f8a5 353e
00000010: 9799 19bd 13f4 253d 2622 fcbc 9d73 d03d
00000020: c8dc 1f3e d9c8 a7bc 8922 233e 9217 9a3d
00000030: 88cd 073e 0ae7 233d 73e1 cd3d 1d53 a53c
00000040: fc8a a43d 8ca1 86bc 16e4 dabd 8c2f fc3c
00000050: 9e82 98bc 0e1f cb3c 181c 6ebd c99f 4c3e
00000060: 3622 13be 8c09 6cbd 6bd5 69bd 9906 1fbe
00000070: fb43 1a3c 6bd3 07be 9ec6 ed3d 347c 7bbc
00000080: 33e2 c83d 3fe7 fe3c df17 243d c27e 033e
00000090: 313f 8a3d 307e 1a3e 41c9 6b3d c1be b7bc
000000a0: 9932 c63d 685e 13bb fe47 e53d 7083 243e
000000b0: 5e4d 113e 69d0 1abc da1a f43d c3ff 703d
000000c0: 6c67 e13d 0aa8 bdbc f265 d3bd 26ad 223c
000000d0: 7742 eebc fc53 2f3e 9a44 b33d a840 9e3d
000000e0: 2d0f 183e 1254 713d 0b9f 3c3e 2cfe 17bd
000000f0: 282f a53d 2d87 1e3d 491c 0a3e e052 30bd
00000100: d035 3a3c 6966 d9bc d0ad 073e 6415 5cbd
00000110: 82e4 37bd a2bd bfbd 3c42 fa3d 704a b53d
00000120: a958 ea3d fb4a 9bbc 9977 19bd 9e32 3ebc
00000130: 1967 fcbc c4a8 763d b7a7 853d 183b 143e
00000140: 8173 73bd a3cb 3fbd 3505 b03d 4d82 6cbc
00000150: bab8 dc3d 4ad3 10bc 4238 ba3d 9b2f 83bd
00000160: 25e5 eebc 159d 6f3d 085b 873d f649 f53b
00000170: eac7 a93d c43d 923d 8154 dabd 9ceb 95bd
00000180: ef46 bf3d 6694 87bd df60 5abd 2ff5 0cbe
00000190: 3960 febd 88cc ff3c 97af 1b3b 4951 50be
000001a0: 62b2 c23d 90dc 84bc e931 d2bc c3d4 523c
000001b0: f334 d1bc e47e d7bc cb4d 143e 8d10 d63d
000001c0: f31b dd3d 7ff2 28bd 4563 c8bd 301a d6bd
000001d0: 3721 9c3d c5b5 1cbd ccd8 f43d a24c d2bd
000001e0: 841c ba3b 2333 9bbd c2a3 26bc cfb5 94bc
000001f0: 2bfc 92bd b12c b5bd 7f1b e1bb 0379 f0bd
00000200: 4828 fb3d 53c2 18bd 7176 bc3d 532f 383d
00000210: 38c2 963a ffbe 593d e49a 6dbc d449 ddbd
00000220: 876f a7bd 9adf 44be 6d1c ba3c c0af dfbc
00000230: f5e3 303d fecc 2cbe e51c 2b3e ad72 60bd
00000240: 5987 afbc d73c 243d f2a3 803d e5d7 393e
00000250: c93e 693d f153 12be 2fe5 06bd 7d97 ddbd
00000260: 761c 92bd 1af4 08be d13c 953d 86af febd
00000270: c28d 6e3d 704f 863c bb1f 6f3d 4aef c6bd
00000280: 7e7f 983d f289 77bc 9453 32bc 58d0 1abe
00000290: abaf c83b efb9 fcbc be27 40bd 369c ba3d
000002a0: e113 7d3d 0311 e4bd c680 50bc abf4 68bb
000002b0: 6d08 1c3e e5e0 e5bc 8aa5 a43d 541b 203c
000002c0: 7703 353c 8898 363d 017b a23d 294b 0fbe
000002d0: 38d7 413d c1e2 983d 0f70 8e3c 165c 56bd
000002e0: e463 7e3d ae98 503d 87f8 943d 02bb a9bc
000002f0: a99c 13bd ae62 4d3c 2b5d 0f3c 07ef 91bc
00000300: 6706 f23d ee24 123e cd10 b63c e9fe 9dbb
00000310: 4d53 363d 7b91 863c 61f6 2f3d 4254 9b3d
00000320: 389b a3bd a092 07bd 207c ff3d 67ff 413d
00000330: 340f 2e3c 75a0 88bd ef02 a4bd 3c02 a3bd
00000340: fa68 5fbc 305e 8b3d 9c7e cd3d 66ba 883d
00000350: b44e d7bd 02ca e7bd 5163 703d 38a4 f73d
00000360: 1919 0cbc 7023 eebc bddb 893d bbf1 4bbd
00000370: 8652 77bd 701f 213e 8b21 c6bc 119d 04bd
00000380: 377a 0bbe 6c90 f53d 4384 fe3d 6eb0 a03d
00000390: aa83 e7bc 909c 02be de82 a4bd fc57 e93d
000003a0: 1c00 473d a293 153e 8514 c13d 7603 823d
000003b0: 9daf bd3c 53c9 9ebd ff7d b8bd 1a1a bdbd
000003c0: 9cea a23d 6031 3bbd a731 0ebc 8b72 18bd
000003d0: 975d 35bb 8d09 c6bd 9bc1 1abe 29b9 9a3d
000003e0: 30e6 5fbd 381d 983d c264 58bc ab16 a0bd
000003f0: cea0 1dbd d030 78bd 5587 6a3c 6e3a 30be
0.13884963 0.080633536 0.02987197 0.17739093 -0.03749999 0.04051597 -0.030778002 0.101783015
0.15611565 -0.020481514 0.15931143 0.07524027 0.13261998 0.040015258 0.10052767 0.020181233
0.08034322 -0.016434453 -0.10688035 0.03078439 -0.01861697 0.024795081 -0.05813226 0.19982828
-0.14368519 -0.057626292 -0.057088297 -0.1552986 0.009415622 -0.13264243 0.11610149 -0.015349437
0.09808769 0.031116126 0.040061828 0.12841323 0.06750334 0.15087199 0.057564978 -0.022429826
0.096776195 -0.002248669 0.11195372 0.16065764 0.1418967 -0.009449103 0.11919184 0.058837663
0.11006054 -0.023151416 -0.10322179 0.009928977 -0.029084427 0.17121881 0.08753319 0.07727176
0.14849539 0.058918066 0.18420045 -0.03710763 0.08065635 0.038703132 0.13487352 -0.043047786
0.011365369 -0.02653809 0.13249898 -0.053731337 -0.044895656 -0.093623415 0.122196645 0.088520885
0.11442692 -0.018956652 -0.037467573 -0.011608748 -0.03081088 0.06021954 0.0652613 0.14475667
-0.059436325 -0.046825062 0.08594743 -0.014435363 0.10777421 -0.008839438 0.090927616 -0.064055644
-0.029161999 0.058499414 0.0660916 0.0074856235 0.08290084 0.07140687 -0.10660649 -0.073203295
0.093397014 -0.06620102 -0.05331504 -0.13765405 -0.12420697 0.031225458 0.0023755783 -0.20343508
0.0950668 -0.016218454 -0.025658565 0.012868109 -0.025537943 -0.026305623 0.144828 0.104523756
0.107963465 -0.041246887 -0.09784559 -0.104542136 0.07623523 -0.038259286 0.11955413 -0.10268523
0.005679669 -0.07578113 -0.010170879 -0.0181531 -0.071770035 -0.08846415 -0.006869733 -0.11741831
0.122635424 -0.037294697 0.092022784 0.044967007 0.0011501973 0.053160664 -0.014502261 -0.10805097
-0.08175569 -0.19225922 0.022718633 -0.027305484 0.043186147 -0.16875073 0.16710241 -0.054796863
-0.021426843 0.040097084 0.0628127 0.18148763 0.056944642 -0.14289834 -0.03293341 -0.1081991
-0.07134335 -0.13374367 0.072869904 -0.12435822 0.05824066 0.0163953 0.05837987 -0.097136095
0.07446192 -0.015108572 -0.010884184 -0.1511854 0.006124457 -0.030850379 -0.0469129 0.09111826
0.061786536 -0.11136057 -0.0127260145 -0.0035546224 0.15237589 -0.02806134 0.080393866 0.0097721405
0.011048189 0.04457906 0.079336174 -0.13993515 0.04732439 0.07465125 0.017387418 -0.052333914
0.062106982 0.050926857 0.07273965 -0.020719055 -0.036038075 0.012535734 0.00875024 -0.017814172
0.118176274 0.142719 0.022224808 -0.0048216474 0.044513036 0.016426792 0.042959575 0.0758443
-0.0798859 -0.033098817 0.12474847 0.04736271 0.010623742 -0.0667123 -0.08008372 -0.079594105
-0.013635868 0.06805074 0.100339144 0.06676178 -0.10513058 -0.11317827 0.058688466 0.12091869
-0.008550906 -0.029069632 0.06731365 -0.04979108 -0.060381435 0.15734649 -0.024185916 -0.032376353
-0.1362084 0.11990437 0.12427571 0.07846151 -0.028261025 -0.12755036 -0.080327734 0.11393735
0.04858409 0.14607099 0.09427742 0.06348316 0.023155028 -0.07753243 -0.09008407 -0.09233494
0.079549044 -0.045701385 -0.00867883 -0.03721861 -0.0027674192 -0.096697904 -0.15112917 0.07554848
-0.054662883 0.07427448 -0.013207616 -0.078168236 -0.038483433 -0.060593426 0.014314492 -0.17209789

lstm.weight_hh_l0 f4 [256, 64]
00000000: 670e a9bc 1f59 8d3d ba3b 8a3d baf0 21be
00000010: 1cac 01be 452d 823c 39b9 aebd dcc4 a6bd
00000020: a156 7a3d 6068 08bc 575a e1bd be44 4a3d
00000030: 3c86 a63d 75ed 883d 5da3 4d3d 03f5 38be
00000040: 7cae 42bd cd45 2b3d d608 353e bf6c a4bd
00000050: 38e0 e83d 8cda 6d3d 6feb e33d 36b7 333e
00000060: c728 c73d 43e5 c9bd d0ab 6dbd 139b e33d
00000070: 8032 883d 5129 b5bd ec86 f03c 90f7 c83b
00000080: 247f 99bc 325e a13c c4cd 64be 9d33 34bd
00000090: 1968 d9bd 9f5a 033e 154a 05be 972f 9c3d
000000a0: 3306 7cbd cc7b d13c b737 2dbe f571 7fbc
000000b0: fa19 a23d 9b14 42bd a516 84bd c1df 763c
000000c0: 5508 19be 373a 71bd 351e 493c 5a27 d4bd
000000d0: 0087 9d3d e1cc bf3d 124b d2bd f24c 19bd
000000e0: 2fa2 29be 4fec 36bd 7873 6b3d 5ae9 26bd
000000f0: 7926 2bbe 791e fbba 5c64 5bbd c178 663d
00000100: acf9 ce3d 7b21 23be 144a 43bd 6be7 06bd
00000110: 06f3 ff3d 34c9 a8bd e4ae 70bd 1a17 5c3b
00000120: 6dfd 913c f95d 3c3d 7350 9a3d 9bca 2a3e
00000130: 6595 ec3c 0e59 3e3d d586 9a3c fcec 103e
00000140: 38ae f7bd fc77 003e 95d0 42bb 8eef 3dbe
00000150: 21c4 f63a badf 893d aad8 c13d 1434 d13d
00000160: 1126 ab3d 94af 403d 8d3b 0a3e 7658 df3d
00000170: fcfd 69bd 13b0 a2bd fb94 df3d 20b3 073e
00000180: fe2b eabb 3bbe 53bd 2392 15be 339b 7d3c
00000190: fe77 8fbc 349f b7bd 3489 563d 2870 03bd
000001a0: 1746 133e 5e52 543d 9ad2 b3bd d42b 3e3d
000001b0: a62a 3d3d c99e 51bd d838 9e3d 9238 213e
000001c0: 9011 ab3d 1351 19bd 3e30 0f3c 0b2a 4fbd
000001d0: 4dd0 1f3e ccc3 33be 5ed4 7d3d 5961 fa3c
000001e0: 3546 a03d c47a 98bd ff9a 193e 56f8 a13d
000001f0: a5af ebbd 9cca e3bc c4fe 34be b15d 52bd
00000200: e859 823d 74a2 7ebd 9d3a afbc 4578 233c
00000210: 24c2 1bbd 67d7 41be 6796 d83d 7f54 dbbd
00000220: 561a 06be bd10 e23d 9b81 8fbc bccd 813d
00000230: a139 ecbd 9f1b 90bb 9744 0ebe faab cf3d
00000240: fdaa 233e 864a f33d 4e7d cabd 522a 85bd
00000250: c575 39bd 8a75 cabd 8db7 9a3d f4d1 4e3e
00000260: 9cef b33d 4da6 ef3c 36a1 d63c 55c8 243e
00000270: 45af 0ebe 4f8a 38be 0d6b 243e f42b 893d
00000280: 5aff 9ebd c4d2 9abd 98ed 163d bc6a b53d
00000290: 8ae3 8abc b08e 093e fafa ca3d 94c9 c2bd
000002a0: b3af 96bd 56a0 403d 86a0 09be 9dbf 1e3d
000002b0: caac b5bc 424a bcbd 6f2f a5bd 3215 fdbd
000002c0: 17ce de3d b84b 7abe ace6 a5bb 8caf 3abe
000002d0: 1ea1 debd de7f 25bd 3058 49bc 5a94 3a3d
000002e0: f33a bb3b 856a 913c ff64 263c 4aca 383e
000002f0: 5c81 93bd d608 a1bd 554f 6bbd 93b6 97bd
00000300: 146b 083d a81a ed3d 3355 e0bd 817f 253d
00000310: e261 ca3c 6758 91bd 2aaa a43b f5e1 d43c
00000320: 746f 5fbd ff58 db3c 2dd4 06be 8310 6cbd
00000330: 9ed9 3abd 1ac3 2abe 7ed1 93bd 608f 34bb
00000340: b535 3abe eda2 133e d48e 05be a454 b8bd
00000350: 33f4 613d fdfb 5cbc b6a1 dc3d b010 26bc
00000360: d395 beba ef68 ecbd 7ed8 61bd e12f 30bc
00000370: f718 b93c c257 cfbd bc87 af39 381c 8a3d
00000380: f223 7c3d 8ac9 f73d 9138 223c 8af8 2b3d
00000390: 76fb 76bd 4a13 303d 3add f0bd 01c6 ea3d
000003a0: be1b efbd b015 023d 4d8e 2bbe 0888 a3bd
000003b0: 098e 833d b618 f1bd b354 893c 537d f23c
000003c0: 1e66 a73c c081 a63d 954c acbd bdee 02be
000003d0: bc35 5ebd b032 26ba 7d89 c43d b814 e9bd
000003e0: 6e67 abbd 581e 663d d671 e4bd c67d cabd
000003f0: beda fdbc faff d8bd 68ec fb3d 95b7 91bd
-0.02063675 0.06901764 0.06749673 -0.15814486 -0.12663311 0.015890727 -0.08531422 -0.08143017
0.061117772 -0.008325666 -0.11003559 0.049381964 0.08131072 0.06685916 0.050204623 -0.18062215
-0.047529683 0.041814614 0.17679152 -0.08028554 0.11370891 0.05806975 0.1112889 0.17550358
0.097245745 -0.09858181 -0.05802518 0.111135624 0.06650257 -0.08845771 0.02936121 0.0061330274
-0.018737383 0.019698236 -0.22344118 -0.043994535 -0.10615558 0.12827538 -0.13016541 0.076262645
-0.06152935 0.025571726 -0.16915785 -0.015591134 0.07915111 -0.047382932 -0.064496316 0.0150679955
-0.14944585 -0.05889341 0.012275268 -0.10359068 0.07691765 0.093652494 -0.10268225 -0.037426896
-0.16565774 -0.044658955 0.057483166 -0.040749885 -0.16713895 -0.0019158862 -0.053562507 0.056267504
0.10106215 -0.1593074 -0.04767807 -0.03293554 0.12497525 -0.082415015 -0.05876054 0.0033583106
0.017821038 0.045988057 0.07534876 0.1667885 0.02887983 0.046471648 0.018863121 0.14152902
-0.120937765 0.1254577 -0.0029726375 -0.18548414 0.0018826762 0.067321256 0.094651535 0.10215011
0.0835687 0.047042444 0.1349928 0.109055445 -0.057126984 -0.0794374 0.10917088 0.13251925
-0.0071463576 -0.05169509 -0.14606528 0.015478897 -0.017513271 -0.089659125 0.05237694 -0.032089382
0.14382206 0.051836364 -0.087804034 0.046428517 0.04618325 -0.05117682 0.07725686 0.15744236
0.08352959 -0.037430834 0.008739529 -0.050577205 0.15606804 -0.1755516 0.061970107 0.030563997
0.07825891 -0.07445291 0.15000533 0.079086944 -0.11508111 -0.027806573 -0.1767531 -0.051358882
0.063648045 -0.062166646 -0.021390254 0.009977405 -0.038026944 -0.18929826 0.10575562 -0.10709476
-0.13095984 0.11038349 -0.017517855 0.06338069 -0.11534429 -0.004397824 -0.13893352 0.10140224
0.15983196 0.118794486 -0.09887181 -0.065022126 -0.04527833 -0.098857 0.07554541 0.20197278
0.08785936 0.029254103 0.026199918 0.16092046 -0.13934048 -0.1802151 0.16056462 0.066978365
-0.07763548 -0.075597316 0.03684768 0.088582486 -0.016954202 0.13433337 0.09911151 -0.09511104
-0.07357731 0.04702791 -0.13440141 0.038756955 -0.022177119 -0.09193851 -0.08065688 -0.12357558
0.10879152 -0.24442947 -0.0050628986 -0.18231028 -0.108705744 -0.040405147 -0.012289092 0.045551635
0.0057138144 0.017750988 0.010155915 0.18045917 -0.07202408 -0.078630134 -0.057448704 -0.0740787
0.033305243 0.1157735 -0.109537505 0.0404048 0.024704877 -0.070969395 0.005025168 0.025986651
-0.05454965 0.026775835 -0.13166876 -0.057632934 -0.045617692 -0.16675988 -0.07217692 -0.0027551278
-0.1818455 0.1441762 -0.13042766 -0.09000519 0.055164527 -0.013487813 0.107730314 -0.010135815
-0.0014540501 -0.11543452 -0.055138104 -0.010753603 0.022594912 -0.1012416 0.0003347973 0.067436635
0.061557718 0.120989874 0.009901182 0.041985072 -0.060298406 0.042987145 -0.117609456 0.114635475
-0.11675213 0.031758964 -0.16753502 -0.0798493 0.064235754 -0.11772291 0.01676402 0.029600775
0.020434435 0.081302166 -0.08413044 -0.12786384 -0.054250464 -0.00063399505 0.09596536 -0.11380905
-0.08369337 0.05618128 -0.11154525 -0.09887271 -0.030988093 -0.10595699 0.1230095 -0.071150936

lstm.bias_ih_l0 f4 [256]
00000000: 46e3 103a f534 4e3d 68ea 873c 202b d0bd
00000010: 987f 35bd 6269 b93d 91e5 6b3d 73b7 4b3e
00000020: 86a0 313e 7bb7 883b 9f3f f93d f4d6 f83c
00000030: 4bb4 cc3d 8933 35bd 05f5 1fbc 6bd4 f83d
00000040: da12 aa3d a389 193d 021e 263e 31fa 143e
00000050: 3c9f 15bd 3672 193d 1a09 823d 7312 153e
00000060: 359a bbbd bb88 003e 9faf d43d e4c1 1f3e
00000070: 1dce 34bd 9d79 613d bd3e fb3d e291 0c3e
00000080: 7434 bbbc 384e fb3d 747a f23c 1d94 f13d
00000090: 91d5 8f3d a03d c63d 4203 6ebd 1ff7 703d
000000a0: 9719 62bd 5462 b7bc ce14 333c c71b 68bc
000000b0: 4936 f73d 1933 cb3d b4c4 d23d f5b2 61bd
000000c0: 29a8 423e 08bf 1d3e e03b 263d 2597 c1bb
000000d0: 61bd 223e f256 243e f046 b93d ae20 22bd
000000e0: 3e64 8abd f459 dd3d 4065 6ebd 8131 af3d
000000f0: d897 d83d 9336 05bc 9caa c7bd aa3b dabd
00000100: 17c4 183e a16c 253c 1bc0 663d 5a4c 923b
00000110: f7b0 f1bc cae5 863d 3d18 ccbd 0cd7 b03d
00000120: 69d8 e13c 2101 fb3d 3e6f 32bd 08f6 423a
00000130: da59 8abd 0571 ea3d f95e a13c 80b0 12bd
00000140: fd0b 46be 0a46 f33d 6f32 1f3e fee0 41bd
00000150: c4a5 373d 5695 82bc c098 a7bd ab7b 88bd
00000160: 2026 86bd 5dbd 163d ec94 03bd d0f8 553e
00000170: 81d7 63bc 790a bebd 8e14 96bd fd8e 0f3e
00000180: f5f5 fe3a fcec 4e3d b7c4 cd3c d8fe 103e
00000190: 8db6 b4bd 0469 2a39 96a1 c33d cfbf dfbc
000001a0: e2df 62bd e45a f73c cb03 d53c e895 22bd
000001b0: fbd1 89bd 1b57 253d 691d 143d 1d6b c1bd
000001c0: 8ef1 263d 26a1 a03c 2d75 f53d f795 bd3d
000001d0: 76dc ea3d b72c eabb b366 c43d f7e9 f8bc
000001e0: 21c4 953d 7c19 96bd e455 ef3d 74e9 04bb
000001f0: 69ff bdba a59c d0bc cec8 123e a01a 943d
00000200: 572c 513d 8112 1b3c 8109 72bd 997e aabd
00000210: ece8 07be 188d 35bd 06f6 1abd 7355 79ba
00000220: d6d2 da3d 8e04 5d3d 895d 203d bc4f 993d
00000230: 9a46 ef3d 1bc1 663d b718 21bb 10a0 ca3d
00000240: 7a6b b1bd 4936 4c3d afa8 a03d 3976 0ebe
00000250: d251 d3bd 3db2 e43b e0f8 0b3d 7cd4 a53d
00000260: 0c94 e9bd 7e88 1c3e c36e 1fbc b5c1 04bd
00000270: 8cb1 f3bc 3ab6 a43d 83c7 223d 1473 b23c
00000280: f59c 02be 26f2 03bd 68d6 10be 7d1c 21be
00000290: 27c3 903c 751b a5bc 9356 1fbe 6bd1 b7bd
000002a0: 2a5b e93d 0d4a 0a3e b8ad d2bd 872a c1bd
000002b0: e1b6 853d 1b26 77bc ebdc 743b baeb 56bc
000002c0: 9575 d03c 352c 0fbe 67fc 10be 4349 fe3d
000002d0: 1445 ad3d 70b8 463d 92ac 66bd f242 60bd
000002e0: 0d5e 34bd 63d6 93bd f340 cdbd aa40 903d
000002f0: 80ff 99bd 9e77 01be 94ab 23bb 32d7 b33d
00000300: 31b7 023d 966d 81bd bd84 bf3d cb38 4bbd
00000310: cb13 063e d352 8cbd 251f 1a3e 997e 043d
00000320: a5ee 373e de22 d03d d75f 1e3e eeda 913d
00000330: 368a 94bc 8c03 183d f745 1c3e d227 5dbb
00000340: 16e3 9c3d c87c 313d 6103 083e 8c6c 34bd
00000350: 944a 20bd e72c c73d e5c4 9b3c 762e e93c
00000360: b0fa 1d3d a27f 3a3e b5f2 edbc 83d3 ab3d
00000370: 205f 4abd bc06 903c 3abe 14bc d56f 0b3e
00000380: d0a7 dd3d 5450 033e 25d0 783c 91dc ff3d
00000390: 503d 81bb dd85 3bbd 3a7a 8abd 4602 33bb
000003a0: 13db 0fbd 4072 053e 628a 8d3d a553 4fbc
000003b0: 7602 72bd 36c0 173e ff64 0b3e 121b 8bbd
000003c0: 030d 323e c459 863c 0f7d 80bb 40e6 ea3d
000003d0: 3826 08bd 17f7 b1bd 0bc5 463d 2051 2b3e
000003e0: 0df6 ea3d 017b fb3d c87e a33d f100 8b3d
000003f0: 411f 7e3d 6492 0cbd 2d33 143e b591 023e
0.00055270304 0.050343473 0.016591266 -0.101644754 -0.044311136 0.09053303 0.05759198 0.19894199
0.17346391 0.004172263 0.12170338 0.030375935 0.09995326 -0.0442386 -0.009763007 0.121498905
0.08304377 0.037484776 0.16222385 0.14548565 -0.03652881 0.037462436 0.06349392 0.14557819
-0.09160272 0.12552159 0.103850596 0.15601307 -0.044141877 0.05504762 0.12267826 0.13727525
-0.02285216 0.122707784 0.029599406 0.117958285 0.070231564 0.09679723 -0.058108576 0.058829423
-0.055200186 -0.022385754 0.010930253 -0.014166779 0.12070901 0.099218555 0.102914244 -0.055102307
0.1900946 0.15404904 0.040584445 -0.0059079104 0.15892555 0.16048792 0.090467334 -0.039581947
-0.06757401 0.10808173 -0.05820203 0.08554364 0.10575837 -0.008130687 -0.09749338 -0.10655911
0.14918552 0.0100967 0.05633555 0.004464668 -0.029503329 0.065867975 -0.099655606 0.08634767
0.027569013 0.12256075 -0.04356312 0.0007437174 -0.06755419 0.11447338 0.019698607 -0.035812855
-0.1934051 0.11878593 0.15546583 -0.04733371 0.04483582 -0.01594035 -0.081834316 -0.06664213
-0.065502405 0.036801685 -0.032124445 0.20895696 -0.013906361 -0.09279341 -0.07328139 0.1401939
0.0019451963 0.050518975 0.025118215 0.14159715 -0.08823881 0.00016251585 0.095523044 -0.027313141
-0.055389293 0.030194707 0.026002785 -0.039693743 -0.06729504 0.040366273 0.03616086 -0.09444258
0.04075771 0.019608092 0.1198524 0.09257119 0.11467831 -0.0071464437 0.09589901 -0.030385
0.07312799 -0.073290795 0.11686304 -0.002028075 -0.0014495674 -0.025465319 0.14334413 0.07231641
0.051067676 0.009464861 -0.059091095 -0.08324928 -0.13272446 -0.04432401 -0.037832282 -0.0009511329
0.10684745 0.05395942 0.039151702 0.07485911 0.11683388 0.056336503 -0.0024581382 0.09893811
-0.08663078 0.049856458 0.07844674 -0.13912286 -0.1031834 0.0069792555 0.034172893 0.08097169
-0.11405191 0.15286443 -0.0097309975 -0.032411296 -0.029747747 0.080425695 0.03974105 0.02178339
-0.12755187 -0.032213353 -0.1414429 -0.15733524 0.01767118 -0.020154694 -0.15560369 -0.0897549
0.11394341 0.1350481 -0.102870405 -0.094319396 0.06529022 -0.015084769 0.0037363123 -0.013117725
0.025446692 -0.13981707 -0.14158784 0.12416317 0.08460441 0.048515737 -0.05631692 -0.054751344
-0.044035006 -0.072186254 -0.10022154 0.07043584 -0.07519436 -0.12643287 -0.0024974095 0.087812796
0.031912986 -0.0631973 0.0935149 -0.04961471 0.13093488 -0.06851735 0.15050943 0.032347295
0.1796213 0.101629004 0.15466247 0.07121836 -0.01813231 0.037112758 0.15261064 -0.0033745659
0.07660501 0.04333189 0.13282539 -0.04404883 -0.039133623 0.09725361 0.019014785 0.028464537
0.038569152 0.1821275 -0.029046396 0.08389952 -0.049407125 0.017581336 -0.009078557 0.1361688
0.10823023 0.12823611 0.015186344 0.124932416 -0.0039440766 -0.04578196 -0.06761594 -0.0027314587
-0.035121035 0.13031864 0.0691116 -0.01265422 -0.05908438 0.14819416 0.13612746 -0.067922726
0.17387776 0.016400225 -0.003921158 0.11469698 -0.033239573 -0.08689707 0.04852776 0.16730165
0.11472712 0.122793205 0.07983166 0.06787289 0.062041525 -0.034319296 0.14472647 0.12750895

lstm.bias_hh_l0 f4 [256]
00000000: 4e64 60bd ee39 a4bd 0840 053d 6b5b 68bd
00000010: e252 0f3b 9cbc f53d 0b8c 383c d914 493e
00000020: fb75 6f3d 8d49 e33c 0013 3b3d f409 563c
00000030: 70ef 8b3c 6656 b5bb 18ce 68bd 73b0 013e
00000040: a452 b73d 2256 ba3c 29dc a03d c6cd f3bb
00000050: afcf 8ebd 95b8 ec3d fcad bb3d 1641 9abc
00000060: 7bef e33d ee78 2b3d b7eb 1cbd 9a44 9c3b
00000070: 57d3 23bd 2dd9 7bbd 17d5 9f3d 0461 27bd
00000080: a3e8 5bbd d5dc 263e 0df0 013d 40ad 5a3d
00000090: 2d7a 1c3d 67ae 713d b893 19bd 8560 4ebd
000000a0: c9a6 45bd fabc a8b9 9336 b23d 266d a83d
000000b0: f859 c93d 1e61 6abd 7b98 80bd 84ba c6bb
000000c0: 9d8f 5b3e 5668 273d 7af5 313e 460b 263e
000000d0: 5d26 123e 4fe0 0c3d 858c 873d 2907 8f3a
000000e0: 6fc5 173d 66c3 8a3d 0afa c9bc 1371 5fbd
000000f0: c844 f8bc bd3a fe3c b7c2 13bb af4a 513d
00000100: 2ba3 85bc d73c a33d b61f 82bd cfc6 143e
00000110: 9112 073e 487d e63d b9ff 99bd f375 37bd
00000120: 3349 a7bc e3b5 13bd 5f18 90bb c259 4a3c
00000130: e29d 923d b456 1e3e 66a8 ba3d 742a 0b3c
00000140: 8f75 edbd 7478 c1bc dc6c 163e a009 aabd
00000150: 7426 523d 1cbb c3bd 832d 45bd 3156 91bd
00000160: c39b 2ebe b4cb a73c 60d6 59bc a371 e63d
00000170: b5a6 eb3d e4ed dcbc 3471 353d 55e8 11bd
00000180: 28ef d33d 486c ca3d 2e68 08bd 4817 72bd
00000190: 49df cd3d 6965 433d 9eea c53d 6b51 843c
000001a0: d634 6d3d 7ea1 a83d 3737 643d 7840 13bc
000001b0: e905 883d 0fbc de3d 2af9 96bc afb1 efbd
000001c0: be45 62bc 9eef c43c a1e2 dd3d c0a7 693d
000001d0: 7201 f63d 6eac 8b3c b964 e83d 7517 4abd
000001e0: 6295 bf3d f6ae 7e3d 1bd4 523d 426b 383c
000001f0: e675 d8bd 4db7 093e c875 973d acf5 d0bd
00000200: a318 783d afa5 803d 98da f33d af11 c63d
00000210: 0fcc 443c e575 913d 7c9e 113e a592 a03d
00000220: f66a 823d 4349 2a3c 2608 debd fa25 833d
00000230: 4e70 9bbd 438d 29bd b184 14be 7176 03be
00000240: e337 00bd 0185 10be 4da1 8c3d 1a16 263c
00000250: ab48 00bd 2bf3 103e 502b 143d 0a2c 563d
00000260: c3f9 a7bd 7b6f 88bd 6bdf 38bd 02bd 9f3d
00000270: 0c92 d8bd c629 b5bd dfc5 55bc 781f 653d
00000280: 85b5 443d 483d d038 74ed 70bd 5897 a6bd
00000290: 497e e7bc 8f7e b83d e089 0cbe f3dd cfbd
000002a0: 1c22 99bc 5fc5 c73c 0318 3b3d c81c 823c
000002b0: 58ad e13d ff97 0abd 2de1 623d d54c 7abd
000002c0: a117 fcbd 6ca9 b7bd e660 a53d b44f 02bc
000002d0: d45e b9bc 2415 823c 10df cfbd 2e84 2f3d
000002e0: 1ddf a3bd a1a1 cb3d 7330 d23d f268 9d3d
000002f0: 0443 903d 092c 833d a392 203c 7ed4 e03c
00000300: 87f9 283d 10b8 12bb 1d1d 263d b831 97bd
00000310: cbe8 90bd 7091 9c3c b31a ddbc ee95 063c
00000320: 1ac4 f73d 292b 9e3b e5da 353e 404c 98bc
00000330: 2651 77bd bfa4 853d 9537 843d f679 053e
00000340: 1c88 973d 1be0 2cbc 0587 97bd 2a76 fb3d
00000350: 3c24 0b3c 8264 283e 397b 0ebc e055 2e3e
00000360: dc0c 203d 830d 4d3d c4d8 cc3c 1895 573e
00000370: 9d2f d53d ed27 bcbd 13e1 6cbb efc0 89bc
00000380: f2f1 923d f491 2e3c a54c febc 6428 813d
00000390: 14ad 8b3d 08be 83bc 60a4 aa3d 7257 153e
000003a0: e700 4c3a d814 333e 945b e43d cf9e 503d
000003b0: 287e 8cbc 089c 163e 13f0 df3d 9ac0 d0bd
000003c0: 5d8a d83d c708 64bd 55fe a5bc 0016 ea3a
000003d0: 4d10 863d 81fd e9bb c886 ec3c 2d5b 313e
000003e0: 1f26 273d ff54 9dbd 28fb 39bd f9b9 86bd
000003f0: 52e2 43bc 77b8 e53d 2bea a53d 0d26 59bc
-0.054783158 -0.08018862 0.032531768 -0.056727808 0.002186947 0.11998865 0.011263858 0.19636859
0.058462124 0.027745033 0.045672417 0.013063896 0.017081946 -0.005533981 -0.05683717 0.12664966
0.08951309 0.02274615 0.07854492 -0.0074403016 -0.06973206 0.11558644 0.09164044 -0.018829864
0.11129662 0.041863374 -0.038310733 0.00476892 -0.03999647 -0.06148641 0.078043155 -0.040864006
-0.053688657 0.16295178 0.03172307 0.05338788 0.038202453 0.059004214 -0.03749439 -0.050385017
-0.04825476 -0.00032184256 0.087018155 0.082239434 0.09831613 -0.057221524 -0.06279083 -0.006064715
0.21441503 0.040870987 0.17378798 0.16215238 0.14272447 0.034393605 0.06618599 0.0010912168
0.03705352 0.067755505 -0.02465536 -0.054551195 -0.030306235 0.031033868 -0.002254648 0.051096614
-0.016313156 0.07970589 -0.06353705 0.14528964 0.13190676 0.11254364 -0.07519478 -0.04479022
-0.020420646 -0.036062133 -0.0043974365 0.0123505015 0.0715902 0.15462762 0.09114151 0.008494008
-0.11594688 -0.023617007 0.14689964 -0.08302617 0.051306203 -0.09557173 -0.048139106 -0.07096518
-0.17051606 0.020482875 -0.01329574 0.11252143 0.11506406 -0.026968904 0.044297412 -0.03562196
0.1034835 0.09883934 -0.03330248 -0.059104234 0.10052354 0.047704134 0.0966389 0.016152104
0.057911716 0.08233927 0.05571672 -0.0089875385 0.06641752 0.10875713 -0.018429358 -0.11703812
-0.013810573 0.02404004 0.10834242 0.057044744 0.120119944 0.017049994 0.11347336 -0.049338777
0.093546644 0.062178575 0.05147181 0.011256041 -0.10569362 0.1344883 0.07395512 -0.10203108
0.06057037 0.06281602 0.11906928 0.09671342 0.012011542 0.07102565 0.14220613 0.0784047
0.063680574 0.0103934435 -0.10841398 0.06403728 -0.0758978 -0.041394483 -0.14503743 -0.1283815
-0.031303298 -0.14113237 0.06866703 0.010137105 -0.0313193 0.14155261 0.03617412 0.052288093
-0.08201935 -0.06661888 -0.045134943 0.07799722 -0.10574731 -0.08845858 -0.013047664 0.055938214
0.048024673 9.9296274e-05 -0.058820203 -0.08134335 -0.02825846 0.09008514 -0.1372447 -0.10149755
-0.018693022 0.024386106 0.045677196 0.015882865 0.11019391 -0.03383636 0.055390526 -0.06110843
-0.12309194 -0.089678615 0.080751225 -0.007953573 -0.022628225 0.015879221 -0.10149968 0.042850666
-0.0800154 0.09942938 0.10263147 0.07686032 0.07044032 0.064048834 0.009800586 0.027445074
0.041253593 -0.0022387542 0.04055511 -0.0738253 -0.07075652 0.019112319 -0.02699027 0.008214457
0.1209795 0.0048269224 0.17759283 -0.018591046 -0.060380124 0.065255634 0.06455914 0.13034806
0.07399008 -0.010551478 -0.073988 0.122783974 0.008492526 0.1644459 -0.008696371 0.17024946
0.039074764 0.050061714 0.025005706 0.21052969 0.10409472 -0.09187303 -0.0036144897 -0.01681563
0.07175054 0.010654915 -0.031042406 0.06306532 0.068201214 -0.016081825 0.08332133 0.14584139
0.0007782117 0.1748842 0.1115028 0.0509327 -0.01715 0.14707959 0.109344624 -0.10192986
0.10573266 -0.055672433 -0.020262877 0.001785934 0.06546078 -0.0071408157 0.028872862 0.17319937
0.04080784 -0.07682227 -0.045405537 -0.0657844 -0.011955814 0.112168245 0.081013046 -0.013253701

lstm.weight_ih_l1 f4 [256, 64]
00000000: c17c ea3d fe69 24bd 3f6a 1f3e 3d44 34bd
00000010: 0f77 c9bd 04aa 9ebd bd40 483c 8c49 1e3e
00000020: e724 753d c78c 8ebd 1f9d 933c 4d31 b73d
00000030: 1e0d 05bd 65b0 bd3c 2661 ad3d 0001 e43d
00000040: c317 07bb c862 de3d 58d3 7a3d e07d 3d3b
00000050: 8ade 3a3c 2f22 773a 36d7 b03a c609 9d3d
00000060: ecc5 1a3d bebe 7bbc d38c 253e 340f ab3c
00000070: 7596 84bd 5c2d 0f3d 92c5 353d 0ff4 ef3d
00000080: a679 b5ba c6cd 3ebe 51b8 fd3d 73d9 9dbc
00000090: fe16 0e3d 4ab3 163e e529 b33d dde4 b53d
000000a0: 7aac 513d b4a2 273e f94a 103e 5a46 f43d
000000b0: 20c9 b23d 4065 df3d 0c27 08bd 107e b0bd
000000c0: 4698 a3bd 4901 8d3d bce8 7dbd cd62 743d
000000d0: 8c70 8e3d 92ac 4fbd 4dc5 a8bd ece7 8abd
000000e0: fa9b 9fbd b6a6 7bbd 8948 f6bc 978c d1bc
000000f0: 80c3 993d 52ec e5bd 73f8 c83c c875 fc3d
00000100: 42c6 b83d 8a9d 243e e0c9 013d 79ee 0dbe
00000110: 2587 c8bd 49dd 273d b585 5b3d c0a7 55bc
00000120: e328 cabd 6bca 81bd 0dac 0dbc af98 e33d
00000130: ad0f 223c fee7 14bd c21e 873d 3af8 3dbe
00000140: 3b45 dcbd 0366 b5bc 5f26 273e c958 d4bd
00000150: d514 09be 681c c53d 3a55 9c3d 5de6 f7bc
00000160: 4fba ebbd e8a8 ffbd 2291 89bd 8a36 a73c
00000170: da3a 63bd 1f64 d53b 9f55 cebd 5a28 443d
00000180: 178b 9e3d 8618 8b3c b0e2 af3c cee2 c83d
00000190: 001b 17bd ddb3 f2bb 69a8 80bd e2ea 88bd
000001a0: 265b dabc b92b 14bd c134 53be 1784 783d
000001b0: 8290 adbd 0ad6 1e3e a35d cf3d a33b 5e3c
000001c0: 7bca e13d cd98 d43c 3d21 303e a7a8 a23c
000001d0: db14 a3bd d10a 963d 2214 e2bd cdcb a1bd
000001e0: 740b 88bd f566 803b d07b c3bc 8133 d2bc
000001f0: a27a 38bd b469 c53b 9021 04be e642 91bd
00000200: b039 debc e141 6b3d f85c 12bc c664 20bd
00000210: 2cfe 973c b353 2c3d 019b 743d 22cc fd3d
00000220: 74e3 7b3c c881 f9bb cf7b 1bbe 4566 cc3b
00000230: 9696 de3d f90d 0f3c da1d 09bd c9e3 15bd
00000240: 3c8d 18bd c171 92bc 787d c2bd 334f 27bd
00000250: b6ec 3bbb 8830 8d3c 854d e3bb c581 ccbd
00000260: 0ed6 40bd 24a7 ea3d 85a6 4d3d c5ba 013e
00000270: 1112 a3bd 5d7a cb3c ce7a f8bb 1aee 453d
00000280: 14f1 91bd daf3 e5bb fb3f 3a3d 209c f7bd
00000290: a5f5 0dbe 9691 21bc 3a91 ffbc 0144 14be
000002a0: 51f5 b93c 467f 31bd 2c1d 5bbd 5d4d 113e
000002b0: 61fe b73d 5f6f 5c3e 28a9 b03d ad90 0bbe
000002c0: 4812 ec3d 2607 54bc 51a9 053d 78fc 92bd
000002d0: 0aef 843d 7dc6 3f3d 9d85 70bd aa1a 44bd
000002e0: e2c9 7abd ecae 403d a3fe 4fbd 9dc2 8c3d
000002f0: 55b6 12be 4e70 a1bc 5f2f f93d 6118 4bbd
00000300: 080d 70bd 74ee f43c 1f22 59bd a0aa 683b
00000310: 2e90 80bd 8241 ecbd 7f66 93bd 077f d93d
00000320: b9e7 283d d1b7 b5bd eaa1 2fbe f101 703d
00000330: db0f 083e 09ee 4dbd 4ddc 0cbc b75a d73d
00000340: 1c11 0f3e 90c8 123e aa32 723d ff46 b83c
00000350: 176d c1bd 30f1 a8bd e1c5 f3bd ad30 293d
00000360: 9003 c83d 8ed1 333e da06 32bc 8a22 b2bd
00000370: bd4d c0bd 80a0 453d 1833 94bc 2257 173e
00000380: 82fb 013c 2a2e 00be 6e56 2fbe eedb f5bd
00000390: 5670 023b 32a1 ac3d a7e3 9cbd 8a17 26bd
000003a0: d31e 0ebc 8e9e 7e3d bf7c 95bd 200d 94bc
000003b0: 8912 733d 2552 91bc d46f 73bb a5fa 0abe
000003c0: 9e91 86bd 8c97 013c 8455 f0bd eb8c 9d3d
000003d0: 8f0d efbc ef94 c23c d77c 2c3c 2ea2 8fbd
000003e0: 5ec4 2b3d a8bc 3e3d d8a9 3bbc d2ce 9a3d
000003f0: bfe0 c63d ac65 633d c21c 95bd 056b 843d
0.11449576 -0.040140145 0.15567873 -0.04401039 -0.09837162 -0.07747272 0.012222466 0.15457743
0.059849646 -0.06960445 0.018019257 0.0894495 -0.032483213 0.0231554 0.08465795 0.11133003
-0.0020613528 0.10858685 0.06123671 0.0028914139 0.0114055965 0.0009427396 0.0013491872 0.0766788
0.03778641 -0.015365301 0.16167001 0.020881273 -0.0647401 0.034955367 0.04437787 0.11716472
-0.0013845458 -0.18633184 0.12388671 -0.019268727 0.034689896 0.14716831 0.08748225 0.08881543
0.051189877 0.1637066 0.140911 0.11927481 0.08729768 0.10907984 -0.033240363 -0.086177945
-0.07988028 0.06885011 -0.06198953 0.059664536 0.0695506 -0.050701685 -0.08240757 -0.06782517
-0.07793422 -0.061438285 -0.030063884 -0.025579734 0.07507992 -0.11226715 0.024532532 0.123271525
0.0902219 0.16075721 0.031686664 -0.13860501 -0.09791402 0.04098252 0.05359431 -0.013040483
-0.0987108 -0.06337436 -0.008646977 0.111131065 0.009891433 -0.036354057 0.065976635 -0.18551722
-0.10755392 -0.02214337 0.16323231 -0.10368497 -0.13386853 0.09624559 0.07633443 -0.030261213
-0.11510145 -0.12483388 -0.06717135 0.020411748 -0.055476047 0.0065121795 -0.10074925 0.047890045
0.07741373 0.016979467 0.021470398 0.098088846 -0.036890984 -0.0074066953 -0.06282122 -0.06685425
-0.026654791 -0.03617451 -0.20625593 0.060672846 -0.08474828 0.15511337 0.10125282 0.013564023
0.11024948 0.025951767 0.1720018 0.01985581 -0.07962962 0.07326282 -0.11038996 -0.079002
-0.066428095 0.0039185234 -0.02386275 -0.025659325 -0.045038827 0.0060245637 -0.12903428 -0.07092838
-0.027127117 0.057435874 -0.008933298 -0.039158605 0.018553816 0.04207201 0.059718136 0.12392451
0.015374053 -0.007614348 -0.15183948 0.0062377774 0.10868566 0.008731359 -0.033475734 -0.036594186
-0.037244067 -0.017876508 -0.094965875 -0.040847015 -0.0028675026 0.017235056 -0.0069367313 -0.09985689
-0.04707914 0.11457661 0.050207634 0.12668903 -0.0796243 0.02483862 -0.007582999 0.048322774
-0.0712606 -0.0070175948 0.045471173 -0.12090325 -0.13863237 -0.009861371 -0.03119718 -0.14479066
0.022699984 -0.043334268 -0.053494617 0.14189668 0.08984066 0.2152686 0.08626014 -0.13629408
0.11526924 -0.012941157 0.032632176 -0.07177061 0.064909056 0.046820153 -0.058721174 -0.04787699
-0.061227687 0.04704182 -0.05077995 0.06873057 -0.14327367 -0.019706871 0.121672384 -0.049583796
-0.058606178 0.02989886 -0.053011056 0.003550209 -0.062775 -0.11535932 -0.07197284 0.10619932
0.041236613 -0.08872951 -0.17151609 0.0585956 0.13287298 -0.050275836 -0.008597446 0.10515349
0.1397137 0.14334321 0.05913035 0.022494791 -0.09444635 -0.08249128 -0.11902977 0.041306186
0.097663045 0.17560408 -0.010865891 -0.08697994 -0.093898274 0.048248768 -0.01809077 0.14779332
0.007933499 -0.1251761 -0.17122814 -0.12004839 0.0019903383 0.08429183 -0.07660609 -0.040549792
-0.008674341 0.06216293 -0.07299184 -0.018072665 0.05934385 -0.017739365 -0.0037145512 -0.13572176
-0.06570743 0.007909667 -0.11735061 0.076928936 -0.02918127 0.023752658 0.010527811 -0.07013355
0.041935317 0.046566635 -0.011454068 0.07558979 0.09710836 0.055516884 -0.07280876 0.06465725

lstm.weight_hh_l1 f4 [256, 64]
00000000: 5d93 d4bd e15a f53c b1b0 d0bd bc5a 863c
00000010: bea9 a53d 34c3 acba 4f18 c9bd 778f a43d
00000020: e429 3b3d 9150 a23d 6e9a 59bb 3e58 13be
00000030: d6c3 09be 4021 c3bd 3c83 89bc 4e8d 873d
00000040: 23ed 2dbc cd7d fcbc 9741 12bd 0e3f c43d
00000050: 0ed1 a23d d69b 02be b8b4 35bd 9dd1 253d
00000060: 9506 b83d 0a0a 9dbc a1c8 1b3e eb82 043d
00000070: c73a 10bd 2e0d 2bbd d602 1c3e e7dc ab3d
00000080: 3c7e d1bd 22e5 123d ee00 cbbd 9605 003d
00000090: 44ce c63d 5adf 68bd d96e f0bd ca9c a53d
000000a0: 8f2f e13c 0add ed3d c145 fe3d 5769 003e
000000b0: 3ecc b0bd 5f3e 57bd 08c5 b43d 72ed 903d
000000c0: 7cfc a23d b557 0f3e 9c82 063d 05d3 60bd
000000d0: 804c 1f3e 9c1a 2ebd 689f b43d 7695 85bc
000000e0: dc3c f7bd 526f a73c 3df3 d2bd c932 acbd
000000f0: 5e58 70bd 3e05 3e3d acca f03d 0c86 a7bd
00000100: 1f23 43bd 766d 99bc 682d cf3d 9c4f ae3d
00000110: c15c bd3d 829f a3bd 5567 adbc 9db1 14bd
00000120: faf6 913d 4fb6 ab3c 997c 10be ab02 10bd
00000130: 62ca 2dbd a394 be3c f7e8 d23d 0610 9cbc
00000140: 761a cb3d aedc 7a3d 912e 013e 9c30 b5bc
00000150: 8803 d3bd ad2d 833d 3a33 7d3b e306 c23d
00000160: 77db c6bd 5132 cfbb adf0 dd3d 89e2 8b3d
00000170: bad5 93bc 8636 1abe c964 0c3e 4187 4b3d
00000180: f762 403d 7d21 fabb f84e 183e 0e31 7fbc
00000190: 85ed b73d 389c b83d 6d6f b53d 832a 7c3d
000001a0: 5601 73bd faff 9a3c 60ba 38bc 5340 60bd
000001b0: e5d8 6abd e311 823d e45b d53c 03a8 cebd
000001c0: 62a1 343d bff2 353d 10f5 683d feb7 acbc
000001d0: 4e92 b1bc d7fb a7bd 3982 0d3d 1192 8abd
000001e0: e81b 6dbd ac4e 273d eced ffbd 2bab 683d
000001f0: 58d5 60bc f7dd 8c3d 82c4 a93a 878b 773d
00000200: b940 2c3c f6e2 1e3d 5d88 08be dc80 a23d
00000210: 7fe5 853d 6c0c fbba 32e6 eb3d 53b3 91bc
00000220: 7750 023e 1eaa 2ebc 38b2 353d aa4a 10be
00000230: a315 b63d 71ad babc a759 d7bd 4791 7dbd
00000240: 2ba4 7bbd 2dbd 163e a9eb bebd d4d9 253c
00000250: dcc4 a53d 1ec7 f6bd 188c bbbd 6062 6bbd
00000260: e9f4 e2bd 2979 7dbd f058 7abd 9948 12bd
00000270: 2a19 f0bd dbde 58bd 92b3 e6bd 9d94 bdbd
00000280: 978f adbd 7e18 79bd 61d9 d23c 0292 d83d
00000290: 2bea 1cbc 4cb3 6c3c 69fe 21be 8749 213b
000002a0: 3e7e 19bd fd3f 8ebc 340d 173e e2ae a03d
000002b0: 8a25 bfbc cb6e 2bbd a390 41b9 be4a a4bd
000002c0: 357d 503e 85eb 5ebd 01ea 493d 2f65 883d
000002d0: 13f7 bf3d 514a 003e dab4 37bd f702 a3bc
000002e0: d8c6 023d bac2 a0bd 8afd 0cbe 5f1b 80bb
000002f0: b985 da3d d6c0 a53d b779 c93d de08 623d
00000300: dcc1 b13d 5e5a eabc a70c 0ebe 155e dc3d
00000310: 691a 61bd 1fda 423c 33ad bdbc 60cc a83c
00000320: 8ab5 d23c cdf2 d03d 7370 07bd e185 bf3c
00000330: 9b6e 56bd 5792 923d 2cf6 af3c b3e4 003e
00000340: 2804 f7bd db59 91bd 3727 ca3d a906 d8bd
00000350: 4915 72bd 72d8 0d3d c841 f5bc 8a9b c2bd
00000360: 1faa 97bb 1ef8 b23d 3727 8e3c b59f a83c
00000370: a087 0ebe 612a 4fbd 8a44 9f3d eca7 20be
00000380: 7d38 e53d 437c 0d3d bb25 143e 8815 613b
00000390: c829 e2bd ccdc 493d ece4 13be f8fa 903a
000003a0: 9719 b8bc 3fcd b1bd 68e4 0c3e 81f8 88bd
000003b0: ab09 ce3d d636 82bc 9691 a4bd 2c2b 0bbe
000003c0: fbad 243d b592 a93d 5649 eb3d 2641 473d
000003d0: dd03 c8bd 050d 9abc cde4 76bd 3ed8 693d
000003e0: 20c7 e23d 626c 983d 3aa0 d53c 6d18 f9bc
000003f0: f494 23bd c84a 82bd 118e 3dbd ef4a 0c3d
-0.1037967 0.029950561 -0.10189951 0.016400687 0.080890164 -0.0013180734 -0.098190896 0.08035176
0.045694247 0.07925523 -0.003320362 -0.1438913 -0.13453612 -0.09527826 -0.01678621 0.066187486
-0.01061562 -0.030821705 -0.035707083 0.09582339 0.0795003 -0.12754759 -0.0443618 0.040483106
0.089856304 -0.019169826 0.15213253 0.032351416 -0.035212304 -0.041760616 0.15235457 0.08391743
-0.102291554 0.03586305 -0.09912287 0.031255327 0.09707311 -0.05685363 -0.117398925 0.08086546
0.027488498 0.116144255 0.12415648 0.12540184 -0.08632706 -0.052549716 0.08826643 0.07076539
0.07958314 0.13998301 0.032839403 -0.054888744 0.15556526 -0.042505845 0.08819467 -0.01630662
-0.12072155 0.020438824 -0.103003 -0.08408124 -0.058678024 0.046391718 0.117574066 -0.08179864
-0.047640916 -0.018728953 0.101160824 0.08511278 0.09246207 -0.07989408 -0.021167437 -0.036302198
0.07127185 0.020960955 -0.1411003 -0.035158794 -0.042429335 0.023264235 0.10298341 -0.01905061
0.099171564 0.061245613 0.1261542 -0.022117905 -0.10303408 0.06405196 0.003863527 0.0947397
-0.09709828 -0.006323137 0.10836921 0.068303175 -0.018046249 -0.15059862 0.13710321 0.049689535
0.04696938 -0.0076333866 0.14873874 -0.01557566 0.0898085 0.09014171 0.088591434 0.06156398
-0.059327446 0.018920887 -0.011274904 -0.054748844 -0.057335753 0.06351068 0.026044793 -0.100906394
0.04409922 0.044420954 0.056874335 -0.021083828 -0.021676209 -0.082023315 0.034548018 -0.06766141
-0.05788794 0.04084651 -0.12496552 0.056803863 -0.01372274 0.06878274 0.0012952241 0.060435798
0.010513478 0.038790666 -0.13333268 0.07934734 0.065379135 -0.0019153482 0.11518516 -0.017785704
0.12726007 -0.010660676 0.044359416 -0.14090982 0.088908456 -0.022787781 -0.10515147 -0.061906125
-0.06143586 0.14720602 -0.09322292 0.010122735 0.080941886 -0.12049697 -0.0915758 -0.057466865
-0.11081869 -0.061883125 -0.061119974 -0.035713766 -0.1172355 -0.052946907 -0.11264719 -0.09256861
-0.08474653 -0.060814373 0.02573842 0.10574724 -0.009577314 0.014447045 -0.15819706 0.0024610476
-0.03747391 -0.017364496 0.1475113 0.07845856 -0.02333333 -0.041853707 -0.00018459796 -0.080220684
0.20360263 -0.054423828 0.04929543 0.06659924 0.093732975 0.1252835 -0.044850208 -0.019898875
0.031927913 -0.07849641 -0.13768592 -0.003909513 0.10670037 0.08093421 0.098376684 0.055184238
0.08679554 -0.028607544 -0.13872014 0.10760132 -0.054956827 0.011892824 -0.023153877 0.020605266
0.02572133 0.102025606 -0.033066224 0.023379268 -0.052351575 0.07156818 0.021479689 0.12587242
-0.120613396 -0.07097217 0.09870761 -0.10548145 -0.05910233 0.034630246 -0.029938594 -0.09502323
-0.0046284343 0.08738731 0.017352683 0.020583967 -0.13918924 -0.050577525 0.07776745 -0.15689057
0.11192415 0.034542333 0.14467518 0.003434511 -0.110431254 0.049282834 -0.14442796 0.0011061123
-0.02247314 -0.08681726 0.13759005 -0.06688023 0.10060438 -0.015895288 -0.08035581 -0.13590688
0.040204983 0.08279935 0.11488597 0.048646115 -0.09766362 -0.018805036 -0.060276795 0.05709099
0.11073136 0.074425474 0.026077379 -0.030407155 -0.039936975 -0.0636192 -0.046278063 0.03425115

lstm.bias_ih_l1 f4 [256]
00000000: cbfd 9d3c c1d0 ec3d 8d2f c53d 121f 9cbd
00000010: 7f76 4c3d 52f6 803d 67d6 c13d d609 6abd
00000020: 57c7 ccbc aea9 82bd 41bf 013d 84e4 afbd
00000030: 1305 5a3d f337 bbbd 084f c43c 2a21 3a3c
00000040: e86f d03c ccbd b4bd b89e b73d ee9c de3d
00000050: 5f46 f63c e90e d63d 3eae b8bd 8c33 833c
00000060: 48a2 c43c da7e 023e b3ab 133d 6f6b e9bd
00000070: f009 6e3d 7601 d63c 144f f83c fb08 d83d
00000080: efb0 a23d 0fdc b73c a1cd 973d 6e0e 5e3c
00000090: 03cc 71bd 00af f73d 5aa3 983d aad2 d03d
000000a0: a944 73bd 251d d13b 8f06 44bd 05ca 67bc
000000b0: 88cc ef3d 9e27 653b a1c5 903d 53be f23d
000000c0: c354 3bbd 6c4c 153e c50c b3bd 1a0f 023e
000000d0: 74d3 c43c 840b adbd 066b 0f3d 9f12 283e
000000e0: 3e58 a13d 4457 2a3a df81 393d f90b 993d
000000f0: 4426 ddbd 8c6a aebd 9a12 d2bd 67e0 ed3d
00000100: ab69 c7bd 923e babc 0034 a03d 08db 87bd
00000110: bdb9 e33b 86c5 ed3d 67f5 823d 693c 583c
00000120: 11f9 a7bd b461 d0bd 778c e83b c2cd 0c3e
00000130: 337d c03c c804 883d 8ed9 17bc 7440 213b
00000140: df1d 083e 410e 453d 70ba 483d 444b 773d
00000150: 9d56 cc3d e7a0 d23d 420e b3bc 425c d0bb
00000160: fc29 943d 50df a93d 2ab2 073e 58ea 8cbd
00000170: 0ebe e83c 0434 a63d 3e35 903d 8a09 083e
00000180: 52ff a03a 3a0b c0bd 5679 b73c c8b6 00bd
00000190: ee6c fa3c a5be c3bd 3add f1bc 0ba4 983c
000001a0: 63fc 693c a13d 9bbd fa65 df3c c1e6 97bd
000001b0: 85cc c53d 58e5 afba 27bb 0b3e 2015 0ebd
000001c0: 6683 283d 0cf5 9d3d 3b59 b83d a739 20be
000001d0: 392f c63b 12ee 97bd be83 c3bd 7e99 6fbd
000001e0: d893 053e 025f d5bc e152 53bc b199 fb3b
000001f0: 1a0f 133d a837 84ba c9ab cabd 943d 5a3d
00000200: 1e49 ad3d 7240 f43d f031 123d 0418 d33d
00000210: 8073 193d 095f ca3d a12e 123e ac20 ecbd
00000220: 2632 e03d f47b a1bd 8551 babd 1a34 d0bc
00000230: c778 9d3d e6b7 abbd 5b68 633d f227 91bd
00000240: 3f37 ccbc 6583 243d cac6 543d 54d6 87bb
00000250: 5cd9 0bbe 23d8 5d3d 9c49 6abd f1f2 e83d
00000260: ce4f 133d d0cf 2cbd 7669 993c e895 cebd
00000270: 3411 353c eb40 77bc 9da6 0fbd b1b2 0ebe
00000280: 7ada 913d 0648 823d e785 a33d c7bf 3fbd
00000290: 9315 c2bd 2ece 8cbd 16cc b03c e619 0c3e
000002a0: c61e 9fbc c7ba b8bd c952 82bc f112 cc3d
000002b0: 0e7b eb3d c995 26bd 14e0 f43d d8b1 b3bd
000002c0: e0ec b6bd 0908 aabd 8ced afbd 4c86 4a3d
000002d0: 4d00 6d3d 7f4c d83a 1e48 b7bc d29e 643c
000002e0: 21f9 a83d 1920 49bd 8973 d0bc 31de 90bd
000002f0: 16a8 173d da1d 21bc 7168 d7bc 4ce7 433a
00000300: 545a f2bd f3cb 68bd 0381 82bc d104 35bd
00000310: 1c7c debd 6af6 8a3d a3db 92bd 8c85 c6bd
00000320: bd55 803d 61a6 63bd 49e6 ce3d c6a7 e13c
00000330: 02cf 09be 9424 153e 3bba edbd da14 e1bd
00000340: 4b4b debd 8976 083d 9256 b9bd 8eac a5bc
00000350: 2491 083e 0879 9fbc 1610 e63d c1c9 a9bd
00000360: 607e 893d 72b8 29bd e7f5 abbd 6d41 4b3d
00000370: de33 49bd 6d67 a8bd e3ad bc3d 9626 8bbd
00000380: 2a2a a4bd 481d 3ebd 55df 873d a3f9 823d
00000390: 59fe b0bd 8e90 ebbd e329 c1bd b311 553d
000003a0: 7124 25bd dea6 b4bb a5d0 ce3d 1409 a3bd
000003b0: a22d ab3b 4169 32bd 02ef 8a3c 217f 1f3e
000003c0: 7c19 4ebd d9fe 163e c94a cd3d d5ac 033e
000003d0: eead 223d c76d 0f3e f3a4 fe3d f17a 87bd
000003e0: ae4d d4bc bebb 7bbc 9b4c b23d 5393 b9bc
000003f0: 2337 333d 1a9a f63d 3682 053e 9de5 963c
0.019286057 0.11563254 0.0962821 -0.07623114 0.049917694 0.06296982 0.09464722 -0.057138287
-0.024997396 -0.0638002 0.031676535 -0.08588508 0.053227495 -0.09141531 0.023963466 0.011360446
0.025443986 -0.088252634 0.0896582 0.10869776 0.030062852 0.10452063 -0.09017609 0.01601579
0.024003163 0.12743703 0.036052417 -0.113974445 0.058114946 0.026123744 0.030311145 0.10548588
0.07943904 0.0224438 0.074122675 0.013553245 -0.05903245 0.120939255 0.07453032 0.10196431
-0.05939165 0.006381648 -0.047857817 -0.014147286 0.11708933 0.003496624 0.07068945 0.11852708
-0.045735132 0.14579934 -0.0874267 0.12701073 0.02402661 -0.08449462 0.035014175 0.16413353
0.07878159 0.0006497989 0.04528987 0.07472987 -0.10798314 -0.08516416 -0.10257454 0.11615067
-0.097369514 -0.022734914 0.07822418 -0.06633574 0.006949632 0.1160994 0.06394463 0.013197997
-0.082018025 -0.101748854 0.007096823 0.13750365 0.0234972 0.06641537 -0.009268178 0.0024605067
0.13292645 0.048109297 0.049005926 0.060374513 0.09977458 0.10284596 -0.021857385 -0.0063586542
0.072345704 0.082945466 0.13251558 -0.06880635 0.028410938 0.0811539 0.07041405 0.13284889
0.0012283123 -0.09377141 0.022396725 -0.031424314 0.03056952 -0.09557847 -0.029524434 0.01863291
0.014281365 -0.07580114 0.027270306 -0.0741706 0.0965815 -0.001341979 0.13645612 -0.034688115
0.041140936 0.077127546 0.09001394 -0.15646993 0.00604811 -0.07418455 -0.09546612 -0.05849599
0.13044679 -0.02604628 -0.012898178 0.0076782336 0.035903074 -0.0010087388 -0.09896047 0.05328138
0.084612116 0.119263545 0.035692155 0.10307315 0.037463665 0.09881408 0.142756 -0.11529669
0.10947065 -0.0788497 -0.0909758 -0.025415469 0.07689052 -0.08384685 0.055519443 -0.07087697
-0.024928687 0.04016437 0.051947393 -0.004145423 -0.13657135 0.054161202 -0.057199106 0.113744624
0.03596478 -0.042190373 0.018727046 -0.10087186 0.011051465 -0.015091161 -0.035071004 -0.13935353
0.07121749 0.06361394 0.07984524 -0.046813753 -0.09476771 -0.06875263 0.02158169 0.13681754
-0.019423854 -0.0902 -0.015908616 0.0996455 0.1149808 -0.04067019 0.11956802 -0.087741554
-0.08931899 -0.08302314 -0.0859023 0.04944448 0.057861615 0.001650229 -0.022373255 0.013953881
0.082506426 -0.049102876 -0.025445716 -0.0707363 0.037025534 -0.009833777 -0.026294919 0.00074731256
-0.11833635 -0.056835126 -0.015930658 -0.044194046 -0.10863516 0.06785281 -0.07170799 -0.09693441
0.06266353 -0.055578593 0.10102517 0.02754582 -0.13457873 0.14564735 -0.11607786 -0.10990305
-0.10854205 0.03331617 -0.09049715 -0.020223882 0.13336617 -0.019466892 0.11233537 -0.08290435
0.06713557 -0.041435666 -0.083965115 0.04962294 -0.04912173 -0.08222852 0.09212854 -0.06794469
-0.08015855 -0.046414644 0.06634394 0.06395271 -0.08642263 -0.11502181 -0.094318174 0.052018832
-0.040317956 -0.005513056 0.100983895 -0.07960716 0.0052239457 -0.04355741 0.01695967 0.1557584
-0.050317273 0.14745654 0.1002403 0.12858899 0.039716654 0.1400672 0.12433805 -0.06615246
-0.025915947 -0.015364585 0.087060176 -0.022653257 0.043753754 0.12041111 0.13037953 0.018420035

lstm.bias_hh_l1 f4 [256]
00000000: eb79 9c3c ae97 c13a efc5 953d 1256 f5bc
00000010: f743 c13d b2c6 d83c 91bc b0bd 6f9a fe3d
00000020: 2b68 ecbc 3e65 d43d a746 84b8 d072 053e
00000030: 03d7 a03d ef01 c63d 1714 2ebc 32a5 cbbb
00000040: 0f0f c2bc 36bb de38 271a 1a3e 275d e73c
00000050: 509f f33d d5aa abbd eadc a93d b68c a1bd
00000060: 89e9 b13d c7be cfbd b4de 8ebc d154 cebd
00000070: e4c2 00bd 7207 0b3e 21c1 68bc 29d9 d53d
00000080: 51ee c4bc e1c9 7bbb 5f21 c1bd b0ed 353c
00000090: be7d 143e 61a6 d9bc ca0f 4b39 9022 c0bd
000000a0: 6686 c2bd 3d4b ff3d b69d cf3d cbe7 94bd
000000b0: e046 e03d 9824 12bc f95e 883d 4e45 733d
000000c0: de14 813d 7843 71bd 3d5b 06bd e3ab 97bd
000000d0: dbe1 2f3e b6c0 a33d 8c48 9c3d 99d2 e73d
000000e0: b5a7 3abd 7299 063e 60a3 c13d a1e5 a43d
000000f0: 6077 fd3d e629 473d dc9f 43bd c3a5 ac3d
00000100: 0212 d5bc f343 59bd 9d52 2f3c 02d1 b9bc
00000110: 4981 ebbd 4676 44bd 67f1 e63d b47c 193b
00000120: 5a71 243d 6af8 ecbd abba 2f3c db43 4d3d
00000130: fedd e53d 314a ab3c 5b9b 61bb 64b1 fabd
00000140: 0139 47bd 6b7a 9fbd 4d9d c63d 7e1d bc3d
00000150: 5ffa 083e 5bd6 17bd 0e18 f73d 1852 393d
00000160: fe41 293d 4241 ad3d 4617 923d 3cd2 a93d
00000170: feb6 363d e22c 22bd 035f 7d3d ab64 d43c
00000180: d0e6 aa3c 54de c83d c013 bf3d 6deb a3bc
00000190: 1f9c 043e 9d0e 9d3d 52bf 49bd eac6 633d
000001a0: 60fd 28bd fc64 b4bc 991f d6bd 2974 063e
000001b0: 3d06 c9bd a2d4 023d 8590 25bd b7ac f73c
000001c0: 1cf2 2bbe f6b6 c4bd fdd6 eb3d dec5 20bd
000001d0: 2263 183e 6bcf 77bd 7f6b d3bc 46e1 223e
000001e0: 9c77 a4bc 470c 1cbd 2137 1a3e 4a7a 96bd
000001f0: 9ffe 353d fe51 e5bd e5f6 a83c 821c 83bb
00000200: 4c7e cabd c521 103e a25d c8bd 6348 0abd
00000210: 52b5 c33d 39b4 a6bd 5e95 803c 1c8d b23d
00000220: d36e 92bd b617 2abd 7528 d4bc 5c58 05be
00000230: eba1 cc3d 1188 b9bc eff0 09be 126d 21bc
00000240: 2130 1cbd 9fe0 a63d 6e1a ff3d 51e6 813d
00000250: cdbd 24bd 41af bd3d ff4e 013e a076 9c3d
00000260: ffa9 0abe c027 75bd f971 90bd 5979 6e3d
00000270: d2f3 7b3d 35f3 823d 1593 23bb 0a92 8ebd
00000280: 3401 c03d a9d2 bd3d 5b8e 083e d9cf babd
00000290: 36ad 0f3e bf33 45bd 9d3f bf3d 6df9 4bbd
000002a0: 2119 16be e8c0 693d a263 e1bc fcba 873d
000002b0: 5fbd dbbb ead1 073b da56 89bc edab cabd
000002c0: 04ab b93d 81eb aabd 8ad8 c6bc e21a c3bc
000002d0: 7247 24be 5cdb 213d ebec 173e 5bdf 50bd
000002e0: 8511 15be 5144 0b3d 8199 d3bd fb95 6cbd
000002f0: 78c9 cdbd 5db0 aa3c 5762 acbc 7e62 96bd
00000300: bc94 d9bd b230 24bc 00d6 e13d bcdd adbc
00000310: 7e0c eabc d682 57bc d930 87bd 961f 65bd
00000320: 837d d9bd 9b26 c5bd a68e 013e 2336 87bd
00000330: 6627 60bd c2ab 803d 9801 1fbd 7894 833d
00000340: 0d4d df3d f5b8 b4bc 515b 0e3e acc2 28bd
00000350: 48bc f73c 1698 8ebc d9a1 353d 7b6d 68bd
00000360: 4343 fc3d 4ebc e63c 0d86 b9bd 310f d23d
00000370: 4a6a 50bd 5338 9d3d feba 653c dc8d 7bbb
00000380: 5a49 4fbd 5379 a0bd 21f6 133d 6b5e 543d
00000390: 45b0 0c3e 7054 423d fc91 88bd 259e 313d
000003a0: 87e3 f73d e22e 9f3d 06cc fc3d 17ee f2bc
000003b0: 1b2d da3d 8382 693d d983 dd3c cf61 41bd
000003c0: 3a9e abbc b504 933d a1d0 eabd 4765 ac3d
000003d0: 9c88 52bd 0c01 b93c 027f 5cbd 8cd9 053e
000003e0: d1ba 2fbb 9a24 a73d ff3a 523d 9d38 1d3d
000003f0: dbab b5bb 1eb9 fd3d 6556 19bd 3724 8a3d
0.019101104 0.0014769936 0.073131435 -0.029948268 0.094367914 0.026461933 -0.08629716 0.124317996
-0.028858265 0.10370873 -6.3074105e-05 0.13032079 0.0785351 0.096683376 -0.010624907 -0.006214761
-0.023688821 0.00010620656 0.15049039 0.02824266 0.11895621 -0.08382193 0.08294089 -0.078881666
0.086871214 -0.1014381 -0.017440178 -0.10074771 -0.031435862 0.13577059 -0.014206202 0.10441811
-0.02403942 -0.003841989 -0.09430193 0.011104032 0.14501092 -0.026568593 0.0001936547 -0.09381592
-0.09498291 0.124655224 0.10137503 -0.072707735 0.10951018 -0.008919857 0.066587396 0.059392266
0.06302808 -0.058902234 -0.032801855 -0.07405832 0.17176001 0.07995741 0.07631025 0.11319465
-0.045570094 0.13144472 0.094549894 0.08051611 0.123762846 0.04862394 -0.047759876 0.08430054
-0.026009563 -0.053043317 0.010700849 -0.02268267 -0.114992686 -0.047964357 0.112765126 0.0023420276
0.040147163 -0.11570819 0.010725657 0.05011354 0.11223982 0.0209094 -0.0034424874 -0.12240866
-0.048638348 -0.07787021 0.096979715 0.09185313 0.13376759 -0.03706966 0.12065135 0.045244306
0.0413227 0.084597126 0.07133345 0.08292052 0.04460811 -0.039593585 0.06185819 0.025926908
0.020862013 0.09808031 0.09329939 -0.02000972 0.1295018 0.07668803 -0.049254723 0.05560962
-0.041257262 -0.02202081 -0.104552455 0.13130249 -0.09815643 0.031941064 -0.040421028 0.030233724
-0.16791576 -0.096052095 0.11515615 -0.0392512 0.14881566 -0.060500544 -0.025808094 0.15906247
-0.020076565 -0.038097646 0.15060093 -0.073475435 0.04443228 -0.111972794 0.020625541 -0.004001201
-0.098873705 0.14075382 -0.09783484 -0.03376044 0.095560685 -0.081398435 0.015696224 0.08718321
-0.07150044 -0.04152652 -0.025898198 -0.13021988 0.09991821 -0.02264789 -0.13470815 -0.009852665
-0.038131837 0.08148312 0.12456213 0.063427575 -0.04022007 0.09261943 0.12627791 0.076398134
-0.13541411 -0.05985236 -0.070529886 0.058221195 0.061511822 0.06394044 -0.0024959494 -0.069614485
0.093752295 0.09268696 0.13335554 -0.09121675 0.14030918 -0.048145052 0.09338305 -0.049798418
-0.14658023 0.057068735 -0.027513329 0.06627461 -0.0067059244 0.0020724484 -0.016765047 -0.098960735
0.09065822 -0.083457 -0.024273176 -0.02381653 -0.16042879 0.039515838 0.14836471 -0.05099426
-0.14557464 0.0340007 -0.10332013 -0.05776022 -0.10048193 0.02083605 -0.021042986 -0.07343005
-0.10624072 -0.0100213755 0.110271454 -0.021223895 -0.02857041 -0.013153752 -0.06601114 -0.055938326
-0.106196426 -0.09626504 0.12652072 -0.06602123 -0.054725073 0.0628276 -0.03881988 0.064248025
0.10903368 -0.02206085 0.13902022 -0.04120128 0.030241147 -0.017406505 0.044343803 -0.056745034
0.12317517 0.028165963 -0.09058771 0.10256804 -0.050882615 0.076767586 0.014021633 -0.0038384115
-0.050607063 -0.07835641 0.0361234 0.051847856 0.13739116 0.047443807 -0.06668469 0.04336371
0.12103944 0.07772614 0.12343602 -0.029654546 0.106531344 0.05700923 0.027040409 -0.04721242
-0.020949472 0.07178632 -0.11465574 0.084177546 -0.051399812 0.022583507 -0.05383206 0.13071269
-0.0026814232 0.08161278 0.051325794 0.03838407 -0.0055441684 0.12388824 -0.037435908 0.06745189
