models/lstm_gk_model.pt (torch, 245029 bytes, 9 tensors)

lstm.weight_ih_l0 f4 [256, 38]
00000000: 58d8 0d3e c507 d13d 3c94 143c 1c2a eb3d
00000010: 4611 38bd 5d09 1d3c f5ff 2abd 1f28 d03d
00000020: c6af 103e cc1b 55bd 20da e63d e586 e83b
00000030: 69fb fd3d 4a3d da3c 3199 8f3d 25b8 793c
00000040: e69e 043e 385b 973c 4174 9bbd 8ae6 843c
00000050: 91a0 1dbd ec52 5e3c f6a2 27bd 0381 ec3d
00000060: eddc 86bd d687 f8bc 6e18 9fbd fbe4 07bd
00000070: 4558 dd3c a59d d9bd 76ba d03d d567 a8bd
00000080: c474 f53d 6e82 163d fe38 a3ba 2bea 5b3d
00000090: 12fa 2c3a 617b a33d 268f 93bb 7ee0 63bd
000000a0: 2be7 073c 08d8 0abd 452e 5e3d aaac 0b3e
000000b0: 8c34 613d 0044 38bd 2759 3a3d f0bc 4ebb
000000c0: 4753 113d 6c02 46bd 89d9 1abe f744 d1bc
000000d0: 16c3 99bd 763c b43d f4f5 aa3c cc13 543d
000000e0: a2a0 283d 0555 b93c 94f7 a43d b01b a2bd
000000f0: 9bdb ea3c df18 ccbd e4b5 c13c 6691 8fbd
00000100: 476e 583c bd61 36bd f336 d83d a1fa 84bd
00000110: cc9b 85bd 1c87 95bd af7d eb3d f2ea 423d
00000120: a524 f03d 3b46 00be f886 11be 0fc9 f1bd
00000130: 421f 06be d7a5 583d 9dd2 ad3c 76b7 d43d
00000140: e62a 2fbd 8499 ecbd 53a8 b63d a1a8 f9bc
00000150: aea6 a23c d031 afbd 1376 623d 375e 25be
00000160: 8eb7 fdbd 3fdd b13d a7fb 9e3d a155 e6bc
00000170: bc3c 9c3d fa07 ae3d f705 8dbd 70c0 c6bd
00000180: 9b9e 0c3e c748 b5bc 09b4 e13b 2cb9 f0bd
00000190: daaa 8fbd 6cbf f1bc 8286 883c 3b09 e3bd
000001a0: 78ac 073d 1a27 97bd 1695 fabd 2fad 3cbd
000001b0: 5862 b1bd e26b 88bd 877c f23d 9707 973c
000001c0: 354c 153d a12e f6bd d24a 1cbd 5e0f 6bbd
000001d0: f8b5 3a3d 8642 e1bd bb69 74bd ac5e cfbd
000001e0: 423f ec3b 9ba2 36bd de7e 153d 0ce7 4cbd
000001f0: 0ea8 acbd eae4 c0bd 247a 5339 cf9a cbbd
00000200: f77d d13d 4f5c 77bc 89a2 f03d b087 1f3d
00000210: d5ae e4bd c619 763d 3986 e1bc 9b61 3cbd
00000220: 7fa7 d9bd 0a13 ecbd 3912 383d f343 133c
00000230: e5ca 523d a892 8ebd 1ce6 e93d 26a3 98bd
00000240: 8514 0abd cdef a33b 7818 5d3d a521 f43d
00000250: 8fae f53d ce8a eabd bc28 863c 1056 8dbd
00000260: 8259 10bd cd05 cdbd ba40 f13d 2ee4 bbbd
00000270: 1740 a73d 20cc 353d 5a46 163d 1498 86bd
00000280: ba55 de3d c8f2 cb3c 4b3c c83c 2e58 dcbd
00000290: daf5 433d 0c6c 85bc 7b62 69bd 5837 e73d
000002a0: 2f91 0c3d 86a3 8dbd 1048 46bd 6fb9 b4bb
000002b0: a5e3 863d c16b f6bc d17a 91bd 08a7 19bd
000002c0: e88b b2bd 60a4 263d d119 c13d a5f4 e4bd
000002d0: 1de0 073d 7d7d 853d 3cc6 083c c7ce d3bc
000002e0: 9fe8 893d fbc4 5d3d ca71 263c 64cf 0ebd
000002f0: a8a0 37bd fa32 8c3a 4461 723b bdc5 cbbb
00000300: 2e0a cd3d 9c01 dc3d 54f8 83bc d524 dbbc
00000310: 0211 ec3c 3c3d e43c 8130 5e3d cdfe 6d3d
00000320: d082 c3bd a0b2 2bbd 794a 043e d19a 0f3d
00000330: bea1 b3bc 90fc c2bd c2e3 c3bd fa50 e5bd
00000340: e830 36bd c1f7 313d 1c83 da3d 2a8a be3d
00000350: 7f3b 01be aff8 c1bd 5c08 1ebd 3c00 173e
00000360: 2ba1 1e3d 8184 92bb 86a8 153d 7399 3abd
00000370: 2a3b 81bd a142 fa3d 80c7 eabc f29d f0bc
00000380: b785 e7bd 1757 ec3d a938 013e 4611 9e3d
00000390: 6e1a 51bd 67e8 c0bd 9021 9dbd 36e6 be3d
000003a0: 22a6 3b3d 6b8d ab3d b531 bb3d c9b6 473d
000003b0: d8ed 973c c261 8bbd 849b f2bd 244c 08be
000003c0: 742b 923d 9bcc 31bd 3c67 0ebc 7366 4fbd
000003d0: 6490 ceba 862e b4bd 5f5b c4bd 5f2e a43c
000003e0: 9bfd 37bc fb1a c13d 90a0 c1bc acd2 90bd
000003f0: 1ef2 9aba 5969 1fbd 042f b2bc 1392 b7bd
0.1385206 0.1020656 0.009068545 0.11482641 -0.04493835 0.009584752 -0.041748006 0.101639025
0.14129552 -0.052028462 0.11272073 0.007096159 0.12401468 0.026640553 0.07011641 0.015241657
0.1295124 0.018476114 -0.07590533 0.01622321 -0.038483206 0.013569575 -0.040926896 0.115480445
-0.06585107 -0.03033821 -0.077683315 -0.033177357 0.02701963 -0.106257714 0.101918146 -0.082229294
0.11985162 0.03674548 -0.0012452898 0.053690117 0.00065985427 0.07982517 -0.0045031486 -0.055634014
0.008294861 -0.03389743 0.054243345 0.13640085 0.054981753 -0.044986725 0.04549518 -0.003154572
0.03547981 -0.048342153 -0.15122046 -0.02554558 -0.07507913 0.088005945 0.020869233 0.051776692
0.041168816 0.022623548 0.08055034 -0.07915437 0.02866917 -0.09965681 0.023646303 -0.070101544
0.013209886 -0.044526804 0.10557356 -0.06493116 -0.065238565 -0.07301161 0.114985816 0.047587343
0.117257394 -0.12526791 -0.14211643 -0.11805927 -0.13097861 0.052892532 0.021218592 0.10386555
-0.04276552 -0.11552718 0.08918824 -0.030475916 0.01985487 -0.08554423 0.055288386 -0.16149221
-0.12388526 0.086847775 0.077628426 -0.028117003 0.07628772 0.08497615 -0.06885903 -0.09704673
0.13732378 -0.02212943 0.006887917 -0.11754069 -0.07015009 -0.029510222 0.0166657 -0.11085745
0.033123463 -0.07380505 -0.12235467 -0.0460636 -0.08661336 -0.06661202 0.11840158 0.018436236
0.03644963 -0.120206125 -0.03815729 -0.057387702 0.045583695 -0.109990165 -0.059671145 -0.10125479
0.0072096894 -0.044588666 0.036497943 -0.05002503 -0.084304914 -0.09418662 0.00020168029 -0.09941637
0.10229104 -0.015097692 0.11749751 0.03894776 -0.11166159 0.060083173 -0.027529823 -0.04599152
-0.106276505 -0.11527069 0.044939253 0.008988368 0.051463027 -0.06961566 0.11420843 -0.07452993
-0.033710975 0.0050029517 0.053978413 0.1192048 0.11996185 -0.11452256 0.016376846 -0.06901181
-0.03524161 -0.10010872 0.11779924 -0.09174381 0.08166521 0.044384122 0.036688186 -0.06571975
0.10856195 0.02489604 0.024442812 -0.107590064 0.047841884 -0.016286872 -0.056978684 0.11289853
0.034318145 -0.06915955 -0.048408568 -0.0055152695 0.065863885 -0.030080678 -0.071035035 -0.03751281
-0.08718091 0.040684104 0.09428752 -0.11179475 0.033172715 0.065180756 0.008348044 -0.025855435
0.06733822 0.054142933 0.010158965 -0.03486575 -0.044830948 0.0010696345 0.0036984244 -0.0062186406
0.10011707 0.107424945 -0.016109623 -0.026750961 0.028816704 0.02786123 0.054245476 0.058104325
-0.09546435 -0.041918397 0.12919034 0.035059754 -0.02192771 -0.09520829 -0.09564926 -0.11197086
-0.044480234 0.043449167 0.106695384 0.093036965 -0.12620352 -0.09471261 -0.03858219 0.14746183
0.03872792 -0.004471362 0.03653767 -0.045556497 -0.06310113 0.1221974 -0.028659582 -0.02937219
-0.11304801 0.115400486 0.1261927 0.077181384 -0.051050596 -0.09419327 -0.07672417 0.09321253
0.045812733 0.08376583 0.0914034 0.048758302 0.01854603 -0.06805755 -0.118460685 -0.13310295
0.07137194 -0.043408018 -0.008691605 -0.050634813 -0.0015759584 -0.08797936 -0.0958774 0.020041643
-0.011229898 0.09428974 -0.023636132 -0.070714325 -0.0011821424 -0.038918827 -0.021750934 -0.08963408

lstm.weight_hh_l0 f4 [256, 64]
00000000: 2943 8ebc 709b a53d 8b5d ba3c b147 0cbe
00000010: 3205 e0bd 285c c1b9 e9df d7bd b825 7ebd
00000020: 614a 7c3d 1025 a83c 2d82 03bd 9462 1e3d
00000030: bf70 b73d 9500 3f3e 20b0 933d 2685 cfbd
00000040: bb61 e7bd b4e6 353d 6dc2 f33d 823b ddbd
00000050: 2be1 dd3d a72b debb 6003 6b3d fb63 0b3e
00000060: 2e0b 253d dd32 06be e48f abbd d863 673d
00000070: d1e2 623d 3b4d 50bd 57b8 0c3e 8c7b 343c
00000080: f609 babd fe5b 36bb c48f 4cbe 5515 8c3c
00000090: ffc3 f5bd 39fb 0c3e de27 22be e3b3 6f3d
000000a0: ea6e 86bd dc0c 023d 9405 ffbd e2bc 59bc
000000b0: 2792 af3d cf19 0dbe 6557 bfbd d2b1 afbc
000000c0: 2699 e23a 897c 10bd c622 b5bc 8aa3 cebc
000000d0: 4110 933d a303 76bc 43cb b7bd 07fe e53c
000000e0: f01a b4bd 998a 86bd 6af8 ba3d 8dfa 11bd
000000f0: 1aec 23be cd8f 0d3d 7f0d d5bc 7a2a 483d
00000100: b818 593d b028 0cbe 43fa 5fbd c81a 85bd
00000110: 6772 023e 7e5c 40bd 5b64 91bd 62c9 13bd
00000120: 3375 95bb cc32 5d3d 8846 d13d 0189 bc3d
00000130: 02ac 633c 94ff f13d d92e 843d eb87 823d
00000140: 7f7a bdbd 59cc 613c 6f62 fabc 018e fcbd
00000150: b38a 45bd 43e3 b13d d750 5e3d 6156 e13d
00000160: bcdc ba3d 15f0 963b 52f5 f13d e02d 1a3d
00000170: 1139 0ebc 5daf 60bd dc42 9c3d 061d 8b3d
00000180: e696 913d af02 a8bc 5608 dcbd b1ab d43c
00000190: 9b96 c4bb 3d71 bdbd 94db 033d 4dcf dfbb
000001a0: a669 c03d 6be6 943c fcbd 81bd b220 a93d
000001b0: d074 4dbc 3d3e a9bc 7963 9e3d 45e7 073e
000001c0: ced6 4c3d 1362 8a3c 215c a23d e4fa 1fbd
000001d0: 083d f13d e56c b2bd 769e 703c 04ca ed3d
000001e0: 30d1 ac3d de9d 21bd 2d2f c43d 25fd 983d
000001f0: 10ec f3bd 2a79 0bbc ac53 bdbd 2b45 59bd
00000200: e1fd 433c 89c6 21bd 7d1d fcbc dc59 c83d
00000210: fe1e d53c 4579 3ebe d6e6 a43d 4be4 e0bd
00000220: 0fba 5dbd 50f8 d83c 67a7 603d d988 8cbd
00000230: 0391 7cbd 8d05 373d c926 15be 0c0b 743c
00000240: 22f7 023e 89c8 cc3d ef0a e03c bc9c 7a3d
00000250: 8613 c2bd 0a80 13bd 7262 b93d c183 a33d
00000260: ee78 4dbb 71c8 963d 5dc8 91bd b2d6 ef3d
00000270: 4877 ffbd 768e e1bd 408c e23d 3341 80bc
00000280: bfed b7bd 8b9e 6d3d 5f67 c73d d726 a33d
00000290: 198c 7cbc d655 f73d 73c7 0b3e 7e52 aebd
000002a0: 4c40 8fbd 3e3f 383c d77a aebc f5e3 843d
000002b0: cc52 29bd 8454 d5bc e6b6 60bd 4328 cdbd
000002c0: 130f 963d 5388 33be 267a d5bb a0b5 31bd
000002d0: f613 a2bd ecf1 02bd e6b5 633b e120 923c
000002e0: f532 343c b444 91bc c534 7dbd 1459 053e
000002f0: 572e b63c dd58 8fbd c653 d93d a605 f9bd
00000300: 26fa 803d 1995 d53d d963 b5bd 1dee e63c
00000310: 7dd0 183d cd14 9fbd 1684 3e3d 6945 013e
00000320: c259 b03c b8ba 86bc 880e 59bd 9d69 91bd
00000330: 85e2 843d 1878 0dbe 80d9 e3bd 6289 d6bc
00000340: 3e27 06be 81b7 ba3d c04c 23bc 11a9 a2bd
00000350: 0184 6d3d 9925 913d 5fd6 833d ae36 5ebd
00000360: cbc0 25bc e41f bcbd 4fd8 05be 15c4 47bd
00000370: 1d65 c63c 3201 5bbd e9d5 c5bb 6822 4d3d
00000380: 861e 1c3d 9bd1 853d 6d3f a33d 1eec 073d
00000390: e136 6dbd 16d9 9f3d c23a 0dbe 911f 6b3d
000003a0: 9257 49bd ae6e 653d 6846 dabd 6bbd e7bc
000003b0: a133 5b3d fd64 a6bd d2fe aa3d 5288 f33a
000003c0: 5c1b e93d dfcb f33d 9297 bebd d2a1 ffbb
000003d0: bb18 01bb ba3b 8fbd 28c5 3e3d 1b34 b0bd
000003e0: e15c 8ebd 9161 f4bb 060e e6bd 17ab eabd
000003f0: 8c74 663d 8754 9fbd cd26 9f3d 8ef6 8bbd
-0.017366009 0.08086288 0.022749683 -0.13699223 -0.10938491 -0.0003688049 -0.10540754 -0.06204769
0.06159437 0.020525485 -0.032106567 0.03866823 0.089570515 0.18652566 0.072113276 -0.10132818
-0.112979375 0.04440947 0.11902318 -0.10802366 0.10833963 -0.006780106 0.057376266 0.13612358
0.040293865 -0.1310534 -0.08377054 0.056491703 0.05539209 -0.050854903 0.13742195 0.011015784
-0.09083931 -0.0027825828 -0.19976717 0.017100016 -0.12000274 0.13767709 -0.1583552 0.058521163
-0.06564124 0.031750545 -0.12452236 -0.013289662 0.08572798 -0.13779376 -0.09342841 -0.021447096
0.0017288073 -0.035275016 -0.022111308 -0.025224466 0.071808346 -0.0150155155 -0.08974316 0.028075231
-0.087942004 -0.06569404 0.091294125 -0.035639334 -0.16008034 0.034560967 -0.026007412 0.048868634
0.05300209 -0.13687396 -0.054682028 -0.06499249 0.12738954 -0.046963207 -0.070992194 -0.036080725
-0.0045610904 0.05400352 0.10218531 0.09205819 0.01389599 0.11816326 0.06454248 0.063735805
-0.0925188 0.01378163 -0.030564515 -0.123317726 -0.048227977 0.08685925 0.054276314 0.110028036
0.09124133 0.0046062567 0.11814369 0.037641406 -0.008680598 -0.05485474 0.0762994 0.06792645
0.0710886 -0.020509092 -0.107437775 0.025960775 -0.005999399 -0.09250114 0.032191828 -0.006830132
0.09395151 0.018176278 -0.06335065 0.08258189 -0.012540057 -0.02065956 0.07733817 0.13271816
0.05000954 0.016892469 0.079277284 -0.039057627 0.11779219 -0.08712176 0.0146862175 0.11610797
0.08438337 -0.039457195 0.095793106 0.074701585 -0.1191026 -0.0085127745 -0.09244475 -0.05304448
0.011962385 -0.03949598 -0.03077578 0.09782764 0.026015755 -0.18600948 0.08051841 -0.109810434
-0.054132517 0.026485592 0.054847147 -0.06862039 -0.06166173 0.044683028 -0.14565577 0.014895212
0.12789586 0.099991865 0.027348964 0.06118463 -0.0947638 -0.03601078 0.0905198 0.079841144
-0.0031352597 0.0736245 -0.071182944 0.11710872 -0.12473923 -0.110135004 0.11061907 -0.01565609
-0.08980893 0.058012526 0.09736513 0.079663925 -0.015414261 0.12076919 0.13650303 -0.08511828
-0.069946855 0.011245547 -0.021298809 0.06488792 -0.041338727 -0.026041277 -0.054861926 -0.10017445
0.07327094 -0.17532472 -0.0065148054 -0.0433861 -0.079139635 -0.031968996 0.003474587 0.017837944
0.010998477 -0.017732956 -0.061817903 0.13022262 0.022238893 -0.06999371 0.10611682 -0.121592805
0.06297712 0.10428829 -0.08856935 0.028189713 0.037308205 -0.07767639 0.046512686 0.12624134
0.021527175 -0.016446456 -0.052992374 -0.07100222 0.06488518 -0.13815343 -0.11125469 -0.026188556
-0.13100907 0.09117032 -0.009967029 -0.07942403 0.057987217 0.07087249 0.064373724 -0.054251365
-0.010116766 -0.0918577 -0.13070796 -0.048770983 0.024218136 -0.053467937 -0.006037463 0.05008164
0.038115047 0.0653412 0.07971082 0.033184163 -0.057913665 0.07805078 -0.13791946 0.05740315
-0.04915578 0.056013756 -0.1065796 -0.028288564 0.053516034 -0.08124731 0.08349384 0.0018580055
0.113821715 0.1190412 -0.093062535 -0.007801273 -0.0019698578 -0.06993814 0.04657474 -0.08603688
-0.06951309 -0.00745792 -0.112331435 -0.11458414 0.05626349 -0.07779794 0.077710725 -0.06834136

lstm.bias_ih_l0 f4 [256]
00000000: ec03 78bc 119a cdbb a17e 4abc 8861 e2bd
00000010: 3b95 96bd 969c b13d dae0 7a3d 78c5 2c3e
00000020: 70f5 0e3e a9e3 9ebb 0ce0 c73d 4995 0c3d
00000030: 8d9d bf3d be0f 6bbd 1c6f 9cbb 0e10 a63d
00000040: bb9e 493d 3956 3d3d e015 f93d f920 113e
00000050: 6f32 bcbd c3af 8a3c 502e 033d b7da 743d
00000060: e1c9 cabd ac33 9f3d 75ce 603d 4f07 d53d
00000070: a3a2 8cbc 9d58 393d e157 bb3d f30e 0a3e
00000080: e6e8 66bc ea9c a13d db56 9bbc bae0 cc3d
00000090: c7bd 91bc 7449 9c3d 86b0 a9bd 175e 953d
000000a0: 223e 89bd 9841 09bd 7875 15bc b3f6 bebc
000000b0: e4a4 d03d 6f2a e23d 8c67 733d 6894 97bd
000000c0: 20d0 043e 3285 193e b2a3 ad38 49f8 65bd
000000d0: e86d e43d 3085 003e 1abc b33d 0693 d2bd
000000e0: fb18 c5bd a32d e53d dea1 a0bd c192 9c3d
000000f0: cee2 d33d b7a9 91bb 17d3 eebd 8037 eabd
00000100: 2644 023e 9093 8f3c 267c a73d d670 2fbd
00000110: c9ec 9dbd 4e89 853d 30a9 b8bd 89a7 9f3d
00000120: cd14 2bbb 1541 b63d 1cdd 4ebd dfaa 0b3c
00000130: 6bbb a0bd 65c2 c23d 2c8d 37bc 9989 50bd
00000140: fe42 09be 2508 c03d b145 da3d d491 16bd
00000150: cd5a 8bbc 42f5 acbc e246 48bd 4276 e3bd
00000160: bb1c 04bd c544 b73d 7cd2 aabd 5fd6 123e
00000170: f7c1 edbc db60 83bd 69f2 78bd c66a 163e
00000180: 64c1 eb3b e477 af3d c59f 643d 3b1a e33d
00000190: 7c9c d4bd cf44 583d 754e d13d 2dd9 28bd
000001a0: adb1 9bbd f2ca 393c edee 8a3c 7bc0 18bd
000001b0: 4149 c6bd 6f23 fe3c 9cf0 95bc 0c0b a8bd
000001c0: 5646 0dbd b5e7 b83c cc23 d73d 46eb 633d
000001d0: 0ed0 fb3d 664b fb3c 9e87 953d c3ed bbbd
000001e0: d7e1 593d 8c52 55bd 7a19 893d cf16 513d
000001f0: 7d76 9c3c 1db9 b4bc fdae 623d 85c1 ab3c
00000200: 4791 8d3d c2c4 9a3b f35e d2bd f746 8dbd
00000210: aecd e2bd 02a4 9bbd 5f8f abbc 8584 003c
00000220: 5130 f13d ff41 0d3d 1ee8 953c 2e4e b13d
00000230: faec 0c3e d348 043e 5138 17bc 805a 963d
00000240: c02b b6bd 4301 c83d 59f8 b63d 5af7 20be
00000250: 1a6b a7bd 77b6 8d3c 61ee 9f3d f9fa b23d
00000260: e0d9 c3bd 7d6d 083e f1bd 7b3c 9a54 dd3b
00000270: 28da 2dbd e7cf 473d 1735 193d 228b 343d
00000280: 2de2 0fbe 61ee 2a3c e82d 08be 01d3 24be
00000290: c628 833c c8f1 5c3b fb8c d3bd aa62 ffbd
000002a0: 4b68 153e c6ad 163e 03b9 02be cf79 c9bd
000002b0: 84ba b83d ca1d 153c 966b 4e3b 655f c0bc
000002c0: 6965 d33c 0369 1bbe 98ee 17be dd4d ab3d
000002d0: 4561 fb3c 52ee 453d 1163 94bd e210 b5bd
000002e0: 2209 e2bc fdc2 d0bd 943f d0bd 3185 a63d
000002f0: 419a bbbd 8060 1fbe 2f2e 89bb 8aad 823d
00000300: 8240 013d 236d f1bd 3dd6 d03d 29be 52bd
00000310: e35d b53d e72d 88bd 4e13 1c3e a9d3 ab3c
00000320: cd38 1a3e 1546 7a3d 4d43 f83d 38cf 8f3d
00000330: 0e6a 31bd 2b3a 583d 85e8 0c3e 3fae cabc
00000340: 95a0 8f3d 3410 a53c b748 b83d d2ca 4abd
00000350: 61ba b4bd ae56 863d 5caf 523b 3443 3dbd
00000360: 7095 873c 6960 f13d 7b3e a5bd e6a0 bb3c
00000370: 2770 02bd f28e 643c 7840 f6bc c769 103e
00000380: b3a3 bf3d 063f 363d 5045 133a 2dac df3d
00000390: 3c53 53bd 8bbc 7dbd dcfb 81bd 7287 7bbb
000003a0: 5250 7ebd 1a2e e63d 34d3 ac3c 8b12 1abc
000003b0: 5117 98bd e863 063e a422 cf3d 2b07 a4bd
000003c0: 8619 103e 4d77 ac3c e7b3 f1bb a10d 843d
000003d0: 7c02 aabd eddb cabd b63b 053d dd3d f13d
000003e0: f02c e23d f2b1 0b3e 3b6f dc3d 4f75 693d
000003f0: ef9e 493d 8a46 1cbd 15a9 da3d 8b0b b33d
-0.015137654 -0.0062744697 -0.012359292 -0.11053759 -0.07352682 0.086724445 0.06124959 0.16872203
0.13960814 -0.0048489165 0.097595304 0.034322057 0.09356222 -0.05738806 -0.0047739875 0.08108531
0.049223643 0.046224806 0.121623755 0.14172734 -0.09189307 0.016929513 0.03202659 0.059778895
-0.099017866 0.077735275 0.054884393 0.10401785 -0.017167395 0.045250524 0.09147621 0.13482265
-0.014093613 0.07891257 -0.018962314 0.10003801 -0.017790688 0.076311976 -0.08285622 0.07293337
-0.06701304 -0.03350982 -0.009122245 -0.023310995 0.101877004 0.1104325 0.059424922 -0.07401353
0.12970018 0.14992216 8.2797735e-05 -0.056144986 0.111537755 0.12550807 0.08776112 -0.10281949
-0.09623905 0.11190345 -0.07843374 0.076451786 0.10345994 -0.0044452804 -0.11661356 -0.11436367
0.12721309 0.017526418 0.08177976 -0.042832218 -0.07711179 0.065203294 -0.09016645 0.07795627
-0.0026104928 0.08899132 -0.050503835 0.008524626 -0.07848247 0.09509734 -0.011203092 -0.050912473
-0.13404462 0.093765534 0.10657824 -0.036760166 -0.01701107 -0.021113042 -0.048895724 -0.1110654
-0.032253962 0.089486636 -0.08340928 0.14339589 -0.029023154 -0.06414958 -0.060778055 0.14689168
0.007194685 0.08567789 0.05581643 0.110889874 -0.103814095 0.052799996 0.102200426 -0.04122274
-0.07602248 0.01133989 0.016959632 -0.03729294 -0.09681941 0.031022755 -0.018303208 -0.08205232
-0.034490906 0.022571424 0.105048746 0.055644296 0.12295543 0.030675601 0.073012576 -0.09176209
0.053193893 -0.052080676 0.066943124 0.051047143 0.019099468 -0.022060925 0.055342663 0.0209663
0.06912475 0.0047231624 -0.102720164 -0.06898301 -0.110743865 -0.075996414 -0.020942388 0.007844095
0.11776794 0.034486767 0.018299159 0.0865749 0.13762274 0.12918405 -0.0092297355 0.0734148
-0.088950634 0.09765866 0.08934087 -0.15719357 -0.08174725 0.01729892 0.07809139 0.087392755
-0.09563041 0.13323016 0.01536511 0.00675447 -0.04244438 0.048782256 0.037404146 0.044078
-0.14051123 0.0104328105 -0.13298762 -0.16096117 0.016010653 0.0033713449 -0.10329624 -0.124699906
0.14590566 0.14714727 -0.12765889 -0.09837686 0.0901995 0.009101341 0.0031497232 -0.023482988
0.025805192 -0.15176778 -0.1483711 0.083644606 0.03068603 0.048322983 -0.07245458 -0.08841111
-0.027592245 -0.10193441 -0.101683766 0.08130873 -0.09160281 -0.15564156 -0.0041864137 0.06380756
0.03155566 -0.11788394 0.10197113 -0.051450882 0.08855798 -0.0664938 0.15241739 0.02097495
0.1506073 0.06110199 0.121222116 0.07021946 -0.043314032 0.05278985 0.13760574 -0.02474129
0.070130505 0.020149328 0.08998244 -0.04950983 -0.088246115 0.065595016 0.003214798 -0.046206668
0.01655075 0.11785967 -0.08068558 0.02290387 -0.031845238 0.013950096 -0.030060038 0.14102851
0.09357395 0.044493698 0.00056179333 0.10921512 -0.05159305 -0.061947387 -0.063468665 -0.0038380292
-0.06208832 0.11239262 0.021096803 -0.009403835 -0.07426322 0.13124049 0.10114029 -0.0800918
0.14072236 0.02105298 -0.0073761824 0.06447912 -0.08301255 -0.09905229 0.032527648 0.117793776
0.110437274 0.136421 0.10763403 0.05699664 0.049223837 -0.03815321 0.10676781 0.08742436

lstm.bias_hh_l0 f4 [256]
00000000: 5a54 90bd fe16 0cbe deb2 6a3b 1364 86bd
00000010: 616b ddbc ceef ed3d fc78 743c de22 2a3e
00000020: 2f93 c93c b562 993c bba7 b03c 9b58 8b3c
00000030: dd28 2f3c dd0d 99bc b95e 54bd 889c b03d
00000040: 541e 643d a2f7 003d 286c 1b3d a579 37bc
00000050: 3d19 00be 68ab c23d 0a78 763d c247 d6bd
00000060: cfbf d43d 7a14 c2bb 37be b2bd 7d70 41bd
00000070: 2b5a 55bc 1efd 91bd 7ddc 3f3d cc6c 31bd
00000080: bd08 38bd 7008 f43d 35f1 89bc 8046 113d
00000090: db0f 4cbd f7c5 1d3d 85f1 7ebd 759b 14bd
000000a0: 6b09 76bd 8d87 3bbc 4d25 893d f0b2 953d
000000b0: 90c8 a23d 6672 3cbd 6ca9 d9bd 939a ccbc
000000c0: 8bb7 1d3e 0581 163d 307c 083e d333 e53d
000000d0: e43f c33d d9b3 19ba ac01 823d 218d 7ebd
000000e0: 9a6f 093c 0997 923d 81db 37bd 4657 82bd
000000f0: 598c 05bd c835 0e3d 3e1a afbc e952 313d
00000100: 79d1 1cbd 2e74 b23d 2b07 1cbd 6cb0 c83d
00000110: 7fa4 ac3d cf20 e53d ab90 86bd 0ed5 59bd
00000120: 1642 4fbd f69a 8ebd a2c3 39bc a6ea a43c
00000130: 9c78 783d 687f 0a3e ffbd 763d ca73 d8bb
00000140: 11c7 67bd 0a38 47bd 87ba c83d 0962 94bd
00000150: ceb2 2cbc 1f53 cebd 9d0b 79bc c850 ecbd
00000160: ed8f 0cbe 05d9 953d cf42 84bd 7559 403d
00000170: 28b1 cc3d b688 db3a dda7 683d 22f2 ecbc
00000180: 58af de3d d736 093e ceab 2abb 12ef b7bd
00000190: 5af9 ad3d dd7f cd3d 8097 d33d 99f6 123b
000001a0: 52b1 183d 2704 823d b52c 3f3d 93d5 d7bb
000001b0: 4a1d 173d 5f99 cb3d 2249 95bd 9e51 d6bd
000001c0: a364 b6bd 2d36 dd3c 4291 bf3d eacd a43c
000001d0: 847a 033e 85c1 603d a585 b93d 07bf e2bd
000001e0: 2cc2 963d a2c7 aa3d 5b69 cb3a 20c0 833d
000001f0: 4560 aebd c733 0d3e 3123 66bc fa0f 1dbe
00000200: 6907 a13d 4fdf 6d3d 6f80 9a3d 5149 e33d
00000210: 6a3b 0b3d d630 213d 12ea 223e e195 b23d
00000220: 6dc8 983d 27c1 14bc 7f5e 04be 6a24 9b3d
00000230: c6b9 61bd d3d4 003d ce73 1bbe 4b99 1dbe
00000240: 69b8 09bd e723 bfbd f7f0 a23d c5fb 01bc
00000250: 46ed 21bc 6884 1b3e 9507 a43d ef78 703d
00000260: 8c3f 82bd 5da5 b0bd 7f28 a4bc 29f3 ef3d
00000270: be92 f2bd 03f8 f5bd 7e0f 7cbc 9138 a03d
00000280: b3a0 0f3d d115 2f3d 4d4b 4ebd 6104 aebd
00000290: a418 f5bc 08ad e83d 9bf3 adbd 8db7 0bbe
000002a0: 5267 593c 9571 153d f51e ab3c 03bf 413c
000002b0: 7d58 0a3e 141c 1ebc 217a 603d d060 92bd
000002c0: b35b fbbd 0f23 d0bd 857c 973d ca8a 46bd
000002d0: 77c4 9cbd e580 803c d4eb f0bd b395 163c
000002e0: 6032 82bd 07b5 8e3d d231 cf3d 79ad b33d
000002f0: 7a50 5d3d 5db4 0e3d 7de6 043c 6f70 613b
00000300: d782 273d b82a 69bd 33c0 483d 6ef4 9abd
00000310: 7db2 e7bd 4225 ad3c 0379 cdbc 5ef4 4ebb
00000320: 5f58 bc3d 533a 12bd b79c 133e 0f7b a0bc
00000330: 113b afbd 12c0 a53d 7af9 4a3d a531 df3d
00000340: 9b45 8a3d b72c 0abd 0c45 efbd 0b47 f03d
00000350: 2261 26bd 52f9 073e a3ac c8bc 8bbe c33d
00000360: c7b9 8b3c 5bc1 68bc 832e dabc 7c1f 193e
00000370: 2e27 f93d c897 c3bd 8a7d c9bc 46e3 43bc
00000380: bbdb 693d eaae 95bd 3d0d 3bbd 08f0 413d
00000390: 0a5d a83c c615 04bd b722 b33d 5c35 143e
000003a0: 778a d6bc a9b9 203e 0f06 823d 10ef 5d3d
000003b0: 376b 04bd bb3f 053e ae48 983d b7ac e9bd
000003c0: 66a3 943d 0efa 50bd 2b4c c2bc 8a60 46bd
000003d0: ce83 803c d312 9ebc 2ae8 523c fb51 fd3d
000003e0: 0094 153d 1f6c 81bd 9734 90bc 3b00 9dbd
000003f0: c8f1 cabc 60de dd3d c659 303d 4c79 5abd
-0.07047339 -0.13680646 0.003581218 -0.065620564 -0.027028741 0.11618005 0.014921423 0.16614863
0.024606315 0.018723825 0.021564355 0.017010024 0.010690895 -0.018683368 -0.051848147 0.08623606
0.055692986 0.03148616 0.037944943 -0.011198436 -0.12509628 0.095053494 0.060173072 -0.104629055
0.10388147 -0.005922851 -0.08727687 -0.047226418 -0.013021986 -0.071283564 0.046841133 -0.043316647
-0.04493021 0.11915672 -0.01683865 0.035467625 -0.04981981 0.038518872 -0.06224205 -0.036281068
-0.060067575 -0.011445892 0.06696568 0.0730952 0.079484105 -0.046007536 -0.10628018 -0.02497605
0.15402047 0.036744136 0.13328624 0.11191525 0.095336705 -0.0005863286 0.06347975 -0.06214631
0.008388424 0.07157714 -0.04488707 -0.06364302 -0.03260455 0.03471926 -0.021374818 0.04329196
-0.038285706 0.08713566 -0.038092773 0.09799275 0.08429813 0.11187898 -0.06570562 -0.0531817
-0.050600134 -0.0696315 -0.011338146 0.02013142 0.060661897 0.13525164 0.06023979 -0.0066056
-0.05658633 -0.048637427 0.09801202 -0.07245261 -0.010540677 -0.10074448 -0.015200523 -0.11538845
-0.13726778 0.07316784 -0.06458055 0.046960313 0.099947274 0.0016749117 0.056800712 -0.028924052
0.10873288 0.13399826 -0.0026042345 -0.08981146 0.08494826 0.100341536 0.10331631 0.0022424816
0.03727848 0.06348448 0.046673495 -0.0065867393 0.036893167 0.099413626 -0.072893396 -0.10464786
-0.08905914 0.027003372 0.093538776 0.020117719 0.12839705 0.054872055 0.09058694 -0.11071592
0.07361254 0.08338858 0.0015519069 0.06433129 -0.08514456 0.13789283 -0.014046476 -0.15338126
0.078627415 0.05807429 0.07544028 0.11097968 0.03399221 0.039353214 0.15909603 0.087199934
0.07460103 -0.009079254 -0.12926672 0.07575305 -0.055108808 0.031452965 -0.15180895 -0.15390508
-0.033623133 -0.0933302 0.07956117 -0.007933562 -0.009883231 0.15187228 0.08009259 0.05870908
-0.06359777 -0.086252905 -0.020038841 0.11716301 -0.11844395 -0.12010195 -0.015384553 0.07823289
0.035065364 0.042745415 -0.05036478 -0.08496929 -0.029918976 0.11361128 -0.0849373 -0.13644238
0.013269262 0.036485273 0.020888785 0.011825326 0.13510318 -0.009650249 0.05480397 -0.07147372
-0.122733496 -0.10162937 0.07396797 -0.048472203 -0.0765466 0.015686462 -0.11763731 0.0091909645
-0.063572645 0.06968122 0.10116924 0.08773322 0.054031827 0.034839977 0.008111593 0.003439929
0.040896263 -0.056925505 0.04901142 -0.075661525 -0.11313341 0.02113593 -0.025082117 -0.003157876
0.09196543 -0.035700154 0.1441525 -0.019589929 -0.08556188 0.08093275 0.049554326 0.10898141
0.067515574 -0.03373405 -0.116830915 0.117323 -0.040619977 0.13278702 -0.024496382 0.095578276
0.017056359 -0.014206256 -0.026633507 0.14953417 0.12165676 -0.09550434 -0.024595995 -0.011956042
0.057094317 -0.07308753 -0.045666922 0.047348052 0.020552177 -0.032247327 0.08746856 0.1447348
-0.026189072 0.15695824 0.06348812 0.054183066 -0.03232881 0.13012592 0.074357376 -0.11409896
0.07257728 -0.05101972 -0.02371796 -0.04843191 0.01568785 -0.019296085 0.012872735 0.12369152
0.036518097 -0.063194506 -0.017603202 -0.076660596 -0.024773493 0.1083343 0.043054365 -0.053338334

lstm.weight_ih_l1 f4 [256, 64]
00000000: d388 c03d 7f20 e93c 3ae7 ed3d 876c 44bd
00000010: 1a9f c7bd 32b7 9cbd cd1a b43c 7d8b 213e
00000020: 3008 693d 8350 67bd 3204 463d 8b91 0d3e
00000030: bb33 2cbd 6284 55bc 321e be3d 621e a53d
00000040: 64de 133b ffef ca3d 3b59 ae3d 9033 cabc
00000050: 6823 97bd 13b0 1e3d 74a5 923d c2aa e33d
00000060: 8778 393d 0f70 4fbd 7e3e 003e 06fe 9dbc
00000070: 5ce3 bebd 0ef9 823d 09b1 3a3d e16b be3d
00000080: ff1f 19bd f4f9 89bd 0bce 4d3d fae0 45bc
00000090: f9da 143d e466 1e3e 62fe 3f3d 7f36 733d
000000a0: a207 fb3c 903b fc3d ad3a 5a3d b363 b13d
000000b0: 8d61 8c3d 37bf bb3d 4ee2 e53b 87d4 47bd
000000c0: 47cd c8bd 2921 2f3d 9936 35bd 6a7d d93d
000000d0: 95c0 06bd 9be1 b2bc ffc1 d1bd d464 5dbd
000000e0: 8b7c 44bd 40d3 6fbd 3b62 0bbd f688 6fbd
000000f0: c04f aa3d 2a95 a5bd 444f ca3d 4c35 8b3d
00000100: b368 ad3d beff e63d 9bfb e03b 3b08 11be
00000110: 0995 e4bd 7957 533d 9912 633c de73 3e3d
00000120: fa6f 54bd c09a 01bd 7c6b 8fbc c1a7 d53d
00000130: a033 833d c53d fd3c 1f9d 5e3d 7302 69bd
00000140: 37bc 08be a3d7 92bb 91c1 163e 59c6 f0bd
00000150: 7a86 1abd fe91 583d 278b e13c eac5 63bd
00000160: cccc 03be 7e55 00be 7f69 a6bd 6357 9a3c
00000170: e21a 2fbd 0404 eabc 15c6 45bd bc75 bd3d
00000180: b065 993d a079 da3b c0dd 02bc de92 c63d
00000190: 243b 47bd 6e3f 00bb 6385 c5bd 1a92 9cbd
000001a0: b2c8 e93c f269 193b df78 14be 9f01 893d
000001b0: 939a ecbd e85d 113d 7a27 3a3d b299 013d
000001c0: d376 1e3e 9ef7 393d 5c92 883d 60eb 113d
000001d0: 28fe 34bd 3e5b a1bc c81d c5bd 94a3 93bd
000001e0: c272 e6bc 2eba aebc 2f6b c13c 0c95 95bb
000001f0: 6d4e 9dbd a095 ea3a dd1a f2bd e98d 9cbc
00000200: 5485 04bd 44bc da3d a6eb bbbc e86a a4bd
00000210: f9d6 4c3c dd40 043d 6a78 793d 90c7 203e
00000220: 07d7 e13c ed92 453c 32e7 f3bd 2b54 86bb
00000230: 63e4 aa3d e1d5 f0bc b813 62bd 8d28 34bd
00000240: 8a98 61bd ee87 aebc 6b8a b9bd 291d 36bd
00000250: 40c8 863b 0adb 1b3c af24 1cbd 9123 76bd
00000260: b399 67bc b44a f03d 636f d73c e3b7 e43d
00000270: f5a8 99bd 7f8f 9b3c c6ac 203b 51af 2c3d
00000280: bab2 d4bd c17e 9d3d d2c2 5dbb 97d3 03be
00000290: 9ad6 11be cbb0 273b 953d 9cbd 3b1f 16be
000002a0: 837c fa3c 1235 02bd 7661 96bd 05a5 043e
000002b0: 0a72 b43d 5ac3 1f3e fd41 d63d 985d e9bd
000002c0: 34d4 983d 8fe9 10bc 35f3 a03c 4f28 a4bd
000002d0: 9bcd 82bc e557 773d 9ce1 5abd 2da8 79bc
000002e0: 4d95 1cbd fa98 0e3d 9d7b 68bd a43b 9c3d
000002f0: d2a3 eebd ebd6 e6bc 955a 183e 6cc5 c3bd
00000300: 35ca 4bbd 35a2 3c3d 8f6e 85bd cb58 183d
00000310: f4ff 7bbd 9daa ebbd 9106 9cbd 68ff 8c3d
00000320: 4eba 203d 68c7 f6bd 9423 18be 6d32 893c
00000330: 2aba d13d ecc7 22bd 7776 01bb d221 8f3d
00000340: 4d45 013e fed3 e93d 3e12 773d 5e36 953d
00000350: 551f bebd b757 bebd ea69 a6bd 9842 893d
00000360: 8da3 d43d 0d7e 063e f38e a6bb 88d5 cabd
00000370: 2f9d 05be ead4 5f3d e5e6 853c 21c7 173e
00000380: 59c6 cd3c 9482 06bd 6955 1dbe 012f a4bd
00000390: 966a a33c 6e75 7f3d 475c 7dbd 49a0 40bd
000003a0: e537 49bd 90e7 7b3d 0f7f f7bd f18d 663b
000003b0: f1c5 8b3d 87ad 50bd 8284 103c 98a6 fbbd
000003c0: a2df 2cbd 5371 5fbb 6e67 a1bd bd22 b13d
000003d0: 5b48 e7bd 9b92 1e3d 6f0a fb3c fa2e a7bd
000003e0: 570c d03d ce1d 553d fbbd 51bd c989 563d
000003f0: 7b78 ac3d 0515 6b3d 6a2a 013d c351 833d
0.09401097 0.028457878 0.116163686 -0.047955062 -0.09747143 -0.07652129 0.021985436 0.15775867
0.056892574 -0.056473266 0.048343845 0.13825051 -0.04204152 -0.013032051 0.09283103 0.08062436
0.0022562975 0.09909057 0.08513113 -0.02468279 -0.073798 0.038742136 0.07160464 0.11116554
0.04528096 -0.050643977 0.12523839 -0.019286167 -0.09320709 0.0639516 0.04557899 0.0929792
-0.03738403 -0.06737128 0.050245326 -0.012077564 0.03634164 0.15468937 0.046873458 0.059378143
0.030643288 0.12316048 0.053278614 0.08661594 0.06854544 0.09167331 0.007015503 -0.048786666
-0.098047785 0.042756233 -0.04424152 0.10619624 -0.032898504 -0.021836093 -0.1024208 -0.054051235
-0.047970336 -0.058551073 -0.034029227 -0.058480226 0.08315992 -0.080850914 0.098784 0.06797275
0.084672354 0.11279248 0.006865931 -0.14163296 -0.11161239 0.051597092 0.0138594145 0.04649722
-0.0518646 -0.03164172 -0.017507307 0.10432387 0.06406331 0.030913243 0.05434906 -0.0568871
-0.13353048 -0.0044812723 0.14722277 -0.11756582 -0.037725903 0.052873604 0.027532173 -0.055608667
-0.12871093 -0.12532613 -0.081255905 0.018840497 -0.042750247 -0.028566368 -0.04828461 0.09250972
0.074900985 0.006667331 -0.00798744 0.096959814 -0.048640385 -0.0019569057 -0.09644582 -0.07645054
0.028538082 0.0023409096 -0.14499234 0.06689762 -0.1155292 0.035489947 0.045447804 0.031640716
0.15475015 0.04540216 0.06668541 0.03562486 -0.044187695 -0.019696828 -0.09624821 -0.072089344
-0.028130893 -0.021329012 0.02361068 -0.004564887 -0.07680974 0.0017897375 -0.1182153 -0.019110637
-0.032353714 0.1068044 -0.022939514 -0.08028203 0.012502425 0.03228842 0.06090585 0.15701127
0.027568353 0.012058956 -0.119093314 -0.004099389 0.083443426 -0.02939886 -0.055194587 -0.043983985
-0.055077113 -0.02130505 -0.09059604 -0.044461403 0.004113227 0.009512672 -0.03812092 -0.060092513
-0.014135766 0.117329985 0.02629823 0.11167886 -0.07502929 0.018989323 0.0024517043 0.042159382
-0.10385652 0.07690192 -0.0033838046 -0.12873684 -0.1424202 0.0025587555 -0.07628933 -0.14660351
0.03057695 -0.031788893 -0.07342808 0.12953575 0.08810814 0.15601864 0.10461805 -0.11394805
0.074623495 -0.008844747 0.01964722 -0.08015501 -0.015967181 0.060386557 -0.053437814 -0.01523785
-0.03822832 0.03481386 -0.05675851 0.07628563 -0.1165234 -0.028178653 0.14878304 -0.095591396
-0.049753387 0.04605313 -0.06515228 0.037194055 -0.061523393 -0.11507151 -0.0761844 0.068846524
0.039240174 -0.120497525 -0.14857322 0.016747678 0.10240586 -0.03974144 -0.0019754448 0.069888726
0.12624092 0.114173874 0.06032013 0.0728576 -0.0928332 -0.09294074 -0.0812567 0.06702155
0.10382757 0.13134022 -0.005082959 -0.09904009 -0.13048242 0.05464641 0.01634545 0.14822055
0.025118994 -0.032839373 -0.15364613 -0.08016778 0.019948285 0.06236785 -0.06185558 -0.04702786
-0.04912557 0.061500132 -0.120847814 0.0035179819 0.06824864 -0.05094674 0.008820655 -0.122876346
-0.04220546 -0.0034094646 -0.07881056 0.08649204 -0.112930976 0.038714033 0.030644624 -0.08163257
0.10158604 0.052030377 -0.05120657 0.052377496 0.08421417 0.057393093 0.03153459 0.06412079

lstm.weight_hh_l1 f4 [256, 64]
00000000: 3381 bfbd 8723 a63d 7146 fcbd 13a1 323d
00000010: 435f d83b 7bd4 003d 5361 76bd 14ee ca3c
00000020: 29b5 1d3d 402e f53d 517a f0bc da8a 16be
00000030: e27d 47bd e789 fcbd 7de5 afbc 1b4f 963d
00000040: 1fd9 6b3d 9ebd 0abd 3e86 3fbc 52ba b53d
00000050: e6f4 8e3c 9990 ffbd 4ca4 ef3b f987 c43d
00000060: 8724 1e3d 84c3 02bd 9d4c 1d3e d03b b23d
00000070: eea5 acbc af7b 8dbd e3ba 0c3e 9f61 0c3d
00000080: 88a5 9bbd 273c ea3d 6d31 83bd 25d9 18bb
00000090: 6df3 ef3d 88b3 44bd 8f77 03be 4e70 fd3d
000000a0: fdb4 1f3c 09f8 8b3d 9afe a73c 417b 163e
000000b0: e119 1abd cc25 0cbd 00e0 ca3d fc39 cd3c
000000c0: 8283 3cbd fb32 f33d 30a5 0b3d 4a9b 74bb
000000d0: 4eb7 a43d efa8 bcbd 15eb f03d cb36 87bc
000000e0: 2d77 10be e3b9 073d 1896 d3bd 41a8 04be
000000f0: c848 a1bd aea7 8b3d 1820 ab3d ce4e 52bd
00000100: 8a80 a7bd 16e0 18bd 0516 fe3d 4f18 9c3d
00000110: 3bab a73d c47b d1bd 24be 14bd 0fc2 e6bc
00000120: ab01 af3d 79c4 95bd c3ee f6bd 38fd f53a
00000130: b9c9 bfbd 3150 4f3d 9979 cb3d f208 1abd
00000140: 1493 123e b988 7a3d b50b 693d 1bd7 2ebd
00000150: 670d bfbd ee79 d63d aa6f 8f3c e852 123e
00000160: 3b2a b0bd a2bf 853c 48c6 a33d dfb4 1d3d
00000170: 40f5 3b3c b14d dbbd 178e ef3d 7f5c 233d
00000180: 9f61 483d 7e29 82bd a343 e13d 1e8d 713c
00000190: fce0 233d 5130 af3d 77e9 c93d aa48 783d
000001a0: 7b3b 37bd 1680 9fbc ef71 0ebd 043a adbd
000001b0: a915 a6bd d6bb 473d 3f36 5a3d b241 b4bd
000001c0: 031e fdbc ac1b 2e3d e9f5 a83d f883 a6bd
000001d0: 7bfb 13bc 747a 19bd e6d0 2bbc 36f8 4bbd
000001e0: 29a7 a7bb 30f0 413c 55b8 c8bd 0620 963d
000001f0: f4d1 093c 55ad 9b3d 61f9 b93c 02ed 8b3d
00000200: 9a1c 1d3c fed2 133d cf6d 19be 5389 df3d
00000210: ee1d 3c3d 6c91 323c 3aa9 0e3e 4639 4fbd
00000220: f342 023e 6497 71bb c95d d33c 4e96 00be
00000230: 60c1 e53d 2cee b93b f138 05be 6a36 7dbd
00000240: a8c2 21bd 694e 0d3e 2a5e aabd 1d58 2f3a
00000250: b1ce 7e3d 4b39 fcbd 710f 87bd fc35 24bd
00000260: 39af efbd f97b a0bd 14d6 72bd e0ee 26bc
00000270: e387 eabd 428b 84bd c796 c1bd 7599 f3bd
00000280: 2846 8cbd 21a6 0cbd 72d1 ca3c 48ee b03d
00000290: bfcd 0aba dfb9 003d 1991 1ebe b1bc 823d
000002a0: a34d 33bd 0c79 bfbc 942c 073e 0e14 a73d
000002b0: b93a ac3b e6a8 b0bc 2127 5d3c 618f b3bd
000002c0: afed 0e3e 2b71 86bd 2cf3 6b3d 7b03 f43d
000002d0: 683e 4e3d 7bbc c33d aa0e 1bbd 2f32 1dbb
000002e0: 0006 ad3c 56bb 8abd f904 0abe 182d 29bc
000002f0: 1f41 a63d 74ba c43d 2b8e 4b3d 2727 8c3d
00000300: 461e f23d 9de8 9cbd 459c 1dbe c527 143e
00000310: c5b6 22bd 02fc 243d 1111 2cbc 3e56 993c
00000320: f425 443d 6a87 0f3e 34fc 2fbd feb1 763b
00000330: 7bd0 d1bc 085a 633d 9c47 b9bc dfdd 123e
00000340: 94d1 f3bd 0535 41bd 92a5 d33d 85ff a6bd
00000350: fb3d 6cbd 1e17 f23c e7b8 acbc 3eaa d8bd
00000360: dad3 01bd 3283 833d 01a7 353d 9cdb 1abb
00000370: 6631 1abe 6b68 81bd c520 cd3d d3fc 01be
00000380: c174 153e 690c 043d 4bec 063e 172f 8dbc
00000390: 6e2a c3bd dea5 b43d d7b9 fdbd a46b 333d
000003a0: 9f1f 46bd 56ed 07be bd58 4d3d 576b 14bd
000003b0: cd8e c43d 7fa6 a5bb 61e0 7cbd 1489 c2bd
000003c0: 6074 68bd d903 0e3e cc88 b73d 7b84 b53d
000003d0: 612b d2bd 46b5 fd39 f38e 43bd 32c0 093d
000003e0: 01ee ac3d 298a ba3d 5650 3dbb d729 41bd
000003f0: 8313 a9bd 6d48 0bbd 7d79 babd 2f2d b63d
-0.09350815 0.08112245 -0.12318123 0.043610644 0.006603153 0.031452637 -0.06015141 0.024771728
0.038502846 0.11971712 -0.0293552 -0.14701405 -0.048704036 -0.1233099 -0.021471733 0.07339307
0.05758011 -0.03387224 -0.011689721 0.088734284 0.017450761 -0.12478752 0.007313287 0.09596247
0.038609054 -0.03192474 0.15361257 0.087028146 -0.021075215 -0.069083564 0.13743167 0.034272786
-0.07599932 0.114372544 -0.064059116 -0.0023322788 0.11716352 -0.048022777 -0.12838577 0.12374936
0.009747741 0.06834418 0.020507146 0.14695455 -0.037622336 -0.034215733 0.09906006 0.025052063
-0.046023853 0.11874958 0.034093082 -0.0037324005 0.08042775 -0.09211909 0.11763588 -0.01650562
-0.14107962 0.03313626 -0.103313625 -0.12954809 -0.0787521 0.06819092 0.08355731 -0.051344685
-0.08178814 -0.03732308 0.12406544 0.07621824 0.081869565 -0.102286845 -0.036314145 -0.028168706
0.0854524 -0.07312865 -0.12057259 0.0018767482 -0.093646474 0.050613586 0.09935302 -0.037606187
0.14313918 0.061165545 0.05689593 -0.04268561 -0.09328728 0.10472475 0.0175093 0.14289439
-0.08601805 0.01632673 0.079968035 0.03850257 0.011472046 -0.10708178 0.11697023 0.039883133
0.048921224 -0.0635557 0.10999229 0.014743118 0.040009484 0.085541375 0.09858983 0.060616173
-0.04473446 -0.019470256 -0.034776624 -0.08458331 -0.081096 0.04876312 0.05327439 -0.08801593
-0.0308981 0.04250686 0.08250029 -0.0813064 -0.009032126 -0.037470296 -0.010486817 -0.04979726
-0.0051163626 0.01183705 -0.098007835 0.07330327 0.008411873 0.0760142 0.022701921 0.06832315
0.009589339 0.03608989 -0.14983295 0.109148644 0.04592698 0.010898929 0.13931742 -0.05059173
0.12720852 -0.0036863917 0.025801556 -0.12557337 0.11218524 0.0056741443 -0.13010003 -0.06181947
-0.03949228 0.13799442 -0.083187416 0.000668885 0.062208835 -0.12315615 -0.06594742 -0.040090546
-0.11703343 -0.07836146 -0.059286192 -0.010188788 -0.114516996 -0.06471874 -0.094525866 -0.11894504
-0.06849319 -0.03433812 0.024758074 0.086391985 -0.0005294941 0.03142726 -0.15485038 0.06383646
-0.043775212 -0.02337315 0.13200599 0.08158122 0.0052560237 -0.021564912 0.013498099 -0.08767582
0.13957857 -0.06564554 0.057604954 0.11914726 0.050352484 0.09557434 -0.03785578 -0.002398621
0.021121025 -0.06774013 -0.1347846 -0.010325693 0.081178896 0.096058756 0.04969613 0.06843405
0.118221804 -0.07661555 -0.15391643 0.14468296 -0.039725084 0.040279396 -0.010502116 0.018717881
0.047887757 0.140165 -0.04296513 0.0037642713 -0.025612107 0.055505782 -0.022617154 0.1434245
-0.11905208 -0.047169704 0.103343144 -0.08154205 -0.057676297 0.029552039 -0.021084262 -0.10579346
-0.031696178 0.06421508 0.04434872 -0.0023629433 -0.15057907 -0.06318744 0.10016016 -0.12694101
0.1459532 0.032238398 0.13176076 -0.017234368 -0.09529577 0.08820699 -0.12388962 0.043803826
-0.04837 -0.1327413 0.050133456 -0.03623518 0.095975496 -0.0050552483 -0.061737422 -0.09498802
-0.05675161 0.13868655 0.08961639 0.08863159 -0.1026218 0.0004839098 -0.04774375 0.033630557
0.08443833 0.09108383 -0.0028886995 -0.047159042 -0.08255675 -0.034004617 -0.09105203 0.08895337

lstm.bias_ih_l1 f4 [256]
00000000: 15cd 6e3d 8f7f ea3d b988 df3d 6f81 8dbd
00000010: bed5 b53c ffaf 7c3d 97d4 c03d ac32 82bd
00000020: 3b74 57bc 2fc2 80bd 9c65 283d d47c 92bd
00000030: 8803 953d 8c79 9cbd 81c3 183d cbfc 2e3d
00000040: 5b33 d5bc 4c9f d5bd 986d a93d 14a2 023e
00000050: acc5 e53c 35a0 bf3d 5a7e a1bd 2843 16bd
00000060: 8a42 22bc cec9 0f3e da3b 6c3d 9a42 b6bd
00000070: ef8a 2c3d 9eef 063d 6367 313d c90b d53d
00000080: fda9 c53d eb94 ddba 66cc 903d d53c 8d3c
00000090: 5a95 4bbd a8f4 f43d 006e 0a3d 4f76 c23d
000000a0: 116d 52bd a101 90bb 1fa5 ddbd 98da 79bb
000000b0: c0b9 eb3d 6afe 6c3b 2376 863d 639b 4b3d
000000c0: 6438 d9bd 3331 c73d ca6e 7ebd a829 093e
000000d0: b5e9 953b 7ada afbd 1d41 1a3d a0e9 1b3e
000000e0: 1aee 9c3d 2b14 7dbb f594 833d 65ae a13d
000000f0: c2f4 9dbd 7582 97bd 40ab d6bd 944b c93d
00000100: d73f a9bd 72b1 b6bc 9531 ba3d 7117 2bbd
00000110: bab8 7539 0629 d63d b0b1 2d3d 3265 313c
00000120: 76b2 80bd 8f8f a3bd 624f dfba 4035 0a3e
00000130: 5e06 763c 0fe8 953d c038 d43c 4877 dc3b
00000140: 46ba c53d 07fb 903c c308 803d b25a 4d3d
00000150: 88b4 db3d 9af0 cd3d 6649 cfbb 1569 04bd
00000160: 8ceb 3d3d 4118 c83d 8a9d 093e 8722 5cbd
00000170: aaf2 013d 78ed b63d 1abd 893d 4da6 133e
00000180: 24b2 113d a489 94bd 9c60 d13c d857 1bbd
00000190: 857a 1c3d bf01 88bd 6597 49bd b97c 333c
000001a0: 4796 1e3a 75ff 48bd 2fcf 233d db5e 7fbd
000001b0: 1dcf ab3d 3a7f d7bb 13a8 e43d 25fc 6bbd
000001c0: 883a 8b3d 3b3c 8e3d 8e3a e73d 8466 e8bd
000001d0: cd99 43bb 25f4 b4bd 3281 babd 154f 84bd
000001e0: db1f f93d 6458 1cbd c9b4 08bd 3f58 443c
000001f0: 1ecd 853d ff93 433c 6a64 ccbd b088 583d
00000200: d94c bd3d 1966 fe3d 28f4 023d 59ca d23d
00000210: d12d 2d3d 5a31 c93d 9b28 0f3e 8e67 fcbd
00000220: 7791 003e 2d77 8ebd 671e ccbd 55a6 10bd
00000230: 7dc4 953d 8d10 bfbd a309 633d afe8 6fbd
00000240: f99c 23bd 1664 0f3d 9cc7 643d 229c 7e3b
00000250: ac23 eebd e4e4 673d 5379 63bd 95cb d33d
00000260: 1e88 0d3d 3347 4cbd 2d93 da3c 1db1 b2bd
00000270: d46b 0cbc c6d4 c6bc 7f4e 03bd 6af4 16be
00000280: 0e1f 9d3d 2bd1 803d 9030 d13d 2b82 83bd
00000290: 9652 aebd 55f4 83bd a5ea e6bc cd85 123e
000002a0: b62a d2bc 872d b1bd b406 0c3c 758a d73d
000002b0: 3c86 e63d 29cf f7bc ccac f63d b4bd 9fbd
000002c0: a50e c0bd bdd8 6cbd 8d05 c7bd 9726 743d
000002d0: 8b8c 6d3d d4c7 7ebb df45 94bc c9a7 01bc
000002e0: 8611 b13d 1ed0 19bd 34b4 06bd 3941 8bbd
000002f0: 57c1 0b3d 3e89 25bc 677f c0bc 68c1 cdbb
00000300: ae6b cabd 1518 32bd 5550 04bc 029c bbbc
00000310: 887a 09be 6e19 9c3d a80f aabd b64c ccbd
00000320: 1fe5 c83d efd0 5dbd 113e ee3d 1200 ef3c
00000330: 5d1f 0abe 5426 123e a8e0 c3bd eca7 cfbd
00000340: 9d7e 08be 6ecb 493d 1f85 b9bd bade 543b
00000350: bb8a e03d 66b3 adbc 9c53 053e b003 00be
00000360: ab85 a53d 67ac 9dbc 4b77 91bd 102e 8e3d
00000370: ca0e 24bd 5519 c9bd c84f d53d bc36 98bd
00000380: 43d7 6fbd 2ba4 53bd ddd3 943d 05bf 5f3d
00000390: 6530 97bd de10 cebd 7d1e e9bd 1451 473d
000003a0: a16f fabc 0abb 12bc 40d8 873d 95c3 79bd
000003b0: 85ca cc3b 53f3 1abd 33a0 cc3c 9ca1 f13d
000003c0: 1791 c0bd e1b3 c63d ddd3 f83d 56cf dc3d
000003d0: 1c1c 133d 5b01 013e 053a 083e 76d0 91bd
000003e0: fd79 33bc 3053 e53b 66ac ce3d e7b5 c9bc
000003f0: e525 813d b3eb f93d 2717 083e 1612 c23c
0.05830105 0.11450111 0.1091475 -0.06909453 0.022196647 0.06169128 0.09415548 -0.06357321
-0.01315027 -0.062870376 0.041112527 -0.07152715 0.07276064 -0.07640371 0.037295822 0.04272155
-0.026025465 -0.10430774 0.082728565 0.1275714 0.028048359 0.09356729 -0.07885428 -0.03668514
-0.009903559 0.14041826 0.057674266 -0.08899422 0.042124685 0.03294336 0.043311488 0.104026385
0.09651563 -0.0016905343 0.07070236 0.017240921 -0.04970298 0.11960727 0.03379631 0.09495222
-0.051373545 -0.0043947254 -0.1082251 -0.0038124677 0.115100384 0.0036162385 0.065655015 0.049708735
-0.10606459 0.09726181 -0.062117375 0.13394797 0.004574979 -0.08586593 0.037659753 0.1522584
0.07662602 -0.0038616757 0.06424896 0.07894591 -0.077126995 -0.073979296 -0.10481882 0.098288685
-0.082641296 -0.02230141 0.09091488 -0.041770402 0.00023433837 0.10457043 0.042405784 0.0108273495
-0.06284039 -0.07986366 -0.0017037208 0.13496876 0.0150161665 0.07319652 0.025905967 0.0067280866
0.096546695 0.017697824 0.06251671 0.050135322 0.10727793 0.10055657 -0.0063258884 -0.032326777
0.046367213 0.09770251 0.13439003 -0.053743865 0.031725563 0.08932012 0.067255214 0.14418907
0.03557028 -0.07252815 0.025558762 -0.03792557 0.03820278 -0.06640958 -0.049216647 0.010955029
0.0006049615 -0.049071748 0.039992508 -0.06234632 0.08389113 -0.006576446 0.1116487 -0.05761351
0.06798273 0.06945082 0.11290465 -0.11347678 -0.002984631 -0.088356294 -0.09106673 -0.06460396
0.12164279 -0.038170233 -0.033375535 0.01198393 0.065332636 0.0119371405 -0.0998009 0.05286473
0.09243173 0.12421817 0.031971127 0.10292501 0.042280022 0.09823866 0.13980334 -0.12324439
0.1255549 -0.06956325 -0.09966736 -0.035314877 0.07312868 -0.09329329 0.055429112 -0.058571514
-0.039944623 0.03500756 0.055854425 0.0038850387 -0.116278976 0.05661477 -0.055535626 0.103415646
0.03455364 -0.04987259 0.026681507 -0.08725188 -0.00857063 -0.02427138 -0.03205728 -0.14741674
0.07671939 0.062898956 0.10214341 -0.06421312 -0.08511846 -0.06443087 -0.02818806 0.14308853
-0.025655132 -0.08651262 0.00854652 0.105244555 0.11256072 -0.030250149 0.12044677 -0.07799855
-0.09377793 -0.057823885 -0.097178556 0.059607115 0.05799536 -0.003887643 -0.018099723 -0.007913538
0.086459205 -0.03755199 -0.0328867 -0.067995496 0.03411993 -0.010103522 -0.02349825 -0.0062791593
-0.098838195 -0.043479998 -0.008075793 -0.022901539 -0.13425648 0.07622038 -0.083037674 -0.09975569
0.098093264 -0.054154333 0.11632932 0.029174838 -0.13488527 0.14272434 -0.09564334 -0.101394504
-0.13329549 0.04926627 -0.09058594 0.0032481388 0.10963961 -0.021203708 0.13020176 -0.12501407
0.08082136 -0.019247247 -0.071028315 0.069423795 -0.040053166 -0.09819285 0.10415608 -0.07432315
-0.0585549 -0.051670235 0.07266972 0.05462553 -0.073822774 -0.10061811 -0.11382768 0.048661307
-0.030570807 -0.008955726 0.06633043 -0.060977537 0.006249728 -0.03782971 0.024978733 0.11798403
-0.09402674 0.09702278 0.12149785 0.10781734 0.03591548 0.12598173 0.13303383 -0.07119839
-0.010954377 0.006998442 0.10091476 -0.02462287 0.06306056 0.12203159 0.13290082 0.023690265
