models/lstm_def_model.pt (torch, 245045 bytes, 9 tensors)

lstm.weight_ih_l0 f4 [256, 38]
0	0x3e140e9e	0.14458701
1	0x3d7260be	0.05917429
2	0xbc90b42e	-0.017664041
3	0x3df8c569	0.12147028
4	0x3d87a69b	0.06623574
5	0x3c12f3cd	0.008969259
6	0x3c507d45	0.012725179
7	0x3df56bf3	0.1198348
8	0x3e3bbbaf	0.18333314
9	0xbdc4525e	-0.09586023
10	0x3dd7e65d	0.10541985
11	0x3e01c631	0.1267326
12	0x3e1fb558	0.15596521
13	0x3d5c7f8e	0.053832583
14	0x3e04322e	0.12909767
15	0x3cb47c05	0.022031793
16	0x3dd77982	0.10521223
17	0xbc9a473a	-0.018832792
18	0xbda796cc	-0.08183059
19	0x3d302e1b	0.04301272
20	0xbd38a6da	-0.045080997
21	0x3c038896	0.00802817
22	0xbd113f74	-0.035460904
23	0x3dee7c49	0.11644799
24	0xbd86904f	-0.065704934
25	0xbd6c098c	-0.057626292
26	0xbe7a5331	-0.24445798
27	0xbdf42ca7	-0.11922579
28	0xbc0142ba	-0.007889444
29	0xbdef405e	-0.11682199
30	0x3dbc64c7	0.09198909
31	0xbdcc8c42	-0.099876896
32	0x3dae2d49	0.08504731
33	0x3d0bb803	0.034111034
34	0xbcce3bf2	-0.025175069
35	0x3dd7e969	0.10542566
36	0x3cbff74e	0.023433354
37	0x3def601c	0.11688253
38	0x3c943a7a	0.01809429
39	0xbcf53eab	-0.029937109
40	0x3ceaac5a	0.028646637
41	0xbcd2ebf9	-0.025747286
42	0x3de52329	0.11188347
43	0x3dca0790	0.09864724
44	0x3db89ee0	0.09014678
45	0xbd79720d	-0.060899783
46	0x3ddf4fad	0.10903869
47	0x3c065b51	0.008200482
48	0x3e0a390f	0.13498329
49	0xbdacd762	-0.084395185
50	0xbd900800	-0.07032776
51	0xbc382527	-0.011239327
52	0xbd2c2648	-0.042028695
53	0x3e170361	0.14747383
54	0x3dc780bf	0.09741353
55	0x3dae6bcf	0.085166566
56	0x3d9a23bf	0.07526349
57	0xbbb8dfc9	-0.0056419116
58	0x3d6664f1	0.05624861
59	0xbe03621a	-0.12830392
60	0x3c50325c	0.012707319
61	0xbc81fc73	-0.015867447
62	0x3dfbaf7d	0.12289331
63	0xbd3052e0	-0.043047786
64	0x3de32eab	0.110928856
65	0x3d96208a	0.07330425
66	0x3c15f477	0.009152523
67	0xbdaa510c	-0.0831624
68	0xbc95d8b0	-0.018291801
69	0xbd409396	-0.04701575
70	0x3e230daa	0.15923181
71	0x3db0fe77	0.08642285
72	0x3dda2d86	0.10653214
73	0xbdbc5e2c	-0.09197649
74	0xbe07d86d	-0.13266154
75	0xbdc6c159	-0.09704847
76	0xbc199fd7	-0.009376488
77	0x3dd25b1e	0.102712855
78	0x3d1b6afd	0.03794383
79	0x3d5f16f8	0.054465264
80	0xbd9d6515	-0.076852955
81	0xbdc3250d	-0.09528551
82	0x3df97d4a	0.121821
83	0xbcd9e1ad	-0.026596868
84	0x3dcf651b	0.10126706
85	0xbcc75aae	-0.024335232
86	0x3dae963e	0.0852475
87	0xbdaf44c7	-0.0855804
88	0xbd25ad2b	-0.04044835
89	0x3d9808e3	0.0742357
90	0x3d9e5b90	0.07732308
91	0xbd465ea0	-0.048430085
92	0x3b6b5bb8	0.0035912823
93	0x3d530ad8	0.051524013
94	0xbdcda0d0	-0.10040438
95	0xbe0339a8	-0.12814963
96	0x3e24458f	0.1604216
97	0xbd351e05	-0.044218082
98	0xbcd5d850	-0.026104122
99	0xbe21fb33	-0.15818481
100	0xbe07f381	-0.13276483
101	0x3cffcc88	0.031225458
102	0x3d560ddb	0.052259307
103	0xbdb54515	-0.08851067
104	0x3b11f4be	0.0022271122
105	0xbdb0671f	-0.08613419
106	0xbe29cfd2	-0.16583183
107	0xbd7f644d	-0.062351514
108	0xbe04c1cf	-0.12964557
109	0xbe167108	-0.14691556
110	0x3e26db5a	0.16294613
111	0x3de522bf	0.11188268
112	0x3e0bb07a	0.13641539
113	0xbcb8f02e	-0.022575464
114	0xbe340959	-0.17581691
115	0xbdf46ec4	-0.11935189
116	0x3d0541f9	0.03253362
117	0xbc829784	-0.015941389
118	0xbcded3aa	-0.027200539
119	0xbe091f59	-0.13390864
120	0xbe395a4a	-0.18100849
121	0xbe444716	-0.19167742
122	0xbdc9345d	-0.09824441
123	0xbe5ccaf1	-0.21561791
124	0xbd97e1d6	-0.07416122
125	0xbd85f640	-0.06541109
126	0xbe1f03af	-0.15528749
127	0xbe26d605	-0.1629258
128	0xbb5ab3c4	-0.0033371309
129	0x3d1ab984	0.037774578
130	0x3e0d1762	0.13778451
131	0x3dd5d8b2	0.10441722
132	0xbcbec0a6	-0.023285221
133	0x3bf7ae8c	0.0075586494
134	0xbe6c1d4c	-0.23058051
135	0xbe4728dd	-0.19449182
136	0xbe0f0b79	-0.1396922
137	0xbdb7afa4	-0.08969048
138	0xbcc1ff1e	-0.02368122
139	0xbcdfafc0	-0.027305484
140	0x3e2722f5	0.16321929
141	0xbd835d8a	-0.064143255
142	0x3e3aec2a	0.18254152
143	0x3ca82836	0.020526987
144	0x3e0fe822	0.14053395
145	0x3d61f690	0.05516678
146	0x3e5552b1	0.20832326
147	0x3e166b55	0.14689381
148	0x3e0f3fa6	0.13989124
149	0xbd4898f9	-0.04897401
150	0x3d9e8ac3	0.077413104
151	0xbba7a368	-0.005115915
152	0xbd03d8be	-0.032189123
153	0xbda1ba6a	-0.07896884
154	0x3da96847	0.082718424
155	0xbe06d544	-0.13167292
156	0x3d0a6b10	0.03379351
157	0xbd9641b8	-0.073367536
158	0x3d72a819	0.05924234
159	0xbdee1be1	-0.11626411
160	0x3df10bac	0.11769804
161	0x3c5cce43	0.013476911
162	0xbc537150	-0.012905434
163	0xbe4ada88	-0.19809926
164	0x3d2da7ec	0.04239647
165	0x3db4f501	0.08835793
166	0x3c8e11dc	0.0173425
167	0x3d10145b	0.035175662
168	0xbc9908c5	-0.01868094
169	0xbdc55053	-0.09634461
170	0xbd8ba7f6	-0.068191454
171	0xbe19a5ad	-0.15004607
172	0x3d895377	0.06705373
173	0xbdd0e645	-0.102001704
174	0xbbff3d6c	-0.0077893045
175	0xbdbad1be	-0.091220364
176	0xbe168c59	-0.14701976
177	0x3d369888	0.04457906
178	0xbd935e7d	-0.071957566
179	0xbe25064c	-0.16115683
180	0x3d5dd1f1	0.054155294
181	0x3e30e3b6	0.17274365
182	0x3c217364	0.009854171
183	0x3cfd9fc4	0.030959971
184	0x3ddf49fb	0.109027825
185	0x3e1801d2	0.14844444
186	0x3d977a40	0.07396364
187	0x3d598137	0.053101745
188	0x3d4101de	0.04712092
189	0x3dbc122e	0.09183155
190	0xbc8b075e	-0.016971286
191	0xbcf34f0b	-0.029700777
192	0x3ddf791f	0.10911774
193	0x3e065c45	0.13121136
194	0x3d37b07c	0.044846043
195	0xbc1dbeba	-0.009627992
196	0xb8277a10	-3.9929582e-05
197	0x3c7eaa6c	0.015543561
198	0x3d6a575e	0.057212226
199	0x3d1202e5	0.03564729
200	0xbe21332d	-0.15742178
201	0xbd06cfd8	-0.03291306
202	0x3e157ec5	0.1459914
203	0x3d7d18c1	0.061791185
204	0x3ca9d433	0.020731067
205	0xbd5c3020	-0.053756833
206	0xbceede7b	-0.029158821
207	0xbe2277de	-0.15866038
208	0x3b2a43b0	0.0025980286
209	0x3d7c31d1	0.061570946
210	0x3d88f4c8	0.06687313
211	0x3d6209e5	0.055185217
212	0xbdf8e2c0	-0.12152624
213	0xbd829c96	-0.06377523
214	0x3c33fe0d	0.010985863
215	0x3df7a438	0.12091869
216	0xbc915588	-0.01774098
217	0xbc3d950a	-0.011571178
218	0x3d9f9388	0.07791811
219	0x3bd192ae	0.0063956594
220	0xbcce6f2e	-0.025199499
221	0x3dc71757	0.097212486
222	0xbce53ee8	-0.027984098
223	0xb969fb4c	-0.00022314227
224	0x3ceb8f5a	0.028754879
225	0x3e21193c	0.15732282
226	0x3e2909b0	0.16507602
227	0x3df12015	0.11773697
228	0xbd26b519	-0.040700052
229	0xbddafaa3	-0.106923364
230	0xbda52166	-0.08063011
231	0x3d3a4afc	0.045481667
232	0x3e384ab1	0.17997243
233	0x3dd2fd8f	0.10302269
234	0x3dbcc15f	0.0921657
235	0x3d269870	0.04067272
236	0xbc456a47	-0.012049264
237	0xbdd29d33	-0.102838896
238	0xbde09474	-0.10965815
239	0xbe293885	-0.16525467
240	0x3d7af12f	0.061265167
241	0xbd5ebc97	-0.054379072
242	0xbb2e8839	-0.0026631488
243	0xbd8d9ec2	-0.06915046
244	0xbc315e38	-0.010825686
245	0xbdec530f	-0.1153928
246	0x3c207a30	0.009794757
247	0x3d7e035d	0.062014926
248	0x3d0fef55	0.035140354
249	0x3e0fa151	0.14026381
250	0x3c5d0598	0.013490103
251	0xbd830be7	-0.063987546
252	0x3c1a2ee5	0.009410595
253	0xbd7830d0	-0.060593426
254	0xbd8dd237	-0.06924861
255	0xbdf7a6d1	-0.120923646

lstm.weight_hh_l0 f4 [256, 64]
0	0xbcf39a04	-0.029736526
1	0x3e027949	0.12741579
2	0x3d157911	0.03649241
3	0xbe00a903	-0.12564473
4	0xbda9d958	-0.08293408
5	0xbb889f90	-0.004169412
6	0xbe09a9bd	-0.13443656
7	0xbcca941e	-0.02472883
8	0x3da09a12	0.078418866
9	0x3db3ac68	0.08773118
10	0xbd06a97e	-0.032876484
11	0x3cb1a55a	0.021685291
12	0x3dad948c	0.08475599
13	0x3d58937d	0.05287503
14	0x3da60bb1	0.08107699
15	0xbdbb2c56	-0.09139316
16	0xbde64196	-0.11242978
17	0x3d7b48dc	0.06134878
18	0x3e233dec	0.1594159
19	0xbda32abc	-0.07967135
20	0x3df28495	0.11841694
21	0x3cb3cfef	0.021949736
22	0xbcbe0134	-0.023193933
23	0x3e19d2a2	0.15021756
24	0x3df8adf6	0.121425554
25	0xbdee4e94	-0.11636081
26	0xbdae8b04	-0.08522609
27	0x3d732101	0.059357647
28	0x3d918065	0.071045674
29	0xbd8b8991	-0.06813348
30	0x3e2af596	0.16695246
31	0x3c7a3893	0.015272277
32	0xbd46a9af	-0.048501667
33	0x3d02c5be	0.031926863
34	0xbe519873	-0.20468311
35	0xbd28e142	-0.041230448
36	0xbd6fb924	-0.058526173
37	0x3e12509c	0.14288563
38	0xbe0dbe41	-0.13842107
39	0x3db0705a	0.08615179
40	0xbdb4520a	-0.0880471
41	0x3ad7542a	0.0016428281
42	0xbe04d960	-0.12973547
43	0xbd01f029	-0.031723175
44	0x3d6bfc52	0.05761368
45	0xbe0c338d	-0.1369154
46	0xbe1e48c0	-0.1545744
47	0xbcf04085	-0.02932764
48	0xbbcf3077	-0.006322916
49	0x3c87ba61	0.016568365
50	0xbcf1eea7	-0.029532744
51	0x3a2f95d4	0.00066980463
52	0xbd13989f	-0.036034223
53	0x3d9f974f	0.07792532
54	0xbe03ecf5	-0.1288336
55	0x3d560e56	0.052259766
56	0xbe126e65	-0.14299925
57	0xbd840b4a	-0.06447466
58	0x3dfd967c	0.12382218
59	0xbb88b26c	-0.00417166
60	0xbe028ac3	-0.12748246
61	0x3c9574f4	0.018244244
62	0xbc5aec12	-0.013361948
63	0x3d160cc9	0.036633287
64	0x3d88cc2f	0.0667957
65	0xbe18cc90	-0.14921784
66	0xbc2d7c11	-0.010588662
67	0xbe26580e	-0.16244528
68	0x3def468c	0.116833776
69	0xbd8945ce	-0.06702767
70	0xbd57251a	-0.052525617
71	0xbda1ad7d	-0.078944184
72	0x3c1a0dfa	0.009402746
73	0x3ceda15c	0.029007606
74	0x3e2d0995	0.16898187
75	0x3dc5c966	0.09657554
76	0xbdd9c3df	-0.106330626
77	0x3db3d4f4	0.08780852
78	0x3c64567f	0.013936638
79	0x3df83b5f	0.12120699
80	0xbe0156dc	-0.1263079
81	0x3bc96343	0.006145866
82	0x3b087c4e	0.0020826044
83	0xbe273e3f	-0.16332339
84	0xbc1a1f41	-0.009406866
85	0x3d63bc60	0.05559957
86	0x3c71f0f3	0.014766919
87	0x3e3fd708	0.18734372
88	0x3e0958a3	0.13412718
89	0xba38b8a4	-0.00070465566
90	0x3db03b70	0.08605087
91	0x3d4baac0	0.049723387
92	0x3e156f54	0.1459325
93	0xbbe64205	-0.007026913
94	0x3d9083e6	0.07056408
95	0x3db5346d	0.0884789
96	0x3dc16fa8	0.09445125
97	0xbd13eda9	-0.036115322
98	0xbdeeddc2	-0.11663391
99	0x3cd0e6ed	0.025500739
100	0x3d1f5fce	0.038909726
101	0xbdaa8670	-0.08326423
102	0xbcc6e1d0	-0.024277598
103	0xbcc9901f	-0.024604855
104	0x3d897291	0.06711305
105	0x3c937214	0.017998733
106	0xbde28879	-0.11061186
107	0x3dd77d9d	0.10522006
108	0xbd33a462	-0.04385794
109	0xbc7eb9fa	-0.01554727
110	0x3daab386	0.08335023
111	0x3da16fec	0.078826755
112	0x3e372e0c	0.17888659
113	0x3d13fa15	0.03612717
114	0x3ded4910	0.11586201
115	0xbe0be8c6	-0.13663015
116	0x3d94dd2b	0.07268747
117	0xbdac1d7c	-0.08404061
118	0x3d03db54	0.03219159
119	0x3cb5036d	0.02209636
120	0xbcd81fde	-0.026382383
121	0xbd553f82	-0.05206252
122	0x3dc69178	0.09695715
123	0x3d6fd12f	0.058549102
124	0xbddb3639	-0.107037015
125	0xbca03086	-0.019554388
126	0xbe9df74c	-0.30852735
127	0xbd26988f	-0.040672835
128	0xbb5da12f	-0.0033817997
129	0x3c1ef740	0.009702504
130	0x3caa8e2a	0.020819742
131	0x3dbe1c05	0.09282688
132	0xbd76b0b4	-0.06022711
133	0xbe59be68	-0.2126404
134	0x3e173dcd	0.14769669
135	0xbcd71157	-0.026253385
136	0x3d412910	0.0471583
137	0x3d815ae0	0.06316161
138	0x3dc356d5	0.09538046
139	0x3d5c892f	0.053841766
140	0xbe1022ae	-0.14075729
141	0xbb34c179	-0.002758114
142	0xbe048391	-0.12940814
143	0xbd979846	-0.07402091
144	0x3d7ad415	0.061237413
145	0x3cb39ee1	0.021926345
146	0xbbec4844	-0.007210763
147	0x3d9422b9	0.07233185
148	0xbdfe7d92	-0.124262944
149	0xbd0ef20d	-0.034898806
150	0x3d90f449	0.07077844
151	0x3e0ff483	0.14058118
152	0xbd9088b4	-0.07057324
153	0x3e03a5cd	0.12856217
154	0xbe12c5e9	-0.14333309
155	0x3d8d7691	0.0690738
156	0xbce1ac97	-0.027548118
157	0xbd0657cf	-0.032798585
158	0x3defec1f	0.117149584
159	0xbd0c3bcb	-0.03423671
160	0xbe95c8a4	-0.2925464
161	0xbd5fe349	-0.054660115
162	0x3cbf8432	0.023378465
163	0x3db4fa2e	0.088367805
164	0x3ccb8cbe	0.024847385
165	0x3e69fc5c	0.22850174
166	0x3c12c63e	0.008958397
167	0xbe1b5bce	-0.1517174
168	0xbdb3a8e9	-0.087724514
169	0xbd1ec972	-0.038766332
170	0xbdcc9141	-0.099886425
171	0xbc55cf2f	-0.013049885
172	0xbd4b46d2	-0.049628086
173	0x3c119ecc	0.008887958
174	0x3df5a786	0.11994843
175	0xbc190d3c	-0.009341534
176	0x3cfe8d46	0.031073224
177	0xbe5d7b13	-0.2162898
178	0x3bc69069	0.0060596955
179	0xbd090e8d	-0.033461142
180	0xbd2f2edb	-0.042769294
181	0xbd8e4a0a	-0.069477156
182	0x3de2e31f	0.11078476
183	0x3d814527	0.06312018
184	0x3c9fcc26	0.019506525
185	0xbc2db877	-0.010603062
186	0x3e3bfdf4	0.18358594
187	0x3d18c80a	0.037300147
188	0x3db9ac31	0.09066046
189	0xbd5c57c8	-0.053794652
190	0x3cc3adb2	0.023886535
191	0xbda7fa22	-0.08202006
192	0x3da6a6fd	0.08137319
193	0xbaea4d27	-0.0017875776
194	0x3bbb3a81	0.0057137613
195	0x3e20e232	0.15711287
196	0x3c2fb9fa	0.010725493
197	0xbe41b0f8	-0.18915164
198	0x3e68b916	0.22726855
199	0x3decde8c	0.11565885
200	0x3e0fc89b	0.14041369
201	0xbd14a39e	-0.03628885
202	0xbd8a31fc	-0.06747815
203	0xbacfd4d4	-0.0015856274
204	0x3d5ae672	0.053442426
205	0xbe71552d	-0.23567648
206	0xbe526104	-0.20544821
207	0xbbefaee1	-0.0073145484
208	0xbd4bf757	-0.04979643
209	0x3ce1b29e	0.027550992
210	0xbd20582b	-0.039146584
211	0xbd97ee0e	-0.07418452
212	0x3de0cb9b	0.10976335
213	0x3d427ace	0.047480397
214	0x3df94594	0.12171474
215	0x3d762854	0.060097054
216	0xbdd8ba17	-0.10582369
217	0xbe0c373e	-0.13692948
218	0xbe16c6fe	-0.14724347
219	0xbc8b9a04	-0.017041214
220	0x3db419b5	0.08793966
221	0xbe24cf73	-0.1609476
222	0xbd68d001	-0.056838993
223	0x3d21a66c	0.039465353
224	0xbd252045	-0.040313978
225	0x3daaa661	0.083325155
226	0x3d87cc1c	0.06630728
227	0x3cf40ac1	0.029790284
228	0xbd40bddf	-0.047056075
229	0x3dd66cd2	0.104699746
230	0xbde80ceb	-0.11330589
231	0xbd4b52c6	-0.049639486
232	0xbbd16dc5	-0.0063912594
233	0x3c9a973f	0.018870948
234	0xbe60bb92	-0.21946552
235	0xbda2985d	-0.07939217
236	0x3dda3841	0.10655261
237	0xbd8141a5	-0.06311349
238	0x3e54e578	0.2079066
239	0xbe4c4faf	-0.19952272
240	0x3e009d75	0.12560065
241	0x3d2f09ce	0.04273396
242	0xbd6c8fbd	-0.057754267
243	0xbe3d4ceb	-0.18486373
244	0xbca13e31	-0.019682975
245	0xbd3fe5ac	-0.04684989
246	0x3dee44d2	0.1163422
247	0xbe5ae409	-0.21376051
248	0xbe2f2bcd	-0.17106552
249	0xbe36efd6	-0.17864928
250	0x3d1c5541	0.038167242
251	0xbde930d9	-0.1138627
252	0x3de8abd0	0.11360896
253	0xbe20d1e2	-0.15705064
254	0xbda84a08	-0.08217245
255	0x3ce65385	0.028115997

lstm.bias_ih_l0 f4 [256]
0	0xbcbdcab0	-0.023167938
1	0x3ce168da	0.027515817
2	0x3b8171b2	0.003950321
3	0xbceb4c52	-0.028722916
4	0xbd401612	-0.046896048
5	0x3dd334da	0.10312815
6	0x3d4e840a	0.05041889
7	0x3e33e41f	0.1756749
8	0x3e1e4d48	0.15459168
9	0x3c6a4931	0.014299677
10	0x3df436c5	0.11924509
11	0x3d5a7796	0.053336702
12	0x3de19d7b	0.11016365
13	0xbd62ab6b	-0.05533926
14	0x3bf24c8e	0.00739438
15	0x3d8df18c	0.06930837
16	0x3d50913b	0.050919753
17	0x3cba85d8	0.0227689
18	0x3e0eb40f	0.13935874
19	0x3e187677	0.14888941
20	0xbdea7453	-0.11447968
21	0x3d2a2a45	0.041544218
22	0x3c6767f8	0.014123909
23	0x3dde153e	0.108438954
24	0xbdc8fd03	-0.09813883
25	0x3df80917	0.12111109
26	0x3cfe7b72	0.031064723
27	0x3d6efd58	0.058347076
28	0xbcd4fae7	-0.025998546
29	0x3d166007	0.036712673
30	0x3daa0dac	0.08303389
31	0x3dedd29e	0.11612438
32	0xbce383d0	-0.027772814
33	0x3dec3fd4	0.11535612
34	0x3bd7aeac	0.006582102
35	0x3e1d26a8	0.15346777
36	0xbba2d88e	-0.004969663
37	0x3db0d923	0.086351655
38	0xbdca60cf	-0.09881746
39	0x3d99497e	0.07484721
40	0xbcd39dde	-0.025832113
41	0xbd4d29e0	-0.050088763
42	0x3d0a630b	0.03378586
43	0x3b09b6dd	0.0021013536
44	0x3e0cf3e9	0.1376492
45	0x3dd4ebae	0.10396515
46	0x3e1a7c8d	0.15086575
47	0xbd572a84	-0.05253078
48	0x3e3c01f9	0.18360128
49	0x3e3a8dc3	0.1821814
50	0xbcf5814d	-0.029968882
51	0xbdaa91bc	-0.08328578
52	0x3e4757b8	0.19467056
53	0x3dfe4be7	0.12416821
54	0x3db8f8b3	0.090318106
55	0xbe0133c7	-0.12617408
56	0x3c6a4214	0.014297981
57	0x3de2d5f1	0.11075962
58	0xbd32779b	-0.043571096
59	0x3da3635a	0.07977934
60	0x3d8a5967	0.067553334
61	0xbc8d0018	-0.017211959
62	0xbd5b4492	-0.05353219
63	0xbd6f17d3	-0.05837233
64	0x3dd4e0da	0.103944495
65	0x3d2091d7	0.039201584
66	0x3d697f33	0.057006072
67	0xbbff0647	-0.0077827307
68	0xbd991145	-0.07473997
69	0x3d6d0456	0.057865463
70	0xbdc0beba	-0.09411378
71	0x3da90926	0.08253698
72	0x3c8a19e7	0.016858054
73	0x3e0fc3e1	0.14039566
74	0xbc6ae5bc	-0.0143369995
75	0x3c00ad39	0.0078537995
76	0xbd8610c5	-0.06546167
77	0x3dd2a650	0.10285628
78	0xbccaf429	-0.024774628
79	0xbc46ae41	-0.012126506
80	0xbe1dcd70	-0.154104
81	0x3dc0d1d6	0.09415023
82	0x3ddd0e58	0.107937515
83	0xbc5adfa3	-0.013358983
84	0xbd3c4ee8	-0.04597369
85	0xbd26eaa6	-0.040751122
86	0xbd496e30	-0.04917735
87	0xbdfad220	-0.122471094
88	0xbcc07000	-0.023490906
89	0x3dde4f7f	0.108550064
90	0xbdb8e263	-0.09027555
91	0x3e098b37	0.13432012
92	0xbd08eb86	-0.033427738
93	0xbd31a08f	-0.04336601
94	0xbe040c9c	-0.12895435
95	0x3e16ba78	0.1471957
96	0xbc1fa712	-0.0097444225
97	0x3dd11092	0.10208239
98	0x3deb77fa	0.11497493
99	0x3e34bca7	0.1765009
100	0xbdbbb0bf	-0.09164571
101	0x3d46c276	0.048525296
102	0x3db65299	0.08902473
103	0xbd1d5cc1	-0.038418535
104	0xbdea1bd7	-0.11431091
105	0xbc3a3b56	-0.011366686
106	0x3da973ef	0.08274066
107	0xbd5938e5	-0.053032774
108	0xbdd79414	-0.105262905
109	0x3d515a4c	0.051111504
110	0x3e1d210a	0.15344635
111	0xbd949cbe	-0.07256459
112	0xbd15790d	-0.036492396
113	0x3d760a5c	0.060068473
114	0x3e1eb320	0.15498018
115	0x3d0c4bb4	0.034251884
116	0x3df746c3	0.120740436
117	0x3c415508	0.011800058
118	0x3da195a7	0.07889872
119	0xbde11e79	-0.1099214
120	0xbad8b9b6	-0.0016534838
121	0xbd99fa8f	-0.075184934
122	0x3e15201a	0.14563027
123	0x3d80fe98	0.0629856
124	0x3ba50c22	0.0050368467
125	0xbcb7d8a5	-0.022442171
126	0x3d0a5cb4	0.033779815
127	0x3d5421df	0.051790114
128	0x3d46163d	0.04836105
129	0xbc631306	-0.013859516
130	0xbdac9861	-0.084275015
131	0xbdeff451	-0.117165215
132	0xbe1895df	-0.14900921
133	0xbd4ec2fb	-0.050478917
134	0xbd046e4a	-0.032331742
135	0x3c82d2cf	0.015969662
136	0x3db5105a	0.088410094
137	0x3cf77dbe	0.030211326
138	0x3cff96a5	0.031199763
139	0x3d957ad6	0.0729882
140	0x3e0e6c24	0.1390844
141	0x3e179ab0	0.14805102
142	0xba8b1d24	-0.0010613543
143	0x3d8ec0a7	0.06970339
144	0xbdaba44d	-0.08380947
145	0x3d8ad72c	0.06779322
146	0x3da398c5	0.07988123
147	0xbe1dd266	-0.15412292
148	0xbdee3f35	-0.116331495
149	0x3d150544	0.036381975
150	0x3dfd9ee8	0.123838246
151	0x3dab87cc	0.083755106
152	0xbdc82cfa	-0.097742036
153	0x3e13405e	0.14380023
154	0x3d13b739	0.036063407
155	0xbb70c7f4	-0.0036740275
156	0xbccb53b5	-0.024820188
157	0x3d9327e6	0.071853444
158	0x3d7717ce	0.060325436
159	0x3ca7bfaf	0.020477144
160	0xbe0ac22c	-0.13550633
161	0xbce835fc	-0.028346054
162	0xbe01c4f3	-0.12672786
163	0xbe0f9be2	-0.14024308
164	0xbcbef15f	-0.023308454
165	0xbc2355d9	-0.009969198
166	0xbdcff42d	-0.10153995
167	0xbdd66f32	-0.104704276
168	0x3e1cf0ea	0.15326276
169	0x3e13f0a4	0.14447266
170	0xbdf2e77b	-0.11860558
171	0xbdd8c20b	-0.10583886
172	0x3d8aeeb7	0.067838125
173	0x3b573770	0.003283944
174	0x3cd3c4b3	0.02585063
175	0xbcb561a2	-0.022141282
176	0x3cd5f795	0.026119033
177	0xbe25e99d	-0.16202398
178	0xbe0172cb	-0.12641446
179	0x3dbd1705	0.09232906
180	0x3dc07ee4	0.093992025
181	0x3d30cd12	0.04316432
182	0xbd8fdecd	-0.07024918
183	0xbdb0301e	-0.086029276
184	0xbd411e80	-0.047148228
185	0xbda8112c	-0.082064
186	0xbdd27ab8	-0.10277313
187	0x3d8fdba3	0.07024314
188	0xbda65d25	-0.08123235
189	0xbe0b76de	-0.13619563
190	0xbc984359	-0.018586801
191	0x3dd802ba	0.10547395
192	0x3c67ba66	0.014143562
193	0xbdd2131b	-0.1025755
194	0x3dc63800	0.0967865
195	0x3cd6599c	0.026165776
196	0x3df4b216	0.1194803
197	0xbd4a70e7	-0.04942408
198	0x3e25198e	0.1612303
199	0x3cf0fe89	0.029418247
200	0x3e1efef6	0.15526947
201	0x3db8585f	0.090012304
202	0x3e0c36cd	0.1369278
203	0x3db6ed61	0.08931995
204	0xbce933da	-0.028467108
205	0x3d321ab6	0.043482505
206	0x3e12757e	0.14302632
207	0xbd881577	-0.06644719
208	0x3d6f7106	0.058457397
209	0x3c50731e	0.012722759
210	0x3df4ca1d	0.119526125
211	0xbd8cceed	-0.068754055
212	0xbdc15468	-0.09439927
213	0x3dabc4cd	0.08387146
214	0xbabf7f57	-0.0014610094
215	0xbc6262a0	-0.013817459
216	0x3cc32336	0.0238205
217	0x3e2dd375	0.16975196
218	0xbdcace13	-0.09902587
219	0xbc9a7139	-0.018852817
220	0xbcef4d38	-0.029211625
221	0xbadba296	-0.0016756828
222	0xbd259e71	-0.040434305
223	0x3df267ec	0.11836228
224	0x3da160fc	0.078798264
225	0x3dda0d08	0.10647017
226	0x3c39f3ad	0.011349601
227	0x3e1ac4d7	0.15114151
228	0x3b8b89f2	0.0042583877
229	0xbd51a63f	-0.051183935
230	0xbd8fe02a	-0.07025178
231	0x3a47f7c7	0.0007628169
232	0xbcc68a7d	-0.024235958
233	0x3dbe82cf	0.093022935
234	0x3d8fc807	0.07020574
235	0x3bbaf964	0.005705999
236	0xbd509ae4	-0.050928965
237	0x3e357a44	0.17722422
238	0x3e63c776	0.22244057
239	0xbcd37988	-0.025814787
240	0x3e3614fe	0.17781445
241	0x3d2b98d8	0.04189381
242	0xbc93722b	-0.017998775
243	0x3d675437	0.056476798
244	0xbcf12b7e	-0.029439684
245	0xbdc93280	-0.09824085
246	0x3d25c74a	0.04047326
247	0x3dd8fefc	0.105955094
248	0x3e4e50b1	0.20147969
249	0x3e05031e	0.1298947
250	0x3dfd72fb	0.123754464
251	0x3d84d05c	0.06485054
252	0x3c1b99a6	0.009497082
253	0xbce9adac	-0.028525196
254	0x3e2fcde6	0.17168388
255	0x3e2665e2	0.16249803

lstm.bias_hh_l0 f4 [256]
0	0xbda0c693	-0.07850375
1	0xbdd2fa36	-0.1030163
2	0x3ca2f220	0.019890845
3	0x3c84a981	0.016194107
4	0xb9d0acb8	-0.00039801537
5	0x3e07c40a	0.13258377
6	0x3b860b25	0.004090684
7	0x3e314185	0.1731015
8	0x3d2228f1	0.039589826
9	0x3d1b2019	0.037872408
10	0x3d310179	0.043214295
11	0x3d138e96	0.036024652
12	0x3cdf9436	0.027292352
13	0xbc884532	-0.016634557
14	0xbd22874a	-0.039679803
15	0x3d987e00	0.074459076
16	0x3d6b10cb	0.057389062
17	0x3c039152	0.0080302525
18	0x3d6410f2	0.055680223
19	0xbb844306	-0.00403631
20	0xbe173a30	-0.1476829
21	0x3df514ac	0.119668335
22	0x3d2d23ae	0.042270355
23	0xbd653fc1	-0.055969004
24	0x3dd68cad	0.104760505
25	0x3d196832	0.037452884
26	0xbde386a5	-0.11109666
27	0xbdbe40dd	-0.092897154
28	0xbcb3055d	-0.021853143
29	0xbda37969	-0.079821415
30	0x3d1d4805	0.03839876
31	0xbd7e0357	-0.062014904
32	0xbd701069	-0.0586094
33	0x3e1f55bb	0.15560047
34	0x3c0ea2a2	0.008705767
35	0x3db60fd7	0.0888974
36	0xbd178c0f	-0.036998805
37	0x3d46e56c	0.048558637
38	0xbda0290b	-0.07820328
39	0xbd0cc4a0	-0.034367204
40	0xbc9ab822	-0.01888663
41	0xbce5945f	-0.02802485
42	0x3de1057f	0.109873764
43	0x3dc9be64	0.09850767
44	0x3dec0b8c	0.1152564
45	0xbd56eff3	-0.052474927
46	0xbc73208b	-0.014839302
47	0xbb64efab	-0.0034932892
48	0x3e54e962	0.20792153
49	0x3d8d51cd	0.06900368
50	0x3dd36ca1	0.10323454
51	0x3dad9e38	0.084774435
52	0x3e36c0ae	0.17846939
53	0xbafc73a0	-0.0019260533
54	0x3d873e4a	0.066036776
55	0xbdaf1afd	-0.085500695
56	0x3df38f28	0.11892539
57	0x3d903f5b	0.07043334
58	0xbc243d49	-0.010024377
59	0xbd770d7e	-0.0603156
60	0xbd8c4f96	-0.06851117
61	0x3cb3d5f0	0.0219526
62	0x3d2ad496	0.041706644
63	0x3dcb5523	0.09928348
64	0xbd7c2046	-0.061554216
65	0x3dded848	0.10881096
66	0xbd80c010	-0.06286633
67	0x3e083c3c	0.13304228
68	0x3db18005	0.08666996
69	0x3dd619c7	0.104541354
70	0xbd8ea638	-0.069652975
71	0xbd4711d5	-0.04860099
72	0xbcff079a	-0.031131554
73	0xbc955110	-0.01822713
74	0x3ccb658c	0.024828695
75	0x3c9f6bd4	0.019460596
76	0x3d96e6f5	0.0736827
77	0x3e12715c	0.14301056
78	0x3d3f2738	0.04666826
79	0x3d03cf7b	0.03218029
80	0xbd9cf896	-0.076646015
81	0xbd45a495	-0.04825266
82	0x3dcb832e	0.0993713
83	0xbd48ea0c	-0.04905133
84	0xbd21ce3a	-0.039503314
85	0xbdf68b24	-0.12038258
86	0xbc7da91c	-0.015482213
87	0xbe01d651	-0.12679411
88	0xbe0396af	-0.1285045
89	0x3dbce3bf	0.092231266
90	0xbd9252b9	-0.07144684
91	0x3d1b2cac	0.0378844
92	0x3dc3abe8	0.09554273
93	0x3cb7fb02	0.022458557
94	0xbc3a602e	-0.01137547
95	0xbcea74e3	-0.028620189
96	0x3dbbfe6d	0.09179387
97	0x3e1a031e	0.15040252
98	0x3d67a54e	0.05655413
99	0xbcc6400b	-0.02420046
100	0x3dc6e517	0.09711664
101	0x3dc4beae	0.09606682
102	0x3db89ba3	0.0901406
103	0x3ba55ef6	0.0050467206
104	0xba845e2d	-0.0010098867
105	0x3d2706b8	0.040777892
106	0x3de64e95	0.11245457
107	0xbcb6e64a	-0.022326607
108	0x3ce90f2e	0.028449621
109	0x3df4bd92	0.1195022
110	0x3dca7519	0.09885616
111	0xbdc2e350	-0.09516013
112	0xbdba7df7	-0.09106057
113	0x3d8418cb	0.064500414
114	0x3e12e9dd	0.14347024
115	0xbaa715a8	-0.0012747543
116	0x3e0135e4	0.12618214
117	0x3d137115	0.035996515
118	0x3dc593af	0.09647309
119	0xbe03f7df	-0.12887524
120	0x3c99b954	0.01876513
121	0x3d76ecb2	0.060284324
122	0x3da45450	0.08023894
123	0x3d9c3344	0.07626966
124	0xbdcb2d1c	-0.09920713
125	0x3e0ccfd3	0.13751154
126	0xbd11db24	-0.03560938
127	0xbdfaff52	-0.1225573
128	0x3d6d0289	0.057863746
129	0x3d21c1eb	0.039491575
130	0x3dc04701	0.09388543
131	0x3d809bf7	0.06279748
132	0xbb8c03b3	-0.004272902
133	0x3d84daf0	0.064870715
134	0x3e17407a	0.1477069
135	0x3dc339f1	0.09532536
136	0x3d3950e2	0.04524315
137	0xbc5acdb6	-0.013354709
138	0xbdee514d	-0.11636601
139	0x3d7ea21d	0.062166322
140	0xbd5bbcd8	-0.053646892
141	0x3d4e1c24	0.050319806
142	0xbe131673	-0.14364032
143	0xbe216644	-0.15761667
144	0xbce95304	-0.028481968
145	0xbdfc4dfe	-0.12319563
146	0x3d8f9163	0.07010152
147	0xbb9f5b38	-0.004863169
148	0xbd36238a	-0.044467486
149	0x3e2f0eed	0.17095537
150	0x3e00dc11	0.12583949
151	0x3d6192ad	0.05507152
152	0xbd8692a7	-0.065709405
153	0xbd9affb3	-0.07568302
154	0x3a2ce048	0.00065947
155	0x3dda97a0	0.106734514
156	0xbdce7a9c	-0.1008198
157	0xbdc6b816	-0.0970308
158	0x3bf6f6ea	0.0075367587
159	0x3d5fc5d4	0.054632023
160	0x3d2420ab	0.040070217
161	0x3b81f9ea	0.0039665597
162	0xbd34a76a	-0.04410497
163	0xbd839616	-0.06425111
164	0xbd8dccad	-0.069238044
165	0x3dcd5ab9	0.100270696
166	0xbdaa5acd	-0.083181
167	0xbdee7ba6	-0.11644678
168	0x3ca8f81a	0.020626117
169	0x3d0a7d37	0.03381082
170	0x3cf5487f	0.029941795
171	0x3b8efa76	0.0043633534
172	0x3de6e513	0.11274161
173	0xbc7d6bf4	-0.015467633
174	0x3d9ebadf	0.077504866
175	0xbd8fa15e	-0.070132
176	0xbdfab71a	-0.12241955
177	0xbde52443	-0.11188557
178	0x3dc47438	0.095924795
179	0xbd22f86b	-0.03978769
180	0xbc58ef00	-0.013240576
181	0x3c2c7d3d	0.010527906
182	0xbdec678b	-0.11543187
183	0x3c3d9c00	0.011572838
184	0xbdaa3f52	-0.08312859
185	0x3db766d8	0.08955163
186	0x3dccf6ae	0.10007988
187	0x3d9d03eb	0.07666763
188	0x3d83e568	0.0644024
189	0x3d5e5af0	0.054285944
190	0xbbce124d	-0.0062888027
191	0x3d38c153	0.045106243
192	0x3cc061ec	0.023484193
193	0xbd2a7697	-0.041617002
194	0x3d3383ab	0.04382674
195	0x3b0020f4	0.0019550892
196	0xbda85e49	-0.082211085
197	0x3d1c7d99	0.038205717
198	0xbc85479c	-0.016269498
199	0x3bad3122	0.005285398
200	0x3dc5e4ae	0.09662758
201	0xbbde7d2a	-0.006789823
202	0x3e23b1e7	0.15985833
203	0xba0042fa	-0.0004892793
204	0xbd90d303	-0.07071497
205	0x3d92b05d	0.07162545
206	0x3d612d57	0.05497488
207	0x3d89c7b1	0.06727541
208	0x3d64bb10	0.05584246
209	0xbd289809	-0.041160617
210	0xbdb2c3ab	-0.08728727
211	0x3dc8dd93	0.09807887
212	0xbd3f9521	-0.04677308
213	0x3e1ab078	0.1510638
214	0xbceefa94	-0.02917222
215	0x3e0309e6	0.12796745
216	0x3cc7478e	0.024326112
217	0x3d1a5c9b	0.03768597
218	0xbd383681	-0.044973854
219	0x3ddcba7a	0.10777755
220	0x3dfe8be8	0.12429029
221	0xbde39830	-0.11113012
222	0xbd0f3cfa	-0.03497026
223	0xbd0dd028	-0.03462234
224	0x3d2d562c	0.042318508
225	0xbc360a2a	-0.011110822
226	0xbd0edd79	-0.03487918
227	0x3db6d572	0.0892743
228	0x3d9c7988	0.07640368
229	0xbcaffed7	-0.021483822
230	0x3da53e6a	0.08068545
231	0x3e18eb7d	0.14933582
232	0x3c3f1734	0.011663247
233	0x3e0ce3f5	0.13758834
234	0x3de6994e	0.11259709
235	0x3d8de96e	0.06929289
236	0xbc135d84	-0.008994464
237	0x3e34561a	0.1761097
238	0x3e485a7e	0.1956577
239	0xbd7507e6	-0.059821986
240	0x3de09a93	0.10966983
241	0xbcf739ab	-0.030178865
242	0xbd0ca89c	-0.034340486
243	0xbd672795	-0.056434233
244	0x3d8dd892	0.06926073
245	0xbc976c67	-0.018484307
246	0x3caa8b54	0.02081839
247	0x3de5131a	0.11185284
248	0x3e029f2d	0.12756033
249	0xbd8ec9d3	-0.06972089
250	0xbac260e0	-0.0014829896
251	0xbd8ceaa3	-0.06880691
252	0xbd8418ad	-0.06450019
253	0x3df1964c	0.11796245
254	0x3ddd1f89	0.107970305
255	0x3cb20e04	0.021735199

lstm.weight_ih_l1 f4 [256, 64]
0	0x3dc7ae91	0.09750093
1	0xbd80c411	-0.06287397
2	0x3e241962	0.16025308
3	0x3c9a1c62	0.018812362
4	0xbdb04e3d	-0.08608673
5	0xbd8047b5	-0.06263677
6	0x3c8b4741	0.01700175
7	0x3e24009b	0.16015856
8	0x3d82f273	0.063939
9	0xbd1e0c1f	-0.03858578
10	0x3d82362a	0.06357987
11	0x3de3af27	0.11117392
12	0x3d15787a	0.03649185
13	0x3d14e648	0.036352426
14	0x3dd0fe3c	0.10204741
15	0x3dc3fb78	0.09569448
16	0x3d0b0b17	0.033946123
17	0x3dce593f	0.10075616
18	0x3d860525	0.0654395
19	0x3c087841	0.008329452
20	0xbdab44c9	-0.08362729
21	0x3d891921	0.06694246
22	0x3ca88f96	0.02057628
23	0x3d937761	0.07200504
24	0xbc644e89	-0.01393474
25	0x3baf8157	0.0053559947
26	0x3de8f38d	0.113745786
27	0xbd13fac3	-0.036127817
28	0xbe2dbd2a	-0.16966692
29	0x3d68b090	0.056809008
30	0x3c59257e	0.013253568
31	0x3db26b44	0.087118655
32	0xbccca8c2	-0.024982814
33	0xbdc1a207	-0.094547324
34	0x3e0390d2	0.12848213
35	0xbca673b3	-0.020318842
36	0x3c9a23cf	0.018815903
37	0x3e3c633b	0.18397228
38	0x3d2b890a	0.041878738
39	0x3d861115	0.06546227
40	0x3d4aa0d5	0.049469788
41	0x3e1105c0	0.1416235
42	0x3e29b34e	0.16572306
43	0x3dfa60cd	0.122254945
44	0x3db9204b	0.090393625
45	0x3dddcb18	0.10829753
46	0xbd15adf0	-0.036542833
47	0xbe0752ad	-0.13215132
48	0xbe141e54	-0.14464694
49	0x3d819bbc	0.06328532
50	0xbd200e89	-0.03907636
51	0x3de0d6b5	0.10978452
52	0x3d9beed9	0.07613916
53	0x3d90bd62	0.07067372
54	0xbdb993fc	-0.09061429
55	0xbd6db9f5	-0.05803867
56	0xbd5bd503	-0.05366994
57	0xbd8741a3	-0.06604316
58	0x3c1448ec	0.009050589
59	0xbd772cfc	-0.060345635
60	0x3dbda924	0.09260777
61	0xbd87cd32	-0.06630935
62	0x3e5a861c	0.21340221
63	0x3e23f636	0.16011891
64	0x3c95ca2b	0.018284878
65	0x3e292988	0.16519749
66	0xbd6d828c	-0.057985827
67	0xbe25ce8d	-0.16192074
68	0xbe0b1291	-0.13581301
69	0x3d3d8f77	0.046279397
70	0x3b8eb798	0.004355382
71	0xbba84835	-0.005135561
72	0xbe03730c	-0.12836856
73	0xbd308e53	-0.04310448
74	0xbc9db3c6	-0.019250762
75	0x3de41331	0.11136473
76	0x3c9c4a58	0.019078419
77	0x3c561f8d	0.013069046
78	0x3da7d1db	0.08194324
79	0xbd9f9db3	-0.077937506
80	0xbdf3ba3f	-0.11900758
81	0xbb9aa6c5	-0.0047195875
82	0x3dfcc4ef	0.123422496
83	0xbdb7460f	-0.089489095
84	0xbdd9ffc8	-0.106444895
85	0x3db435b6	0.08799307
86	0x3d80ce70	0.06289375
87	0xbd912294	-0.070866734
88	0xbe1ac29d	-0.15113302
89	0xbe2ae12a	-0.16687456
90	0xbdb397f1	-0.08769215
91	0xbd0452ed	-0.032305647
92	0xbd26a367	-0.040683176
93	0x3b482662	0.0030540456
94	0xbdd5cb2b	-0.10439142
95	0x3c169f44	0.009193245
96	0x3d7ca9dc	0.061685428
97	0x3a534f30	0.0008060811
98	0xbcff21ac	-0.031143986
99	0x3deab33e	0.11459969
100	0xbd5edd3f	-0.054410215
101	0xbbe7a1f0	-0.007068865
102	0xbda42060	-0.080139875
103	0xbce09b5f	-0.027417837
104	0x3bac750a	0.0052629756
105	0xbd8a1dd5	-0.06743971
106	0xbe369d84	-0.17833525
107	0x3d203df1	0.039121572
108	0xbdf42e46	-0.119228885
109	0x3d419ad0	0.04726678
110	0x3dd1ad9b	0.10238191
111	0x3b3f4f1a	0.0029191435
112	0x3e344a44	0.17606455
113	0x3d8f324e	0.06992017
114	0x3db66bb4	0.089072615
115	0x3d433dd9	0.047666404
116	0xbdc582cc	-0.09644088
117	0x3d1d7464	0.038441077
118	0xbdde7ddb	-0.10863849
119	0xbd71633a	-0.05893252
120	0xbd705023	-0.058670174
121	0x3ce303d4	0.027711786
122	0xbd1bc19e	-0.038026445
123	0xbdc3b71c	-0.0955641
124	0xbd33fd16	-0.043942533
125	0x3cbafa84	0.022824533
126	0xbe22491b	-0.158482
127	0xbba828a2	-0.005131797
128	0xbc29b7b8	-0.010358743
129	0x3d8316f3	0.064008616
130	0xbcd2425a	-0.025666405
131	0xbda40397	-0.08008497
132	0x3c74d0ab	0.014942328
133	0x3cc4539a	0.023965646
134	0x3da1cd43	0.07900479
135	0x3e3fda44	0.18735605
136	0x3d2f0a02	0.042734154
137	0x3d0ca816	0.034339987
138	0xbe1fec77	-0.15617548
139	0x3c6669c7	0.014063305
140	0x3db8bc06	0.090202376
141	0x3d8438b9	0.064561315
142	0xbd860dde	-0.06545614
143	0xbd84f052	-0.0649115
144	0xbd5edea9	-0.054411564
145	0xbd10e134	-0.03537102
146	0xbe0369c7	-0.1283332
147	0xbc5b0848	-0.013368674
148	0x3cd863fe	0.026414867
149	0xbbd4754b	-0.006483709
150	0xbca9def9	-0.020736204
151	0xbd8bcce9	-0.06826193
152	0xbd4a7c37	-0.049434867
153	0x3de01d21	0.10943056
154	0x3d4a297b	0.049355965
155	0x3df1b0b8	0.118012846
156	0xbdc3f6a2	-0.09568526
157	0xbc50bb11	-0.012739913
158	0x3c5ddecc	0.013541888
159	0x3d52968f	0.051413115
160	0xbdc96893	-0.09834399
161	0x3bc35e5f	0.0059621776
162	0x3bb449dc	0.005501969
163	0xbe1eb395	-0.15498193
164	0xbe23a967	-0.1598259
165	0x3d4e414d	0.050355244
166	0xbd8872db	-0.06662532
167	0xbe2c554c	-0.16829413
168	0x3d5002a4	0.05078377
169	0xbd25f92b	-0.04052083
170	0xbd953e88	-0.072873175
171	0x3e000a11	0.1250384
172	0x3dd27b52	0.10277428
173	0x3e308884	0.17239577
174	0x3dfd35e7	0.12363797
175	0xbdaa5b2e	-0.083181724
176	0x3d243ef3	0.040099096
177	0xbc35320a	-0.0110592935
178	0x3c35f0c2	0.011104764
179	0xbd5bfe9c	-0.05370961
180	0xba59472e	-0.00082884997
181	0x3d9da1de	0.07696889
182	0xbd7e3415	-0.062061388
183	0xbd4cfff7	-0.050048795
184	0xbc076b57	-0.008265338
185	0x3d0d5089	0.034500632
186	0xbd203459	-0.039112423
187	0x3da24205	0.079227485
188	0xbe0dd64d	-0.1385128
189	0xbca97ae3	-0.02068848
190	0x3e0e3633	0.13887863
191	0x3c0f7f1f	0.008758335
192	0xbd9fec12	-0.07808699
193	0x3d049056	0.032364212
194	0xbd5c0629	-0.053716812
195	0xbc54ae9a	-0.012981081
196	0xbdbd4c0a	-0.09243019
197	0xbe0159a5	-0.12631853
198	0xbd9edae8	-0.07756597
199	0x3da53462	0.08066632
200	0x3d34e664	0.04416503
201	0xbd406915	-0.046975214
202	0xbe1fa76d	-0.15591212
203	0x3d9042c6	0.07043986
204	0x3e0c49ba	0.137
205	0xbc83ba89	-0.016080158
206	0x3c73bc75	0.014876475
207	0x3d4ee1b0	0.0505082
208	0x3e16f046	0.14740095
209	0x3dc30d8a	0.09524067
210	0x3dacbc9b	0.08434411
211	0x3dd2bc44	0.10289815
212	0xbda12cb8	-0.078698575
213	0xbd9d18cd	-0.07670746
214	0xbde6bb9a	-0.11266251
215	0x3d83856e	0.06421934
216	0x3cc7dee7	0.02439828
217	0x3e068315	0.13135941
218	0xbcebb168	-0.028771117
219	0xbde8fd43	-0.11376431
220	0xbe1a0cae	-0.150439
221	0x3d76defc	0.06027125
222	0xbd07b852	-0.033134766
223	0x3e0bf527	0.13667737
224	0x3cab41b3	0.020905351
225	0x3c20e6d1	0.009820656
226	0xbe13cd1b	-0.1443371
227	0xbd20dc70	-0.039272726
228	0x3d465dcd	0.0484293
229	0x3d922f4e	0.07137929
230	0xbda9f2a8	-0.08298236
231	0xbcfb2bed	-0.030660594
232	0xbc75f4be	-0.015011964
233	0x3c5deab2	0.013544725
234	0xbd806cb6	-0.06270735
235	0xbd3ad419	-0.04561243
236	0x3d8c921e	0.06863807
237	0xbd3beca0	-0.04587996
238	0xbcfe913d	-0.031075114
239	0xbe3f8af6	-0.18705353
240	0xbda8af64	-0.08236578
241	0x3cece2e8	0.028916791
242	0xbd492413	-0.04910667
243	0x3da8fda4	0.08251503
244	0x3b9a13e8	0.00470208
245	0x3e463bcc	0.19358748
246	0x3d2e7100	0.042588234
247	0xbd9572f7	-0.072973184
248	0x3da623e9	0.08112318
249	0x3d3d5db7	0.04623195
250	0x3d4aa02c	0.049469158
251	0x3cfd04c0	0.030886054
252	0x3dfc16e5	0.12309054
253	0x3dbdbb2f	0.09264218
254	0x3d9fb076	0.07797329
255	0x3e35b9ae	0.17746612

lstm.weight_hh_l1 f4 [256, 64]
0	0xbe13943d	-0.14412017
1	0x3d2424f8	0.04007432
2	0xbdcb8440	-0.09937334
3	0x3c5477ff	0.012968062
4	0x3b1bbee7	0.002376491
5	0x3c72bfc4	0.014816228
6	0xbdc5d1a3	-0.09659126
7	0x3d878efb	0.06619068
8	0x3ccc6c7e	0.024954077
9	0x3d9caf03	0.07650568
10	0xbb958128	-0.0045625158
11	0xbdd32a58	-0.10310811
12	0xbd410ded	-0.04713242
13	0xbdb11c4d	-0.08647976
14	0x3bb3d546	0.0054880707
15	0x3d31aede	0.043379657
16	0x3d3ba52c	0.045811817
17	0xbb0ba42b	-0.0021307569
18	0xbd72a074	-0.05923505
19	0x3d78cf8f	0.06074482
20	0x3d72f99e	0.059320085
21	0xbdd33819	-0.10313434
22	0xbc876691	-0.0165284
23	0x3dbb91e1	0.091586836
24	0x3d74a69c	0.059729204
25	0x3b09955a	0.0020993561
26	0x3def5f92	0.116881505
27	0x3cd8555f	0.026407896
28	0x3c09c84c	0.008409571
29	0xbd283620	-0.041067243
30	0x3df58b83	0.119895004
31	0x3ce6a41f	0.02815443
32	0xbdcc6588	-0.09980303
33	0x3d2bdf49	0.04196099
34	0xbd92ae56	-0.07162158
35	0x3d005042	0.03132654
36	0x3de7d859	0.11320562
37	0xbdb78c47	-0.08962303
38	0xbde73342	-0.112890735
39	0x3db7732c	0.08957514
40	0x3d16d43d	0.0368235
41	0x3dc12e32	0.09432639
42	0x3d0ff741	0.03514791
43	0x3dd90b04	0.10597804
44	0xbda576b1	-0.08079279
45	0xbd55d587	-0.05220559
46	0x3dc784ef	0.09742152
47	0x3d1f77b5	0.03893252
48	0xbcd709bc	-0.026249759
49	0x3dc99ce3	0.09844377
50	0x3d593d8a	0.053037204
51	0xbcc4bf38	-0.024016961
52	0x3deb27f7	0.11482232
53	0xbd944d6a	-0.07241328
54	0x3dd51768	0.10404855
55	0x3c6a9f2f	0.014320179
56	0xbdfd74d0	-0.12375796
57	0x3c7e860e	0.015534891
58	0xbdadacaa	-0.08480199
59	0xbe01c1fb	-0.12671654
60	0xbd50b5aa	-0.0509545
61	0x3cf36d77	0.029715283
62	0x3e008222	0.12549642
63	0xbdc1e186	-0.09466843
64	0xbd819b7f	-0.06328487
65	0xbd1f75b9	-0.03893063
66	0x3df394da	0.118936256
67	0x3d9618a6	0.0732892
68	0x3e508d0f	0.2036631
69	0xbda8ecd3	-0.08248296
70	0x3c498c97	0.012301586
71	0xbd308874	-0.04309888
72	0x3d8e3017	0.06942766
73	0xbcdac053	-0.026703035
74	0xbe1be3db	-0.15223639
75	0xbcd43a72	-0.025906775
76	0xbd993ead	-0.074826576
77	0x3d1c8301	0.038210873
78	0x3dead9bc	0.11467311
79	0xbd12f963	-0.035882365
80	0x3e3e9f15	0.18615372
81	0x3d6ed519	0.058308695
82	0x3dab24ce	0.08356629
83	0xbd447794	-0.0479656
84	0xbe020962	-0.12698892
85	0x3d923e3e	0.07140778
86	0x3d2a16b9	0.041525576
87	0x3e21cb34	0.15800172
88	0xbdb06ace	-0.086141214
89	0x3c18e0c8	0.009330936
90	0x3ddd5e64	0.10809019
91	0x3e2c3f47	0.16821013
92	0x3cb1517a	0.021645296
93	0xbe227ac6	-0.15867147
94	0x3dfe3dd0	0.124141335
95	0x3d16ed9c	0.036847696
96	0x3d42c635	0.047552306
97	0xbcc17682	-0.02361608
98	0x3e307abc	0.1723432
99	0xbc4de22c	-0.012566131
100	0x3d4cbb1f	0.04998314
101	0x3d8f5eeb	0.07000526
102	0x3da6bfd4	0.08142057
103	0x3da9f11b	0.0829794
104	0xbd9bc62c	-0.07606158
105	0xbcc11bf7	-0.023572905
106	0xbc2647d3	-0.01014896
107	0xbdaab9a4	-0.083361894
108	0xbd465167	-0.048417475
109	0x3d7435c1	0.059621576
110	0x3ca81c87	0.020521415
111	0xbdb6df1f	-0.08929276
112	0xbd81d6fa	-0.06339832
113	0x3d475fc0	0.0486753
114	0x3d87d463	0.066323064
115	0xbd341499	-0.043964956
116	0xbcace8c6	-0.021107089
117	0xbd73c76c	-0.059516355
118	0x3ca0f47a	0.019647826
119	0xbdb53433	-0.08847847
120	0xbd5b17cb	-0.053489488
121	0x3c976cc3	0.018484479
122	0xbdd411dc	-0.10354969
123	0x3d197c10	0.03747183
124	0xbd978970	-0.07399261
125	0x3d6b0f36	0.057387553
126	0xbcd38dc5	-0.025824437
127	0x3dacfc51	0.08446563
128	0x3c98a9bb	0.018635621
129	0x3d3b2ef9	0.045699093
130	0xbe1fa7ad	-0.15591307
131	0x3df30a08	0.11867148
132	0x3d83faaa	0.06444295
133	0xbab7d1ec	-0.0014024354
134	0x3e08b449	0.13350023
135	0xbd297409	-0.041370425
136	0x3dff64ad	0.12470374
137	0x3b869ce3	0.004108058
138	0x3c5c2ebd	0.013438878
139	0xbe0cae65	-0.13738401
140	0x3e0b6ed5	0.13616498
141	0x3a999099	0.0011716067
142	0xbe06fec7	-0.13183127
143	0xbda25532	-0.07926406
144	0xbd046c26	-0.0323297
145	0x3e1c9508	0.15291226
146	0xbdef735b	-0.11691924
147	0x3bae7d85	0.0053250217
148	0x3d208e08	0.03919795
149	0xbe08b108	-0.13348782
150	0xbd86d74f	-0.065840356
151	0xbd1f6f41	-0.03892446
152	0xbdd5dda7	-0.104426675
153	0xbda92510	-0.08259022
154	0xbd4d14ea	-0.050068773
155	0xbd291f08	-0.04128936
156	0xbdf2b305	-0.118505515
157	0xbda4a568	-0.08039361
158	0xbdba4c8f	-0.09096634
159	0xbdef15ba	-0.11674066
160	0xbd83ac5d	-0.0642936
161	0xbd8a5124	-0.067537576
162	0x3d0be755	0.034156162
163	0x3d9cd30a	0.0765744
164	0x3b3ddbd3	0.0028970137
165	0x3cdd1c5e	0.026991066
166	0xbe48c905	-0.19607933
167	0x3d2d2a0e	0.042276435
168	0xbd920eee	-0.07131754
169	0xbd080614	-0.03320892
170	0x3e0f61b4	0.14002115
171	0x3da1bcb4	0.078973204
172	0xbbe7cb8d	-0.0070738257
173	0xbcfa45b4	-0.030550815
174	0x3cfbd0e0	0.030739248
175	0xbdc7b774	-0.09751788
176	0x3e1e41e2	0.1545482
177	0xbd84373b	-0.06455847
178	0x3d5a9bfe	0.053371422
179	0x3e08c6ae	0.1335704
180	0x3d673872	0.056450315
181	0x3df51040	0.1196599
182	0xbd2e338e	-0.042529635
183	0xbbc40f48	-0.005983267
184	0x3c7f430f	0.015579953
185	0xbd79b4ba	-0.06096337
186	0xbe115e18	-0.1419605
187	0xbc66276d	-0.014047486
188	0x3de0a8f7	0.109697275
189	0x3dc1194d	0.09428654
190	0x3d5f3e9d	0.054503072
191	0x3d85257b	0.065012895
192	0x3dc72fe2	0.0972593
193	0xbd957448	-0.072975695
194	0xbe0a1b3b	-0.1348695
195	0x3de68cef	0.1125735
196	0xbd80954c	-0.06278476
197	0x3c9d0878	0.019169077
198	0xbc9cb09a	-0.019127179
199	0x3d11104b	0.03541593
200	0x3c988f96	0.018623155
201	0x3dfc21df	0.12311148
202	0xbcab02eb	-0.020875415
203	0x3cace975	0.021107415
204	0xbd185b7b	-0.037196618
205	0x3dac78ca	0.08421476
206	0xb97f7873	-0.00024363566
207	0x3de93d26	0.11388616
208	0xbdf716ac	-0.12064871
209	0xbc7bedaf	-0.015376492
210	0x3dd37af3	0.10326185
211	0xbde1a9bc	-0.110187024
212	0xbd5643cb	-0.052310746
213	0x3d5ded82	0.054181583
214	0xbd631338	-0.05543825
215	0xbdabef0f	-0.08395206
216	0xbcf90ae5	-0.030400703
217	0x3daea94a	0.08528383
218	0x3c19b113	0.009380597
219	0xbd12f809	-0.035881076
220	0xbdf05af0	-0.11736095
221	0xbd2aaec6	-0.041670583
222	0x3d983bfa	0.074333146
223	0xbe1c5113	-0.15265302
224	0x3de7fa28	0.113270104
225	0xbca30b7d	-0.019902939
226	0x3dce7830	0.10081518
227	0x3ae7d656	0.0017687778
228	0xbdd65bd3	-0.10466733
229	0x3d6897d3	0.056785416
230	0xbe191928	-0.14951003
231	0x3c536fdb	0.012905086
232	0xbc9335e6	-0.017970037
233	0xbdb6ed7c	-0.08932015
234	0x3d80cc43	0.0628896
235	0xbd6e3d27	-0.05816379
236	0x3d9c1ca6	0.07622652
237	0xbcfca062	-0.030838195
238	0xbda1b5f6	-0.078960344
239	0xbdcdc179	-0.100466676
240	0xbd8fe937	-0.07026904
241	0x3e0135ac	0.1261813
242	0x3e025433	0.12727432
243	0x3d8325b0	0.06403673
244	0xbd9ec0da	-0.07751627
245	0x3ce0bbf3	0.027433371
246	0xbd849d8a	-0.06475361
247	0x3d9632f7	0.073339395
248	0x3dd4fc39	0.1039967
249	0x3d876b58	0.06612271
250	0x3c8d0aab	0.017217001
251	0xbca69f02	-0.020339493
252	0xbd64fdf5	-0.055906255
253	0xbd886f20	-0.066618204
254	0xbd81843e	-0.06324051
255	0x3d49ef24	0.049300328

lstm.bias_ih_l1 f4 [256]
0	0x3d12c2dc	0.035830364
1	0x3de766c3	0.11298897
2	0x3e00693f	0.12540148
3	0xbdc355cf	-0.09537851
4	0x3cb34c06	0.021886837
5	0x3d910598	0.07081145
6	0x3dd41e1e	0.10357307
7	0xbd97eea1	-0.07418562
8	0xbd461e28	-0.048368603
9	0xbd58ee97	-0.052961912
10	0x3d36dc08	0.044643432
11	0xbd9244d9	-0.07142038
12	0x3d7ba9a2	0.06144107
13	0xbd57ba10	-0.052667677
14	0x3cfed2c0	0.031106353
15	0x3d2620ac	0.040558502
16	0xbc04e6c8	-0.008111663
17	0xbdb9deb0	-0.090756774
18	0x3d4ee299	0.05050907
19	0x3dec065f	0.11524653
20	0xbbe4b851	-0.00697998
21	0x3d8aa6f0	0.06770122
22	0xbda9308f	-0.08261215
23	0x3b207180	0.0024481714
24	0xbc1edcde	-0.0096962135
25	0x3e12722a	0.14301363
26	0x3d664d5c	0.05622612
27	0xbd5ae322	-0.053439267
28	0x3db5f132	0.08883895
29	0x3d7a8f01	0.061171535
30	0x3d55e514	0.05222042
31	0x3df86d2b	0.12130197
32	0x3dd7aa4f	0.10530531
33	0xbc514e07	-0.012774951
34	0x3d452dd0	0.048139393
35	0x3d0a9b5d	0.033839572
36	0xbd453b91	-0.04815251
37	0x3dd4df1d	0.10394118
38	0x3d597652	0.053091355
39	0x3ded2851	0.11579955
40	0xbd298f72	-0.041396566
41	0xbcd3edcd	-0.025870228
42	0xbdd94f02	-0.10610773
43	0xbcc5da07	-0.024151815
44	0x3d98f4c4	0.0746856
45	0x3b37f901	0.0028072002
46	0x3d587f94	0.052856043
47	0x3d8acd13	0.06777396
48	0xbdda04de	-0.106454596
49	0x3e010302	0.12598804
50	0xbd91daa3	-0.0712178
51	0x3db6c2a9	0.08923847
52	0xbc8f1c75	-0.017469624
53	0xbdec5d28	-0.11541206
54	0x3c354441	0.011063636
55	0x3e1cbc57	0.15306221
56	0x3da76e77	0.08175366
57	0x3b8f4fab	0.004373511
58	0x3cd7855c	0.026308708
59	0x3d93f514	0.07224479
60	0xbdcd81e1	-0.10034538
61	0xbdc48da9	-0.09597332
62	0xbde15ed9	-0.11004419
63	0x3db5d0a9	0.088776894
64	0xbdff48d2	-0.12465061
65	0xbcf533ef	-0.02993199
66	0x3de77166	0.11300926
67	0xbdcc7109	-0.09982497
68	0xbaf763b8	-0.0018874323
69	0x3df337aa	0.118758515
70	0x3d91cbfe	0.071189865
71	0x3c9696ac	0.018382393
72	0xbdaf4f35	-0.085600294
73	0xbe00f84d	-0.12594719
74	0xb9962aaa	-0.00028642017
75	0x3e07b15c	0.13251251
76	0x3cbee0e9	0.023300605
77	0x3db3ce46	0.08779578
78	0x3c86664a	0.016406197
79	0xbc39ebad	-0.011347693
80	0x3dd6f387	0.10495668
81	0x3c1ed6c1	0.009694756
82	0x3d2a1fc4	0.0415342
83	0x3d2c54a6	0.042072915
84	0x3dbdd902	0.092699066
85	0x3de41c7e	0.11138247
86	0xbb138e1b	-0.0022515121
87	0xbd329b59	-0.043605182
88	0x3d1d07ef	0.038337644
89	0x3dbeae77	0.0931062
90	0x3e0abacc	0.1354782
91	0xbd42fae9	-0.047602568
92	0x3d8a8f55	0.0676562
93	0x3de199ef	0.11015689
94	0x3db2f9ea	0.087390736
95	0x3e20e036	0.1571053
96	0x3d8ea311	0.06964696
97	0xbdb9ea1e	-0.090778574
98	0x3c7bc0cf	0.015365793
99	0xbca19870	-0.019726008
100	0x3d78227c	0.060579762
101	0xbdddc0ac	-0.10827765
102	0xbde9b297	-0.114110164
103	0x3d0fa65b	0.03507076
104	0x3d12f1b9	0.035875056
105	0xbd85f045	-0.065399684
106	0x3c23f284	0.010006551
107	0xbd963f21	-0.0733626
108	0x3d8fbbe3	0.070182584
109	0xbc61ab47	-0.013773746
110	0x3dfee1b5	0.12445394
111	0xbd6024b6	-0.05472251
112	0x3db25687	0.0870791
113	0xbc739220	-0.014866382
114	0x3dca5e57	0.09881275
115	0xbde0e132	-0.109804526
116	0xbb6749a9	-0.0035291708
117	0xbdd868fd	-0.105669
118	0xbde8b643	-0.11362889
119	0xbd1d1010	-0.038345397
120	0x3e1503c4	0.14552218
121	0xbb7ba6a4	-0.0038398886
122	0xbcebe4d0	-0.02879563
123	0x3be2b652	0.006918707
124	0x3d597956	0.05309423
125	0xbc5d90bf	-0.01352328
126	0xbdc83f31	-0.09777678
127	0x3d3ab11d	0.045579065
128	0x3dcf95dd	0.10136006
129	0x3dfd5fa1	0.123717554
130	0x3ca90d87	0.020636333
131	0x3dd33876	0.103135034
132	0x3d2b60f5	0.041840512
133	0x3de60c3a	0.11232801
134	0x3e278b72	0.16361788
135	0xbde79059	-0.11306829
136	0x3df15cdf	0.11785292
137	0xbd9bd969	-0.07609827
138	0xbdcc3137	-0.099703245
139	0xbd426d88	-0.04746774
140	0x3db658cb	0.08903655
141	0xbde1c8ac	-0.11024603
142	0x3d1b55a3	0.037923466
143	0xbd61596d	-0.055016924
144	0xbd128019	-0.035766695
145	0x3cc576f8	0.02410458
146	0x3d3ead55	0.04655202
147	0x3c14729d	0.009060529
148	0xbdff2bb4	-0.124595076
149	0x3d813a13	0.06309905
150	0xbd4a797d	-0.049432267
151	0x3de5a106	0.112123534
152	0x3d3ae1ff	0.045625683
153	0xbd6b9cb7	-0.0575225
154	0x3d1b18b2	0.03786535
155	0xbdaf115b	-0.08548232
156	0xbd1938e0	-0.037407756
157	0xbd65cabe	-0.056101553
158	0xbc8873c9	-0.016656773
159	0xbe09272c	-0.13393849
160	0x3dbca4fa	0.09211154
161	0x3d666cf1	0.05625624
162	0x3de15773	0.11003008
163	0xbd52bdc4	-0.051450506
164	0xbda61541	-0.081095226
165	0xbd4c4d8d	-0.049878646
166	0xbbfa541d	-0.0076394216
167	0x3e260bf7	0.16215502
168	0xbd25a045	-0.040436048
169	0xbdaee599	-0.08539886
170	0xbc142c0d	-0.009043706
171	0x3dc3f497	0.09568136
172	0x3deeb553	0.116556786
173	0xbc8bf574	-0.017084815
174	0x3e02980a	0.12753311
175	0xbdbb7119	-0.09152431
176	0xbdc9d6ac	-0.098553985
177	0xbd52c38a	-0.05145601
178	0xbdd45cdc	-0.10369274
179	0x3daf04d2	0.08545841
180	0x3d7ba7e2	0.061439402
181	0xbb19e1a3	-0.0023480437
182	0xbcc7ef74	-0.024406172
183	0xbc6a647e	-0.014306186
184	0x3da0a082	0.078431144
185	0xbcbd9ffc	-0.023147576
186	0xbd354dae	-0.044263534
187	0xbd8292db	-0.06375667
188	0x3d3b6f7d	0.04576062
189	0x3b92ee70	0.0044839904
190	0xbd2a32fa	-0.04155252
191	0xbae72279	-0.0017634175
192	0xbde198e3	-0.11015489
193	0xbd446ecc	-0.047957227
194	0x3bb2aa70	0.0054524466
195	0xbd42368d	-0.047415305
196	0xbe0a40f3	-0.13501339
197	0x3d60d011	0.054885928
198	0xbdac0ccc	-0.08400878
199	0xbdbfdb19	-0.093679614
200	0x3d9ea9e2	0.07747246
201	0xbd886e52	-0.06661667
202	0x3dd81495	0.10550801
203	0x3c5ff970	0.01367031
204	0xbe0cbb31	-0.13743283
205	0x3e1734c8	0.14766228
206	0xbdd2cdbe	-0.102931485
207	0xbdf61b97	-0.12016981
208	0xbe02b3c2	-0.12763885
209	0x3d648c8d	0.055798102
210	0xbdd9ecb8	-0.10640854
211	0xbd0a159b	-0.03371201
212	0x3dd5825d	0.104252554
213	0xbd7ef9ea	-0.062250055
214	0x3df98b86	0.12184815
215	0xbdc09da5	-0.09405068
216	0x3d8fc249	0.07019479
217	0xbd730567	-0.059331324
218	0xbdc44a65	-0.09584502
219	0x3d9ded3a	0.07711263
220	0xbd148a70	-0.036264837
221	0xbd845e23	-0.06463268
222	0x3d97f406	0.07419591
223	0xbd8a0cbe	-0.06740712
224	0xbda34e73	-0.079739474
225	0xbd761450	-0.060077965
226	0x3d8d5730	0.06901395
227	0x3d9eda0d	0.07756434
228	0xbdae3f33	-0.08508148
229	0xbe10c749	-0.14138521
230	0xbdbbd1e2	-0.09170891
231	0x3d9dc400	0.077034
232	0xbd5714e7	-0.05251017
233	0xbd173c5b	-0.036922794
234	0x3d6d75c9	0.057973657
235	0xbdb5fcd2	-0.08886112
236	0xbcb2e947	-0.02183975
237	0xbd7b81cd	-0.061403085
238	0x3ca15de4	0.01969809
239	0x3dedd59a	0.11613007
240	0xbdb7d2c4	-0.08975747
241	0x3dfba6ae	0.12287651
242	0x3dd17841	0.10228015
243	0x3dc2efb6	0.095183775
244	0x3cd199bc	0.025586002
245	0x3dc8eeaa	0.098111466
246	0x3e060aac	0.13090008
247	0xbdb4b1ba	-0.08822961
248	0xbc932aa3	-0.017964667
249	0xbc99ebaa	-0.018789131
250	0x3da09368	0.078406155
251	0xbcf7774b	-0.03020825
252	0x3d12ebe1	0.035869483
253	0x3dc84cc6	0.09780268
254	0x3dd8488f	0.105607145
255	0x3c87b8d0	0.016567618
