models/lstm_gk_model.pt (torch, 245029 bytes, 9 tensors)

lstm.weight_ih_l0 f4 [256, 38]
0	0x3e0bd189	0.1365415
1	0x3dd38b1a	0.10329266
2	0x3bcc9612	0.0062434757
3	0x3deb2a1c	0.11482641
4	0xbd3d603e	-0.04623436
5	0x3bd35c76	0.006450231
6	0xbd45d2cd	-0.04829674
7	0x3dbe6edb	0.09298488
8	0x3e0e79a0	0.13913584
9	0xbd621a69	-0.055200968
10	0x3de948e8	0.11390859
11	0x3b43a9b8	0.00298558
12	0x3df90dbf	0.12160825
13	0x3cf55cac	0.029951416
14	0x3d8a151e	0.06742309
15	0x3c5b10c8	0.0133707
16	0x3e029bd9	0.12754764
17	0x3c975b38	0.018476114
18	0xbd9e1bc7	-0.07720142
19	0x3c5671ee	0.013088686
20	0xbd387369	-0.04503194
21	0x3ba1118d	0.0049154223
22	0xbd32ab0e	-0.04362016
23	0x3de8675a	0.11347838
24	0xbd8b264e	-0.067944154
25	0xbcee745c	-0.029108219
26	0xbda934b8	-0.082620084
27	0xbd085eed	-0.033293653
28	0x3ce884a1	0.028383555
29	0xbdd45a64	-0.10368803
30	0x3de03a61	0.10948635
31	0xbdb2414d	-0.087038614
32	0x3df12a7e	0.11775683
33	0x3d13ee71	0.036116067
34	0xbba93dfe	-0.0051648607
35	0x3d60babb	0.05486558
36	0x3ad67848	0.0016362751
37	0x3da5a80e	0.080886945
38	0x3ca5dfa4	0.020248242
39	0xbd377fec	-0.04479973
40	0x3cb77c5e	0.02239817
41	0xbd0ad808	-0.03389743
42	0x3d0e055c	0.03467308
43	0x3e020f24	0.12701088
44	0x3d96dca4	0.073663026
45	0xbd245eb6	-0.040129386
46	0x3d78045a	0.060551025
47	0x3c837e45	0.016051421
48	0x3d3661ce	0.044526868
49	0xbd4fc8a7	-0.050728466
50	0xbe0b45e5	-0.13600881
51	0xbd27bf6c	-0.04095404
52	0xbdadddd7	-0.08489578
53	0x3dbdae96	0.09261815
54	0x3cd8909b	0.02643614
55	0x3d5413cc	0.051776692
56	0x3cb0ef6b	0.021598538
57	0x3c58d1db	0.013233627
58	0x3dcb39f2	0.099231616
59	0xbd982907	-0.074297
60	0x3c9a70ad	0.018852556
61	0xbdc443c2	-0.09583236
62	0x3ce8dc00	0.028425217
63	0xbd68874e	-0.05676966
64	0x3cbb9c8f	0.022901801
65	0xbd34c480	-0.04413271
66	0x3df57caa	0.119866684
67	0xbd657b75	-0.05602594
68	0xbd90ef0b	-0.07076844
69	0xbd97c91a	-0.07411404
70	0x3dd69c0a	0.10478981
71	0x3d42a74a	0.04752282
72	0x3def2039	0.11676068
73	0xbe087e32	-0.1332939
74	0xbe1a09e5	-0.15042837
75	0xbe018ca3	-0.12651305
76	0xbde89857	-0.113571815
77	0x3d303490	0.043018878
78	0x3cf00bec	0.02930256
79	0x3dd4b776	0.10386555
80	0xbd540328	-0.051760823
81	0xbe089e0c	-0.1334154
82	0x3d796040	0.060882807
83	0xbd69f9f7	-0.05712315
84	0x3d5f479e	0.05451166
85	0xbd7c7870	-0.061638296
86	0x3d8a0757	0.06739681
87	0xbe129f6c	-0.14318627
88	0xbdbe568c	-0.09293851
89	0x3da78b3f	0.08180856
90	0x3d8cfabe	0.06883763
91	0xbcc3aaf2	-0.023885224
92	0x3da3c191	0.07995904
93	0x3dae07fa	0.08497615
94	0xbd9f7215	-0.07785431
95	0xbdeb6301	-0.11493493
96	0x3ddf44fc	0.109018296
97	0xbd47ca07	-0.048776653
98	0xbaf96964	-0.0019028601
99	0xbde7d58b	-0.11320027
100	0xbd87ef61	-0.06637455
101	0xbbf1668c	-0.007366961
102	0x3b0ddc2f	0.0021646132
103	0xbddb1b33	-0.10698547
104	0x3d712328	0.05887142
105	0xbd834c7d	-0.06411073
106	0xbdf6720a	-0.1203347
107	0xbd7323e2	-0.059360392
108	0xbda8bc80	-0.082390785
109	0xbd3d6876	-0.0462422
110	0x3e09b61c	0.13448375
111	0x3c1df20b	0.009640227
112	0x3ce403a9	0.027833777
113	0xbe03fbef	-0.12889074
114	0xbd07954f	-0.033101376
115	0xbd66bf75	-0.05633493
116	0x3d2bd686	0.041952632
117	0xbde14286	-0.109990165
118	0xbd51df16	-0.051238142
119	0xbdabd9eb	-0.08391174
120	0x3886e84c	6.4328866e-05
121	0xbd5d37db	-0.054008346
122	0x3d136f41	0.035994772
123	0xbd5835ca	-0.052785672
124	0xbdab4f4b	-0.08364733
125	0xbda42a83	-0.08015921
126	0x3a6e0feb	0.00090813515
127	0xbdc5c2b6	-0.09656279
128	0x3dd39450	0.10331023
129	0xbd00934a	-0.031390466
130	0x3dcf965b	0.101361
131	0x3d1f87b0	0.03894776
132	0xbdd3698b	-0.10322865
133	0x3d9e91a5	0.07742623
134	0xbd0e0795	-0.0346752
135	0xbd62f6db	-0.0554112
136	0xbdd79126	-0.10525732
137	0xbe06c529	-0.13161148
138	0x3cebec10	0.028799087
139	0x3c55de44	0.013053481
140	0x3d58d061	0.0529331
141	0xbd9a8a0a	-0.0754586
142	0x3deb6d91	0.114955075
143	0xbdaf8ad3	-0.085714005
144	0xbc5e9eed	-0.013587696
145	0x3c835e83	0.016036278
146	0x3d887ba5	0.06664208
147	0x3df0d4e4	0.11759356
148	0x3e03947c	0.12849611
149	0xbdf377d0	-0.11888087
150	0x3c494a47	0.0122857755
151	0xbd96046f	-0.073250644
152	0xbcd8c6eb	-0.026462039
153	0xbdd8e71e	-0.10590957
154	0x3dfd46ba	0.12367006
155	0xbdbbe42e	-0.09174381
156	0x3d6f14fe	0.05836963
157	0x3d32a46b	0.043613832
158	0x3cd5e5d7	0.026110573
159	0xbd9cc423	-0.076545976
160	0x3de3a283	0.11114981
161	0x3d019b3b	0.03164218
162	0x3ce4c07e	0.027923819
163	0xbddc65c1	-0.107615955
164	0x3d4d7bcd	0.050166894
165	0xbcae0463	-0.021242326
166	0xbd7091a6	-0.05873265
167	0x3debd4e4	0.11515215
168	0x3d0ce8a5	0.034401555
169	0xbd8da386	-0.06915955
170	0xbd92d99b	-0.07170411
171	0xbbcdf749	-0.006285582
172	0x3d6273d7	0.055286255
173	0xbd278e05	-0.040906925
174	0xbd951265	-0.07278899
175	0xbd103bc3	-0.035213243
176	0xbdb23f54	-0.08703485
177	0x3d2dc320	0.042422414
178	0x3da0e1d0	0.0785557
179	0xbdd76c12	-0.1051866
180	0x3d0ee94e	0.034890465
181	0x3d9193bf	0.071082585
182	0x3bed4886	0.0072413115
183	0xbccaeb96	-0.02477054
184	0x3d8f9287	0.0701037
185	0x3d6e1d19	0.05813322
186	0x3c934ab9	0.017979966
187	0xbd2c9e92	-0.042143412
188	0xbd532d64	-0.05155696
189	0xbbc26942	-0.005932958
190	0x3b6ca9f1	0.0036112035
191	0xbbb64365	-0.0055622333
192	0x3dc46bb2	0.09590854
193	0x3ddc019c	0.107424945
194	0xbc89235b	-0.016740492
195	0xbd0746fb	-0.033026677
196	0x3d0fda53	0.03512032
197	0x3cb405b8	0.021975383
198	0x3d479148	0.048722535
199	0x3d5e91cc	0.05433826
200	0xbdd4c1f7	-0.10388558
201	0xbd2b63a9	-0.04184309
202	0x3dfda0a6	0.12384157
203	0x3d207f4c	0.0391839
204	0xbc95984b	-0.018261096
205	0xbdce9d0e	-0.100885496
206	0xbdcedc69	-0.10100634
207	0xbde550fa	-0.11197086
208	0xbd38c66b	-0.0451111
209	0x3d18432e	0.037173443
210	0x3de76c05	0.112999
211	0x3db27c43	0.08715107
212	0xbdfaf4a3	-0.12253692
213	0xbdcce9a8	-0.10005504
214	0xbd329682	-0.043600567
215	0x3e0eb8f9	0.13937749
216	0x3d242a34	0.04007931
217	0xbb336923	-0.0027375899
218	0x3d0748d1	0.033028428
219	0xbd386d42	-0.04502607
220	0xbd41ab48	-0.047282487
221	0x3dfe0b63	0.124045156
222	0xbd079cf3	-0.033108663
223	0xbd2e547e	-0.042561047
224	0xbdd937d8	-0.106063545
225	0x3deeb334	0.11655274
226	0x3e035218	0.12824285
227	0x3da15ba3	0.078788064
228	0xbd53a0d2	-0.051667042
229	0xbdc44aa3	-0.09584548
230	0xbda34082	-0.07971288
231	0x3dbee636	0.09321253
232	0x3d53d0e8	0.0517129
233	0x3da6b555	0.08140055
234	0x3dbd34b5	0.09238569
235	0x3d4a930a	0.049456634
236	0x3c9144fa	0.017733086
237	0xbd8e28c5	-0.0694137
238	0xbdf27ba4	-0.11839989
239	0xbe0c21bf	-0.13684748
240	0x3d8f92bd	0.0701041
241	0xbd1a2ee6	-0.037642382
242	0xbb7a8882	-0.0038228338
243	0xbd4cfc36	-0.050045215
244	0xbaa688a3	-0.0012705516
245	0xbdb42e86	-0.08797936
246	0xbdb84602	-0.08997728
247	0x3c90cdf4	0.017676331
248	0xbc27e586	-0.010247594
249	0x3dc28915	0.094988026
250	0xbc99be06	-0.018767368
251	0xbd8fcf44	-0.07021955
252	0xba7e2e1d	-0.00096962025
253	0xbd204d43	-0.039136183
254	0xbcba2b94	-0.022725858
255	0xbdbe8d60	-0.09304309

lstm.weight_hh_l0 f4 [256, 64]
0	0xbcb70cd6	-0.022344988
1	0x3e0f4f4f	0.13995098
2	0x3ca86d53	0.020559942
3	0xbe06e390	-0.13172746
4	0xbdd54999	-0.10414428
5	0xbad10dfe	-0.0015949605
6	0xbddca4c0	-0.10773611
7	0xbd8bc17a	-0.06824012
8	0x3d82412a	0.06360085
9	0x3c011b47	0.007880039
10	0xbcf6e05e	-0.030136283
11	0x3cf49531	0.029856296
12	0x3db22418	0.086982906
13	0x3e392928	0.18082106
14	0x3d961106	0.07327466
15	0xbdcc2c5c	-0.099693984
16	0xbdc60bda	-0.09670229
17	0x3d4b0eb8	0.049574584
18	0x3dfbc26c	0.122929424
19	0xbdc369bb	-0.09541651
20	0x3dddabf5	0.10823814
21	0xbc1addd5	-0.009452303
22	0x3d550285	0.052004356
23	0x3e0e7a47	0.13913833
24	0x3c6b0bf8	0.014346115
25	0xbe0eb63d	-0.13936706
26	0xbda0a2cf	-0.07843553
27	0x3d50fdd2	0.051023312
28	0x3d78a027	0.06069961
29	0xbd4116b8	-0.047140807
30	0x3e03a03d	0.12854095
31	0x3c1a558c	0.00941981
32	0xbdc385b0	-0.09546983
33	0xba48ecd3	-0.0007664684
34	0xbe489848	-0.1958934
35	0x3cacfe71	0.02111742
36	0xbe018cbe	-0.12651345
37	0x3e013f6d	0.12621851
38	0xbe181bd4	-0.14854366
39	0x3d7f9022	0.062393315
40	0xbda32555	-0.07966105
41	0x3cbf5159	0.02335422
42	0xbdf82d8e	-0.12118064
43	0xbb62bf81	-0.0034599009
44	0x3db0b71e	0.08628677
45	0xbe0941d5	-0.13404019
46	0xbd949763	-0.07255437
47	0xbd0d9962	-0.034570105
48	0x3bc7795b	0.0060874647
49	0xbceff161	-0.029289903
50	0xbca35908	-0.019939914
51	0xbcb6840f	-0.022279767
52	0x3d63b80e	0.05559545
53	0xbc5ce07a	-0.013481254
54	0xbdaf4938	-0.08558887
55	0x3cdaa73e	0.026691075
56	0xbdc95ea8	-0.09832507
57	0xbd8f769a	-0.07005043
58	0x3dc42ba4	0.09578636
59	0xbd2a2e52	-0.04154808
60	0xbe2633ba	-0.1623067
61	0x3d296b6f	0.041362222
62	0xbcf95078	-0.030433878
63	0x3d5b22d0	0.053499997
64	0x3d2adf02	0.041716583
65	0xbe048ade	-0.12943599
66	0xbd6bae51	-0.057539288
67	0xbdabe568	-0.08393365
68	0x3e08f453	0.13374452
69	0xbd535c3e	-0.05160164
70	0xbdb99683	-0.09061911
71	0xbcaf24eb	-0.021379909
72	0x3c45fe8a	0.012084613
73	0x3d338a8f	0.04383331
74	0x3de29a15	0.11064545
75	0x3d97cb0d	0.07411776
76	0x3ca79c63	0.020460313
77	0x3ddfa80f	0.109207265
78	0x3d9990b5	0.07498304
79	0x3d9365cf	0.07197153
80	0xbdb9ee78	-0.090786874
81	0x3c2867f7	0.010278693
82	0xbcd5507c	-0.026039355
83	0xbddf6f77	-0.10909932
84	0xbd3c4009	-0.045959506
85	0x3dbf7194	0.09347835
86	0x3d05a737	0.03263017
87	0x3dcc7ef0	0.09985149
88	0x3dc2fa60	0.095204115
89	0x3c8c623d	0.017136687
90	0x3dee939f	0.1164925
91	0x3d03657b	0.0320792
92	0x3b0ea56d	0.0021766082
93	0xbd27a98a	-0.04093317
94	0x3dcef289	0.10104854
95	0x3d6851c8	0.056718618
96	0x3dc6ed11	0.097131856
97	0xbc471e0d	-0.012153161
98	0xbdd01ae9	-0.10161383
99	0x3cad85fb	0.02118205
100	0xbbda9dbc	-0.0066716354
101	0xbdcf4868	-0.10121232
102	0x3cef9c4e	0.029249337
103	0x3c27c0a3	0.010238799
104	0x3db441b1	0.08801592
105	0x3c56455a	0.013078058
106	0xbd61457b	-0.054997902
107	0x3dd66c13	0.10469832
108	0xbc83ad7d	-0.016073937
109	0xbcc0e7a2	-0.023547951
110	0x3d81b2bc	0.06332919
111	0x3e05d78b	0.13070504
112	0x3d22b08d	0.039719153
113	0x3cbcbb5f	0.023038564
114	0x3d906ecd	0.070523836
115	0xbd0707ae	-0.03296631
116	0x3ddfb548	0.109232485
117	0xbdc1c2ff	-0.09461021
118	0x3b5b8a82	0.0033499305
119	0x3e02f747	0.12789641
120	0x3d981295	0.07425419
121	0xbcd108f9	-0.025516974
122	0x3da0906e	0.07840048
123	0x3d8ecaaa	0.06972249
124	0xbde19dc7	-0.11016422
125	0xbbde0d1c	-0.006776465
126	0xbda76f36	-0.08175509
127	0xbd8bb9f7	-0.06822579
128	0x3d465560	0.048421264
129	0xbdb5c893	-0.08876147
130	0xbd113a77	-0.035456147
131	0x3dbd56a3	0.0924504
132	0x3d48e9af	0.049050983
133	0xbe350f21	-0.17681552
134	0x3db582d7	0.08862846
135	0xbdc9e460	-0.09858012
136	0xbd0355a4	-0.032064095
137	0x3cdebe16	0.02719025
138	0x3d10a724	0.035315648
139	0xbd8490b8	-0.064729154
140	0xbd3fe353	-0.046847653
141	0x3d38477a	0.04499004
142	0xbe31fd59	-0.173818
143	0x3cf35104	0.029701717
144	0x3e03e933	0.12881927
145	0x3def6088	0.11688334
146	0x3cc19139	0.023628818
147	0x3d5d8745	0.05408408
148	0xbd948011	-0.07250989
149	0xbce8ee6c	-0.028434
150	0x3d1a1476	0.03761717
151	0x3d937c6d	0.07201467
152	0x3cd49c88	0.025953546
153	0x3d6e9508	0.058247596
154	0xbd4bd7a6	-0.049766205
155	0x3e16bf64	0.14721447
156	0xbe0d2fba	-0.13787737
157	0xbe107319	-0.14106406
158	0x3daba3bd	0.0838084
159	0x3cb4a331	0.022050472
160	0xbdb5def5	-0.08880416
161	0x3d3c7d7c	0.04601811
162	0x3df1a856	0.11799686
163	0x3d60e746	0.05490806
164	0xbcdbb184	-0.026818044
165	0x3e09a492	0.13441685
166	0x3e044f84	0.12920958
167	0xbdbb65cc	-0.091502756
168	0xbd59470d	-0.053046275
169	0x3cf087e3	0.02936167
170	0xbb2ee309	-0.0026685616
171	0x3d9c96a1	0.07645918
172	0xbd03c2e2	-0.032168277
173	0xbce02eae	-0.027366009
174	0xbda38584	-0.079844505
175	0xbd9da9b5	-0.07698385
176	0x3d74b2e2	0.05974091
177	0xbe447efd	-0.19189067
178	0xbc3eed62	-0.011653276
179	0xbcf7d59a	-0.03025322
180	0xbcf27a55	-0.029599348
181	0xbd5059f6	-0.050867043
182	0x3bad880d	0.0052957595
183	0x3c1e8757	0.009675822
184	0x3d1e4f8f	0.03865009
185	0xbd45a98c	-0.048257396
186	0xbd4f05da	-0.05054269
187	0x3e255cd7	0.16148697
188	0xba166fcc	-0.0005738705
189	0xbda30601	-0.079601295
190	0x3de3b3b4	0.1111826
191	0xbdb224c0	-0.08698416
192	0x3d881345	0.066443
193	0x3dc5ebfc	0.09664151
194	0xbdc3a364	-0.09552649
195	0x3ca7feac	0.02050718
196	0x3d4ab439	0.04948828
197	0xbda0ffff	-0.078613274
198	0x3d614c51	0.05500442
199	0x3e0ba476	0.13636956
200	0x3d089777	0.033347573
201	0xbc550a5e	-0.01300296
202	0xbd56d9a0	-0.052453637
203	0xbd918201	-0.071048744
204	0x3d90ae0f	0.07064449
205	0xbe0d1899	-0.13778915
206	0xbdf85196	-0.12124936
207	0xbcce11ee	-0.025155034
208	0xbe05f982	-0.13083461
209	0x3da21e78	0.07915968
210	0xbc52dc06	-0.0128698405
211	0xbda0c8a1	-0.07850767
212	0x3d969b41	0.07353831
213	0x3d97eb95	0.074179806
214	0x3d59c3b0	0.053165138
215	0xbd443183	-0.04789878
216	0x3b16e5c6	0.002302514
217	0xbdbf4627	-0.093395524
218	0xbdecb0ff	-0.11557197
219	0xbd6bda00	-0.057580948
220	0x3cc792b4	0.024361946
221	0xbd5f02e2	-0.05444611
222	0xbba1961f	-0.004931226
223	0x3d528d9c	0.05140458
224	0x3d3fd3ce	0.046832852
225	0x3d502df6	0.05082508
226	0x3d9cff15	0.076658405
227	0x3ce0524f	0.027382998
228	0xbd835ba5	-0.06413964
229	0x3dba96b4	0.091107756
230	0xbe170f08	-0.14751828
231	0x3d35b2d2	0.04435999
232	0xbd0dbc75	-0.034603555
233	0x3d8378b6	0.06419508
234	0xbde936b2	-0.113873854
235	0xbd099cad	-0.033596683
236	0x3d7fb5c1	0.062429193
237	0xbdc4c133	-0.09607162
238	0x3dbde980	0.09273052
239	0xbbe96a4a	-0.0071232663
240	0x3dd6cb8a	0.10488041
241	0x3defdb69	0.11711771
242	0xbdc04f81	-0.09390164
243	0xbc8fa853	-0.017536318
244	0x3c95df19	0.018294858
245	0xbdae97a8	-0.0852502
246	0x3d2c0acd	0.042002488
247	0xbdba5e6d	-0.091000415
248	0xbdb0144c	-0.08597621
249	0xbc0cd75d	-0.0085962685
250	0xbe020ed7	-0.12700973
251	0xbde9886e	-0.11402975
252	0x3d3d9059	0.04628024
253	0xbd936c82	-0.071984306
254	0x3d9ecd3e	0.077539906
255	0xbd654122	-0.05597032

lstm.bias_ih_l0 f4 [256]
0	0xbc9075c1	-0.017634274
1	0xbb5a1057	-0.00332739
2	0x3c1dbffc	0.009628292
3	0xbde13a29	-0.10997421
4	0xbd8fcc30	-0.070213675
5	0x3da31263	0.07962491
6	0x3d69a257	0.057039585
7	0x3e24d41a	0.16096535
8	0x3e0dfcd4	0.13865978
9	0xbbae4acc	-0.005318975
10	0x3dd0dcee	0.10198389
11	0x3d1c52c4	0.03816487
12	0x3dc25746	0.09489302
13	0xbc3be613	-0.011468428
14	0xbb43b3ee	-0.0029861885
15	0x3d7c6a1a	0.061624624
16	0x3d2ba78f	0.041907843
17	0x3d3e3a1f	0.046442147
18	0x3e05dc0e	0.13072225
19	0x3e135ef3	0.14391689
20	0xbdbd2fc4	-0.09237626
21	0x3c7bbaa4	0.015364323
22	0x3d244f68	0.04011479
23	0x3d634436	0.055484973
24	0xbdb62483	-0.08893683
25	0x3da79b07	0.08183866
26	0x3d4ec3da	0.050479747
27	0x3dd70943	0.104998134
28	0xbc9b02fc	-0.018922321
29	0x3d3b7bb8	0.045772284
30	0x3dabfb4e	0.08397542
31	0x3e0e4719	0.13894309
32	0xbc4f1b5f	-0.012640803
33	0x3dd61b87	0.10454469
34	0xbc07ea86	-0.008295661
35	0x3dce74fc	0.10080907
36	0xbc0b118c	-0.00848807
37	0x3d9c2045	0.076233424
38	0xbd9c4d8c	-0.076319784
39	0x3d936a27	0.07197981
40	0xbd85335e	-0.06503938
41	0xbd17b14a	-0.03703431
42	0xbb9c9ca7	-0.0047794166
43	0xbc935715	-0.01798586
44	0x3dc9e5ae	0.09858261
45	0x3dddd9a5	0.10832528
46	0x3d7b3290	0.061327517
47	0xbd93549c	-0.07193872
48	0x3e0b51a0	0.13605356
49	0x3e1bc7dc	0.15212959
50	0x3a5d5d5b	0.0008444392
51	0xbd3f055a	-0.046635963
52	0x3dffb2fe	0.12485312
53	0x3df9c743	0.12196209
54	0x3db35de1	0.0875814
55	0xbdc6a263	-0.096989416
56	0xbdbbc837	-0.09169047
57	0x3dea0e77	0.1142854
58	0xbda000cc	-0.07812652
59	0x3d9bfee0	0.07616973
60	0x3dd0a2d8	0.1018731
61	0x3ac5a7b8	0.0015079891
62	0xbdf1a7e3	-0.117996
63	0xbdf1e80c	-0.118118376
64	0x3e015657	0.12630592
65	0x3ce79ff9	0.028274523
66	0x3dbf74cc	0.09348449
67	0xbd442622	-0.04788793
68	0xbd9ba201	-0.07599259
69	0x3d5632d2	0.05229456
70	0xbdb51d86	-0.08843522
71	0x3da774c8	0.08176571
72	0x3a3fd84e	0.00073183037
73	0x3d9ba51d	0.07599852
74	0xbd3f508a	-0.046707667
75	0x3c2d63bb	0.01058286
76	0xbd996f93	-0.07491984
77	0x3ca4fb4b	0.020139357
78	0xbc38b436	-0.011273434
79	0xbd737e21	-0.059446458
80	0xbe0fdbcc	-0.1404869
81	0x3db9687a	0.090531304
82	0x3df2c37f	0.11853694
83	0xbd10ae33	-0.03532238
84	0xbc97ac2d	-0.018514717
85	0xbcc3b546	-0.023890149
86	0xbdaedc8f	-0.08538162
87	0xbdf2b38c	-0.11850652
88	0xbce159b2	-0.02750859
89	0x3d844642	0.06458713
90	0xbdb2b11f	-0.087251894
91	0x3e134a20	0.14383745
92	0xbcf97b0d	-0.030454183
93	0xbd874ba4	-0.06606224
94	0xbdb57b6d	-0.08861432
95	0x3e1859e0	0.14878035
96	0x3c02514f	0.007953956
97	0x3dedb147	0.116060786
98	0x3d7050d1	0.058670823
99	0x3df3f448	0.11911827
100	0xbdc21330	-0.09476316
101	0x3d595a24	0.05306448
102	0x3dd0eede	0.1020181
103	0xbd2c8840	-0.042122126
104	0xbd9dda7f	-0.077076904
105	0x3c156fe4	0.009120915
106	0x3c6a3366	0.014294481
107	0xbd333438	-0.04375097
108	0xbdd28f07	-0.102811866
109	0x3d0b67e8	0.03403464
110	0xb88d5c68	-6.740616e-05
111	0xbdab2070	-0.08355796
112	0xbcc29d38	-0.023756608
113	0x3cc1e160	0.023667037
114	0x3dc766cc	0.09736404
115	0x3d7fb308	0.062426597
116	0x3e097b0a	0.13425842
117	0x3ca8fa6b	0.020627221
118	0x3d9265f4	0.07148352
119	0xbdbd6ecd	-0.09249649
120	0x3d5fda03	0.05465127
121	0xbd3fc26f	-0.046816286
122	0x3d91a327	0.07111197
123	0x3d4ab5b5	0.049489696
124	0x3c4f0f9e	0.012638001
125	0xbcbef50b	-0.023310205
126	0x3d52b661	0.05144346
127	0x3c5b580f	0.013387694
128	0x3d8d83fe	0.06909941
129	0x3c21d992	0.009878533
130	0xbde3a9b8	-0.11116356
131	0xbd900bd3	-0.07033505
132	0xbddc43cc	-0.10755119
133	0xbd99b8a9	-0.07505924
134	0xbcb17fed	-0.021667445
135	0x3bfb1ef5	0.0076636025
136	0x3df23775	0.11826984
137	0x3cbeeea1	0.023307147
138	0x3c978b45	0.018499026
139	0x3daea485	0.08527473
140	0x3e0d5161	0.13800575
141	0x3daa6ac2	0.08321144
142	0xbc2d0374	-0.010559905
143	0x3d96bd58	0.07360333
144	0xbdb3e7f8	-0.08784479
145	0x3dc7be9e	0.09753154
146	0x3db6b64a	0.08921488
147	0xbe207937	-0.1567124
148	0xbd9e739c	-0.077368945
149	0x3c87fb15	0.016599217
150	0x3d7ca2dc	0.061678752
151	0x3dafe1e0	0.08588004
152	0xbdc969bb	-0.098346196
153	0x3e045a89	0.12925161
154	0x3c8948af	0.016758291
155	0x3bf04561	0.0073324894
156	0xbd254cef	-0.040356573
157	0x3d47558b	0.048665565
158	0x3cef9329	0.029244976
159	0x3d381b89	0.044948135
160	0xbe0e4f1a	-0.13897362
161	0x3c4609dc	0.012087312
162	0xbe0a3bcc	-0.13499373
163	0xbe24b8a7	-0.16086064
164	0x3c89e3dc	0.016832285
165	0x3b87d01a	0.0041446807
166	0xbdcf4e14	-0.10122314
167	0xbe013f13	-0.12621717
168	0x3e155aaa	0.14585367
169	0x3e187e1a	0.14891854
170	0xbdff5a41	-0.124683864
171	0xbdca81e1	-0.09888054
172	0x3db31c4c	0.087456316
173	0x3c237c2c	0.009978335
174	0xbabbf609	-0.0014340292
175	0xbcb6a931	-0.022297474
176	0x3cdf1b04	0.027234562
177	0xbe1a3ae1	-0.15061523
178	0xbe180178	-0.1484431
179	0x3dac1a35	0.08403436
180	0x3d0bbcb6	0.034115516
181	0x3d4d7384	0.050158992
182	0xbd951eb6	-0.07281248
183	0xbdb2da01	-0.08732987
184	0xbcd9802c	-0.026550375
185	0xbdd2ddc4	-0.10296205
186	0xbdc5e2b1	-0.096623786
187	0x3dad17e0	0.084518194
188	0xbdbb2a7e	-0.09138964
189	0xbe1f5736	-0.15560612
190	0xbbca62f3	-0.0061763464
191	0x3d900f4f	0.0703417
192	0x3ce50713	0.027957475
193	0xbdeca7ab	-0.115554176
194	0x3df1c077	0.11804288
195	0xbd5bd9a4	-0.053674355
196	0x3dbf3a2b	0.093372665
197	0xbd97a42f	-0.074043624
198	0x3e18fafd	0.14939494
199	0x3c64e08a	0.01396955
200	0x3e176a19	0.14786567
201	0x3d813902	0.063097015
202	0x3e014252	0.12622955
203	0x3d923a6c	0.07140049
204	0xbd2f815e	-0.042847984
205	0x3db3b717	0.08775156
206	0x3e0e6696	0.13906321
207	0xbd48156e	-0.048848562
208	0x3d70c155	0.058778126
209	0x3c92657a	0.017870653
210	0x3dcc2e3e	0.099697575
211	0xbd584bd7	-0.0528067
212	0xbdbb0473	-0.09131708
213	0x3d83ea21	0.06441141
214	0x3c9dfdae	0.019286003
215	0xbd469538	-0.04848215
216	0x3cdfa588	0.027300611
217	0x3dfe35ae	0.12412582
218	0xbda83b49	-0.08214433
219	0x3cba2513	0.022722756
220	0xbcfb2504	-0.030657299
221	0x3c5f62b2	0.013634371
222	0xbd069300	-0.032855034
223	0x3e15421d	0.14576001
224	0x3dc2dec2	0.09515144
225	0x3d81dc28	0.063408196
226	0x3bc620ad	0.0060463757
227	0x3deaa912	0.11458029
228	0xbd4457cc	-0.047935292
229	0xbd7e4fd8	-0.062087864
230	0xbd721061	-0.05909765
231	0xbb79dc45	-0.0038125676
232	0xbd793f6c	-0.0608515
233	0x3dddc00e	0.10827647
234	0x3cea5d7f	0.028609036
235	0xbbd096aa	-0.006365617
236	0xbda15a7a	-0.07878585
237	0x3e08bdce	0.13353655
238	0x3dcfe701	0.101514824
239	0xbda04e89	-0.078274794
240	0x3e1995ab	0.149985
241	0x3cb3bb63	0.021939939
242	0xbbfdba6f	-0.007743172
243	0x3d9434aa	0.072366074
244	0xbd8f8efc	-0.07009694
245	0xbdd7bf94	-0.105345875
246	0x3d09d450	0.033649743
247	0x3df726f3	0.12067976
248	0x3df2621e	0.118351206
249	0x3e0c78c4	0.13717943
250	0x3ddca9e9	0.10774595
251	0x3d5d4c69	0.05402795
252	0x3d41a99d	0.047280896
253	0xbd190eff	-0.037367817
254	0x3dda93ec	0.10672745
255	0x3da5bf9e	0.08093189

lstm.bias_hh_l0 f4 [256]
0	0xbd957154	-0.07297006
1	0xbe091275	-0.13385947
2	0x3cd175a7	0.025568796
3	0xbd853cb4	-0.06505719
4	0xbcc24731	-0.023715587
5	0x3ddf659b	0.109080516
6	0x3c2f7eed	0.010711414
7	0x3e223180	0.15839195
8	0x3cc1ce2a	0.023657877
9	0x3c9588ef	0.018253772
10	0x3cd49b25	0.025952885
11	0x3caad395	0.020852843
12	0x3c44f68b	0.012021671
13	0x3cdf1e94	0.02723626
14	0xbd4d0c1c	-0.050060377
15	0x3d88c186	0.06677537
16	0x3d46272a	0.048377194
17	0x3d01db84	0.031703487
18	0x3d40b09d	0.04704343
19	0xbc1399cd	-0.009008837
20	0xbe0097ec	-0.12557954
21	0x3dbf76cd	0.09348831
22	0x3d8bcc92	0.06826128
23	0xbddf1309	-0.108923025
24	0x3de9652d	0.11396251
25	0xbaee7a3a	-0.0018194385
26	0xbdbbc385	-0.09168152
27	0xbd3d6c8c	-0.046246096
28	0xbc721ada	-0.01477691
29	0xbd90eb86	-0.070761725
30	0x3d212353	0.03934033
31	0xbd208c29	-0.039196167
32	0xbd321558	-0.043477386
33	0x3e14438d	0.14478894
34	0xbbca3e6c	-0.006171992
35	0x3d146f06	0.036238693
36	0xbd25f55a	-0.04051719
37	0x3d1d7396	0.03844031
38	0xbd642b92	-0.055705614
39	0xbd18834f	-0.0372346
40	0xbd6df3e0	-0.058093905
41	0xbc75464d	-0.014970374
42	0x3d920a2e	0.07130848
43	0x3da09ad9	0.07842035
44	0x3d9c095a	0.07618971
45	0xbd451407	-0.048114803
46	0xbdd5c3e7	-0.10437756
47	0xbcbb9b1b	-0.022901108
48	0x3e24390e	0.1603739
49	0x3d1f8bc1	0.03895164
50	0x3e0943d7	0.13404785
51	0x3df8ad45	0.121424235
52	0x3dde84fa	0.10865207
53	0xbb876851	-0.0041323085
54	0x3d81a375	0.06330005
55	0xbd66abe1	-0.05631626
56	0x3c53f5dc	0.012937035
57	0x3d9777da	0.07395907
58	0xbd369950	-0.044579804
59	0xbd82eb27	-0.06392508
60	0xbd0c0c47	-0.034191396
61	0x3d26983b	0.040672522
62	0xbcba6d8e	-0.022757318
63	0x3d21f1f0	0.03953737
64	0xbd2088b3	-0.039192867
65	0x3dc8774d	0.0978838
66	0xbcd82bbf	-0.026388047
67	0x3dbe55d2	0.09293713
68	0x3daeef4d	0.08541737
69	0x3dcab0ee	0.09897028
70	0xbd8304fb	-0.06397434
71	0xbd4a3a78	-0.049372166
72	0xbd419166	-0.047257803
73	0xbda936ef	-0.08262431
74	0xbbf72289	-0.0075419587
75	0x3cb5c71c	0.02218967
76	0x3d838825	0.06422452
77	0x3d76f679	0.06029365
78	0x3d76743b	0.06016944
79	0xbc780c1f	-0.015139609
80	0xbd81152e	-0.06302868
81	0xbd547757	-0.051871624
82	0x3de13855	0.109970726
83	0xbd917034	-0.07101479
84	0xbc45559d	-0.012044338
85	0xbdd4031e	-0.10352157
86	0xbd53b514	-0.05168636
87	0xbdfb8e12	-0.12282957
88	0xbe07b3ee	-0.13252231
89	0x3d45b4f7	0.048268285
90	0xbd8c2176	-0.0684232
91	0x3d422888	0.047401935
92	0x3dc9c2db	0.09851619
93	0xb97941a0	-0.00023770938
94	0x3ced46e3	0.028964465
95	0xbcdd7927	-0.027035309
96	0x3de03d6f	0.109492175
97	0x3e285388	0.16438115
98	0x39832460	0.0002501337
99	0xbda71502	-0.08158304
100	0x3dc082a6	0.09399919
101	0x3dce0a8a	0.10060604
102	0x3dd337e8	0.10313398
103	0x3ab00aaf	0.0013430918
104	0x3d145fb1	0.03622407
105	0x3d7af185	0.061265487
106	0x3d34421e	0.044008367
107	0xbc55b9bb	-0.01304477
108	0x3cfd2363	0.030900663
109	0x3dd1c466	0.10242538
110	0xbd5fe0a7	-0.054657605
111	0xbdd96702	-0.1061535
112	0xbda068c6	-0.07832484
113	0x3ce62fd7	0.028098984
114	0x3dafd441	0.08585406
115	0x3cdc5d7d	0.026900047
116	0x3e0f0d85	0.13970001
117	0x3d37990a	0.044823684
118	0x3db663fd	0.0890579
119	0xbde44011	-0.11145032
120	0x3d99be43	0.07506993
121	0x3db58faf	0.08865296
122	0x3bbb74fc	0.0057207327
123	0x3d808f93	0.062773846
124	0xbdbb9bf3	-0.09160604
125	0x3e0bec43	0.13664345
126	0xbc9302ce	-0.017945673
127	0xbe24d2a4	-0.16095978
128	0x3da0fa22	0.07860209
129	0x3d817e91	0.06322969
130	0x3d8935aa	0.06699689
131	0x3de08475	0.10962764
132	0x3d184f2e	0.037184887
133	0x3d25078f	0.04029041
134	0x3e222c0a	0.15837112
135	0x3db2373b	0.087019406
136	0x3d99cf95	0.07510296
137	0xbca5f5fb	-0.020258894
138	0xbe042a07	-0.12906657
139	0x3d987ac0	0.07445288
140	0xbd602830	-0.054725826
141	0xbc6de372	-0.014519559
142	0xbe1cd07b	-0.15313904
143	0xbe1d67de	-0.15371653
144	0xbd0530e0	-0.032517314
145	0xbdbf668c	-0.09345731
146	0x3da2aee8	0.07943517
147	0xbbf433ab	-0.0074524484
148	0xbbb46263	-0.0055048927
149	0x3e1accff	0.15117262
150	0x3d826aa0	0.06367993
151	0x3d6a46b8	0.05719635
152	0xbd87cf67	-0.06631356
153	0xbdb8cb54	-0.09023157
154	0xbc98becb	-0.018645665
155	0x3df12232	0.117741
156	0xbdee4c29	-0.1163562
157	0xbdf6353e	-0.12021874
158	0xbcc0dec3	-0.023543721
159	0x3da200c0	0.07910299
160	0x3d15ed10	0.036603034
161	0x3d35dcb5	0.044399936
162	0xbd5682e5	-0.052370925
163	0xbdadcfa2	-0.084868684
164	0xbcee5d8a	-0.029097337
165	0x3dea4287	0.1143847
166	0xbda9b4b4	-0.082864195
167	0xbe0d454f	-0.1379597
168	0x3c588cf3	0.013217199
169	0x3d1cb2e4	0.03825654
170	0x3cc37df7	0.023863776
171	0x3c397e7b	0.011321659
172	0x3e07895a	0.13235989
173	0xbc0fbdb8	-0.00877326
174	0x3d4db3b9	0.050220225
175	0xbd8ff33f	-0.070288174
176	0xbdf86e4e	-0.12130414
177	0xbdcdc6c7	-0.100476794
178	0x3d9756c6	0.073895976
179	0xbd44f20d	-0.0480824
180	0xbd95be6f	-0.07311713
181	0x3c8f8b45	0.017522464
182	0xbdf1a77b	-0.117995225
183	0x3c284cd2	0.010272222
184	0xbd801024	-0.062530786
185	0x3d8c9a40	0.06865358
186	0x3dd98eb5	0.10622922
187	0x3dba402b	0.0909427
188	0x3d5e2ffd	0.054244984
189	0x3d0ed993	0.034875464
190	0x3bc8982f	0.0061216573
191	0x3c236a16	0.009974023
192	0x3d18c5df	0.03729808
193	0xbd5f9fc6	-0.05459573
194	0x3d854a5a	0.06508322
195	0xbd9f822d	-0.07788501
196	0xbdddd635	-0.108318724
197	0x3c5e985a	0.013586128
198	0xbce63b7f	-0.028104542
199	0xbc2683e2	-0.010163279
200	0x3db6baee	0.08922373
201	0xbd0a0e62	-0.033705123
202	0x3e18bd65	0.14915998
203	0xbc96ce4f	-0.018408922
204	0xbdae46ae	-0.08509575
205	0x3ded5a16	0.11589448
206	0x3d50f198	0.05101165
207	0x3dadd277	0.084874086
208	0x3d660b61	0.056163196
209	0xbd138218	-0.03601274
210	0xbddb5f84	-0.107115775
211	0x3de98682	0.114026085
212	0xbd32f53a	-0.043690898
213	0x3e06c30d	0.13160343
214	0xbc0a09cb	-0.008425186
215	0x3dbf158c	0.093302816
216	0x3ce3c9e0	0.027806222
217	0xbc02170c	-0.007940065
218	0xbce621c6	-0.028092276
219	0x3e18f003	0.14935307
220	0x3dfb95fa	0.12284465
221	0xbdc43d4b	-0.09582003
222	0xbce06313	-0.027390992
223	0xbbecbbfd	-0.0072245584
224	0x3d7051e0	0.058671832
225	0xbd5de47a	-0.05417297
226	0xbd249640	-0.040182352
227	0x3d57e9c2	0.052713163
228	0x3cc653ed	0.02420994
229	0xbd04a90b	-0.032387774
230	0x3dbc1665	0.09183959
231	0x3e143c09	0.14476027
232	0xbccc68a5	-0.024952242
233	0x3e1c82ad	0.15284224
234	0x3d91689c	0.07100031
235	0x3d6a60df	0.05722129
236	0xbd16f18e	-0.03685146
237	0x3e0799a1	0.13242199
238	0x3d990d0b	0.07473191
239	0xbde5f415	-0.112281956
240	0x3da79bb1	0.08183993
241	0xbd4d5804	-0.050132766
242	0xbcc54dbd	-0.02408492
243	0xbd261278	-0.040544957
244	0x3cea51b4	0.028603412
245	0xbcd1a186	-0.025589716
246	0x3c654a99	0.013994836
247	0x3e019d88	0.1265775
248	0x3d35fe5d	0.044432033
249	0xbd7fbcd7	-0.06243595
250	0xbc8f49e1	-0.017491283
251	0xbda314ac	-0.07962927
252	0xbcdadc60	-0.026716411
253	0x3ddf7a2a	0.10911973
254	0x3d302f6e	0.043013982
255	0xbd751128	-0.059830815

lstm.weight_ih_l1 f4 [256, 64]
0	0x3dc9f6f3	0.09861555
1	0x3cefd162	0.029274646
2	0x3de5f4a5	0.11228303
3	0xbd487538	-0.048939914
4	0xbdbaca86	-0.091206595
5	0xbd9dea5d	-0.07710717
6	0x3cc3abd3	0.023885643
7	0x3e2579ba	0.16159716
8	0x3d7686d3	0.060187172
9	0xbd8a56c0	-0.067548275
10	0x3d38726f	0.045031007
11	0x3e018b3f	0.12650774
12	0xbd18d9b2	-0.037316985
13	0xbd62de14	-0.05538757
14	0x3db88590	0.0900985
15	0x3d9e771f	0.07737564
16	0x3c4495ce	0.011998607
17	0x3dcbd483	0.09952643
18	0x3ddc0514	0.10743156
19	0xbce2d207	-0.02768804
20	0xbd825274	-0.06363383
21	0x3d01281b	0.03153239
22	0x3c3c3dbc	0.011489328
23	0x3dca91d7	0.09891098
24	0x3d161abc	0.03664659
25	0xbd11717a	-0.03550861
26	0x3e04f660	0.1298461
27	0xbc9ce296	-0.019151013
28	0xbdc1865d	-0.09449456
29	0x3d70f3b5	0.058826167
30	0x3d1242f5	0.035708386
31	0x3dcef70d	0.10105715
32	0xbcffb089	-0.031212108
33	0xbd915112	-0.07095541
34	0x3d98dfad	0.07464538
35	0xbc92e3ce	-0.017930891
36	0x3d04b05c	0.032394752
37	0x3e210c1d	0.15727277
38	0x3d451bdc	0.048122272
39	0x3d696e8b	0.056990188
40	0x3d10413b	0.03521846
41	0x3e055d56	0.13023886
42	0x3d9a03a7	0.07520228
43	0x3dd3b06f	0.103363864
44	0x3d92baba	0.071645215
45	0x3db9cfab	0.09072813
46	0x3bd81ce3	0.0065952404
47	0xbd46d262	-0.04854048
48	0xbdcded0f	-0.10054981
49	0x3d1f3336	0.038867198
50	0xbd32fd18	-0.0436984
51	0x3dd9f68b	0.106427275
52	0xbd3bd051	-0.045852963
53	0xbd09b8e6	-0.0336236
54	0xbdc5f087	-0.096650176
55	0xbd70a5f8	-0.05875203
56	0xbd3a4b28	-0.04548183
57	0xbd7d9398	-0.061908334
58	0xbd0a84d1	-0.03381807
59	0xbd5f272f	-0.054480728
60	0x3da5f751	0.081038125
61	0xbda6dc13	-0.081474446
62	0x3dcf2c36	0.101158544
63	0x3d84c69d	0.06483195
64	0x3dbe3e5c	0.09289238
65	0x3e1269ed	0.1429822
66	0x3c80a2b9	0.015702592
67	0xbe109971	-0.14121033
68	0xbdd69a27	-0.10478621
69	0x3d3ab9e1	0.045587424
70	0x3c159460	0.009129614
71	0x3d3730af	0.044724163
72	0xbd1eb3f7	-0.038745847
73	0xbd049445	-0.032367963
74	0xbc4cb609	-0.012494572
75	0x3dd6d151	0.10489143
76	0x3d57ae9d	0.05265676
77	0x3cff79c4	0.031185992
78	0x3d639984	0.055566326
79	0xbd7b7ab4	-0.061396316
80	0xbe04c072	-0.12964037
81	0x3a8555f3	0.001017271
82	0x3e182d19	0.14860953
83	0xbde8602e	-0.1134647
84	0xbd33b1e9	-0.04387084
85	0x3d1feaa0	0.039042115
86	0x3cf175c6	0.029475104
87	0xbd6ca023	-0.057769906
88	0xbe097ca4	-0.13426453
89	0xbe05cc6f	-0.13066266
90	0xbda6ebf1	-0.08150471
91	0x3cb5a1aa	0.022171814
92	0xbd2685b5	-0.040654857
93	0xbcec86e5	-0.028872916
94	0xbd58e309	-0.052950893
95	0x3dd3ea28	0.10347396
96	0x3da6be9f	0.08141827
97	0x3c0a7651	0.00845106
98	0xbb94a1cd	-0.0045358897
99	0x3db93170	0.090426326
100	0xbd749df3	-0.059720945
101	0xbcaa61a9	-0.020798521
102	0xbdb30c7b	-0.08742615
103	0xbda341e9	-0.07971556
104	0x3cb34a03	0.021885877
105	0x3a5e890d	0.000848905
106	0xbe1296b4	-0.14315301
107	0x3d87dcc7	0.06633907
108	0xbdfa92b6	-0.12235014
109	0x3d24a3e9	0.04019538
110	0x3d38cc88	0.04511693
111	0x3cc15b47	0.023603095
112	0x3e1476ec	0.1449849
113	0x3d50a884	0.05094196
114	0x3d92d4dd	0.07169507
115	0x3d204e98	0.039137453
116	0xbd51043d	-0.051029433
117	0xbcbc6940	-0.022999406
118	0xbdc42ac8	-0.095784724
119	0xbdb0147f	-0.08597659
120	0xbcd77b13	-0.026303804
121	0xbcbbcfbc	-0.022926204
122	0x3c5f2eef	0.01362203
123	0xbc61b28a	-0.013775477
124	0xbd91c06f	-0.07116782
125	0x3b36cb34	0.0027892115
126	0xbde9b6ba	-0.114118055
127	0xbc3db550	-0.011578873
128	0xbd04b917	-0.032403078
129	0x3da73191	0.08163751
130	0xbd104397	-0.03522071
131	0xbdb88341	-0.0900941
132	0x3c7cec12	0.015437143
133	0x3d06d9d1	0.03292257
134	0x3d7f423c	0.062319025
135	0x3e20351c	0.1564526
136	0x3cfc8a31	0.030827614
137	0x3bc7c18a	0.0060960697
138	0xbdf7c3e8	-0.12097913
139	0xbc66ab0a	-0.014078865
140	0x3da867c0	0.08222914
141	0xbd800988	-0.06251818
142	0xbd67d143	-0.056596052
143	0xbd3cf12c	-0.046128437
144	0xbd43769f	-0.047720548
145	0xbcb90428	-0.02258499
146	0xbdb67425	-0.089088716
147	0xbd2160de	-0.03939902
148	0x3c8c70d6	0.017143648
149	0x3c0bfdc8	0.008544393
150	0xbda1c722	-0.0789931
151	0xbd81fb37	-0.063467436
152	0xbc50fa26	-0.012754953
153	0x3dffffc2	0.12499954
154	0x3ceee944	0.029163964
155	0x3de24ec6	0.11050181
156	0xbd97e13e	-0.074160084
157	0x3c96a932	0.018391225
158	0xbb9780c2	-0.0046235034
159	0x3d346b87	0.04404786
160	0xbdd01c58	-0.10161656
161	0x3d96c537	0.073618345
162	0x3c9e733b	0.019342056
163	0xbe04469c	-0.1291756
164	0xbe16d8d0	-0.14731145
165	0x3ba84d49	0.0051361662
166	0xbda96c9e	-0.0827267
167	0xbe15b26a	-0.14618841
168	0x3d034e7c	0.03205727
169	0xbd0ba033	-0.034088325
170	0xbd33d906	-0.04390814
171	0x3e12f63c	0.14351743
172	0x3db4e2a3	0.0883229
173	0x3e1c3245	0.15253551
174	0x3dcb9227	0.09939986
175	0xbde3ffda	-0.11132784
176	0x3d93f30f	0.07224094
177	0xbc176bab	-0.009241979
178	0x3c8b6067	0.017013742
179	0xbd991b72	-0.07475938
180	0xbb6f6f7c	-0.0036534956
181	0x3d693d7d	0.056943405
182	0xbd5d7cba	-0.054074027
183	0xbc8965d3	-0.016772186
184	0xbd1f39ff	-0.03887367
185	0x3d0c2f72	0.034224935
186	0xbd52072b	-0.051276367
187	0x3d9f699c	0.07783815
188	0xbdf23208	-0.11825949
189	0xbce98b4d	-0.028508807
190	0x3e234f5e	0.15948245
191	0xbdb35cb6	-0.087579176
192	0xbd5f7dc5	-0.054563303
193	0x3cec424c	0.028840207
194	0xbd7e8d05	-0.062146205
195	0x3cff07e7	0.031131698
196	0xbd4f793d	-0.05065273
197	0xbdeed62c	-0.11661944
198	0xbd9d95bd	-0.07694576
199	0x3d9246ea	0.07142432
200	0x3d3494e0	0.04408729
201	0xbe052e29	-0.1300589
202	0xbe177312	-0.1478999
203	0x3bd8407d	0.0065994845
204	0x3dc51d5c	0.096247405
205	0xbd9e3be6	-0.077262685
206	0xba71e6c0	-0.0009227805
207	0x3d9b3138	0.07577747
208	0x3e08ede5	0.13372
209	0x3ddb903d	0.10720871
210	0x3d573432	0.05254001
211	0x3d9dc099	0.07702751
212	0xbdb5ed6f	-0.088831775
213	0xbdcb55c6	-0.09928469
214	0xbe00bd0f	-0.1257212
215	0x3d74d1dd	0.059770454
216	0x3dd551bd	0.10415981
217	0x3e10f888	0.14157307
218	0xbb720b1f	-0.0036932898
219	0xbdd39bb4	-0.103324324
220	0xbe06ff02	-0.13183215
221	0x3d66ea72	0.05637593
222	0xbb92da62	-0.0044815997
223	0x3e152bb9	0.1456746
224	0x3d0e4f94	0.03474386
225	0xbd27678c	-0.040870234
226	0xbe08287d	-0.13296695
227	0xbd991943	-0.074755214
228	0x3ca8a795	0.020587722
229	0x3d5f5216	0.054521643
230	0xbd897bb1	-0.067130454
231	0xbd3697fe	-0.044578545
232	0xbd7df5c3	-0.062001955
233	0x3d6a35e0	0.057180285
234	0xbdd1d099	-0.10244865
235	0x3cc13d70	0.023588866
236	0x3d8a90a1	0.06765867
237	0xbd58ed22	-0.052960522
238	0x3b002624	0.0019553984
239	0xbe04bfc8	-0.12963784
240	0xbd26abda	-0.040691234
241	0xbab63cbe	-0.0013903601
242	0xbd9b7668	-0.075909436
243	0x3da9fa01	0.082996376
244	0xbdba9959	-0.0911128
245	0x3d216fcc	0.03941326
246	0x3d10da27	0.035364296
247	0xbdaa2fe3	-0.08309915
248	0x3dc67fa8	0.09692317
249	0x3d60e981	0.054910187
250	0xbd630d05	-0.05543234
251	0x3d4272f0	0.047472894
252	0x3dacebd6	0.0844342
253	0x3d6fccf2	0.05854506
254	0x3d1bcabc	0.03803514
255	0x3d90a34e	0.07062398

lstm.weight_hh_l1 f4 [256, 64]
0	0xbdbe69f0	-0.0929755
1	0x3da5473b	0.08070227
2	0xbdfa3b29	-0.12218315
3	0x3d3045f4	0.043035462
4	0x3c4f92ee	0.012669308
5	0x3cea435b	0.02859657
6	0xbd7e7ae0	-0.0621289
7	0x3d0756b7	0.033041682
8	0x3d2266b2	0.03964872
9	0x3df71f26	0.12066488
10	0xbcd5b8f3	-0.026089167
11	0xbe1493d5	-0.14509518
12	0xbd490c70	-0.049084127
13	0xbdf06ddd	-0.11739705
14	0xbce34175	-0.027741173
15	0x3d9770f0	0.07394588
16	0x3d597e28	0.053098828
17	0xbd0cf0f7	-0.03440949
18	0xbc986850	-0.018604428
19	0x3daff949	0.08592469
20	0x3dc83ed1	0.09777606
21	0xbe00cb81	-0.1257763
22	0x3b68583e	0.0035452987
23	0x3dbcdce0	0.09221816
24	0x3d4410cc	0.04786758
25	0xbcf9f878	-0.030513987
26	0x3e1f68c8	0.15567315
27	0x3db41340	0.08792734
28	0xbcaa19d2	-0.020764265
29	0xbd8ec46c	-0.06971058
30	0x3e0f6c0a	0.14006057
31	0x3d20ea07	0.039285686
32	0xbd92d054	-0.07168642
33	0x3dda84a0	0.106698275
34	0xbd82d927	-0.06389075
35	0xba8021f2	-0.0009775741
36	0x3dee046f	0.116219394
37	0xbd446d89	-0.047956023
38	0xbe022a39	-0.12711419
39	0x3e03ff6b	0.12890403
40	0x3c2ff6d8	0.0107400045
41	0x3d8c35dc	0.0684621
42	0x3c916829	0.017749863
43	0x3e1463f6	0.14491257
44	0xbd4c3504	-0.049855247
45	0xbcef9a2c	-0.02924832
46	0x3dc1bc27	0.09459715
47	0x3d2d5333	0.042315673
48	0xbd2151d8	-0.039384693
49	0x3e149fef	0.14514135
50	0x3d088762	0.033332236
51	0xbc0e79cf	-0.008696034
52	0x3daadb80	0.083426476
53	0xbdca4781	-0.098769195
54	0x3dec92a1	0.11551405
55	0xbc3b407a	-0.011428947
56	0xbe124d23	-0.14287238
57	0x3d00d7af	0.031455692
58	0xbdd29c60	-0.102837324
59	0xbe03e144	-0.12878901
60	0xbd998568	-0.07496148
61	0x3d915856	0.07096927
62	0x3da8dd57	0.08245342
63	0xbd82f29f	-0.063939326
64	0xbdae2c90	-0.08504593
65	0xbd1d69dc	-0.038431033
66	0x3dfbf368	0.123022854
67	0x3dab676a	0.08369334
68	0x3db5e5b4	0.08881703
69	0xbdd62cd3	-0.10457768
70	0xbcfc3393	-0.030786311
71	0xbca8d4f0	-0.020609349
72	0x3dae574a	0.08512743
73	0xbd8f31d3	-0.06991925
74	0xbdf47720	-0.11936784
75	0x3ad9415c	0.0016575265
76	0xbda90724	-0.08253315
77	0x3d62a8a7	0.05533662
78	0x3dd15984	0.10222152
79	0xbd0af4ec	-0.033924982
80	0x3e0fe609	0.14052595
81	0x3d808363	0.0627506
82	0x3d5fa07c	0.05459641
83	0xbd3d6e59	-0.046247814
84	0xbd6b9d57	-0.057523098
85	0x3dc9f73f	0.098616116
86	0x3c628b53	0.013827163
87	0x3e13e0b7	0.1444119
88	0xbdad17b1	-0.084517844
89	0x3ca3b6c5	0.019984612
90	0x3d965819	0.07341022
91	0x3d4c137d	0.049823273
92	0x3c58b819	0.013227486
93	0xbdd090a9	-0.10183842
94	0x3de3d3bd	0.1112437
95	0x3d25b852	0.040458985
96	0x3d40984f	0.047020253
97	0xbd85efdf	-0.065398924
98	0x3dde4447	0.108528666
99	0x3ca41e37	0.020033939
100	0x3d31a835	0.043373305
101	0x3db211f3	0.0869483
102	0x3dcef72c	0.10105738
103	0x3d8074e4	0.06272295
104	0xbd3406df	-0.043951865
105	0xbc9831ce	-0.018578436
106	0xbd0144f3	-0.031559896
107	0xbdaab1e2	-0.0833471
108	0xbdc1e8d9	-0.0946824
109	0x3d57fee3	0.052733313
110	0x3d24625a	0.040132858
111	0xbda76a69	-0.08174593
112	0xbcfd0f4a	-0.03089108
113	0x3d30b128	0.0431377
114	0x3dab662b	0.08369096
115	0xbdc0a572	-0.09406556
116	0xbbd2a292	-0.0064280713
117	0xbd059434	-0.03261204
118	0xbc43ac03	-0.011942866
119	0xbd37dbe1	-0.044887427
120	0xbbd59676	-0.0065181805
121	0x3c466d9f	0.012111097
122	0xbdc1738f	-0.09445869
123	0x3d95404c	0.07287654
124	0x3c986707	0.018603815
125	0x3d8e1f64	0.06939581
126	0x3caf43ad	0.021394575
127	0x3d647ddb	0.055784088
128	0x3bc81e84	0.0061071534
129	0x3ccda141	0.025101306
130	0xbe17655f	-0.14784764
131	0x3dd58912	0.10426535
132	0x3d4aecaf	0.049542125
133	0x3a31d27d	0.00067833794
134	0x3e0a6cb8	0.13518035
135	0xbd1f9c1d	-0.03896724
136	0x3dff6b6f	0.12471663
137	0xbbe94877	-0.007119234
138	0x3cf950e3	0.030434078
139	0xbdf81572	-0.12113465
140	0x3ddad816	0.10685746
141	0x3c2b1755	0.0104425745
142	0xbe017de1	-0.12645675
143	0xbd8dffc3	-0.06933548
144	0xbd312e6a	-0.043257155
145	0x3e0fb10e	0.14032385
146	0xbdbaa2ee	-0.091131076
147	0xbb3c40fc	-0.0028725257
148	0x3da82f79	0.0821218
149	0xbdf31562	-0.11869313
150	0xbd963e22	-0.0733607
151	0xbd45e2a8	-0.04831186
152	0xbdd2ce7c	-0.1029329
153	0xbd9c8335	-0.07642213
154	0xbd80a695	-0.06281773
155	0xbc1d2b53	-0.009592849
156	0xbde523e8	-0.11188489
157	0xbd81aaba	-0.06331392
158	0xbdc70de2	-0.09719445
159	0xbdef0237	-0.11670344
160	0xbd945f8b	-0.07244786
161	0xbd31d300	-0.043414116
162	0x3cbc189a	0.02296095
163	0x3dbd3603	0.092388175
164	0xbb29385d	-0.0025820949
165	0x3cf32ef5	0.029685477
166	0xbe155638	-0.14583671
167	0x3d6b343f	0.057422873
168	0xbd2d57a6	-0.042319916
169	0xbc9d88e4	-0.019230314
170	0x3e073b3d	0.13206191
171	0x3da24bda	0.07924624
172	0xbbd99c04	-0.006640913
173	0xbcae4379	-0.021272408
174	0x3b780842	0.003784672
175	0xbd9f1475	-0.07767574
176	0x3e153fad	0.14575072
177	0xbd7ba7af	-0.061439212
178	0x3d73fcff	0.059567448
179	0x3decda69	0.11565096
180	0x3d7ea251	0.062166516
181	0x3dcb1788	0.099165976
182	0xbd219946	-0.039452814
183	0xb9de56bc	-0.00042407762
184	0x3cc5116d	0.02405616
185	0xbd8b60b0	-0.06805551
186	0xbe062a89	-0.13102163
187	0xbbfbeb8d	-0.007687992
188	0x3dae5358	0.0851199
189	0x3dbf2e11	0.09334958
190	0x3d5406b6	0.051764213
191	0x3d6f3a64	0.058405295
192	0x3de4cd12	0.111719266
193	0xbdb87f2f	-0.09008633
194	0xbe18d750	-0.14925885
195	0x3e0ce0e2	0.13757661
196	0xbd09b02a	-0.03361527
197	0x3cfcf6a2	0.030879322
198	0xbccca93f	-0.024983047
199	0x3d0d4f45	0.034499425
200	0x3d272be3	0.040813338
201	0x3e07fbda	0.13279667
202	0xbd1047ba	-0.035224654
203	0x3c2f11a0	0.0106853545
204	0xbcdc7e37	-0.026915653
205	0x3d7834ea	0.060597338
206	0xbc6eef5a	-0.014583433
207	0x3e0ae75f	0.13564824
208	0xbe0450db	-0.12921469
209	0xbd215068	-0.039383322
210	0x3dca8f1f	0.098905794
211	0xbdb5ecac	-0.08883032
212	0xbd0a74b4	-0.033802703
213	0x3d23800a	0.03991703
214	0xbd0a044e	-0.03369551
215	0xbdea08cc	-0.11427459
216	0xbca4ffc2	-0.020141486
217	0x3d90f45e	0.07077859
218	0x3d158e2d	0.036512543
219	0xbc2aa2f3	-0.010414827
220	0xbe16da18	-0.14731634
221	0xbd6dbf54	-0.058043793
222	0x3dbceb2f	0.09224545
223	0xbdf1c784	-0.11805633
224	0x3e0b231c	0.13587612
225	0x3cbfee7c	0.023429148
226	0x3dfbbc42	0.12291767
227	0xbc08acba	-0.0083419625
228	0xbdd3bc41	-0.10338641
229	0x3daade68	0.08343202
230	0xbdecb13e	-0.11557244
231	0x3d145d2f	0.03622168
232	0xbd0f810f	-0.03503519
233	0xbe031052	-0.12799194
234	0x3d55da7c	0.052210316
235	0xbd29088b	-0.041267913
236	0x3daaebd4	0.08345762
237	0xbc3ecad7	-0.0116450405
238	0xbd8ed72d	-0.06974635
239	0xbd9bba76	-0.07603924
240	0xbd45327b	-0.048143845
241	0x3e0b37b3	0.13595466
242	0x3dcf1605	0.10111622
243	0x3da5919c	0.080844134
244	0xbdaf5be4	-0.085624486
245	0x3c0959b1	0.0083832005
246	0xbd5fa598	-0.054601282
247	0x3d117d89	0.03552011
248	0x3db639cf	0.08897745
249	0x3daeaebf	0.08529424
250	0x3bbf16c3	0.005831571
251	0xbd28c937	-0.04120752
252	0xbd90f9f6	-0.07078926
253	0xbd28986c	-0.041160986
254	0xbdab66ad	-0.08369193
255	0x3da904e3	0.08252885

lstm.bias_ih_l1 f4 [256]
0	0x3d5e6df0	0.054304063
1	0x3de4a495	0.11164204
2	0x3ddc6938	0.107622564
3	0xbd97f650	-0.07420027
4	0x3cb07b5d	0.0215432
5	0x3d77c3c1	0.06048942
6	0x3dc2ed97	0.09517973
7	0xbd7c3236	-0.061571322
8	0xbc057649	-0.008145877
9	0xbd6e4adc	-0.05817686
10	0x3d2b5808	0.041832
11	0xbd93d692	-0.072186604
12	0x3d981c09	0.07427222
13	0xbd9bbd77	-0.07604497
14	0x3d045a52	0.0323127
15	0x3d1ad3a6	0.0377995
16	0xbcd9ab17	-0.02657084
17	0xbdd3e6dd	-0.10346768
18	0x3db1aa63	0.08675077
19	0x3e064898	0.1311363
20	0x3ca03a29	0.019558983
21	0x3dc9c978	0.0985288
22	0xbdaa89d8	-0.08327073
23	0xbd233c4d	-0.03985243
24	0xbb7e34a4	-0.00387887
25	0x3e1059b5	0.1409672
26	0x3d591b8b	0.053004783
27	0xbdc71d19	-0.09722347
28	0x3d3d2e53	0.046186756
29	0x3cf18702	0.029483322
30	0x3d41643e	0.04721474
31	0x3dd26063	0.102722906
32	0x3db6ab28	0.08919364
33	0xbbb07ceb	-0.005385985
34	0x3d94380a	0.07237251
35	0x3c701d69	0.014655449
36	0xbd46e3a9	-0.048556957
37	0x3df6ce30	0.12051046
38	0x3d1df4cb	0.03856353
39	0x3db1a751	0.08674491
40	0xbd534572	-0.0515799
41	0xbb936ba0	-0.004498914
42	0xbdda18af	-0.10649239
43	0xbb19a71c	-0.0023445552
44	0x3dfe1a7e	0.12407397
45	0x3ba1ec71	0.004941516
46	0x3d87bf62	0.066283
47	0x3d2a7c97	0.041622724
48	0xbdd51f5a	-0.104063705
49	0x3d9ba4bd	0.07599781
50	0xbd809c0e	-0.06279765
51	0x3e0bc11a	0.13647881
52	0x3b8e1971	0.004336529
53	0xbda5d2cc	-0.08096847
54	0x3d19d527	0.037556794
55	0x3e1d248e	0.15345976
56	0x3d9f6dad	0.07784591
57	0xbb8926a2	-0.0041855136
58	0x3d7d34cd	0.061817933
59	0x3da5aa5b	0.08089133
60	0xbd937639	-0.072002836
61	0xbd902be0	-0.070396185
62	0xbdcc861d	-0.099865176
63	0x3dd36304	0.1032162
64	0xbda09d50	-0.07842505
65	0xbccc56a4	-0.024943657
66	0x3db5793c	0.08861014
67	0xbd474758	-0.048652023
68	0xb92cf50a	-0.00016494482
69	0x3dcff2ca	0.1015373
70	0x3d39cb95	0.045360167
71	0x3c5db788	0.013532527
72	0xbd7249c7	-0.05915239
73	0xbd97099c	-0.0737488
74	0xb8bd5308	-9.027688e-05
75	0x3e07d8d5	0.13266309
76	0x3c7b2fca	0.015331218
77	0x3d94915a	0.07254286
78	0x3cce758f	0.02520254
79	0x3c0126a3	0.007882747
80	0x3dc6dd8d	0.09710226
81	0x3c70b0a7	0.014690555
82	0x3d87703b	0.06613203
83	0x3d6b3bf0	0.057430208
84	0x3d8fcb0b	0.07021149
85	0x3ddda9bb	0.10823389
86	0xbc4c4547	-0.012467689
87	0xbd054265	-0.032534022
88	0x3d44122a	0.047868885
89	0x3dc86edf	0.09786772
90	0x3e02b8c3	0.12765794
91	0xbd7ed805	-0.06221773
92	0x3d067fb8	0.032836646
93	0x3da872a2	0.082249895
94	0x3d9fc49b	0.078011714
95	0x3e1181cf	0.14209674
96	0x3d10bec2	0.03533817
97	0xbd929cf6	-0.07158844
98	0x3ce0f265	0.027459333
99	0xbd2e2b4b	-0.042521756
100	0x3d22a12c	0.039704487
101	0xbd841cd4	-0.06450811
102	0xbd4bae55	-0.049726803
103	0x3a149375	0.0005667725
104	0xb9d0ed95	-0.00039849864
105	0xbd723bbf	-0.05913901
106	0x3d1ee078	0.03878829
107	0xbd7d8169	-0.061890993
108	0x3dbc83df	0.0920484
109	0xbbb25c5b	-0.0054431385
110	0x3de0bb90	0.10973275
111	0xbd8cd595	-0.06876675
112	0x3d8b7106	0.06808667
113	0x3d1968de	0.037453525
114	0x3de4b490	0.11167252
115	0xbde730e1	-0.1128862
116	0xba8c715e	-0.0010714938
117	0xbdabcad1	-0.083882935
118	0xbdb82693	-0.089917324
119	0xbd80e588	-0.062937796
120	0x3e018034	0.12646562
121	0xbd055937	-0.032555785
122	0xbd091ea9	-0.033476505
123	0x3c74dd4a	0.014945338
124	0x3d8fc50c	0.070200056
125	0x3c8bd790	0.017070562
126	0xbdba4c02	-0.090965286
127	0x3d54b845	0.051933546
128	0x3dc0ae67	0.094082646
129	0x3e00fac4	0.1259566
130	0x3d033491	0.032032553
131	0x3dd36e47	0.10323768
132	0x3d3a76f9	0.045523617
133	0x3dcab3f8	0.098976076
134	0x3e108fb4	0.14117318
135	0xbdfa4ff9	-0.12222285
136	0x3e03660e	0.128319
137	0xbd93146c	-0.071816295
138	0xbdc8bd50	-0.098017335
139	0xbd10cf2c	-0.035353824
140	0x3d92bca6	0.07164888
141	0xbdc04d6a	-0.093897656
142	0x3d632883	0.055458557
143	0xbd6ad044	-0.057327524
144	0xbd1fcbe6	-0.039012812
145	0x3d109acf	0.035303887
146	0x3d6154ad	0.055012394
147	0x3ba45c8d	0.0050159157
148	0xbd8a69a1	-0.06758428
149	0x3d5fb19a	0.054612733
150	0xbd6e1522	-0.058125623
151	0x3dd40f2b	0.103544556
152	0x3d0ddbc5	0.034633417
153	0xbd4986a0	-0.049200654
154	0x3cccbde0	0.024992883
155	0xbdb9a6ff	-0.09065055
156	0xbc1447d9	-0.009050333
157	0xbcb5c693	-0.022189414
158	0xbd00c2b2	-0.031435676
159	0xbe1645ee	-0.14675114
160	0x3d9b33d6	0.07578246
161	0x3d793bfe	0.06084823
162	0x3dd10504	0.10206035
163	0xbd802390	-0.06256783
164	0xbdaf76de	-0.08567594
165	0xbd83c629	-0.064342804
166	0xbcfe2575	-0.03102372
167	0x3e11aa5a	0.1422514
168	0xbcdaff93	-0.026733195
169	0xbdac8eac	-0.0842565
170	0x3bc69632	0.006060385
171	0x3dd5e83f	0.10444688
172	0x3de8ac92	0.1136104
173	0xbcfdbb23	-0.030973023
174	0x3df63b99	0.12023086
175	0xbd9ad080	-0.075592995
176	0xbdbc8dcc	-0.09206733
177	0xbd33a088	-0.043854266
178	0xbdc64c02	-0.09682466
179	0x3d797fbc	0.060912833
180	0x3d72c72a	0.05927197
181	0xbb11c54a	-0.0022242838
182	0xbc9baa71	-0.019002171
183	0xbbd63a12	-0.0065376842
184	0x3daf899f	0.08571171
185	0xbd1b495b	-0.037911754
186	0xbd0a06df	-0.03369796
187	0xbd8e1687	-0.069378905
188	0x3d02f83c	0.031975016
189	0xbc37cc66	-0.011218166
190	0xbcc99435	-0.024606803
191	0xbbe4a403	-0.0069775595
192	0xbdd6f46a	-0.10495837
193	0xbd3f5fd2	-0.04672224
194	0xbc337224	-0.010952506
195	0xbd07ba7e	-0.033136837
196	0xbe094fd2	-0.13409355
197	0x3d936cfa	0.0719852
198	0xbda5341d	-0.080665804
199	0xbdbf58b9	-0.093430944
200	0x3dc985a4	0.09839943
201	0xbd4f4766	-0.0506052
202	0x3deec650	0.11658919
203	0x3ccd6371	0.025071831
204	0xbe0883f7	-0.1333159
205	0x3e15a67f	0.14614294
206	0xbdc746d3	-0.097303055
207	0xbdd11b08	-0.10210234
208	0xbe0a2354	-0.13490039
209	0x3d3e78fe	0.046502106
210	0xbdb78e06	-0.08962636
211	0x3bd78387	0.0065769586
212	0x3dd86b68	0.10567361
213	0xbcc181c1	-0.023621442
214	0x3e023c9f	0.12718438
215	0xbe06c0aa	-0.13159433
216	0x3d9f1774	0.07768145
217	0xbcac80a6	-0.021057438
218	0xbd9a05bd	-0.07520626
219	0x3d8cd749	0.06877
220	0xbd17a7d3	-0.037025284
221	0xbdcf0818	-0.10108966
222	0x3ddb8c8c	0.107201666
223	0xbd9fbbeb	-0.077995144
224	0xbd7f0ef6	-0.062270127
225	0xbd653a66	-0.055963896
226	0x3d9b61ef	0.07587039
227	0x3d666501	0.05624867
228	0xbd99557b	-0.07487007
229	0xbdc173e0	-0.094459295
230	0xbde13a50	-0.1099745
231	0x3d088d88	0.0333381
232	0xbd11ee8a	-0.03562788
233	0xbbc0d441	-0.0058846776
234	0x3d88cb08	0.0667935
235	0xbd770dd1	-0.06031591
236	0x3c50b722	0.012738975
237	0xbd217082	-0.039413936
238	0x3c8b5189	0.017006652
239	0x3de07fdd	0.10961888
240	0xbdbca3c1	-0.09210921
241	0x3d9fe274	0.078068644
242	0x3df6ffc9	0.12060506
243	0x3de22c90	0.11043656
244	0x3d0fb29c	0.035082445
245	0x3e03f97e	0.12888142
246	0x3e07bd75	0.13255866
247	0xbd8b7852	-0.06810059
248	0xbc2d4ef2	-0.010577904
249	0x3b8fa13a	0.0043832334
250	0x3dc61704	0.09672359
251	0xbca7f5b9	-0.020502912
252	0x3d902b79	0.07039542
253	0x3e00721e	0.12543532
254	0x3e053aa9	0.13010658
255	0x3cd43263	0.025902933
