models/lstm_def_model.pt (torch, 245045 bytes, 9 tensors)

lstm.weight_ih_l0 f4 [256, 38]
000000 c9 2d 19 3e ab f8 83 3d 11 63 80 bc 8c 89 06 3e
       0.14958872 0.06443914 -0.015672239 0.13138407
000010 5e 44 2e 3d 36 5c 73 3d c5 3f 7c 3b 59 b4 0d 3e
       0.04254567 0.05941411 0.0038490158 0.13838328
000020 d6 47 3d 3e 67 3a c6 bd 7a dd e5 3d a1 fa 11 3e
       0.18484434 -0.09679108 0.11223884 0.14255764
000030 57 e2 1c 3e 54 f2 5f 3d 40 28 fd 3d ce f4 59 3c
       0.15320717 0.05467446 0.12361193 0.013302995
000040 96 10 bf 3d ef 90 17 bd 5a 71 8e bd 14 d0 55 3d
       0.093293354 -0.037003454 -0.06955214 0.052200392
000050 64 aa 37 bd 20 be f2 3b 21 9f 7a bc f9 ce ad 3d
       -0.04484023 0.0074079186 -0.015296728 0.084867425
000060 86 90 df bd 8c 09 6c bd 39 8c 6f be b3 ed f4 bd
       -0.109162375 -0.057626292 -0.23393334 -0.119594
000070 66 f6 df bb 86 b5 03 be b7 03 b3 3d 38 ee e9 bd
       -0.006834793 -0.12862214 0.08740943 -0.1142239
000080 46 30 8f 3d c8 60 05 3d ef 32 fa bb d4 b6 06 3e
       0.06991629 0.032563 -0.0076354663 0.13155681
000090 0c 31 3b 3d 8c 6c 10 3e 08 1f c5 bb 7c f5 24 bd
       0.04570107 0.14103907 -0.006015662 -0.040273175
0000a0 1a 9c ea bb c8 a0 d0 3b 7b d1 67 3c f2 a4 b5 3d
       -0.007159722 0.006366823 0.014149065 0.088693514
0000b0 c9 6e 8e 3d 2b 2f b3 bd b3 32 a5 3d 21 73 29 bc
       0.06954724 -0.08749231 0.08066311 -0.01034239
0000c0 24 25 e0 3d f2 17 99 bd eb 1a d0 bd 33 49 3d bd
       0.10944584 -0.0747527 -0.10161384 -0.046212386
0000d0 19 de 9f bd 88 ef 68 3d 55 aa 22 3c 7a a1 d2 3d
       -0.07806034 0.05686906 0.009928306 0.102847055
0000e0 70 38 d0 3c e2 40 f5 b8 49 a4 4b 3d dd 8b 08 be
       0.025417536 -0.00011694596 0.04971722 -0.13334604
0000f0 c2 f4 63 3c de de 09 be b1 27 4d 3c e0 52 30 bd
       0.013913335 -0.13463923 0.01252167 -0.043047786
000100 12 ef f4 3d ba 44 c8 3d c4 a3 2a 3d 2a 98 a9 bd
       0.119596615 0.097787336 0.041660085 -0.08280976
000110 07 6a 3f bd bf 6c 4d bd 86 27 0e 3e 9d 26 72 3d
       -0.046731975 -0.050152536 0.13882264 0.059118856
000120 cb 91 90 3d e1 3d e8 bd 6b 76 15 be 08 d4 e9 bd
       0.07059058 -0.113399275 -0.14595954 -0.11417395
000130 6d cf 52 3a 60 af c6 3d b2 fd e6 3c 84 fe fe 3c
       0.0008041773 0.09701419 0.028197143 0.031127222
000140 28 27 1e bd 1a 6c 94 bd e1 9c 12 3e be 77 63 bb
       -0.03861156 -0.07247181 0.14317657 -0.0034708823
000150 3a 9c cb 3d be e6 c7 bc 4d 76 b8 3d bd 8b e2 bd
       0.09941907 -0.024402019 0.09006939 -0.11061809
000160 4a ee 12 bd f1 c2 b1 3d 94 59 b6 3d 71 bd 97 bc
       -0.03587178 0.0867976 0.089038044 -0.01852295
000170 13 b2 17 3d e4 5f 40 3d a7 4a 59 bd 54 75 ba bd
       0.03703506 0.04696645 -0.05304971 -0.0910441
000180 cb 36 31 3e f6 ab 65 bc b2 2a f8 bc ea e6 db bd
       0.17306058 -0.014018049 -0.030293796 -0.10737403
000190 95 78 b3 bd 88 cc ff 3c 30 d4 3a 3d 98 bb a2 bd
       -0.087632336 0.031225458 0.045612514 -0.07945937
0001a0 19 bc 3d 3c fc 57 92 bd ca 13 2e be d6 83 64 bd
       0.0115804905 -0.07145688 -0.16999736 -0.05578979
0001b0 4e 3a fd bd 4e fa 07 be 38 26 58 3e 28 f0 ba 3d
       -0.12364636 -0.13279077 0.2110833 0.091278374
0001c0 68 95 f5 3d 9f 4d 29 bd 5d 3a 21 be d5 30 f0 bd
       0.119913876 -0.04133379 -0.1574492 -0.11728064
0001d0 92 04 a2 3b 4c 1f 17 bd e4 ce 63 bd d0 1d 44 be
       0.0049443925 -0.03689508 -0.05561723 -0.19151998
0001e0 c8 e9 ff bd a4 cd 49 be 71 0e 5a bd 63 97 55 be
       -0.12495762 -0.19707352 -0.05323643 -0.2085853
0001f0 d0 c3 9d bd de a7 89 bd 00 c3 f6 bd 64 48 cf bd
       -0.07703364 -0.06721471 -0.12048912 -0.10121229
000200 0f 84 5a 3d 55 bb 78 3d d7 3f 17 3e 98 4b b7 3d
       0.053348597 0.06072553 0.14770447 0.08949965
000210 2a fe 81 bd 28 e9 4f 3c 97 03 58 be 1a 05 3c be
       -0.06347306 0.012689866 -0.2109512 -0.18361321
000220 a3 77 14 be e5 25 d2 bd a3 1d 2c bd c0 af df bc
       -0.14498763 -0.10261134 -0.04202045 -0.027305484
000230 3f c8 27 3e 45 71 ba bd db 54 5f 3e c4 4f fe 3c
       0.16384982 -0.09103636 0.21809714 0.031043895
000240 dd 0b 15 3e 0d 82 8a 3d 17 b2 5e 3e 10 15 2c 3e
       0.14555307 0.067630865 0.21747623 0.1680491
000250 3c 7d 0b 3e 7c fe 7e bd ad 64 79 3d 23 08 a6 bc
       0.13621992 -0.062254414 0.060887028 -0.020267552
000260 f0 95 a1 bd 96 56 f8 bd 31 ee ee 3c 41 f5 b2 bd
       -0.078899264 -0.1212589 0.029166313 -0.08738185
000270 0d 6d 46 3d a7 3c 99 bd 91 e3 f8 3d e8 35 8c bd
       0.048443843 -0.07482272 0.1215278 -0.06846219
000280 ea 5f de 3d d4 d7 1b bd 40 eb 51 bb 7c 47 4a be
       0.10858138 -0.038047627 -0.003203109 -0.19753832
000290 b1 40 0c 3d 9f 40 71 3d bd f7 60 3c 16 a1 a7 3d
       0.034241382 0.058899518 0.01373094 0.081850216
0002a0 c0 53 8b 3a 18 6c 5b bd 32 2a 94 bd e5 a2 1a be
       0.0010629818 -0.053569883 -0.072346106 -0.15101202
0002b0 a5 24 dd 3d 33 fa 6a bd 0c bc 3d bc 22 9f 91 bd
       0.10798005 -0.057367515 -0.011580478 -0.0711043
0002c0 a4 24 0b be 88 98 36 3d a7 06 16 bb 94 e8 3a be
       -0.13588196 0.04457906 -0.0022892149 -0.18252784
0002d0 3e db d6 3c 8f 42 2c 3e 5d 85 c6 bb 51 29 ba bb
       0.02622759 0.16822265 -0.0060583786 -0.005681195
0002e0 fd e2 9b 3d 10 66 c9 3d 35 b5 28 bd 19 2e 05 bc
       0.07611654 0.0983392 -0.041188437 -0.008128666
0002f0 53 7c 88 bc ce 42 ec 3c b5 2c 91 bc b1 72 32 bd
       -0.016660845 0.028840449 -0.017721513 -0.04356641
000300 5d 4f b4 3d 59 08 f4 3d 54 c3 13 3d c0 fa 09 bd
       0.088042 0.11915655 0.03607495 -0.0336864
000310 fb 8a 24 bd 19 da 03 bd 81 23 0d 3d 2b 1b a6 3c
       -0.040171605 -0.032190416 0.034457687 0.020276627
000320 7f 57 3a be 13 4b 1f bd 7e d4 01 3e 99 73 0d 3d
       -0.1819744 -0.038889956 0.12678716 0.03453407
000330 fa fc cb bc 84 b0 97 bd 55 2d 45 bd 30 f3 01 be
       -0.024900902 -0.074067146 -0.048138935 -0.12690425
000340 48 68 57 3c 00 d0 7e 3c 8d 8a 68 3d 80 4d f6 3c
       0.013147421 0.015552521 0.056772757 0.030066252
000350 9f 7f 0b be 89 45 1a bd 49 05 51 3d 38 a4 f7 3d
       -0.13622902 -0.03766397 0.05103043 0.12091869
000360 27 7f 31 bd 4d cb 7c 3c ec 9d 70 3d 52 15 7b bd
       -0.043334153 0.01542933 0.058744356 -0.06129963
000370 b0 0c af bd 2a 2b 6b 3d e3 fe af bd 7c cb fc bc
       -0.08547342 0.05741421 -0.08593538 -0.030858748
000380 88 af 81 3b 2b f0 1d 3e 38 57 1d 3e 7d 1a e2 3d
       0.0039576925 0.15423648 0.15365303 0.110402085
000390 d3 07 30 bd bd a5 f0 bd bc 4d b2 bd cc 6e 92 3d
       -0.04297621 -0.11750362 -0.08706233 0.07150039
0003a0 e6 d1 c2 3d 9e de f4 3d dc 29 de 3d 0f 6b 5e 3d
       0.09512691 0.11956523 0.10847828 0.054301318
0003b0 64 b3 20 bc f4 47 d0 bd f6 5b b3 bd c2 85 25 be
       -0.009808395 -0.10169974 -0.087577745 -0.16164306
0003c0 dd da 5e 3d 42 6f 28 bd ae 20 6c 3c be 3b 39 bd
       0.054407943 -0.04112173 0.014412088 -0.04522299
0003d0 bf 21 8a 3c 5a 0c fa bd e2 14 71 bd 85 51 9d 3d
       0.016861795 -0.12209387 -0.058857806 0.07681564
0003e0 94 53 41 3d 86 00 1f 3e 8a 52 0c 3d 8a 22 63 bd
       0.047198847 0.15527543 0.034258403 -0.05545286
0003f0 9b 59 3b 3c d0 30 78 bd 75 a9 99 bc ec 3b 2d be
       0.011434938 -0.060593426 -0.018757561 -0.1691739

lstm.weight_hh_l0 f4 [256, 64]
000000 bc 64 e3 bc f8 48 03 3e 02 36 01 3d 87 76 d2 bd
       -0.027757995 0.12820804 0.031545646 -0.102765135
000010 e8 60 d2 bd d9 63 8a 3b 71 df 15 be da 49 b2 bc
       -0.1027239 0.0042233285 -0.14636017 -0.02176373
000020 01 43 9c 3d 4e 71 9b 3d ae 66 e0 bb 28 24 ea 3b
       0.076299675 0.075899705 -0.006848178 0.0071454234
000030 4e a4 bf 3d ce a0 cd 3d b4 00 b5 3d 0b e1 e7 bd
       0.093575105 0.10040437 0.08838025 -0.113222204
000040 20 0d da bd c9 e4 a0 3d dd d7 2b 3e 82 90 a1 bd
       -0.10647035 0.07856137 0.16781564 -0.07888891
000050 b9 b2 c6 3d db ad 7a 3c 36 0b 1b 3c 98 ee fe 3d
       0.097020574 0.015300239 0.009463122 0.12447852
000060 3a d4 04 3e da 71 ca bd d8 fb cf bd 6d 10 64 3d
       0.12971583 -0.09884997 -0.10155457 0.055679727
000070 84 17 66 3d 95 06 85 bd a1 ba 3e 3e f0 61 56 3c
       0.05617477 -0.06495396 0.18625881 0.013084874
000080 9c 2f 86 bd b1 77 c0 3b 83 98 5e be 07 71 03 bd
       -0.065520495 0.0058736433 -0.21737866 -0.032090213
000090 91 88 c2 bd b7 80 05 3e 79 76 f6 bd bf a8 bb 3d
       -0.09498704 0.13037382 -0.120343156 0.09163045
0000a0 3a 71 dc bd 18 f0 ff 3b 17 c4 06 be 1d 59 0c bd
       -0.10763784 0.007810604 -0.1316074 -0.034264673
0000b0 8b 07 73 3d 11 8e ec bd a6 00 21 be 61 19 29 bd
       0.059333365 -0.115505345 -0.15722904 -0.04128397
0000c0 ea 88 04 3b 79 60 8e 3c 5a 80 e0 bc a4 ea c2 3c
       0.0020223209 0.017379986 -0.027404953 0.023793526
0000d0 71 4b 7b 3c 8b 7c de 3d 25 92 0c be 55 69 b2 3d
       0.015337811 0.108635984 -0.13727625 0.08711497
0000e0 8a 2f 0c be 55 7b 9b bd 97 7a 2a 3e 91 46 82 bc
       -0.1369001 -0.07591883 0.16648327 -0.01590279
0000f0 b0 83 eb bd b7 79 f6 3b 95 42 59 bd de a6 52 3d
       -0.11499727 0.0075218338 -0.053042013 0.05142867
000100 eb 40 16 3d d1 1c e3 bd 50 05 60 bd a0 21 1c be
       0.036683004 -0.11089481 -0.054692566 -0.15247202
000110 56 63 db 3d d3 f3 12 bd ba 0a bc bd bc 57 c8 bd
       0.10712306 -0.03587706 -0.091817334 -0.09782359
000120 cd f7 08 bd 3e 61 4f 3d 5a 46 03 3e 20 eb 92 3d
       -0.033439446 0.050629847 0.12819806 0.07173753
000130 6b d8 50 bd 1f 1a 1a 3e 85 91 8c 3d 7b 70 9e 3d
       -0.050987642 0.15049027 0.06863693 0.07736298
000140 a3 ec ae bd c0 35 1c bd d9 e6 92 bc d3 a5 df bd
       -0.085412286 -0.038137197 -0.017932342 -0.109203
000150 4e c5 e7 bc 1a b5 bf 3d fa 29 8e 3d 67 6e 18 3e
       -0.028292324 0.09360714 0.069416 0.14885865
000160 82 53 d6 3d 0d 57 c7 bb 2c 44 d9 3d ff ed 2a 3c
       0.104651466 -0.0060833753 0.10608706 0.010432719
000170 d3 70 f2 3d 27 8f 43 bd 21 62 8b 3d 0e 18 51 3d
       0.11837926 -0.047743943 0.06805826 0.05104833
000180 ab 2c c4 3d 76 b4 1b bd be eb 66 bd 2d 06 87 3d
       0.09578832 -0.038013898 -0.056377165 0.06592975
000190 eb 8e 86 3c bd 29 e0 bd 37 46 3e bd 26 ed 3b bc
       0.01642557 -0.10945461 -0.04645368 -0.011470115
0001a0 73 4c 99 3d a7 3b 81 3b 4a e4 59 bd 3d 0a e8 3d
       0.07485285 0.0039438787 -0.05319623 0.11330078
0001b0 85 07 c1 bb 03 0a 27 bd b6 13 d5 3d 4c 38 32 3d
       -0.005890789 -0.040781032 0.1040415 0.04351072
0001c0 f4 3d 06 3e d5 e6 ba 3c a9 72 8b 3d 78 d0 ed bd
       0.1310957 0.022815147 0.06808979 -0.11612028
0001d0 bc 19 4c 3e b3 66 09 bd 5a 3c 3b 3c 48 e8 a7 3d
       0.19931692 -0.033545207 0.011427963 0.08198601
0001e0 a7 ef b9 3c 5f ed fd bc fe 76 93 3d 6f bd 23 3d
       0.022697283 -0.030996976 0.0720043 0.03997558
0001f0 22 46 f3 bd e6 ea e5 3b 9e a3 3f be 74 43 be bc
       -0.11878611 0.0070165275 -0.18714759 -0.023225524
000200 7c a3 1c 3c 6a 72 99 bc 1b 9d e4 bb d2 57 47 ba
       0.009560462 -0.018731315 -0.0069767362 -0.0007604334
000210 cf f4 61 bd cc 93 43 be 29 31 f2 3d bf be f1 bc
       -0.05516511 -0.19099349 0.11825783 -0.0295099
000220 23 56 5a 3d 5f d9 51 3d 98 b2 8d 3d cb f6 4a 3d
       0.053304803 0.05123269 0.0691883 0.049551766
000230 86 b0 bf bd 50 a8 16 3d f2 7d 16 be 89 ab 48 bd
       -0.09359841 0.03678161 -0.14696482 -0.048991714
000240 79 8e ec 3d 12 ac db 39 3e 9d 14 3d d3 4f 5b 3d
       0.11550612 0.00041899137 0.03628277 0.053542923
000250 aa 0f 09 be 47 c3 2f bc c0 81 bd 3d ed d2 94 3d
       -0.13384882 -0.01072771 0.092532635 0.072667934
000260 6c 7f fa 38 a1 83 15 3e e5 8b 0e be 29 00 d2 3d
       0.00011944663 0.14600994 -0.13920553 0.10253937
000270 84 e0 c7 3a bf 30 39 bd fd 84 14 3e 8d bf 6e bb
       0.0015249406 -0.045212504 0.14503856 -0.003643009
000280 cc 31 a8 be 63 ea a9 bc d7 1c 00 3d 1f 09 a2 3d
       -0.32850492 -0.020741647 0.031277504 0.07911896
000290 0c d9 da bc 47 93 50 3e 60 ba 28 3d 55 17 06 be
       -0.026714824 0.20368682 0.041193366 -0.13094838
0002a0 84 71 89 bd cb 18 86 3c 51 cf ee bd a8 10 88 bc
       -0.067111045 0.016369244 -0.11660636 -0.016609505
0002b0 58 dc 4c bd 90 fe f1 bc 8c c2 dc 3d eb f5 98 bd
       -0.050014824 -0.02954033 0.10779294 -0.0746878
0002c0 7d 51 33 3d 6d b7 5b be 32 2c ce 3c 32 8c 4d bd
       0.043778885 -0.2145669 0.025167558 -0.05018253
0002d0 4b de 29 bd 0d 4e e1 bd 0d 1e b8 3d e1 4a b7 3d
       -0.04147176 -0.11001215 0.08990107 0.08949829
0002e0 21 27 8f 3d d5 42 0d bd 05 01 28 3e 0b 2d ba 3d
       0.06989885 -0.034487564 0.16406639 0.090906225
0002f0 07 fc 72 3d 0b a5 34 bd c2 79 eb 3c dc ec c8 bd
       0.059322383 -0.04410271 0.028744582 -0.09810802
000300 64 81 ab 3d 65 34 9e 3c 74 0f 0c 3d 3c ba 12 3e
       0.08374289 0.019312093 0.034194425 0.14328855
000310 7e 2a ac 3c cd 8b 3c be bf d2 44 3e 7a c0 32 3e
       0.021016356 -0.18412705 0.19221018 0.17456236
000320 0a fb 2c 3e 05 a7 ca bd aa cd 8e bc ad 3b ce bc
       0.16892639 -0.09895138 -0.017432053 -0.02517494
000330 c0 ce 4a 3e 3f d8 6e be a0 68 51 be 7d c0 c5 bd
       0.19805431 -0.23324679 -0.20450068 -0.09655855
000340 69 fe a1 3d 4e 41 dc 3d 27 33 55 bd cc 42 41 bc
       0.07909853 0.107546434 -0.052050736 -0.011795711
000350 ed 7d f1 3d 23 c2 8b 3d 31 f3 d1 3c 6f 0c 05 bd
       0.117915966 0.06824138 0.025628658 -0.03248256
000360 ad 93 e8 bd d9 15 63 bd 6a a3 1e be 51 3d 79 3d
       -0.11356292 -0.055440757 -0.15492025 0.06084949
000370 06 fe af 3d a9 ed f2 bd 6c a4 77 bd 0e 7c 04 3d
       0.08593373 -0.11861736 -0.06045954 0.03234487
000380 58 c6 b6 bd 18 d1 84 3c f7 2a 38 3e 6e b4 c4 3d
       -0.0892455 0.016212985 0.1798514 0.09604727
000390 fa 55 21 be 77 70 ad 3d 35 8d b6 bd 07 54 f5 bc
       -0.15755454 0.084687166 -0.08913652 -0.029947294
0003a0 43 d6 f9 bb e2 e1 cf 3d d1 d5 2e bd 70 a1 57 38
       -0.007624419 0.101505056 -0.04268438 5.1410345e-05
0003b0 e1 24 a5 3d ba b7 83 bc 7c c8 6e 3e ce 4d 21 be
       0.08063675 -0.016078819 0.23318666 -0.15752336
0003c0 70 f7 f7 3d 95 b7 54 3d b8 2d 8b bd 9f b6 6e bd
       0.12107742 0.05193289 -0.067958295 -0.05827963
0003d0 95 00 b2 bd 44 9a df bd 86 a3 6a 3d 00 4b 52 be
       -0.08691517 -0.10918096 0.057284854 -0.20536423
0003e0 da 0d f3 bd e8 c3 50 be 6e ef 1e bc fc aa de bd
       -0.11867876 -0.20387232 -0.009700639 -0.108724564
0003f0 4b 71 04 3e dc 6b 47 be fa 19 98 bd f5 3a 9a 3d
       0.12933843 -0.19474739 -0.0742683 0.075307764

lstm.bias_ih_l0 f4 [256]
000000 80 1c fc bc 94 be a6 3a dc 45 99 3c 5a 96 e2 bc
       -0.030775309 0.0012721592 0.01871007 -0.027659584
000010 c0 a0 44 bd 05 91 a3 3d 07 6d 70 3d ba 5f 36 3e
       -0.048004866 0.07986645 0.058697727 0.17809954
000020 5c c0 12 3e 9f 21 9b 3b 89 d3 da 3d d4 fd 14 3d
       0.14331192 0.0047342326 0.106848784 0.036374882
000030 19 5b cc 3d 0c b8 86 bd 9d db 01 bb 44 f9 62 3d
       0.09978313 -0.06578073 -0.0019814738 0.0554135
000040 1f bc 8f 3c db 8b bd 3c d4 de ed 3d fb 15 19 3e
       0.017545758 0.023137977 0.11614767 0.14949791
000050 8a 11 01 be 30 d9 06 3d 3b aa 15 3d e0 8c ba 3d
       -0.12604347 0.03292197 0.036539298 0.09108901
000060 81 ab e7 bd 5d 0d d7 3d 4c f7 29 3d ab 2b 85 3d
       -0.11312009 0.10500596 0.041495606 0.0650247
000070 af 50 e0 bc d5 d2 e2 3c 98 9c c0 3d 2f e0 e5 3d
       -0.027382223 0.027688423 0.09404868 0.112244
000080 dc 79 d0 bc 3a 89 96 3d 24 88 38 bb 61 53 0e 3e
       -0.025448732 0.07350393 -0.0028157318 0.13898994
000090 3e c7 a9 bc b6 08 ed 3d ad 8a b7 bd 06 48 9d 3d
       -0.020724889 0.11573927 -0.08961997 0.07679753
0000a0 60 7c 7a 3b e1 5c 81 bd 85 fb 1b bb 39 29 85 bb
       0.0038221106 -0.06316543 -0.002380104 -0.004063752
0000b0 f5 52 f3 3d 41 a5 df 3d c2 25 09 3e ad ef f3 bc
       0.11881057 0.109201916 0.1339331 -0.029777372
0000c0 30 94 5b 3e 45 1b 2d 3e e9 f2 1b bd a7 f9 c1 bd
       0.21443248 0.16904934 -0.038073454 -0.094714455
0000d0 d1 c4 c1 3d 21 e8 e9 3d 93 76 be 3d 69 33 74 bd
       0.09461368 0.11421228 0.0929996 -0.05961934
0000e0 82 e8 e9 bc ba c1 db 3d 63 4d 7e bd e9 48 cb 3d
       -0.028553251 0.1073031 -0.06208552 0.09926016
0000f0 79 00 7d 3d b1 5a a3 bc 75 50 7b bd 08 10 a0 bd
       0.06176803 -0.019940706 -0.061356027 -0.07815558
000100 da 4d c4 3d ff 70 aa 3b d5 4e 5e 3d a9 c0 82 3c
       0.095851615 0.0052014585 0.0542744 0.015961008
000110 4e 14 aa bd c4 de 22 3d 88 f2 d0 bd 68 8f b2 3d
       -0.08304654 0.039763227 -0.10202509 0.08718759
000120 ba 0c b5 3c a3 49 0f 3e 88 f2 58 bd 6b 5d ce ba
       0.022100795 0.13992934 -0.05296567 -0.0015744393
000130 9f 27 77 bd 5a c2 f3 3d d6 98 e8 bc 98 8e 0f 3c
       -0.06034052 0.11902304 -0.02839319 0.008762024
000140 2b c8 0b be b8 ec bd 3d 0f 99 b1 3d e4 8b 00 bc
       -0.13650577 0.09273666 0.08671772 -0.0078458525
000150 45 10 3e bd d5 33 08 bd 40 ff cc bc 61 41 f7 bd
       -0.046402235 -0.033252556 -0.025024056 -0.12073017
000160 d9 a6 99 bc 82 53 e2 3d e6 28 ad bd df 56 f9 3d
       -0.018756317 0.11051084 -0.084550664 0.121747725
000170 28 11 22 bc 7b 41 5b bd f1 a8 09 be 77 90 0e 3e
       -0.009891786 -0.053529244 -0.13443352 0.13922296
000180 d8 90 f5 ba 91 56 d1 3d ee ab ce 3d 3a 81 33 3e
       -0.0018735183 0.10221589 0.10091387 0.17529765
000190 c3 50 ce bd ec 76 47 3d 90 96 b1 3d d8 ce 50 bd
       -0.10073998 0.048697397 0.08671296 -0.05097851
0001a0 ec a9 e6 bd 5c 0a 8d bc a8 e0 6c 3d 4f 75 3c bd
       -0.11262879 -0.017216854 0.057831436 -0.04601031
0001b0 a9 85 e2 bd 4a 0f 22 3d 15 1a 14 3e f4 46 90 bd
       -0.1106065 0.039565362 0.14463075 -0.07044783
0001c0 2f 98 3f bd cc 7f 7a 3d 19 2c 0e 3e 23 3b 01 3c
       -0.046775993 0.061157033 0.1388401 0.007887634
0001d0 db b1 05 3e ae ed d2 bb 4d 62 9e 3d 1a 76 cd bd
       0.13056128 -0.006437025 0.07733593 -0.10032292
0001e0 d4 64 fd 3c d8 35 40 bd a6 7a 17 3e 0e 0f 8a 3d
       0.030931868 -0.04692635 0.1479288 0.06741153
0001f0 5e d6 1a bb 63 b8 cb bc 60 04 42 3c 5a 08 73 3d
       -0.0023626308 -0.024868196 0.011841863 0.059334137
000200 6a 1c 53 3d dc 1f 14 bc c5 b1 a9 bd 77 f1 e4 bd
       0.05154077 -0.009040799 -0.0828586 -0.11178868
000210 ee 17 0e be 1d c3 84 bd a6 98 19 bd a6 9d 84 3c
       -0.13876316 -0.064825274 -0.037499093 0.016188454
000220 25 05 ab 3d 6d 9d f4 3c 34 ea e0 3c c6 0e 95 3d
       0.083505906 0.029860223 0.027455427 0.072782084
000230 9b e4 0e 3e eb 70 03 3e c8 fa b8 ba 35 69 97 3d
       0.13954394 0.12836044 -0.0014112825 0.073931135
000240 ed 4e da bd 45 61 86 3d d3 c5 a2 3d 7a aa 2d be
       -0.10659585 0.065615214 0.07947888 -0.16959563
000250 ab 36 cd bd c5 b5 99 3c 9c 43 0c 3e a9 e9 b7 3d
       -0.10020193 0.018763432 0.13697666 0.08980114
000260 8c 6e e7 bd 4f 62 09 3e e2 4b ec 3c 28 1a 04 bb
       -0.11300382 0.13416408 0.028844777 -0.0020157192
000270 5a 67 60 bc 3e 00 83 3d 0e 88 14 3d 01 7e 9b 3c
       -0.013696516 0.063965306 0.036262564 0.018980982
000280 6c 7c 12 be cb ce 84 bd 35 7a fe bd 16 8e 11 be
       -0.14305276 -0.06484755 -0.12425653 -0.14214358
000290 9b db 08 3c 28 14 20 3c 3f e6 db bd 1e be d2 bd
       0.008353139 0.009770431 -0.10737275 -0.10290168
0002a0 8c fa 1c 3e 6f eb 08 3e 4f eb f9 bd 4a dd c3 bd
       0.15329951 0.13371061 -0.12203085 -0.09563692
0002b0 16 14 96 3d e7 69 5a 3b 3d 05 bf 3c e0 99 a4 bc
       0.0732805 0.0033327283 0.023317927 -0.020092905
0002c0 85 fd d0 bb 5b 2f 18 be c6 35 f6 bd 61 7e a8 3d
       -0.006377878 -0.14861815 -0.12021975 0.0822723
0002d0 7b 69 89 3d 4d 3b 4f 3d cb c7 95 bd f7 45 af bd
       0.06709572 0.050593663 -0.07313498 -0.085582666
0002e0 b8 a1 81 bd 12 ff a4 bd 77 3a de bd 27 22 92 3d
       -0.063296735 -0.08056463 -0.10850995 0.0713542
0002f0 7c 3e 9e bd 18 6e 04 be 65 7d 8a 3a 47 32 c7 3d
       -0.07726762 -0.12932622 0.0010565935 0.097263865
000300 3a 6d 56 3c 66 26 0b be c4 14 cf 3d 0f f9 f7 3c
       0.013087565 -0.13588867 0.101113826 0.030270128
000310 b0 23 e4 3d 87 68 83 bd 8b c8 20 3e 6c a0 20 3d
       0.11139619 -0.064164214 0.15701501 0.03921549
000320 61 ad 15 3e e1 32 a6 3d aa fa ed 3d f8 f3 a8 3d
       0.1461692 0.08115173 0.11620076 0.08249658
000330 37 99 c4 bc 78 4a 0d 3d 13 be 14 3e a2 e6 68 bd
       -0.02399884 0.034494847 0.14525633 -0.056860574
000340 22 a6 55 3d ec 06 f6 ba dd 22 d7 3d 86 85 7a bd
       0.05216039 -0.0018770373 0.105046965 -0.061162494
000350 da 21 f0 bd b0 16 8c 3d 44 f0 c9 3b c5 7b 15 bc
       -0.11725207 0.06840265 0.006162675 -0.009123747
000360 ca 4c ac 3c 87 51 27 3e 5a 45 cf bd 6a 3f 80 bb
       0.02103271 0.16339694 -0.1012065 -0.0039138095
000370 a3 70 ee bc 4d f6 a7 bc 95 b7 d3 bc f8 f7 ec 3d
       -0.029106444 -0.020503188 -0.025844375 0.11570734
000380 4b 83 a8 3d fd 73 98 3d 15 52 b4 b9 8d d2 15 3e
       0.08228167 0.07443998 -0.0003439343 0.146311
000390 5c ce bb bc fd 27 c0 bc 89 de ae bd 02 b1 ba bb
       -0.022925548 -0.023456568 -0.08538539 -0.0056973705
0003a0 ec 24 d5 bc 8c 4c a9 3d 64 b5 09 3d ee 47 48 3a
       -0.026018582 0.08266553 0.033620253 0.0007640113
0003b0 5e 3a 9f bd a9 11 55 3e 91 2b 50 3e 3d e4 73 bc
       -0.077748045 0.20807518 0.2032912 -0.014885959
0003c0 99 c0 58 3e c4 01 2a 3d 3a 6e 05 bd 5a 61 01 3d
       0.2116722 0.04150559 -0.032575823 0.031586982
0003d0 1e dc a1 bd ad fd dd bd 5f 54 12 3d c5 f7 25 3e
       -0.07903312 -0.108394004 0.035724994 0.16207798
0003e0 6c 71 27 3e 8a e4 ca 3d 18 19 e7 3d 00 1c 8e 3d
       0.16351861 0.099068716 0.11284083 0.06938934
0003f0 26 7f 01 3b 73 f5 25 bd c7 8e 26 3e 5e b8 0c 3e
       0.0019759624 -0.04051728 0.16265403 0.13742206

lstm.bias_hh_l0 f4 [256]
000000 0d 5b b0 bd b4 5c 04 be c5 ed 0d 3d 83 5f 8d 3c
       -0.086111166 -0.12925988 0.034650583 0.017257458
000010 c6 7b c5 ba 3d e4 df 3d e7 a9 4a 3c 20 bd 33 3e
       -0.0015066795 0.10932205 0.012369609 0.17552614
000020 a3 ea e7 3c fd e3 e7 3c 7d 75 fc 3c 9c 29 9c 3c
       0.028310126 0.028306955 0.030817742 0.01906281
000030 bb 8a 8a 3c ae ce dd bc 83 ee 48 bd 40 12 78 3d
       0.016911855 -0.027076092 -0.049055588 0.06056428
000040 54 bb c4 3c 34 9d 09 3c 0d fe 04 3d b7 a5 60 bb
       0.024015106 0.008399297 0.032468844 -0.0034278461
000050 8f 11 23 be 0a 6c e3 3d f8 79 84 3d 46 28 96 bd
       -0.15924667 0.11104591 0.06468576 -0.073319
000060 2f de b7 3d c6 e1 ae 3c dd 29 ce bd df 93 b0 bd
       0.08977925 0.021347892 -0.100665785 -0.08621954
000070 23 5b be bc ae f4 b5 bd dd 65 4a 3d f6 f3 86 bd
       -0.023236817 -0.088845596 0.04941355 -0.065895006
000080 71 8b 66 bd c3 f4 e8 3d 36 6b 35 ba 4d 69 98 3d
       -0.056285325 0.113748096 -0.0006920578 0.074419595
000090 b8 14 58 bd 3c a2 9f 3d e9 52 8d bd 90 c7 04 bd
       -0.052754134 0.077946156 -0.069005795 -0.03241688
0000a0 b9 6a 30 3c 26 5a 28 bd 20 f4 96 3d 1e 1e bd 3d
       0.010767632 -0.041101597 0.07370782 0.0923426
0000b0 a1 76 c5 3d df 7c 41 bd 43 23 02 bd b5 c7 9d 3c
       0.09641767 -0.047238227 -0.03177191 0.019260267
0000c0 9a 7b 74 3e 33 d9 64 3d 82 d3 c2 3d 49 36 96 3d
       0.23875275 0.0558712 0.09512998 0.07334573
0000d0 cd 96 a0 3d 7f ad 42 bc 35 bc 8c 3d 36 35 9b bc
       0.07841263 -0.011882185 0.06871835 -0.018946271
0000e0 c2 cc 9b 3d 1c 2b 89 3d 4a ca e9 bc 3f 42 27 bd
       0.07607414 0.066976756 -0.028538842 -0.04083466
0000f0 c2 28 98 bd 58 7b 9d 3c 91 c8 0a 3d 06 d1 a2 3d
       -0.07429649 0.019223854 0.03388268 0.07950024
000100 30 a3 8e bd 58 36 99 3d 4b 58 86 bd 8d 8c 20 3e
       -0.06964719 0.074810684 -0.06559809 0.15678616
000110 fb 7c a0 3d d9 06 b1 3d fe d9 9e bd 53 05 34 bd
       0.07836338 0.08643884 -0.077564225 -0.04395039
000120 b4 14 d4 bc 24 23 99 bc 79 19 62 bc 9a 5e 24 3c
       -0.025888778 -0.018693514 -0.0138000185 0.01003232
000130 ed 63 a1 3d 60 ff 22 3e d9 54 30 3d ba 5e 59 3d
       0.078803875 0.1591773 0.043049667 0.053068854
000140 8b db 71 bd d7 6e 4b bd f1 0d a0 3d 28 55 32 bd
       -0.059047263 -0.049666252 0.07815159 -0.043538243
000150 93 8f 23 bd aa 2f e7 bd bc 11 0e 3c e9 0d 00 be
       -0.039931845 -0.11288388 0.00867122 -0.12505306
000160 24 7b fd bd c8 e7 c0 3d 40 99 86 bd 1f 5b cf 3c
       -0.12377003 0.09419209 -0.06572199 0.025312005
000170 79 df f3 3d 1d 72 49 3c f7 12 8a bc 49 e2 15 bd
       0.119078584 0.012295273 -0.016854746 -0.036592755
000180 02 1d cc 3d 31 26 1a 3e 51 0d 2e 3d 17 1c d0 bc
       0.0996647 0.15053631 0.04249317 -0.02540402
000190 13 45 b4 3d f5 18 c5 3d 98 df b3 3d eb 31 f6 bb
       0.08802237 0.09623901 0.087828815 -0.007513275
0001a0 6a 2c 30 3a 63 10 0f 3d f8 4a b3 3d 01 be 7a bc
       0.00067204854 0.034927737 0.087545335 -0.0153040895
0001b0 a1 48 bd 3c 26 18 dd 3d 19 67 b8 3d 86 8d be bd
       0.023105921 0.107956216 0.09004039 -0.09304337
0001c0 89 8d cf bd 86 53 86 3d d2 62 02 3e 12 6b e2 bc
       -0.101344176 0.065588996 0.1273301 -0.027638946
0001d0 5c 44 0b 3e 38 7c 91 3c 55 60 c2 3d 38 47 f4 bd
       0.13600296 0.017759427 0.0949103 -0.119276464
0001e0 ea 54 52 3d fb 55 b5 3d 86 09 a9 3d c9 43 a5 3d
       0.05135051 0.0885429 0.082537696 0.080695696
0001f0 9f 54 da bd d9 53 0a 3e a4 b6 6b bd 2f 8c eb bd
       -0.106606714 0.13508548 -0.057547227 -0.11501347
000200 a2 08 7a 3d c9 7e 35 3d 9d 2d c3 3d d1 9e 8b 3d
       0.06104339 0.044310365 0.095301844 0.06817401
000210 b4 b7 c3 3b a6 f2 4e 3d c5 f5 11 3e bb ac c3 3d
       0.005972827 0.050524376 0.1425391 0.0955443
000220 a3 3a 25 3d 61 8e 60 bc 63 fc f5 bd 05 ca 7d 3d
       0.040339123 -0.013705821 -0.120110296 0.06196024
000230 2b db 59 bd d2 ea fa 3c 3a 72 13 be fa 11 1d be
       -0.05318753 0.03062955 -0.14399043 -0.15338889
000240 ca fe 51 bd f3 61 00 be 71 be 8e 3d 34 96 a6 bc
       -0.051268376 -0.12537365 0.069699176 -0.020335294
000250 db 24 e8 bc 5e 04 1d 3e 36 50 0e 3e 66 56 7a 3d
       -0.028337887 0.15333697 0.13897786 0.061117552
000260 2c d4 a5 bd da bb ae bd 83 ee d6 bb 15 fd dd 3d
       -0.08097109 -0.085319236 -0.0065591945 0.10839287
000270 82 b2 b7 bd b1 df d6 bd c4 61 87 bc fb a4 59 3d
       -0.089695945 -0.104918845 -0.01652611 0.053135853
000280 e7 37 05 3d 5c 43 05 bd 24 88 2a bd 69 7a 87 bd
       0.032524016 -0.032534942 -0.04163374 -0.06615145
000290 cf e9 19 bd 15 c8 f5 3d df 4c b6 bd 9c ca ea bd
       -0.037576493 0.12001053 -0.08901381 -0.11464426
0002a0 67 45 a9 3c 7f d0 bc 3c 14 3a d9 3c 02 a3 6e 3c
       0.020662976 0.023048637 0.026516952 0.014565231
0002b0 91 0a f2 3d 70 9f 7c bc 06 8b 99 3d 79 6f 8b bd
       0.11818422 -0.015418872 0.0749722 -0.06808371
0002c0 72 a2 1e be c9 af c9 bd d9 23 d1 3d c1 29 4c bd
       -0.15491655 -0.098479815 0.102119155 -0.049844507
0002d0 a6 66 24 bd e8 1a 93 3c 81 50 f2 bd 4b ed 44 3c
       -0.040136956 0.017957166 -0.11831761 0.012019466
0002e0 d0 51 cb bd f2 78 ba 3d ef 36 c1 3d 71 4a 9f 3d
       -0.09927714 0.091051 0.09434306 0.077778704
0002f0 01 04 8c 3d 3a 7e 7a 3d 3d cd 5a 3c af 20 17 3d
       0.06836701 0.061155535 0.013354597 0.036896404
000300 4b bb b7 3c 0b 75 99 bd 3c 3d 45 3d 96 8e c6 3b
       0.022428175 -0.07493027 0.0481541 0.006059478
000310 b4 ec b8 bd cd 3a c0 3c 07 cf a7 bc 45 1d 77 3c
       -0.090295225 0.023465538 -0.02048446 0.015082662
000320 69 41 b3 3d 68 35 80 bc 5d 78 0e 3e fa 9f ef bb
       0.0875271 -0.015650466 0.13913102 -0.007312772
000330 5b ac 87 bd 3a 48 80 3d 61 4f 6a 3d d8 69 9d 3d
       -0.06624671 0.06263776 0.057204608 0.07686204
000340 30 f0 4a 3d 0f 65 64 bd e9 6a d0 bd 9e 69 d8 3d
       0.049545467 -0.05576044 -0.101766415 0.1056702
000350 f8 97 8e bd 64 d9 0a 3e 5f 86 b0 bc 54 d8 07 3e
       -0.069625795 0.1355949 -0.021548448 0.13266116
000360 22 71 b0 3c 0d 55 00 3d 29 25 41 bd bf 52 fb 3d
       0.02153832 0.03133111 -0.04715458 0.12271642
000370 26 c3 fe 3d 9f 13 05 be ac f4 a6 bc d9 af 18 bd
       0.12439565 -0.12995766 -0.02038034 -0.037277076
000380 e8 9a 3b 3d cb b4 30 bd fd c2 3e bd ef f0 ac 3d
       0.045802027 -0.043141168 -0.046572674 0.08444392
000390 a8 9a 49 3d 7f 96 cc 3b 14 40 86 3d f7 4d 12 3e
       0.049219757 0.0062435265 0.06555191 0.14287554
0003a0 78 e2 21 3c df 48 02 3e f7 ab 9b 3d 6c ca 83 3d
       0.0098806545 0.1272311 0.07601159 0.06435093
0003b0 5c b1 12 bd 7d ed 53 3e 99 be 34 3e 1c 44 48 bd
       -0.035813674 0.20696063 0.17650832 -0.04889308
0003c0 c1 f8 12 3e fd 67 fa bc d0 5d 48 bd 25 8d a6 bd
       0.14352705 -0.030567164 -0.04891759 -0.0813239
0003d0 5c 1d a1 3c 06 9a ea bc 73 a5 83 3c d0 01 2c 3e
       0.01966732 -0.028637897 0.016070103 0.16797566
0003e0 dd 7f b7 3d 6c eb cd bd 3a 1a 4b bc f9 9e 83 bd
       0.08959935 -0.10054669 -0.01239639 -0.06426806
0003f0 f3 7f 93 bd f3 06 d9 3d 5d a1 ca 3d 96 ee 5a bb
       -0.07202139 0.105970286 0.09894059 -0.0033406368

lstm.weight_ih_l1 f4 [256, 64]
000000 b0 6c d5 3d 30 9a e1 bc c7 76 c2 3d 20 f5 0d bd
       0.10421121 -0.027539343 0.09495311 -0.034657598
000010 98 eb c0 bd d7 f0 63 bd 5e c2 1e ba d1 14 5e 3e
       -0.09419936 -0.055649605 -0.00060561846 0.21687628
000020 e0 60 98 3d b3 dd 9e bd bd df 01 3d 38 b6 de 3d
       0.074403524 -0.077571295 0.031707514 0.10874599
000030 6e ef 9c 3d 27 1e 93 3d ba 63 f5 3d 39 04 96 3d
       0.07662855 0.071834855 0.11981912 0.07325024
000040 0d bb 82 bc 18 04 c1 3d 72 63 a5 3d b4 d9 10 bd
       -0.015958333 0.09424609 0.08075608 -0.035363868
000050 2b b0 b0 bd 8e 99 05 3e db 73 d0 3c 51 c1 5e 3d
       -0.086273514 0.13046858 0.02544587 0.05438358
000060 e1 8d 4a 3b 27 a1 35 bc ad f7 f7 3d 4d cf fc bc
       0.003090732 -0.011085785 0.12107787 -0.030860567
000070 ae fd 15 be 7c 03 df 3c 76 06 02 3d f9 79 d8 3d
       -0.14647552 0.027223341 0.031744443 0.105701394
000080 fd 6d 60 bd 99 b8 da bd fd db bf 3d fb c1 db bc
       -0.054792393 -0.106797405 0.09368131 -0.026825896
000090 3a 1b 30 3d d7 7f 6e 3e 3d c7 91 3d c8 63 aa 3d
       0.042994715 0.23290955 0.0711808 0.08319813
0000a0 7e 8f 03 3e 2e 08 0f 3e 4e 47 09 3e 8c 89 be 3d
       0.12847707 0.13967964 0.13406107 0.09303579
0000b0 f6 80 c8 3d df b1 c8 3d ce fe 78 bd a3 a5 57 bd
       0.09790222 0.09799551 -0.060789876 -0.052648198
0000c0 21 61 55 be 17 89 3e 3d cb f8 72 bd 58 f5 0b 3e
       -0.20837833 0.046517458 -0.0593193 0.1366781
0000d0 88 c4 97 bd e7 24 a5 3c 49 c9 b3 bd e0 3c 3f bd
       -0.07410532 0.020159198 -0.087786265 -0.046688914
0000e0 89 59 82 bd eb a5 82 bd 3e 6b f7 3b 5e c7 9e bc
       -0.06364734 -0.063793026 0.007550626 -0.019382175
0000f0 68 33 a0 3d cc 12 66 bd 3d c8 6c 3e e9 76 1b 3e
       0.07822305 -0.05617027 0.2312326 0.1518208
000100 04 54 71 3d 06 63 2f 3e 4c 6d 2c bd 1c 3d 07 be
       0.058918014 0.17127618 -0.04209642 -0.13206905
000110 19 e9 03 be 00 dc 6c 3d 7c 0e 89 3b db 41 8e 39
       -0.12881888 0.057826996 0.004182635 0.00027133417
000120 67 5b d3 bd 32 5a f3 bc 77 9f a1 bc 18 71 f3 3d
       -0.10320168 -0.029706094 -0.01972936 0.11886805
000130 8e 30 38 3d 0e 7d 28 bc a3 3c 68 3d e4 32 59 bd
       0.04496818 -0.010283722 0.056698453 -0.05302705
000140 99 e3 ef bd 50 59 4e bb 8a e1 0e 3e 8e c1 ce bd
       -0.11713333 -0.003148634 0.13953224 -0.100955114
000150 07 ee 52 bd 2a 3d b7 3d 9d cc a8 3d 3b 0d 6f bd
       -0.05149653 0.08947213 0.08242152 -0.058362227
000160 17 ff b1 bd c5 2e 1a be 51 28 a7 bd 83 7e 45 3b
       -0.08691233 -0.15056904 -0.081619866 0.0030135221
000170 83 16 14 bd 9f 4e 98 bb 48 15 b9 bd 1d c3 4f 3d
       -0.03615428 -0.0046480442 -0.09037262 0.050723184
000180 a5 01 95 3d f1 c4 d9 3c a1 84 71 bd 03 63 a7 3d
       0.07275704 0.026583167 -0.058964375 0.08173182
000190 33 0d 51 bd 9c 27 bb bc a8 58 a7 bd 47 73 33 bd
       -0.05103798 -0.022846036 -0.08171207 -0.04381111
0001a0 37 65 6e 3c 96 8f 6d 3a be 23 3a be 68 87 4c 3c
       0.014550499 0.00090622285 -0.18177697 0.012483455
0001b0 27 cf e1 bd ab 22 13 3d d6 3d cc 3d 11 f0 84 bc
       -0.11025839 0.035921734 0.09972732 -0.016227754
0001c0 a0 7c 3f 3e 15 6d 3f 3d 60 7a 1b 3d d4 59 90 3d
       0.18699884 0.046734888 0.037958503 0.07048383
0001d0 09 e5 8c bd da a0 1f 3d d7 8a 21 be ae 9f 86 bd
       -0.068796225 0.03897176 -0.1577562 -0.06573425
0001e0 6d cf 63 bd dd bf 41 3c 6c f2 96 bc 86 6e 82 bd
       -0.05561774 0.011825529 -0.018426143 -0.06368737
0001f0 80 f2 0d bd 56 f7 a3 39 e4 d4 02 be ca 19 67 bc
       -0.034655094 0.00031274062 -0.12776524 -0.01410527
000200 93 bb 95 bc ac 97 b8 3d fd 2f 36 bc 74 29 a3 bd
       -0.018277919 0.09013304 -0.01111984 -0.07966891
000210 5c 22 5b 3c ae d6 1e 3d ee 96 b2 3d de 3c 4a 3e
       0.013374891 0.038778953 0.08720194 0.19749781
000220 3a a0 6d 3d c4 d2 34 3d a8 6f 06 be 5c af f1 3c
       0.058014132 0.044146314 -0.13128531 0.029502563
000230 8f 6c ac 3d 5c 98 34 3d 04 4b 82 bd 47 e1 85 bd
       0.084191434 0.044090614 -0.06361964 -0.06537109
000240 3e b0 93 bd d2 58 d9 bc 6f f3 e1 bd 22 d0 c5 bc
       -0.0721135 -0.02653161 -0.110327594 -0.024147097
000250 58 a0 f9 3c 8f ab 9f bb 8a f3 39 bd 25 00 64 bd
       0.030471966 -0.0048727463 -0.045398273 -0.0556642
000260 1b 65 1e bd 8d 67 09 3e c0 90 2e 3c 4c b1 ff 3d
       -0.03867064 0.13418408 0.010654628 0.124849886
000270 40 73 f1 bd 58 07 a7 3c b8 06 b5 3c 31 ea 17 3d
       -0.1178956 0.020389244 0.02209793 0.037088577
000280 62 7d 02 be 74 ad 73 bc fa 3e 54 b9 99 5c 34 be
       -0.12743142 -0.014872897 -0.00020241356 -0.17613448
000290 d1 cb 0e be 54 0e 57 3d e1 08 a3 bd 19 86 23 be
       -0.13944937 0.0525039 -0.07960678 -0.15969123
0002a0 17 25 a3 3d ea d0 10 bd bc d0 9b bd 3d ba fa 3d
       0.07966059 -0.035355486 -0.07608172 0.122425534
0002b0 a4 35 a2 3d ec 4f 33 3e fa 41 1d 3e 64 6f 7c bd
       0.079203874 0.17510957 0.153572 -0.061629668
0002c0 c4 8c 05 3d 49 a3 2a bc 4a 7a 95 3a 37 20 6f bd
       0.032604948 -0.010414907 0.0011404243 -0.05838033
0002d0 40 b5 85 bd 1a 8c 13 3d f5 9b 83 bd 7f b2 e5 bc
       -0.06528711 0.036022283 -0.06426231 -0.028039215
0002e0 d0 71 93 bc 55 d8 0e 3d b7 1c e9 bc 5a c0 60 3d
       -0.017998606 0.03487428 -0.028456075 0.05487094
0002f0 67 98 dd bd 8b 77 6d bc 0f 8e 0c 3e a5 9f 78 bc
       -0.10820084 -0.014493833 0.13726066 -0.015174781
000300 93 79 9a bd 8d f8 47 3d 91 3f 65 bd 25 c5 47 bc
       -0.0754272 0.04882102 -0.055968825 -0.012192999
000310 f5 a3 8e bd 25 d2 fa bd 30 2e 9f bd 48 16 bf 3d
       -0.06964866 -0.12247113 -0.077724814 0.09330422
000320 41 ac 37 3d f3 05 c2 bd 56 82 03 be 22 40 24 3d
       0.04484201 -0.09473791 -0.12842688 0.040100224
000330 dc 0b 07 3e 9a 1b 24 ba 9f 2e 27 3c db e0 48 3d
       0.13188118 -0.00062602165 0.010203986 0.049042564
000340 97 0f 1f 3e 01 2d a9 3d 62 9b 75 3d 82 e1 01 3e
       0.15533291 0.08260537 0.059962638 0.1268368
000350 d6 6a b7 bd 80 c5 88 bd 83 04 e9 bd b7 0a 4c 3d
       -0.08955924 -0.06678295 -0.11377814 0.049814906
000360 0d 13 d3 3c 3b d8 14 3e 26 00 1b bd 63 ba e6 bd
       0.02576592 0.1453561 -0.03784194 -0.11266019
000370 12 af 03 be aa 1f 85 3d 96 fe 66 bb 98 ab 05 3e
       -0.12859753 0.0650018 -0.003524696 0.13053739
000380 7a e1 9c b9 f2 9d 81 bd 96 f3 0a be 8a f8 44 bd
       -0.00029922632 -0.06328954 -0.13569483 -0.048088588
000390 dc 7c 00 3d 6b 2d be 3d 2e 64 65 bd bb a0 15 bd
       0.031369075 0.092860065 -0.056003742 -0.036530238
0003a0 6a de 6f 3b 7e 22 10 3c b3 57 58 bd b7 57 00 bd
       0.0036601075 0.008797286 -0.05281801 -0.03133365
0003b0 42 39 6e 3d bf e8 db bc 46 95 cf bc 51 1b 4e be
       0.058160074 -0.02684438 -0.025339734 -0.20127608
0003c0 ba db bd bd f4 c4 cc 3c da 58 4e bd 53 01 c0 3d
       -0.09270425 0.024996258 -0.050377704 0.093752526
0003d0 dc 75 0e be da 78 2d 3e 4c 40 f8 3c 6a 0c 64 bd
       -0.13912147 0.16940632 0.030304097 -0.0556759
0003e0 db 42 a8 3d 1e 18 31 3d 9f 5e 54 3d 89 0d 0d 3d
       0.08215877 0.04323589 0.05184805 0.034436736
0003f0 b1 c7 01 3e 6c 9d a4 3d 7e 46 7c 3c 85 74 24 3e
       0.12673832 0.08037838 0.015397666 0.16060074

lstm.weight_hh_l1 f4 [256, 64]
000000 4c 4e af bd c9 5c 0e 3d 55 15 0b be bc 24 25 3d
       -0.08559856 0.034756456 -0.13582356 0.040318236
000010 a1 cb aa 3c 69 2c c7 3b 3b dc 9f bd 5f 21 d6 3c
       0.020849051 0.006078292 -0.078056775 0.02613896
000020 f8 fd 9e 3d d7 9a ca 3d 6d e4 2e bd ff f3 0b be
       0.077632844 0.098928146 -0.042698313 -0.13667296
000030 bd 84 47 bd 0d 4b fe bd a1 cd 46 bd 7d 6c b0 3d
       -0.048710573 -0.124166586 -0.048535947 0.086144425
000040 ed b3 2b 3d 22 7c b1 bc 34 7f de bc eb ae f0 3d
       0.041919637 -0.021665636 -0.027160265 0.11752113
000050 81 ad 66 3d 0b 87 02 be 97 81 b6 bc 17 e8 9a 3d
       0.05631781 -0.12746827 -0.02227859 0.07563799
000060 d4 d6 da 3d 33 ee 08 bd 20 66 1b 3e 98 c6 83 3d
       0.106855065 -0.03343029 0.15175676 0.06434363
000070 91 3b 16 bd 84 52 94 bd 73 6e 26 3e 4e 2b c9 3c
       -0.0366779 -0.07242301 0.1625307 0.024556782
000080 27 e3 9c bd fa 95 bc 3d 5e 2a 60 bd 35 ff 83 bb
       -0.07660513 0.09208293 -0.054727904 -0.004028226
000090 21 ea 1b 3e c1 31 85 bd b3 c3 2f be 1a 94 f2 3d
       0.15226032 -0.065036304 -0.17164497 0.118446544
0000a0 56 38 93 3b cd 9b 68 3d b1 3f 15 3d 58 2d 0d 3e
       0.0044927998 0.05678921 0.036437694 0.13786829
0000b0 26 09 bf bc be 34 09 bd b0 7a 0f 3e 31 6a 59 3d
       -0.023319792 -0.033497564 0.14011645 0.053079788
0000c0 af 84 6e bd 98 a5 28 3e 20 f9 cf 3b f1 ce a0 bc
       -0.058232006 0.16469419 0.0063468367 -0.019629927
0000d0 bb 0c d0 3d 5e 92 ac bd f7 1e 0d 3e f9 14 e7 bc
       0.10158678 -0.08426355 0.13781343 -0.028208243
0000e0 8b db 09 be b7 e7 3b 3d 65 2a e9 bd c6 96 09 be
       -0.13462655 0.045875277 -0.11385039 -0.13436422
0000f0 1b 98 ce bd 4f 55 a6 3d c1 fa cd 3d 11 71 86 bd
       -0.100876056 0.0812174 0.10057593 -0.065645345
000100 85 ba 01 bd e2 9a d8 ba d3 49 c6 3d 4f f0 d2 3d
       -0.03167202 -0.0016525651 0.096820496 0.102997415
000110 bd ad 21 3e 99 db 97 bd 10 da 50 3d a9 d8 b5 bd
       0.15788932 -0.07414932 0.05098921 -0.08879215
000120 4e 67 b8 3d 33 3b eb 3b ee 78 36 be 22 84 74 bd
       0.09004079 0.007178688 -0.17819569 -0.059696324
000130 e3 46 0a be 25 dc 6c 3b 07 0f ba 3d 59 94 ba bb
       -0.13503604 0.0036141959 0.090848975 -0.005693954
000140 5b 39 f0 3d 66 e0 a2 bc c5 ff 1c 3e ec c1 bb bb
       0.1172969 -0.019882392 0.15331943 -0.0057299044
000150 eb 43 07 be 9b a6 2d 3d 3c a4 4f 3d e7 ae 23 3e
       -0.13209502 0.042395215 0.050693735 0.15984689
000160 b6 35 10 be a9 86 7b bc 5c 97 fa 3d d9 e9 15 3e
       -0.14082989 -0.01535193 0.12235901 0.14639987
000170 65 7e 4b bc 7a 48 46 be e8 67 1b 3e 34 19 83 bc
       -0.0124202715 -0.19363585 0.15176356 -0.016003229
000180 82 f0 ae 3d 1b 58 97 3c 4e 49 45 3e aa e1 cb bc
       0.08541967 0.01847463 0.19266245 -0.024887878
000190 3d 4f 95 3d ca 14 bc 3d ab 5f 20 3e 3d ff b8 3d
       0.07290504 0.09183653 0.15661494 0.09033058
0001a0 dc d3 ad bd 57 2e 18 bd 85 3d b6 bc 53 d2 55 bd
       -0.084876746 -0.037153568 -0.022246132 -0.052202534
0001b0 df 8b ac bb a0 4b b3 3d 47 9f 41 3d a3 a3 fb bd
       -0.0052656974 0.08754659 0.04727104 -0.122870706
0001c0 9f 07 96 bd 00 e4 9c 3d 5d 23 6c 3d 26 9d 28 bd
       -0.07325672 0.07660675 0.057650913 -0.041165493
0001d0 0c ff 9e bd 56 5c db bd 76 00 0d 3d 6e 1f eb bd
       -0.0776349 -0.10710971 0.034424268 -0.11480604
0001e0 92 f0 92 bd 20 52 2c 3d b8 a2 00 be 53 d4 87 bc
       -0.071747914 0.042070508 -0.12562072 -0.016580736
0001f0 4e 26 79 bd 0b e6 9c 3d 2f ef 48 bd 63 29 d5 3d
       -0.060827546 0.07661065 -0.04905623 0.104082845
000200 61 d2 fa 3a 9c 2b 95 3d cd 4a 1c be 5d 49 e4 3d
       0.0019136184 0.072837085 -0.15262909 0.111468054
000210 c0 f3 45 3d ed f3 07 3b f8 59 2f 3e a4 c0 30 bd
       0.04832816 0.0020744756 0.17124164 -0.043152466
000220 32 2e e4 3d 62 b6 65 bc 6c 94 7d 3c 22 7e 04 be
       0.111416236 -0.014020534 0.015477281 -0.12938741
000230 e2 fa 0c 3e 47 15 00 3b 3c 0a f6 bd 26 e2 b8 bd
       0.13767579 0.0019543932 -0.12013671 -0.090275094
000240 43 ce c2 bc b2 3a 08 3e e3 ad 98 bd 26 70 9b 3a
       -0.023779994 0.1330364 -0.07455041 0.0011858984
000250 ee c5 d1 3c 77 41 d0 bd 2b 46 44 bd 29 21 3f bd
       0.025607076 -0.101687364 -0.04791848 -0.046662483
000260 e2 03 ff bd 80 74 9d bd 86 f7 44 bd 8c 98 29 bc
       -0.124519125 -0.07688236 -0.04808762 -0.010351311
000270 f6 15 da bd 42 86 74 bd 0d 53 ce bd 25 01 0d be
       -0.1064872 -0.05969835 -0.100744344 -0.13769968
000280 ee 6e 95 bd 08 22 23 bc 09 c3 47 3d d3 c3 98 3d
       -0.07296549 -0.009956844 0.048769984 0.074592255
000290 b2 f8 79 3b b2 2c 4c 3c 6d 1a 4f be 42 31 21 3d
       0.0038142619 0.012461828 -0.20224924 0.039353617
0002a0 cd dd 55 bd 8f 82 e1 3b c7 12 33 3e a0 07 a9 3d
       -0.05221348 0.006882019 0.17487632 0.082534075
0002b0 4a 9a 4e 3c c7 c8 06 bd 10 de 52 3a 11 a2 d3 bd
       0.012610028 -0.03290632 0.0008043954 -0.10333646
0002c0 aa 23 06 3e 60 16 96 bd a1 4a 72 3d 60 34 ee 3d
       0.13099542 -0.073284864 0.059153203 0.116310835
0002d0 93 f1 5b 3d d7 92 f5 3d f1 61 37 bd 9a 2a 22 3c
       0.05369718 0.11990898 -0.04477114 0.009897852
0002e0 33 13 ac 3c 9c a3 8e bd d4 4f 02 be 95 bc d0 bc
       0.021005249 -0.069648 -0.12725765 -0.025480548
0002f0 e7 3d d8 3d 42 8e b5 3d 21 2d 67 3d f6 37 40 3d
       0.10558682 0.08865024 0.056439523 0.04692837
000300 e1 4a b7 3d 60 a2 c6 bd a2 fa fb bd a6 a4 e6 3d
       0.08949829 -0.09698939 -0.12303664 0.11261873
000310 4f 3b 4a bd f8 30 a9 3b 73 4f 9f bc 76 b7 34 3d
       -0.049372967 0.0051633082 -0.019447064 0.044120274
000320 6b 72 af 3c 43 7a d8 3d bd 9e 87 bc 72 b6 08 3d
       0.021416863 0.105701946 -0.016555184 0.03337712
000330 1a b1 16 bc 1e 45 ac 3d 62 ec 1c bc b3 50 ef 3d
       -0.009197498 0.084116206 -0.009577842 0.11685314
000340 10 d9 1c be 2b 75 1f bc 90 f6 9a 3d 5f 69 ec bd
       -0.15317178 -0.009732525 0.07566559 -0.115435354
000350 a5 47 17 bd 39 b5 60 3d 4d b1 8f bd da 51 14 be
       -0.03693356 0.054860327 -0.07016239 -0.14484349
000360 a1 51 41 bd 3b e3 b3 3d e4 d6 06 3c c6 e0 13 bd
       -0.047196988 0.08783575 0.008229945 -0.036103033
000370 06 5b e4 bd 5b 8b dd bc 33 13 ad 3d be 6c e6 bd
       -0.11150174 -0.027043989 0.084509276 -0.1125121
000380 e8 f9 d6 3d 2b 5a 58 bc 33 6d c0 3d e6 05 95 3b
       0.104968846 -0.0132050915 0.09395828 0.0045478223
000390 55 c5 e8 bd 1c 83 40 3d f1 e7 01 be a9 79 de bb
       -0.11365763 0.047000036 -0.12686135 -0.0067894054
0003a0 52 3b e7 bb e6 1c b3 bd 46 7e ae 3d f4 7e 83 bd
       -0.007056632 -0.08745746 0.085201785 -0.06420699
0003b0 e6 24 af 3d 93 ff 19 bd 00 60 a7 bd 7e bc a4 bd
       0.0855196 -0.03759725 -0.081726074 -0.080437645
0003c0 81 a8 72 bd 68 c3 f4 3d ef 7a fd 3d 24 d9 2f 3d
       -0.05924273 0.11951333 0.12376963 0.04293169
0003d0 d6 56 91 bd 60 f1 13 3d 9c 12 94 bd 24 f5 94 3d
       -0.07096641 0.036118865 -0.07230112 0.07273319
0003e0 6d 8f e9 3d a7 a2 64 3d f8 c2 bd 3c 51 8e 6a bc
       0.114043094 0.05581918 0.023164257 -0.014316157
0003f0 82 57 30 bd 50 97 73 bd 74 2d 83 bd 9a 08 11 3d
       -0.043052204 -0.059470475 -0.06405154 0.035408594

lstm.bias_ih_l1 f4 [256]
000000 d1 8d 82 3d 0f 2f fb 3d f5 f6 ff 3d 29 6a c7 bd
       0.063747056 0.12264835 0.12498275 -0.09737045
000010 76 19 a6 3c 68 d1 7a 3d d1 5b cc 3d d0 ec a9 bd
       0.020275813 0.06123486 0.0997845 -0.082971215
000020 20 89 17 bd b7 76 4e bd f8 cc 6c 3d 05 cf 50 bd
       -0.036996007 -0.050406184 0.05781266 -0.05097868
000030 1b 4b 69 3d f4 4b ab bd ee 03 95 3c 77 b2 9e 3c
       0.05695639 -0.08364096 0.01819035 0.019372208
000040 7f 23 c8 bc 27 28 ab bd d3 cc 8e 3d ac ee 05 3e
       -0.024430988 -0.08357268 0.06972661 0.13079327
000050 ef 2c c7 bb 63 88 48 3d 4b 82 b3 bd 73 7e 91 bc
       -0.0060783545 0.048958194 -0.08765086 -0.017760491
000060 2e e5 54 3c e4 07 0d 3e 25 41 5d 3d 26 c2 cf bd
       0.012994094 0.13772541 0.054017205 -0.10144453
000070 09 59 74 3d 1f fc 67 3d 0d fc 00 3d 06 2e e1 3d
       0.059655223 0.056636926 0.031490374 0.109951064
000080 ca 53 85 3d c6 23 a2 bc bf a4 6d 3d 8a b5 e0 3c
       0.06510122 -0.019792449 0.058018442 0.027430315
000090 bc 1b 3c bc 86 43 f7 3d 52 87 30 3d 7c 74 85 3d
       -0.011481222 0.12073426 0.0430978 0.06516358
0000a0 ff f5 3f bd 36 33 9e bc fa 72 95 bd 7c cb 0b bc
       -0.04686546 -0.019311529 -0.07297321 -0.008532401
0000b0 c8 cb 74 3d 10 61 f3 39 d1 3a 84 3d 15 9a 8f 3d
       0.059764653 0.0004642089 0.06456531 0.07011811
0000c0 27 f5 0d be a3 5c 05 3e 96 75 56 bd 06 bc e3 3d
       -0.1386305 0.1302362 -0.052358232 0.11119847
0000d0 34 02 e8 3b 70 c4 e6 bd 94 1a 4c 3c 08 06 11 3e
       0.0070803408 -0.11267936 0.012457509 0.14162457
0000e0 d8 3f a5 3d 9a 6e e6 3c 9c cd 0c 3d 11 05 c2 3d
       0.08068818 0.02812891 0.034375772 0.094736226
0000f0 c0 d5 b6 bd d7 5b ee bd e5 af 02 be 29 4d cd 3d
       -0.08927488 -0.11638611 -0.12762411 0.10024483
000100 6f 84 c7 bd be aa b9 bc 1e e0 d5 3d 9d 6f b3 bd
       -0.097420566 -0.022664424 0.104431376 -0.08761523
000110 34 da e7 bb a8 53 c6 3d a4 f1 9a 3d 16 71 b8 bc
       -0.0070755724 0.09683925 0.075656205 -0.022514861
000120 16 8e 8f bd 31 10 09 be db 52 91 3c a8 48 13 3e
       -0.070095226 -0.13385083 0.017739704 0.14383185
000130 64 5c 7a bc 66 19 84 3d 48 19 9d 3c 92 9c 12 ba
       -0.015280817 0.06450157 0.019177094 -0.0005592789
000140 04 2c ac 3d 80 37 71 3c 88 42 65 3d 60 ad ca 3d
       0.08406833 0.014722705 0.055971652 0.0989635
000150 0a be b7 3d 4b de 95 3d da d2 b9 bc cc 26 78 bd
       0.08971794 0.0731779 -0.02268355 -0.060583875
000160 6a ba 3f 3d bd 67 d2 3d 9c 41 0e 3e 8a 88 1b bd
       0.046808638 0.10273693 0.13892215 -0.03797201
000170 7e 20 14 3d 77 2a 88 3d 2d 9c b0 3d 65 f0 22 3e
       0.0361638 0.066487245 0.08623538 0.15912016
000180 6d 72 90 3c 6e cd c0 bd 4e 29 a5 3c c3 85 8c bc
       0.017632687 -0.094141826 0.020161297 -0.017153626
000190 4a a3 ab 3d 2d 19 06 be 15 0d 63 bd 62 3b c0 bb
       0.08380754 -0.13095541 -0.055432398 -0.005866454
0001a0 76 56 0c 3d d1 af 9e bd b5 11 33 3c 9a d0 b6 bd
       0.034262143 -0.07748378 0.010929515 -0.08926506
0001b0 dc 43 97 3d 39 19 b5 bc 2a b2 15 3e b6 9d 38 bd
       0.0738599 -0.022106754 0.14618745 -0.04507228
0001c0 2c 3d 59 3d cb f3 0b 3d 55 97 09 3e 9f 89 14 be
       0.053036854 0.034168046 0.13436635 -0.14505623
0001d0 87 61 cd bb f9 67 e2 bd 78 f0 b4 bd 25 bb 40 bd
       -0.0062677297 -0.110549875 -0.08834928 -0.047053475
0001e0 7a f2 11 3e 2a 16 c3 bb c9 33 dc bc e1 ad e0 3c
       0.14252654 -0.00595357 -0.026880162 0.027426662
0001f0 65 f1 60 3d 68 e0 ce 3b a4 c1 e3 bd 48 27 31 3d
       0.05491771 0.0063133724 -0.111209184 0.043250352
000200 43 c4 d5 3d 47 e1 0e 3e 6c 22 bc 3c ef d6 db 3d
       0.104378246 0.13953124 0.022965632 0.10734355
000210 de b6 1b 3d 37 18 d7 3d 1c e4 19 3e 4b 87 ee bd
       0.038016193 0.105026655 0.15028423 -0.11646899
000220 19 c4 02 3e 55 31 a3 bd 9c c5 d0 bd 70 03 29 bd
       0.12770118 -0.07968394 -0.10193941 -0.041263044
000230 ab 8b 93 3d d7 fd cd bd 13 0c 49 3d 25 c6 76 bd
       0.07204374 -0.10058182 0.04908378 -0.06024756
000240 cc c4 e7 bc 46 89 ef 3c 76 8b 6f 3d 48 fb a2 3c
       -0.028292082 0.029240262 0.05848261 0.01989521
000250 e2 ed e9 bd 89 81 92 3d 02 46 5d bd 43 9d f8 3d
       -0.11422326 0.07153613 -0.054021843 0.1213937
000260 13 07 3d 3d ce 04 5e bd 4d 95 f7 3c 0a 7f e0 bd
       0.046149325 -0.0542038 0.03022256 -0.10961731
000270 5d f2 24 bd 17 19 31 bd dc ea ec bc e0 e9 1b be
       -0.040270198 -0.04323682 -0.028920583 -0.15225935
000280 fc 9c 9f 3d e2 48 86 3d 07 c9 df 3d 29 f2 90 bd
       0.07793614 0.0655687 0.10927015 -0.070774384
000290 cf e8 7d bd 9a 60 5d bd 7c bf 82 bd 74 b1 13 3e
       -0.0619896 -0.054047205 -0.06384179 0.14423162
0002a0 66 8a d9 bc 28 1f af bd 64 09 aa bb 25 fe e3 3d
       -0.026555251 -0.085508645 -0.0051891077 0.111324586
0002b0 17 6d ec 3d 56 8a b3 bc 03 2b 07 3e d0 59 b6 bd
       0.11544245 -0.02191655 0.13200001 -0.08903849
0002c0 bb 03 cf bd b8 4e 33 bd 0b ce db bd fc ed b0 3d
       -0.101081334 -0.043776244 -0.10732659 0.08639142
0002d0 ad ff 43 3d cf 12 a5 bc 14 4e 94 bc fe be 57 bc
       0.047851253 -0.02015057 -0.018103637 -0.013168095
0002e0 ce b5 98 3d a4 a2 88 bc 53 64 2e bd 57 37 91 bd
       0.074565515 -0.016679116 -0.042576145 -0.07090633
0002f0 f5 b1 16 3c 6d ef 1a 3b 67 ba ef bc ef 5f b3 bc
       0.009197702 0.0023641244 -0.029263688 -0.02189633
000300 2a e3 b7 bd e3 5c 09 bd 14 48 20 bb 4b 3a 8d bd
       -0.08978875 -0.03353585 -0.0024457024 -0.06895884
000310 b0 e4 09 be 1c e9 80 3d b1 93 99 bd a4 00 bc bd
       -0.13466144 0.06294462 -0.07498873 -0.0917981
000320 c3 df a4 3d 81 c7 8d bd aa 4a f0 3d fe 31 b6 3c
       0.08050492 -0.06922818 0.11732991 0.022240635
000330 0c c3 1c be c4 5e 0d 3e a2 d3 f8 bd f1 ba 0a be
       -0.1530878 0.13805681 -0.12149741 -0.13547875
000340 17 2a 08 be 57 1c 89 3d 44 c5 e1 bd 23 09 e0 bc
       -0.13297306 0.066948585 -0.110239536 -0.027348107
000350 90 73 b3 3d 5a 84 9a bd 2e eb 03 3e eb bd c1 bd
       0.08762276 -0.07544775 0.12882683 -0.09460052
000360 62 c4 bc 3d 63 07 dc bc 42 ff a3 bd ce 7f 28 3d
       0.092171445 -0.026858991 -0.08007671 0.04113751
000370 9b fa e3 bc 5c 62 90 bd e2 cc ac 3d b0 09 80 bd
       -0.027829459 -0.070500106 0.08437516 -0.06251848
000380 60 af b7 bd af d1 65 bd b1 2c 8e 3d a7 2d 7d 3d
       -0.08968997 -0.056108173 0.06942118 0.061811116
000390 8c de 6c bd c3 84 16 be 00 21 18 be 33 9f dc 3c
       -0.057829425 -0.14699082 -0.14856339 0.02693138
0003a0 66 4e 69 bd e8 3b b8 bc 91 cd a7 3d 46 56 a1 bd
       -0.056959532 -0.022489503 0.081935056 -0.078777835
0003b0 90 dd e6 bc 90 35 79 bd 0a 65 9c 3c 3c 4d f3 3d
       -0.028181821 -0.060842097 0.019091148 0.11879966
0003c0 2d f6 ed bd b6 ca a0 3d ae 87 fb 3d 77 26 bb 3d
       -0.1161922 0.07851164 0.12281738 0.09138196
0003d0 7e 04 8f 3d 5a f3 da 3d ba c8 ef 3d d8 52 b2 bd
       0.06983279 0.10690947 0.117082074 -0.087072074
0003e0 82 48 4a bc 12 79 46 39 a9 25 83 3d 98 51 1b bd
       -0.012346389 0.00018927854 0.064036675 -0.03791961
0003f0 50 21 57 3d f1 7b ba 3d 74 77 e6 3d 07 43 1e 3d
       0.052522004 0.09105671 0.112532526 0.03863814
