models/lstm_gk_model.pt (torch, 245029 bytes, 9 tensors)

lstm.weight_ih_l0 f4 [256, 38]
0	0x3e067df0	0.13133979
1	0x3d917ff9	0.07104487
2	0x3b5cbe70	0.0033682846
3	0x3deb2a1c	0.11482641
4	0xbd5c309a	-0.053757288
5	0x3c40e018	0.011772178
6	0xbd7a1c70	-0.061062276
7	0x3da31fa3	0.079650186
8	0x3e0eac02	0.13932803
9	0xbd71f094	-0.059067324
10	0x3de742aa	0.11292012
11	0x3afff119	0.0019526809
12	0x3df8d161	0.12149311
13	0x3d131432	0.03590793
14	0x3da026aa	0.078198746
15	0x3c4826b7	0.012216262
16	0x3e00e155	0.12585957
17	0x3c975b38	0.018476114
18	0xbdad83ed	-0.084724285
19	0x3c96d1e6	0.018410634
20	0xbd6cbd0c	-0.057797477
21	0xbc09f0e0	-0.0084192455
22	0xbd068809	-0.032844577
23	0x3de6cff6	0.11270134
24	0xbd8dd825	-0.06925992
25	0xbd0013fa	-0.03126905
26	0xbdae1dee	-0.085018024
27	0xbd37222b	-0.04471032
28	0x3d0da843	0.034584295
29	0xbddfde51	-0.10931075
30	0x3dd895ce	0.10575448
31	0xbd82a9bb	-0.0638003
32	0x3e08f98d	0.13376446
33	0x3d3433a0	0.043994546
34	0xbb2b8a53	-0.0026174977
35	0x3ce37699	0.027766513
36	0xbcc3aaea	-0.02388521
37	0x3d5f2968	0.054482847
38	0x3c580a76	0.013186088
39	0xbd3a1666	-0.045431517
40	0x3ca4b45c	0.020105533
41	0xbd0ad808	-0.03389743
42	0x3d1846c9	0.03717688
43	0x3e0b6546	0.13612852
44	0x3d4fb733	0.05071182
45	0xbd222347	-0.039584424
46	0x3d63ca87	0.055613067
47	0x3c2df9f4	0.0106186755
48	0x3d3a3bf7	0.045467343
49	0xbd39b48f	-0.04533821
50	0xbe0ff6bc	-0.14058965
51	0xbd1429a0	-0.03617251
52	0xbdafc5d6	-0.08582656
53	0x3dc873e3	0.09787729
54	0x3cffb397	0.031213565
55	0x3d5413cc	0.051776692
56	0x3cc57240	0.02410233
57	0x3cb71a01	0.022351267
58	0x3d9c38e6	0.0762804
59	0xbd970b4c	-0.073752016
60	0x3c92d0b0	0.017921776
61	0xbdb83252	-0.08993973
62	0x3d0a763e	0.03380417
63	0xbd78a019	-0.060699556
64	0x3cfb3e81	0.030669453
65	0xbd1fbd11	-0.038998667
66	0x3d77de9f	0.060515042
67	0xbda3da93	-0.08000674
68	0xbd76851b	-0.060185533
69	0xbdb7cc16	-0.08974473
70	0x3deab7a3	0.11460807
71	0x3c91de39	0.01780616
72	0x3df39e99	0.118954845
73	0xbe074b62	-0.1321235
74	0xbe137aae	-0.14402267
75	0xbe03be29	-0.12865509
76	0xbdd91bac	-0.10600981
77	0x3d7062fa	0.05868814
78	0x3d0364a5	0.032078404
79	0x3dd4b776	0.10386555
80	0xbd666d1c	-0.0562564
81	0xbdc4b6e2	-0.09605195
82	0x3d843e05	0.06457142
83	0xbd722e64	-0.059126273
84	0x3d548a06	0.051889442
85	0xbd5af593	-0.053456854
86	0x3d7c1579	0.061543915
87	0xbe084041	-0.13305761
88	0xbdb248d5	-0.08705298
89	0x3d2d0dd0	0.0422495
90	0x3cfc85de	0.030825552
91	0xbd39ab37	-0.0453293
92	0x3d74f187	0.05980065
93	0x3dae07fa	0.08497615
94	0xbda8a70d	-0.082349874
95	0xbd9eddd0	-0.07757151
96	0x3de6d2df	0.11270689
97	0xbd4ffe74	-0.050779775
98	0xbd237dda	-0.039914943
99	0xbe09aaf2	-0.13444117
100	0xbdb0cb56	-0.08632533
101	0x3c85bed7	0.016326351
102	0x3d0cbb29	0.034358177
103	0xbdc6e405	-0.0971146
104	0x3c7e9128	0.015537538
105	0xbda36e1f	-0.07979988
106	0xbdb800ef	-0.08984553
107	0xbd687a12	-0.05675704
108	0xbdc1acd6	-0.09456794
109	0xbd8bb648	-0.06821877
110	0x3e06f701	0.13180162
111	0x3cfff4ca	0.031244654
112	0x3d32bde0	0.04363811
113	0xbde1c53f	-0.1102395
114	0xbd639398	-0.05556068
115	0xbd9af485	-0.0756617
116	0x3d4ea0b8	0.050446242
117	0xbde14286	-0.109990165
118	0xbd6c59b2	-0.057702728
119	0xbddf3211	-0.10898221
120	0xbd2579d5	-0.04039939
121	0xbdb84317	-0.08997171
122	0x3c8cf9b0	0.017208904
123	0xbd62231e	-0.05520927
124	0xbd70716b	-0.058701914
125	0xbe061d5d	-0.13097139
126	0xbc6d5845	-0.014486377
127	0xbe04d9ad	-0.12973662
128	0x3d97d6cd	0.07414017
129	0xbd40799d	-0.04699098
130	0x3db5e6d9	0.08881921
131	0x3d1f87b0	0.03894776
132	0xbde0a6d3	-0.10969319
133	0x3d5672fe	0.05235576
134	0xbd99e26f	-0.07513892
135	0xbdbb2296	-0.09137456
136	0xbe09a753	-0.13442735
137	0xbe15c26f	-0.14624952
138	0x3c8d0146	0.017212521
139	0xbb84544f	-0.0040383707
140	0x3c9bef32	0.019034956
141	0xbd9c99e5	-0.076465406
142	0x3dbb94e6	0.091592595
143	0xbe010d5d	-0.12602754
144	0xbd22597e	-0.039636128
145	0x3c55e467	0.013054944
146	0x3d13d3c6	0.036090635
147	0x3da8eebe	0.082486615
148	0x3dc47b77	0.095938616
149	0xbe068849	-0.13137926
150	0xbb086556	-0.0020812354
151	0xbdb181f3	-0.08667364
152	0xbcd3df94	-0.025863446
153	0xbe044286	-0.12916002
154	0x3dae25dd	0.085033156
155	0xbdbbe42e	-0.09174381
156	0x3d86b02e	0.06576572
157	0x3c61d141	0.0137828
158	0x3d0757b7	0.033042636
159	0xbdba9cc3	-0.09111931
160	0x3d9d06c5	0.07667307
161	0x3a235e92	0.00062320486
162	0xbc795bc3	-0.015219632
163	0xbe137521	-0.1440015
164	0x3c82a8ce	0.015949633
165	0x3bc17e32	0.005904936
166	0xbd046d1e	-0.032330625
167	0x3dcd1978	0.100146234
168	0x3c661b7f	0.0140446415
169	0xbd8da386	-0.06915955
170	0xbd83b3f0	-0.06430805
171	0xbd13eefe	-0.036116593
172	0x3d7ed89f	0.062218305
173	0xbd633f45	-0.05548026
174	0xbd3e0039	-0.04638693
175	0xbd525e96	-0.051359735
176	0xbdde4c52	-0.10854401
177	0x3c2349ab	0.009966294
178	0x3d5d37a9	0.05400816
179	0xbe15a73b	-0.14614575
180	0x3cbaaa86	0.02278639
181	0x3d1c3701	0.038138393
182	0x3bacc26f	0.0052722017
183	0xbdb5f33a	-0.088842824
184	0x3ce6aa77	0.028157456
185	0x3d3b921d	0.04579364
186	0x3d839a83	0.06425955
187	0xbd6af6c5	-0.057364244
188	0xbd878086	-0.06616311
189	0xbcaad37b	-0.020852795
190	0x3c07db8f	0.008292093
191	0xbbfcce72	-0.00771504
192	0x3dd1b453	0.10239472
193	0x3ddc019c	0.107424945
194	0x3bc23e4f	0.005927838
195	0xbd0f1aac	-0.034937546
196	0x3d249040	0.04017663
197	0x3cd29721	0.02570683
198	0x3d4d317e	0.050096028
199	0x3d065f83	0.03280593
200	0xbdb61417	-0.088905506
201	0xbd579e80	-0.05264139
202	0x3e02b800	0.12765503
203	0x3d016d9d	0.031598676
204	0xbcd2c4a0	-0.025728524
205	0xbdd5d0f4	-0.10440245
206	0xbdd65225	-0.104648866
207	0xbde550fa	-0.11197086
208	0xbcb7d9f7	-0.0224428
209	0x3d106f7f	0.03526258
210	0x3df1c6fc	0.118055314
211	0x3dba20a1	0.09088255
212	0xbe051fd9	-0.1300043
213	0xbdd449cd	-0.10365639
214	0xbd41e02e	-0.047332935
215	0x3e0af6c1	0.13570692
216	0x3d549320	0.05189812
217	0xba29cc1a	-0.0006477252
218	0x3d8dc6de	0.069226965
219	0xbcea1675	-0.028575161
220	0xbd844ea4	-0.06460312
221	0x3dfe59a6	0.12419443
222	0xbcb2f7fe	-0.021846768
223	0xbd0841f7	-0.033266034
224	0xbe0b1266	-0.13581237
225	0x3de2e3a1	0.11078573
226	0x3df631bf	0.12021207
227	0x3d93413b	0.07190176
228	0xbd3e3173	-0.046433877
229	0xbdb58d8d	-0.08864889
230	0xbd9db1de	-0.07699941
231	0x3dbee636	0.09321253
232	0x3d83649f	0.06415676
233	0x3db9163f	0.09037446
234	0x3dd22993	0.10261836
235	0x3d87da97	0.066334896
236	0x3cbd8596	0.023134988
237	0xbd828b94	-0.06374279
238	0xbe02777a	-0.12740889
239	0xbe003c7b	-0.12523071
240	0x3d97a862	0.07405163
241	0xbced51b5	-0.028969625
242	0x3be335db	0.0069339103
243	0xbd36cc0d	-0.04462819
244	0x3b6020a8	0.0034199152
245	0xbdb42e86	-0.08797936
246	0xbd9ec9d7	-0.07753342
247	0x3cda5194	0.026650228
248	0xb779fc66	-1.4900323e-05
249	0x3de51a29	0.1118663
250	0xbc033ee7	-0.008010603
251	0xbd8460c1	-0.06463767
252	0x3b7e30cf	0.0038786416
253	0xbd0ce2c0	-0.034395933
254	0xbce253b0	-0.027627796
255	0xbde33d13	-0.11095633

lstm.weight_hh_l0 f4 [256, 64]
0	0xbc769ad4	-0.015051562
1	0x3de02cc4	0.10946038
2	0x3d723ebc	0.05914186
3	0xbe0f3876	-0.13986382
4	0xbe091fda	-0.13391057
5	0xbc19ef1a	-0.009395385
6	0xbdb7563b	-0.08951994
7	0xbd603de4	-0.054746523
8	0x3da0030d	0.07813082
9	0x3c5f1e77	0.013618103
10	0xbd1f87a0	-0.0389477
11	0xbc171d57	-0.009223304
12	0x3dbc627a	0.091984704
13	0x3e33dcda	0.17564717
14	0x3d85239e	0.06500934
15	0xbe09b6f8	-0.13448703
16	0xbdb5e856	-0.08882205
17	0x3b56f32a	0.0032798746
18	0x3dc01f5a	0.0938098
19	0xbd730df4	-0.05933948
20	0x3deeb5dd	0.116557814
21	0xbbc1abfb	-0.0059103942
22	0x3ce353fb	0.027750006
23	0x3e01321a	0.12616768
24	0x3de5b48c	0.11216077
25	0xbe004e5f	-0.12529896
26	0xbd9f2816	-0.07771318
27	0x3d87d732	0.06632842
28	0x3d7d7b92	0.061885424
29	0xbd73b6f9	-0.05950067
30	0x3e0d3763	0.1379066
31	0x3c85b760	0.016322792
32	0xbd6dc6a5	-0.05805077
33	0xbc486ac3	-0.012232485
34	0xbe210594	-0.15724784
35	0x3c0471ce	0.008083774
36	0xbdf9dc29	-0.12200195
37	0x3e159025	0.14605768
38	0xbe103cc4	-0.1408568
39	0x3d634a34	0.055490687
40	0xbd68591a	-0.0567256
41	0x3c9acd51	0.01889673
42	0xbde34d43	-0.11098721
43	0x3cceec61	0.025259199
44	0x3da35943	0.0797601
45	0xbe1b257e	-0.15151021
46	0xbd9692c6	-0.073522136
47	0xbb1cd910	-0.002393309
48	0xbc0ca5f4	-0.008584488
49	0xbcdb55c8	-0.026774302
50	0xbb1b7232	-0.0023719189
51	0xbc6686c0	-0.014070213
52	0x3e05a788	0.1305219
53	0xbbf371ef	-0.0074293534
54	0xbda22710	-0.07917607
55	0x3c771a18	0.015081905
56	0xbdbebcf6	-0.09313385
57	0xbd8a5462	-0.06754376
58	0x3d875369	0.06607706
59	0xbd0bdeb2	-0.034147926
60	0xbe166b09	-0.14689268
61	0x3caaae3b	0.020835033
62	0xbc1c309f	-0.009533077
63	0x3dbf1735	0.09330598
64	0x3d200645	0.03906848
65	0xbe1247f4	-0.1428526
66	0xbd1a96e7	-0.037741568
67	0xbd7d1cc4	-0.06179501
68	0x3e02fb4d	0.12791176
69	0xbd0ac901	-0.0338831
70	0xbdced73b	-0.10099646
71	0xbd60acd6	-0.05485233
72	0xbcf6ce34	-0.030127622
73	0x3d86a5a7	0.065745644
74	0x3dff22a3	0.12457778
75	0x3da4e162	0.08050801
76	0xbcde25d9	-0.027117657
77	0x3e08816e	0.13330624
78	0x3dc6f545	0.0971475
79	0x3dabb07f	0.08383273
80	0xbddada4e	-0.106861696
81	0xbc272b9d	-0.010203269
82	0xbd27e83c	-0.04099296
83	0xbdf5bb36	-0.11998598
84	0xbd7dc440	-0.061954737
85	0x3dab25cd	0.08356819
86	0x3d4b24d8	0.049595684
87	0x3e09595c	0.13412994
88	0x3db9f0b7	0.09079116
89	0x3cb8d03f	0.022560237
90	0x3de46dc0	0.11153746
91	0x3c3af6cd	0.011411381
92	0xbc41a85d	-0.011819926
93	0xbd4127f9	-0.04715726
94	0x3d9a1dcb	0.07525214
95	0x3d689fd1	0.056793038
96	0x3dc30921	0.095232256
97	0xbd054201	-0.03253365
98	0xbdd25a20	-0.10271096
99	0x3d57b794	0.052665308
100	0x3d1c8056	0.03820833
101	0xbdd88042	-0.10571338
102	0x3cb0cc88	0.021581903
103	0x3aee200b	0.0018167509
104	0x3dc2a3c5	0.09503893
105	0x3c84e834	0.016224004
106	0xbd82ee29	-0.06393082
107	0x3ddc34fe	0.10752295
108	0xbc3ac909	-0.01140047
109	0xbd0aa33f	-0.03384709
110	0x3d870c94	0.06594196
111	0x3e0155b0	0.12630343
112	0x3dadeeca	0.08492811
113	0x3d172b9e	0.03690683
114	0x3dc640a5	0.09680299
115	0xbd9e6122	-0.0773337
116	0x3df737d8	0.12071198
117	0xbdb0bec8	-0.08630139
118	0x3cadc75b	0.021213224
119	0x3e0ba498	0.13637006
120	0x3d5db644	0.0541289
121	0xbcf021ce	-0.029312994
122	0x3d9c7f4e	0.07641469
123	0x3d8d9a9c	0.06914255
124	0xbdd675ba	-0.10471673
125	0xbb24d46f	-0.0025151034
126	0xbdb6bdd6	-0.08922927
127	0xbd2206e8	-0.039557368
128	0x3bbb7331	0.005720519
129	0xbd40b4b1	-0.04704732
130	0xbd3bfbbe	-0.045894377
131	0x3da49bda	0.08037539
132	0x3921380d	0.00015375037
133	0xbe1e62d3	-0.15467386
134	0x3d32ab21	0.043620232
135	0xbdf524d5	-0.11969916
136	0xbda3bd60	-0.07995105
137	0x3d79a481	0.0609479
138	0x3da345d9	0.07972307
139	0xbd04f8d4	-0.032463863
140	0xbd869243	-0.06570866
141	0x3d5b9c2a	0.053615727
142	0xbe0e069d	-0.1386971
143	0x3d747282	0.059679516
144	0x3de78f85	0.11306671
145	0x3d8f39aa	0.069934204
146	0x3d070952	0.032967873
147	0x3c99319e	0.018700417
148	0xbdd61970	-0.104540706
149	0xbd037812	-0.03209693
150	0x3dc69d36	0.09697954
151	0x3dad0ba3	0.08449485
152	0x3b740122	0.003723212
153	0x3cd25b42	0.02567828
154	0xbdcfcd4e	-0.10146581
155	0x3ddd3c10	0.10802472
156	0xbdd468b1	-0.10371531
157	0xbdc2b040	-0.09506273
158	0x3de4d2f9	0.11173052
159	0xbcc3d047	-0.023903025
160	0xbdbd27f9	-0.0923614
161	0x3cfa2ed2	0.030539904
162	0x3da84d90	0.08217919
163	0x3dd073b7	0.10178321
164	0x39a78f56	0.00031959516
165	0x3dcf3484	0.101174384
166	0x3dcbcdf3	0.09951391
167	0xbd4cfd02	-0.050045975
168	0xbdac6a89	-0.084187575
169	0xbb7c7471	-0.0038521553
170	0xbd8ae95f	-0.06782793
171	0x3d2b7729	0.041861687
172	0xbd85163f	-0.06498384
173	0xbd614985	-0.055001754
174	0xbd9fdbb8	-0.0780558
175	0xbde60fbe	-0.11233471
176	0x3d99a843	0.075027965
177	0xbe1a1ab6	-0.15049252
178	0xbaafb72f	-0.0013406033
179	0xbd967937	-0.07347339
180	0xbd629e65	-0.055326838
181	0xbd0de4ce	-0.034642033
182	0x3ca22ef4	0.01979778
183	0x3d959f7c	0.0730581
184	0xbc1aa342	-0.009438338
185	0xbcb0d93e	-0.021587964
186	0xbb73a8d7	-0.0037179494
187	0x3dfd2d7c	0.12362191
188	0x3cee2994	0.02907256
189	0xbd230998	-0.03980407
190	0x3da9971b	0.08280774
191	0xbde997c6	-0.114059016
192	0x3daaa92f	0.083330505
193	0x3df634c5	0.12021784
194	0xbdbab421	-0.09116388
195	0x3c15b422	0.009137185
196	0x3c6dbf0b	0.01451088
197	0xbd9fed09	-0.07808883
198	0x3d10c3af	0.03534287
199	0x3dfdf807	0.12400823
200	0x3d16a978	0.03678271
201	0x3c85b322	0.016320769
202	0xbd361d0e	-0.044461302
203	0xbd2e143a	-0.04249976
204	0x3d3fc222	0.046816
205	0xbd8b1f4f	-0.06793081
206	0xbdea16da	-0.1143014
207	0xbcaa6629	-0.020800667
208	0xbe22a494	-0.15883094
209	0x3da3c243	0.07996037
210	0xbc850c3e	-0.01624119
211	0xbdf0ca80	-0.11757374
212	0x3d821876	0.06352322
213	0x3d32ab2f	0.043620285
214	0x3dac3c42	0.08409931
215	0xbc0d1a7c	-0.008612271
216	0x3bf9d8a8	0.0076247044
217	0xbe001ebe	-0.12511727
218	0xbe12ab41	-0.1432314
219	0xbd06c75d	-0.03290497
220	0x3ce86130	0.028366655
221	0xbd69ec21	-0.057109956
222	0xbbdfa6ff	-0.0068253274
223	0x3d9ca884	0.07649329
224	0x3d4f0e31	0.050550643
225	0x3d732b35	0.059367377
226	0x3c8f15a9	0.017466383
227	0x3cfabbd9	0.03060715
228	0xbd16b100	-0.036789894
229	0x3d6c528b	0.057695907
230	0xbe1767cd	-0.1478569
231	0x3d553483	0.052052032
232	0xbd2b93f8	-0.04188916
233	0x3da13644	0.078716785
234	0xbe2c5168	-0.16827929
235	0xbd8bf024	-0.068329126
236	0x3d505f9a	0.050872423
237	0xbdbc7df9	-0.09203715
238	0x3e007ca6	0.1254755
239	0x3abc78d3	0.001437927
240	0x3e130d3f	0.14360522
241	0x3deb22d8	0.11481255
242	0xbdeb0a3c	-0.114765614
243	0xbc4646f3	-0.012101877
244	0x3bad8aff	0.0052961106
245	0xbda77cae	-0.08178078
246	0x3c86ae77	0.016440613
247	0xbdbea2d9	-0.093084045
248	0xbdbb7e6e	-0.09154974
249	0x3b38c4ef	0.0028193553
250	0xbe07bb45	-0.13255031
251	0xbdf1fe1b	-0.11816045
252	0x3d664cdd	0.056225646
253	0xbdb52a52	-0.088459626
254	0x3d4fbd9b	0.05071793
255	0xbd07808c	-0.033081576

lstm.bias_ih_l0 f4 [256]
0	0xbca10dd8	-0.019659922
1	0xbc16dcaa	-0.009207884
2	0xbcd8ed62	-0.02648038
3	0xbdade38e	-0.08490668
4	0xbd69da55	-0.057092983
5	0x3ddac80d	0.10682688
6	0x3d566bac	0.052348778
7	0x3e08f82c	0.1337592
8	0x3dfc15d5	0.12308852
9	0x3c42b563	0.011884066
10	0x3dd753e3	0.10514047
11	0x3c570ba0	0.01312533
12	0x3db288d5	0.08717505
13	0xbd560f86	-0.052260898
14	0xbc2dc464	-0.010605905
15	0x3d2f00d1	0.042725388
16	0x3bea6626	0.0071532903
17	0x3d85f897	0.065415554
18	0x3df42437	0.1192097
19	0x3e092635	0.13393481
20	0xbda5d91a	-0.080980495
21	0x3c636c52	0.013880806
22	0x3cba6f0d	0.022758031
23	0x3cf9c49a	0.030489255
24	0xbdd00014	-0.10156265
25	0x3d8b9706	0.06815915
26	0x3d2f2229	0.042757187
27	0x3dd5275c	0.10407898
28	0xbce156fe	-0.027507301
29	0x3d36f712	0.04466922
30	0x3dc42d1c	0.095789164
31	0x3e11187b	0.14169495
32	0xbb5b74dd	-0.0033486404
33	0x3dc72068	0.09722978
34	0xbc893b43	-0.016751891
35	0x3dba2c2d	0.09090457
36	0xbd2dd340	-0.04243779
37	0x3d688f3c	0.056777224
38	0xbda76fff	-0.081756584
39	0x3d8189d5	0.063251175
40	0xbd9767b6	-0.07392828
41	0xbd2f3beb	-0.04278175
42	0xbbe60b45	-0.0070203864
43	0xbcbdfe02	-0.02319241
44	0x3dda912e	0.10672222
45	0x3e020445	0.12696941
46	0x3dc071ca	0.093967035
47	0xbd9920c6	-0.07476954
48	0x3df33c56	0.118767425
49	0x3e19e944	0.1503039
50	0x3b83ff14	0.0040282104
51	0xbd53415d	-0.051576007
52	0x3da2d984	0.07951644
53	0x3dfc6e9e	0.12325786
54	0x3d9e8021	0.077392824
55	0xbdbc930c	-0.092077345
56	0xbd7bb692	-0.06145341
57	0x3dda46b7	0.10658019
58	0xbda581c9	-0.08081395
59	0x3da95985	0.082690276
60	0x3dd55573	0.10416689
61	0x388158bb	6.167727e-05
62	0xbdeaf148	-0.11471802
63	0xbdc1ab86	-0.094565436
64	0x3e091eda	0.13390675
65	0x3ceb41c1	0.028717877
66	0x3da182b3	0.07886257
67	0xbd0030c0	-0.03129649
68	0xbc5632f1	-0.013073669
69	0x3dbf0f8c	0.09329137
70	0xbd7c9b61	-0.06167162
71	0x3da09968	0.0784176
72	0x3ab8d456	0.0014101367
73	0x3de1fea6	0.110348985
74	0xbd1a0d68	-0.03761044
75	0xbc8c5fdf	-0.017135559
76	0xbd93aafe	-0.072103485
77	0x3e03496a	0.12820974
78	0x3b33a4e7	0.0027411522
79	0xbc4c8185	-0.012482052
80	0xbe0bdd42	-0.13658622
81	0x3e06c9b4	0.13162881
82	0x3dde95f6	0.108684465
83	0xbd51d82f	-0.05123156
84	0xbaf964c7	-0.0019027226
85	0xbbf1b2cf	-0.007376052
86	0xbd269ac5	-0.040674943
87	0xbde07708	-0.109602034
88	0xbcf1fc05	-0.029539118
89	0x3dacb2f0	0.08432567
90	0xbd822896	-0.063553974
91	0x3e197056	0.14984259
92	0xbc77c572	-0.015122758
93	0xbd6f7ba7	-0.058467533
94	0xbd50ab60	-0.050944686
95	0x3e1ed086	0.15509233
96	0x3c8c2c68	0.017111018
97	0x3de4974d	0.11161671
98	0x3d3baa86	0.04581692
99	0x3e029a7a	0.1275424
100	0xbde7d477	-0.11319821
101	0x3d8bba83	0.06822684
102	0x3da0786a	0.07835467
103	0xbc7c7c47	-0.015410489
104	0xbd8790e7	-0.06619435
105	0x3bc66214	0.0060541723
106	0x3cce45b0	0.025179714
107	0xbd1c4dc5	-0.038160104
108	0xbdaf2d73	-0.085535906
109	0x3da4615b	0.080263816
110	0x3d23f8eb	0.04003231
111	0xbdb1db12	-0.086843625
112	0xbc4d6306	-0.012535816
113	0x3cd3f3f8	0.02587317
114	0x3dc1de92	0.0946628
115	0x3d884e48	0.06655556
116	0x3dc53061	0.09628368
117	0x3cceb1b7	0.025231225
118	0x3d8f09ea	0.06984313
119	0xbd6f7fe8	-0.05847159
120	0x3d7ec439	0.06219885
121	0xbd3b0f6c	-0.045669004
122	0x3def9243	0.11697819
123	0x3d62b8b4	0.055351928
124	0x3c758b4f	0.014986827
125	0xbab5b457	-0.001386295
126	0x3d9a77b9	0.075423665
127	0x3d99699f	0.07490849
128	0x3d8b5277	0.06802838
129	0x3c0ffce7	0.008788324
130	0xbdd88d61	-0.10573841
131	0xbdb754d5	-0.08951727
132	0xbe1f6ddd	-0.15569253
133	0xbd9641a1	-0.073367365
134	0xbccc06fa	-0.02490567
135	0x3c06a91d	0.008219031
136	0x3ddfc8a3	0.1092694
137	0x3d232b2b	0.03983609
138	0x3cad9cdc	0.02119296
139	0x3d9ef4aa	0.0776151
140	0x3e0b9e5d	0.1363463
141	0x3de5298b	0.11189564
142	0xbb9dddf8	-0.0048177205
143	0x3d91825f	0.071049444
144	0xbdbc696d	-0.09199796
145	0x3dc7bd25	0.09752873
146	0x3db3e364	0.08783606
147	0xbe1c16a3	-0.1524301
148	0xbda08a87	-0.07838922
149	0x3c714c68	0.014727689
150	0x3d92e1fc	0.07172009
151	0x3daff1fe	0.08591078
152	0xbdbf7b7f	-0.09349727
153	0x3db5248f	0.088448636
154	0xbb2681c7	-0.0025406943
155	0x3bb11d84	0.00540513
156	0xbd1a1c3e	-0.03762459
157	0x3d4aebef	0.04954141
158	0x3d3731c6	0.044725202
159	0x3d2bf075	0.041977365
160	0xbe0d2656	-0.13784155
161	0x3bbcf1f0	0.005766146
162	0xbe03d6b9	-0.12874879
163	0xbe20bbde	-0.15696666
164	0x3cb505e1	0.02209753
165	0x3aa8878c	0.0012857779
166	0xbddac2ac	-0.10681662
167	0xbdf9bfaa	-0.1219476
168	0x3e103c5d	0.14085527
169	0x3e0f6074	0.14001638
170	0xbdf784fc	-0.12085912
171	0xbdc5264e	-0.09626447
172	0x3da837ee	0.08213793
173	0x3c249655	0.010045608
174	0x3ca0fa71	0.01965067
175	0xbcab830c	-0.020936511
176	0x3cd8b76f	0.026454655
177	0xbe194746	-0.14968595
178	0xbe15cb79	-0.146284
179	0x3da85e4c	0.08221111
180	0x3db2bc76	0.08727352
181	0x3d48e035	0.049041945
182	0xbd918bcc	-0.07106742
183	0xbdb0fa77	-0.086415224
184	0xbd6a74d6	-0.05724033
185	0xbdcf3b5e	-0.10118745
186	0xbdab4c0d	-0.08364115
187	0x3da52354	0.08063379
188	0xbdb78bfa	-0.08962245
189	0xbe1cd11c	-0.15314144
190	0xbc3407ce	-0.010988189
191	0x3da742a5	0.08167008
192	0x3ce57e55	0.028014341
193	0xbdf6fe73	-0.12060251
194	0x3dafac6c	0.08577809
195	0xbcdbf616	-0.026850741
196	0x3ddefa54	0.1088759
197	0xbd674ee4	-0.05647172
198	0x3e150932	0.14554289
199	0xbbf32de5	-0.0074212425
200	0x3e052628	0.13002837
201	0x3dac31e4	0.084079534
202	0x3e042ce5	0.12907751
203	0x3d5b1c42	0.053493746
204	0xbd572120	-0.052521825
205	0x3d76bdef	0.06023973
206	0x3e065128	0.13116896
207	0xbda2656b	-0.079295
208	0x3cad1db9	0.021132337
209	0x3d3302d3	0.043703865
210	0x3daea3bc	0.085273236
211	0xbd894cf0	-0.06704128
212	0xbd8fc1b2	-0.07019366
213	0x3d85ec0b	0.06539162
214	0xbbe4a9f2	-0.006978267
215	0xbd81f758	-0.06346005
216	0x3c4940a8	0.012283482
217	0x3de91d3d	0.1138253
218	0xbda81ae9	-0.08208258
219	0x3ca72beb	0.020406684
220	0xbd2d608a	-0.042328395
221	0x3c44d571	0.012013779
222	0xbce4c702	-0.027926926
223	0x3e180877	0.14846979
224	0x3dd30db7	0.1030535
225	0x3d6e5a82	0.058191784
226	0xbc0c27fe	-0.008554457
227	0x3dd0d97a	0.1019773
228	0xbd99495f	-0.074846976
229	0xbd9f8fbe	-0.077910885
230	0xbd800d60	-0.06252551
231	0xbc491752	-0.012273626
232	0xbd8cf916	-0.06883447
233	0x3dd979fa	0.10618968
234	0x3cfc356f	0.030787198
235	0xbc5c92ee	-0.013462765
236	0xbd91efcf	-0.07125818
237	0x3e12eb40	0.14347553
238	0x3e0b6b02	0.13615039
239	0xbda9eca4	-0.08297089
240	0x3e00d120	0.12579775
241	0x3cb43ce6	0.022001695
242	0xbc9be500	-0.019030094
243	0x3d90a139	0.07062001
244	0xbded1e0a	-0.11577995
245	0xbdcd2a21	-0.10017801
246	0x3cbcee17	0.023062749
247	0x3df40cd4	0.11916509
248	0x3de18066	0.11010818
249	0x3dff3902	0.12462045
250	0x3dc804df	0.09766554
251	0x3d64bb95	0.055842955
252	0x3d3c00ab	0.045899075
253	0xbd17e5e4	-0.037084475
254	0x3df59480	0.11991215
255	0x3df520d2	0.119691506

lstm.bias_hh_l0 f4 [256]
0	0xbd99975a	-0.07499571
1	0xbe0f1804	-0.13974005
2	0xbc2caf5d	-0.010539857
3	0xbd23cc32	-0.039989658
4	0xbc2d9643	-0.010594907
5	0x3e0b8da3	0.13628249
6	0x3bc54892	0.006020614
7	0x3e065592	0.1311858
8	0x3c047e21	0.008086712
9	0x3d113b2a	0.035456814
10	0x3cee76fa	0.029109467
11	0xbb8930a3	-0.004186706
12	0x3b8d0642	0.0043037245
13	0xbc5e1ad0	-0.013556197
14	0xbd6c41f5	-0.05768009
15	0x3d4419c5	0.04787614
16	0x3c5f3175	0.013622631
17	0x3d4f929a	0.05067692
18	0x3d1188d2	0.035530873
19	0xbc9b92fa	-0.018990982
20	0xbde9d933	-0.114183806
21	0x3dbc6d07	0.09200483
22	0x3d508144	0.050904527
23	0xbe0921fd	-0.13391872
24	0x3dcf899c	0.10133669
25	0xbc7def3c	-0.015498932
26	0xbdcb9460	-0.0994041
27	0xbd41305e	-0.047165267
28	0xbcbf6170	-0.023361892
29	0xbd932de2	-0.07186486
30	0x3d5186ea	0.051154055
31	0xbd154692	-0.036444254
32	0xbd0c05d4	-0.034185246
33	0x3e0cc5f8	0.13747394
34	0xbc6fab3c	-0.014628228
35	0x3cd7bac9	0.026334183
36	0xbd988218	-0.074466884
37	0x3c9b8493	0.018984115
38	0xbd7a7078	-0.061142415
39	0xbd3c43f7	-0.045963254
40	0xbd892e46	-0.06698279
41	0xbca9b86b	-0.02071782
42	0x3d8d7349	0.069067545
43	0x3d95f11f	0.07321381
44	0x3dacb4da	0.08432932
45	0xbcf16c6d	-0.029470647
46	0xbd92eb62	-0.07173802
47	0xbcd2cbe7	-0.025731994
48	0x3e128598	0.14308774
49	0x3d181163	0.037125956
50	0x3e0c8676	0.13723168
51	0x3dee8f45	0.1164842
52	0x3d81ab7f	0.063315384
53	0xbb39e4ad	-0.002836506
54	0x3d598b6a	0.05311147
55	0xbd528d26	-0.05140414
56	0x3d30d74f	0.043174084
57	0x3d87b01c	0.06625387
58	0xbd419b4d	-0.047267247
59	0xbd6b20f9	-0.057404492
60	0xbd02a708	-0.031897575
61	0x3d20abae	0.039226227
62	0xbc9f9309	-0.019479292
63	0x3d813578	0.063090265
64	0xbd01669a	-0.03159199
65	0x3dc95fbd	0.09832714
66	0xbd27fa16	-0.041009985
67	0x3de05080	0.10952854
68	0x3e17e576	0.14833626
69	0x3e0f5389	0.1399671
70	0xbd186a57	-0.03721079
71	0xbd57f147	-0.052720334
72	0xbd3eca1e	-0.046579473
73	0xbd45bac7	-0.048273828
74	0x3acbd8b0	0.0015552249
75	0xbbb52aa5	-0.0055287653
76	0x3d894cbc	0.06704089
77	0x3e2c67a0	0.16836405
78	0x3d97edcd	0.07418404
79	0x3d025abb	0.03182481
80	0xbd723040	-0.059128046
81	0xbc3085f2	-0.010774123
82	0x3dcd0acc	0.10011825
83	0xbdb20535	-0.086923994
84	0x3b95ac31	0.004567646
85	0xbdb230f8	-0.08700746
86	0xbbe4b62a	-0.0069797235
87	0xbde9518e	-0.113925084
88	0xbe09c834	-0.13455278
89	0x3d8b4732	0.06800689
90	0xbd3731e2	-0.044725306
91	0x3d5ac157	0.05340704
92	0x3de928f1	0.11384762
93	0x3bf112b1	0.0073569645
94	0x3d887775	0.066634096
95	0xbca9c406	-0.020723354
96	0x3df2fe5e	0.11864923
97	0x3e23c683	0.15993695
98	0xbc4e8006	-0.012603765
99	0xbd95d45d	-0.07315896
100	0x3d9ac15f	0.07556414
101	0x3ded17fc	0.1157684
102	0x3da2c174	0.079470545
103	0x3ce5d30a	0.028054733
104	0x3d40f2dd	0.047106612
105	0x3d6e61d3	0.05819876
106	0x3d60d818	0.054893583
107	0xbbf43fc3	-0.00745389
108	0x3d4554dd	0.048176635
109	0x3e1838e7	0.14865457
110	0xbc6e8454	-0.014557917
111	0xbde021a4	-0.109439164
112	0xbd896dd2	-0.067104
113	0x3cf8426e	0.030305114
114	0x3daa4c08	0.08315283
115	0x3cfe3083	0.031028992
116	0x3dd0555d	0.10172532
117	0x3d4a74ac	0.049427673
118	0x3db307f2	0.0874175
119	0xbd9e9138	-0.07742542
120	0x3da9335b	0.082617484
121	0x3db7e93e	0.08980034
122	0x3d534ce9	0.05158702
123	0x3d8c9114	0.06863609
124	0xbdb6cc78	-0.08925718
125	0x3e225f7c	0.15856737
126	0x3bc5bd38	0.0060345195
127	0xbdcba6a9	-0.09943897
128	0x3d9ec89a	0.077531055
129	0x3d7e85f6	0.062139474
130	0x3d945201	0.072422035
131	0x3db93b73	0.09044542
132	0xbc3382ce	-0.010956479
133	0x3d2bf599	0.041982267
134	0x3e1edb23	0.15513282
135	0x3db35a6e	0.087574825
136	0x3d8760bd	0.06610248
137	0xbb74721d	-0.0037299462
138	0xbe0167e1	-0.12637283
139	0x3d88cae6	0.06679325
140	0xbd66f43a	-0.056385256
141	0x3c6812f0	0.014164671
142	0xbe16ef37	-0.1473969
143	0xbe20055b	-0.15627043
144	0xbd1633c7	-0.036670472
145	0xbdbf6805	-0.09346012
146	0x3d9fdc02	0.07805635
147	0xbb4fc0e6	-0.003170067
148	0xbbd5d0fa	-0.006525156
149	0x3e18e261	0.14930107
150	0x3d96fb2f	0.07372128
151	0x3d6a6701	0.05722714
152	0xbd7bc259	-0.06146464
153	0xbe062deb	-0.13103454
154	0xbd1b6bd8	-0.037944645
155	0x3ded2fb5	0.11581365
156	0xbde8b3c8	-0.113624156
157	0xbdf46a03	-0.11934283
158	0xbc041cc8	-0.008063503
159	0x3d9beb32	0.07613219
160	0x3d1a900f	0.03773504
161	0x3d1bf879	0.03807876
162	0xbd3cee7a	-0.046125866
163	0xbda5d620	-0.08097482
164	0xbcc33b85	-0.023832092
165	0x3de467a3	0.1115258
166	0xbdb5294c	-0.088457674
167	0xbe08e613	-0.13369016
168	0x3c06a7d4	0.008218724
169	0x3cf078a0	0.029354393
170	0x3ce2d2f3	0.027688479
171	0x3c645b00	0.013937712
172	0x3e02172c	0.12704152
173	0xbc0ea391	-0.008705989
174	0x3d92084f	0.07130491
175	0xbd8d29be	-0.06892727
176	0xbdfa072f	-0.122084014
177	0xbdcbdf90	-0.099547505
178	0x3d9bc2c1	0.07605506
179	0xbd4c69f6	-0.04990574
180	0xbca38142	-0.019959096
181	0x3c8664ab	0.016405424
182	0xbdee148f	-0.11625015
183	0x3c3748d4	0.011186797
184	0xbdbeea83	-0.09322073
185	0x3d903ca6	0.07042818
186	0x3df42559	0.11921186
187	0x3db24b9e	0.08705829
188	0x3d656cfe	0.056012146
189	0x3d18f1fa	0.03734014
190	0x3aabae2a	0.001309817
191	0x3cae8270	0.021302432
192	0x3d190181	0.03735495
193	0xbd744d4e	-0.059644036
194	0x3d066c99	0.03281841
195	0xbd5125bc	-0.051061377
196	0xbdbe160c	-0.09281549
197	0x3cff3f24	0.031158037
198	0xbd02e4e3	-0.031956565
199	0xbd013ed8	-0.031554073
200	0x3d923317	0.07138651
201	0xbc507271	-0.012722597
202	0x3e1ba7fc	0.152008
203	0xbd14bfb4	-0.036315635
204	0xbdc2169f	-0.09476971
205	0x3db501f0	0.0883826
206	0x3d309c0d	0.04311757
207	0x3d5eef8a	0.05442766
208	0x3c97b1cf	0.018517403
209	0xbc26c808	-0.010179527
210	0xbdf8ea0c	-0.12154016
211	0x3dcc5f82	0.09979154
212	0xbcb8df74	-0.022567488
213	0x3e07c406	0.13258371
214	0xbd0e1683	-0.034689438
215	0x3da068cc	0.078324884
216	0x3c51895a	0.012789095
217	0xbc956d4d	-0.018240595
218	0xbce5a038	-0.0280305
219	0x3e1690d7	0.1470369
220	0x3de3aefe	0.111173615
221	0xbdc78efa	-0.097440675
222	0xbcb80410	-0.022462875
223	0xbb93f065	-0.0045147412
224	0x3d8857df	0.06657385
225	0xbd734247	-0.05938938
226	0xbd60645b	-0.054783206
227	0x3d244a92	0.04011018
228	0xbb310f70	-0.0027017258
229	0xbd4578bc	-0.048210844
230	0x3db51135	0.088411726
231	0x3e0b9211	0.13629939
232	0xbd06e715	-0.03293522
233	0x3e1a5f9c	0.15075535
234	0x3d95de9b	0.07317849
235	0x3d4d4ef9	0.050124142
236	0xbcf0386f	-0.029323785
237	0x3e11c713	0.14236097
238	0x3ddffc16	0.109367535
239	0xbdef9230	-0.11697805
240	0x3d6c252a	0.05765263
241	0xbd4d173f	-0.050070997
242	0xbd10e216	-0.035371862
243	0xbd2d395a	-0.042291023
244	0xbc8bea83	-0.017079597
245	0xbca74bc3	-0.020421868
246	0x3b5f5626	0.0034078448
247	0x3e001079	0.12506284
248	0x3d143ae2	0.036188968
249	0xbd9996ff	-0.07499503
250	0xbce1de29	-0.027571755
251	0xbd9f5d1c	-0.07781431
252	0xbce62e4c	-0.028098248
253	0x3de00eb8	0.109403074
254	0x3d663091	0.05619866
255	0xbcac9d78	-0.02107118

lstm.weight_ih_l1 f4 [256, 64]
0	0x3da61af6	0.08110611
1	0x3cee9b7a	0.029126871
2	0x3e02bdf4	0.12767774
3	0xbd617946	-0.055047296
4	0xbde299fd	-0.11064527
5	0xbd9abeb8	-0.07555908
6	0x3cb6acdb	0.02229922
7	0x3e01c502	0.12672809
8	0x3d514bd4	0.051097706
9	0xbd91eac7	-0.07124858
10	0x3d418225	0.047243256
11	0x3e034af8	0.12821567
12	0xbd85c2de	-0.065313086
13	0xbce158b3	-0.027508115
14	0x3dbc2f84	0.091887504
15	0x3da1ce95	0.079007305
16	0x3c75bc2d	0.014998478
17	0x3dbb3a19	0.091419406
18	0x3d831446	0.06400351
19	0xbb7d88b3	-0.0038686215
20	0xbd6c0aee	-0.05762761
21	0x3bc1f1b0	0.005918704
22	0x3cf84674	0.030307032
23	0x3df6f72e	0.120588645
24	0x3d50e57e	0.05100011
25	0xbd83d3b3	-0.06436863
26	0x3e05285c	0.13003677
27	0xbcc4b2e3	-0.024011081
28	0xbdaacf34	-0.08340302
29	0x3d709c28	0.058742672
30	0x3d25904d	0.04042082
31	0x3dac13fd	0.0840225
32	0xbcc835c0	-0.024439692
33	0xbdb45e91	-0.088070996
34	0x3db9e343	0.0907655
35	0x39370ffa	0.00017458192
36	0x3d293182	0.04130698
37	0x3e1a0d72	0.15044191
38	0x3d68e7dd	0.056861747
39	0x3d7dd6ac	0.061972305
40	0x3c824e23	0.0159064
41	0x3dc9d894	0.09855762
42	0x3da07c3b	0.07836195
43	0x3de0991b	0.109667026
44	0x3d826cd8	0.063684165
45	0x3db35635	0.08756677
46	0x3c02c9b9	0.007982665
47	0xbd746940	-0.059670687
48	0xbdb87149	-0.090059824
49	0x3d5bee38	0.05369398
50	0xbcdec8de	-0.02719539
51	0x3dcdeefd	0.10055349
52	0x3d15d523	0.036580216
53	0xbc194014	-0.009353656
54	0xbd99eb2c	-0.075155586
55	0xbd6abfa9	-0.057311688
56	0xbd8c08a9	-0.06837589
57	0xbd67477f	-0.05646467
58	0xbcc8024c	-0.024415158
59	0xbd995fbe	-0.074889645
60	0x3dac3626	0.084087655
61	0xbda5691d	-0.080766894
62	0x3d99ac06	0.07503514
63	0x3dc1c42d	0.09461246
64	0x3dbdae50	0.09261763
65	0x3dfd15c1	0.12357665
66	0x3d8373c5	0.06418566
67	0xbe0a77b5	-0.13522227
68	0xbdc7a8a6	-0.09748964
69	0xbb32d888	-0.0027289707
70	0x3d501946	0.050805353
71	0x3d4cb4ed	0.04997723
72	0xbceb2681	-0.028704884
73	0xbd599489	-0.05312017
74	0xbd401323	-0.04689325
75	0x3dc7f128	0.09762794
76	0x3d8b41d4	0.06799665
77	0x3b7b05a9	0.0038302934
78	0x3d1b734a	0.037951745
79	0xbe039196	-0.12848505
80	0xbdca604a	-0.09881647
81	0x3c4f8ecd	0.012668324
82	0x3e03f033	0.12884597
83	0xbdc56dc8	-0.0964008
84	0xbd837666	-0.06419067
85	0x3d8189a2	0.063250795
86	0x3cfcf231	0.030877205
87	0xbd856bc1	-0.06514693
88	0xbde4148c	-0.111367315
89	0xbde61cd4	-0.11235967
90	0xbd623135	-0.05522271
91	0x3cedf66f	0.029048173
92	0xbd69b0a1	-0.057053212
93	0xbd4ba222	-0.04971517
94	0xbdd1d086	-0.10244851
95	0x3dd729ff	0.10506057
96	0x3d89e57e	0.06733225
97	0x3cb551a6	0.02213366
98	0x3bdd3564	0.0067507494
99	0x3dafa8d7	0.085771255
100	0xbdb5a0ac	-0.08868536
101	0x3cfb675a	0.03068893
102	0xbda681a7	-0.08130198
103	0xbdc0a4a8	-0.09406406
104	0x3cc3bd7b	0.023894062
105	0xbbaeb6e1	-0.0053318595
106	0xbe071d9b	-0.13194887
107	0x3da3434d	0.07971821
108	0xbdb31d30	-0.087458014
109	0x3dbdc020	0.092651606
110	0x3d47a122	0.048737653
111	0x3c8d82a3	0.017274207
112	0x3dd3dd5f	0.103449576
113	0x3d513cc6	0.05108335
114	0x3db1d510	0.086832166
115	0x3d5fe65d	0.05466305
116	0xbc7f7bc9	-0.0155934775
117	0x3c40e1d6	0.0117725935
118	0xbdb8397a	-0.08995338
119	0xbde11cc8	-0.10991818
120	0xbcd6e240	-0.026230931
121	0xbd89d0ec	-0.06729302
122	0x3c9f638e	0.019456651
123	0x3b5354de	0.003224663
124	0xbdccac44	-0.099937946
125	0xbc86f96a	-0.016476352
126	0xbdefca88	-0.11708552
127	0xbd1f71d2	-0.038926907
128	0xbd082ce8	-0.03324595
129	0x3dc87916	0.0978872
130	0xbcfbbcae	-0.030729618
131	0xbda715ac	-0.081584305
132	0xbc2c3ebf	-0.010513007
133	0x3d05d3cf	0.0326727
134	0x3d7a3703	0.06108762
135	0x3e0b8f50	0.13628888
136	0x3cd793a6	0.026315521
137	0x3b68a055	0.0035495956
138	0xbe0251db	-0.12726538
139	0x3d384f80	0.044997692
140	0x3d7a0a98	0.06104526
141	0xbcb31122	-0.021858755
142	0xbd5d486e	-0.054024152
143	0xbd156d58	-0.03648123
144	0xbd865ebd	-0.06561039
145	0xbc9dfea9	-0.01928647
146	0xbdd26860	-0.10273814
147	0xbd483172	-0.04887528
148	0x3cd80aee	0.0263724
149	0xbc3e0b4c	-0.011599373
150	0xbcb44394	-0.02200488
151	0xbd7f3f1d	-0.06231605
152	0xbce3d3e3	-0.027810996
153	0x3d8afaa9	0.06786091
154	0x3d01ac9f	0.031658765
155	0x3de12c28	0.1099475
156	0xbd92f780	-0.07176113
157	0x3c83f535	0.016108135
158	0xba97871b	-0.001156065
159	0x3d467fc3	0.048461687
160	0xbdd2f53e	-0.103006825
161	0x3d869f86	0.065733954
162	0xbb89d4b8	-0.0042062663
163	0xbe0154e2	-0.12630036
164	0xbe0eda80	-0.13950539
165	0xbb0c47fd	-0.0021405213
166	0xbdb9b13c	-0.09067008
167	0xbe164f65	-0.14678724
168	0x3ca657a5	0.020305464
169	0xbd1fef5b	-0.039046627
170	0xbddf0c60	-0.10891032
171	0x3dfe2c4a	0.12410791
172	0x3dbee624	0.093212396
173	0x3e0c8fec	0.13726777
174	0x3e024108	0.1272012
175	0xbdf8f842	-0.121567264
176	0x3d99b2ff	0.07504844
177	0xbc37b775	-0.011213173
178	0x3cfee46c	0.03111478
179	0xbdb8a172	-0.09015168
180	0x3c8aa388	0.01692368
181	0x3d7e5cb0	0.062100112
182	0xbd3627de	-0.044471614
183	0xbc84bc4d	-0.01620307
184	0xbd186ba9	-0.037212048
185	0x3d15d150	0.03657657
186	0xbc927388	-0.017877355
187	0x3d984413	0.07434859
188	0xbdf4f85c	-0.11961433
189	0xbce3f39c	-0.027826123
190	0x3e0bf53b	0.13667767
191	0xbd52e11b	-0.05148421
192	0xbd720945	-0.05909087
193	0x3d1cf755	0.03832181
194	0xbd414bd2	-0.04719145
195	0xbb3cbfd0	-0.0028800853
196	0xbda3d499	-0.07999534
197	0xbddcd247	-0.10782295
198	0xbdaf056c	-0.08545956
199	0x3cdaff3f	0.026733039
200	0x3c872487	0.01649691
201	0xbdbfe453	-0.09369721
202	0xbe17b5a3	-0.14815383
203	0x3d7abe63	0.061216723
204	0x3d5c4512	0.053776808
205	0xbcfe4858	-0.031040356
206	0x3cc324ac	0.023821197
207	0x3dc73359	0.09726591
208	0x3dbb4840	0.0914464
209	0x3d997f9b	0.07495042
210	0x3c81439b	0.015779307
211	0x3d962fcc	0.07333335
212	0xbd9e2880	-0.077225685
213	0xbe0a9f15	-0.13537247
214	0xbdab154d	-0.08353672
215	0x3dc9eee8	0.09860021
216	0x3dbf1b0e	0.09331332
217	0x3de9957b	0.11405464
218	0x3c0bba12	0.008528249
219	0xbe017fa4	-0.12646347
220	0xbe0734f2	-0.13203791
221	0x3d6872ba	0.056750037
222	0x3c041702	0.008062126
223	0x3e152dcf	0.14568256
224	0x3d5a323c	0.053270563
225	0xbd8ab140	-0.06772089
226	0xbe107618	-0.14107549
227	0xbd8e4ae0	-0.06947875
228	0x3d6285f4	0.05530353
229	0x3d144b64	0.03620471
230	0xbda2a203	-0.079410575
231	0xbd317dd1	-0.04333288
232	0xbda569e4	-0.08076838
233	0x3d5df230	0.054186046
234	0xbdf442a4	-0.11926773
235	0x3bda121d	0.0066549913
236	0x3d790096	0.060791574
237	0xbdc0c552	-0.09412636
238	0x3bc81c8b	0.006106918
239	0xbe0d8b3d	-0.13822646
240	0xbb6ef121	-0.0036459642
241	0x3b223914	0.002475326
242	0xbd7975a2	-0.0609032
243	0x3d5f956a	0.05458585
244	0xbda0132d	-0.078161575
245	0x3d54b310	0.05192858
246	0x3d648734	0.055793002
247	0xbdb27515	-0.08713738
248	0x3dc68ce8	0.096948445
249	0x3dae1288	0.08499628
250	0xbcf219e8	-0.029553369
251	0x3d0342b7	0.032046046
252	0x3db418fb	0.08793827
253	0x3d5f7520	0.05455506
254	0x3c827b67	0.015927983
255	0x3e07f465	0.13276823

lstm.weight_hh_l1 f4 [256, 64]
0	0xbdbef33f	-0.09323739
1	0x3d19871c	0.037482366
2	0xbdf21617	-0.118206196
3	0x3d08d296	0.033403955
4	0x3bf91802	0.007601739
5	0x3a7bc54a	0.00096042885
6	0xbdb4dc43	-0.08831074
7	0x3d38b07e	0.04509019
8	0x3bffd8e8	0.0078078397
9	0x3df51f4b	0.11968859
10	0xbc789b44	-0.015173737
11	0xbe1143a9	-0.14185967
12	0xbd8ec93b	-0.069719754
13	0xbde7f19c	-0.1132538
14	0xbcbb9314	-0.02289728
15	0x3d819120	0.063265085
16	0x3d49c68e	0.049261622
17	0xbd21163d	-0.03932785
18	0xbc937293	-0.01799897
19	0x3db58b85	0.08864502
20	0x3d5eedf7	0.05442616
21	0xbde5493d	-0.1119561
22	0xbb9fc61e	-0.0048759123
23	0x3dbdd259	0.09268636
24	0x3d6d3509	0.057911906
25	0xbce0bde9	-0.027434306
26	0x3e1c428b	0.15259759
27	0x3da3b681	0.07993794
28	0xba583c53	-0.0008248735
29	0xbd6658f1	-0.056237165
30	0x3dfa3e2c	0.122188896
31	0x3d872e32	0.06600608
32	0xbdbeee75	-0.09322826
33	0x3dc07a28	0.093982995
34	0xbda94c2a	-0.0826648
35	0x3be7cf8f	0.0070743035
36	0x3db41419	0.08792896
37	0xbd723ef3	-0.059142064
38	0xbda7b5e3	-0.08188989
39	0x3dcf48d3	0.10121312
40	0x3d09224f	0.033479985
41	0x3dc84952	0.0977961
42	0x3c96d7af	0.018413393
43	0x3e117305	0.14204033
44	0xbd3785bc	-0.044805273
45	0xbd5d3633	-0.054006767
46	0x3d83fa9a	0.06444283
47	0x3d33186f	0.043724474
48	0xbd5e57c1	-0.054282907
49	0x3dda8d5e	0.10671495
50	0x3d294ea8	0.041334778
51	0xbb0d868c	-0.0021595089
52	0x3ddf5329	0.109045334
53	0xbd944475	-0.0723962
54	0x3dce848c	0.10083875
55	0xbbd5b325	-0.0065216
56	0xbdf6526f	-0.12027442
57	0x3cc3fa91	0.02392319
58	0xbdd13aca	-0.10216291
59	0xbdd732b9	-0.105077215
60	0xbd8595f1	-0.0652274
61	0x3d861a97	0.0654804
62	0x3daaca9f	0.08339428
63	0xbd978247	-0.07397895
64	0xbcce65a3	-0.025194949
65	0xbd5a39d8	-0.05327782
66	0x3dd52fd7	0.10409515
67	0x3dceef04	0.10104182
68	0x3dff7f71	0.124754794
69	0xbddae287	-0.10687738
70	0xbd068d05	-0.03284933
71	0xbcc98fe7	-0.02460475
72	0x3dc813f1	0.097694285
73	0xbcd3c058	-0.025848553
74	0xbdf1bd74	-0.118037134
75	0xbcae3be2	-0.021268789
76	0xbd858b1d	-0.065206744
77	0x3d520493	0.051273894
78	0x3d8ccc0d	0.06874857
79	0xbb69b6fe	-0.003566205
80	0x3dc0ca3d	0.09413574
81	0x3db2f784	0.08738616
82	0x3d9f56bb	0.077802144
83	0xbb80412f	-0.0039140205
84	0xbd83857f	-0.06421947
85	0x3d8e3ef2	0.069455996
86	0xbbad4a51	-0.0052884
87	0x3e07447d	0.1320972
88	0xbdcb3336	-0.09921877
89	0x3a900c57	0.0010990006
90	0x3dc0fc9c	0.094231814
91	0x3d89b920	0.06724763
92	0x3a1c6058	0.0005965284
93	0xbde5da2a	-0.11223252
94	0x3e10a88b	0.14126794
95	0x3d3d48c1	0.04621196
96	0x3d574d07	0.052563693
97	0xbd81a86c	-0.06330952
98	0x3df58bce	0.11989556
99	0x3a12462c	0.00055799144
100	0x3d6fb8c7	0.058525827
101	0x3dd55c39	0.10417981
102	0x3da42285	0.080143966
103	0x3d629e3d	0.05532669
104	0xbd322bae	-0.043498687
105	0xbb91df1c	-0.0044516455
106	0xbbc20d22	-0.0059219757
107	0xbd6add36	-0.05733987
108	0xbda891ae	-0.08230911
109	0x3d89f08c	0.06735334
110	0x3d04668a	0.03232435
111	0xbd8d5afa	-0.06902118
112	0xb8d57ffa	-0.00010180469
113	0x3d81d26b	0.06338962
114	0x3d7a93c5	0.06117608
115	0xbd1e39fa	-0.03862951
116	0x3c0d94bc	0.008641418
117	0xbd20a465	-0.03921928
118	0xba456162	-0.0007529465
119	0xbd838d1d	-0.064233996
120	0xbc9d00fa	-0.019165505
121	0x3d0afe32	0.033933826
122	0xbe03b999	-0.12863769
123	0x3da19d69	0.07891352
124	0xbc2373e6	-0.009976363
125	0x3ddb2573	0.10700502
126	0x3b794624	0.0038036192
127	0x3d721e09	0.059110675
128	0x3c419906	0.011816269
129	0x3cc66e2f	0.024222462
130	0xbe20a3df	-0.15687512
131	0x3df15a0f	0.117847554
132	0x3d648e5f	0.05579984
133	0x3c42856f	0.011872633
134	0x3e0bc600	0.1364975
135	0xbd436053	-0.047699284
136	0x3e03a463	0.12855677
137	0x3befcfc0	0.007318467
138	0x3cae626e	0.02128717
139	0xbe0a4cdf	-0.13505886
140	0x3de20979	0.11036963
141	0xba595294	-0.0008290198
142	0xbe0ea988	-0.13931859
143	0xbda3511e	-0.07974456
144	0xbd3d0e52	-0.046156235
145	0x3e0a9ec2	0.13537124
146	0xbd92ec3f	-0.071739666
147	0x3c4192bb	0.011814768
148	0x3d896fb9	0.067107625
149	0xbdeb26e4	-0.11482027
150	0xbd3fcdd7	-0.046827164
151	0xbd2bc2c0	-0.041933775
152	0xbe04e236	-0.12976918
153	0xbdab7500	-0.08371925
154	0xbd549814	-0.051902846
155	0xbb6f93de	-0.0036556642
156	0xbdd4bc3e	-0.10387467
157	0xbdba5565	-0.09098319
158	0xbdc8155a	-0.097696975
159	0xbdf61a6c	-0.12016758
160	0xbd867c08	-0.06566626
161	0xbcf1ee21	-0.029532494
162	0x3cf16496	0.029466908
163	0x3db620bd	0.08892963
164	0xbc2f24d3	-0.010689932
165	0x3cdde837	0.027088268
166	0xbe118a96	-0.14213023
167	0x3d614dde	0.0550059
168	0xbd5010a1	-0.05079711
169	0xbcb1ceba	-0.02170502
170	0x3e16fa05	0.14743812
171	0x3dba9767	0.09110909
172	0x3ba90c23	0.0051589175
173	0xbc7d1955	-0.015447934
174	0xbb4f34d5	-0.0031617184
175	0xbda8ee8e	-0.08248626
176	0x3e16be52	0.14721039
177	0xbdc58ce3	-0.09646013
178	0x3d4d93e1	0.050189856
179	0x3e052c73	0.13005237
180	0x3d5f010c	0.054444358
181	0x3dc4a7e2	0.096023336
182	0xbd02d72a	-0.031943478
183	0xbc5e8a0f	-0.01358272
184	0x3c846f27	0.016166283
185	0xbd7b1181	-0.06129599
186	0xbe152150	-0.14563489
187	0xbc656958	-0.014002167
188	0x3d960809	0.07325751
189	0x3de12f43	0.109953426
190	0x3d3a9b8f	0.04555851
191	0x3d96523c	0.07339904
192	0x3dc53d52	0.096308365
193	0xbdbf2c04	-0.09334567
194	0xbe146011	-0.14489771
195	0x3e0bd64f	0.13655971
196	0xbd03a208	-0.032136947
197	0x3cd8a002	0.026443485
198	0xbcf7462e	-0.030184831
199	0x3d261390	0.040546
200	0x3d07106e	0.032974653
201	0x3df5c4d3	0.12000432
202	0xbd00238c	-0.0312839
203	0x3c89118b	0.016731998
204	0xbd0ed21a	-0.034868337
205	0x3d7a88bd	0.06116556
206	0xbc58fc7c	-0.013243791
207	0x3ddbfe92	0.10741915
208	0xbe04bcf9	-0.12962712
209	0xbd4a0fe4	-0.04933156
210	0x3dcf03c0	0.10108137
211	0xbdc73a21	-0.09727884
212	0xbd931484	-0.071816474
213	0x3d7f60a6	0.06234803
214	0xbcbb1b20	-0.022840083
215	0xbdaf5602	-0.085613266
216	0xbce234cf	-0.027613072
217	0x3d9c6795	0.07636944
218	0x3d179bc1	0.037013773
219	0xbcaf19e0	-0.021374643
220	0xbe0df8b5	-0.13864405
221	0xbd6fdb9e	-0.058559053
222	0x3daa49ea	0.08314879
223	0xbde414bf	-0.111367695
224	0x3e07a155	0.13245137
225	0x3c8a4715	0.016879598
226	0x3df0b6a5	0.11753587
227	0x3b332993	0.0027338013
228	0xbe001b4d	-0.12510414
229	0x3d821f6f	0.06353652
230	0xbdb198c6	-0.08671717
231	0x3d0221e1	0.03177059
232	0xbd12c345	-0.035830755
233	0xbdffa001	-0.1248169
234	0x3d30e39f	0.043185826
235	0xbd3099db	-0.043115478
236	0x3d920fd1	0.07131923
237	0xbcc97526	-0.024591994
238	0xbdb72d1d	-0.089441516
239	0xbd9c79ca	-0.07640417
240	0xbdb314be	-0.08744191
241	0x3dba4744	0.09095624
242	0x3dd1c441	0.102425106
243	0x3d8b64c1	0.06806327
244	0xbda55c82	-0.08074285
245	0x3cc7115e	0.024300274
246	0xbd80618d	-0.06268606
247	0x3d2aabab	0.04166762
248	0x3dc91511	0.09818471
249	0x3d9ce661	0.07661129
250	0x3c761b78	0.0150211975
251	0xbd1af473	-0.03783078
252	0xbd527580	-0.051381588
253	0xbd2e5539	-0.042561743
254	0xbda6e24e	-0.08148633
255	0x3d9fe08c	0.07806501

lstm.bias_ih_l1 f4 [256]
0	0x3d260955	0.040536243
1	0x3dda947b	0.10672852
2	0x3de5ea9a	0.11226387
3	0xbd9c9045	-0.07644705
4	0x3ce006f8	0.027347073
5	0x3d7a9055	0.061172802
6	0x3dcba9fc	0.09944531
7	0xbd70230b	-0.05862717
8	0xbd061b0f	-0.03274065
9	0xbd8bacea	-0.0682009
10	0x3d2b78b3	0.041863155
11	0xbd99af85	-0.07504181
12	0x3d925756	0.07145564
13	0xbd9959bb	-0.07487818
14	0x3cf6b72d	0.030116642
15	0x3ced5247	0.028969897
16	0xbcd5c5c7	-0.026095284
17	0xbdd638b9	-0.10460038
18	0x3db18af2	0.0866908
19	0x3e00f7aa	0.12594476
20	0x3b50f2fa	0.0031883107
21	0x3db6cfd2	0.08926357
22	0xbd9ca97d	-0.07649515
23	0xbd086aef	-0.033305105
24	0xbc3141be	-0.010818897
25	0x3e110998	0.14163816
26	0x3d3c2a31	0.045938674
27	0xbdd245ec	-0.10267243
28	0x3ce0405a	0.027374435
29	0x3d2a0cb3	0.041516017
30	0x3d3dc522	0.04633058
31	0x3dd01ae0	0.10161376
32	0x3db4f0d0	0.08834994
33	0xba8a468c	-0.0010549589
34	0x3d957796	0.072982
35	0x3c69f512	0.014279621
36	0xbd5533ff	-0.05205154
37	0x3dcbd769	0.099531956
38	0x3d21da24	0.039514676
39	0x3dd82761	0.10554386
40	0xbd494c70	-0.049145162
41	0x3ad7ac5e	0.0016454568
42	0xbdd1aa71	-0.10237587
43	0xbb56d389	-0.0032779893
44	0x3df21dab	0.11822065
45	0x3a8da623	0.0010806959
46	0x3d99921e	0.07498573
47	0x3d1c669d	0.038183797
48	0xbdd573e9	-0.10422499
49	0x3defa22f	0.11700856
50	0xbd7ce411	-0.06174094
51	0x3e095865	0.13412626
52	0x3be3189b	0.0069304234
53	0xbdabfc29	-0.08397705
54	0x3d25b0af	0.0404517
55	0x3e1defbd	0.15423484
56	0x3da1bb11	0.07897008
57	0xbc2578a5	-0.010099565
58	0x3d7bf849	0.06151608
59	0x3dab558c	0.08365926
60	0xbd9c4a52	-0.07631363
61	0xbd8dd970	-0.069262385
62	0xbdcce03e	-0.10003708
63	0x3dd8efe5	0.10592631
64	0xbd8e15c5	-0.06937746
65	0xbd008fc0	-0.03138709
66	0x3dc5eb7c	0.09664056
67	0xbd2e4fa0	-0.042556405
68	0x3aa37f10	0.0012473781
69	0x3dd4fcf1	0.10399807
70	0x3d5790e9	0.05262843
71	0x3ca33887	0.019924415
72	0xbd99c9f1	-0.075092204
73	0xbd73123d	-0.059343565
74	0x3b083490	0.0020783283
75	0x3e1065ef	0.14101385
76	0x3c5e0b9b	0.013552572
77	0x3d989118	0.074495494
78	0x3d024f0e	0.031813674
79	0x3c2bd809	0.0104885185
80	0x3dc106d2	0.09425129
81	0x3c2a8e73	0.010409939
82	0x3d92b1a9	0.07162792
83	0x3d80d9a3	0.06291511
84	0x3d6ea7ee	0.05826562
85	0x3de4d0bc	0.111726254
86	0xbba3a788	-0.0049943365
87	0xbcd2c092	-0.02572659
88	0x3d3b188a	0.0456777
89	0x3dd40fc6	0.10354571
90	0x3e060773	0.13088779
91	0xbd6c1912	-0.057641096
92	0x3c926231	0.017869087
93	0x3dce464c	0.10072002
94	0x3daa9ed4	0.08331075
95	0x3e117db1	0.14208104
96	0x3d1eb63b	0.038748007
97	0xbd931cae	-0.071832046
98	0x3d04e355	0.032443363
99	0xbd1b2a25	-0.03788199
100	0x3d24c616	0.040227972
101	0xbd8cd4c1	-0.06876517
102	0xbd2011bf	-0.039079424
103	0x3c95b3e4	0.018274255
104	0x3b3553c4	0.0027668336
105	0xbd713151	-0.058884922
106	0x3d383647	0.044973638
107	0xbd5a1780	-0.053245068
108	0x3dc5eb09	0.0966397
109	0xbba4e2af	-0.0050319056
110	0x3de8aab8	0.11360687
111	0xbd88cb48	-0.06679398
112	0x3d8d1908	0.0688954
113	0x3dd14cb8	0.10219711
114	0x3df080d8	0.11743325
115	0xbdafdc44	-0.08586934
116	0xbba337b9	-0.004981008
117	0xbda0e41c	-0.078560084
118	0xbdb2f720	-0.087385416
119	0xbd75d6ec	-0.06001942
120	0x3e045c37	0.12925802
121	0xbd1755e0	-0.03694713
122	0xbcea2384	-0.028581388
123	0x3c9a94f4	0.018869855
124	0x3d9b165d	0.07572625
125	0x3d020e83	0.03175212
126	0xbda34f25	-0.0797408
127	0x3d5c4ca4	0.053784028
128	0x3dc01b1c	0.09380171
129	0x3e00e730	0.12588191
130	0x3d016fd0	0.031600773
131	0x3dcf83f0	0.10132587
132	0x3d3a72e0	0.04551971
133	0x3dcb337a	0.09921928
134	0x3e14920e	0.1450884
135	0xbdfadfdf	-0.12249731
136	0x3dfdcd75	0.123927034
137	0xbd908be3	-0.07057931
138	0xbdc8a368	-0.09796792
139	0xbd0eae22	-0.034834035
140	0x3d8de1e6	0.06927852
141	0xbdbdbd45	-0.09264616
142	0x3d5e2495	0.054234106
143	0xbd713947	-0.058892515
144	0xbd2ad486	-0.041706584
145	0x3d181d5c	0.037137374
146	0x3d6134f0	0.054982126
147	0x3b7b3751	0.0038332532
148	0xbd918524	-0.07105473
149	0x3d69f30a	0.057116546
150	0xbd5b2585	-0.05350258
151	0x3dda275f	0.10652041
152	0x3d1228db	0.035683494
153	0xbd491df6	-0.04910084
154	0x3cd2f162	0.025749866
155	0xbdbe4173	-0.09289827
156	0x3bbedf10	0.005824931
157	0xbcd9742e	-0.026544657
158	0xbcf57ea6	-0.029967617
159	0xbe1567ee	-0.14590427
160	0x3d9e8a67	0.07741242
161	0x3d73d31b	0.059527498
162	0x3dcd838a	0.10034855
163	0xbd7dad52	-0.06193287
164	0xbdad9801	-0.08476258
165	0xbd86c513	-0.06580558
166	0xbccb28ba	-0.024799693
167	0x3e136c07	0.14396678
168	0xbcd6c37e	-0.026216265
169	0xbdad3070	-0.08456504
170	0x3bf8cf3a	0.0075930627
171	0x3dd7767e	0.105206475
172	0x3de73d6a	0.11291011
173	0xbcfbd167	-0.0307395
174	0x3df9e2c7	0.122014575
175	0xbda27359	-0.07932157
176	0xbdbee5f8	-0.09321207
177	0xbdd5ef75	-0.104460634
178	0xbdc83daa	-0.097773865
179	0x3d7b2992	0.06131894
180	0x3d7653c4	0.06013848
181	0xbbbbe4e7	-0.0057340744
182	0xbc872e80	-0.016501665
183	0xbbd1f9c2	-0.0064079473
184	0x3db001a1	0.08594061
185	0xbd174330	-0.03692931
186	0xbd0b5d10	-0.0340243
187	0xbd8d7dc1	-0.06908751
188	0x3d0386bc	0.032110915
189	0xbc06956e	-0.008214338
190	0xbce272c7	-0.02764262
191	0xbbe39393	-0.0069450825
192	0xbddb2009	-0.106994696
193	0xbd61ddbb	-0.0551431
194	0xbbf33b90	-0.007422872
195	0xbcb93fc3	-0.022613412
196	0xbe054b4a	-0.13017002
197	0x3d986f84	0.07443145
198	0xbd99fc6f	-0.07518851
199	0xbdad0a9e	-0.08449291
200	0x3dae292b	0.08503946
201	0xbd6bee3f	-0.057600256
202	0x3df7381b	0.12071248
203	0x3d02bed5	0.031920273
204	0xbe0813bd	-0.1328878
205	0x3e1a0fdc	0.15045112
206	0xbdcb1399	-0.09915847
207	0xbdeac08a	-0.11462505
208	0xbe02cdf4	-0.12773877
209	0x3d67468a	0.056463756
210	0xbdbb1e0f	-0.091365926
211	0x3b21e598	0.00247035
212	0x3dc4d651	0.0961119
213	0xbccc6f92	-0.024955545
214	0x3e0be5e0	0.13661909
215	0xbdeb2e0d	-0.11483393
216	0x3d9339e5	0.07188777
217	0xbc822317	-0.015885873
218	0xbda3013e	-0.07959221
219	0x3d9610bb	0.0732741
220	0xbd6db564	-0.058034316
221	0xbdaee9d4	-0.08540693
222	0x3dc94551	0.09827674
223	0xbd9819ff	-0.07426833
224	0xbd6af783	-0.05736495
225	0xbd4887cc	-0.04895763
226	0x3d9a02d6	0.07520072
227	0x3d70a6b4	0.05875273
228	0xbda2811d	-0.07934783
229	0xbdf3f373	-0.11911669
230	0xbdea0172	-0.11426057
231	0x3d46be02	0.04852105
232	0xbd05b4ee	-0.03264325
233	0x3a5cf9b7	0.00084295444
234	0x3d928901	0.07155038
235	0xbd72bad2	-0.059260197
236	0x3c7588cd	0.014986229
237	0xbd27db6c	-0.04098074
238	0x3d191e56	0.037382446
239	0x3ddc73d6	0.107642815
240	0xbdbd38d2	-0.09239353
241	0x3df07ca2	0.11742522
242	0x3e00de46	0.1258479
243	0x3dff7371	0.124731906
244	0x3d318bf5	0.043346364
245	0x3e02f41f	0.12788437
246	0x3e0b7770	0.1361978
247	0xbd8918be	-0.06694172
248	0xbbf7018f	-0.0075380276
249	0xbbe03dff	-0.006843328
250	0x3dd11870	0.10209739
251	0xbc9128ac	-0.01771959
252	0x3d936a98	0.071980655
253	0x3e032f14	0.12810928
254	0x3dfe6491	0.12421525
255	0x3d174a2b	0.036935966
