models/lstm_gk_model.pt (torch, 245029 bytes, 9 tensors)

lstm.weight_ih_l0 f4 [256, 38]
000000 bd b4 0b 3e f5 cb db 3d e5 2e 00 3c 1c 2a eb 3d
       0.13643165 0.10732261 0.0078236805 0.11482641
000010 9e 6d 20 bd 5d 36 28 3c 36 57 38 bd 69 ed c1 3d
       -0.03916704 0.0102668675 -0.045005046 0.094691105
000020 2c 87 0f 3e 0b de 5c bd 0b 8a f7 3d 63 2f e2 3b
       0.14016408 -0.053922694 0.120868765 0.0069026216
000030 64 32 fb 3d 82 82 e9 3c 7f af 91 3d ca d0 6a 3c
       0.122654706 0.028504614 0.07113551 0.014332006
000040 d3 9e 03 3e 38 5b 97 3c 70 a2 8f bd 05 7d 8a 3c
       0.12853555 0.018476114 -0.07013404 0.016905317
000050 d2 f7 2a bd 97 fa d8 3b 50 76 23 bd 1c 86 ea 3d
       -0.041740246 0.0066216695 -0.039907753 0.114513606
000060 74 fa 88 bd 8c 2a ef bc cb b0 a5 bd 12 a4 06 bd
       -0.06688395 -0.029195093 -0.08090361 -0.032871313
000070 b9 c2 e5 3c 90 14 d4 bd a4 c1 e2 3d fa 60 ab bd
       0.028046953 -0.103554845 0.1107209 -0.08368106
000080 79 51 f3 3d c3 56 12 3d 58 d7 6d bb 8b 3d 70 3d
       0.11880774 0.035727274 -0.0036291685 0.058652442
000090 3b dd d1 3b ab 64 ae 3d b1 3e 85 3c c1 0a 39 bd
       0.0064045466 0.08515295 0.016265245 -0.04517627
0000a0 0f cb a5 3c 08 d8 0a bd 1e b4 15 3d 71 01 12 3e
       0.020238427 -0.03389743 0.036548726 0.14258362
0000b0 bc 8e 72 3d 79 a1 2b bd 72 7a 6d 3d 4d 01 6b 3c
       0.059218153 -0.04190204 0.0579781 0.014343572
0000c0 c0 24 2a 3d 12 d8 28 bd 62 a1 0d be 25 8e 27 bd
       0.041538954 -0.041221686 -0.13831094 -0.040907044
0000d0 4a 78 ac bd 45 8c bd 3d 34 1b d9 3c cc 13 54 3d
       -0.08421381 0.0925527 0.02650223 0.051776692
0000e0 de 4c c0 3c 5e fb eb 3c af a4 ad 3d 67 ca 9b bd
       0.023474153 0.028806385 0.084786765 -0.076069646
0000f0 d4 06 a0 3c 0c 23 c4 bd 05 86 ea 3c e7 38 74 bd
       0.019534506 -0.09576997 0.028628359 -0.05962458
000100 d9 02 c6 3c 52 2c 33 bd 50 80 fe 3d 19 2b 53 bd
       0.02417128 -0.04374344 0.124268174 -0.051554773
000110 58 d2 80 bd 3e 68 9d bd c8 ef ce 3d 0c b7 53 3d
       -0.0629012 -0.07685898 0.101043284 0.05168824
000120 86 d3 e9 3d e1 d4 01 be 3e c6 12 be 03 13 f5 bd
       0.11417298 -0.12678863 -0.14333436 -0.11966517
000130 99 5d f3 bd d5 a2 30 3d fe 3b ba 3c 76 b7 d4 3d
       -0.11883087 0.04312404 0.022733685 0.10386555
000140 a1 f9 2f bd 54 93 ec bd 16 a5 bb 3d ce bc f0 bc
       -0.042962674 -0.11551538 0.09162347 -0.029386904
000150 e6 41 26 3d 6b e5 96 bd 6a fb 74 3d bf 6a 14 be
       0.04059019 -0.07367977 0.05981008 -0.14493845
000160 ce 8a da bd c2 74 b9 3d 1e b5 a0 3d ab 1f b4 bc
       -0.10671006 0.09055473 0.07847045 -0.021987757
000170 49 41 a7 3d fa 07 ae 3d 56 6d 8d bd 40 ba c6 bd
       0.08166749 0.08497615 -0.0690562 -0.09703493
000180 f6 1c 0f 3e e8 5c ac bc 88 4b fd 3b 88 d1 e3 bd
       0.13975891 -0.021040395 0.0077299513 -0.11123949
000190 7c 48 84 bd 1d 8e 87 bc 2b a0 91 ba 58 98 df bd
       -0.06459138 -0.016547257 -0.0011110356 -0.10917729
0001a0 41 b0 60 3d 89 a0 49 bd 54 e7 fb bd 6e d1 1c bd
       0.05485559 -0.049225364 -0.12299982 -0.038285665
0001b0 d8 44 8a bd f2 dc 29 bd ac fe f2 3d 32 4a 19 3c
       -0.06751412 -0.041470475 0.11864981 0.009356068
0001c0 10 4c d1 3c d9 5e 05 be 9f 0e 0d bd 0a 02 5a bd
       0.025548965 -0.13024463 -0.034437772 -0.0532246
0001d0 68 af 30 3d 86 42 e1 bd cc 49 88 bd f3 ed a6 bd
       0.04313603 -0.109990165 -0.06654701 -0.08150854
0001e0 37 60 bd 3b 54 0e 4a bd 34 1a 12 3d 72 83 53 bd
       0.005779292 -0.04933007 0.03566952 -0.051639028
0001f0 f2 ca ae bd 92 6e ad bd 47 bc 5e 3a b1 c8 c7 bd
       -0.085348025 -0.08468355 0.00084966834 -0.09755076
000200 f0 05 db 3d 6f 58 b6 bc 1c 70 e2 3d b0 87 1f 3d
       0.10694492 -0.022258965 0.110565394 0.03894776
000210 c7 c3 f2 bd 9d 7d a3 3d f9 3d ed bc 54 cd 4f bd
       -0.11853748 0.07982943 -0.028960215 -0.050732926
000220 86 1f d0 bd 8d a0 fa bd 82 0e 1c 3d 3e b7 77 3c
       -0.101622626 -0.12237654 0.038099773 0.015119372
000230 36 98 61 3d 1e 0d 95 bd 55 4e e9 3d 03 70 a5 bd
       0.0550768 -0.072778925 0.11391894 -0.08078005
000240 64 fa f1 bc c1 84 d3 3b c9 3a 42 3d 97 4e df 3d
       -0.02953834 0.0064550345 0.047419343 0.10903662
000250 43 1b 02 3e 0a cf eb bd 93 23 7f 3c 3b ca 8e bd
       0.12705712 -0.11514099 0.015572446 -0.06972166
000260 b6 f0 0d bd fb 99 cc bd 20 ab ee 3d 2e e4 bb bd
       -0.034653388 -0.09990307 0.11653733 -0.09174381
000270 3f 0f 89 3d 06 ab 0b 3d 11 09 dc 3c 67 7d a6 bd
       0.06692361 0.034098648 0.026859792 -0.08129387
000280 2f 60 d6 3d 68 df cc 3c dc 94 b6 3c ec d1 e0 bd
       0.10467564 0.025008872 0.022287779 -0.109775394
000290 41 d6 34 3d 31 d5 aa bc 72 35 7a bd f8 e0 de 3d
       0.04414964 -0.02085361 -0.061086126 0.10882753
0002a0 53 66 f1 3c 86 a3 8d bd d9 54 81 bd 9f 70 81 bc
       0.029467737 -0.06915955 -0.063150115 -0.015800772
0002b0 71 85 65 3d 87 00 3b bd 46 e4 99 bd d8 eb 29 bd
       0.056035463 -0.0456548 -0.07514243 -0.041484684
0002c0 56 40 bc bd cb 67 13 3d b2 03 c5 3d 41 84 e5 bd
       -0.091919586 0.035987657 0.096198454 -0.11206866
0002d0 a3 a9 22 3d 84 44 8b 3d 20 e9 0d 3c 68 b4 de bc
       0.03971256 0.06800178 0.008661538 -0.027185634
0002e0 a3 d3 92 3d 9b 7a 79 3d 37 98 54 3c 8e c6 ff bc
       0.07169273 0.06090794 0.012975744 -0.031222608
0002f0 fc 36 29 bd 63 31 98 3b f0 12 5c 3b a5 69 93 bb
       -0.041312203 0.004644559 0.0033580624 -0.004498678
000300 46 1e d7 3d 9c 01 dc 3d 94 aa a9 bc a6 c2 86 bc
       0.10503821 0.107424945 -0.02071122 -0.016450237
000310 82 7d 0d 3d 26 20 de 3c fb b0 56 3d a6 8a 77 3d
       0.03454352 0.027114939 0.052414875 0.06043496
000320 b4 51 c4 bd 66 83 f8 bc b0 da 01 3e d2 b8 1a 3d
       -0.09585896 -0.030336093 0.12681079 0.037773915
000330 f7 a5 9a bc 44 1c c2 bd 2a 71 c2 bd fa 50 e5 bd
       -0.018877966 -0.094780475 -0.094942406 -0.11197086
000340 0e 0a 49 bd e0 28 5c 3d 9e 3d e6 3d df 02 bd 3d
       -0.049081855 0.05374992 0.11242221 0.09229063
000350 14 38 fc bd 4a 82 c0 bd 26 02 1a bd 16 7b 11 3e
       -0.123153836 -0.09399851 -0.037599705 0.1420711
000360 b0 dd 10 3d e6 24 55 3b 60 df 1a 3d 76 3f 3b bd
       0.035367668 0.0032523214 0.037810683 -0.045714818
000370 31 4f 66 bd 4b da fe 3d 89 87 00 bd 32 c9 32 bd
       -0.056227867 0.1244398 -0.031379256 -0.043648906
000380 29 cd d4 bd b0 ef ed 3d eb 37 03 3e ff e1 a0 3d
       -0.10390694 0.116179824 0.128143 0.07855605
000390 c9 df 54 bd 23 5e c1 bd 40 9b 9c bd 36 e6 be 3d
       -0.05197123 -0.09441783 -0.07646799 0.09321253
0003a0 65 e1 4a 3d cb a2 8c 3d 0e 86 b6 3d 84 d5 28 3d
       0.04953136 0.06866988 0.08912288 0.04121925
0003b0 58 8e 96 3c 32 1a 8a bd 66 3e e4 bd d9 3f 12 be
       0.018378422 -0.067432776 -0.11144714 -0.14282168
0003c0 fa af 91 3d 9f 77 2c bd e6 81 e0 bb a2 c6 50 bd
       0.07113643 -0.042106267 -0.0068514226 -0.05097068
0003d0 2f c5 f7 ba 86 2e b4 bd c3 bd bc bd f0 0e a2 3b
       -0.001890337 -0.08797936 -0.09215882 0.0049456283
0003e0 e2 5a 5d bc 54 aa b1 3d 65 8d b2 bc c0 73 91 bd
       -0.013510438 0.08675066 -0.021795938 -0.07102156
0003f0 8e 09 c0 ba 3c c5 1c bd b1 6a a6 bc e4 a2 b6 bd
       -0.0014651285 -0.038274035 -0.020314546 -0.08917788

lstm.weight_hh_l0 f4 [256, 64]
000000 66 91 cb bc e6 95 0b 3e 06 b5 03 3d 91 83 05 be
       -0.024849605 0.136314 0.03215506 -0.1303847
000010 61 1b e4 bd 10 6d 0c ba e3 b5 da bd 55 34 77 bd
       -0.111380346 -0.0005356828 -0.106792234 -0.060352642
000020 d1 2b 83 3d f4 b8 11 3b 08 a6 01 bd 51 f4 11 3d
       0.06404842 0.0022235485 -0.03165248 0.03563339
000030 91 16 b3 3d 67 a6 28 3e 78 e2 97 3d d4 ab cf bd
       0.087445386 0.16469727 0.07416242 -0.101401955
000040 96 3e c2 bd 35 c2 58 3d 1c b3 fe 3d e6 d5 c1 bd
       -0.094845936 0.052919585 0.12436506 -0.09464626
000050 15 b7 d3 3d 70 67 3d bc 6d 26 39 3d 6c 69 05 3e
       0.103376545 -0.011560306 0.04520266 0.13028497
000060 ac 76 e6 3c 86 db 1b be 95 f4 9f bd 55 35 51 3d
       0.028132759 -0.1522046 -0.07810322 0.051076252
000070 8f ec 7c 3d 87 29 40 bd cf 38 01 3e 26 82 0d 3c
       0.061749037 -0.046914604 0.12619327 0.008636987
000080 98 31 9b bd 0d fa 89 bc 86 4b 48 be 9f ae a3 3c
       -0.07577819 -0.016842866 -0.1956006 0.019980727
000090 2e 4d 01 be e5 6c 05 3e 45 62 1a be dc 40 80 3d
       -0.12627098 0.13029821 -0.1507655 0.06262371
0000a0 38 4c a9 bd 4c 87 8e 3c bc d1 f5 bd 69 2c ef 3b
       -0.08266491 0.017398499 -0.12002894 0.0072989953
0000b0 d1 92 ad 3d 65 d5 07 be eb 60 a9 bd 04 54 cd bc
       0.08475269 -0.13264997 -0.08270439 -0.025064476
0000c0 fc ec c0 ba 8a 97 f1 bc e6 fc 50 bc e0 26 bd bc
       -0.0014719064 -0.029491205 -0.012755608 -0.023089826
0000d0 8e 4c 2a 3e 83 0e 94 bc 9f dc a6 bd 20 96 fd 3c
       0.16630766 -0.018073326 -0.08147549 0.030955374
0000e0 35 23 bc bd f5 00 8d bd 94 0d d2 3d 95 51 26 bd
       -0.09186403 -0.06884948 0.10256496 -0.040605146
0000f0 2e 46 23 be 6c 4a 32 3d 19 2b 5b bc ae ba 14 3d
       -0.1594474 0.043528005 -0.0133769745 0.036310844
000100 d4 ca 31 3d a8 fe 10 be 87 b8 72 bd 0c d1 8f bd
       0.043406323 -0.14159644 -0.05925801 -0.070222944
000110 89 cb 0c 3e 33 9c 43 bd 89 41 b9 bd 14 7a b8 bc
       0.13749518 -0.047756385 -0.09045703 -0.022519149
000120 09 2a 90 3c ba c9 02 3d 11 1b e9 3d 06 19 7e 3d
       0.017598169 0.031930663 0.11382116 0.062035583
000130 c1 fb 15 3d ab d3 d0 3d 23 84 7c 3d be 36 8a 3d
       0.036617044 0.101966225 0.061649453 0.067487225
000140 79 97 a9 bd 38 24 ba 3c d1 99 ec bc 9b f2 d3 bd
       -0.08280844 0.022722349 -0.02888194 -0.10349008
000150 71 e0 12 bd e9 e1 bd 3d 4e 83 e1 3c 6c 93 c2 3d
       -0.035858575 0.092716046 0.027528431 0.09500775
000160 d6 e0 c9 3d 30 b5 89 3c e7 e6 f7 3d 8e 62 1d 3d
       0.09857337 0.01681003 0.12104588 0.038424067
000170 3a cc 81 bb 14 7a 2c bd 93 68 c2 3d ea b6 8b 3d
       -0.0039611133 -0.04210861 0.09492602 0.068219975
000180 26 eb ae 3d 0d 9c a8 bc f1 48 bd bd 25 14 74 3c
       0.08540945 -0.020582223 -0.09242428 0.014897381
000190 d6 1a 68 bb 65 52 d4 bd c5 c5 1b 3d c9 77 22 3b
       -0.0035416386 -0.10367278 0.038030405 0.0024790636
0001a0 13 c4 c3 3d 54 a7 99 3c 6a db 2e bd 47 00 e3 3d
       0.095588826 0.018756546 -0.04268972 0.11084037
0001b0 2e 34 5f bc 13 23 bc bc 3e 1b 6c 3d b6 3d 06 3e
       -0.01362328 -0.022965943 0.057643168 0.13109478
0001c0 f5 35 05 3d 89 16 bb 3c ad 90 84 3d cc 5b be bc
       0.03252216 0.022837894 0.06472907 -0.023237132
0001d0 53 d5 df 3d 72 9c c9 bd 34 57 40 3b c5 7f 06 3e
       0.1092936 -0.09844293 0.0029348852 0.13134678
0001e0 1a 5c 91 3d e0 65 1b bd 9a 10 9b 3d b6 eb 98 3d
       0.07097645 -0.037938952 0.07571526 0.07466833
0001f0 2a 85 fe bd 22 a2 84 bb 3a 94 8e bd 5d d4 72 bd
       -0.12427743 -0.004047648 -0.06961866 -0.059284557
000200 8f 70 2f 3d 0e 4d ed bd 2d 44 a6 bc 05 31 c8 3d
       0.042831954 -0.11586963 -0.02029618 0.09774975
000210 00 6c 53 3d 01 f8 41 be 1f 6d c8 3d be fb d1 bd
       0.05161667 -0.18942262 0.09786438 -0.10253094
000220 4d b2 e5 bc a1 7d 00 3d 73 b5 ce 3c 63 f5 99 bd
       -0.028039122 0.03136981 0.025233006 -0.07517507
000230 43 ff 53 bd 3e 47 75 3d 5f 71 33 be 54 0a 5f 3c
       -0.05175711 0.059882395 -0.17523716 0.013613302
000240 51 6a 13 3e 28 5b e3 3d 1e 77 55 3c 21 ad 8c 3d
       0.14396025 0.11101371 0.013028888 0.06868959
000250 7b 6d 86 bd aa fb 23 bd f5 18 31 3d b8 bd 87 3d
       -0.065638505 -0.040034927 0.04323669 0.06627983
000260 41 de a1 3c 8d eb 6b 3d 3c 0b 12 bd d7 14 0c 3e
       0.0197593 0.057597686 -0.035655245 0.13679825
000270 41 f7 11 be f7 80 12 be aa ca b4 3d 4c 75 8e 3c
       -0.14254476 -0.14307009 0.088277176 0.017389916
000280 7a 78 cb bd c8 71 89 3d f5 bd ec 3d 4c a2 89 3d
       -0.099350885 0.06711155 0.11559669 0.06720409
000290 a5 8b 2b bd e5 74 0b 3e 73 87 06 3e 4c 15 c0 bd
       -0.041881222 0.1361881 0.13137607 -0.09379062
0002a0 07 10 80 bd 64 27 cc 3c a8 d8 9b 3b 95 c2 97 3d
       -0.06253057 0.024921127 0.004756052 0.074101605
0002b0 f1 e7 e2 bc 8c 70 e8 bc 32 42 54 bd 40 a0 a1 bd
       -0.027698489 -0.028373979 -0.05182094 -0.078918934
0002c0 11 68 8d 3d 47 7c 48 be 3a b4 1f bc 9d f3 0b bd
       0.06904615 -0.19578658 -0.009747559 -0.034167875
0002d0 a5 a5 c4 bd 0e 61 14 bd 12 70 35 3c 30 f4 c3 3b
       -0.09601907 -0.03622537 0.011074083 0.005980037
0002e0 e0 46 f8 3c 11 c6 22 bd 22 52 41 bd 3e 9e 0f 3e
       0.030307233 -0.039739672 -0.04719747 0.14025208
0002f0 5a a0 cd bb c7 1f be bd 96 1e d6 3d f7 61 7a bd
       -0.006275219 -0.09283405 0.104550526 -0.061128583
000300 47 44 83 3d 8c 62 c9 3d e7 20 bd bd 48 12 ce 3c
       0.06409507 0.098332494 -0.09234791 0.025155202
000310 62 29 3c 3d 61 50 98 bd 40 29 38 3d d0 a4 ff 3d
       0.045937903 -0.07437206 0.044961214 0.12482607
000320 76 20 ed 3c 7c 64 67 bc fd 30 2e bd 2e 02 94 bd
       0.028946143 -0.014123078 -0.042527188 -0.07226978
000330 fd 8a 70 3d fe 41 19 be 03 c3 ea bd 68 fa 99 bc
       0.0587263 -0.1496658 -0.11462977 -0.01879616
000340 10 eb 08 be fb 5e b3 3d 55 89 9b bc 94 9e 9c bd
       -0.13370919 0.087583505 -0.018986383 -0.07647434
000350 17 73 81 3d b2 39 95 3d 29 f5 62 3d 94 12 40 bd
       0.0632078 0.07286395 0.055409584 -0.046892717
000360 9c 25 e8 3b 5a 80 bc bd 0e bb 03 be 3b 8b 55 bd
       0.0070845615 -0.092041686 -0.12864324 -0.052134734
000370 f0 39 c5 3c 7d 20 45 bd 78 7f 5e bb 3b 5d 3e 3d
       0.024075478 -0.048126686 -0.003395049 0.04647563
000380 de 9b 3b 3d 07 5d 90 3d 92 a6 89 3d f5 e5 fa 3c
       0.045802943 0.070489936 0.06721224 0.03062723
000390 e4 24 55 bd 87 4d 9d 3d 9b 53 0f be 51 c8 73 3d
       -0.052037135 0.07680803 -0.13996737 0.05951721
0003a0 41 be 4f bd 2f 20 7f 3d 16 98 df bd 2b e9 06 bd
       -0.05071855 0.062286552 -0.1091768 -0.03293721
0003b0 5e ee 5f 3d e6 1a b1 bd 3c 33 a1 3d 6b d9 c3 3a
       0.054670684 -0.086477086 0.078711 0.0014942115
0003c0 83 0c d6 3d 2b 80 fd 3d 8f 2e be bd d0 48 24 bc
       0.10451605 0.12377962 -0.09286224 -0.0100271255
0003d0 07 5f aa bc 84 ab a2 bd aa be 14 3d 1c 3b af bd
       -0.020797266 -0.0794287 0.036314644 -0.08556196
0003e0 8a d5 9c bd 7e 35 7c bc ea 54 0a be 6f 2b ea bd
       -0.07657917 -0.015393613 -0.13508955 -0.114340656
0003f0 21 7c 54 3d c2 c1 91 bd 9b b9 94 3d 09 ef 8d bd
       0.05187619 -0.071170345 0.07261964 -0.06930358

lstm.bias_ih_l0 f4 [256]
000000 94 2b 95 bc 41 b6 8e bb 52 57 2a 3b 4f 36 d5 bd
       -0.018209256 -0.0043552225 0.0025991988 -0.10410749
000010 9b cc 89 bd b9 09 b0 3d f4 bb 72 3d da 1b 20 3e
       -0.067284785 0.085956044 0.059261277 0.15635625
000020 c2 61 0f 3e a1 2b 7d 3b 06 3c cb 3d 2a 3e 14 3d
       0.14002135 0.0038630741 0.09923558 0.036192097
000030 6c bf be 3d ca 81 8b bc 13 11 ea ba 85 c0 7f 3d
       0.093138546 -0.017029662 -0.0017857872 0.06243946
000040 fd c0 31 3d b6 87 55 3d c0 a8 09 3e e9 ca 1a 3e
       0.04339694 0.052131377 0.1344328 0.15116467
000050 6b 78 c4 bd b6 2d 72 3c 2d 16 46 3d 8e cf 4b 3d
       -0.095932804 0.014781406 0.048360992 0.049758486
000060 35 1c be bd ad 09 a9 3d 28 5c 63 3d 84 19 d6 3d
       -0.09282724 0.08253799 0.05550781 0.104540855
000070 73 32 82 bc 25 90 37 3d 44 aa b5 3d 14 96 0c 3e
       -0.015893197 0.0448152 0.08870366 0.13729125
000080 8a bb 92 bc ba 23 b3 3d 86 30 da bb c6 a7 cd 3d
       -0.017911691 0.08747049 -0.0066586165 0.10041766
000090 19 d1 15 bc c8 89 95 3d 29 4b 91 bd e7 20 92 3d
       -0.009144091 0.0730167 -0.07094414 0.07135182
0000a0 ca a9 8f bd 6b d9 01 bd 98 65 84 3b 4a 13 85 bc
       -0.070148066 -0.031701487 0.004040431 -0.01624455
0000b0 f5 dd d5 3d 75 ce e9 3d b2 b8 91 3d 1f 74 8e bd
       0.104427256 0.11416332 0.07115306 -0.06955742
0000c0 ce a5 06 3e 1d 87 1a 3e 1b d9 3d 3b 62 e6 48 bd
       0.13149187 0.15090604 0.0028968516 -0.049047835
0000d0 22 1d c6 3d 90 7d f2 3d c2 3c b2 3d 42 55 cc bd
       0.096735254 0.118403554 0.08702995 -0.09977199
0000e0 06 81 b3 bd 68 72 e4 3d 8f 7c aa bd a9 80 a5 3d
       -0.08764844 0.11154634 -0.08324539 0.080811806
0000f0 aa 02 d5 3d 81 8c a0 3a bd 4d f3 bd 65 34 de bd
       0.10400899 0.0012248905 -0.11880062 -0.10849837
000100 60 76 fd 3d a4 63 dd 3c db 7d af 3d 81 e8 15 bd
       0.12376094 0.027025051 0.08568927 -0.036598686
000110 1a e6 8b bd 92 ae 7d 3d e5 c9 b0 bd c7 b3 9d 3d
       -0.06830998 0.06193406 -0.08632258 0.077003054
000120 03 1b 76 3b 23 99 c9 3d 26 6c 4a bd 1e e2 36 3c
       0.0037552721 0.09843662 -0.049419545 0.011162309
000130 80 60 a3 bd 66 52 08 3d 4c b0 35 bc 19 db 77 bd
       -0.0797739 0.033281706 -0.011089396 -0.060511682
000140 76 84 09 be 39 ba d2 3d c8 ef f7 3d 17 29 d0 bc
       -0.13429436 0.102894254 0.121062815 -0.025410218
000150 1c d6 b0 bc 1b a2 cf bc 6a 3e 8b bd b4 a5 f2 bd
       -0.02158647 -0.025345853 -0.06799014 -0.118480116
000160 fd 00 ff bc f9 f3 ca 3d a2 e9 a7 bd 5b c3 12 3e
       -0.031128401 0.09909815 -0.08198859 0.14332335
000170 86 99 f3 bc 4d 37 87 bd 23 ef ab bd 62 84 16 3e
       -0.029736292 -0.06602345 -0.08395221 0.14698938
000180 56 de a0 3b 45 34 c1 3d 32 c0 72 3d 90 22 ed 3d
       0.004909317 0.09433798 0.059265323 0.11578858
000190 26 6d c3 bd 86 54 50 3d ef ad d8 3d 95 c6 12 bd
       -0.09542303 0.050861858 0.1058005 -0.035833914
0001a0 29 a4 a8 bd 27 eb 53 3c c6 d1 df 3c 5f 48 09 bd
       -0.08234436 0.012934483 0.027321707 -0.033516284
0001b0 f4 39 c7 bd f8 18 19 3d cf d1 2d bb 52 e7 a7 bd
       -0.097278506 0.037377328 -0.002652276 -0.08198418
0001c0 66 f2 fb bc ac 0f bd 3c 89 14 d4 3d 33 d5 72 3d
       -0.030755233 0.023078762 0.10355479 0.059285354
0001d0 3e 87 bf 3d e8 b7 c4 3c bf a8 93 3d f5 c3 c0 bd
       0.09351967 0.024013475 0.0720992 -0.09412376
0001e0 fd 6e 46 3d 72 a4 64 bd 28 4e 95 3d b0 79 65 3d
       0.04844569 -0.05582089 0.07290298 0.056024253
0001f0 39 1a a1 3c d9 01 cb bc d0 40 5f 3d c7 2d 92 3c
       0.019665824 -0.024781154 0.05450517 0.017844094
000200 e6 1c 8e 3d 21 74 0a 3c c3 a9 d7 bd cd c0 92 bd
       0.06939106 0.008450539 -0.10530426 -0.0716568
000210 15 df dd bd 5a 13 98 bd 20 d7 ac bc 48 d1 f2 3b
       -0.10833565 -0.07425566 -0.021098673 0.007410202
000220 c4 d6 f1 3d 8e ff ef 3c 02 93 99 3c ec d0 b0 3d
       0.118085414 0.029296663 0.018746857 0.08633599
000230 b1 bb 0d 3e 41 c4 9b 3d b8 5f ff bb 55 29 97 3d
       0.1384113 0.07605792 -0.007793393 0.0738093
000240 45 fb b7 bd 37 93 cc 3d 9d 01 b8 3d 7e 1d 21 be
       -0.08983473 0.099890165 0.08984683 -0.15733907
000250 c1 12 a2 bd 95 e3 8b 3c c2 9d 82 3d 32 f7 b1 3d
       -0.07913733 0.017076293 0.06377746 0.08689727
000260 59 c4 c4 bd 92 50 b3 3d 1a 34 8c 3c a6 b9 df 3b
       -0.09607763 0.08755602 0.017114688 0.006827551
000270 29 ca 2b bd b8 cf 46 3d 6a 3c f6 3c 64 fb 37 3d
       -0.04194084 0.04853794 0.030058105 0.04491748
000280 93 e4 0e be 2b 2b 77 3c 82 a8 0a be 59 7b 22 be
       -0.13954382 0.015085976 -0.13540843 -0.15867366
000290 12 54 79 3c 18 8d 85 3b 7e fd ca bd 75 e3 01 be
       0.015217798 0.0040756576 -0.09911631 -0.12684424
0002a0 bb 17 17 3e 2f e7 18 3e 0c d0 01 be 50 64 cb bd
       0.14755146 0.1493194 -0.1267702 -0.099312425
0002b0 d1 07 bd 3d cb 1b 20 3c e8 3a ce 3b f6 e3 b2 bc
       0.092300065 0.009772251 0.0062936433 -0.021837216
0002c0 d4 1d ce 3c 8e 30 1b be cc 8a 16 be 9a 8c ac 3d
       0.025160708 -0.15155241 -0.14701384 0.08425255
0002d0 fc fc 72 3d d9 83 45 3d 40 7c 97 bd e5 31 b2 bd
       0.059323296 0.048221443 -0.07396746 -0.08700923
0002e0 93 2f dc bc cb 83 d3 bd 42 a1 c1 bd 95 16 ad 3d
       -0.026878154 -0.10327872 -0.094545856 0.08451573
0002f0 a2 62 bc bd 49 e2 1f be 98 10 d7 bb 17 5d 8f 3d
       -0.091985 -0.15613665 -0.0065632574 0.07000177
000300 6c 25 df 3c 41 1b f0 bd 23 f7 eb 3d 10 a8 3f bd
       0.027239524 -0.11723948 0.11521747 -0.046791136
000310 e4 30 c2 3d d9 9e 8d bd 9a 0d 1c 3e 1f 7c 1d 3c
       0.094819814 -0.069150634 0.15239564 0.009612112
000320 af 36 18 3e b0 10 93 3d bf e9 ff 3d bd 4b 96 3d
       0.1486461 0.07180917 0.124957554 0.07338665
000330 b8 37 40 bd 5c 9a 9c 3d 73 59 0f 3e 5d e0 30 bd
       -0.046928138 0.07646629 0.13998966 -0.04318272
000340 52 72 75 3d 13 92 d1 3c 62 ea d0 3d 48 3a 2c bd
       0.059923477 0.025582349 0.10200955 -0.04204777
000350 0b f4 b8 bd d0 5f 83 3d cf 3e cb 3c 95 10 58 bd
       -0.090309225 0.06414759 0.024810223 -0.05275019
000360 ed fd ce 3c e8 85 fb 3d 84 2e 9e bd 40 24 b1 3c
       0.025267566 0.122814 -0.07723716 0.02162373
000370 f9 99 fa bc 14 e8 4e 3c c3 f0 04 bd 39 a9 12 3e
       -0.030590998 0.012628574 -0.03245617 0.14322366
000380 61 34 bd 3d fc 0e 49 3d 8f 17 28 3c e2 82 e9 3d
       0.09238506 0.049086556 0.010259523 0.11401917
000390 bb f7 44 bd 95 45 84 bd 52 ad 67 bd 39 b9 2c bb
       -0.048087817 -0.06458584 -0.056561776 -0.0026355518
0003a0 3e ee 88 bd 7e 4a e8 3d 3c fb 16 3d 93 58 b9 bb
       -0.06686066 0.11342333 0.03686069 -0.005656311
0003b0 e1 1c 9d bd 35 6f 0a 3e eb 9a e7 3d 5d 1e 9f bd
       -0.07671524 0.13518985 0.11308845 -0.07769463
0003c0 0a 8f 13 3e f0 f9 b1 3c 33 cb 19 bc 86 f2 91 3d
       0.14410034 0.021725625 -0.009386825 0.07126336
0003d0 be e0 c4 bd 7b 89 db bd 41 42 02 3d 62 e6 ec 3d
       -0.09613179 -0.10719582 0.031801466 0.115673795
0003e0 9b 71 ed 3d 8c 08 09 3e 5a 39 e1 3d 50 44 70 3d
       0.11593934 0.13382167 0.10997267 0.058658898
0003f0 a6 41 4b 3d 7d ed 1a bd 79 4e d7 3d a8 ed bb 3d
       0.049623154 -0.037824143 0.10513014 0.09176189

lstm.bias_hh_l0 f4 [256]
000000 cb 9e 96 bd eb 1f 0a be 9d e0 97 3c b4 71 72 bd
       -0.07354506 -0.13488738 0.018539721 -0.059190467
000010 eb 48 aa bc f1 5c ec 3d 60 e5 53 3c 40 79 1d 3e
       -0.020786723 0.11541165 0.012933105 0.15378284
000020 a5 f5 cc 3c 10 c1 e0 3c 82 17 be 3c 5b aa 9a 3c
       0.025019476 0.02743581 0.023204569 0.01888006
000030 d2 37 28 3c e3 8f b1 3c 63 21 48 bd bf 6c 8a 3d
       0.010267215 0.021675056 -0.048859965 0.06759023
000040 95 40 4c 3d 20 29 19 3d 68 e3 4f 3d 2a d2 e6 ba
       0.049866278 0.037392735 0.05075398 -0.0017610241
000050 40 3c 04 be 2e 45 be 3d f0 af 9c 3d 59 cd ea bd
       -0.12913609 0.09290539 0.07650745 -0.11464948
000060 7b 6d e1 3d bb d1 92 ba 63 77 b1 bd 08 4c 3f bd
       0.1100721 -0.001120142 -0.08665349 -0.04670337
000070 c7 79 40 bc 5a e1 92 bd 3b 81 34 3d 31 50 27 bd
       -0.011747784 -0.07171889 0.044068556 -0.04084796
000080 44 ac 47 bd 9e c7 02 3e e1 99 94 bb 97 d4 12 3d
       -0.04874827 0.1277146 -0.0045349454 0.035847273
000090 3f a5 28 bd 95 46 10 3d c3 26 4e bd d7 15 1b bd
       -0.041173216 0.035223562 -0.050329935 -0.037862625
0000a0 59 70 81 bd dc e6 1d bc 54 1a a4 3d d0 2b a4 3d
       -0.06320257 -0.009637561 0.08012834 0.08016169
0000b0 a1 01 a8 3d 5a 2a 2d bd 7b a4 c1 bd 52 19 a8 bc
       0.08203436 -0.042276718 -0.094552 -0.020519886
0000c0 36 8d 1f 3e bc 88 1a 3d da 5d 0b 3e c2 bc f3 3d
       0.15581211 0.037728056 0.1361002 0.11901237
0000d0 1e ef a4 3d a1 03 fc bb 59 82 80 3d 9d 11 72 bd
       0.080534205 -0.0076908623 0.06274862 -0.05909883
0000e0 a9 17 8b 3c ce db 91 3d d7 90 4b bd bd d2 72 bd
       0.016979055 0.071220025 -0.049698677 -0.059283007
0000f0 a0 4c 03 bd 67 6f 25 3d c3 04 c1 bc 1b 59 49 3d
       -0.032055497 0.040389445 -0.02356184 0.049157243
000100 58 f5 2a bd 30 e8 c5 3d be 03 0c bd a0 74 d5 3d
       -0.041737884 0.09663427 -0.034183256 0.10422635
000110 2b ab be 3d cf 6e de 3d c0 62 7d bd 8b bc 5d bd
       0.093099914 0.10860979 -0.061861753 -0.054134887
000120 13 2f 35 bd d9 85 76 bd d8 ff 27 bc 4a 86 ba 3c
       -0.044234347 -0.06018624 -0.010253869 0.022769112
000130 7e 2e 73 3d 9b 65 96 3d 2f 35 77 3d fd bf 84 bc
       0.05937051 0.073435985 0.060353454 -0.016204828
000140 f9 cc 68 bd e5 d3 21 bd 9e 64 e6 3d c5 46 7a bd
       -0.056836102 -0.03950872 0.1124966 -0.061102647
000150 73 a9 77 bc 52 fe d6 bd da 78 0c bd 3a 80 fb bd
       -0.015116083 -0.104977265 -0.03429494 -0.12280317
000160 d2 68 0b be 38 88 a9 3d f6 59 81 bd 4d 0d 40 3d
       -0.13614205 0.08277935 -0.06315987 0.046887685
000170 43 3b cb 3d da 94 50 b9 fa bb 09 3d 20 25 ec bc
       0.09923413 -0.00019891877 0.033626534 -0.028826296
000180 21 01 da 3d fe 14 12 3e 1b 6c 5d 3a ba e6 ad bd
       0.106447466 0.1426582 0.000844659 -0.08491273
000190 b0 28 bf 3d b9 87 c9 3d f9 f6 da 3d fd 0f fa 3b
       0.093339324 0.0984034 0.106916375 0.0076313005
0001a0 97 98 fd 3c 2d 48 85 3d 23 9e 69 3d 33 29 38 bb
       0.03095655 0.06507907 0.057035577 -0.0028100729
0001b0 de 3b 15 3d fd 9c d8 3d 14 77 6a bd e4 2d d6 bd
       0.036434047 0.10576818 -0.057242468 -0.10457972
0001c0 10 be ae bd 22 5e e1 3c 00 82 bc 3d bc a1 c2 3c
       -0.08532345 0.027510706 0.09204483 0.023758762
0001d0 3a ac ca 3d c6 77 45 3d c7 a6 b7 3d 39 95 e7 bd
       0.09896131 0.048209928 0.08967357 -0.11307759
0001e0 c0 08 8d 3d bb 1e a3 3d 53 25 f6 3b 90 f1 8d 3d
       0.068864346 0.07964846 0.0075117736 0.0693084
0001f0 52 37 ad bd af 6a 0a 3e e8 db 73 bc 6c 42 20 be
       -0.08457817 0.13517259 -0.014883973 -0.15650338
000200 08 93 a1 3d c4 23 7d 3d 9f 35 95 3d 7b cf dd 3d
       0.07889372 0.061801687 0.07285618 0.108305894
000210 91 18 15 3d 29 52 28 3d 1e c1 22 3e 65 b2 b1 3d
       0.03640038 0.04109398 0.15893981 0.08676604
000220 e2 6e 99 3d 0e ca 69 bc 13 e9 03 be 26 a7 9a 3d
       0.07491852 -0.014269365 -0.1288188 0.07551412
000230 e1 7e 5e bd bb 8b b1 bc 49 fb 19 be e1 31 1d be
       -0.05432022 -0.021673074 -0.15037264 -0.15351059
000240 84 57 0d bd f3 91 ba bd 3b fa a3 3d eb 5d 04 bc
       -0.03450729 -0.09109869 0.08006712 -0.008079032
000250 a3 54 ee bb 13 4a 1b 3e f8 b6 86 3d 62 71 6e 3d
       -0.007273273 0.15164976 0.06577867 0.0582136
000260 05 2a 83 bd e8 17 07 be 5e d3 95 bc 77 19 f0 3d
       -0.06404499 -0.13192713 -0.018289264 0.11723607
000270 c1 8a f1 bd 1e 78 f6 bd 7b 35 ba bc b2 f0 a1 3d
       -0.11794043 -0.12034629 -0.02273058 0.07907237
000280 1c 97 13 3d 08 25 42 3d bd 35 58 bd 18 55 a9 bd
       0.03603278 0.047398597 -0.052785624 -0.082681835
000290 5e 97 fb bc 4d 1e ea 3d 1e 64 a5 bd b4 e9 0d be
       -0.030711826 0.11431561 -0.080757365 -0.13858682
0002a0 27 5e 74 3c 46 57 1e 3d 96 66 b2 3c 11 6b 32 3c
       0.014915026 0.03865745 0.021777432 0.010889784
0002b0 1d 7f 0c 3e 17 1e 13 bc c2 5a 6d 3d f0 01 8f bd
       0.13720365 -0.008979342 0.05794788 -0.069827914
0002c0 94 ad fc bd 29 b2 cf bd 28 44 9a 3d 5c 0d 44 bd
       -0.12337795 -0.10141403 0.07532531 -0.047864303
0002d0 9b 3c 44 bd f0 57 7f 3c 04 05 f4 bd a7 8d 2d 3c
       -0.04790936 0.015584931 -0.11915019 0.010592855
0002e0 03 bc 80 bd 39 f4 8b 3d 24 d0 dd 3d de 3e ba 3d
       -0.062858604 0.06833691 0.10830715 0.09094022
0002f0 bd bf 5b 3d 40 ad 0c 3d 82 ea bb 3b 70 d8 1d 3c
       0.053649653 0.03434491 0.0057347426 0.009634122
000300 0b d5 15 3d f7 86 66 bd ff 01 7f 3d 5b 69 91 bd
       0.036580127 -0.056281056 0.062257763 -0.07100173
000310 7c df da bd 83 61 97 3c c3 a6 cd bc 53 e8 6d bc
       -0.106871575 0.018479114 -0.025103932 -0.014520722
000320 28 54 b8 3d 00 be cc bc f3 6f 17 3e fb 88 86 bc
       0.090004265 -0.024992943 0.14788799 -0.01642274
000330 e3 a1 b6 bd 5b 3d d6 3d 1d bd 54 3d fa 6c b9 3d
       -0.08917596 0.104609214 0.051938165 0.09053989
000340 5e bc 6a 3d 99 d7 e7 bc 64 a3 d6 bd 4f 8f ff 3d
       0.057308547 -0.028301047 -0.10480383 0.12478506
000350 6e d4 2e bd e4 7d 06 3e 0a 1e 3e bb df 57 b6 3d
       -0.042683057 0.13133961 -0.0029009604 0.08903479
000360 45 22 d3 3c 56 95 17 bc 99 ee bd bc eb cf 17 3e
       0.025773177 -0.009251913 -0.023185061 0.14825408
000370 c0 b8 fb 3d 9f 4c c6 bd 94 1e dd bc 14 ec 1f bc
       0.12291098 -0.09682583 -0.02699212 -0.009760875
000380 26 fd 64 3d e3 46 8c bd 7a 54 13 bd 5f 9d 55 3d
       0.055905484 -0.06849458 -0.035969235 0.052152034
000390 15 14 c5 3c 6b e4 0e bd ed 47 c1 3d 93 70 15 3e
       0.024057427 -0.034885805 0.09437547 0.14593725
0003a0 c5 a2 fd bc df c7 21 3e d8 4e a2 3d 9d 48 6d 3d
       -0.030961404 0.15798901 0.079251945 0.057930578
0003b0 66 76 0e bd 09 4b 09 3e f5 c0 b0 3d e9 c3 e4 bd
       -0.034780882 0.1340753 0.08630554 -0.111701794
0003c0 5b 8e 9b 3d bb 38 4e bd bd c4 d2 bc bc 96 2a bd
       0.075955115 -0.05034707 -0.025728578 -0.041647658
0003d0 d8 56 28 3b 2b c9 e0 bc 6b 02 47 3c 80 fa f8 3d
       0.0025686529 -0.027439674 0.012146573 0.12157154
0003e0 53 1d 2c 3d e5 be 86 bd 21 18 7a bc c1 98 99 bd
       0.042020153 -0.06579379 -0.015264542 -0.074998386
0003f0 5b ac c7 bc e3 8a de 3d 91 a4 29 3d 03 b5 48 bd
       -0.024374178 0.10866334 0.04141671 -0.04900075

lstm.weight_ih_l1 f4 [256, 64]
000000 2d 5e ca 3d 3c ed e7 3c ea db f4 3d 0b fa 3c bd
       0.09881244 0.028311364 0.11956008 -0.046136897
000010 5e 0c bd bd 96 06 9f bd a6 fe d9 3c d2 c2 2a 3e
       -0.092308745 -0.07764928 0.026610684 0.1667588
000020 ee 6f 82 3d c4 b3 8b bd ea 47 26 3d 04 dd 01 3e
       0.06369005 -0.06821397 0.040595926 0.12681967
000030 18 ed 22 bd af 3c a2 bd eb a1 b2 3d be 1a 97 3d
       -0.03977689 -0.07921731 0.0872229 0.073781475
000040 f9 ed a2 3c f0 0a cf 3d 22 0c c8 3d d5 13 5a bc
       0.019888865 0.10109508 0.09767939 -0.013310392
000050 1a 56 8c bd 1d 9e e2 3c 9d ec f7 3b 79 ff c7 3d
       -0.0685236 0.027663285 0.0075660483 0.097655244
000060 9e e2 66 3d fc 1b 5f bd df 92 03 3e 4f 32 8f bc
       0.056368463 -0.054470047 0.12848996 -0.017480044
000070 c2 29 bc bd fa f3 6e 3d 9d 97 0d 3d 85 c9 cc 3d
       -0.09187652 0.058338143 0.034568418 0.09999374
000080 00 dd e0 bc 65 f6 93 bd f4 fd b5 3d 37 ac ae bc
       -0.027449131 -0.072247304 0.08886328 -0.021322353
000090 22 15 01 3d a8 dd 23 3e 9b fd 4e 3d 9f b1 69 3d
       0.031514294 0.16002524 0.050534826 0.05705416
0000a0 a9 a1 17 3d 37 d7 01 3e ba 67 90 3d 6a bb d7 3d
       0.037019406 0.12679754 0.07051034 0.10533793
0000b0 d5 05 92 3d e4 35 c2 3d 7f 5c 54 3c 93 d3 78 bd
       0.071300186 0.09482935 0.012961506 -0.060748648
0000c0 41 c8 d6 bd 80 42 1b 3d f4 5d 0e bd 8b 0a da 3d
       -0.10487414 0.037905216 -0.03475757 0.10646542
0000d0 f0 d8 71 3c e3 71 00 bd 91 38 c3 bd ae c8 6e bd
       0.014761195 -0.03135861 -0.095322736 -0.05829685
0000e0 71 fe 35 bd e2 1b 81 bd c1 29 3b bd b7 cb 7b bd
       -0.044432107 -0.06304146 -0.045694117 -0.061473574
0000f0 83 26 a6 3d 19 8c a8 bd a9 70 d6 3d 48 cb 6c 3d
       0.08112814 -0.082298465 0.10470707 0.05781105
000100 24 6d b8 3d 58 26 17 3e b5 ff 20 3d ba fc 16 be
       0.09005192 0.1476072 0.03930636 -0.14744845
000110 3c de cb bd bb 3b d1 3c ab 83 b9 3c f2 be 4c 3d
       -0.09954497 0.025541177 0.022645792 0.049986787
000120 ee d1 17 bd 99 79 ee bc 33 cb dc bc 3a a3 d0 3d
       -0.03706544 -0.029110717 -0.026952362 0.10187383
000130 02 2f 34 3d c3 2c 05 3d 4e 48 65 3d e4 85 91 bd
       0.043990143 0.03251339 0.05597716 -0.07105616
000140 1e 0d 06 be e0 62 1c 3c ef 61 12 3e 03 f6 e0 bd
       -0.13090941 0.009545058 0.14295171 -0.10984423
000150 d0 64 2d bd ce 1d 13 3d 16 01 f0 3c fa 10 51 bd
       -0.04233247 0.035917096 0.029297393 -0.05104158
000160 2c e8 0c be 27 35 0a be 9b 01 96 bd 37 c7 7e 3c
       -0.13760442 -0.13496839 -0.07324525 0.015550426
000170 c5 7b 20 bd 82 14 17 bd 78 15 75 bd 24 e9 c1 3d
       -0.039180536 -0.036884792 -0.059834927 0.09468296
000180 8a 6e b1 3d 1e 57 7b bc 7d 53 ff bb ad f8 b5 3d
       0.08663662 -0.015340595 -0.007791935 0.08885322
000190 91 29 9d bd de 21 d5 bb 54 33 bc bd 69 48 ac bd
       -0.07673944 -0.0065042814 -0.091894776 -0.08412249
0001a0 6f b0 7c 3c 76 0c c2 bb e8 b8 17 be f2 f4 92 3d
       0.015422924 -0.0059218956 -0.1481663 0.07175626
0001b0 ed 4b de bd aa f0 22 3d 3e 2e 42 3d a9 49 67 3b
       -0.108543254 0.039780296 0.04740738 0.0035291708
0001c0 cb 1f 08 3e 4f 00 40 3d f8 0d a0 3d de f2 32 3d
       0.13293378 0.046875294 0.07815164 0.043688647
0001d0 84 82 1f bd 0b ff ae bc e8 1d c1 bd cc 9f c4 bd
       -0.03894283 -0.021361848 -0.09429532 -0.09600791
0001e0 cc d8 5b bc f8 7e ef bc 86 a6 a1 3c e6 7a 37 bc
       -0.013418388 -0.029235348 0.019732725 -0.011198735
0001f0 77 dd b0 bd 35 71 3f bc df 98 e7 bd bb 6a 15 bd
       -0.08635991 -0.0116847055 -0.11308455 -0.03647874
000200 f1 74 07 bd 46 72 bc 3d ec b5 02 bd 2c 72 a6 bd
       -0.03307051 0.092014834 -0.031911775 -0.08127245
000210 49 e8 31 3c cf 6f 0b 3d 85 3b 7d 3d 91 d1 1e 3e
       0.010858604 0.034042176 0.06182434 0.1550963
000220 a0 4e e9 3c 3e a0 2e 3c 43 63 f8 bd 4a 25 0d bb
       0.028479874 0.010658322 -0.12128308 -0.0021537119
000230 a4 ce a3 3d a1 1b 81 bd 09 c1 61 bd 34 27 31 bd
       0.07998398 -0.06304098 -0.055115733 -0.043250278
000240 f2 e6 56 bd f0 39 a9 bc ea bf be bd bb 9c 08 bd
       -0.05246634 -0.02065751 -0.093139485 -0.033352595
000250 6a bc 3f 3c 45 3d 74 3b 9f cb 88 bd d7 f4 69 bd
       0.011702636 0.0037267965 -0.06679463 -0.057118263
000260 5d 9e 71 bc 56 86 d5 3d 3c 1b cc 3c 12 a2 e5 3d
       -0.014747229 0.10426013 0.02491533 0.11212553
000270 fb c1 96 bd d0 28 9c 3c d4 f7 d4 bb e0 2a 38 3d
       -0.073612176 0.01906243 -0.00649927 0.044962764
000280 92 8c d3 bd 76 2a a3 3d 7b fc 2d 3c bd 5f 04 be
       -0.10329546 0.07967083 0.010619278 -0.12927146
000290 00 ea 13 be 4a e5 f1 3a 4f 3c 8f bd 7b 66 15 be
       -0.14444733 0.0018455174 -0.06993925 -0.14589874
0002a0 de 9b fa 3c be dd 25 bd f3 d3 92 bd 04 a4 04 3e
       0.030591901 -0.040494673 -0.07169332 0.12953192
0002b0 81 d5 b4 3d 8b f6 1b 3e 33 a2 dd 3d 9c 7c eb bd
       0.08829785 0.15230767 0.10821953 -0.11498377
0002c0 2c aa 95 3d 50 c1 18 bc ae 7e e3 3c e9 cb 97 bd
       0.07307848 -0.009323433 0.027770367 -0.0741194
0002d0 9e be 10 bd 6d 01 76 3d ed a5 65 bd e8 d8 72 bc
       -0.035338037 0.060059953 -0.056066442 -0.014822222
0002e0 90 56 19 bd 0a 37 0d 3d 9c 73 4d bd 3e 0c 9e 3d
       -0.037436068 0.034476317 -0.05015908 0.07717179
0002f0 72 00 f3 bd ff 30 e2 bc a6 a2 18 3e fa 5e ca bd
       -0.11865319 -0.027611254 0.14905795 -0.098813966
000300 c8 eb 5d bd 44 cb 1e 3d 5b c7 72 bd ab 77 cb 3c
       -0.054179937 0.038768068 -0.05927215 0.024837336
000310 e2 20 76 bd a3 ac e8 bd 11 79 a1 bd c7 7c 8f 3d
       -0.060089953 -0.11361053 -0.0788442 0.07006221
000320 bf 08 19 3d 89 d5 e5 bd 2f 3d 16 be 32 97 1b 3d
       0.037361857 -0.11222369 -0.14671777 0.037985988
000330 36 c5 b9 3d 0d 56 88 bd 67 5e 4b 3a 03 44 99 3d
       0.09070818 -0.06657038 0.00077579025 0.07483675
000340 ec 63 f5 3d 96 6d d9 3d ed 15 66 3d f7 c3 89 3d
       0.11981949 0.10616605 0.056173254 0.067268305
000350 f6 d6 ad bd 3c cd d3 bd 9a 29 e6 bd 84 f6 a1 3d
       -0.08488266 -0.1034188 -0.112384036 0.07908347
000360 61 e4 c9 3d d6 43 ef 3d f0 1c 0f bc 3a e6 d6 bd
       0.09858013 0.116828606 -0.008734927 -0.10493131
000370 57 e9 04 be a2 04 72 3d 7a 95 5e 39 e3 ca 14 3e
       -0.12979637 0.05908645 0.00021227254 0.1453052
000380 0d 13 14 3d 28 d2 27 bd 60 26 1a be 3c 20 a4 bd
       0.03615098 -0.040971905 -0.15053701 -0.08013961
000390 48 75 b4 3c bf 82 4d 3d bc 46 9a bd 72 bb 3a bd
       0.02202858 0.050173517 -0.07533023 -0.045588918
0003a0 4f 43 78 bd 5f dd 89 3d 77 a9 ff bd 60 ec 01 bb
       -0.060611065 0.06731676 -0.12483495 -0.0019824728
0003b0 ba d9 7f 3d 0a da 7c bd 0a 02 49 3c ce 1f 0d be
       0.0624635 -0.061731376 0.012268553 -0.13781664
0003c0 41 12 15 bd a4 75 c4 37 e3 4a 96 bd f1 f3 a2 3d
       -0.03639436 2.3419801e-05 -0.07338502 0.079566844
0003d0 c0 9c 01 be d3 35 2d 3d f0 05 12 3d 61 24 aa bd
       -0.12657452 0.04228766 0.035650194 -0.0830772
0003e0 3d b8 c1 3d ed 0f 78 3d 02 b8 4b bd e2 e3 3c 3d
       0.09458969 0.060562063 -0.04973603 0.046115763
0003f0 9e 26 af 3d c3 29 66 3d 08 76 c5 3c 95 9d 74 3d
       0.085522875 0.05619217 0.024104133 0.059720594

lstm.weight_hh_l1 f4 [256, 64]
000000 8c 16 bd bd a5 40 93 3d cf 9e f6 bd 9f 66 33 3d
       -0.09232816 0.07190064 -0.12042009 0.04379904
000010 63 f6 80 3c 88 44 b9 3c 86 8b 85 bd fc 6f 0e 3d
       0.015742486 0.022615686 -0.065207526 0.034774765
000020 52 21 12 3d 65 46 f7 3d cd 0e cc bc 88 ab 10 be
       0.035676308 0.120739736 -0.024909401 -0.14127934
000030 47 2c 75 bd cc 45 f1 bd 36 95 cc bc 19 30 90 3d
       -0.05985668 -0.11780891 -0.024973493 0.07040424
000040 e5 b5 5e 3d 77 7a f7 bc 81 f6 8d bc 1d f7 ac 3d
       0.054372687 -0.030209763 -0.017329456 0.084455706
000050 82 0b c9 3d 57 20 f9 bd 28 b7 9f 3b 00 27 c3 3d
       0.09816648 -0.121643715 0.004874129 0.09528923
000060 a9 8e 67 3d 92 d7 f0 bc 7f 2f 1e 3e d2 c2 ad 3d
       0.056532536 -0.029399667 0.15447806 0.08484425
000070 d9 ab 76 bc c2 13 86 bd 5a 14 0d 3e cd e7 31 3d
       -0.01505562 -0.06546737 0.13777295 0.043433953
000080 d8 5f a3 bd 7a 0a d4 3d 3f 9d 6e bd c0 37 87 ba
       -0.07977265 0.10353561 -0.05825543 -0.0010316297
000090 99 c2 d6 3d 67 66 48 bd 73 07 e4 bd f0 d5 f1 3d
       0.10486335 -0.048925783 -0.11134233 0.118083835
0000a0 a3 a8 86 3c 6f 42 96 3d 29 76 29 3d 49 b3 14 3e
       0.016437834 0.0733689 0.041372452 0.14521517
0000b0 a5 32 1c bd ed 04 11 bd b5 6b b3 3d e5 7c 21 3d
       -0.038134236 -0.03540509 0.08760778 0.03942575
0000c0 d7 70 15 bd 85 65 d3 3d 3a 0b 16 3d 12 da 21 bc
       -0.036484566 0.10322098 0.0366318 -0.009878652
0000d0 78 d1 b0 3d 5f 0c c5 bd fa 5c e6 3d 80 a2 00 bc
       0.08633703 -0.096215 0.112482026 -0.007851243
0000e0 87 4d 0e be 98 25 02 3d db 7b ce bd 91 fc 02 be
       -0.13896762 0.031774133 -0.10082217 -0.12791659
0000f0 76 19 97 bd 2b 22 8c 3d d0 1b a3 3d 6c 2b 95 bd
       -0.07377903 0.068424545 0.07964289 -0.07283673
000100 fe bb 9b bd ae b9 2c bd ef 4c fa 3d 71 13 b7 3d
       -0.07604216 -0.042169265 0.12221705 0.08939255
000110 ca a0 c1 3d b4 18 de bd 7c 83 e6 bc 82 68 8a bb
       0.09454496 -0.108445555 -0.028138869 -0.004223884
000120 d5 00 a1 3d f0 45 79 bd 0c 70 e6 bd d4 f9 5d 3b
       0.07861487 -0.060857713 -0.1125184 0.0033870833
000130 b7 49 aa bd 58 25 7c 3d 6e b1 ca 3d cf ec 1e bd
       -0.08314841 0.06155905 0.09897123 -0.038800057
000140 cc 2a 07 3e cd 9f 8e 3d fa ac 75 3d f8 8b 3e bd
       0.1319992 0.06964073 0.059979416 -0.046520203
000150 d8 a1 84 bd b5 62 e1 3d 5b 0f 23 3c 46 ae 11 3e
       -0.06476182 0.11005155 0.0099523915 0.14226636
000160 25 0d 97 bd 25 ae 76 3c 5d 9a aa 3d 33 f6 2c 3d
       -0.07375554 0.015056168 0.08330224 0.04222698
000170 c4 63 88 3c e1 a9 c1 bd d8 d8 ec 3d 0e 4e 3b 3d
       0.016649134 -0.0945623 0.11564797 0.045728736
000180 1c f7 20 3d 1a 1f 8f bd 71 eb f3 3d 69 cb a1 3c
       0.039298162 -0.06988354 0.11910141 0.019750314
000190 35 c1 04 3d 2b cb a8 3d ad f3 d1 3d be 9d 8c 3d
       0.03241082 0.08241876 0.102515556 0.068660244
0001a0 94 f4 17 bd 14 18 8f bc fe 77 b3 bc 95 a5 9f bd
       -0.037098482 -0.017467536 -0.021907803 -0.07795254
0001b0 29 26 c4 bd de e2 3d 3d 30 9d 04 3d aa e6 9c bd
       -0.09577591 0.046358936 0.03237647 -0.07661183
0001c0 fd fb bc bc 79 99 33 3d 3d e1 ad 3d 8b cd c3 bd
       -0.023069376 0.043847535 0.084902264 -0.095606886
0001d0 61 45 c2 b9 54 b1 0e bd aa e4 46 bc 9d ae 41 bd
       -0.00037054255 -0.034837082 -0.012139479 -0.047285665
0001e0 24 f0 ee bb d6 f8 22 3c 86 60 c2 bd a4 5c a2 3d
       -0.0072918106 0.009947022 -0.09491067 0.07927826
0001f0 3a ed 20 3c d6 1e 89 3d 2a 4b 5a 3c ae 8a 92 3d
       0.009822184 0.066953346 0.013323585 0.07155357
000200 d3 1b 0e 3c 6d 68 ff 3c ad 15 1b be ae 8f e4 3d
       0.008673626 0.031177724 -0.15144987 0.11160217
000210 76 99 45 3d b8 c5 85 3b e9 03 13 3e 2f 17 50 bd
       0.048242055 0.004082408 0.1435696 -0.05080336
000220 fe af 01 3e 8c a4 c7 ba 8c 4c b6 3c b2 c0 01 be
       0.12664792 -0.0015231534 0.022253297 -0.12671164
000230 22 d6 dc 3d c3 57 b1 3b 83 ef 07 be ec a3 82 bd
       0.1078303 0.0054120733 -0.1327496 -0.06378922
000240 71 b8 22 bd 66 13 0d 3e c3 3f aa bd 3c dc 80 3b
       -0.03972668 0.13776931 -0.08312943 0.003932504
000250 ab a1 c3 3d e8 81 02 be fd 9e 83 bd d7 94 1f bd
       0.0955232 -0.12744868 -0.06426809 -0.038960304
000260 de 1b f3 bd fe 77 a4 bd 01 70 6f bd 12 9f df ba
       -0.118705496 -0.08030699 -0.058456425 -0.0017060956
000270 10 c4 f6 bd 78 59 9a bd 1f ef c0 bd cf d4 fb bd
       -0.12049115 -0.07536596 -0.09420609 -0.122964494
000280 2c d1 8a bd 79 24 0d bd 3c 46 f6 3c 4b 4a aa 3d
       -0.067781776 -0.03445861 0.030062787 0.083149515
000290 7d 0e 12 bb 12 da 0d 3d 63 f8 17 be 91 d2 83 3d
       -0.0022286468 0.034631796 -0.14840846 0.06436647
0002a0 c2 ce 4f bd 0a 2b 01 bd 9d 9c 0a 3e 1b 8c aa 3d
       -0.05073429 -0.031535186 0.13536306 0.08327504
0002b0 3a c6 c4 3b 59 28 8e bc 63 c3 2a 3c 65 2d aa bd
       0.0060050758 -0.017353224 0.01042256 -0.083094396
0002c0 49 55 13 3e d8 c6 90 bd f5 8a 63 3d e9 e6 f8 3d
       0.14388002 -0.070691764 0.05555244 0.121534176
0002d0 ae 36 50 3d a9 ec bd 3d 9e 22 10 bd 4e 97 ab bb
       0.050833397 0.09273655 -0.035189264 -0.005236543
0002e0 8d 59 9a 3c 76 a4 83 bd b0 c7 0a be 95 27 43 bc
       0.01884153 -0.06427853 -0.13552737 -0.011911293
0002f0 7d 11 9e 3d 0e d0 c6 3d d0 4b 44 3d b6 30 87 3d
       0.077181794 0.09707652 0.047923863 0.06601088
000300 55 87 e3 3d ec 59 a3 bd 7f 71 18 be 1f fb 0b 3e
       0.11109797 -0.079761356 -0.14887045 0.13670014
000310 6e b6 25 bd 75 ab f2 3c 76 bb 97 bc fd 10 f8 3c
       -0.04045718 0.029622773 -0.018522006 0.030281538
000320 00 23 1a 3d 14 fa 06 3e 4f be 1b bd b7 26 4e 3c
       0.037631035 0.13181335 -0.03802329 0.0125824725
000330 72 79 dc bc 15 0c 77 3d 11 1f 52 bc 6b b4 0a 3e
       -0.026913378 0.060314257 -0.01282479 0.13545386
000340 71 27 e5 bd 9b dc 3e bd e1 6d ca 3d da 4c bd bd
       -0.111891635 -0.046597105 0.09884239 -0.09243174
000350 73 9a ad bc 1a 73 32 3d 9e b1 a5 bc 97 16 cf bd
       -0.021191811 0.0435668 -0.020226296 -0.101117305
000360 93 4a dd bc 04 eb 8c 3d b4 4c 16 3d de 70 7d bc
       -0.027013099 0.06880763 0.036694244 -0.015468804
000370 fa c3 15 be 94 f9 7a bd e9 4e b9 3d 88 27 f7 bd
       -0.1462554 -0.061273172 0.09048254 -0.12068087
000380 71 44 0b 3e f8 62 cc 3c d5 4e 04 3e dc f0 24 bc
       0.13600327 0.024949536 0.12920697 -0.010067191
000390 59 3c d5 bd 28 7c a6 3d 7f 21 07 be 4a 6b 3e 3d
       -0.10411901 0.0812915 -0.13196371 0.046489038
0003a0 ba 19 2a bd d7 66 10 be bc d9 85 3d 06 e0 27 bd
       -0.04152844 -0.1410173 0.0653567 -0.04098513
0003b0 e7 3d aa 3d 90 9e 93 bc 72 9e 91 bd 3a 54 be bd
       0.08312588 -0.018019944 -0.07110299 -0.09293409
0003c0 08 5e 60 bd 2f 46 e1 3d fa e8 c5 3d 62 7f 9a 3d
       -0.054777175 0.109997146 0.096635774 0.075438276
0003d0 65 ce c7 bd 3a a8 0b 3c 10 9b 5d bd ec a7 0f 3d
       -0.097561635 0.008523995 -0.054102957 0.035072252
0003e0 25 d4 b6 3d 8a 03 a1 3d 06 5d 9e 3b 6a c4 29 bd
       0.08927182 0.07862003 0.0048328666 -0.04144708
0003f0 67 63 91 bd cb 77 2c bd 16 2f ad bd 81 75 ad 3d
       -0.070990376 -0.04210643 -0.084562466 0.08469678

lstm.bias_ih_l1 f4 [256]
000000 cf db 5c 3d 15 64 e3 3d 2a 17 e1 3d 9f a7 92 bd
       0.053920563 0.111030735 0.10990746 -0.071608774
000010 2c 8c b8 3c ae 0f 8a 3d 0d e0 bb 3d 23 8a 6b bd
       0.022527777 0.06741272 0.09173594 -0.057504784
000020 96 8f 4d bc 04 1c 84 bd 9c b9 2b 3d ff 6f 8c bd
       -0.012546441 -0.06450656 0.041925058 -0.06857299
000030 0d cd 95 3d 62 b2 9e bd 43 d8 1a 3d 09 97 2a 3d
       0.07314501 -0.077488676 0.0378039 0.041647945
000040 d8 82 d1 bc 6a b0 d7 bd 59 d9 ab 3d 02 bd 08 3e
       -0.025575086 -0.10531695 0.08391065 0.13353351
000050 b3 1b 59 bb fe 8a c8 3d 5e 52 b1 bd 29 9c 1b bd
       -0.0033128082 0.09792136 -0.086582884 -0.037990723
000060 70 63 95 3a 36 81 10 3e 2a 91 5e 3d f5 06 d8 bd
       0.0011397433 0.1411179 0.054337658 -0.10548202
000070 f4 b6 2a 3d 09 e2 11 3d 47 87 3b 3d 2c 3e d3 3d
       0.041678384 0.035615955 0.045783307 0.10314593
000080 3c ff bc 3d 27 48 5e 3b 8f c2 91 3d f3 f3 5c 3c
       0.092283696 0.0033917518 0.07117187 0.013485896
000090 f8 36 44 bd a3 37 f2 3d 45 20 08 3d 76 6a a1 3d
       -0.047903985 0.11827018 0.0332339 0.07881634
0000a0 8e 5d 4d bd 07 f7 db bb ff 67 c6 bd f5 be 93 bb
       -0.05013805 -0.0067127976 -0.096878044 -0.004508848
0000b0 50 e3 f0 3d b0 39 a6 3b dc a6 88 3d dd 90 38 3d
       0.117621064 0.005072795 0.06672451 0.045060027
0000c0 5d 1c d6 bd b1 b1 09 3e ad e3 80 bd 21 d7 0e 3e
       -0.104546286 0.1344669 -0.06293426 0.13949253
0000d0 20 6c 20 3b 2e 03 ad bd f0 48 1c 3d 8d de 1c 3e
       0.002447851 -0.08447872 0.038155496 0.15319271
0000e0 6c fe 9e 3d 98 30 95 ba 8a cf 7d 3d de 03 a7 3d
       0.07763371 -0.001138228 0.061965503 0.081550345
0000f0 92 d1 97 bd 45 c0 95 bd 07 e1 ce bd 71 91 c9 3d
       -0.07413019 -0.07312063 -0.10101514 0.09842194
000100 03 f8 99 bd 24 aa e0 bc dc 29 bb 3d 43 d0 42 bd
       -0.075180076 -0.02742488 0.091388434 -0.047561895
000110 65 24 30 3a 42 b5 dc 3d e4 65 26 3d 23 11 95 3c
       0.00067192904 0.1077676 0.040624514 0.018196648
000120 2c 81 86 bd 43 02 90 bd 72 45 6f 39 07 5f 0a 3e
       -0.06567606 -0.070316814 0.00022818687 0.13512813
000130 9c 73 6f 3c ee 06 93 3d 34 53 d5 3c 78 33 36 3c
       0.014614966 0.07179056 0.02604065 0.01112067
000140 0e 3b c7 3d 97 0a 7b 3c a9 23 83 3d 4b 01 5f 3d
       0.09728061 0.015322349 0.06403286 0.054444592
000150 c4 93 88 3d c0 0e da 3d aa 79 5d bc 3f 68 f2 bc
       0.06668809 0.106473446 -0.0135177765 -0.029590724
000160 4e 24 5d 3d 50 62 c7 3d b6 9f 02 3e 7b 10 8a bd
       0.0539897 0.097355485 0.12756237 -0.06741425
000170 c2 92 06 3d 4f 4e b8 3d 5e e9 98 3d 3c 8e 12 3e
       0.032854803 0.08999311 0.07466386 0.1431207
000180 c2 8a f2 3c 7d c5 93 bd 66 e1 fe 3c 36 0f 35 bd
       0.02960718 -0.07215402 0.031113338 -0.04420396
000190 0d b5 15 3d 31 00 74 bd 24 d0 54 bd c5 c5 66 ba
       0.036549617 -0.059570495 -0.05195631 -0.00088032737
0001a0 53 88 a2 3a a1 76 45 bd 69 fc 20 3d 0c 19 7f bd
       0.0012400247 -0.048208836 0.039303217 -0.062279746
0001b0 89 c1 b6 3d 42 cc aa bb 4b 98 e6 3d cd c4 7f bd
       0.08923633 -0.0052123377 0.11259516 -0.062443543
0001c0 a1 a0 88 3d 79 68 0b 3e a6 79 e4 3d f0 71 d6 bd
       0.066712625 0.13614072 0.11156015 -0.104709506
0001d0 71 e9 25 bc 6c e5 ae bd d6 8c bb bd 21 13 83 bd
       -0.010126458 -0.085398525 -0.09157722 -0.06400133
0001e0 c9 26 ff 3d f2 23 19 bd 4f 31 12 bd 9c bc 82 3c
       0.124585696 -0.037387796 -0.035691556 0.015959077
0001f0 73 e2 90 3d 31 61 51 3c 99 11 b3 bd 0d 49 4e 3d
       0.07074442 0.01277952 -0.08743591 0.050362635
000200 8e ae be 3d 15 a2 01 3e 61 dd 02 3d 1c ca d5 3d
       0.093106374 0.12659486 0.031949405 0.1043894
000210 f2 21 38 3d 5a 87 cb 3d 3b 31 11 3e f9 72 fc bd
       0.044954248 0.09937926 0.14178936 -0.12326617
000220 3c cf 03 3e b0 47 93 bd 9f 1c c8 bd cd b6 0f bd
       0.12872022 -0.07191408 -0.09771084 -0.03508644
000230 3a a0 93 3d d4 06 bf bd 6c bd 5d 3d d8 de 68 bd
       0.07208295 -0.09327474 0.054135725 -0.056853145
000240 24 37 24 bd 6d 39 13 3d 29 ac 5d 3d 47 40 6f 3b
       -0.04009165 0.035943437 0.054119263 0.0036506818
000250 de 61 80 bd e1 8a 64 3d 94 09 68 bd 59 2b d9 3d
       -0.06268667 0.055796508 -0.05664976 0.10603971
000260 74 c5 0c 3d df 64 48 bd 8c a4 ca 3c ae 16 b9 bd
       0.034367993 -0.048924323 0.024736665 -0.09037529
000270 c1 6d 04 bc 56 4f c4 bc 02 53 00 bd 39 36 15 be
       -0.008082808 -0.023963612 -0.031329162 -0.14571466
000280 80 a5 9d 3d de 06 87 3d 1c ce d5 3d 01 43 81 bd
       0.07697582 0.06593107 0.10439703 -0.06311608
000290 e6 7d ac bd b6 ba 81 bd d3 18 ea bc 0d f8 10 3e
       -0.08422451 -0.063344404 -0.02857629 0.14157124
0002a0 af cd d3 bc eb 32 ae bd 25 7a f2 3b 16 62 d4 3d
       -0.025854914 -0.085058056 0.0073998147 0.10370271
0002b0 2a ee e7 3d 75 28 fb bc cf bd f7 3d 07 e1 9f bd
       0.11324723 -0.03065894 0.1209675 -0.078065924
0002c0 b1 5c bd bd 51 73 ae bd 83 a2 c7 bd c1 f4 7b 3d
       -0.09246195 -0.085180886 -0.097477935 0.061512712
0002d0 a1 0c 71 3d da 8e 15 bb 8a 11 95 bc 1b 16 be bb
       0.058849934 -0.0022820742 -0.01819684 -0.005800975
0002e0 5f b6 b0 3d 82 d8 20 bd 3f ed 07 bd 71 d5 8e bd
       0.086285345 -0.039268978 -0.03318524 -0.069743045
0002f0 3d 41 05 3d 4a 65 23 bc 99 91 cc bc 09 e3 f2 bb
       0.03253292 -0.00997288 -0.02497177 -0.0074123186
000300 86 93 ca bd 7f 58 4e bd b0 e3 01 bc 3f f5 ed bc
       -0.09891419 -0.050377365 -0.00792782 -0.029047607
000310 50 77 09 be c6 ea a2 3d 46 34 b0 bd ed 33 b8 bd
       -0.1342442 0.07954936 -0.0860372 -0.08994279
000320 86 36 c1 3d 05 54 54 bd 8f de f1 3d 3a 01 bf 3c
       0.09434228 -0.05183794 0.11810028 0.023316015
000330 93 94 0a be af 2a 19 3e 60 93 ba bd ea 1e c9 bd
       -0.13533239 0.14957689 -0.09110141 -0.098203495
000340 15 12 08 be 2c b9 3f 3d 84 5d bb bd 13 70 13 3c
       -0.13288148 0.046807453 -0.09148696 0.008998889
000350 99 f1 ca 3d 09 39 c4 bc 23 23 fa 3d c1 50 02 be
       0.09909362 -0.023952978 0.12213733 -0.12726118
000360 70 6c a6 3d 8e 6c a0 bc 2e 36 9f bd 72 59 85 3d
       0.081261516 -0.019583013 -0.07774006 0.06511201
000370 3b df 20 bd 1e 6c bd bd 35 d0 d9 3d 8d 9b 9c bd
       -0.03927539 -0.09249137 0.106354155 -0.076468565
000380 97 6a 7a bd 70 6b 37 bd df bb 9c 3d f5 3e 5b 3d
       -0.06113681 -0.044780195 0.07653021 0.053526837
000390 eb 86 94 bd 69 68 d1 bd f6 75 ef bd cf af 0d 3d
       -0.07252296 -0.10224993 -0.11692421 0.034591492
0003a0 99 d2 0e bd e3 0f 67 bc 87 4c 9c 3d 6a ad 84 bd
       -0.03486881 -0.014102909 0.07631784 -0.064783886
0003b0 76 a2 aa 3b 1f 51 28 bd 5a 39 d5 3c c3 6b e0 3d
       0.005207355 -0.041092988 0.026028324 0.10958054
0003c0 45 d1 bd bd bb cf 09 3e 42 cd f9 3d fd 65 ef 3d
       -0.092684306 0.13458149 0.12197353 0.116893746
0003d0 bf fc 14 3d 58 f0 f9 3d 27 6d 06 3e 0d 7a 90 bd
       0.03637385 0.12204045 0.13127576 -0.07054529
0003e0 d5 56 15 bc 54 58 f2 3b b4 77 d0 3d ad 6c a7 bc
       -0.009114941 0.0073957834 0.101790816 -0.020437563
0003f0 61 cb 8b 3d 71 92 fd 3d f1 37 00 3e 7e 57 c3 3c
       0.06825901 0.12381447 0.1252134 0.02384543
