models/lstm_mid_model.pt (torch, 245045 bytes, 9 tensors)

lstm.weight_ih_l0 f4 [256, 38]
0.21885242 0.13391042 0.14857513 0.14814097 0.10678695 0.08416581 0.0077416794 0.14052276
0.1727978 -0.006691155 0.1624643 0.056651026 0.1867715 0.06578361 0.10174988 0.057096824
0.16212918 -0.05320189 -0.029484544 -0.005712407 -0.04844201 -0.04445743 0.047433943 0.06259268
-0.09600644 -0.057626292 -0.094577394 -0.14424549 0.00726525 -0.14342092 0.0643321 -0.11683821
0.051836926 0.06464571 -0.020199815 0.10758607 0.021802127 0.11720916 -0.016207287 -0.10542528
0.0058541093 -0.11312127 0.14262468 0.15176183 0.17580555 0.012123362 0.016244467 -0.011826762
-0.017939538 -0.17858191 -0.204618 -0.029296791 -0.06792692 0.13119493 0.14076664 0.03376755
0.08652143 -0.05658546 0.26352963 -0.06905557 0.03277613 -0.048023954 0.22035158 -0.043047786
0.033127785 -0.05475222 0.096686415 -0.11556934 -0.0071753827 -0.021421613 0.18195024 0.018906346
-0.0086749885 -0.18209524 -0.1922515 -0.17181626 0.0019582668 0.08184184 0.07309131 0.09626326
-0.12368463 -0.2028402 0.07103588 -0.13177654 0.109199874 0.025717437 0.16659617 -0.08866654
-0.050932925 0.1238574 0.07998738 0.005788668 0.26720718 0.15814126 -0.111371525 -0.17713454
0.12635675 -0.10516537 -0.107059546 -0.14051418 0.046136398 0.031225458 -0.08028602 0.015201397
-0.031120483 -0.037685 -0.1448177 0.014918745 -0.104517244 -0.02638152 0.118988544 0.0033300049
0.058454413 -0.116637215 -0.14743926 0.0055893757 -0.06626964 -0.13689956 -0.12649502 -0.15626173
0.0955448 -0.06745784 0.008614555 -0.13054487 -0.25344712 -0.14035578 -0.11664294 0.09770481
0.2834406 -0.0851753 0.13550036 0.05607647 -0.18545587 0.09314927 0.20702352 0.06508431
0.13635792 -0.12368977 0.01808079 -0.027305484 -0.0200593 -0.05129005 0.09962506 -0.06307613
0.11141188 0.07049495 0.17668854 0.2077154 0.18752392 -0.06452754 0.0513307 -0.02643125
0.0077101127 -0.04720324 0.07653687 -0.14413844 0.01703283 0.058980383 0.05112672 -0.05175643
0.17388177 -0.013161733 -0.08823081 -0.00032063978 0.008432191 0.08867768 0.0561737 0.10921983
-0.0048491578 -0.15983197 -0.09330181 -0.07018405 0.059146315 -0.08748899 -0.020748146 -0.09469291
-0.124580726 0.04457906 0.15072548 -0.10158879 -0.025001798 0.14892179 0.024395883 0.04885701
0.11894556 0.13271596 0.10322779 0.096890606 0.06913718 0.124320075 0.042531837 -0.032547943
0.08216341 0.05112036 0.025411401 -0.03907555 0.05966455 -0.007189933 0.05302662 0.08460519
-0.17349587 0.012266017 0.08211687 0.07413996 0.016193569 -0.06799234 -0.032572765 -0.11631143
0.006637396 -0.007533325 0.16375072 0.052446727 -0.09587326 -0.094131194 -0.016828518 0.12091869
0.04570006 0.07013816 0.04254256 -0.011601538 -0.096544914 0.13123862 -0.049954623 -0.011237608
0.030028656 0.21356128 0.20173237 0.16420506 -0.015252006 -0.07254822 -0.06383401 0.09838785
0.053895883 0.12808518 0.0700318 0.02270036 0.029399162 -0.07034535 -0.15996283 -0.05377441
0.043327104 -0.02454485 -0.0033320673 -0.019188624 0.093878314 -0.07200278 -0.033571478 0.0602487
-0.016156517 0.08606382 -0.04414319 -0.02603058 0.08012586 -0.060593426 -0.08697651 -0.09079914
00000000: d91a 603e d01f 093e 1424 183e 44b2 173e
00000010: 1eb3 da3d 205f ac3d eaad fd3b 33e5 0f3e
00000020: e8f1 303e 7a41 dbbb 0b5d 263e e80a 683d
00000030: 0741 3f3e 8fb9 863d 3e62 d03d 5cde 693d
00000040: 3105 263e 3aea 59bd 9289 f1bc 252f bbbb
00000050: 216b 46bd fe18 36bd 184a 423d 9730 803d
00000060: 069f c4bd 8c09 6cbd cbb1 c1bd 17b5 13be
00000070: 5611 ee3b efdc 12be 8cc0 833d df48 efbd
00000080: f552 543d f864 843d 157a a5bc 1656 dc3d
00000090: 609a b23c 5b0b f03d 25c5 84bc 36e9 d7bd
000000a0: d4d3 bf3b 20ac e7bd 340c 123e 7467 1b3e
000000b0: 5f06 343e 11a1 463c 1e13 853c 09c5 41bc
000000c0: f0f5 92bc 2dde 36be 6287 51be d3ff efbc
000000d0: 451d 8bbd f757 063e 2125 103e d84f 0a3d
000000e0: 2632 b13d 28c6 67bd 5bed 863e 026d 8dbd
000000f0: 4340 063d c4b4 44bd d8a3 613e e052 30bd
00000100: 00b1 073d dd43 60bd 8703 c63d 9eaf ecbd
00000110: 791f ebbb 617c afbc 2a51 3a3e 7be1 9a3c
00000120: 8a21 0ebc 2d77 3abe 94dd 44be 9af0 2fbe
00000130: 4456 003b b29c a73d e6b0 953d ac25 c53d
00000140: 5e4e fdbd 57b5 4fbe 427b 913d 6ef0 06be
00000150: 2fa4 df3d 60ad d23c 3098 2a3e ce96 b5bd
00000160: 0b9f 50bd f3a8 fd3d 6cd0 a33d deae bd3b
00000170: 61cf 883e c8ef 213e c116 e4bd c262 35be
00000180: aa63 013e f160 d7bd 0942 dbbd f3e2 0fbe
00000190: 85f9 3c3d 88cc ff3c ff6c a4bd 480f 793c
000001a0: 62f0 febc 965b 1abd 174b 14be c06d 743c
000001b0: 230d d6bd 0f1e d8bc 44b0 f33d 363c 5a3b
000001c0: e56d 6f3d 7edf eebd 51fa 16be 1527 b73b
000001d0: 61b8 87bd 662f 0cbe e987 01be 1303 20be
000001e0: feac c33d 5627 8abd 1024 0d3c 8ead 05be
000001f0: d2c3 81be 6db9 0fbe 7ee2 eebd 7619 c83d
00000200: 201f 913e 6370 aebd 9bc0 0a3e 71b0 653d
00000210: 25e8 3dbe 0bc5 be3d f9fd 533e ec4a 853d
00000220: 69a1 0b3e 1051 fdbd 2a1e 943c c0af dfbc
00000230: 6753 a4bc 8415 52bd 3908 cc3d 0f2e 81bd
00000240: e92b e43d a85f 903d d7ed 343e 59b3 543e
00000250: 4506 403e 0427 84bd 2440 523d 5986 d8bc
00000260: 1da5 fc3b 2f58 41bd 5dbf 9c3d 0799 13be
00000270: 6f88 8b3c 6a95 713d 406a 513d 8dfe 53bd
00000280: 100e 323e 4fa4 57bc 5bb2 b4bd 8b1b a8b9
00000290: 2c27 0a3c a59c b53d 6516 663d a5ae df3d
000002a0: afe5 9ebb feaa 23be 0515 bfbd a8bc 8fbd
000002b0: 6843 723d 6d2d b3bd 04f8 a9bc 5bee c1bd
000002c0: 2e24 ffbd 8898 363d c857 1a3e c90d d0bd
000002d0: 92d0 ccbc f47e 183e e0d9 c73c 4a1e 483d
000002e0: bb99 f33d b1e6 073e 1769 d33d 956e c63d
000002f0: cb97 8d3d 869b fe3d dd35 2e3d fe50 05bd
00000300: 4a45 a83d 9563 513d 922b d03c af0d 20bd
00000310: d162 743d 8899 ebbb 7132 593d 7c45 ad3d
00000320: e7a8 31be 67f7 483c e42c a83d b1d6 973d
00000330: 60a8 843c 913f 8bbd 056b 05bd b034 eebd
00000340: 837e d93b 1cda f6bb 45ae 273e 61d2 563d
00000350: 3359 c4bd dbc7 c0bd f6db 89bc 38a4 f73d
00000360: fc2f 3b3d 98a4 8f3d 1b41 2e3d 6114 3ebc
00000370: 57b9 c5bd 6b63 063e 389d 4cbd f21d 38bc
00000380: a8fe f53c cfaf 5a3e ee92 4e3e 5f25 283e
00000390: 8de3 79bc 2994 94bd 68bb 82bd 927f c93d
000003a0: eec1 5c3d c328 033e d56c 8f3d 1bf6 b93c
000003b0: 83d6 f03c 3911 90bd 4ccd 23be 8e42 5cbd
000003c0: c377 313d 4812 c9bc d05e 5abb 7631 9dbc
000003d0: 4643 c03d 3276 93bd 3f82 09bd 57c7 763d
000003e0: ac5a 84bc 3a42 b03d 7dcf 34bd 153e d5bc
000003f0: 0719 a43d d030 78bd be20 b2bd e6f4 b9bd

lstm.weight_hh_l0 f4 [256, 64]
0.0102483425 0.13753441 0.090262875 -0.22459024 -0.15137805 -0.008966357 -0.13382654 -0.060310435
0.06913089 0.09408124 -0.08127516 0.04848142 0.08359819 0.019403659 0.08090675 -0.07793296
-0.11374488 0.08647658 0.1860697 -0.10992203 0.1300663 0.09296001 0.03795266 0.18043447
0.15236275 -0.079959415 -0.1164698 0.11607719 0.07264183 -0.08128206 0.06909494 0.05150182
-0.09849344 0.009975311 -0.21935794 -0.04851361 -0.08381464 0.08666034 -0.15300573 0.09653991
-0.06765213 0.040849432 -0.13491865 -0.0614169 0.062508 -0.11534393 -0.19926558 0.09220147
-0.11338592 -0.039699767 -0.037027825 -0.010263867 0.060796246 0.1158428 -0.117362246 0.102832556
-0.114767075 -0.09705372 0.11038257 -0.015864568 -0.15792716 0.017509395 -0.03755364 -0.0437278
0.030666525 -0.2055298 -0.09224605 -0.19902298 -0.020008339 -0.015698003 -0.16307595 -0.15909275
-0.016297009 0.15879622 0.00077138643 0.18790424 -0.031208292 -0.0693702 0.033501122 0.10075118
-0.12865187 0.035069384 0.06807399 -0.24400198 0.021000044 0.080712065 0.057149567 0.36078396
0.14602605 -0.11690481 0.13424505 -0.0070288926 -0.03013004 -0.05762746 -0.059190143 0.046270084
0.05166099 0.02810577 -0.29010954 0.1460743 0.08041062 -0.2078327 0.05308828 0.032479506
0.009049744 0.00823461 -0.1322301 -0.03468245 0.032055277 -0.01860135 -0.040614408 0.09929868
0.2408698 0.006761516 -0.016683424 -0.06020229 0.103846386 -0.020224292 -0.047267362 0.1252931
0.01878998 -0.036187932 0.14182019 0.084696785 -0.2508667 -0.023082722 -0.32004452 0.058172513
0.030670604 -0.13853177 0.1959505 0.15218823 -0.13749574 -0.23161626 0.24570245 -0.104803026
0.011308831 0.03174102 0.11137519 0.069493 -0.022440413 -0.07826932 -0.20728302 0.09818121
0.11130412 0.18480189 0.14480093 -0.048918813 0.06096202 0.0132748475 0.13662824 0.21268931
5.9700087e-05 0.08355879 -0.10117858 0.19390073 -0.21176682 -0.07879637 0.22352369 -0.035689697
-0.17424035 -0.03432018 -0.07480172 0.06956449 -0.08720521 0.14302252 0.19103335 -0.13213542
-0.14596008 0.12215338 -0.014132182 -0.03909964 -0.085928336 -0.035443217 0.06074048 -0.16983272
0.2363042 -0.0754162 -0.09037634 0.053188883 0.08024782 -0.07493601 0.08906466 -0.059887767
-0.071058795 -0.071021445 0.08140487 0.14607354 0.012196686 -0.10531025 0.023874186 -0.016797103
0.15187381 -0.004657291 0.12527272 -0.041367054 0.13692437 -0.22283547 0.12877606 0.11834285
-0.037153956 -0.08330403 -0.11165024 -0.028558353 0.0505053 -0.19683436 -0.19463255 -0.10916758
-0.0086072255 0.22997461 0.012906678 -0.068527445 0.13015361 0.1118191 0.011906223 -0.12616229
-0.048771404 -0.012661931 0.009448421 0.035502445 -0.09559946 -0.19240709 -0.016327871 0.09826064
-0.096873775 -0.06715802 0.031991113 0.13124204 -0.09341746 0.15036756 0.021516701 -0.19575395
0.065204665 0.14640634 -0.12231419 -0.026453938 0.24351463 -0.14247313 0.09841941 0.001090303
0.2603891 0.045497045 -0.13646138 0.043685187 0.116582856 -0.13309722 0.022241537 -0.26362482
-0.042054746 -0.121510155 0.09389137 -0.03269124 0.016308747 -0.21828564 0.022242898 0.08055129
00000000: aae8 273c d2d5 0c3e bedb b83d fcfa 65be
00000010: d902 1bbe a1e7 12bc d309 09be 1308 77bd
00000020: 7f94 8d3d aaad c03d 9773 a6bd 7494 463d
00000030: 8735 ab3d 6cf4 9e3c 70b2 a53d 519b 9fbd
00000040: 13f3 e8bd a21a b13d 0e89 3e3e cd1e e1bd
00000050: 1a30 053e d161 be3d 4074 1b3d d0c3 383e
00000060: fb04 1c3e c3c1 a3bd b887 eebd e1b9 ed3d
00000070: 3dc5 943d 3577 a6bd a681 8d3d 93f3 523d
00000080: eeb6 c9bd 7d6f 233c 5e9f 60be 35b6 46bd
00000090: 03a7 abbd fa7a b13d 89ad 1cbe b7b6 c53d
000000a0: 338d 8abd bc51 273d 1d28 0abe 4a90 7bbd
000000b0: 3204 803d 7039 ecbd 470c 4cbe 20d4 bc3d
000000c0: e136 e8bd 399c 22bd 7daa 17bd c729 28bc
000000d0: 7c05 793d fd3e ed3d 9e5b f0bd e099 d23d
000000e0: 000b ebbd 1ac4 c6bd 4210 e23d 69f6 81bc
000000f0: a8b7 21be dd6f 8f3c d8d1 19bd ec1b 33bd
00000100: 5d38 fb3c 6776 52be 7feb bcbd aecc 4bbe
00000110: 87e8 a3bc 1999 80bc 62fd 26be 36e9 22be
00000120: 4e81 85bc 7a9b 223e de36 4a3a f869 403e
00000130: 88a8 ffbc f711 8ebd 7938 093d a256 ce3d
00000140: 51bd 03be eaa4 0f3d 606a 8b3d a8db 79be
00000150: 4908 ac3c 5e4c a53d aa15 6a3d adb8 b83e
00000160: da87 153e ca6b efbd 8977 093e a052 e6bb
00000170: 46d3 f6bc c60a 6cbd 5d71 72bd b385 3d3d
00000180: 799a 533d 123e e63c 3d89 94be 8094 153e
00000190: 53ae a43d 18d2 54be 1973 593d 3b09 053d
000001a0: 6145 143c 75ea 063c 5467 07be 2f0f 0ebd
000001b0: 654c 033d dc61 98bc 4b5b 26bd 1b5d cb3d
000001c0: 93a6 763e b58f dd3b adab 88bc ad96 76bd
000001d0: 6aad d43d 6aad a5bc 6c9b 41bd d64c 003e
000001e0: 72ed 993c cc39 14bd 5039 113e 8275 ad3d
000001f0: 9a71 80be fa17 bdbc e0dc a3be 4d46 6e3d
00000200: eb40 fb3c 46db 0dbe 3fa7 483e 3bd7 1b3e
00000210: afcb 0cbe d02c 6dbe 6c99 7b3e f8a2 d6bd
00000220: ad48 393c df02 023d ad18 e43d 5952 8e3d
00000230: f5d4 b7bc aa4b a0bd 0042 54be 3b13 c93d
00000240: 6af3 e33d b53c 3d3e b246 143e 185f 48bd
00000250: 50b3 793d bf7e 593c 46e8 0b3e 3acb 593e
00000260: 7b66 7a38 df20 ab3d b736 cfbd ea8d 463e
00000270: 67d9 58be fe5f a1bd 65e3 643e 5c2f 12bd
00000280: 106c 32be 5193 0cbd a531 99bd d477 8e3d
00000290: a598 b2bd 7f74 123e 3f9e 433e 824e 07be
000002a0: 8f76 15be 8d2b fa3d ab8a 67bc f226 20bd
000002b0: 32fb afbd e82c 11bd 02cb 783d a1e8 2dbe
000002c0: baf9 713e cf73 9abd 3b17 b9bd 96dc 593d
000002d0: f858 a43d 0d78 99bd 8867 b63d e04c 75bd
000002e0: 4687 91bd b173 91bd 99b7 a63d 4d94 153e
000002f0: 9cd4 473c e6ac d7bd cc93 c33c 149a 89bc
00000300: cf84 1b3e 309c 98bb 7e47 003e 8070 29bd
00000310: e735 0c3e fb2e 64be dfdd 033e bc5d f23d
00000320: bf2e 18bd 4e9b aabd e2a8 e4bd 35f3 e9bc
00000330: a5de 4e3d f28e 49be c14d 47be 4193 dfbd
00000340: 5205 0dbc 777e 6b3e 8876 533c 1e58 8cbd
00000350: fd46 053e 6a01 e53d 5212 433c b030 01be
00000360: 86c4 47bd fd73 4fbc 8dcd 1a3c 036b 113d
00000370: a6c9 c3bd 5d06 45be 07c2 85bc e03c c93d
00000380: c265 c6bd 258a 89bd 1d09 033d 5064 063e
00000390: a751 bfbd f4f9 193e cb43 b03c b973 48be
000003a0: 068a 853d 8beb 153e dd7f fabd eeb5 d8bc
000003b0: e65b 793e 7ae4 11be 1e90 c93d 7fe8 8e3a
000003c0: b851 853e 1c5b 3a3d 88bc 0bbe 3def 323d
000003d0: fec2 ee3d a34a 08be e233 b63c d5f9 86be
000003e0: 9941 2cbd 51da f8bd 1e4a c03d 40e7 05bd
000003f0: ec99 853c 4586 5fbe bd36 b63c 13f8 a43d

lstm.bias_ih_l0 f4 [256]
0.0042413734 0.04261538 0.027092325 -0.02406853 0.011604219 0.12148972 0.09631145 0.19781505
0.18331361 0.014552241 0.10679002 0.042307325 0.15857391 -0.036405552 0.0074805343 0.21281353
0.059542775 0.08378508 0.16471444 0.188875 -0.06169413 0.059075862 0.09509078 0.15062723
-0.023883218 0.2614354 0.07340107 0.11071035 -0.03329546 0.105256006 0.15138762 0.1908985
0.018193042 0.14675805 0.041260015 0.12285643 0.011476432 0.10927504 -0.09363393 0.05629153
0.0025580553 0.018558156 0.053902823 -0.027968742 0.1486165 0.16543467 0.15583396 0.049198106
0.15343451 0.22086526 0.065344006 -0.08290295 0.121432 0.08609291 0.101153426 -0.023608517
-0.038344275 0.14409658 -0.07955787 0.098172255 0.13708675 0.020163698 -0.10846117 -0.06905087
0.14718096 0.07460538 0.09060012 0.011468554 -0.07825409 0.06417169 -0.08932393 0.09569603
0.022666546 0.1656398 0.0018820786 0.016011162 -0.025432736 0.1162093 0.028343432 0.046492126
-0.12988731 0.1541282 0.17598255 0.0018650632 0.019405996 0.0018527432 0.05743024 -0.11875153
-0.031207863 0.11843519 -0.08653122 0.152648 -0.041922454 -0.039080456 -0.020649837 0.19052744
0.00651793 0.03966069 0.020252544 0.1820435 -0.07624737 0.06008531 0.056216396 -0.036406785
-0.04234734 0.054456756 0.0838266 -0.06804723 -0.035726495 0.16212982 0.072230734 -0.04499091
-0.055371728 0.023469273 0.14766477 0.07976975 0.17517158 0.04426893 0.093891785 -0.08176474
0.08447053 -0.05954774 0.14328925 0.11484654 0.012479504 -0.014415849 0.06498833 0.13390352
0.053791158 0.034623537 -0.09798912 -0.069432214 -0.12408562 -0.06170177 -0.05521315 0.024022596
0.091267005 0.0715016 0.010863407 0.11274688 0.14312688 0.010920089 0.009010257 0.04687274
-0.112275325 0.08270762 0.058038723 -0.17976312 -0.13863252 0.021503968 0.12037663 0.07632554
-0.12286851 0.13928264 -0.016248206 -0.008170899 -0.023353389 0.06829347 0.108758725 0.0067062466
-0.13883083 -0.011816328 -0.13519189 -0.14707905 0.013550974 -0.015655743 -0.12264177 -0.13594349
0.15873525 0.13487719 -0.1942712 -0.08299493 0.061261315 0.04995598 0.09587741 -0.018665107
0.037371825 -0.17261417 -0.08920478 0.057385042 0.038520113 0.02826416 -0.07177065 -0.09442095
-0.05760212 -0.08875666 -0.10997621 0.055727378 -0.078762636 -0.13102804 0.013352123 0.04910931
0.05540014 -0.034091003 0.15996432 0.0033504588 0.18681881 -0.033124298 0.17488499 0.067481585
0.13735533 0.13234907 0.14144455 0.0757895 0.009441714 0.058987696 0.13850507 0.026196357
0.12503499 0.014451425 0.108936034 -0.04245991 -0.05205671 0.091970794 -0.0011297257 0.07862997
0.06710241 0.2946026 -0.09365281 0.028662965 -0.044855747 0.051784452 0.044885054 0.18488795
0.10585255 0.039005768 0.041681614 0.16433166 0.05554793 -0.014790404 -0.11709505 0.0250546
0.02434938 0.14033867 0.08810965 -0.025565589 -0.010884995 0.19398282 0.28562766 0.016751831
0.21307355 0.071822755 0.01414835 0.07689989 -0.0056588473 -0.14491953 0.068499774 0.215984
0.1328236 0.14632787 0.1277725 0.058288377 0.05551597 -0.0060187355 0.15159023 0.16384521
00000000: 38fb 8a3b 778d 2e3d b9f0 dd3c 5e2b c5bc
00000010: 9f1f 3e3c 9acf f83d f03e c53d 0790 4a3e
00000020: 90b6 3b3e 866c 6e3c bab4 da3d 724a 2d3d
00000030: 3361 223e fd1d 15bd 451f f53b caeb 593e
00000040: 20e3 733d 8397 ab3d e7aa 283e 7368 413e
00000050: fcb2 7cbd 88f9 713d f4be c23d 063e 1a3e
00000060: bda6 c3bc dcda 853e 4d53 963d 1cbc e23d
00000070: d260 08bd 7690 d73d 5b05 1b3e e57a 433e
00000080: 9309 953c be47 163e 4300 293d 279c fb3d
00000090: a507 3c3c 98cb df3d 25c3 bfbd f391 663d
000000a0: 0ca5 273b 4607 983c 35c9 5c3d b41e e5bc
000000b0: ec2e 183e b567 293e f092 1f3e f483 493d
000000c0: f01d 1d3e 812a 623e 14d3 853d 06c9 a9bd
000000d0: 57b1 f83d 7b51 b03d 8729 cf3d a666 c1bc
000000e0: e30e 1dbd 0e8e 133e 3def a2bd 890e c93d
000000f0: 7860 0c3e 572e a53c e420 debd 8b6a 8dbd
00000100: 9bb6 163e b5ca 983d 8e8c b93d 9ae6 3b3c
00000110: ae43 a0bd 726c 833d 77ef b6bd 48fc c33d
00000120: 31af b93c 7b9d 293e 14b0 f63a d729 833c
00000130: 5058 d0bc 24ff ed3d 7c30 e83c 876e 3e3d
00000140: 2e01 05be c8d3 1d3e c534 343e 2375 f43a
00000150: 53f9 9e3c bfd7 f23a f93b 6b3d 0134 f3bd
00000160: a2a7 ffbc 268e f23d 4837 b1bd c24f 1c3e
00000170: e1b6 2bbd d412 20bd d929 a9bc a019 433e
00000180: 5c94 d53b 3f73 223d aae8 a53c 9c69 3a3e
00000190: 9527 9cbd 041c 763d 2a43 663d 481f 15bd
000001a0: 6874 2dbd 0c0e 5f3d 48ad ab3d 595c 8bbd
000001b0: f255 12bd 5c05 263e b5ed 933d 6348 38bd
000001c0: 77cd 62bd a242 c03c 6f35 173e 535e a33d
000001d0: 2e60 333e 5653 353d 564a c03d 4674 a7bd
000001e0: e3fe ac3d 55e8 73bd 6bba 123e aa34 eb3d
000001f0: d576 4c3c 7430 6cbc 9a18 853d 011e 093e
00000200: 1e54 5c3d 69d1 0d3d 85ae c8bd 7a32 8ebd
00000210: 9a20 febd ffba 7cbd 2f27 62bd 09cb c43c
00000220: 32ea ba3d 6e6f 923d 6efc 313c d6e7 e63d
00000230: da8f 123e 2cea 323c c29f 133c a1fd 3f3d
00000240: 9bf0 e5bd 9d62 a93d 03ba 6d3d d313 38be
00000250: aff5 0dbe 1729 b03c 0688 f63d 9150 9c3d
00000260: 7ca2 fbbd 1ca0 0e3e f51a 85bc 3cdf 05bc
00000270: 9b4f bfbc 72dd 8b3d e5bc de3d 13c0 db3b
00000280: ab29 0ebe 4699 41bc be6f 0abe e49b 16be
00000290: e804 5e3c 7940 80bc 9c2b fbbd c534 0bbe
000002a0: 7e8b 223e 3f1d 0a3e 08ef 46be 3ff9 a9bd
000002b0: 25ed 7a3d a49e 4c3d 605b c43d 91e7 98bc
000002c0: 3313 193d c5c1 30be ffb0 b6bd 940c 6b3d
000002d0: 44c7 1d3d 3d8a e73c 7efc 92bd c55f c1bd
000002e0: 33f0 6bbd 0dc6 b5bd 353b e1bd 6442 643d
000002f0: 4e4e a1bd 372c 06be ddc2 5a3c d826 493d
00000300: 42eb 623d 02a3 0bbd b0cd 233e 5f93 5b3b
00000310: 6e4d 3f3e 58ad 07bd 0d15 333e c933 8a3d
00000320: e0a6 0c3e 8486 073e d7d6 103e 8637 9b3d
00000330: 6bb1 1a3c 159d 713d 46d4 0d3e be99 d63c
00000340: 2c09 003e abc5 6c3c db19 df3d 71ea 2dbd
00000350: 6b39 55bd 2f5b bc3d 4e13 94ba c008 a13d
00000360: fd6c 893d 27d6 963e 0bcd bfbd 98ce ea3c
00000370: a9ba 37bd ef1b 543d 64d9 373d 4453 3d3e
00000380: 39c9 d83d 83c4 1f3d 57ba 2a3d 8f46 283e
00000390: 3a86 633d 7353 72bc 88cf efbd 4e3f cd3c
000003a0: 5a78 c73c f1b4 0f3e d572 b43d ed6e d1bc
000003b0: fa56 32bc 6fa3 463e ca3d 923e 233b 893c
000003c0: f42f 5a3e cf17 933d 7bce 673c b17d 9d3d
000003d0: da6d b9bb c965 14be 9c49 8c3d e92a 5d3e
000003e0: e902 083e f9d6 153e cbd6 023e cbbf 6e3d
000003f0: b764 633d d038 c5bb 783a 1b3e 0ac7 273e

lstm.bias_hh_l0 f4 [256]
-0.051094238 -0.0879168 0.043032892 0.020848475 0.058102325 0.15094538 0.049983166 0.19524162
0.06831163 0.03812496 0.030758962 0.024995277 0.0757024 0.0022990142 -0.03959368 0.21796423
0.06601212 0.0690464 0.08103525 0.035949316 -0.09489735 0.13719983 0.12323729 -0.013780812
0.17901602 0.17777744 -0.06876022 -0.040533945 -0.029150063 -0.011278013 0.1067524 0.012759641
-0.012643568 0.18700224 0.043383673 0.058285896 -0.02055265 0.07148189 -0.073019795 -0.05292288
0.009503529 0.040622137 0.12999083 0.06843762 0.12622346 0.008994515 -0.009871164 0.09823561
0.17775497 0.107687086 0.1985473 0.085157305 0.10523095 -0.040001415 0.07687207 0.017064763
0.06628315 0.103770375 -0.04601122 -0.0419226 0.0010222477 0.05932821 -0.013222569 0.08860482
-0.018317826 0.14421465 -0.029272588 0.15229347 0.083155796 0.11084729 -0.0648631 -0.035441723
-0.025323134 0.007016968 0.041047785 0.027617944 0.1137116 0.15636359 0.09978613 0.09079901
-0.052429162 0.0117252655 0.16741653 -0.033827476 0.025876397 -0.07777879 0.09112557 -0.123074576
-0.13622135 0.102116406 -0.06770253 0.0562126 0.08704796 0.026744036 0.096928895 0.014711648
0.108056076 0.087981075 -0.038168147 -0.018657807 0.11251498 0.107626714 0.057332255 0.007058424
0.07095369 0.106601365 0.113540426 -0.037341088 0.09798612 0.23052073 0.017640477 -0.067586415
-0.10993985 0.027901243 0.13615471 0.044243228 0.18061322 0.068465374 0.111466154 -0.10071863
0.10488911 0.07592159 0.07789796 0.12813067 -0.09176454 0.14553759 -0.004400867 -0.040444046
0.063293904 0.08797463 0.080171324 0.11053048 0.02065035 0.053647827 0.12482505 0.10337825
0.04810016 0.027935546 -0.13670251 0.101925045 -0.04960462 -0.08681103 -0.13356906 -0.18044676
-0.05694771 -0.10828122 0.048259012 -0.030503143 -0.066768505 0.15607715 0.12237782 0.047641944
-0.09083587 -0.08020014 -0.05165216 0.102237605 -0.09935327 -0.1005909 0.055970076 0.040861078
0.03674588 0.02049628 -0.05256893 -0.07108683 -0.032378662 0.094584174 -0.104282916 -0.14768602
0.026098713 0.02421517 -0.045723524 0.02720719 0.10616486 0.031204347 0.14753175 -0.06665598
-0.1111668 -0.12247575 0.13313413 -0.074731655 -0.06871254 -0.004372382 -0.116953336 0.0031810869
-0.09358261 0.08285897 0.0928768 0.062151853 0.066871904 0.059453476 0.025650114 -0.01125827
0.06474072 0.02686744 0.107004896 -0.020860104 -0.014872517 0.054505415 -0.0026145035 0.04334877
0.07871355 0.03554697 0.16437493 -0.014019898 -0.03280608 0.087130636 0.050453383 0.15991916
0.12242003 -0.039431833 -0.09787733 0.12437292 -0.004430592 0.1591629 -0.028840866 0.22041494
0.06760805 0.16253676 -0.039600693 0.15529323 0.10864617 -0.057669964 0.050349087 0.03190348
0.06937292 -0.078575574 -0.004547252 0.102464244 0.12769322 0.014909654 0.033842016 0.17362757
0.060248602 0.18490423 0.13050087 0.03802139 0.031049356 0.19286825 0.25884476 -0.01725538
0.14492835 -0.0002499448 -0.0021933669 -0.03601109 0.093041494 -0.06516342 0.0488448 0.22188167
0.058904376 -0.053287633 0.002535243 -0.075368874 -0.018481398 0.140469 0.08787661 0.023082549
00000000: 3148 51bd b90d b4bd 4243 303d 6cca aa3c
00000010: b4fc 6d3d 6d91 1a3e 26bb 4c3d 6bed 473e
00000020: f8e6 8b3d eb28 1c3d 38fa fb3c e5c2 cc3c
00000030: dc09 9b3d 0fab 163b fc2c 22bd 0432 5f3e
00000040: 5d31 873d 3368 8d3d cff5 a53d 973f 133d
00000050: 8b59 c2bd 1d7e 0c3e d563 fc3d eac8 61bc
00000060: fa4f 373e 4a0b 363e 29d2 8cbd ec06 26bd
00000070: 1dcc eebc 6ac7 38bc 01a1 da3d d00d 513c
00000080: f826 4fbc 847d 3f3e 14b3 313d 31bd 6e3d
00000090: 085e a8bc 1965 923d 678b 95bd a9c5 58bd
000000a0: b1b4 1b3c 6663 263d 511c 053e 0629 8c3d
000000b0: b940 013e bb5d 133c aaba 21bc c02f c93d
000000c0: 6605 363e 0c8b dc3d fc4f 4b3e f466 ae3d
000000d0: 5383 d73d 86d8 23bd 1b6f 9d3d 67cb 8b3c
000000e0: 76bf 873d 9085 d43d 4376 3cbd 08b7 2bbd
000000f0: f1fc 853a 2302 733d 79a3 58bc 7276 b53d
00000100: 440f 96bc 01ad 133e 11cd efbc d2f2 1b3e
00000110: 964d aa3d e703 e33d f2d6 84bd 572b 11bd
00000120: 7672 cfbc 98ee e53b b921 283d 073f e23c
00000130: a1e1 e83d c71d 203e ac5c cc3d d5f4 b93d
00000140: f6bf 56bd 541b 403c 3d6f 2b3e ae8e 0abd
00000150: bdfa d33c 7c4a 9fbd 0ba0 ba3d 860e fcbd
00000160: 9c7d 0bbe 6822 d13d a0a7 8abd 2f3f 663d
00000170: 3346 b23d 4f16 db3c a882 c63d 2009 713c
00000180: 814c dd3d 6c2f b43d 3456 1cbd 42d8 98bc
00000190: 416e e63d 656b dc3d 3ad5 6a3d 5a4a e73b
000001a0: 2b50 913d d151 da3d e287 e83d f8f2 18bd
000001b0: f2ac c83d a00d 6c3e c382 903c bf6a 8abd
000001c0: 2528 e1bd 2691 e43c 246c 0b3e 6338 353d
000001d0: acf2 383e 9337 8c3d 5e48 e43d 9245 cebd
000001e0: 1ad0 d63d c77c 9b3d f788 9f3d b034 033e
000001f0: 0cef bbbd ce07 153e 2635 90bb a8a8 25bd
00000200: 3ca0 813d 0b2c b43d dd30 a43d ce5d e23d
00000210: ec2a a93c d3bd 5b3d 47a4 ff3d fab7 d33d
00000220: ac04 453d 16d9 e43c befb 0bbe 14be d03d
00000230: 372e 4bbd fbc9 b1bd 54c6 08be 09c7 38be
00000240: 0142 69bd 8bc2 ddbd 3eab 453d bae1 f9bc
00000250: edbd 88bd b0d2 1f3e 39a1 fa3d 3324 433d
00000260: 2808 babd f93f a4bd 3791 53bd f361 d13d
00000270: ba79 cbbd 9a02 cebd e140 653d f25d 273d
00000280: d982 163d d1e7 a73c 8552 57bd f995 91bd
00000290: 7d9f 04bd 59b5 c13d 4892 d5bd 013b 17be
000002a0: f8cc d53c e45e c63c 9748 3bbd 9de1 de3c
000002b0: f66c d93d 42a0 ff3c 9012 173e ee82 88bd
000002c0: 6bab e3bd 91d4 fabd 5054 083e e90c 99bd
000002d0: 29b9 8cbd 3346 8fbb 3b85 efbd c879 503b
000002e0: 3da8 bfbd f7b1 a93d 3136 be3d f192 7e3d
000002f0: 23f4 883d 7d85 733d 3020 d23c 9b74 38bc
00000300: c896 843d 1b19 dc3c 6225 db3d cfe2 aabc
00000310: dcab 73bc 1241 5f3d 1758 2bbb 7b8e 313d
00000320: 9234 a13d b399 113d e751 283e b7b3 65bc
00000330: ab5f 06bd 8c71 b23d 35a8 4e3d d9c1 233e
00000340: 5ab7 fa3d 4683 21bd e973 c8bd 3bb7 fe3d
00000350: 802e 91bb 99fb 223e ae43 ecbc 74b4 613e
00000360: 1776 8a3d 0970 263e 5634 22bd 3005 1f3e
00000370: e281 de3d 5737 6cbd d83a 4e3d 39ad 023d
00000380: 6413 8e3d 3bec a0bd 1d01 95bb c6d8 d13d
00000390: 03c2 023e 9f47 743c ed9d 0a3d 6dcb 313e
000003a0: 3dc7 763d 8957 3d3e 05a2 053e 51bc 1b3d
000003b0: 385b fe3c 417f 453e 4d87 843e 285b 8dbc
000003c0: 1968 143e 060b 83b9 97be 0fbb 5d80 13bd
000003d0: 8a8c be3d 6674 85bd 7c11 483d f334 633e
000003e0: b745 713d 2244 5abd 5226 263b ff5a 9abd
000003f0: 4d66 97bc 1bd7 0f3e a7f8 b33d 9d17 bd3c

lstm.weight_ih_l1 f4 [256, 64]
0.07081595 -0.13063149 0.17536469 -0.12843743 -0.060551185 -0.052062463 3.0701107e-05 0.16791189
0.058437884 -0.08768236 0.046041686 0.090129636 0.0065347482 0.009309895 0.0674671 0.07805153
0.06611812 0.13499565 0.056519188 0.050941907 0.02823806 -0.021074455 -0.057704836 0.11805309
0.044122614 0.04109218 0.15503915 0.011526944 -0.06550045 0.02617896 0.09208902 0.10909158
-0.040462416 -0.17912346 0.12814283 0.015915465 -0.008376327 0.1674207 0.07392061 0.048942003
0.10589762 0.16980153 0.17971705 0.117942795 0.091276206 0.09224483 -0.06611201 -0.084359035
-0.0048065563 0.07677539 -0.1453714 0.11102347 0.16782106 -0.08923308 -0.06747304 -0.065606005
-0.11470318 -0.049787074 0.06986224 -0.06810231 0.05402638 -0.12556927 0.0843183 0.2326755
0.077664025 0.12937698 0.06925423 -0.13943772 -0.048208185 0.022401763 0.028731603 0.042783808
-0.05971971 -0.012164769 -0.02610555 0.114887364 0.08899568 -0.045339394 0.07403802 -0.0707892
-0.16180596 0.03972681 0.14568846 -0.09363134 -0.0628778 0.09931953 0.07628213 -0.089147076
-0.12048433 -0.09047339 -0.08988718 0.019671652 -0.06731227 -0.027482599 -0.09864711 0.055076137
0.06229717 -0.017569631 -0.018389106 0.11113273 -0.02661351 0.01944275 -0.0920772 -0.09432323
-0.01275362 0.0077023413 -0.15887919 0.067563824 -0.09256534 0.097805366 0.052171487 0.0063383738
0.18949784 0.08141814 0.098246574 0.022246659 -0.04034797 0.041282292 -0.10065874 -0.1615527
-0.11902274 -0.038538285 0.008438084 -0.026707001 -0.058945626 0.007367907 -0.15745491 -0.050824672
-0.005226562 0.04230159 0.0064086807 -0.09907906 0.031090422 0.007172157 0.0989898 0.20160356
0.04339206 0.038972188 -0.13185264 0.045666724 0.09071225 -0.02152658 -0.059417725 -0.032850105
-0.018101271 -0.007852952 -0.09679369 -0.029344656 0.033267844 -0.011367767 -0.007051142 -0.05414456
-0.058246374 0.18162562 0.03933825 0.13569844 -0.110416695 -0.0069956006 0.07053702 0.051866934
-0.12912956 -0.015356373 0.013907069 -0.1504369 -0.14712745 0.04517933 -0.057443622 -0.17568257
0.078957886 8.681409e-05 -0.09182085 0.11106391 0.11129099 0.12325788 0.15537445 -0.097465485
0.13745937 -0.037857 -0.014065343 -0.06251682 0.07672101 0.080313444 -0.10134003 -0.06711138
-0.06901741 0.015636303 -0.025451934 0.094313286 -0.13183106 -0.05840498 0.07518404 -0.03617312
-0.058919035 -0.13044022 -0.0094912965 -0.040563308 -0.16590492 -0.11295754 -0.05948796 0.047153547
0.04443349 -0.07332266 -0.16195416 0.015506663 0.1297674 -0.077509 -0.019447774 0.101260856
0.13451019 0.13433273 0.069651365 -0.0008535855 -0.08221503 -0.15528534 -0.16889493 0.21004899
0.17633379 0.14001161 0.03264406 -0.04366647 -0.130991 0.020942017 0.09042279 0.1343403
0.013914254 -0.13921416 -0.20488864 -0.017220085 0.034903113 0.034199905 -0.04538839 -0.039488718
-0.06870702 0.072373964 -0.01976796 -0.0640968 0.07448099 -0.043610137 -0.094412014 -0.117551535
0.024042036 0.027141862 -0.17977272 0.050476175 0.062847205 0.030723719 0.02559413 -0.13992947
0.07756576 0.063286126 0.057269093 0.049658857 0.010922793 0.029714484 -0.03577405 0.18636881
00000000: f407 913d 43c4 05be cd92 333e 1a85 03be
00000010: 8504 78bd 733f 55bd 10c5 0038 18f1 2b3e
00000020: 905c 6f3d cf92 b3bd 3596 3c3d e395 b83d
00000030: 7121 d63b 8888 183c 312c 8a3d 7bd9 9f3d
00000040: f068 873d 4d3c 0a3e aa80 673d 76a8 503d
00000050: 8153 e73c 56a4 acbc e85b 6cbd d2c5 f13d
00000060: eab9 343d 4650 283d 95c2 1e3e 82db 3c3c
00000070: 1a25 86bd 4275 d63c 2b99 bc3d 686b df3d
00000080: ebbb 25bd 246c 37be e037 033e 2661 823c
00000090: dd3c 09bc 5570 2b3e b063 973d 6977 483d
000000a0: dae0 d83d 74e0 2d3e bf07 383e fe8b f13d
000000b0: 05ef ba3d dcea bc3d bc65 87bd 6ec4 acbd
000000c0: 5180 9dbb 6a3c 9d3d 3edc 14be 4660 e33d
000000d0: 49d9 2b3e d5bf b6bd 4e2f 8abd 715c 86bd
000000e0: 80e9 eabd 88ed 4bbd ef13 8f3d 3979 8bbd
000000f0: c44a 5d3d 3b95 00be 13af ac3d 7c42 6e3e
00000100: 510e 9f3d 667b 043e 29d5 8d3d c3c8 0ebe
00000110: f275 45bd e783 b73c 8a5e eb3c 133e 2f3d
00000120: a89c 74bd bd4e 47bc 4edb d5bc 114a eb3d
00000130: 5e43 b63d cdb5 39bd 3fa1 973d eef9 90bd
00000140: 76b0 25be 94b8 223d 5b2f 153e cac1 bfbd
00000150: 13c6 80bd 0a68 cb3d ce39 9c3d be92 b6bd
00000160: 7dc0 f6bd 1d4a b9bd c516 b8bd 7226 a13c
00000170: 04db 89bd 3023 e1bc 7f07 cabd 8497 613d
00000180: 512b 7f3d 30ee 8fbc c0a4 96bc 8f99 e33d
00000190: 9304 dabc 6746 9f3c f992 bcbd 8a2c c1bd
000001a0: 8ff4 50bc ec63 fc3b 3ab1 22be e75e 8a3d
000001b0: e692 bdbd 2e4e c83d c5b1 553d 22b2 cf3b
000001c0: b90b 423e 8ebe a63d 8035 c93d a03e b63c
000001d0: ea43 25bd 9f17 293d 2b26 cebd 126e 25be
000001e0: 32c2 f3bd 52da 1dbd e43f 0a3c a4c8 dabc
000001f0: f870 71bd 7c6e f13b dc3b 21be 882d 50bd
00000200: 9443 abbb 6f44 2d3d e9ff d13b f6e9 cabd
00000210: 57b1 fe3c 6a04 eb3b 2abb ca3d 2a71 4e3e
00000220: dfbb 313d 4da1 1f3d 6104 07be 080d 3b3d
00000230: 58c7 b93d 8358 b0bc 0060 73bd d58d 06bd
00000240: 1e49 94bc aba9 00bc c53b c6bd 3464 f0bc
00000250: dd43 083d df3f 3abc 440d e7bb b0c6 5dbd
00000260: c093 6ebd 11fc 393e 2521 213d 88f4 0a3e
00000270: 2622 e2bd 5a3b e5bb b775 903d 6c72 543d
00000280: 8a3a 04be 4c99 7bbc 7ada 633c 210c 1abe
00000290: 94a8 16be f60d 393d 014a 6bbd 22e6 33be
000002a0: acb4 a13d f60f b638 920c bcbd 7a75 e33d
000002b0: 88ec e33d a16e fc3d 7b1a 1f3e fc9b c7bd
000002c0: 26c2 0c3e f10f 1bbd 5372 66bc d208 80bd
000002d0: e81f 9d3d 607b a43d 5d8b cfbd b171 89bd
000002e0: 0059 8dbd b417 803c 9380 d0bc 5327 c13d
000002f0: b9fe 06be 0f3a 6fbd 17fa 993d 442a 14bd
00000300: 1655 71bd 1f92 05be 6281 1bbc b625 26bd
00000310: fbe2 29be 4856 e7bd a6a9 73bd 1424 413d
00000320: e4ff 353d 312a 96bd 50d7 25be a90f 7e3c
00000330: bfe1 043e 0abd 9ebd f050 9fbc da61 cf3d
00000340: 0abd 093e 858e 093e 60a5 8e3d 27c3 5fba
00000350: 5b60 a8bd 1f03 1fbe cbf2 2cbe 1517 573e
00000360: d890 343e 345f 0f3e c7b5 053d 9ddb 32bd
00000370: 8122 06be 988e ab3c 952f b93d 8190 093e
00000380: 9cf8 633c 288e 0ebe 54ce 51be 2311 8dbc
00000390: 91f6 0e3d 3315 0c3d 2de9 39bd ecbe 21bd
000003a0: 44b6 8cbd cd38 943d 6bf0 a1bc 2f45 83bd
000003b0: 7d89 983d 8ba0 32bd 165b c1bd dcbe f0bd
000003c0: cef3 c43c 9c58 de3c 5716 38be 1bc0 4e3d
000003d0: 09b6 803d 4fb0 fb3c c8aa d13c ac49 0fbe
000003e0: ccda 9e3d 289c 813d ff92 6a3d 1667 4b3d
000003f0: 84f5 323c ca6b f33c cf87 12bd 77d7 3e3e

lstm.weight_hh_l1 f4 [256, 64]
-0.1167835 -0.0006357683 -0.09444805 0.028318584 0.057107404 0.006627389 -0.12084183 0.064641796
0.040558957 0.08077091 0.001363514 -0.11065824 -0.1001163 -0.10155152 -0.018503316 0.046505272
0.0019389514 0.021341583 -0.0035156112 0.08951086 0.017657967 -0.13618043 -0.05440065 -0.014959577
0.07441706 -0.0229773 0.1523271 -0.029075278 -0.03355902 -0.033879116 0.13695054 0.10518811
-0.077545464 0.002469384 -0.10573104 0.017412417 0.092291996 -0.09048085 -0.064945385 0.052644588
0.04753305 0.06188448 -0.007502234 0.12617417 -0.094600745 -0.05190984 0.10389993 0.10219976
0.10818574 0.098061405 0.0754567 -0.02339146 0.16338976 -0.017397739 0.099940285 0.028067593
-0.10974855 0.020753305 -0.12721129 -0.07702739 -0.048077185 0.048801605 0.104937784 -0.06020143
-0.04111027 -0.006317712 0.1156621 0.101006016 0.18047002 -0.11476488 -0.053999748 -0.042060908
0.09478096 -0.02592493 -0.12071601 -0.016934626 -0.10221116 0.035261303 0.082728006 -0.019507129
0.12678617 0.092305735 0.10151638 -0.04077739 -0.092062436 0.092401445 0.01644579 0.18257077
-0.094133504 0.02116086 0.09312943 0.073938854 0.04587403 -0.11278523 0.09927029 0.05899638
0.038743317 -0.037482593 0.15753232 0.0020903738 0.06380913 0.07830346 0.07906236 0.060184363
-0.055771876 -0.028704252 -0.0055219014 -0.060937595 -0.0732662 0.051885795 0.003228589 -0.08184677
0.014790152 0.059861135 0.07372625 -0.069318 0.0012704717 -0.059338648 -0.017781474 -0.059109956
-0.036873784 0.0075667477 -0.108830966 0.06642184 -0.03542248 0.06812314 -0.04641916 0.069764234
0.016687341 0.05733555 -0.15847518 0.11315633 0.04367266 0.017579727 0.15295553 -0.058600433
0.13139835 -0.012992859 0.017410226 -0.13842319 0.08838172 -0.016013592 -0.13230805 -0.06950153
-0.051289506 0.13128628 -0.05314843 0.004666005 0.090277486 -0.14538223 -0.06917305 -0.020530224
-0.12932944 -0.081507616 -0.050225236 0.0033949448 -0.114988685 -0.10733441 -0.08825321 -0.13923313
-0.075246625 -0.04537477 0.049695805 0.06773283 0.022407893 0.01319917 -0.14801332 0.06082261
-0.068523124 -0.057295423 0.1635255 0.09448184 -0.028882585 -0.027363556 0.025740348 -0.10274294
0.17850676 -0.070604034 0.063139565 0.10806531 0.038718365 0.09452944 -0.04019006 -0.010277525
0.001866342 -0.060911395 -0.15472966 -0.035640188 0.061809976 0.094838254 0.051829062 0.08922639
0.09254314 -0.12009236 -0.118512675 0.14536953 0.01670112 0.032309305 -0.046523333 0.03451162
0.06286628 0.1015931 -0.018771851 0.020279048 -0.07486412 0.07786814 0.002206242 0.12752824
-0.19971041 0.035613596 0.12816384 -0.08193313 -0.09212856 0.01617592 -0.0880968 -0.16833423
0.0039474186 0.0746157 0.047648497 -0.09532919 -0.1574345 -0.01882122 0.10067635 -0.067894116
0.12382575 -0.03488283 0.10938441 -0.006755696 -0.12697914 0.05101098 -0.041095633 -0.010599948
-0.007733388 -0.13094099 0.040998403 -0.059910428 0.09075296 -0.039602224 -0.041700963 -0.037755493
0.1408537 0.087508544 0.13177069 0.07610354 -0.06686945 0.03638131 -0.06315772 0.07033782
0.10917615 0.079769745 -0.018095491 -0.008780444 -0.07377541 -0.0647467 -0.07542551 0.07978301
00000000: 302c efbd b0a9 26ba fb6d c1bd 60fc e73c
00000010: 74e9 693d 922a d93b ec7b f7bd eb62 843d
00000020: 2621 263d 386b a53d f0b7 b23a caa0 e2bd
00000030: c609 cdbd 3efa cfbd 4494 97bc 507c 3e3d
00000040: 6a24 fe3a 8bd4 ae3c 2b66 66bb 7851 b73d
00000050: 71a7 903c e272 0bbe 37d3 5ebd 0319 75bc
00000060: f967 983d e43a bcbc a3fb 1b3e 472f eebc
00000070: 2f75 09bd d4c4 0abd c33c 0c3e dd6c d73d
00000080: 28d0 9ebd 64d5 213b 8489 d8bd 7ca4 8e3c
00000090: 9603 bd3d 064e b9bd 1602 85bd daa1 573d
000000a0: 04b2 423d 957a 7d3d 4dd5 f5bb cd33 013e
000000b0: 09be c1bd 6a9f 54bd 7dc9 d43d 1c4e d13d
000000c0: 7c90 dd3d 6bd4 c83d 0b89 9a3d 729f bfbc
000000d0: a54f 273e b485 8ebc 7ead cc3d 02ee e53c
000000e0: d9c3 e0bd d602 aa3c ad43 02be 89c0 9dbd
000000f0: 95ec 44bd 31e4 473d 9fe9 d63d c695 76bd
00000100: 3e63 28bd cf04 cfbb 40e0 ec3d 3edc ce3d
00000110: 22cd 383e d909 ebbd d72e 5dbd 0f48 2cbd
00000120: 851c c23d 8560 d4bc f539 f7bd 7cba 8abc
00000130: 1654 d1bd 286e 103d 4d6d a93d 6acd 9fbc
00000140: 3cd4 013e ca0a bd3d d2e7 cf3d 3106 27bd
00000150: 3b8b bcbd f83c bd3d 52b9 863c d5f3 3a3e
00000160: 11c9 c0bd 8a59 ad3c a5ba be3d 416d 973d
00000170: 68e6 3b3d f1fb e6bd 394e cb3d 30a6 713d
00000180: 50b1 1e3d 5987 19bd 2750 213e a7fe 083b
00000190: 5cae 823d 905d a03d 72eb a13d e183 763d
000001a0: 0d71 64bd 2e25 ebbc 11f1 b4bb b399 79bd
000001b0: 970c 96bd 3386 543d bc96 533b 489f a7bd
000001c0: 6552 723c f330 753d cafd 963d 98f6 8dbd
000001d0: f585 a63a 150d 73bd 74aa 91bc 481d 72bd
000001e0: f708 17bd 7bf2 f73b c5e2 debd 2c08 883d
000001f0: 2a17 11bd 2584 8b3d 0422 3ebd 8de0 8e3d
00000200: e4b3 883c afd8 6a3d 5147 22be 82be e73d
00000210: 1ae2 323d 5c03 903c 60a0 1c3e 0207 70bd
00000220: 4a8d 063e 00e0 54bc e49f 8e3c cfbe 0dbe
00000230: 7a01 b53d f02e 83bc c37b 07be d156 8ebd
00000240: f214 52bd e96f 063e 2bb2 59bd 49e5 983b
00000250: 67e3 b83d 14df 14be 9aaa 8dbd 002f a8bc
00000260: f06e 04be 77ed a6bd fab8 4dbd b97d 5e3b
00000270: 307f ebbd 25d2 dbbd 19be b4bd 2193 0ebe
00000280: e71a 9abd e5da 39bd d48d 4b3d 83b7 8a3d
00000290: c290 b73c 5541 583c ce90 17be 2121 793d
000002a0: da55 8cbd 9bae 6abd 3b73 273e b27f c13d
000002b0: 2c9b ecbc 8929 e0bc 6cdd d23c e46a d2bd
000002c0: 7aca 363e d998 90bd 514f 813d 5851 dd3d
000002d0: 2697 1e3d a798 c13d 559e 24bd 1063 28bc
000002e0: 0ca0 f43a 3a7e 79bd 7471 1ebe 72fb 11bd
000002f0: 752c 7d3d 8f3a c23d b64a 543d 53bc b63d
00000300: 4287 bd3d fcf2 f5bd c6b6 f2bd c0db 143e
00000310: cad0 883c c356 043d 408f 3ebd 0e5c 0d3d
00000320: 09c0 803d 0b10 d03d 6dc7 99bc 3f20 a63c
00000330: 5c52 99bd 5579 9f3d 9996 103b c396 023e
00000340: e380 4cbe 90df 113d 623d 033e 8fcc a7bd
00000350: e6ad bcbd 5d83 843c 186c b4bd cf5f 2cbe
00000360: 5959 813b 1ed0 983d 122b 433d f33b c3bd
00000370: 8236 21be f62e 9abc 672f ce3d 120c 8bbd
00000380: 5b98 fd3d 4ce1 0ebd ef04 e03d e35e ddbb
00000390: d206 02be e4f0 503d e553 28bd 67ab 2dbc
000003a0: 5c68 fdbb 6515 06be f1ed 273d a364 75bd
000003b0: b0dc b93d f135 22bd a1ce 2abd 81a5 1abd
000003c0: f43b 103e ae37 b33d e5ee 063e 2cdc 9b3d
000003d0: daf2 88bd 9204 153d d658 81bd 460d 903d
000003e0: bf97 df3d 525e a33d ff3c 94bc dadb 0fbc
000003f0: 9017 97bd eb99 84bd b178 9abd 4665 a33d

lstm.bias_ih_l1 f4 [256]
0.01766286 0.11416619 0.13891536 -0.08782965 0.0569999 0.05097338 0.14220731 -0.06886626
-0.041019093 -0.048310127 0.06604317 -0.06611175 0.08924753 -0.057285275 0.030028207 0.0035806631
-0.028972287 -0.08333718 0.07355826 0.10934761 -0.0011978325 0.06982821 -0.11625381 0.030462109
-0.022739874 0.16758642 0.058746383 -0.06178178 0.06806003 0.08250296 0.060902476 0.11606665
0.09705624 -0.00057859864 0.06662364 0.051493865 0.019832063 0.12250417 0.040880796 0.121286005
-0.032012973 -0.040184956 -0.13202755 0.028451787 0.06246982 -0.010247191 0.033253916 0.080122046
-0.07123263 0.13852388 -0.044650104 0.06996604 0.031728167 -0.09420813 0.028084086 0.1845697
0.06924545 0.018353732 0.032888934 0.07907653 -0.12671871 -0.12644513 -0.12705201 0.08480689
-0.11390294 -0.024110507 0.09303402 -0.03989498 0.002545981 0.10338291 0.115576684 -0.011094607
-0.047402754 -0.073335394 0.029963505 0.1231204 0.05606253 0.09600312 0.015406269 0.002963453
0.109627485 0.02417151 0.0698012 0.053237766 0.11614096 0.1396422 -0.020544983 -0.024197115
0.027150538 0.095980085 0.10229902 0.0017688351 0.01292046 0.14892438 0.11802366 0.14688875
0.033170033 -0.103330895 0.020304818 -0.031055855 0.13081321 -0.071051046 -0.039444946 0.0735587
0.022851098 -0.111998 0.023699595 -0.080759026 0.09392192 -0.017649274 0.1273512 -0.046972655
0.1045231 0.07446247 0.12192146 -0.12168619 0.010574496 -0.10272479 -0.096651934 -0.002618619
0.124855556 -0.022767346 -0.0136244325 0.0098321205 0.050022095 0.0034561332 -0.12019768 0.010930805
0.10463398 0.1584253 0.01172255 0.10127588 0.04916815 0.10857504 0.18378031 -0.13451543
0.13107829 -0.06344274 -0.106188186 -0.049426965 0.08972946 -0.10174128 0.046223275 -0.054361433
-0.01855129 0.028394556 0.06409188 0.013704893 -0.06316411 0.08482855 -0.05366282 0.14181554
0.03362547 -0.06037473 0.036596294 -0.06387288 -0.0017016565 -0.051336 -0.017487178 -0.17443195
0.08196991 0.0998667 0.123751864 -0.07813914 -0.06793654 -0.056772348 -0.042472396 0.17432214
-0.04657828 -0.103342615 0.019104473 0.116036154 0.1090602 -0.034818117 0.12306316 -0.09410095
-0.13036826 -0.021231558 -0.120548554 0.066264495 0.035289474 -0.013024492 -0.008980612 -0.03280778
0.0839099 -0.015563053 -0.043315608 -0.07874287 0.014863104 -0.0054974733 -0.040704783 -0.0026117058
-0.14900282 -0.05161753 -0.027078716 -0.076463826 -0.09503454 0.06384701 -0.043356605 -0.09246885
0.07852074 -0.053104077 0.14212422 0.029889649 -0.12772404 0.13562147 -0.12690662 -0.0959776
-0.097533256 0.025328167 -0.13024068 -0.015989838 0.04251125 -0.019780772 0.11720378 -0.064637706
0.07075731 0.0009680385 -0.08175064 0.107583925 -0.03926063 -0.06096979 0.09231096 -0.07117282
-0.06909475 -0.060638472 0.058224283 0.10210389 -0.01937691 -0.09748283 -0.14626491 0.073945686
-0.06079161 -0.047230456 0.049493544 -0.084695496 0.0169871 -0.05571902 0.0064648157 0.12676138
-0.07097585 0.07392999 0.14878452 0.11027061 0.062488243 0.124964096 0.13581464 -0.03370102
-0.025323017 0.001828156 0.075674 -0.039435796 0.033146843 0.1072999 0.08461877 -9.0821726e-05
00000000: b4b1 903c f7cf e93d d43f 0e3e 08e0 b3bd
00000010: ba78 693d 77c9 503d cb9e 113e c109 8dbd
00000020: a303 28bd d7e0 45bd a441 873d 9965 87bd
00000030: 69c7 b63d f7a3 6abd b7fd f53c 8fa9 6a3b
00000040: 4a57 edbc afac aabd b7a5 963d a4f1 df3d
00000050: 9700 9dba 1802 8f3d 7a16 eebd ac8b f93c
00000060: f948 babc c69b 2b3e 0ca0 703d e40e 7dbd
00000070: 0f63 8b3d 50f7 a83d e074 793d 5ab4 ed3d
00000080: 6cc5 c63d 19ad 17ba fa71 883d 3beb 523d
00000090: da76 a23c 77e3 fa3d 9f72 273d cc64 f83d
000000a0: 0920 03bd fb98 24bd 3b32 07be b913 e93c
000000b0: 5be0 7f3d d6e3 27bc 4235 083d 0717 a43d
000000c0: 6ae2 91bd 34d9 0d3e 07e3 36bd 5b4a 8f3d
000000d0: 65f5 013d 31f0 c0bd 9910 e63c d7ff 3c3e
000000e0: 8fd0 8d3d 915a 963c 8cb6 063d e0f2 a13d
000000f0: 8dc2 01be d57a 01be ec19 02be 3caf ad3d
00000100: f245 e9bd 6683 c5bc 9f88 be3d eb68 23bd
00000110: 79da 263b 6bba d33d 78b3 ec3d 28c6 35bc
00000120: 6429 42bd de30 96bd 0676 f53c 8c26 fc3d
00000130: d3a1 653d 499d c43d 936a 7c3c 7e36 423b
00000140: 6084 e03d 5503 c63c eef3 8e3d d80f 5a3d
00000150: 50db ed3d 5dfe 0e3e f44d a8bc 0739 c6bc
00000160: ce6a de3c 3591 c43d 2682 d13d 42d8 e73a
00000170: 56b0 533c a27f 183e 63b6 f13d 016a 163e
00000180: 4ddd 073d 269f d3bd 4a56 a63c d968 febc
00000190: e6f3 053e 3683 91bd 0691 21bd f2a5 963d
000001a0: 3a32 bb3c 355f e5bd a725 c23c fd64 a5bd
000001b0: 235a c03d 3695 90bc 5a68 023e 6666 40bd
000001c0: 3510 d63d c87f 983d f5b1 f93d 9c36 f9bd
000001d0: a740 2d3c 6061 d2bd 73f1 c5bd 239d 2bbb
000001e0: 45b4 ff3d 9682 babc 0339 5fbc e716 213c
000001f0: f8e3 4c3d 4b80 623b 342a f6bd 1e17 333c
00000200: 574a d63d 3e3a 223e f00f 403c bb69 cf3d
00000210: 8b64 493d 975c de3d e830 3c3e 6abe 09be
00000220: 6339 063e 44ee 81bd 3179 d9bd ee73 4abd
00000230: 14c4 b73d bb5d d0bd 9e54 3d3d 18aa 5ebd
00000240: e0f8 97bc b39b e83c 9b42 833d 7d8a 603c
00000250: 2f5c 81bd 97ba ad3d 8ccd 5bbd 1838 113e
00000260: dcba 093d 7e4b 77bd ffe5 153d c9cf 82bd
00000270: 1e0a dfba b345 52bd 4541 8fbc 4a9e 32be
00000280: d7df a73d ea86 cc3d 9e71 fd3d 6a07 a0bd
00000290: 5022 8bbd 1f8a 68bd 89f7 2dbd 8181 323e
000002a0: dec8 3ebd 4ba5 d3bd fc80 9c3c 5da4 ed3d
000002b0: f45a df3d 719d 0ebd 8a08 fc3d 00b8 c0bd
000002c0: 427f 05be ceed adbc 29e2 f6bd aeb5 873d
000002d0: b28b 103d ae64 55bc 6b23 13bc 7361 06bd
000002e0: f4d8 ab3d 2dfc 7ebc b56b 31bd f143 a1bd
000002f0: 6084 733c 2624 b4bb 0fba 26bd 2729 2bbb
00000300: 3294 18be e76c 53bd 2fd4 ddbc 1199 9cbd
00000310: 78a1 c2bd 39c2 823d b296 31bd 4f60 bdbd
00000320: 7bcf a03d a983 59bd 0389 113e 23db f43c
00000330: 17ca 02be 5be0 0a3e cff3 01be e78f c4bd
00000340: 84bf c7bd 047d cf3c d05d 05be 1ffd 82bc
00000350: 4720 2e3d 490b a2bc 8908 f03d c660 84bd
00000360: 35e9 903d f7c3 7d3a e16c a7bd f654 dc3d
00000370: c1cf 20bd 75bb 79bd 870d bd3d 0ec3 91bd
00000380: 8c81 8dbd 0c60 78bd 967c 6e3d d81b d13d
00000390: 53bc 9ebc 14a5 c7bd 78c6 15be d670 973d
000003a0: a000 79bd b974 41bd beb9 4a3d d574 adbd
000003b0: 8828 8b3c a139 64bd ced6 d33b bccd 013e
000003c0: c95b 91bd 9b68 973d f85a 183e 8fd5 e13d
000003d0: acf3 7f3d 2ded ff3d fe12 0b3e 150a 0abd
000003e0: 3772 cfbc bc9e ef3a f8fa 9a3d 6e87 21bd
000003f0: fcc4 073d 0dc0 db3d 9b4c ad3d 8b77 beb8

lstm.bias_hh_l1 f4 [256]
0.017477904 1.0648262e-05 0.11576467 -0.041546553 0.101450145 0.0144655425 -0.038736973 0.11259003
-0.044879947 0.11919895 0.03430361 0.15009426 0.11455513 0.13081358 -0.0045601116 -0.01399452
-0.078105025 0.0050214245 0.13439037 0.028892562 0.087695554 -0.11851439 0.056863178 -0.06443511
0.04012832 -0.061288662 0.0052538184 -0.048555046 -0.0214907 0.19214976 0.01638511 0.11499888
-0.0064221458 -0.026864411 -0.101800956 0.049044635 0.22387552 -0.025003199 -0.033455875 -0.074493945
-0.06760425 0.078088455 0.01720539 -0.03010852 0.05489071 -0.022663655 0.029151866 0.020987239
0.03753074 -0.06617784 0.009974666 -0.13110301 0.17946145 0.0702439 0.06938021 0.13363077
-0.05510634 0.14914908 0.082148574 0.08486278 0.10502712 0.0073429025 -0.07223737 0.052956697
-0.042542815 -0.05441896 0.025510725 0.00375807 -0.11939647 -0.060680836 0.16439718 -0.021950556
0.0747623 -0.08729476 0.033592362 0.035730302 0.14480515 0.050497048 0.021231987 -0.12190579
-0.07193729 -0.10180806 0.11777506 0.08471657 0.150134 -0.0002736331 0.12196363 0.02740588
-0.0038725552 0.097631745 0.041116845 0.15349561 0.029117646 0.02817694 0.10946778 0.039966542
0.05280383 0.08852081 0.09120762 -0.019641237 0.22974554 0.10121545 -0.059175186 0.1105355
-0.032687563 -0.05821773 -0.10812309 0.12471381 -0.10081615 0.015633767 -0.04952584 0.017949142
-0.10453348 -0.09871716 0.14706334 -0.0044676582 0.15334202 -0.08904084 -0.02699372 0.2149397
-0.025667945 -0.03481868 0.14987478 -0.07132157 0.058551244 -0.10750776 -0.0006117023 -0.046351768
-0.07885184 0.17991553 -0.12180433 -0.03555775 0.10726497 -0.071637474 0.056720953 0.0679646
-0.049892846 -0.026119681 -0.041110605 -0.15423156 0.11275715 -0.04054243 -0.14400402 0.006662814
-0.031754434 0.06971327 0.1367063 0.08127795 0.033187125 0.12328658 0.12981437 0.10446897
-0.13775356 -0.07803659 -0.05266067 0.095220104 0.04875867 0.02769554 0.01508788 -0.104692645
0.10450473 0.12893976 0.17726195 -0.12254214 0.16714004 -0.036164794 0.029329048 -0.012294023
-0.17373459 0.0439262 0.0074997535 0.08266523 -0.012626423 0.007924482 -0.013269718 -0.10532014
0.049608994 -0.021665417 -0.05891939 -0.0069965483 -0.18300082 0.024841147 0.16175772 -0.0977558
-0.14417112 0.06754047 -0.1211901 -0.06576692 -0.122644305 0.02517237 -0.03545284 -0.0767891
-0.13690732 -0.0048037292 0.099123396 -0.053493705 -0.014970145 -0.017159684 -0.0376598 -0.05147277
-0.09033922 -0.09379048 0.16761984 -0.063677356 -0.047870424 0.052801523 -0.049648575 0.07817349
0.12004257 -0.030049011 0.09927669 -0.036967184 -0.06061366 -0.017720366 0.049212206 -0.038478278
0.12679738 0.07056963 -0.0883733 0.16052893 -0.04102153 0.098026276 0.014204076 -0.007066407
-0.039543424 -0.09258021 0.028003676 0.08999919 0.20443691 0.064982735 -0.11863162 0.06529061
0.100565664 0.036008768 0.07194565 -0.03474281 0.11829465 0.044847492 0.016545545 -0.07620946
-0.041608073 -0.0017401201 -0.066111535 0.06585907 -0.028628206 0.0074806283 -0.042355303 0.16316414
-0.0020884383 0.09880556 0.039939493 0.021601511 -0.016151048 0.11077704 -0.08319671 0.048941005
00000000: d22d 8f3c f0a5 3237 0716 ed3d b82c 2abd
00000010: 18c5 cf3d e200 6d3c a9aa 1ebd 9a95 e63d
00000020: 09d4 37bd 941e f43d f181 0c3d 4fb2 193e
00000030: e19b ea3d fff3 053e fd6c 95bb 4549 65bc
00000040: 87f5 9fbd c38a a43b a19d 093e 18b0 ec3c
00000050: ba99 b33d acb7 f2bd 5de9 683d 8ef6 83bd
00000060: 985d 243d d209 7bbd 3928 ac3b a8e1 46bd
00000070: 440d b0bc e8c2 443e 113a 863c 8884 eb3d
00000080: dd70 d2bb c112 dcbc 057d d0bd 07e3 483d
00000090: a03f 653e 82d3 ccbc 0709 09bd 4890 98bd
000000a0: 1974 8abd d7ec 9f3d 51f2 8c3c 25a6 f6bc
000000b0: 15d5 603d 21a9 b9bc e5cf ee3c 6eed ab3c
000000c0: d5b9 193d 3f88 87bd c86c 233c de3f 06be
000000d0: bec4 373e 09dc 8f3d 3617 8e3d 81d6 083e
000000e0: 30b7 61bd 89ba 183e 833d a83d 8acc ad3d
000000f0: 7518 d73d bb9c f03b 30f1 93bd 1fe9 583d
00000100: 6041 2ebd 6ae6 5ebd defb d03c f449 763b
00000110: 2386 f4bd 788c 78bd bc57 283e a7d1 b3bc
00000120: fa1c 993d 98c7 b2bd 2598 093d f059 123d
00000130: cd47 143e fed5 4e3d b4ee ad3c bea9 f9bd
00000140: dc53 93bd bf80 d0bd 0d34 f13d e27f ad3d
00000150: babc 193e 6a76 8fb9 11c8 f93d 4c82 e03c
00000160: b2ca 7dbb 27f3 c73d 236a 283d f42d 1d3e
00000170: 2188 ee3c 53d3 e63c a530 e03d f5b3 233d
00000180: d448 583d 664a b53d 10cb ba3d a9e6 a0bc
00000190: 6a42 6b3e 0c4a cf3d ae61 72bd 7060 e23d
000001a0: 65e3 05bd b775 6ebd a36f ddbd f469 ff3d
000001b0: b378 cebd 6312 803c 9bdb 4abd 140a 933c
000001c0: a615 d6bd 392c cabd c697 163e 6f65 92bb
000001d0: b105 1d3e 0b5b b6bd ef21 ddbc 2719 5c3e
000001e0: 9545 d2bc 089e 0ebd c678 193e 0b11 92bd
000001f0: 6ed3 6f3d 072d dcbd a55a 20ba 5adb 3dbd
00000200: 137d a1bd c73b 383e 8c74 f9bd 01a5 11bd
00000210: bdad db3d abb6 92bd 3b54 683d 0631 8b3d
00000220: 715c 4cbd f1f8 d5bc 9863 28bd e1ee 1dbe
00000230: 38ed e63d d20f 26bd ca75 13be bc53 da3b
00000240: f010 02bd d5c5 8e3d bcfc 0b3e 0e75 a63d
00000250: 39ef 073d ad7d fc3d 0fee 043e d4f3 d53d
00000260: 450f 0dbe a6d1 9fbd b7b2 57bd c202 c33d
00000270: 2cb7 473d c2e1 e23c 2833 773c 1969 d6bd
00000280: 9306 d63d c908 043e 2884 353e 60f7 fabd
00000290: c226 2b3e 8921 14bd 7943 f03c df6c 49bc
000002a0: 7be7 31be f6eb 333d 7ec0 f53b 634c a93d
000002b0: 0edf 4ebc b0d5 013c 3b69 59bc 16b2 d7bd
000002c0: cd32 4b3d ac7b b1bc 7555 71bd 4d43 e5bb
000002d0: 9164 3bbe a97f cb3c d1a3 253e 3134 c8bd
000002e0: 98a1 13be a852 8a3d 8432 f8bd cfb0 86bd
000002f0: f02c fbbd 4936 ce3c ff36 11bd 9b43 9dbd
00000300: 6f31 0cbe 9a68 9dbb 3501 cb3d 371c 5bbd
00000310: 5745 75bc 7792 8cbc 2a41 1abd 1cd5 52bd
00000320: c503 b9bd 3915 c0bd 89a4 2b3e 4669 82bd
00000330: c713 44bd 6946 583d 4e5c 4bbd 6c19 a03d
00000340: e1d8 f53d 5829 f6bc 9451 cb3d e76a 17bd
00000350: 0746 78bd 4d2a 91bc bd92 493d 669b 1dbd
00000360: 2cd7 013e cf86 903d 10fd b4bd b261 243e
00000370: 3106 28bd 00c2 c83d 36b8 683c 518d e7bb
00000380: 49f8 21bd b19a bdbd f767 e53c 7f51 b83d
00000390: e957 513e ab15 853d 23f5 f2bd 15b7 853d
000003a0: 5ff5 cd3d ee7d 133d 3e58 933d 7a4e 0ebd
000003b0: 7744 f23d 01b2 373d 868a 873c b513 9cbd
000003c0: 3a6d 2abd be14 e4ba 7c65 87bd 1fe1 863d
000003d0: b385 eabc 0f20 f53b c17c 2dbd 8014 273e
000003e0: 2ede 08bb 925a ca3d 9897 233d a7f5 b03c
000003f0: 344f 84bc 13df e23d 0963 aabd 5d76 483d
