models/lstm_def_model.pt (torch, 245045 bytes, 9 tensors)

lstm.weight_ih_l0 f4 [256, 38]
0.14345454 0.049910508 -0.032797173 0.1697584 0.068100154 -0.035196375 0.029930884 0.114752725
0.18195981 -0.110384844 0.08156836 0.17208686 0.15452355 0.03891992 0.1190872 0.014192046
0.09843836 0.004733002 -0.07437053 0.032965396 -0.040966216 0.0083559025 -0.027637305 0.100025736
-0.07908398 -0.057626292 -0.29621273 -0.10874077 -0.009613582 -0.14737025 0.072789565 -0.13809144
0.04470405 0.0029870947 -0.014528945 0.1279082 0.038394347 0.13560334 0.034648035 -0.0867556
0.13700998 -0.08853846 0.16249129 0.018712545 0.07489903 -0.11789626 0.08798724 0.014045702
0.29519325 -0.14640361 -0.06491944 -0.019055178 -0.034226045 0.10007411 0.038138196 0.07523873
0.06512184 -0.059669327 0.028640077 -0.18176536 0.001509976 -0.111757584 0.0062374617 -0.043047786
0.030704547 0.11774708 -0.03246438 -0.07233893 -0.0053720316 -0.05123995 0.1634596 0.082944505
0.1889101 -0.090842575 -0.13985765 -0.09908256 0.007765163 0.030630585 0.031973656 0.055858545
-0.07733651 -0.069208935 0.12187087 -0.021733671 0.12104299 -0.0073765595 0.09912702 -0.10216327
-0.021162093 0.11817876 0.09574901 -0.018482551 0.012418597 0.06848498 -0.13394706 -0.08471134
0.1749952 -0.0138925435 -0.030450135 -0.124362394 -0.12506303 0.031225458 0.025783781 -0.113523796
0.0031707934 -0.050314985 -0.24232374 -0.124810144 -0.20263436 -0.15453582 0.18755381 0.03956556
0.07446817 -0.09051827 -0.14490126 -0.1564015 0.053638496 -0.086627945 -0.12907273 -0.13924745
-0.09711741 -0.1457828 -0.10943947 -0.25793782 -0.08603853 -0.11075917 -0.2022873 -0.14676706
0.008584537 0.08361696 0.13400517 0.08678576 -0.16040531 0.020422988 -0.22118524 -0.20199366
-0.24868302 -0.096550845 -0.022747707 -0.027305484 0.11924238 -0.09436737 0.11809302 -0.038715158
0.20892684 -0.00826618 0.19806491 0.1172374 0.15758847 -0.08242627 0.031600308 -0.045240182
-0.07610828 -0.06927497 0.027941562 -0.025914662 0.06434873 -0.094233885 0.0790672 -0.09149448
0.059300132 -0.05632394 0.05074585 -0.26164025 0.033774216 -0.031225888 -0.052236676 0.118538186
0.03614391 -0.027030163 -0.06925991 -0.18787351 0.014562175 -0.14546715 -0.03957618 -0.053588394
-0.120200604 0.04457906 0.12382597 -0.17498955 0.08038107 0.17633416 -0.009209767 0.0046839993
0.07998644 0.11669882 0.012407955 0.03258787 0.015597715 0.06527975 -0.034557134 -0.04464138
0.11978508 0.14797965 0.044048898 0.003956173 -0.05103109 -0.0095094 0.036210164 0.009659205
-0.16279134 -0.0063959123 0.13052344 0.016402768 -0.03701519 -0.12853442 -0.08217633 -0.17253305
0.033437934 0.022917282 0.07465878 0.049596164 -0.13687094 -0.08226159 0.0057168202 0.12091869
-0.046641853 0.009906347 0.017607033 0.0033081728 -0.0052319043 0.054676943 -0.04656789 -0.035180815
0.05568249 0.15720674 0.15863629 0.11441681 -0.036414694 -0.12449498 -0.1030536 0.091125704
0.13321957 0.09499685 0.015276313 -0.021779628 -0.03942952 -0.1207457 -0.12755716 -0.15723962
0.054479904 -0.11632655 -0.053584468 -0.05212079 0.024400143 -0.078412324 -0.02928987 0.077650174
0.027734336 0.13424398 -0.003793009 -0.037993565 -0.016914668 -0.060593426 -0.010360621 -0.16977286
00000000: bfe5 123e f66e 4c3d 5456 06bd 25d5 2d3e
00000010: 1878 8b3d 132a 10bd 9d31 f53c 7a03 eb3d
00000020: ac53 3a3e 7311 e2bd 500d a73d 8a37 303e
00000030: 6c3b 1e3e 7e6a 1f3d fde3 f33d c185 683c
00000040: 0d9a c93d 4c17 9b3b 944f 98bd b906 073d
00000050: 31cc 27bd 32e7 083c a167 e2bc 4bda cc3d
00000060: c8f6 a1bd 8c09 6cbd 32a9 97be 7bb3 debd
00000070: 4982 1dbc 3ae8 16be b212 953d d867 0dbe
00000080: 981b 373d 22c3 433b d00a 6ebc 5efa 023e
00000090: 6443 1d3d 9adb 0a3e 19eb 0d3d ecac b1bd
000000a0: 584c 0c3e a753 b5bd 1e64 263e 0d4b 993c
000000b0: aa64 993d 9873 f1bd a732 b43d f21f 663c
000000c0: 9223 973e d4ea 15be 7cf4 84bd 9b19 9cbc
000000d0: 9c30 0cbd a8f3 cc3d cc36 1c3d c316 9a3d
000000e0: 995e 853d d367 74bd 989e ea3c b320 3abe
000000f0: 63ea c53a 29e1 e4bd 9f63 cc3b e052 30bd
00000100: 1a88 fb3c 6225 f13d 5ff9 04bd 6f26 94bd
00000110: de07 b0bb fbe0 51bd f461 273e cfde a93d
00000120: a671 413e ac0b babd d836 0fbe cceb cabd
00000130: e972 fe3b feec fa3c cff6 023d eecb 643d
00000140: 9b62 9ebd 6abd 8dbd 6f97 f93d d00a b2bc
00000150: 63e5 f73d 11b7 f1bb 1b03 cb3d fa3a d1bd
00000160: 205c adbc b507 f23d 0f18 c43d b868 97bc
00000170: 5f77 4b3c da41 8c3d 6b29 09be 247d adbd
00000180: f131 333e 8d9d 63bc 9072 f9bc b6b1 febd
00000190: 8610 00be 88cc ff3c 8238 d33c 2a7f e8bd
000001a0: 16cd 4f3b 1617 4ebd b723 78be 769c ffbd
000001b0: 627f 4fbe a33e 1ebe 1b0e 403e 7f0f 223d
000001c0: c582 983d a561 b9bd ff60 14be b727 20be
000001d0: 0ab4 5b3d fe69 b1bd a42b 04be e296 0ebe
000001e0: 7ee5 c6bd 1648 15be cd21 e0bd 6d10 84be
000001f0: f834 b0bd b4d5 e2bd 6724 4fbe 1b4a 16be
00000200: 28a6 0c3c 5e3f ab3d a738 093e bcbc b13d
00000210: 4a41 24be 1c4e a73c 627e 62be 6dd7 4ebe
00000220: c3a6 7ebe 73bc c5bd 6659 babc c0af dfbc
00000230: 5935 f43d ae43 c1bd c1da f13d c993 1ebd
00000240: ebf0 553e df6e 07bc 87d1 4a3e 291a f03d
00000250: df5e 213e 1bcf a8bd 536f 013d c54d 39bd
00000260: a8de 9bbd 09e0 8dbd b4e5 e43c fc4a d4bc
00000270: 44c9 833d b2fd c0bd fced a13d 7561 bbbd
00000280: b2e4 723d efb3 66bd e1da 4f3d b6f5 85be
00000290: d556 0a3d 6fcd ffbc 20f6 55bd 26c4 f23d
000002a0: a30b 143d 5c6e ddbc 24d8 8dbd ea61 40be
000002b0: 3096 6e3c 57f5 14be a21a 22bd 817f 5bbd
000002c0: bc2b f6bd 8898 363d 7898 fd3d 7630 33be
000002d0: d59e a43d f190 343e 90e4 16bc 3c7c 993b
000002e0: eecf a33d caff ee3d bc4a 4b3c dc7a 053d
000002f0: 8f8d 7f3c 64b1 853d c88b 0dbd e1d9 36bd
00000300: e151 f53d fa87 173e 9e6c 343d c9a2 813b
00000310: fa05 51bd 51cd 1bbc 1c51 143d a441 1e3c
00000320: c6b2 26be cd94 d1bb f0a7 053e 195f 863c
00000330: 3d9d 17bd 879e 03be 104c a8bd 81ac 30be
00000340: 37f6 083d 06bd bb3c b4e6 983d 5925 4b3d
00000350: e527 0cbe c478 a8bd 2a54 bb3b 38a4 f73d
00000360: 870b 3fbd 3b4e 223c a03c 903c eecd 583b
00000370: 6570 abbb eef4 5f3d f9bd 3ebd c219 10bd
00000380: 5313 643d cefa 203e 8d71 223e 5c53 ea3d
00000390: 9327 15bd 39f7 febd c40d d3bd 1da0 ba3d
000003a0: b66a 083e b58d c23d 8049 7a3c 316b b2bc
000003b0: d980 21bd 8649 f7bd 589e 02be 6c03 21be
000003c0: 5226 5f3d 9d3c eebd 637b 5bbd 9c7c 55bd
000003d0: cfe2 c73c a496 a0bd 4ff1 efbc 0e07 9f3d
000003e0: 1e33 e33c 4177 093e 2294 78bb 249f 1bbd
000003f0: a190 8abc d030 78bd 98bf 29bc f0d8 2dbe

lstm.weight_hh_l0 f4 [256, 64]
-0.016636085 0.16731657 0.0898168 -0.14204678 -0.15371831 0.028803391 -0.164482 0.00307417
0.083927035 0.12758517 0.0052367635 0.053241666 0.06116599 0.11389118 0.06973944 -0.08123073
-0.15039094 0.07149661 0.1715467 -0.0733799 0.10744808 0.017940998 0.012659992 0.123217136
0.13162284 -0.07637175 -0.118904516 0.0701439 0.053072374 -0.05601743 0.17335466 0.01261979
-0.07361437 0.05789862 -0.25672773 -0.059048984 -0.06540827 0.1572289 -0.16472618 0.08468253
-0.12409623 -0.0042702835 -0.1778638 -0.03977671 0.06418171 -0.11180345 -0.14285718 -0.042823438
0.026713008 0.026871987 -0.04422162 0.021694124 -0.017737519 0.12463669 -0.16299775 0.05665661
-0.13553204 -0.052911863 0.12469655 0.0019618724 -0.10001863 0.008966017 -0.0711274 0.077970475
0.071260504 -0.28063443 -0.06210987 0.091344856 0.20748994 -0.1051995 -0.004681193 -0.059210327
0.06388687 -0.009470922 0.19076104 0.03907121 0.05656496 0.034166418 -0.0016384899 0.09419463
-0.14025213 -0.05501155 -0.04899834 -0.12618335 0.010863995 0.032882236 0.107541196 0.14959311
0.1907242 0.006625157 0.01927641 -0.019982217 -0.024759397 0.0021563652 0.10068833 0.06213602
0.23414572 -0.05000056 -0.07464525 -0.015425964 0.014647365 -0.019599162 -0.007612566 -0.073793255
0.19397709 0.059508976 -0.05565267 0.075593516 -0.06986672 -0.042859644 0.07239184 0.115597494
0.16676818 0.06049078 0.16170669 -0.14211906 0.19997855 -0.04897352 0.05982487 0.059254322
0.0050224815 -0.10544164 0.093384065 0.054304726 -0.08138527 0.002688426 -0.12849332 0.059536267
-0.03482103 0.15961246 0.03345369 0.09207084 -0.047411796 -0.12274989 0.022432283 -0.008720971
0.027884657 0.11975172 0.11219705 0.10084242 -0.15526763 -0.01982804 -0.043284807 -0.11857467
0.017943915 0.003833266 -0.028654035 0.06640914 -0.040099155 0.00935241 0.095857926 0.0045595895
0.029461483 0.18966 -0.17475766 0.076698676 -0.064983204 0.029113483 0.17612548 -0.05610545
-0.37950408 0.012755244 0.0451665 0.072259985 -0.057460885 0.20394713 -0.080322266 -0.07886781
-0.14996018 -0.08826064 -0.12317429 -0.023552114 -0.09943617 -0.0032431537 0.10987593 0.04705029
0.038017582 -0.17120942 -0.08511352 0.007168499 0.028540088 -0.17161722 0.09874263 0.12668999
0.107552506 0.022055142 0.21183546 0.044963107 0.090519294 0.029326897 0.0041923625 -0.05559723
0.14037283 0.11189848 0.10557661 0.16472259 0.05107005 -0.19501764 0.2005257 0.18377058
0.17159888 -0.004413546 0.07359955 -0.02399414 0.03216474 -0.1369793 -0.06655045 -0.1898818
-0.1442042 0.0043481267 -0.20819102 -0.06849529 0.034765683 -0.04683054 0.029504074 -0.086407214
-0.06725132 -0.051773865 -0.1482389 0.016684214 -0.08781203 -0.020671453 0.069556616 -0.07536331
-0.09111071 -0.09119047 0.2205351 -0.00048699282 -0.12184933 0.22719318 -0.23494959 -0.12439465
0.033702467 0.06695266 -0.049071625 0.09144965 0.049212947 -0.064011484 0.27973887 0.18458936
0.17934546 0.100916795 0.04310496 -0.11736963 0.087656386 -0.1991489 0.18461916 -0.16880347
0.008672077 -0.1321123 -0.011422832 -0.26403955 0.11708036 -0.11524145 0.028235005 0.15606476
00000000: 6648 88bc 0955 2b3e dff1 b73d b674 11be
00000010: 5568 1dbe 17f5 eb3c f86d 28be 0478 493b
00000020: f0e1 ab3d b0a5 023e 2899 ab3b ef13 5a3d
00000030: 3089 7a3d c73f e93d 8dd3 8e3d 4c5c a6bd
00000040: 1500 1abe d16c 923d f0a9 2f3e 3348 96bd
00000050: bd0d dc3d 00f9 923c db6b 4f3c 4459 fc3d
00000060: 23c8 063e cb68 9cbd 3684 f3bd 9ba7 8f3d
00000070: 6b62 593d 8872 65bd e283 313e 3cc3 4e3c
00000080: 21c3 96bd 1a27 6d3d d171 83be 59dd 71bd
00000090: c5f4 85bd 9d00 213e fbad 28be 096e ad3d
000000a0: 2a26 febd bced 8bbb ee21 36be e7ec 22bd
000000b0: b371 833d 35f9 e4bd 2749 12be a167 2fbd
000000c0: 3dd5 da3c a422 dc3c bb21 35bd e0b7 b13c
000000d0: 464e 91bc 8541 ff3d e2e8 26be c310 683d
000000e0: e9c8 0abe 1cba 58bd e860 ff3d c292 003b
000000f0: 91d6 ccbd 33e6 123c 3eab 91bd fcae 9f3d
00000100: 07f1 913d 51af 8fbe eb66 7ebd 0313 bb3d
00000110: 3e78 543e d672 d7bd b164 99bb 8786 72bd
00000120: 1fd7 823d ed2b 1bbc dd56 433e 2209 203d
00000130: a9b0 673d 16f2 0b3d 99c2 d6ba 1de9 c03d
00000140: 419e 0fbe cb53 61bd 7cb2 48bd 3536 01be
00000150: e6fe 313c 86af 063d 8f3e dc3d f02e 193e
00000160: 344d 433e d817 d93b 90e9 9d3c bfb1 a3bc
00000170: 38d4 cabc ce51 0d3b af35 ce3d 5782 7e3d
00000180: e5c3 6f3e 63cd 4cbd 9cdf 98bd 2fbd 7cbc
00000190: 80fb 6f3c 6c8e a0bc d572 f9bb eb20 97bd
000001a0: eea1 463e afbf 733d 0ef4 63bd c6d0 9a3d
000001b0: 4816 8fbd 988d 2fbd 2c42 943d 61be ec3d
000001c0: 47c5 2a3e 2ec5 773d 7096 253e a987 11be
000001d0: 2dc7 4c3e 7598 48bd ec0a 753d a9b4 723d
000001e0: a193 a43b c9f1 d7bd 2540 bf3d a26e 5e3d
000001f0: 52ad a6bd 4e30 303b c193 03be 4ddc 733d
00000200: 7fa0 0ebd 7371 233e bd06 093d a38f bc3d
00000210: df32 42bd 4b64 fbbd e8c3 b73c 67e2 0ebc
00000220: 5d6e e43c 6440 f53d 91c7 e53d 7886 ce3d
00000230: 7afe 1ebe 6a6e a2bc 694b 31bd 47d7 f2bd
00000240: 1eff 923c 8837 7b3b debb eabc 8401 883d
00000250: 033f 24bd da3a 193c 2951 c43d 9c68 953b
00000260: 3559 f13c 3b36 423e acf3 32be 3214 9d3d
00000270: ea15 85bd 667f ee3c 3d5a 343e d4ce 65bd
00000280: 5c4e c2be 5ffb 503c 8200 393d 0bfd 933d
00000290: 1b5c 6bbd 84d7 503e 0080 a4bd 7285 a1bd
000002a0: 298f 19be ffc1 b4bd cd42 fcbd 5df0 c0bc
000002b0: 31a5 cbbd 178b 54bb a206 e13d ceb7 403d
000002c0: 53b8 1b3d 8651 2fbe ff4f aebd bae5 ea3b
000002d0: e7cc e93c 6dbc 2fbe 9339 ca3d 05bb 013e
000002e0: 7d44 dc3d fcac b43c 65eb 583e 3c2b 383d
000002f0: 2e62 b93d f63e f03c 1660 893b ecb9 63bd
00000300: e5bd 0f3e 082b e53d 8d38 d83d 0aad 283e
00000310: d42e 513d b4b2 47be 9c56 4d3e 5b2e 3c3e
00000320: 9eb7 2f3e 829f 90bb 5cbb 963d 5c8f c4bc
00000330: 2dbf 033d 4d44 0cbe 9a4b 88bd 6070 42be
00000340: 44aa 13be bb7a 8e3b 0730 55be 4247 8cbd
00000350: 7666 0e3d 61d1 3fbd 87b2 f13c 44f6 b0bd
00000360: 0fbb 89bd d510 54bd f0cb 17be 55ad 883c
00000370: cbd6 b3bd 2e57 a9bc b373 8e3d 1458 9abd
00000380: 4098 babd 12c2 babd f4d3 613e 1253 ffb9
00000390: 248c f9bd 54a5 683e a096 70be 9fc2 febd
000003a0: 990b 0a3d 7a1e 893d 54ff 48bd f449 bb3d
000003b0: 8493 493d 7418 83bd ef39 8f3e fe04 3d3e
000003c0: 56a6 373e 77ad ce3d d48e 303d 7d5f f0bd
000003d0: 3185 b33d b0ed 4bbe ce0c 3d3e d1da 2cbe
000003e0: 5415 0e3c 7248 07be d426 3bbc 3130 87be
000003f0: d4c7 ef3d b603 ecbd 194d e73c 71cf 1f3e

lstm.bias_ih_l0 f4 [256]
-0.02974857 0.00042767473 -0.011661331 -0.07164631 0.03286586 0.086743936 0.08731819 0.17626193
0.13608752 -0.009688177 0.14461014 0.06860899 0.16206314 -0.032684714 0.014845647 0.054495268
0.07541036 0.02939979 0.13391992 0.17163785 -0.11212801 0.036210652 -0.0074956794 0.122143954
-0.071164586 0.08988127 0.040675677 0.047528263 -0.021325847 0.039060898 0.14268702 0.1086325
-0.030774012 0.07479371 0.021977538 0.17531995 0.0034610648 0.13036908 -0.08060708 0.09937045
0.032785386 -0.06530808 0.032116693 0.024014425 0.12404322 0.113607526 0.13598223 -0.0037781463
0.21734598 0.18437682 -0.020778183 -0.044324335 0.15870768 0.111426875 0.10915051 -0.08007325
-0.028721083 0.11232049 -0.024222162 0.11213618 0.077611186 -0.028141817 0.04897542 -0.04977413
0.10314798 0.058882855 0.061826464 0.0039780787 -0.12491703 0.045966063 -0.0828827 0.08533481
0.023077406 0.13763155 -0.008964695 -0.01579452 -0.03987896 0.13356394 -0.022924729 0.031910673
-0.10219979 0.13104898 0.13539384 0.05392128 -0.051800005 -0.051781572 -0.062432434 -0.08002714
0.01122769 0.1389604 -0.100706644 0.14275244 -0.010427635 -0.035156935 -0.14699176 0.16598187
-0.007990326 0.12077974 0.14554675 0.16802524 -0.08175462 0.080214135 0.09617206 -0.03381697
-0.10242391 -0.018601924 0.085428305 -0.04240531 -0.09018774 0.06469848 0.14342913 -0.054677095
-0.015312962 0.090205714 0.17955951 0.060933143 0.13814786 0.0060606725 0.09929514 -0.08722915
0.04593974 -0.06589941 0.16810913 0.09405917 0.011007814 -0.0174326 0.066282466 0.05777318
0.041797183 0.016398592 -0.09280234 -0.1275051 -0.11621156 -0.045860317 -0.038103066 0.0029067665
0.07267253 0.016003773 0.027225655 0.053707033 0.11547462 0.09023569 0.011366122 0.08073076
-0.09570832 0.04968901 0.07152644 -0.16832265 -0.097373426 0.013708907 0.08812039 0.08631329
-0.09953599 0.11829429 0.017266074 -0.011630728 -0.008428812 0.070491925 0.07564796 0.017236814
-0.13064158 -0.0707513 -0.10700048 -0.123764135 0.03709462 -0.013877669 -0.107055165 -0.08409995
0.14939292 0.121603675 -0.12758446 -0.09743629 0.04823111 -0.009289885 0.015913293 -0.01743982
0.010115921 -0.16068561 -0.113835625 0.07899457 0.07217124 0.047659516 -0.07133104 -0.06569183
-0.05167262 -0.053497538 -0.103485085 0.070388965 -0.07947369 -0.12509634 -0.0106766755 0.06440168
0.016693037 -0.08575143 0.07858659 0.018127313 0.19091007 -0.06387834 0.19920631 0.03747194
0.14469518 0.078982174 0.15466972 0.10404045 0.017721625 0.071341835 0.1551648 -0.042033665
0.097575866 0.007260372 0.13234836 -0.035751425 -0.08516547 0.0947617 -0.012297226 0.03866595
0.06345406 0.14068365 -0.10881991 -0.0024506284 -0.034202136 -0.0014644081 0.01218566 0.1157136
0.07294877 0.08156662 0.016507111 0.16724285 0.020107705 -0.009317734 -0.068846196 0.008441787
0.0143569615 0.09663712 0.08154697 0.016907139 -0.07579608 0.22130597 0.22152123 0.0057364553
0.20803359 0.053697374 0.0007032553 0.08218807 -0.050868675 -0.086607344 0.049612958 0.114949256
0.1717539 0.115288444 0.10121681 0.1079921 0.013221006 -0.026413213 0.268015 0.16059142
00000000: 46b3 f3bc 8839 e039 2b0f 3fbc 4dbb 92bd
00000010: 5a9e 063d cea6 b13d e1d3 b23d 027e 343e
00000020: 875a 0b3e 29bb 1ebc ae14 143e df82 8c3d
00000030: e1f3 253e 68e0 05bd 283b 733c 6e36 5f3d
00000040: bf70 9a3d d4d7 f03c 4e22 093e d5c1 2f3e
00000050: 5fa3 e5bd 9f51 143d 519e f5bb 9c26 fa3d
00000060: bdbe 91bd ac13 b83d 8a9b 263d ffac 423d
00000070: 8bb3 aebc 52fe 1f3d 8c1c 123e b77a de3d
00000080: c819 fcbc 722d 993d 3d0a b43c 1387 333e
00000090: 08d3 623b 797f 053e 5315 a5bd bc82 cb3d
000000a0: f849 063d 3ec0 85bd cb8c 033d e6b9 c43c
000000b0: 5f0a fe3d 10ab e83d ed3e 0b3e c79a 77bb
000000c0: f28f 5e3e 47cd 3c3e 0237 aabc 6f8d 35bd
000000d0: 4484 223e c633 e43d 4d8a df3d 72fd a3bd
000000e0: 7a48 ebbc 4908 e63d 8e6d c6bc a7a7 e53d
000000f0: 9df2 9e3d ab89 e6bc 739a 483d f5df 4bbd
00000100: 403f d33d 262f 713d bf3d 7d3d 8b5a 823b
00000110: 80d4 ffbd e946 3c3d 68be a9bd 04c4 ae3d
00000120: d40c bd3c 49ef 0c3e a8e0 12bc 8263 81bc
00000130: 1f58 23bd fcc4 083e a4cc bbbc c4b4 023d
00000140: 204e d1bd b431 063e afa4 0a3e 8fdc 5c3d
00000150: 3e2c 54bd ea18 54bd 27b9 7fbd 45e5 a3bd
00000160: 58f4 373c a34b 0e3e 493f cebd b22d 123e
00000170: acd8 2abc b800 10bd 0285 16be 27f7 293e
00000180: dbe9 02bc 5e5b f73d 350a 153e cf0e 2c3e
00000190: f76e a7bd 4f47 a43d dbf5 c43d aa83 0abd
000001a0: a0c3 d1bd 1063 98bc 09f5 ae3d 31b1 2dbd
000001b0: 5ab4 b8bd a380 843d 16df 123e 17f5 5fbd
000001c0: 38e3 7abc c6bd b83d 73de 373e 0895 793d
000001d0: a276 0d3e 9b98 c63b 405b cb3d 32a5 b2bd
000001e0: 4f2b 3c3d 45f6 86bd cd24 2c3e 18a2 c03d
000001f0: 1e5a 343c d0ce 8ebc 1abf 873d 92a3 6c3d
00000200: 8633 2b3d 5756 863c 270f bebd b290 02be
00000210: 5400 eebd 07d8 3bbd f611 1cbd 737f 3e3b
00000220: 56d5 943d 581a 833c 5608 df3c e8fb 5b3d
00000230: f57d ec3d 7dcd b83d f938 3a3c 2b56 a53d
00000240: b902 c4bd b486 4b3d 747c 923d c65c 2cbe
00000250: b86b c7bd 539b 603c 7778 b43d 06c5 b03d
00000260: 86d9 cbbd 4744 f23d 9571 8d3c cf8e 3ebc
00000270: 0019 0abc 125e 903d 51ed 9a3d 3834 8d3c
00000280: e8c6 05be 0fe6 90bd 1123 dbbd 0d78 fdbd
00000290: 87f0 173d 2a5f 63bc bd3f dbbd 983c acbd
000002a0: 75fa 183e 590b f93d 80a5 02be ad8c c7bd
000002b0: fc8d 453d 9a34 18bc 985c 823c f4dd 8ebc
000002c0: 3fbd 253c c58a 24be a722 e9bd e8c7 a13d
000002d0: 84ce 933d a036 433d 0216 92bd 7089 86bd
000002e0: aba6 53bd 3c20 5bbd fdef d3bd 1728 903d
000002f0: 1ac3 a2bd 4119 00be 39ed 2ebc 07e5 833d
00000300: d6bf 883c 729e afbd 02f2 a03d bb7f 943c
00000310: ee7d 433e a6d2 82bd bdfc 4b3e 2d7c 193d
00000320: f92a 143e 68c1 a13d bd61 1e3e 2913 d53d
00000330: f12c 913c ab1b 923d 85e3 1e3e 7e2b 2cbd
00000340: dbd5 c73d 6ae8 ed3b 5486 073e 1670 12bd
00000350: 3c6b aebd 6c12 c23d 4e7a 49bc 3060 1e3d
00000360: 34f4 813d 600f 103e f9dc debd b99a 20bb
00000370: 8a17 0cbd 62f1 bfba 5da6 473c 40fb ec3d
00000380: 2a66 953d 660c a73d ec39 873c b641 2b3e
00000390: eab8 a43c 69a9 18bc 3cff 8cbd 6c4f 0a3c
000003a0: 7639 6b3c afe9 c53d 1902 a73d d780 8a3c
000003b0: fa3a 9bbd 089e 623e 76d6 623e e0f8 bb3b
000003c0: c206 553e c7f1 5b3d aa5a 383a 3852 a83d
000003d0: ac5b 50bd 315f b1bd f536 4b3d 846a eb3d
000003e0: 41e0 2f3e 591c ec3d c24a cf3d f62a dd3d
000003f0: eb9c 583c 8660 d8bc 4339 893e 1472 243e

lstm.bias_hh_l0 f4 [256]
-0.0850844 -0.13010456 0.004279198 -0.026729105 0.07936394 0.11619952 0.040989988 0.17368853
0.021085672 0.013884568 0.068579026 0.051296923 0.0791919 0.006019814 -0.03222861 0.05964603
0.08187965 0.0146611435 0.050240837 0.018712262 -0.1453318 0.114334665 0.020650804 -0.042264
0.13173476 0.0062231254 -0.10148568 -0.10371598 -0.01718043 -0.07747334 0.09805178 -0.06950668
-0.061610695 0.11503793 0.024101203 0.110749595 -0.028568134 0.09257597 -0.05999294 -0.009844043
0.03973091 -0.043244153 0.108204655 0.12042065 0.10165032 -0.042832453 -0.029722856 0.04525934
0.24166623 0.07119898 0.11242517 0.12373574 0.14250666 -0.014667568 0.08486907 -0.039400138
0.07590651 0.07199418 0.009324492 -0.027958611 -0.058453377 0.011022707 0.14421436 0.10788167
-0.062350858 0.12849197 -0.05804612 0.1448031 0.036492966 0.09264175 -0.058421895 -0.045803133
-0.024912225 -0.020991115 0.030200994 -0.0041876924 0.09926532 0.17371827 0.048518203 0.076217525
-0.024741553 -0.011353997 0.12682764 0.018228926 -0.045329645 -0.13141295 -0.028737348 -0.084350176
-0.09378602 0.122641556 -0.08187791 0.046316866 0.11854279 0.030667562 -0.029412882 -0.009833823
0.093547896 0.16909985 0.08712608 -0.032676116 0.107007734 0.12775576 0.09728793 0.009648236
0.010877014 0.033542637 0.11514217 -0.011699061 0.04352488 0.13308918 0.08883894 -0.07727261
-0.06988098 0.094637655 0.1680495 0.025406573 0.14358948 0.030257078 0.116869524 -0.10618293
0.066358514 0.06956991 0.10271763 0.1073433 -0.09323623 0.14252117 -0.003106696 -0.11657445
0.051299877 0.06974975 0.085358135 0.052457687 0.02852454 0.06948932 0.14193563 0.08226268
0.02950578 -0.027562235 -0.12033995 0.04288526 -0.07725679 -0.007495252 -0.13121316 -0.14658889
-0.04038084 -0.14129977 0.06174675 -0.019062744 -0.02550945 0.14828232 0.090121575 0.057629798
-0.06750335 -0.101188734 -0.018137868 0.09877772 -0.08442835 -0.09839219 0.022859378 0.05139176
0.04493462 -0.038438577 -0.024377733 -0.047772437 -0.008835007 0.09636229 -0.08869622 -0.095842466
0.016756048 0.010941607 0.020962987 0.012765948 0.09313453 -0.028041502 0.067567386 -0.06543046
-0.13842243 -0.11054694 0.10850345 -0.053122304 -0.035061516 0.015022979 -0.116513774 0.03191028
-0.08765307 0.11811808 0.099367924 0.07681345 0.06616085 0.06538518 0.0016213171 0.0040340787
0.02603365 -0.024793105 0.025626915 -0.0060833073 -0.010781365 0.023751378 0.021706995 0.013339122
0.086053155 -0.017819865 0.17760006 0.014231092 -0.024526285 0.09948475 0.06711344 0.0916888
0.094960935 -0.046623103 -0.07446486 0.13108148 -0.03753943 0.16195354 -0.04000839 0.18045095
0.06395968 0.008617753 -0.054767806 0.124179654 0.119299725 -0.110918805 0.017649712 -0.037270986
0.036469165 -0.036014587 -0.029721616 0.105375655 0.09225296 0.020382293 0.08209105 0.15701488
0.050256167 0.14120272 0.12393818 0.08049412 -0.033861782 0.22019142 0.19473836 -0.02827073
0.1398885 -0.018375225 -0.015638504 -0.030722948 0.047831684 -0.006851168 0.02995802 0.120846994
0.09783482 -0.08432696 -0.024020558 -0.025665253 -0.06077637 0.12007426 0.20430143 0.01982886
00000000: bb40 aebd 213a 05be 8438 8c3b fff6 dabc
00000010: 9089 a23d 04fa ed3d 1ee5 273d 68db 313e
00000020: dcbb ac3c 197c 633c 2973 8c3d b91c 523d
00000030: 5d2f a23d dc41 c53b 2602 04bd 654f 743d
00000040: 85b0 a73d 4b35 703c 56c9 4d3d 754a 993c
00000050: dcd1 14be 4b28 ea3d e02b a93c 041d 2dbd
00000060: 7ae5 063e 5ceb cb3b b9d7 cfbd 0b69 d4bd
00000070: f9bd 8cbc 58aa 9ebd 5fcf c83d 8559 8ebd
00000080: 7f5b 7cbd 0299 eb3d e36f c53c afd0 e23d
00000090: b807 eabc 7898 bd3d 28bb 75bd e948 21bc
000000a0: e1bc 223d c820 31bd 679a dd3d 1a9f f63d
000000b0: 0b2e d03d 1571 2fbd 597d f3bc dc61 393d
000000c0: 5a77 773e c5d0 913d 2b3f e63d 2a69 fd3d
000000d0: 44ed 113e 3d50 70bc d6cf ad3d 0a62 21bd
000000e0: df74 9b3d af71 933d c1c5 183c 7509 e5bc
000000f0: cf6c 6fbd 9698 343c eeac 133e 11f1 dc3d
00000100: 9d63 7fbd 6693 033e c5c1 6dbd 4447 143e
00000110: a679 153d f5ba bd3d cc4b 6fbd 119c 3bbd
00000120: b914 ccbc 8ff5 abbc 1368 f73c e938 89bb
00000130: 9e4b cb3d 34e3 313e 06bb 463d ef17 9c3d
00000140: ccae cabc 1d06 3abc 1bdf 013e d454 953c
00000150: 94ab 39bd 1e91 06be 966a ebbc c9bf acbd
00000160: e312 c0bd 7f2b fb3d 9baf a7bd c1b6 3d3d
00000170: 90c6 f23d 8a3a fb3c 49f3 f0bc 0b1e 21bc
00000180: 0a96 bf3d 8328 2d3e 296f b23d 64d7 05bd
00000190: df26 db3d 68d2 023e e53e c73d a313 1e3c
000001a0: 8135 323c 0164 093d a8cf eb3d 6bad 3fbc
000001b0: 2547 323d 8848 083e 31f1 b53d 1a41 9ebd
000001c0: c21d 8fbd 63d1 c13d 2b15 2c3e 7221 d03c
000001d0: 1f09 133e b1dd f73c 4a59 ef3d 7076 d9bd
000001e0: f9e6 873d ab7a 8e3d 9f5d d23d ced6 db3d
000001f0: a3f2 bebd 12f1 113e b699 4bbb 96be eebd
00000200: d21f 523d f5d8 8e3d 3fd0 ae3d dfdd 563d
00000210: 4cac e93c 6b50 8e3d 9357 113e 5679 a83d
00000220: 1bb6 f13c 32ca e1bc cb74 f6bd 74a8 2f3d
00000230: cf38 9ebd bb9a f5bb be5c 06be 661b 16be
00000240: 6166 25bd e3b0 10be 29ea 7c3d 7929 9cbc
00000250: 32f9 d0bc 52d7 173e a991 b83d 390d 6c3d
00000260: 323f 8abd 0a3c cfbd de95 94bc f94b ca3d
00000270: c5e8 acbd d881 c9bd 9743 bb3c 2b80 523d
00000280: 5d0d 383d c571 1dbd d0b3 c7bc 08ad 43bd
00000290: b5c0 10bc 9859 c53d 5da6 b5bd 0e49 c4bd
000002a0: fb43 893c 6d44 333c 92ba ab3c 4428 513c
000002b0: 51bd be3d 4bb7 e5bc c560 8a3d 6800 86bd
000002c0: 9cbe 0dbe 6f66 e2bd 0f37 de3d c696 59bd
000002d0: aa9c 0fbd f122 763c c69e eebd 5bb4 023d
000002e0: 7483 b3bd e4e7 f13d 6981 cb3d 5f50 9d3d
000002f0: 577f 873d aae8 853d 6082 d43a 4e30 843b
00000300: 8544 d53c e91a cbbc 89ef d13c 7b56 c7bb
00000310: 53a4 30bc 4092 c23c ded2 b13c 558c 5a3c
00000320: a33c b03d f7fa 91bc cadc 353e 8729 693c
00000330: 59eb c8bc a9be cb3d c572 893d 56c7 bb3d
00000340: e17a c23d def7 3ebd 0881 98bd 393a 063e
00000350: f2c2 19bd 26d7 253e d6df 23bd 22c8 383e
00000360: 4bfd 823d 7a31 0d3c 3554 60bd e751 fe3d
00000370: 6a53 f43d 6629 e3bd 2196 903c 76a9 18bd
00000380: b160 153d 0884 13bd bf7a f3bc 31cf d73d
00000390: 1fef bc3d c4f8 a63c 5a1f a83d 82c8 203e
000003a0: 69d9 4d3d 7297 103e 4dd3 fd3d 1ada a43d
000003b0: a7b2 0abd dc79 613e 7e69 473e 0598 e7bc
000003c0: ee3e 0f3e a487 96bc 521c 80bc b1ae fbbc
000003d0: 28eb 433d c37f e0bb 866a f53c a17e f73d
000003e0: 9f5d c83d 9db3 acbd c3c6 c4bc f03f d2bc
000003f0: a5f0 78bd 7ee9 f53d 6534 513e 2270 a23c

lstm.weight_ih_l1 f4 [256, 64]
0.121521376 -0.02216674 0.1106391 -0.05367086 -0.08859337 -0.0626629 0.017449355 0.22062206
0.051699966 -0.09543435 -0.017091185 0.11926212 0.08979553 0.066949576 0.093914896 0.1272526
0.021378279 0.13679774 0.092252925 -0.0021018777 -0.07910675 0.14309357 0.051204406 0.043963693
-0.04510162 -0.009114293 0.17227666 -0.02970403 -0.15471523 0.0051471023 0.012679901 0.13181798
-0.014053137 -0.13710205 0.12429735 -0.03327943 0.05375473 0.25465024 0.078460015 0.061997723
0.14809607 0.13682942 0.15779258 0.1150329 0.11365619 0.09706745 -0.044063076 -0.18058382
-0.17626446 0.028382182 -0.039665837 0.15544416 -0.060911145 0.08786154 -0.08912233 -0.05377588
-0.06721761 -0.04993452 0.009183135 -0.0061321165 0.058337934 -0.10216127 0.23310189 0.13561048
0.022086246 0.17441706 -0.059211913 -0.21940684 -0.18055888 0.050814077 -0.03598859 -0.055523735
-0.20131536 -0.08481426 -0.043957844 0.11975366 0.017375866 -0.017344108 0.089412734 -0.07295916
-0.12300431 -0.013177837 0.13051985 -0.09153814 -0.115300745 0.09082078 0.06481031 -0.053125884
-0.0851915 -0.18083744 -0.0988024 -0.026654415 -0.07493144 0.0279184 -0.15590195 -0.014286625
0.13115379 0.07375026 -0.06532223 0.11685966 -0.023666965 -0.07419949 -0.022423489 0.03132177
-0.054938607 -0.039288163 -0.18577583 -0.00501878 -0.12866735 0.04200535 0.06079434 -0.0027175725
0.20776276 0.08171916 0.14642508 0.03328089 -0.07253512 0.0990508 -0.14860795 -0.04782545
-0.09049986 0.084709644 -0.10532697 -0.09027316 -0.030670835 0.019518545 -0.109367855 -0.060357947
-0.03856238 0.05546886 0.059312243 -0.030912952 0.00896624 0.060054924 0.06821399 0.18321557
0.043759033 0.063333906 -0.09664296 0.050662432 0.036359314 -0.008108392 -0.04630125 -0.032767683
-0.09812619 0.013796009 -0.064508736 -0.03543288 0.034045026 -0.061319824 -0.024812452 -0.092370085
-0.045677885 0.1266361 -0.004492827 0.08305786 -0.13258104 0.03372718 0.06331608 0.01156327
-0.11546246 0.000115562034 0.016921602 -0.22310308 -0.09037471 0.06777079 -0.15591016 -0.14505929
0.077098645 -0.06646885 -0.08492638 0.11344639 0.053778425 0.20065491 0.076538675 -0.12677215
0.002576385 0.041356634 0.04255127 -0.06654813 0.007058237 0.13088864 -0.0892773 -0.017327035
-0.054164752 0.04847048 -0.05882946 0.047463212 -0.0870299 -0.016321864 0.17215963 -0.0037077242
-0.08218936 0.010689577 -0.086259656 0.065545134 -0.11581247 -0.13376312 -0.10628392 0.07218661
0.010855754 -0.11640321 -0.1672687 0.06910527 0.13346806 0.005218402 0.031170432 0.03912423
0.18820375 0.090674356 0.05331667 0.11903003 -0.058523197 -0.042847395 -0.12116817 0.06427946
-0.022901293 0.12976138 -0.0010281899 -0.14055063 -0.08288321 0.02673454 -0.011116395 0.15065767
0.0022702322 -0.050129443 -0.14317146 0.018275626 0.037070487 0.10845532 -0.041361008 -0.030362222
-0.036236558 0.0010564311 -0.05963564 -0.051329527 0.07599472 -0.07176789 -0.027567277 -0.25938776
-0.029872118 0.022782365 -0.07269114 0.12754852 -0.12476904 0.19983257 0.021430172 -0.07069091
0.049013 0.05444845 0.06710539 0.00018572887 0.11882953 0.09967373 -0.014896549 0.21837592
00000000: 33e0 f83d 0697 b5bc c196 e23d fad5 5bbd
00000010: 7170 b5bd 6855 80bd f3f1 8e3c c0ea 613e
00000020: 58c3 533d 1673 c3bd d002 8cbc b33f f43d
00000030: b8e6 b73d dc1c 893d 7456 c03d 814e 023e
00000040: 8021 af3c b514 0c3e 1aef bc3d a8bf 09bb
00000050: b802 a2bd 1f87 123e b6bb 513d 4613 343d
00000060: 7abc 38bd 1e54 15bc 4b69 303e de55 f3bc
00000070: ab6d 1ebe 06a9 a83b 5cbf 4f3c 4bfb 063e
00000080: 213f 66bc 7b64 0cbe 9c8f fe3d 0350 08bd
00000090: eb2d 5c3d 8461 823e a5af a03d 53f1 7d3d
000000a0: 7fa6 173e 031d 0c3e 6194 213e 5e96 eb3d
000000b0: 94c4 e83d 4dcb c63d 7c7b 34bd f7ea 38be
000000c0: ac7e 34be c081 e83c a578 22bd c12c 1f3e
000000d0: f77d 79bd c0f0 b33d c585 b6bd 1944 5cbd
000000e0: 63a9 89bd 2488 4cbd dc74 163c ecef c8bb
000000f0: c2f3 6e3d ee39 d1bd 43b2 6e3e 79dd 0a3e
00000100: 37ee b43c 639a 323e 3188 72bd 30ac 60be
00000110: 6de4 38be 6c22 503d c668 13bd db6c 63bd
00000120: 9d25 4ebe 19b3 adbd 240d 34bd 6841 f53d
00000130: d557 8e3c 3b15 8ebc 061e b73d 9d6b 95bd
00000140: afe9 fbbd dbe7 57bc ffa6 053e 5978 bbbd
00000150: cc22 ecbd 3f00 ba3d 45bb 843d 879a 59bd
00000160: e278 aebd 732d 39be ea58 cabd 5c5a dabc
00000170: a875 99bd 21b5 e43c c3a4 1fbe 7312 6abc
00000180: 2e4d 063e 600a 973d a9c7 85bd 1e54 ef3d
00000190: 39e1 c1bc e7f5 97bd 77b1 b7bc 424b 003d
000001a0: 4e07 61bd a0ec 20bd 053c 3ebe 9474 a4bb
000001b0: 60c1 03be cd0d 2c3d 7c03 793d 4d19 32bb
000001c0: c3bf 543e 605c a73d 75f0 153e 8b51 083d
000001d0: 4b8d 94bd 25db ca3d af2c 18be 9ee4 43bd
000001e0: fe57 b9bd 407c ad3d abb5 d7bd 22e1 b8bd
000001f0: 6741 fbbc 5be5 9f3c 41fc dfbd e539 77bd
00000200: 96f3 1dbd 5133 633d 65f1 723d 293d fdbc
00000210: 23e7 123c 27fc 753d c7b3 8b3d dd9c 3b3e
00000220: ac3c 333d 35b5 813d bfec c5bd 6983 4f3d
00000230: 81ed 143d 10d9 04bc 61a6 3dbd 6837 06bd
00000240: 62f6 c8bd a808 623c 281d 84bd 1122 11bd
00000250: cc72 0b3d 7f2a 7bbd 7c43 cbbc 872c bdbd
00000260: bc18 3bbd e5ac 013e 9138 93bb 3d1a aa3d
00000270: 53c3 07be 8325 0a3d dcab 813d df73 3d3c
00000280: 9577 ecbd e559 f238 2c9f 8a3c 2275 64be
00000290: 6016 b9bd 69cb 8a3d eaa6 1fbe 6c8a 14be
000002a0: e5e5 9d3d d220 88bd e2ed adbd 9556 e83d
000002b0: c446 5c3d 7b78 4d3e 4fc0 9c3d 8fd0 01be
000002c0: 91d8 283b 9365 293d 3e4a 2e3d 634a 88bd
000002d0: c948 e73b ac07 063e 04d7 b6bd 6df1 8dbc
000002e0: dcdb 5dbd fb88 463d 29f7 70bd c968 423d
000002f0: bb3c b2bd 6eb5 85bc 9d4a 303e 4afd 72bb
00000300: e552 a8bd 5623 2f3c e7a8 b0bd 873c 863d
00000310: 172f edbd 33f9 08be 62ab d9bd 93d6 933d
00000320: 55dc 313c ce64 eebd 7c48 2bbe 1087 8d3d
00000330: daab 083e 21ff aa3b 2259 ff3c bb40 203d
00000340: 7cb8 403e 7ab3 b93d 9562 5a3d 04c6 f33d
00000350: 05b6 6fbd c080 2fbd 0427 f8bd f3a4 833d
00000360: 7e9b bbbc 2be0 043e 54c4 86ba 81ec 0fbe
00000370: acbe a9bd 6502 db3c 8a21 36bc 0146 1a3e
00000380: 2dc8 143b 8854 4dbd 8a9b 12be c4b6 953c
00000390: 39d7 173d d31d de3d 296a 29bd 32ba f8bc
000003a0: c96c 14bd f277 8a3a 8044 74bd e93e 52bd
000003b0: 1fa3 9b3d 0bfb 92bd c5d4 e1bc 79ce 84be
000003c0: 5fb6 f4bc 15a2 ba3c 18df 94bd 149c 023e
000003d0: e986 ffbd e9a0 4c3e 548e af3c 65c6 90bd
000003e0: dbc1 483d 5705 5f3d 8d6e 893d 37c0 4239
000003f0: e65c f33d be21 cc3d a810 74bc f09d 5f3e

lstm.weight_hh_l1 f4 [256, 64]
-0.1229017 0.026933629 -0.13574065 0.047993373 0.008557232 0.04065172 -0.07209869 0.019225879
0.043781277 0.10657487 -0.04055244 -0.1419969 -0.040920857 -0.116236486 -0.02715368 0.071924455
-0.004615423 -0.023350632 -0.045122467 0.105097264 0.025303716 -0.13480452 -0.04144648 0.07456281
0.028510232 -0.039679464 0.15011151 0.08855292 -0.02706043 -0.077771045 0.15103586 0.011534905
-0.067026734 0.07493747 -0.057451483 -0.0035880476 0.14137696 -0.06122958 -0.07931739 0.1149504
-0.019018698 0.09254756 -0.007435843 0.1370886 -0.022512032 -0.023308303 0.11319233 0.06542432
-0.06813241 0.13725276 -0.00019240528 -0.007070882 0.10993912 -0.13819198 0.1123148 -0.02918742
-0.13334389 0.04609702 -0.114109136 -0.13752611 -0.09378864 0.054764356 0.094784014 -0.074514195
-0.0661761 -0.04861372 0.12966847 0.08551141 0.21323478 -0.107795574 -0.009751063 -0.042348053
0.04441707 -0.030514205 -0.14207447 -0.03407927 -0.061837196 0.03348964 0.11329272 -0.031187193
0.14992529 -0.010541302 0.06471717 -0.022993015 -0.12483974 0.09006991 0.032743644 0.23817593
-0.098010555 0.013525743 0.10034392 0.16183026 0.018939812 -0.18614241 0.10976271 0.02558018
0.043947622 -0.055260763 0.1844402 -0.0066583315 0.029528648 0.07915699 0.12714322 0.06213567
-0.06414337 -0.028551199 0.007374126 -0.06913685 -0.08267001 0.043751594 -0.02701388 -0.044057973
-0.037098657 0.05469415 0.07044524 -0.04821831 -0.015320741 -0.044920906 0.0026292724 -0.08835969
-0.04285052 0.017227113 -0.08893067 0.003757211 -0.014765037 0.0502664 -0.020326091 0.0920632
-0.019822935 0.060203426 -0.12311786 0.06263885 0.023436528 -0.02052261 0.099536434 0.002552509
0.10645863 -0.040989503 0.073570564 -0.11251958 0.15461928 0.039559398 -0.085220434 -0.10267788
-0.052151054 0.1401113 -0.08824999 -0.046494614 0.05260271 -0.0830828 -0.0847514 -0.120716006
-0.07237843 -0.04507473 -0.08639987 -0.013887121 -0.0659098 -0.03299526 -0.14039008 -0.17000291
-0.09953429 -0.05878187 0.027284961 0.11840464 -0.03739217 -0.022874324 -0.25568244 0.0076311054
-0.006435141 0.054309536 0.18169796 0.05378672 -0.05192207 -0.06413482 -0.044801224 -0.10931172
0.20609654 -0.10599687 0.10095799 0.05743997 0.07589104 0.14312154 -0.059265245 0.058757093
0.04474261 -0.11019437 -0.08332177 0.03171731 0.14261454 0.05106774 0.094494276 0.06444659
0.083926946 -0.103338726 -0.1293919 0.1187728 -0.080100454 0.008086256 -0.043368958 0.030180192
0.025797306 0.09968603 -0.01584631 0.027559938 -0.05180611 0.08114678 -0.007184312 0.106677495
-0.15371199 0.02259932 0.085273266 -0.10639773 -0.039195273 0.033011816 -0.089614816 -0.16534884
-0.035123862 0.09198813 0.0014914675 -0.021559697 -0.12736835 -0.01036418 0.07427626 -0.14110391
0.12538055 -0.03457654 0.08606373 0.0070878174 -0.10814379 0.047415618 -0.10566929 -0.011045029
-0.030704724 -0.06782682 0.07670727 -0.0686706 0.09623171 -0.037495587 -0.025648698 -0.11651033
-0.07185754 0.09651419 0.10946147 0.06847596 -0.047027446 0.034577437 -0.08684327 0.063042015
0.12235258 0.0679548 0.007062295 0.0151608465 -0.043652497 -0.057105005 -0.048914216 0.06310879
00000000: e3b3 fbbd eaa3 dc3c 99ff 0abe b394 443d
00000010: a233 0c3c 6b82 263d 7aa8 93bd 977f 9d3c
00000020: ff53 333d ed43 da3d 511a 26bd a367 11be
00000030: a19c 27bd 650d eebd 6571 debc 214d 933d
00000040: f93c 97bb d349 bfbc 56d2 38bd 3c3d d73d
00000050: bd49 cf3c 320a 0abe c9c3 29bd 63b4 983d
00000060: 4a8e e93c ef86 22bd d5b6 193e 3c5b b53d
00000070: d6ad ddbc 6d46 9fbd 25a9 1a3e e6fc 3c3c
00000080: 5045 89bd d178 993d 3f52 6bbd 7325 6bbb
00000090: 1fc5 103e decb 7abd 2871 a2bd 1e6b eb3d
000000a0: 1acd 9bbc 9389 bd3d 5fa8 f3bb f460 0c3e
000000b0: 276b b8bc 0ef1 bebc 61d1 e73d 30fd 853d
000000c0: 0189 8bbd fd8b 0c3e 66c0 49b9 dbb2 e7bb
000000d0: c327 e13d 3382 0dbe 4d05 e63d 751a efbc
000000e0: 4d8b 08be 3bd0 3c3d 0db2 e9bd a5d3 0cbe
000000f0: 4214 c0bd 9750 603d 1f1e c23d e69a 98bd
00000100: 5687 87bd 2e1f 47bd d0c7 043e 9b20 af3d
00000110: 385a 5a3e edc3 dcbd ecc2 1fbc 2775 2dbd
00000120: acee 353d edf8 f9bc f87b 11be b496 0bbd
00000130: 0049 7dbd 6f2c 093d 0306 e83d 497c ffbc
00000140: 0486 193e 6db5 2cbc 708a 843d d95b bcbc
00000150: faab ffbd 9376 b83d 331e 063d 64e4 733e
00000160: c2b9 c8bd 149b 5d3c 1d81 cd3d d5b6 253e
00000170: aa27 9b3c 1e9c 3ebe 46cb e03d 878d d13c
00000180: 6c02 343d 1c59 62bd e4dd 3c3e 222e dabb
00000190: 10e6 f13c 0f1d a23d d531 023e f981 7e3d
000001a0: 995d 83bd 34e4 e9bc a7a2 f13b 9f97 8dbd
000001b0: e54e a9bd df34 333d 364c ddbc 2276 34bd
000001c0: c3f4 17bd f906 603d 9845 903d 9080 45bd
000001d0: d803 7bbc fcfe 37bd df4f 2c3b edf5 b4bd
000001e0: 0784 2fbd e01f 8d3c 4821 b6bd 8a3b 763b
000001f0: 0ee9 71bc 24e4 4d3d e782 a6bc a28b bc3d
00000200: b563 a2bc de97 763d 3725 fcbd cc48 803d
00000210: f6fd bf3c 081f a8bc c2d9 cb3d ff47 273b
00000220: fb06 da3d 9ce4 27bd 2aac 963d aa70 e6bd
00000230: 8454 1e3e 0909 223d 0d88 aebd c848 d2bd
00000240: 589c 55bd 5679 0f3e 69bc b4bd 2371 3ebd
00000250: f075 573d 5127 aabd 2492 adbd f439 f7bd
00000260: 243b 94bd 48a0 38bd 6af2 b0bd cf86 63bc
00000270: b8fb 86bd 0a26 07bd 6bc2 0fbe 3e15 2ebe
00000280: a2d8 cbbd 42c5 70bd b684 df3c 227e f23d
00000290: 8828 19bd ef62 bbbc cfe8 82be 5a0e fa3b
000002a0: e0dd d2bb ad73 5e3d 080f 3a3e 774f 5c3d
000002b0: 3dac 54bd 1e59 83bd 7d81 37bd d3de dfbd
000002c0: f90a 533e e314 d9bd 10c3 ce3d 2d46 6b3d
000002d0: c36c 9b3d 748e 123e 1dc0 72bd 47ab 703d
000002e0: 0744 373d 96ad e1bd 9ba4 aabd 03ea 013d
000002f0: 8c09 123e 682c 513d 3786 c13d 93fc 833d
00000300: e4e1 ab3d 41a3 d3bd 4f7f 04be 273f f33d
00000310: b50b a4bd 377c 043c a6a3 31bd 733c f73c
00000320: df54 d33c 3028 cc3d 1fd0 81bc 61c5 e13c
00000330: a532 54bd 4830 a63d 616a ebbb bb79 da3d
00000340: ad66 1dbe 3622 b93c c0a3 ae3d 0ee7 d9bd
00000350: 398b 20bd 6637 073d f987 b7bd 3551 29be
00000360: 0ade 0fbd 4664 bc3d 587d c33a f69d b0bc
00000370: d96c 02be 86ce 29bc 271e 983d 8b7d 10be
00000380: c263 003e 21a0 0dbd 2e42 b03d ec40 e83b
00000390: 7e7a ddbd e136 423d 2469 d8bd 36f6 34bc
000003a0: 7988 fbbc cae8 8abd b418 9d3d 2ca3 8cbd
000003b0: 2115 c53d f994 19bd 381d d2bc f89c eebd
000003c0: 0c2a 93bd 3ba9 c53d 562d e03d 203d 8c3d
000003d0: da9f 40bd 12a1 0d3d e2da b1bd 2c1c 813d
000003e0: fd93 fa3d e32b 8b3d d36a e73b 3365 783c
000003f0: f6cc 32bd f0e6 69bd 465a 48bd 2e3f 813d

lstm.bias_ih_l1 f4 [256]
0.056026794 0.09666565 0.090144314 -0.09221274 0.03850824 0.051583875 0.1064607 -0.062035624
-0.06138094 -0.06229071 0.06620955 -0.06978857 0.042897906 -0.080825076 0.01968979 0.015637243
0.06747408 -0.05022065 0.046659518 0.1047349 0.019955505 0.05571157 -0.07905817 0.018810367
-0.04614029 0.13493235 0.05531443 -0.07410006 0.056218904 0.031843424 0.030512862 0.12562989
0.065369934 -0.0025809135 0.03602166 0.022462236 -0.015639463 0.12699068 0.029471038 0.07837127
-0.032847002 -0.015764194 -0.090373345 -0.0014776177 0.05774291 0.00864477 0.027761694 0.07015265
-0.10516002 0.12947255 -0.066142514 0.09182724 -0.0012108427 -0.1105094 -0.011357162 0.14420731
0.08653883 0.037406847 0.029346203 0.085161895 -0.08749619 -0.1016025 -0.13581926 0.05070698
-0.1229925 -0.02661883 0.07850552 -0.06625564 -0.004215632 0.114130534 0.07748519 0.023903385
-0.07106459 -0.112475716 0.025978398 0.12693718 0.020028837 0.060177084 0.025179718 -0.020691589
0.12469034 0.02461748 0.02861248 0.073968925 0.10836605 0.10312291 -0.0074627977 0.0052404413
0.03875264 0.11002521 0.13148342 -0.09791867 0.05100675 0.08275916 0.07066548 0.14839476
0.021090662 -0.07996949 0.011604974 -0.019977842 0.096411005 -0.12544341 -0.03256955 0.022448592
0.05639441 -0.08706976 -0.002642073 -0.08114815 0.07363969 0.011822924 0.11954673 -0.043500494
0.070108004 0.0336034 0.13183318 -0.16961311 -0.024945308 -0.11554874 -0.12734863 -0.03396495
0.17462054 0.0077832257 -0.010524425 0.0145410495 0.0882929 -0.007603061 -0.11543381 0.032446608
0.104051575 0.12599938 0.029160582 0.11574086 0.029782569 0.11271417 0.1832767 -0.118031844
0.10324266 -0.060640205 -0.1038841 -0.0503207 0.07289004 -0.09651635 0.042269614 -0.067918375
-0.014731519 0.015912127 0.033812746 0.005140191 -0.13362536 0.07714897 -0.039954703 0.096085176
0.041754622 -0.04975132 0.027891822 -0.10368706 -0.022895738 -0.025278436 -0.021909961 -0.13064794
0.092073195 0.07899211 0.09394991 -0.07626919 -0.07474702 -0.050689712 -0.024168625 0.15790413
-0.038360406 -0.09477183 -0.04366618 0.115761794 0.10739809 -0.0061444524 0.11626942 -0.078607805
-0.09984458 -0.03595148 -0.11232107 0.08030336 0.06744573 0.0018302705 -0.030835737 -0.009498819
0.07751851 -0.008659171 -0.040154215 -0.07471824 0.024871958 -0.0004280687 -0.013989945 -0.02078418
-0.1254208 -0.05569396 -0.019697787 -0.040659945 -0.11656492 0.042939488 -0.10438017 -0.08470711
0.06458017 -0.07083597 0.11499039 0.005913815 -0.13839364 0.13082458 -0.119051464 -0.14120685
-0.0714256 0.097075306 -0.124091975 -0.037508875 0.14044987 -0.057806417 0.13662109 -0.102200255
0.051149443 -0.033925157 -0.09329972 0.10740339 -0.05883014 -0.1210809 0.076246604 -0.08757807
-0.10280913 -0.017979067 0.058786977 0.06928251 -0.058965154 -0.1335587 -0.15662235 0.04379824
-0.0431196 -0.020264748 0.07603252 -0.08230835 -0.015047783 -0.03406047 0.015461451 0.14114031
-0.08809621 0.123894416 0.103946716 0.08083528 0.039381724 0.10966851 0.09450152 -0.08115433
-0.01671905 -0.0005243601 0.0751522 -0.043242954 0.042518992 0.09838514 0.09853763 -0.022717077
00000000: 5a7c 653d a4f8 c53d 959d b83d 08da bcbd
00000010: d1ba 1d3d 9d49 533d 1108 da3d 1119 7ebd
00000020: 956a 7bbd 8b24 7fbd df98 873d 4fed 8ebd
00000030: b7b5 2f3d 9e87 a5bd 7c4c a13c ad19 803c
00000040: da2f 8a3d 2bb4 4dbd 0d1e 3f3d 407f d63d
00000050: ba79 a33c d131 643d 40e9 a1bd 3318 9a3c
00000060: 9afd 3cbd b52b 0a3e 6291 623d c6c1 97bd
00000070: cb45 663d 406e 023d 1cf6 f93c 1fa5 003e
00000080: ace0 853d 8b24 29bb 738b 133d b902 b83c
00000090: 551e 80bc d809 023e 3f6d f13c 1e81 a03d
000000a0: 948a 06bd e923 81bc a915 b9bd 9fac c1ba
000000b0: d483 6c3d cba2 0d3c 7e6c e33c 31ac 8f3d
000000c0: 235e d7bd 7494 043e ba75 87bd ec0f bc3d
000000d0: 24b5 9eba c152 e2bd 6413 3abc 15ab 133e
000000e0: 453b b13d ec37 193d 7367 f03c 5c69 ae3d
000000f0: 3431 b3bd f914 d0bd 3414 0bbe 1fb2 4f3d
00000100: 7ee3 fbbd bc0f dabc 81c7 a03d 09b1 87bd
00000110: 4923 8abb 45bd e93d 8eb0 9e3d 08d1 c33c
00000120: 508a 91bd ab59 e6bd a6d0 d43c d2fb 013e
00000130: 8413 a43c 3f7c 763d b245 ce3c 6881 a9bc
00000140: a65d ff3d 99aa c93c b864 ea3c 057d 973d
00000150: 05ef dd3d 1b32 d33d 7c8a f4bb 02b8 ab3b
00000160: 17bb 1e3d e654 e13d 97a3 063e 9589 c8bd
00000170: 74ec 503d a27d a93d 10b9 903d ccf4 173e
00000180: 53c6 ac3c 0bc7 a3bd ca22 3e3c 92a8 a3bc
00000190: 2273 c53d 3d74 00be a667 05bd 1ce6 b73c
000001a0: d3fd 663d a151 b2bd a126 2dbb 0031 a6bd
000001b0: 68d0 963d f0b4 413c ead4 f43d 932d 32bd
000001c0: c994 8f3d b8a3 093d 47ff 063e 0faf 2dbe
000001d0: 1a5a ccbc d1a4 ecbd ae67 02be d51e 0bbd
000001e0: bacf 323e 6e0a ff3b a36e 2cbc 953d 6e3c
000001f0: e8d2 b43d 1923 f9bb 9068 ecbd bce6 043d
00000200: fe18 d53d fb05 013e 2ce2 ee3c 8b09 ed3d
00000210: 93fa f33c b0d6 e63d e3ac 3b3e aeba f1bd
00000220: e370 d33d dd61 78bd 30c1 d4bd 141d 4ebd
00000230: 6047 953d 5daa c5bd e722 2d3d ca18 8bbd
00000240: 785c 71bc 265a 823c 3c7f 0a3d 0c6f a83b
00000250: 16d5 08be 4700 9e3d 8ba7 23bd 4ec8 c43d
00000260: e506 2b3d 0ac8 4bbd 647d e43c e259 d4bd
00000270: d88f bbbc b914 cfbc 857c b3bc 93c8 05be
00000280: df90 bc3d 9ec6 a13d cf68 c03d 0533 9cbd
00000290: f714 99bd 04a0 4fbd 48fd c5bc 9fb1 213e
000002a0: cd1f 1dbd bc17 c2bd 4fdb 32bd 8514 ed3d
000002b0: 88f3 db3d 6757 c9bb a91e ee3d 21fd a0bd
000002c0: 517b ccbd dc41 13bd 9708 e6bd 1776 a43d
000002d0: fd20 8a3d b0e5 ef3a 3a9b fcbc efa0 1bbc
000002e0: 06c2 9e3d 32df 0dbc bf78 24bd e005 99bd
000002f0: 47c0 cb3c 696e e0b9 1536 65bc 9643 aabc
00000300: 4f6e 00be 5a1f 64bd 415d a1bc 0b8b 26bd
00000310: 97b9 eebd 51e1 2f3d 45c5 d5bd ec7a adbd
00000320: 9c42 843d 7312 91bd 1580 eb3d adc8 c13b
00000330: 10b7 0dbe e1f6 053e 41d1 f3bd 8798 10be
00000340: 9647 92bd 6bcf c63d ef23 febd e8a2 19bd
00000350: 17d2 0f3e 6cc6 6cbd 66e6 0b3e 5e4e d1bd
00000360: 1482 513d 1bf5 0abd ec13 bfbd 4ff6 db3d
00000370: dff7 70bd 43f9 f7bd 2e27 9c3d 225c b3bd
00000380: 988d d2bd d648 93bc 9dca 703d fde3 8d3d
00000390: 7285 71bd 9dc3 08be 9c61 20be c965 333d
000003a0: 2d9e 30bd 4202 a6bc f0b6 9b3d 4891 a8bd
000003b0: fa8a 76bc fe82 0bbd 0752 7d3c 1687 103e
000003c0: c96b b4bd 5bbc fd3d 04e2 d43d f88c a53d
000003d0: bb4e 213d e299 e03d 038a c13d 3e34 a6bd
000003e0: 64f6 88bc 3675 09ba 66e9 993d 861f 31bd
000003f0: 6528 2e3d 267e c93d 19ce c93d 2a19 babc

lstm.bias_hh_l1 f4 [256]
0.05584187 -0.017489959 0.06699363 -0.04592967 0.082958505 0.015075914 -0.074483685 0.11942075
-0.065241724 0.105218194 0.03447004 0.14641765 0.06820543 0.10727361 -0.01489863 -0.0019379677
0.018341225 0.038138036 0.10749182 0.024279837 0.10884896 -0.13263081 0.09405883 -0.076086916
0.016727759 -0.09394292 0.0018217107 -0.060872998 -0.033331886 0.14149038 -0.014004484 0.12456213
-0.038108416 -0.028866716 -0.1324026 0.020013029 0.1884042 -0.020516938 -0.044865545 -0.11740896
-0.06843817 0.102509454 0.058859438 -0.06003794 0.05016376 -0.0037717114 0.023659661 0.011017971
0.0036032235 -0.07522906 -0.01151778 -0.10924181 0.14652245 0.05394258 0.029938955 0.093268536
-0.037812896 0.16820177 0.07860622 0.09094815 0.14424945 0.03218568 -0.08100449 0.018856766
-0.05163251 -0.05692716 0.010982162 -0.022602607 -0.12615798 -0.049933314 0.12630567 0.013047437
0.051100668 -0.12643501 0.029607236 0.039546706 0.10877138 0.014670962 0.031005383 -0.1455607
-0.05687443 -0.1013621 0.07658633 0.10544753 0.14235896 -0.036792766 0.13504614 0.056843385
0.007729592 0.11167687 0.070301436 0.05380817 0.06720394 -0.03798831 0.06210961 0.041472405
0.040724337 0.11188226 0.08250757 -0.008563213 0.19534336 0.04682307 -0.0522999 0.059425276
0.00085577555 -0.033289187 -0.1344651 0.12432485 -0.12109802 0.04510601 -0.057330202 0.021421252
-0.13894846 -0.13957614 0.15697528 -0.05239461 0.11782228 -0.10186482 -0.0576906 0.18359357
0.02409717 -0.004268145 0.15297468 -0.06661268 0.09682217 -0.11856718 0.0041521853 -0.024835933
-0.079434246 0.14748967 -0.104366325 -0.0210926 0.08787963 -0.06749834 0.05621701 0.08444789
-0.07772857 -0.023317037 -0.038806606 -0.15512516 0.09591774 -0.035317276 -0.14795813 -0.006894113
-0.027934622 0.05723086 0.10642736 0.072713025 -0.03727393 0.11560711 0.14352271 0.058738645
-0.12962422 -0.06741303 -0.061365224 0.05540605 0.027564598 0.053753145 0.010665104 -0.060908336
0.114608 0.108065195 0.14746 -0.12067219 0.16032985 -0.030082384 0.047632787 -0.028711792
-0.16551696 0.052496884 -0.055270895 0.08239091 -0.014288613 0.036598206 -0.02006372 -0.08982699
0.080132626 -0.036385357 -0.050691955 0.007042367 -0.15084447 0.039695855 0.13990243 -0.07444696
-0.15056238 0.07444444 -0.118028656 -0.06174243 -0.11263538 0.03024175 -0.00873802 -0.09496165
-0.11332514 -0.008880173 0.106504194 -0.017689746 -0.03649994 -0.03806701 -0.09868332 -0.04371093
-0.10427987 -0.11152243 0.14048599 -0.08765333 -0.05853989 0.048004687 -0.04179358 0.032944262
0.14615025 0.041698318 0.10542532 -0.058486283 0.037325125 -0.05574603 0.06862944 -0.07604115
0.107189104 0.035676498 -0.099922314 0.16034822 -0.06059101 0.037915234 -0.0018602256 -0.023471788
-0.07325777 -0.04992081 0.028566428 0.057177696 0.16484872 0.028907042 -0.12898892 0.0351431
0.118237935 0.062974475 0.098484725 -0.032355666 0.086259656 0.066506125 0.025542196 -0.061830558
-0.05872836 0.048224185 -0.110949345 0.036423888 -0.05173466 -0.007815114 -0.08366838 0.11571072
0.0065155183 0.09645297 0.03941772 0.017794346 -0.0067789415 0.10186218 -0.069277965 0.026314652
00000000: 72ba 643d 1a47 8fbc f533 893d c020 3cbd
00000010: 26e6 a93d f700 773c e78a 98bd de92 f43d
00000020: 749d 85bd a37c d73d 7530 0d3d 82ee 153e
00000030: 4aaf 8b3d 44b2 db3d 6219 74bc 6803 feba
00000040: 5640 963c a136 1c3d ac24 dc3d 82e6 c63c
00000050: 34ec de3d 5fd0 07be eaa1 c03d 75d3 9bbd
00000060: a708 893c 2565 c0bd 78c6 ee3a f755 79bd
00000070: 0487 08bd dbe2 103e 1073 65bc 6e1a ff3d
00000080: 9217 1cbd e479 ecbc 8c94 07be 5df2 a33c
00000090: 08ed 403e 2313 a8bc efc4 37bd 1c74 f0bd
000000a0: 5029 8cbd 7af0 d13d 9816 713d 58ea 75bd
000000b0: 8478 4d3d d12e 77bb e8d1 c13c b884 343c
000000c0: 0f24 6c3b b211 9abd 12b5 3cbc 2cba dfbd
000000d0: fb09 163e e5f2 5c3d 8a42 f53c 9303 bf3d
000000e0: b2e1 1abd 163d 2c3e 4cfc a03d 0643 ba3d
000000f0: 21b6 133e 22d5 033d afe5 a5bd 8179 9a3c
00000100: 9c7c 53bd 742c 69bd 87ee 333c 1a29 b9bc
00000110: 8f2f 01be e086 4cbd 4656 013e ebc4 553c
00000120: ef4e 513d 2e78 01be e08a f23c bafb 213d
00000130: 87c3 de3d 795e 703c 00ff fd3c dd0d 15be
00000140: 2af5 68bd ef96 cfbd 4bd9 9c3d e0f4 d73d
00000150: 8cc6 113e 03b4 16bd 8949 0a3e 9cd4 683d
00000160: 8448 fd3b d8b6 e43d 33fa 8f3d f565 5c3d
00000170: 38a2 893d a199 1bbd a566 7e3d f8de 293d
00000180: 90ce 263d 8722 e53d bbf9 a83d b84c 0cbc
00000190: 1708 483e 8cc9 3f3d 6c38 56bd eb67 733d
000001a0: 2056 603a 3e5a 08bd 38b1 09be 079e fe3d
000001b0: 3d02 f8bd 14c1 383d 13d3 6abd 9f7b af3c
000001c0: 8148 0ebe 0ced 0ebe 21be 203e bb9b 56bd
000001d0: cf4c f13d 819e d0bd fb4c 6cbd f4ff 3b3e
000001e0: 6e67 c53c ccdb 8bbb 65a5 1c3e 3b6c 88bd
000001f0: b44a c63d 5ad3 f2bd 0e0f 883b ba74 cbbc
00000200: 6cae a2bd 8807 173e 03be d5bd 63ca acbc
00000210: 3cfa b33d 923c 8abd cf43 663d 04f3 ac3d
00000220: 2830 9fbd 5f03 bfbc adf3 1ebd 21d9 1ebe
00000230: 8570 c43d d9a8 10bd 5682 17be 03e8 e1bb
00000240: 26d7 e4bc e86a 6a3d 96f6 d93d 91ea 943d
00000250: 8cac 18bd 6cc3 ec3d 9ef7 123e ef97 703d
00000260: 36bc 04be d80f 8abd 1a5a 7bbd 74f1 623d
00000270: 27cf e13c 422c 5c3d b0bc 2e3c 057b 79bd
00000280: 99b7 ea3d 4951 dd3d c1ff 163e fb22 f7bd
00000290: 822d 243e 556f f6bc 991a 433d fe34 ebbc
000002a0: 477d 29be f906 573d bc63 62bd 91bc a83d
000002b0: c91a 6abc 00e8 153d ac5c a4bc 37f7 b7bd
000002c0: 931c a43d d008 15bd 5ea2 4fbd a8c3 e63b
000002d0: f976 1abe 1f98 223d 9542 0f3e a677 98bd
000002e0: 062d 1abe 5476 983d 02b9 f1bd a1e5 7cbd
000002f0: 61ad e6bd 8cbd f73c ea29 0fbc 417b c2bd
00000300: 0317 e8bd 257e 11bc df1e da3d 16ea 90bc
00000310: f680 15bd 27ec 1bbd 7b1a cabd 3b0a 33bd
00000320: af90 d5bd df65 e4bd 8fdb 0f3e 9783 b3bd
00000330: 86c7 6fbd 90a0 443d bf2f 2bbd 90f0 063d
00000340: 69a8 153e dbcb 2a3d 3be9 d73d 508f 6fbd
00000350: 3be2 183d f355 64bd 988d 8c3d 76bb 9bbd
00000360: f685 db3d 8521 123d 12a4 ccbd 5332 243e
00000370: 472e 78bd 014d 1b3d d0d2 f3ba e847 c0bc
00000380: 2b08 96bd c379 4cbd 2404 ea3c 2933 6a3d
00000390: 1ace 283e 76ce ec3c ac15 04be 36f2 0f3d
000003a0: bb26 f23d c3f8 803d 5cb2 c93d 6087 04bd
000003b0: e7a8 b03d 5d34 883d de3d d13c 0a42 7dbd
000003c0: 268d 70bd b986 453d 6939 e3bd 3731 153d
000003d0: b9e7 53bd f70a 00bc 545a abbd bef9 ec3d
000003e0: 2180 d53b 2289 c53d 7a74 213d 73c5 913c
000003f0: e221 debb 1e9d d03d 9be1 8dbd d391 d73c
