models/lstm_fwd_model.pt (torch, 245045 bytes, 9 tensors)

lstm.weight_ih_l0 f4 [256, 38]
000000 89 ba 07 3e 8d da d7 3d ee eb dd bb 41 f6 17 3e
       0.13254751 0.10539732 -0.00677251 0.14840032
000010 c9 15 fa bc bb d5 d4 3c cd 79 b4 bc 24 e5 b5 3d
       -0.030527966 0.02598082 -0.022030735 0.08881596
000020 29 9b 0c 3e 6f 7e 4c bd e3 71 de 3d bd 51 3d 3d
       0.13731064 -0.049925264 0.10861566 0.04622053
000030 4b b2 f1 3d 64 1b 38 3d 6b f4 bf 3d dd 43 19 3c
       0.11801585 0.044947997 0.09372791 0.009354559
000040 a8 03 c3 3d 72 ac 78 3b 19 4f 04 be 9a f5 fd 3c
       0.09522182 0.0037944582 -0.12920798 0.031000901
000050 9e 96 26 bd 24 3d 0b ba fc 47 55 bd f1 73 1a 3e
       -0.040670983 -0.000531154 -0.052070603 0.1508329
000060 46 a0 d2 bd 8c 09 6c bd d5 ae 28 bd fe aa 08 be
       -0.10284476 -0.057626292 -0.041182358 -0.13346478
000070 35 b3 16 3c 3e 40 f0 bd d5 53 f7 3d df c0 3b bd
       0.009198 -0.11731003 0.120765366 -0.045838233
000080 14 60 d4 3d 1d d2 21 3d 52 c6 e6 bb 94 b3 d3 3d
       0.10369888 0.03950702 -0.0070426846 0.10336986
000090 9d 31 37 3d 48 cf 01 3e ee ac 76 3c 50 7c 57 bd
       0.04472505 0.12676728 0.015055878 -0.052608788
0000a0 8e f0 8a 3d bf 91 1b 3c 96 b2 29 3d 42 6e 0a 3e
       0.067841634 0.009495198 0.04143008 0.13518623
0000b0 94 8f a4 3d 7c b8 19 bd 6d e4 c5 3d 80 c8 57 3d
       0.08035198 -0.037529454 0.096627094 0.052681446
0000c0 50 cf d4 3d 08 19 4c bd 01 3f c8 bd 70 13 0c bd
       0.10391104 -0.04982856 -0.09777642 -0.034198225
0000d0 33 24 a1 bd 0a 83 14 3e 6d 8c d0 3d de 81 92 3d
       -0.078682326 0.14503112 0.10183034 0.071536765
0000e0 3c 2d 72 3d 41 bb 5c 3c ca ed f5 3d 26 83 aa bd
       0.05912517 0.013472379 0.12008245 -0.08325796
0000f0 67 13 f8 3c 76 7b df bc 53 a3 cd 3d e0 52 30 bd
       0.03028269 -0.02728055 0.10040917 -0.043047786
000100 8d 3b 01 bc 21 d1 07 bd 25 ca f9 3d 6b ea 73 bd
       -0.007887733 -0.033158425 0.12196759 -0.05954973
000110 d4 a6 54 bd 48 8e ba bd 56 d6 01 3e 10 fe a1 3d
       -0.051916912 -0.09109169 0.12679419 0.07909787
000120 dd 7d e3 3d 11 1f bf bd 1b 7c ef bd 55 49 b7 bd
       0.11107991 -0.09332097 -0.11693593 -0.08949534
000130 6d 94 2c bd b6 5b 8a 3d af 56 97 3d 15 73 13 3e
       -0.042133737 0.06755774 0.073895805 0.14399369
000140 76 54 6f bd 7c d7 3e bd 9b ae c6 3d 24 cc 4a bc
       -0.058430158 -0.04659222 0.09701272 -0.0123777725
000150 bc 26 df 3d 8b de ad 39 5e 3d da 3d a5 49 7e bd
       0.1089606 0.0003316294 0.10656236 -0.06208195
000160 14 80 ec bc 26 97 73 3d 43 85 77 3d fe 54 fe ba
       -0.028869666 0.05947032 0.060429823 -0.0019403992
000170 59 d3 a0 3d d7 a4 bf 3d dc 9f e2 bd 6d a6 1f bd
       0.07852811 0.093576126 -0.11065647 -0.038977075
000180 df 6d e9 3d 50 cf d2 bc 76 95 19 bd 66 5e 01 be
       0.113979094 -0.02573362 -0.037496053 -0.12633666
000190 15 f2 e7 bd 88 cc ff 3c 14 3d c1 3c ff e4 0f be
       -0.1132547 0.031225458 0.023588695 -0.14052199
0001a0 80 22 50 3d 68 12 1f bd dc 4b cc bc dd 40 ae 3c
       0.05081415 -0.038835913 -0.024938516 0.021271164
0001b0 c9 5d d2 bc a5 c3 52 bd 96 81 00 3e a8 30 ad 3d
       -0.025679486 -0.051456112 0.12549433 0.08456546
0001c0 be d0 ba 3d d0 91 74 bd 22 2c 02 be 1d 8b b7 bd
       0.09121846 -0.05970937 -0.12712148 -0.08962081
0001d0 65 d0 9b 3c 91 90 b4 bd 3c 08 fc bb a5 62 c2 bd
       0.019020269 -0.08816636 -0.0076914113 -0.09491471
0001e0 3a 2d 2a 3c f4 3b 8f bd 6c 4d b1 bc 64 4a 83 bd
       0.010386759 -0.06993857 -0.021643363 -0.06410673
0001f0 1a e9 8e bd fa cc ba bd 1d 91 19 bd a5 b9 f1 bd
       -0.06978054 -0.091211274 -0.037491906 -0.11802987
000200 63 5a ca 3d 0d 44 2b bd 74 91 de 3d 15 f7 07 3d
       0.09880521 -0.041812945 0.10867587 0.03319462
000210 a6 0c 63 bd 77 56 9b 3d ee 10 82 3c 5d 3a 8f bd
       -0.055431984 0.07584851 0.015877213 -0.06993554
000220 0d 45 cd bd f2 93 1e be b6 f7 8b 3d c0 af df bc
       -0.10022936 -0.15486124 0.068343565 -0.027305484
000230 b2 07 64 3b df e1 1d be 59 44 bc 3d 07 e9 bd bd
       0.0034794626 -0.15418194 0.09192724 -0.09272962
000240 ed fc d4 bb 88 82 e2 3c 0d 4d a1 3d c2 8c e9 3d
       -0.0064998777 0.027650133 0.078760244 0.114038005
000250 a3 77 50 3d 79 ae f7 bd cd fd 17 3c 44 3d 9b bd
       0.050895344 -0.12093825 0.009276819 -0.07580045
000260 76 db 80 bd 04 9c e6 bd 91 96 a4 3d 7b 49 04 be
       -0.06291859 -0.11260226 0.08036531 -0.12918656
000270 ce 87 b3 3d ad ae 5c 3c 28 cc 82 bb 8f 35 cf bd
       0.08766137 0.01346938 -0.0039916225 -0.10117637
000280 ae 4a b1 3d 7f 88 2a bc 3b eb 27 bc ba 70 0b be
       0.08656822 -0.01040852 -0.010248954 -0.1361722
000290 f6 d4 cc 3c 1f f1 36 bd b8 df a0 bd 35 73 b3 3d
       0.025003891 -0.044663545 -0.07855171 0.08762208
0002a0 a6 06 38 3d b1 93 d4 bd c6 97 29 bc 6e 0d 10 bd
       0.044928215 -0.103797324 -0.010351127 -0.035169058
0002b0 c8 5b e8 3d 85 32 3b bd 82 34 3c 3d 11 5a 7f bc
       0.11345631 -0.045702476 0.045948513 -0.015585438
0002c0 2a a4 57 bd 88 98 36 3d 3c d0 93 3d 68 86 b4 bd
       -0.052646793 0.04457906 0.07217452 -0.088146985
0002d0 df 6d 32 3c 34 a2 47 3d 67 33 50 3b 67 b7 8f bd
       0.010890453 0.048738673 0.003176892 -0.07017403
0002e0 70 3d 38 3d 3a fa 1f 3d aa c0 a5 3d be 0f 28 bd
       0.044980466 0.039056994 0.080933884 -0.041030638
0002f0 f4 f2 29 bd f8 07 87 b9 7c ab c4 3b 18 64 74 bc
       -0.041491464 -0.00025755144 0.006001888 -0.014916442
000300 a1 76 d4 3d c2 b1 08 3e c2 23 05 ba 70 86 5c bc
       0.10374189 0.13349059 -0.00050788757 -0.013459787
000310 c0 42 fc 3b c6 24 22 3a f4 2b 10 3d 85 bb 78 3d
       0.007698387 0.0006185289 0.035198167 0.060725708
000320 31 35 bf bd ad 2c 1d bd 9e 2f ea 3d 24 16 05 3d
       -0.09336317 -0.038372684 0.114348635 0.032491818
000330 75 01 9d bc 1f 39 9c bd 42 76 a9 bd 76 b0 ca bd
       -0.019165734 -0.076280825 -0.08274509 -0.098969385
000340 ea 59 11 bd 40 be 2c 3d 4b b4 6b 3d 7c 70 13 3d
       -0.03548614 0.042173624 0.057544988 0.035995945
000350 92 3d fa bd 40 aa 0a be 52 d2 9d bc 38 a4 f7 3d
       -0.12218775 -0.13541508 -0.019265328 0.12091869
000360 2b 1e 20 bc 68 75 7c bd f0 63 84 3d f7 b9 2d bd
       -0.009772818 -0.061635405 0.06464374 -0.042413678
000370 dc 40 62 bd 6d 40 1c 3e c2 22 aa bc 21 98 a5 bc
       -0.055237636 0.15258951 -0.020768527 -0.020214142
000380 6a 56 09 be a0 dd ea 3d 49 a3 f5 3d ed ee 96 3d
       -0.1341187 0.11468053 0.11994035 0.0736979
000390 70 42 37 bd b8 23 f7 bd 74 99 aa bd a7 a3 ef 3d
       -0.044741094 -0.1206736 -0.0833005 0.11701136
0003a0 12 48 70 3d 56 bd 09 3e 75 7f bf 3d 79 d9 52 3d
       0.05866248 0.13451132 0.093504824 0.05147693
0003b0 08 b0 63 3c 69 2c 9b bd d0 2c c7 bd b7 a7 c9 bd
       0.01389695 -0.0757683 -0.09725344 -0.09846442
0003c0 ee d0 96 3d 1f 85 84 bd 17 f8 c5 bc c3 89 62 bd
       0.07364069 -0.06470703 -0.02416615 -0.05530716
0003d0 1b d5 69 bc 61 5a bb bd f0 5e 04 be 65 8a 5b 3d
       -0.014272 -0.09148098 -0.12926841 0.05359878
0003e0 44 63 32 bd a2 95 81 3d 3f 29 ab bc 4f ce a6 bd
       -0.0435517 0.06327368 -0.020893691 -0.08144819
0003f0 40 e6 f4 bc d0 30 78 bd f3 8b 63 3c 0f 15 2e be
       -0.029894948 -0.060593426 0.013888347 -0.1700022

lstm.weight_hh_l0 f4 [256, 64]
000000 7f a1 1a bd 46 2a 84 3d 1e 98 97 3d eb fd e7 bd
       -0.03775167 0.064533755 0.07402061 -0.11327728
000010 36 e5 d8 bd a9 3a 23 3c ad 48 be bd 16 25 ca bd
       -0.105905935 0.009962716 -0.092912056 -0.09870355
000020 ec 9e 48 3d 61 da 3c bd f0 ca 8c bd 4f 43 77 3c
       0.048979685 -0.0461067 -0.06874645 0.015091731
000030 e3 01 96 3d 13 4a c6 3d 6a d1 90 3d 0f b0 20 be
       0.073245786 0.09682097 0.070711926 -0.15692161
000040 1a 18 16 bd ce 0a 83 3d 4e 76 17 3e ac aa 08 bd
       -0.03664408 0.06398545 0.14791223 -0.03336589
000050 8f 88 d2 3d ec ba aa 3c a0 ea 8c 3d d2 91 04 3e
       0.10279953 0.020841084 0.06880689 0.12946251
000060 8f 24 c9 3d 90 d3 f6 bd 56 34 86 bd 5f 0b ba 3d
       0.09821426 -0.12052071 -0.06552951 0.090842
000070 57 b6 b7 3d d2 2a 9b bd b3 80 ed 3c a8 0f 2c 3b
       0.089703254 -0.07576527 0.028992033 0.002625445
000080 cd 21 56 bd 2d 64 49 3c ce c6 26 be 7c c5 97 ba
       -0.05227833 0.01229195 -0.16286775 -0.0011579241
000090 ca dc d8 bd 52 d1 04 3e e4 55 cc bd c0 54 8a 3d
       -0.10588987 0.12970474 -0.0997732 0.06754446
0000a0 71 13 b9 bd 25 27 00 bb fb 33 ed bd 03 e5 34 3c
       -0.09036911 -0.0019554582 -0.1158218 0.011040929
0000b0 83 79 9e 3d fc 4b a2 bd e9 8e d5 bd 93 20 16 3d
       0.0773802 -0.07924649 -0.104276486 0.03665216
0000c0 d2 97 ff bc f1 9f 11 bd 06 73 89 3b 89 bc 67 bd
       -0.031200323 -0.035552923 0.00419462 -0.056576286
0000d0 19 d8 97 3d 1f 77 38 3d 60 10 a3 bd 6c 7b 91 bb
       0.07414264 0.045035478 -0.07962108 -0.004439762
0000e0 74 9e fe bd 7e 81 7c bd d6 92 6b 3d 1e 84 4a bd
       -0.12432566 -0.06164693 0.05751308 -0.049442403
0000f0 21 01 0a be 90 5e d9 3c 8a 8f 6d 3c 6f 9e 0a 3d
       -0.13476993 0.026534349 0.014499554 0.0338425
000100 24 6e 88 3d 75 fb 28 be 91 d7 25 bd cd 16 13 bd
       0.06661633 -0.16502173 -0.040488783 -0.035910416
000110 b8 72 06 3e 17 72 6f bd 4e 50 95 bd 45 d0 e9 bc
       0.13129699 -0.058458414 -0.072907075 -0.028541693
000120 ff 98 b1 3c c8 57 bc 3c 0e ba 8b 3d c9 25 dc 3d
       0.0216794 0.022991076 0.068225965 0.107493944
000130 a8 a1 2c 3d 4a 03 d5 3d 12 1b 6d 3d 9a 26 d4 3d
       0.042146355 0.10401018 0.057887144 0.10358925
000140 01 b0 f0 bd 66 11 33 3d 5b 42 89 bc 76 22 11 be
       -0.1175232 0.043717764 -0.016755274 -0.14173302
000150 72 35 bc bc 54 d4 b6 3d a7 37 93 3d 01 bc c5 3d
       -0.022974703 0.08927217 0.07188349 0.096549995
000160 07 18 96 3d 98 de ad 3c 54 51 f8 3d 24 9a 69 3d
       0.073288016 0.021224305 0.12124887 0.057031766
000170 49 41 de bc 8c 19 8d bd f5 23 98 3d 2e 31 c4 3d
       -0.02713074 -0.06889638 0.07428733 0.09579693
000180 b7 7d 40 3d c1 d2 52 bd c2 08 d8 bd d8 b8 ab 3c
       0.04699489 -0.05147052 -0.105485454 0.020962164
000190 3d 4b 87 3b a6 4e 95 bd df bb 17 3d 9c 19 1c bd
       0.004128842 -0.072903916 0.037044402 -0.03811036
0001a0 94 66 fa 3d 09 6f dd 3c 1b 89 53 bd b1 95 db 3d
       0.122265965 0.027030485 -0.051644426 0.10721911
0001b0 e6 b3 80 3c 6f 90 85 bd 14 2d 25 3d 07 fb 16 3e
       0.015710782 -0.06521689 0.040326193 0.14744197
0001c0 1f 88 9b 3d a6 76 23 b9 37 ab 5b 3d 1f a6 ba bd
       0.075943224 -0.00015589091 0.05363008 -0.09113716
0001d0 f5 fa 1e 3e 57 4f 05 be 23 17 8f 3d 77 7e bd 3d
       0.1552542 -0.13018547 0.06986835 0.09252637
0001e0 4b 6f a1 3d d1 f8 59 bd 82 21 ea 3d 9c d0 b6 3d
       0.078825556 -0.053215805 0.11432172 0.08926508
0001f0 2b 35 0e be 99 a3 45 bc 15 00 f5 bd 26 af fb bc
       -0.1388747 -0.0120629305 -0.11962906 -0.030723166
000200 6f a9 34 3d fe 2f b7 bd 02 a1 89 bb eb b9 66 3d
       0.044106897 -0.08944701 -0.004200102 0.05632965
000210 fd 3e d4 bb 1b 2f 3c be 43 c7 9b 3d bd d8 13 be
       -0.0064772354 -0.18377344 0.076063655 -0.14438148
000220 17 bc ed bd c4 96 94 3d 8d 26 34 3d b1 fc 21 3d
       -0.11608141 0.07255319 0.043982077 0.039547626
000230 16 7e e9 bd b1 09 08 3d 5d 28 08 be be 21 26 3d
       -0.11401002 0.033212367 -0.13296647 0.040559523
000240 33 28 1c 3e d8 82 c9 3d 3a 2d a0 bd 2b c2 69 bb
       0.1524971 0.098394096 -0.07821126 -0.0035668712
000250 76 c0 c0 bd b2 8a 99 bd 40 ef d7 3d af 4b 33 3e
       -0.09411709 -0.07497157 0.1054368 0.1750934
000260 7c 3d 22 3d 03 cf 2a 3d b3 49 91 bc 76 52 11 3e
       0.039609417 0.041701328 -0.017735338 0.14191613
000270 ee 0d f5 bd d6 10 08 be 20 d8 db 3d c6 1f c3 3c
       -0.119655475 -0.13287672 0.10734582 0.023818862
000280 ae fe 8d bd d6 6e 44 bd 72 07 23 3d 9d 5c bb 3d
       -0.06933342 -0.047957264 0.039802022 0.09148524
000290 6f 83 68 ba 56 72 09 3e 0f b0 f8 3d 84 e7 c2 bd
       -0.0008869683 0.13422522 0.121429555 -0.09516814
0002a0 43 81 c7 bd 00 16 2f 3d ba 31 cf bd 6f b2 57 3d
       -0.097414516 0.04274559 -0.101169065 0.052660402
0002b0 e2 68 22 bd c8 88 4f bd a0 5c a6 bd 12 cf 27 be
       -0.039650805 -0.050667554 -0.081231356 -0.16387585
0002c0 c4 98 11 3e d9 b5 4d be 12 b6 12 3d d0 46 09 be
       0.14218432 -0.200889 0.035818167 -0.13405919
0002d0 c9 45 a0 bd 3b dd 19 bc be bb 57 bb 19 87 04 3d
       -0.078258105 -0.009391124 -0.00329183 0.0323554
0002e0 bf cb cc bc d0 ab ba 3b 17 6a 89 bc 2c fd 23 3e
       -0.024999497 0.005696751 -0.01677422 0.16014546
0002f0 01 ee b3 bc 31 46 aa bd 64 67 23 3d 31 77 c2 bd
       -0.021964075 -0.08314169 0.039893523 -0.0949539
000300 cd fb c7 3c 9b 1b b6 3d d2 ba bc bd 7a 9c 55 3d
       0.02441206 0.08891984 -0.09215321 0.05215118
000310 0f 13 31 3d dd 83 9e bd 38 81 0e 3c 04 e2 65 3d
       0.043231066 -0.07739995 0.0086978 0.05612375
000320 34 be 46 bd 03 fa 47 3c 87 87 3f bd 1a de 92 bd
       -0.048521236 0.0122056035 -0.04676011 -0.07171269
000330 d6 0b 1a 3b 2e e0 17 be 1d 17 86 bd 4b 4d 87 bd
       0.002350559 -0.14831612 -0.06547377 -0.06606539
000340 1e c5 12 be 5c 64 d8 3d e5 33 b1 bd 90 d0 bd bd
       -0.14333007 0.10566017 -0.08652476 -0.09268296
000350 0d 6f d0 3c e5 43 80 3d 9a 4c 07 3e 03 3e 10 bd
       0.025443578 0.0626295 0.13212815 -0.03521539
000360 c1 4c 1e ba ca 70 de bd fb 53 ce bd 33 f9 95 bd
       -0.0006038659 -0.108613566 -0.10074612 -0.073229216
000370 74 48 02 3d b9 74 83 bd 1f 43 b5 bc 51 c6 03 3d
       0.031807378 -0.064187475 -0.022126732 0.03217155
000380 8b 6d 86 3d 7b d9 c1 3d ec 8d cc 3c a2 91 60 3d
       0.065638624 0.09465309 0.024970017 0.054826386
000390 6e c8 09 bd 79 2f 3b 3d 40 6f da bd 89 1b 92 3d
       -0.03363841 0.04569957 -0.106657505 0.07134158
0003a0 d8 c7 e1 bd ac 94 75 3c ee 29 15 be e8 cf 6a bd
       -0.11024445 0.014989059 -0.14566776 -0.05732718
0003b0 fc 20 83 3d 90 c7 12 bd 10 bb 65 3d f4 cb d3 bc
       0.06402776 -0.03583485 0.0560866 -0.025854088
0003c0 55 aa 9b 3d 23 d4 f9 3d cb 18 85 bd e6 54 91 bd
       0.07600848 0.12198665 -0.064988695 -0.07096271
0003d0 5e bd c0 bc 8a 49 1c bc 60 bd 7a 3d 06 cc b6 bd
       -0.023527797 -0.009539017 0.06121576 -0.08925633
0003e0 f5 89 bd bd b1 1c 96 3c 23 b6 0e be d7 1d e2 bd
       -0.09254829 0.018324228 -0.13936667 -0.11040848
0003f0 e1 ce 2e 3d f1 f8 d3 bd 98 42 00 3e 66 f4 a4 bd
       0.042677764 -0.10350216 0.12525403 -0.08054428

lstm.bias_ih_l0 f4 [256]
000000 d0 ce 7f bc e6 1e 2c 3c 22 f1 38 ba da ff 0c be
       -0.015613273 0.010505414 -0.00070549746 -0.13769475
000010 91 3d 9d bd e5 eb b0 3d 2c eb 5d 3d f7 9a 2c 3e
       -0.076777585 0.08638743 0.054179356 0.1685599
000020 82 76 04 3e 2f 43 a7 bb 5a be d6 3d 0c 62 8a 3c
       0.12935832 -0.0051044445 0.104855254 0.016892456
000030 fc 9a af 3d 0d 23 84 bd dc 8f 51 bc 41 c5 84 3d
       0.08574483 -0.06451998 -0.012790646 0.06482936
000040 ff d7 68 3d b4 a7 84 3c 61 16 1a 3e 93 33 03 3e
       0.056846615 0.016193248 0.150476 0.12812643
000050 05 fb 88 bd 00 d4 ba 3c 13 d3 3a 3b e1 48 c2 3d
       -0.06688503 0.022806168 0.0028507158 0.09486557
000060 38 9e da bd 11 3f fe 3d e2 64 36 3d 6e 02 ec 3d
       -0.10674709 0.12414373 0.044529803 0.11523901
000070 72 43 26 bd 00 fe 37 3d 6e 56 c6 3d fd ce 0d 3e
       -0.040591665 0.044919968 0.09684454 0.13848491
000080 71 e2 c9 bc a3 dc b6 3d 65 1b 0b bc 4d 64 d3 3d
       -0.024644108 0.08928802 -0.008490418 0.10321865
000090 fc e2 cd 3c 1e 63 99 3d c6 a8 cf bd 0e 62 3c 3d
       0.025132649 0.07489608 -0.10139613 0.04599195
0000a0 d8 77 8d bd f2 81 06 bd 60 a6 0f bc 9c 4a e2 bc
       -0.06907624 -0.03283877 -0.008767694 -0.027623467
0000b0 15 45 ff 3d 60 74 bd 3d 7d a5 97 3d 23 fb 75 bd
       0.12464348 0.092507124 0.07404611 -0.060053956
0000c0 28 f7 e0 3d 4d 69 17 3e eb 32 a3 3b e6 42 81 bd
       0.10984641 0.14786263 0.004980435 -0.06311588
0000d0 4f 61 23 3e cb ec e4 3d ba c0 a8 3d 62 f8 ac bd
       0.15955089 0.11177977 0.08239885 -0.08445813
0000e0 79 5c a1 bd 0b 24 d4 3d c8 e0 d7 bd f5 b3 91 3d
       -0.07878966 0.10358437 -0.105409205 0.07114402
0000f0 80 c2 bb 3d f0 ab 4c b7 98 19 f0 bd 16 01 08 be
       0.09167957 -1.219938e-05 -0.117236316 -0.13281664
000100 c0 19 fa 3d 0f ce b7 3c fb 2b 4a 3d 35 d8 5c bd
       0.12211943 0.022437124 0.04935835 -0.05391713
000110 be 79 88 bd 5c 62 59 3d 38 e0 cb bd b3 22 75 3d
       -0.066638455 0.05307232 -0.09954876 0.059847545
000120 68 98 bc 3b cf aa e4 3d d9 52 1a bd 3e 55 4b bb
       0.005755473 0.11165392 -0.037676666 -0.003102615
000130 cf 48 a4 bd eb 8c aa 3d b5 56 5f 3b b7 6e 43 bd
       -0.080217 0.08327659 0.003407878 -0.047713008
000140 3d e6 37 be a5 b9 c6 3d fc 9f 1a 3e 12 5a 86 bd
       -0.17958923 0.09703378 0.15100092 -0.06560148
000150 a7 f3 3b 3c aa f0 d6 bc 5a 78 cc bd a2 33 c0 bd
       0.011471665 -0.026237804 -0.09983893 -0.09384848
000160 83 41 94 bd 05 df cc 3c d0 b0 a6 bd a6 c9 3e 3e
       -0.07239058 0.025008688 -0.08139193 0.1863161
000170 d8 d1 78 bc 2f 32 a8 bd 3e 68 75 bd a9 99 0c 3e
       -0.015186749 -0.08212697 -0.059913866 0.13730492
000180 b0 71 7f bc 88 ac 33 3d 7b 9c fe 3c c0 3b fc 3d
       -0.01559107 0.04386571 0.031080475 0.12316084
000190 bf ab b5 bd 08 8f 55 3c c3 b3 96 3d 96 23 38 bd
       -0.088706486 0.01303459 0.073585056 -0.044955812
0001a0 90 83 9d bd a4 1d 82 3c 52 48 30 3b b0 1f 78 bd
       -0.07691109 0.015883274 0.0026898575 -0.060577095
0001b0 1f f6 95 bd a3 bc be 3b c8 28 48 3c 27 6f be bd
       -0.073223345 0.005820827 0.012216754 -0.092985444
0001c0 0f 9b 79 bc 9d ba 39 3c 67 2c dc 3d 05 80 69 3d
       -0.015234723 0.011335996 0.107506566 0.057006855
0001d0 8e ab db 3d 6e e8 19 bd 0a bd aa 3d 3b a7 65 bd
       0.10726081 -0.037575178 0.083368376 -0.056067687
0001e0 94 60 6e 3d a6 53 99 bd 6b 3a d1 3d 7d ae ff 3c
       0.058197573 -0.07486658 0.102162205 0.031211132
0001f0 ab 2c a0 ba 5c ef 34 bc 59 ba b3 3d f2 34 48 3d
       -0.0012220343 -0.011043396 0.08775777 0.048878618
000200 50 8c 85 3d 0e 4e 32 3b b6 66 83 bd 11 e5 9a bd
       0.06520903 0.0027207169 -0.06416075 -0.07563222
000210 cb 33 0c be 32 1b 75 bd 4d 61 d7 bc f3 4b c3 3b
       -0.13691632 -0.05984039 -0.026291514 0.0059599816
000220 36 ad ce 3d c8 77 78 3d 83 a4 ff 3c ef 32 b2 3d
       0.10091631 0.060661107 0.031206375 0.08701121
000230 31 65 f8 3d a6 b6 60 3d 43 d9 99 bb c9 0a b0 3d
       0.12128676 0.054861687 -0.004695089 0.08595807
000240 85 49 ad bd 31 df 9b 3d c3 58 a4 3d f6 8c 16 be
       -0.08461288 0.0761093 0.080247425 -0.1470221
000250 12 12 c2 bd 66 7d 48 3c 0b 94 56 3d 4d a1 af 3d
       -0.09476103 0.012236929 0.05238728 0.085756876
000260 54 2a d1 bd 26 f5 20 3e fb b5 0b 3c 3c 29 5b bc
       -0.102131516 0.15718517 0.008527274 -0.01337653
000270 25 80 23 bd 3e 69 87 3d 68 60 e8 3c c5 18 14 3d
       -0.03991713 0.0661187 0.028366283 0.036156435
000280 76 e3 08 be 91 96 d7 bc e3 cf 0c be b0 9f 1e be
       -0.1336802 -0.026316913 -0.13751177 -0.15490603
000290 6c 29 82 3c b6 ee 28 bc 7a 21 f6 bd 4f 84 e1 bd
       0.015888892 -0.010310819 -0.12018104 -0.11011564
0002a0 4b b7 03 3e f7 1c 14 3e 44 49 fd bd 43 87 ca bd
       0.1286289 0.14464174 -0.1236749 -0.098890804
0002b0 9f 42 9d 3d 8b 15 0d 3c 5c 5c b1 3c b4 ce 91 bc
       0.076787226 0.008611093 0.021650486 -0.017798759
0002c0 d3 61 8f 3d 57 43 17 be 3c c7 13 be 9a 2e a2 3d
       0.0700108 -0.14771782 -0.1443147 0.07919045
0002d0 87 72 b4 3d 68 23 6c 3d 18 7c 8c bd 19 2c 98 bd
       0.08810907 0.057650954 -0.068596065 -0.07430286
0002e0 2d c9 6c bd e4 f9 aa bd de 6f b8 bd 89 b4 a7 3d
       -0.057809044 -0.08348444 -0.09005712 0.08188731
0002f0 3a 5d ab bd 21 7e 13 be 2f b5 00 bc 09 c5 b4 3d
       -0.08367391 -0.14403583 -0.007855698 0.08826644
000300 53 ca 9a 3c 80 b0 a2 bd 83 04 bc 3d 15 a8 a2 bd
       0.018895304 -0.07943821 0.09180548 -0.07942215
000310 9d 22 c1 3d 70 b0 94 bd 9f ae 1e 3e b2 fd da 3b
       0.0943043 -0.07260215 0.154963 0.006683075
000320 99 fc 14 3e 83 79 a5 3d ff 88 0e 3e d5 37 62 3d
       0.14549483 0.08079817 0.13919447 0.055229027
000330 da b6 f4 bc 43 72 a9 3c 2a cd 0d 3e 64 3c 31 bd
       -0.029872347 0.020684367 0.13847795 -0.043270484
000340 b2 4e 91 3d 92 5d 74 3c 47 0a 02 3e 04 c7 8b bd
       0.07095088 0.014914887 0.12699233 -0.068250686
000350 1e 5e 8a bd a1 fc 9e 3d 7f 72 e4 bc c9 f1 2e bc
       -0.06756233 0.07763029 -0.027886627 -0.010677763
000360 ef 43 a6 3c 39 25 40 3e c3 42 b8 bd e4 60 4b 3d
       0.020296065 0.187642 -0.08997109 0.04965295
000370 e9 0c 4d bd 12 ed dd 3b 4d 9a ab bc a3 a8 10 3e
       -0.05006114 0.0067726457 -0.0209476 0.1412683
000380 01 8d c0 3d d5 57 9b 3d 03 f2 34 bc 03 e2 d9 3d
       0.09401894 0.07585112 -0.011044028 0.106388114
000390 48 cd a3 bc 24 a9 82 bd bb 62 ab bd 17 af c1 bc
       -0.019995347 -0.06379917 -0.08368441 -0.02364306
0003a0 50 48 64 bd 6d aa e9 3d 47 c2 1a 3d a8 9c c8 bc
       -0.055733025 0.11409459 0.037782934 -0.024488762
0003b0 20 ed 78 bd 4d 17 08 3e 7a f9 de 3d 4b 32 93 bd
       -0.060773015 0.13290139 0.10887428 -0.07187327
0003c0 fb 3d 20 3e 20 0b 98 3c 75 56 d3 bc 0e 9b 70 3d
       0.15648644 0.018559992 -0.025798062 0.05874162
0003d0 92 62 11 bd 4a 87 ff bd 1a ac 05 3d 31 0d 0b 3e
       -0.035494395 -0.12476976 0.032634832 0.13579251
0003e0 49 91 d7 3d 8e 1d fb 3d bf d5 83 3d 93 02 4f 3d
       0.10525758 0.122614965 0.06437253 0.050539564
0003f0 ae 91 19 3d dd a3 fb bc 91 d3 e5 3d cc 1d c1 3d
       0.037492447 -0.030717785 0.11221994 0.094295114

lstm.bias_hh_l0 f4 [256]
000000 c6 4d 91 bd 92 d0 f5 bd 57 9c 79 3c 36 02 be bd
       -0.07094912 -0.12002672 0.015235028 -0.092777655
000010 98 0c f8 bc 1c 3f ed 3d 66 a2 00 3c 5d f8 29 3e
       -0.030279443 0.11584303 0.007851219 0.1659865
000020 70 37 6b 3c d8 4a 97 3c e1 20 ec 3c 35 fa db b9
       0.014356479 0.018468305 0.028824272 -0.00041957354
000030 3c 51 3c 3b 73 7a d3 bc de 34 75 bd b9 51 8f 3d
       0.0028734943 -0.025815224 -0.05986487 0.06998009
000040 cf ab 81 3d fe a7 be 3a ee cc 88 3d e4 27 cb bc
       0.06331598 0.0014545915 0.06679712 -0.024799295
000050 17 fb cc bd 7b b4 ce 3d d6 ed fd 3c 3b 6c 8e bd
       -0.10008829 0.10093018 0.030997198 -0.06954237
000060 78 eb c4 3d 35 d4 25 3d 04 f3 c7 bd 1e 7a 13 bd
       0.096152246 0.04048558 -0.097631484 -0.036005132
000070 aa 48 15 bd 69 aa 92 bd 7b d9 55 3d 6b 6c 22 bd
       -0.03644625 -0.071614094 0.05220936 -0.039654177
000080 be 3f 63 bd 19 a4 04 3e 15 a0 d0 bb a5 4d 1e 3d
       -0.05548071 0.12953223 -0.0063667395 0.038648266
000090 03 fc e1 bb 3c f9 17 3d 02 71 a5 bd cc 7a 81 bd
       -0.006896497 0.037102923 -0.08078195 -0.0632225
0000a0 d0 7c 7e bd 1d 89 30 bc 2d df 89 3d f9 dd 8c 3d
       -0.06213075 -0.010774878 0.067320205 0.068782754
0000b0 c1 68 d1 3d 44 ef 82 bd af b7 bb bd 2b 7e 34 bc
       0.10225058 -0.063932925 -0.09165894 -0.011016409
0000c0 fe 62 09 3e 7c 11 0e 3d 12 80 0d 3e 0e ed d6 3d
       0.13416669 0.034684643 0.13818386 0.10494433
0000d0 48 ca 12 3e fc 87 6a bc a3 0c 6e 3d cb 57 33 bd
       0.14334977 -0.014314648 0.05811752 -0.043784898
0000e0 fd a9 d3 3c 78 8d 81 3d a6 2c 93 bd 13 36 8d bd
       0.025837893 0.06325811 -0.071862504 -0.068950795
0000f0 0f cd 35 bd 3b 5e 20 3d ea 33 b4 bc 11 7b cb 3c
       -0.044385012 0.039152365 -0.02199741 0.024838956
000100 8a ae 31 bd cf 82 bc 3d bb 69 90 bd c2 fc b1 3d
       -0.043379344 0.09204637 -0.070514165 0.08690788
000110 93 17 c2 3d ae 48 cc 3d b6 c7 99 bd b0 00 92 bd
       0.09477153 0.099748 -0.07508795 -0.071290374
000120 b4 fd 2c bd 7f 62 40 bd fe 2a c3 3a 2b 55 0b 3c
       -0.042234138 -0.046968933 0.0014890132 0.008504192
000130 d3 5d 71 3d 56 c9 fc 3d 5d 4b 99 3d 56 3a 5f bb
       0.05892737 0.12343089 0.074850775 -0.003406187
000140 15 2a d1 bd 14 d5 39 bd 68 da 11 3e 35 73 cf bd
       -0.10213105 -0.045369223 0.14243472 -0.10129396
000150 31 fb 92 3c f1 d1 d8 bd 58 76 87 bd 28 0e c9 bd
       0.017942043 -0.10586918 -0.06614369 -0.09817153
000160 70 a9 35 be e0 5f 0e 3c 29 21 80 bd 4b 13 b8 3d
       -0.17740417 0.008689851 -0.06256325 0.08988055
000170 69 07 e9 3d b5 8c 85 bc 29 32 6c 3d 5b bd 1d bd
       0.113783665 -0.016302446 0.057665024 -0.03851066
000180 04 05 b0 3d fc cb bc 3d 8c f8 df bc 82 cd 9e bd
       0.08594707 0.092185944 -0.027340196 -0.07754041
000190 17 ea cc 3d a5 1e 78 3d cd fc 98 3d 1e 60 c3 ba
       0.100055866 0.0605761 0.07470093 -0.0014905964
0001a0 7e 0d 15 3d 2e 52 8b 3d bf b9 04 3d ad b3 f4 bc
       0.03638982 0.06802784 0.032403704 -0.029870832
0001b0 89 c3 77 3d 4c fc 97 3d c7 8f 2d bd b9 b5 ec bd
       0.06048921 0.07421169 -0.042373445 -0.11558098
0001c0 d3 f4 8e bd cb 2b 81 3c db 99 c4 3d 62 f7 af 3c
       -0.0698029 0.015767952 0.09599658 0.021480266
0001d0 8a d0 e6 3d 7f 32 5b bc 14 bb ce 3d e1 a4 99 bd
       0.112702444 -0.013378738 0.10094276 -0.07502151
0001e0 8e 01 a1 3d 92 3a 78 3d 1c 9d 16 3d ae 40 36 3d
       0.07861625 0.060602732 0.036770925 0.044495277
0001f0 96 fe d7 bd ef 7b 18 3e c8 79 96 3c e9 7a 00 be
       -0.10546605 0.14891027 0.018368617 -0.12546887
000200 76 02 99 3d a3 ab 65 3d ac 78 e9 3d 37 ab d5 3d
       0.074711725 0.05607189 0.113999695 0.10433047
000210 4a 1e 00 3c b0 5d 63 3d cd 6f 1d 3e 0f ba ae 3d
       0.0078197215 0.05550927 0.1537468 0.085315816
000220 b8 8a 6c 3d fa 0a 8c 3c cb 4d ee bd 2a 09 9c 3d
       0.05774948 0.017095078 -0.116359316 0.076189354
000230 ae 51 92 bd b8 97 2f bd 08 cf 16 be 20 c1 10 be
       -0.071444854 -0.0428693 -0.14727414 -0.14136171
000240 dc e7 ef bc f9 45 eb bd 61 51 90 3d e0 a9 12 3b
       -0.029285364 -0.114879556 0.07046772 0.0022379085
000250 60 92 bb bc 76 55 16 3e 6c c6 5e 3d 9a c5 69 3d
       -0.022896945 0.14681038 0.05438845 0.057073213
000260 fc 8f 8f bd 45 2c 7f bd 80 2c dc bc ab b8 c6 3d
       -0.07009885 -0.062298078 -0.026876688 0.09703191
000270 b8 65 ed bd bb 76 d2 bd 7a 11 c8 bc 5f ff 8f 3d
       -0.11591667 -0.10276552 -0.024422396 0.0703113
000280 99 9b 2b 3d 74 77 c4 3b 25 d3 60 bd c0 9d a1 bd
       0.041896436 0.0059956852 -0.054888863 -0.078914165
000290 f7 17 f6 bc a9 a7 cc 3d 1a 88 d0 bd c0 90 f9 bd
       -0.030040724 0.09992916 -0.10182209 -0.12185812
0002a0 fa 51 83 bb 79 2e 0b 3d df c1 cb 3c 25 53 39 3c
       -0.004007575 0.033979867 0.024872718 0.011311327
0002b0 0a 39 f9 3d 61 24 26 bc ca 20 96 3d a8 bc 86 bd
       0.121690825 -0.010140509 0.07330473 -0.06578952
0002c0 3b d3 a0 bd b6 d7 c7 bd 41 cb 9f 3d 61 c9 58 bd
       -0.07852789 -0.097579405 0.078024395 -0.052926425
0002d0 1a a9 9c bc 2f eb cc 3c e0 04 e9 bd 03 de be 3c
       -0.019123603 0.025014488 -0.11377883 0.023299223
0002e0 b3 14 c0 bd 20 7e b4 3d 88 01 e7 3d d1 dc b4 3d
       -0.09378948 0.08813119 0.11279589 0.0883118
0002f0 7f ca 7d 3d ea 3d 3e 3d c2 90 91 3b d7 8b e4 3c
       0.061960693 0.046445765 0.0044423053 0.027898712
000300 06 4f e7 3c e2 62 97 bc b5 1c 1f 3d 6f 3d d4 bd
       0.028235923 -0.018479768 0.038845737 -0.1036328
000310 c6 ed db bd 77 36 76 3c 5d 9e b8 bc c5 f2 8e bc
       -0.10738711 0.015027634 -0.022536451 -0.017449746
000320 ef df b1 3d cb 1a 83 bc 1b 04 26 3e 23 a4 0d bd
       0.0868529 -0.016003987 0.16212504 -0.03458036
000330 c4 b3 93 bd 18 ff 47 3d f1 8b 4e 3d ea 3e b9 3d
       -0.07212022 0.04882726 0.050426427 0.09045203
000340 b4 f3 8b 3d 68 9d 1f bd 35 79 a3 bd 6f e5 c9 3d
       0.06833592 -0.038968474 -0.07982103 0.09858214
000350 56 51 a3 bc 4a 4c 14 3e 93 ba 63 bd f9 40 06 3e
       -0.019936245 0.14482227 -0.055597853 0.13110723
000360 49 68 aa 3c d6 a3 63 3d b9 1f 13 bd 9c 83 34 3e
       0.02080168 0.055576168 -0.035918925 0.1762833
000370 c9 d8 d3 3d ce 4a d2 bd b6 ae 7d bc 93 f5 3f bc
       0.10344083 -0.10268174 -0.015483549 -0.011716264
000380 45 ae 6b 3d 19 ed 2a bd e2 96 6a bd 88 5b 36 3d
       0.057539243 -0.04173002 -0.0572728 0.044520885
000390 25 9b 55 3d 69 ab 0b bd d2 bb 89 3d 46 db ff 3d
       0.05214991 -0.034099016 0.06725277 0.12492995
0003a0 55 7a a2 bc d6 77 22 3e 61 32 a4 3d 5c 25 20 3d
       -0.019833723 0.15866026 0.080174215 0.03909813
0003b0 68 53 9a bc 1e f3 06 3e 84 1f a8 3d d7 d7 d8 bd
       -0.0188386 0.1317868 0.08209136 -0.10588043
0003c0 52 ec b4 3d 27 30 5b bd ce 9a 2c bd c2 e0 5d bd
       0.08834137 -0.05351272 -0.04213982 -0.054169424
0003d0 28 72 81 3d 2b 60 38 bd d6 a9 54 3c 43 17 11 3e
       0.06320602 -0.045013588 0.012979945 0.1416903
0003e0 b0 5c 00 3d 6f b2 9d bd 41 4d 79 bd a0 39 aa bd
       0.031338394 -0.07700049 -0.06086469 -0.08311772
0003f0 21 86 15 bd a8 18 ed 3d b0 ae 46 3d cb 54 3e bd
       -0.03650487 0.115769684 0.04850644 -0.046467584

lstm.weight_ih_l1 f4 [256, 64]
000000 28 2b e1 3d 80 96 d2 bc 7e d3 14 3e df 2e 43 bd
       0.109945595 -0.02570653 0.14533803 -0.04765212
000010 71 2a c3 bd 20 b6 9b bd 6d 5c ac 3c f1 e1 25 3e
       -0.095295794 -0.07603097 0.021040166 0.16199471
000020 ff ac 4f 3d c0 a3 8b bd 9f df 16 3d 59 34 de 3d
       0.05070209 -0.06818342 0.036834355 0.10849828
000030 ac f6 46 bd fb fc a9 3b 61 55 b8 3d 69 1f dd 3d
       -0.04857509 0.0051876283 0.0900066 0.10797007
000040 75 0b b1 3c cf 0b c8 3d 9a f5 55 3d 4b 74 98 ba
       0.021611908 0.09767877 0.052236177 -0.0011631338
000050 56 9c 8f bc e6 75 61 ba 55 a8 93 3c 8f ff ae 3d
       -0.017530601 -0.0008600637 0.018024603 0.08544838
000060 e2 86 12 3d 60 3b b2 bc 9a 68 16 3e cc 14 4d bc
       0.035773166 -0.021756828 0.1468834 -0.012517165
000070 0b 31 9b bd 00 54 44 3d 29 dc 36 3d b8 5f e2 3d
       -0.075777136 0.04793167 0.044643555 0.11053413
000080 e6 87 d9 bc 2b 28 24 be 46 d1 02 3e 8a 48 cc bc
       -0.02655406 -0.16030948 0.12775144 -0.024936933
000090 b9 c5 32 3d 9d 30 19 3e 60 ef 7e 3d 19 4a 8f 3d
       0.043645594 0.14959951 0.062240005 0.06996555
0000a0 b5 49 4e 3d 95 67 1c 3e 34 c9 0a 3e 90 b4 03 3e
       0.05036326 0.15273888 0.13553315 0.12861848
0000b0 dd c3 a4 3d 70 9a c3 3d 20 10 52 3c 94 a7 9a bd
       0.080451705 0.09550941 0.012821227 -0.07551494
0000c0 04 36 0e bd 37 24 68 3d 95 f8 56 bd dd 8c 81 3d
       -0.034719482 0.056675162 -0.05248316 0.06325696
0000d0 2d 6e 62 3d b1 2e 56 bd c8 26 ac bd 7d 3b 6e bd
       0.055280853 -0.052290622 -0.084058344 -0.0581622
0000e0 2d af 7e bd 60 32 80 bd 66 f5 31 bc a1 b3 0c bd
       -0.06217878 -0.06259608 -0.01086173 -0.034350995
0000f0 98 0b 9e 3d db 85 ca bd d8 c5 e6 3c 3a 41 f2 3d
       0.07717055 -0.09888812 0.028170511 0.11828847
000100 0e ea d1 3d a0 fd e6 3d f9 13 78 3d 4b 4e db bd
       0.102497205 0.11278844 0.060565922 -0.107082926
000110 58 53 ac bd 63 89 11 3d d4 13 2c 3d cd 86 50 3d
       -0.08414334 0.035531413 0.042011097 0.050909806
000120 6a d2 6f bd cc ad 66 bd c4 13 6b bc fe f6 a1 3d
       -0.058550276 -0.05631809 -0.014347974 0.07908438
000130 1c df ac 3d a4 1f cb bc 1b 46 0d 3d 43 7c b9 bd
       0.08440992 -0.02479536 0.034490686 -0.09056904
000140 8a f4 de bd 40 f0 0d 3d 0f 75 15 3e c6 87 b1 bd
       -0.10886486 0.03465295 0.14595436 -0.08668475
000150 e2 a4 99 bd 33 24 77 3d 16 64 01 3d b0 e4 7b bd
       -0.07502152 0.060337257 0.03158959 -0.06149739
000160 a2 39 ef bd cb 1c ec bd e4 6a 8c bd eb ba 89 3d
       -0.116809145 -0.11528929 -0.06856325 0.06725105
000170 69 b1 a1 bd f9 50 0c bd a4 04 ab bd bf 49 d2 3d
       -0.078951664 -0.03425691 -0.083504945 0.10267972
000180 30 67 85 3d 4d 37 eb ba 3d 74 e2 3c 5f 5c d0 3d
       0.06513822 -0.0017945558 0.027643317 0.101738684
000190 bd 71 87 bd 59 0b b2 bb c3 c8 6b bd 56 9a 8b bd
       -0.06613491 -0.0054334817 -0.05756451 -0.068165466
0001a0 4a b0 cb 3c 96 c3 78 3a 02 e7 1a be 5e ec a8 3d
       0.024864335 0.0009489594 -0.15127185 0.082482085
0001b0 ad 0e 99 bd be 73 7e 3d 81 2f 81 3d ec 91 ab 3c
       -0.07473502 0.0621221 0.06307889 0.020943604
0001c0 15 03 21 3e 3f 48 57 3d 7d bd b1 3d fc d2 41 3d
       0.15723832 0.052559134 0.0867872 0.04732035
0001d0 c8 22 a9 bc 12 7d d9 39 06 52 ab bd 99 f7 d9 bd
       -0.020646468 0.0004148265 -0.08365254 -0.10642929
0001e0 8e cb de bc 34 c9 87 bd 5d 24 33 3d a3 f3 86 ba
       -0.027196672 -0.06630173 0.04373585 -0.0010295998
0001f0 c4 0d 8b bd 66 55 51 bc fe 9e 01 be 67 05 13 bd
       -0.06789735 -0.012776708 -0.12658307 -0.035893824
000200 a4 dd 28 bd 0f 86 8f 3d c7 d7 c8 bc ca 14 3c bd
       -0.041226998 0.070079915 -0.024516953 -0.045918263
000210 d2 49 5f 3c 9f c6 25 3d 24 25 69 3d 60 b0 0a 3e
       0.01362844 0.040472623 0.056920186 0.13543844
000220 f9 fe 86 3c 6c bc 19 bc a3 6e 06 be d1 94 b1 3b
       0.016479002 -0.009383302 -0.13128142 0.0054193516
000230 99 a6 b7 3d 0c 4f 32 ba 7f 9e 3d bd 70 f0 48 bc
       0.08967323 -0.000680194 -0.04629373 -0.012264356
000240 0c fb 2e bd 4a 3b 8e bc 7a f9 e5 bd 1a 25 8a bc
       -0.042719886 -0.017362256 -0.112292245 -0.016863395
000250 64 ba 6f 3c 8a 74 80 bc 28 69 31 3c 9f b3 94 bd
       0.014631841 -0.01568057 0.010828294 -0.072608225
000260 cd 86 33 bd 67 34 01 3e f3 bb d5 3c c4 ea dd 3d
       -0.043829728 0.12617646 0.026090598 0.108357936
000270 d3 81 9f bd 3f b0 95 3c 31 e4 d3 3b 42 96 27 3d
       -0.07788434 0.018272517 0.0064664115 0.04091478
000280 3d e8 e6 bd 5a 0e e6 3c 7d f6 43 3d 1b 3f ec bd
       -0.11274765 0.028083015 0.04784249 -0.11535474
000290 02 f8 0e be 12 34 28 bc 99 08 52 bd 4b b4 0d be
       -0.13961795 -0.010266321 -0.05127773 -0.13838308
0002a0 da 66 f7 3c e9 7d 09 bd 3f 6f 4c bd eb 28 0f 3e
       0.03020041 -0.033567343 -0.04991078 0.13980453
0002b0 50 23 bd 3d 5c 18 12 3e 3a da d8 3d 57 ba 00 be
       0.09235251 0.14267105 0.105884984 -0.12571083
0002c0 6b 24 15 3e ca d8 fd bb d4 02 d5 3c 18 8c ab bd
       0.14564674 -0.0077467905 0.026002325 -0.0837633
0002d0 00 ae 76 3d 47 d7 5a 3d af dd 14 bd bb b5 6f bc
       0.060224533 0.05342796 -0.036344226 -0.01463073
0002e0 8e 8f 3e bd 6c 8c 20 3d e1 ef d1 bc c5 e0 88 3d
       -0.046523623 0.039196417 -0.025627078 0.066834964
0002f0 2b 8d e4 bd 5a e0 c2 bc 76 4c e4 3d 04 56 0c bd
       -0.11159738 -0.02378862 0.11147396 -0.03426172
000300 30 42 5e bd b5 84 6f 3d d4 d4 4f bd d8 5c 2b 3c
       -0.05426234 0.05847617 -0.050740078 0.010459147
000310 66 49 8e bd b1 d7 fe bd 0f 75 98 bd 5c 2c a1 3d
       -0.069475934 -0.124434836 -0.07444202 0.07869789
000320 62 07 19 3d f9 d3 cc bd 31 df 1d be 2b 77 09 3d
       0.037360556 -0.10001368 -0.15417172 0.033560913
000330 f7 85 00 3e 97 00 35 bd 6c bc 96 3b 43 85 a4 3d
       0.12551104 -0.044190016 0.0046000984 0.0803323
000340 3e 62 14 3e 37 46 ee 3d 78 44 51 3d 2f 20 48 3d
       0.14490601 0.11634486 0.051090688 0.048858818
000350 48 99 eb bd 49 88 ab bd 71 62 80 bd 7c c6 68 3d
       -0.115038455 -0.08375604 -0.06268776 0.056829914
000360 cc 17 c4 3d c5 6b 2a 3e f3 4a 7e bc af 6d ad bd
       0.095748514 0.16642673 -0.015520799 -0.08468186
000370 39 8e d5 bd e9 86 5e 3d 69 fb 8a bc db 12 12 3e
       -0.104275174 0.05432788 -0.016965585 0.14265005
000380 90 29 82 3c f8 02 a6 bd 50 e8 17 be 85 a7 d0 bd
       0.01588896 -0.08106035 -0.14834714 -0.10188202
000390 56 61 20 3c 31 00 85 3d 57 be 71 bd ca 47 3b bd
       0.009788832 0.06494177 -0.059019413 -0.04572276
0003a0 b3 51 30 bd ef 71 70 3d 16 c6 8c bd 3e 5c 4c bc
       -0.043046664 0.058702406 -0.068737194 -0.012473164
0003b0 95 fe 95 3d 2f cb d4 bc 52 33 cc 3b 76 8c ec bd
       0.07323948 -0.025975792 0.006231704 -0.11550228
0003c0 08 b1 95 bc de 2c 37 ba 64 90 8a bd e6 87 8b 3d
       -0.018272892 -0.0006987582 -0.067658216 0.0681303
0003d0 a0 fd 82 bd 43 c7 4c 3d 37 07 bf 3c 49 8b 96 bd
       -0.063960314 0.04999472 0.02331887 -0.07350785
0003e0 79 58 9d 3d 0b ae 6a 3d 9e e0 9e bc 03 d3 5e 3d
       0.076828904 0.057294887 -0.019394215 0.054400455
0003f0 8b 30 c2 3d 00 0f 6a 3d 69 8e 5e bd 0d f0 b1 3d
       0.09481915 0.05714321 -0.05433503 0.08688364

lstm.weight_hh_l1 f4 [256, 64]
000000 19 aa dd bd a3 5c 3e 3d 90 f4 d8 bd 91 eb 66 3c
       -0.10823459 0.046475064 -0.105935216 0.014094249
000010 fa aa 96 3c 4a 67 ce 3a 35 0f b8 bd a7 4b 9d 3d
       0.018392075 0.0015747335 -0.089872755 0.07680445
000020 97 a9 1a 3d 45 fb c6 3d 94 e6 ae bb 5f 9f 0c be
       0.03775939 0.097158946 -0.0053375456 -0.1373267
000030 92 88 d8 bd e9 44 d4 bd 0a 44 20 bc dd af 6e 3d
       -0.10572924 -0.10364706 -0.009781847 0.058273185
000040 a7 e1 cb 3c e6 32 e7 bc 76 c1 01 bd 13 bf 96 3d
       0.024887873 -0.028222512 -0.03167864 0.07360663
000050 8e f0 5b 3d c4 f5 fd bd 21 16 c6 bc 0e a9 9a 3d
       0.053696208 -0.12400392 -0.024180474 0.07551776
000060 3c 56 a0 3d 7f 3a 9b bc 88 49 0e 3e cf 92 6c 3d
       0.07828948 -0.018948792 0.13895237 0.057757195
000070 92 77 1e bc 0d 7f 1f bd 99 44 f2 3d 45 0d 9b 3d
       -0.0096720625 -0.038939524 0.1182949 0.0757089
000080 cb 6e be bd cb 0f 61 3d d8 69 b8 bd e1 1b ce 3c
       -0.09298476 0.054946702 -0.09004563 0.025159778
000090 a0 e6 d2 3d 46 7c af bd 62 10 aa bd 28 00 a4 3d
       0.102978945 -0.08568625 -0.08303906 0.08007842
0000a0 be ee 18 3d be 33 ba 3d c6 68 ac 3d ba e8 03 3e
       0.037337057 0.090919 0.084184214 0.12881747
0000b0 84 b5 86 bd a7 78 5a bd 5d 10 b8 3d c4 8a 4d 3d
       -0.0657759 -0.05333772 0.08987496 0.050181165
0000c0 6e 79 8f bc e1 1f fb 3d d9 43 1f 3d 8e 34 3b bd
       -0.017513957 0.1226194 0.038883064 -0.045704417
0000d0 74 c8 05 3e 40 9f 73 bd 78 a5 b9 3d 27 94 9d 3b
       0.13064748 -0.059478045 0.09064764 0.004808921
0000e0 76 a7 00 be c1 ec a4 3c cd 89 c1 bd fc b0 d3 bd
       -0.12563881 0.020132424 -0.094501115 -0.103364915
0000f0 71 80 f6 bc cb 78 1c 3d 71 56 dd 3d 91 ac 8e bd
       -0.030090543 0.038201135 0.10807503 -0.06966508
000100 59 72 17 bd 9b 7f 4a bd 5c 30 cd 3d bd fa c4 3d
       -0.036974285 -0.0494381 0.100189894 0.09618137
000110 8e 06 d8 3d f6 d3 91 bd dc b3 08 bc 16 c4 09 bd
       0.10548125 -0.071205065 -0.008343663 -0.033634268
000120 a5 08 d8 3d 7a af 86 bc d9 ac 12 be db ce f0 bc
       0.10548524 -0.016441096 -0.14323749 -0.029395511
000130 ba 1d b1 bd 13 7b 16 3d 44 2e 98 3d f4 72 ce bb
       -0.08648248 0.036738466 0.074306995 -0.0063003246
000140 4b 30 04 3e f6 6a 84 3d 20 37 d1 3d d5 71 79 bc
       0.12909047 0.06465714 0.102155924 -0.015224894
000150 61 ae b8 bd a5 5a 58 3d ec 72 6f 3b 43 c6 07 3e
       -0.09017635 0.05282082 0.0036537005 0.13259225
000160 5e b0 d4 bd 29 c4 41 bc a7 35 e2 3d ab 50 82 3d
       -0.10385202 -0.011826553 0.110453896 0.063630424
000170 fc 21 b2 bc f4 f5 19 be f6 63 1e 3e 59 f5 08 3d
       -0.02174472 -0.1503523 0.1546782 0.033437107
000180 5c a0 57 3d 32 c5 51 bd 25 8e 06 3e 0c f8 aa ba
       0.052643165 -0.05121345 0.13140161 -0.0013043894
000190 e1 56 ba 3d 29 d2 da 3d 68 7b f5 3d 20 01 a2 3d
       0.09098602 0.10684616 0.119864285 0.07910371
0001a0 10 30 64 bd 1b 36 a5 3b 65 fc da bb 54 91 55 bd
       -0.0557099 0.0050418503 -0.00668292 -0.05214055
0001b0 d7 cf a2 bd ad e8 a5 3d ad 91 30 3d f1 2d 8c bd
       -0.079497986 0.0810102 0.043107677 -0.068447
0001c0 8f ea c4 bc 37 39 61 3d a5 77 7b 3d 4b 83 20 bd
       -0.024037628 0.054986205 0.0613934 -0.03918771
0001d0 51 c6 18 3b c5 20 7b bd da 37 17 3b 0e de 6c bd
       0.0023311565 -0.06131055 0.0023074062 -0.057828955
0001e0 89 c4 36 bd 5c f0 19 3d 25 4e f9 bd 94 30 79 3d
       -0.044621024 0.03758274 -0.12173108 0.060837343
0001f0 77 5c 47 bd ed b9 93 3d 06 30 01 bc 04 65 90 3d
       -0.048672166 0.07213197 -0.007884985 0.07050517
000200 d8 03 78 3c 04 44 c1 3c ae 66 15 be 9e db c9 3d
       0.015137635 0.023592003 -0.1458995 0.09856342
000210 cc 38 57 3d 83 ae ac 3b f6 43 09 3e 9a ae c4 bc
       0.0525444 0.005269827 0.13404831 -0.024009038
000220 ad 57 ff 3d 9e 9e f5 bb b0 8f fc 3c 95 75 05 be
       0.12467895 -0.0074957153 0.030830234 -0.13033135
000230 2b 3b aa 3d 7d a4 e4 3b 76 52 04 be 25 73 7f bd
       0.08312067 0.0069776163 -0.12922081 -0.06236567
000240 63 87 3e bd a5 d4 10 3e dc c1 b8 bd 0d b4 48 3b
       -0.046515834 0.14143617 -0.09021351 0.0030624897
000250 34 89 7a 3d cb a3 12 be 47 56 c3 bd 9c 90 42 bd
       0.061166003 -0.14320295 -0.095379405 -0.04750119
000260 f6 66 04 be 64 6f a6 bd 37 c8 68 bd ab d5 f0 bc
       -0.12929901 -0.08126715 -0.056831565 -0.02939876
000270 78 11 01 be 6f 51 b0 bd 24 79 c4 bd 3a 89 ec bd
       -0.1260432 -0.08609282 -0.09593418 -0.115496114
000280 4f a8 90 bd df 03 8e bd 30 5a ad 3c 64 e8 b6 3d
       -0.07063352 -0.06934332 0.021161169 0.08931044
000290 fd ad 50 3b b6 a9 ec 3c b1 f5 e1 bd 80 a9 a4 3c
       0.0031841986 0.028889518 -0.1103319 0.020100355
0002a0 eb b8 3a bd ea 98 c1 ba 63 58 1c 3e 38 58 aa 3d
       -0.045586508 -0.0014770303 0.15268092 0.08317608
0002b0 40 b9 f4 bc ce 93 82 bc f7 84 8e 3c 1a 6d 92 bd
       -0.02987349 -0.01593962 0.017397387 -0.07149716
0002c0 6f 61 1d 3e 38 6d 4a bd c5 6f 39 3d 67 8c bc 3d
       0.15369199 -0.049420565 0.045272607 0.09206467
0002d0 f5 94 9b 3d 80 33 08 3e fb 01 24 bd 04 0a 3d bc
       0.07596771 0.13300896 -0.04004095 -0.011538032
0002e0 62 92 d7 3c 25 16 86 bd 52 bc 12 be 6c 98 bc bb
       0.026314918 -0.065471925 -0.14329651 -0.005755475
0002f0 f5 f5 b9 3d be 9a af 3d 90 91 7d 3d 5d 3f 93 3d
       0.09080116 0.085744366 0.061906397 0.0718982
000300 83 a3 e6 3d ce d4 a1 bd a4 2e 1f be 1b 3a 07 3e
       0.11261656 -0.079019174 -0.15545136 0.13205759
000310 ff bd 2a bd 5f e5 f3 3c a3 e2 67 bc 2a 41 39 3c
       -0.0416851 0.029772459 -0.0141531555 0.01130704
000320 44 6b 0e 3d 4e e5 0a 3e 9e b2 3f bd 0e 39 ca 3b
       0.034770265 0.13564035 -0.046801202 0.006171352
000330 c5 ce 0a bd 9e b0 5d 3d 01 99 07 bc ef 96 0b 3e
       -0.033888597 0.054123513 -0.008276225 0.13631795
000340 1e ae 05 be 78 1e 99 bd 94 c8 d9 3d 41 f6 aa bd
       -0.13054702 -0.074765146 0.1063396 -0.083477505
000350 02 1d 98 bd fe e0 a4 3c 3b f4 f6 bc d1 a8 c1 bd
       -0.07427408 0.020126816 -0.030145755 -0.09456027
000360 9e f2 06 bd 4f 53 87 3d bf d7 05 3d 8c 00 30 3b
       -0.03294622 0.06607687 0.032676455 0.0026855795
000370 7f b9 13 be a7 cb 5f bd 8b a1 b1 3d 85 7b 0a be
       -0.1442623 -0.054637577 0.0867339 -0.13523681
000380 58 d6 08 3e ba af 29 3d c2 1d fe 3d a9 d6 78 bc
       0.13363016 0.04142735 0.124080196 -0.015187898
000390 19 53 b1 bd 2a b7 95 3d 48 26 05 be a8 bc 15 3c
       -0.08658428 0.073103264 -0.13002884 0.009139217
0003a0 2e c2 14 bd b6 90 db bd 96 e1 00 3e f7 3e 26 bd
       -0.036317997 -0.10720961 0.12586054 -0.04058739
0003b0 d8 14 d0 3d 73 69 3e bc c2 f9 30 bd b6 19 f2 bd
       0.10160226 -0.011621821 -0.043206938 -0.1182131
0003c0 2e 06 1b bd bf a2 da 3d 8f 6f b7 3d 17 52 95 3d
       -0.03784769 0.106755726 0.08956825 0.07291048
0003d0 1d 78 d9 bd 62 c8 06 3c b6 a3 38 bd 49 2e 1d 3d
       -0.10618613 0.008226486 -0.045078002 0.03837422
0003e0 75 4e bc 3d 93 cf b3 3d 16 7b b0 3b c6 26 57 bd
       0.09194652 0.08779826 0.0053857667 -0.05252721
0003f0 c7 80 65 bd 8f 0a 25 bd 1a c8 80 bd 0d 6a 8d 3d
       -0.056031015 -0.040293273 -0.06288166 0.06904993

lstm.bias_ih_l1 f4 [256]
000000 57 67 14 3d 34 df df 3d 56 37 d5 3d 37 a3 81 bd
       0.036231365 0.109312445 0.10410945 -0.06329959
000010 29 3d d3 3c 2b a7 95 3d b2 bb b5 3d 06 7b 84 bd
       0.025786 0.073072754 0.08873691 -0.06468777
000020 74 5c 60 bc c3 a0 8d bd 54 8b 1e 3d 6f 02 b9 bd
       -0.013693918 -0.069154285 0.038707092 -0.09033667
000030 28 6d 52 3d 11 85 9f bd 7d 40 03 3d de 6b 99 3c
       0.05137363 -0.07789052 0.032043923 0.018728193
000040 d1 8b 77 bc 0f 2a ad bd dc 55 b6 3d 43 8a 0b 3e
       -0.015109018 -0.08455288 0.08903095 0.13626961
000050 bd 7c d3 3c cb 3f ba 3d db cc a3 bd 02 81 03 bd
       0.025816316 0.09094199 -0.079980575 -0.032105453
000060 b4 44 65 3c 65 90 0e 3e 1c 61 3e 3d df 8c e4 bd
       0.013993431 0.1392227 0.04647933 -0.111596815
000070 8f 0e 0e 3d d9 10 ff 3c c8 c8 20 3d 8d e0 c5 3d
       0.034681853 0.031135963 0.03925398 0.0966197
000080 52 7f ca 3d 8b b1 66 3c ec 5d 80 3d 26 37 a2 3c
       0.09887566 0.0140804155 0.06267914 0.019801687
000090 36 6a 4f bd 5b 38 08 3e 6a a6 d5 3c 74 df bd 3d
       -0.0506384 0.13302748 0.026080329 0.09271136
0000a0 9e 29 54 bd fa ae cf ba 72 22 82 bd fe 98 19 3a
       -0.0517975 -0.0015844994 -0.06354226 0.00058592844
0000b0 63 9e ff 3d 57 f6 03 bc 57 33 9f 3d 42 3c bf 3d
       0.12481382 -0.008054337 0.07773464 0.09337665
0000c0 6f 9f a1 bd 93 6b ff 3d a9 d6 85 bd 90 55 f4 3d
       -0.07891738 0.1247169 -0.06535084 0.11930382
0000d0 83 66 37 3c 6e 63 bd bd f8 ef 16 3d d9 05 12 3e
       0.011193874 -0.0924748 0.036849946 0.14260043
0000e0 40 d3 9e 3d c9 ed a7 3b 05 8a 52 3d 88 82 9b 3d
       0.077551365 0.0051247817 0.051401157 0.07593256
0000f0 a8 f5 e5 bd da ab 88 bd c9 96 b7 bd cc 90 e2 3d
       -0.11228496 -0.06673403 -0.08964307 0.11062774
000100 d9 c1 c4 bd b5 a7 de bc f9 45 b7 3d 93 4d 82 bd
       -0.09607286 -0.027179578 0.08948893 -0.06362452
000110 7e 71 ab b9 cf 35 ec 3d 05 76 58 3d ff ef 82 3c
       -0.0003270022 0.11533701 0.052846927 0.01598358
000120 ff c1 9c bd 71 58 a9 bd a4 19 f7 3a bc 99 07 3e
       -0.07654189 -0.08268822 0.0018852246 0.13242239
000130 f6 0f 39 3c c0 0b 99 3d 4d 09 44 3c 03 c3 6b bb
       0.011295309 0.07472944 0.011965108 -0.003597439
000140 5a c2 c8 3d db 70 d8 3c b0 a6 5d 3d 9d 5d 71 3d
       0.098026946 0.026421001 0.054114044 0.058927167
000150 7a f0 ac 3d 85 19 da 3d cf f8 fa bb 60 3a fb bc
       0.08444305 0.10649399 -0.007659055 -0.030667484
000160 83 5d 8e 3d ca a2 c2 3d e6 28 03 3e 18 17 a5 bd
       0.0695143 0.09503706 0.1280857 -0.080610454
000170 7b c3 bb 3c f0 25 b2 3d 17 3e 80 3d ba fa 0d 3e
       0.02292036 0.08698642 0.06261843 0.13865176
000180 9a 0e 0a 3d 60 71 80 bd e3 47 94 3c 67 a6 0f bd
       0.03370533 -0.062716246 0.018100685 -0.035070803
000190 c6 ed 1d 3d 31 e5 f1 bd c7 75 5b bd 2c c6 56 ba
       0.038556837 -0.11811293 -0.053579118 -0.0008192982
0001a0 8d 45 9b 3b a1 b3 ab bd 6d 27 02 3d 70 3f 6e bd
       0.0047385157 -0.08383871 0.03177588 -0.058165967
0001b0 23 ec bc 3d e5 24 ad bc 5d 53 f4 3d 63 b9 f3 bc
       0.09224727 -0.021135757 0.11929963 -0.029751485
0001c0 9d e1 65 3d 6e e9 b5 3d 5d 61 ea 3d 0c bd 10 be
       0.056123365 0.08882414 0.11444352 -0.14134616
0001d0 79 04 d8 3b 9f c2 a9 bd 03 a0 c0 bd 5f 38 63 bd
       0.00659233 -0.08289074 -0.0940552 -0.05547368
0001e0 18 2a 06 3e 4d cf 10 bd 0f 1b bc bc 4a c2 25 3c
       0.13101995 -0.035353947 -0.022962121 0.010117123
0001f0 24 f5 e3 3c c2 29 24 bc 9b b0 b1 bd 0a 62 48 3d
       0.027826853 -0.010019721 -0.08676263 0.048921622
000200 e4 e2 bd 3d 95 37 04 3e ea a3 22 3d cb 49 d3 3d
       0.092717916 0.12911828 0.039707102 0.10316809
000210 46 b5 38 3d 44 03 cf 3d 99 e7 12 3e 54 80 f4 bd
       0.04509475 0.10108045 0.1434616 -0.11938539
000220 62 dc 02 3e 34 8f 8c bd 9c ac c3 bd 45 f9 fe bc
       0.12779382 -0.06863251 -0.09554407 -0.03112472
000230 fa c9 93 3d 68 3e b9 bd 83 cd 58 3d 20 79 8d bd
       0.07216258 -0.09045106 0.052930366 -0.069078684
000240 c8 06 0e bd 4d 8e 00 3d c2 17 44 3d 73 1f 66 3b
       -0.034674436 0.03138571 0.04787422 0.003511396
000250 10 41 09 be b7 c4 84 3d bd c3 67 bd 18 87 dd 3d
       -0.13403726 0.06482833 -0.056583155 0.10816783
000260 34 33 09 3d 7d fc 38 bd 5f 21 d6 3c e7 dd d5 bd
       0.033496097 -0.045162667 0.02613896 -0.10442715
000270 c8 23 1e bb 6d e4 b3 bc 06 ce ee bc 4f f8 14 be
       -0.0024130214 -0.021959508 -0.029150974 -0.14547847
000280 32 f2 97 3d 51 89 88 3d 57 ea b8 3d 7d da 75 bd
       0.07419242 0.06666816 0.09029072 -0.06002282
000290 66 a1 b9 bd 7a 24 82 bd 8e 29 80 bc 39 e9 08 3e
       -0.090639874 -0.063546136 -0.015644815 0.13370217
0002a0 d3 f9 d9 bc fa b0 b1 bd c8 fe 9f 3b c8 b2 d1 3d
       -0.026608383 -0.08676334 0.004882667 0.10239178
0002b0 7e 64 e8 3d 9b fe 2b bd ff 64 fb 3d f6 9f a9 bd
       0.11347292 -0.041990858 0.12275123 -0.08282463
0002c0 50 1e d5 bd 34 a6 a1 bd 62 55 b4 bd 61 ff 48 3d
       -0.10406172 -0.07893029 -0.08805348 0.049071673
0002d0 94 2e 7f 3d 60 c5 a0 ba 7a ad 80 bc 6c ab f7 3a
       0.06230028 -0.0012265854 -0.01570772 0.0018895692
0002e0 58 4a b8 3d 56 92 2c bd 46 08 09 bd b2 54 89 bd
       0.08998555 -0.042131744 -0.033455156 -0.067056075
0002f0 36 67 28 3d 8e e4 f6 bb c0 c6 da bc e8 35 9c bb
       0.041114055 -0.00753457 -0.0267061 -0.0047671683
000300 89 eb d8 bd 17 5a 73 bd 5d 2e 00 bc 02 09 c3 bc
       -0.105918 -0.05941209 -0.007823554 -0.023808006
000310 c2 6f 05 be 78 62 92 3d c9 27 a1 bd 11 2e c3 bd
       -0.13030913 0.07147688 -0.078689165 -0.09530271
000320 59 fc 9b 3d 9a 1d 62 bd e6 49 e7 3d 61 b7 b8 3c
       0.07616491 -0.05520401 0.11293392 0.02254838
000330 1c 3a 02 be ce 96 1b 3e ef 00 e6 bd 97 df d1 bd
       -0.1271748 0.15194246 -0.11230647 -0.102477245
000340 50 6f f7 bd e8 ea 5b 3d 0e 96 b8 bd b8 4d a6 b9
       -0.12081778 0.05369082 -0.09012996 -0.00031719892
000350 43 58 da 3d 0f e4 9c bc 2d d1 04 3e f5 ef 02 be
       0.10661366 -0.019151716 0.12970419 -0.12786849
000360 59 fb a8 3d 69 43 dc bc ca 44 b2 bd 24 7c 0a 3d
       0.08251066 -0.026887612 -0.08704527 0.033809796
000370 6b e4 6c bd be 60 b6 bd 6b ee bc 3d 35 2a 95 bd
       -0.057835024 -0.08905171 0.09225162 -0.07283441
000380 0e fb 89 bd 9a 3c 47 bd 4c da 84 3d 39 71 75 3d
       -0.06737338 -0.04864178 0.06486949 0.05992243
000390 e4 87 a0 bd a4 ee d2 bd f1 8e e2 bd 29 e3 c9 3c
       -0.07838419 -0.10299423 -0.1106242 0.024644451
0003a0 96 2c 23 bd a4 71 dd bc 61 1b e6 3d 63 17 82 bd
       -0.039837442 -0.027031727 0.11235691 -0.06352117
0003b0 39 20 35 3c db 57 1c bd 4e 0d e2 3c 7b 55 02 3e
       0.011055046 -0.038169723 0.027594235 0.1272792
0003c0 1f 8c ab bd f5 55 f9 3d a2 2b fc 3d e8 80 d7 3d
       -0.08376335 0.12174598 0.1231301 0.10522634
0003d0 a6 8a 4f 3d cf ae ec 3d 8a 97 05 3e 33 c4 b1 bd
       0.050669335 0.115567796 0.13046089 -0.0868
0003e0 c0 20 b5 bc ba a1 2b bc 9e 22 af 3d 37 4e d0 bc
       -0.022110343 -0.01047557 0.085515246 -0.02542792
0003f0 83 b7 33 3d c7 b4 00 3e e8 7e 02 3e 72 32 90 3c
       0.043876182 0.12568961 0.12743723 0.01760218
